deepcluster_implementation/experiments/run_label_fraction_variation/config_1/final_model.pth.tar (torch, 203365 bytes, 32 tensors)

features.module.0.weight f4 [16, 1, 3, 3]
0	0x3f954905	1.1662909
1	0xbd14c778	-0.03632304
2	0xbef471ab	-0.47742972
3	0xbe0e2a57	-0.13883339
4	0x3eadc62c	0.33940256
5	0xbeb1e1d3	-0.34742603
6	0xbdb8d60f	-0.090252034
7	0xbe6b7042	-0.22992042
8	0x3fbde424	1.4835248
9	0xbf0f7843	-0.5604288
10	0xbad347dc	-0.0016119438
11	0x3f980853	1.187754
12	0xbf21a4a4	-0.63141847
13	0x3ee11e97	0.4396865
14	0xbd4882f4	-0.04895301
15	0x3fbd5554	1.4791665
16	0xbd480eb0	-0.048842132
17	0xbf3a33e5	-0.72735435
18	0xbf94100e	-1.15674
19	0x3e24deca	0.16100612
20	0x3f7d68ee	0.98988235
21	0xbef793cb	-0.48354945
22	0x3f30048a	0.68756926
23	0x3dd22020	0.102600336
24	0xbfad1033	-1.3520569
25	0xbde8428e	-0.11340819
26	0xbf000d44	-0.5002024
27	0xbf7f8372	-0.99809945
28	0xbf833a53	-1.0252174
29	0xbf6e504b	-0.9309127
30	0xbef0bc99	-0.4701889
31	0x3f048238	0.517612
32	0xbe0418b4	-0.12900048
33	0xbf201aba	-0.6254078
34	0x3ebfd25e	0.37465185
35	0x3f7ea9e5	0.9947799
36	0x3ed0453d	0.40677825
37	0x3dc38075	0.095459856
38	0x3e227abd	0.15867133
39	0x3de39361	0.11112095
40	0xbd46c88e	-0.048531108
41	0x3e8938c0	0.2680111
42	0x3f9a7f4c	1.2070098
43	0x3e823d5d	0.2543744
44	0x3fb63da0	1.4237556
45	0xbfa790b9	-1.3091041
46	0x3fb0d1d8	1.3814039
47	0x3e816ae3	0.2527686
48	0xbf47a024	-0.7797873
49	0xbe48471e	-0.19558379
50	0xbfcd2ed4	-1.6029916
51	0x3fc8b42a	1.5679982
52	0xbf578755	-0.84190875
53	0x3cefdc8d	0.029279971
54	0x3f2dccab	0.67890424
55	0x3fa2840b	1.2696546
56	0x3e87efd5	0.26550165
57	0xbf4d4a6b	-0.8019168
58	0x3f3b5209	0.7317205
59	0xbf568434	-0.83795476
60	0xbfbccdf2	-1.475035
61	0xbe988196	-0.29786366
62	0xbf9e2575	-1.2355181
63	0x3d897bd9	0.06713075
64	0xbfb4b23f	-1.4116896
65	0xbfa9a722	-1.325413
66	0x3e0824cb	0.13295285
67	0x3d41ba60	0.04729688
68	0xbee5fcf3	-0.44919547
69	0x3f85acdc	1.0443377
70	0x3faefc32	1.3670714
71	0x3f877de4	1.0585294
72	0xbd9188ba	-0.07106157
73	0xbfc8e269	-1.5694095
74	0xbfac7dcf	-1.3475894
75	0xbc287942	-0.010282816
76	0xbd80da1d	-0.06291602
77	0xbe0b4f98	-0.13604581
78	0x3ff5d1e3	1.9204677
79	0x3f84fcb0	1.0389614
80	0xc001f5af	-2.0306203
81	0xbf41d8b2	-0.75721276
82	0xbf308e3a	-0.6896702
83	0x3e40615c	0.1878714
84	0x3fdd72aa	1.7300618
85	0x3f239e28	0.639132
86	0x3f6bd9fc	0.9212949
87	0xbe8ec18d	-0.27882043
88	0xbf327b61	-0.6971951
89	0xbea98735	-0.33110967
90	0x3f90feee	1.1327798
91	0x3cc1e421	0.02366835
92	0xbd3620d2	-0.044464894
93	0x3d9da0ba	0.07696672
94	0xbf0bc711	-0.54600626
95	0xbf08eb43	-0.5348398
96	0x3f81e0ad	1.0146691
97	0x3eada570	0.3391528
98	0xbeb492a4	-0.35268128
99	0xbf7e45f7	-0.9932551
100	0x3e4cf0c9	0.20013727
101	0x3f96e63d	1.1789013
102	0xbecf3d47	-0.40476438
103	0xbd606012	-0.05477912
104	0xbc9cb651	-0.019129904
105	0xbee3fb2f	-0.44527575
106	0xbf6870bb	-0.90797013
107	0xbf74c488	-0.9561238
108	0x3f5c85c4	0.8614161
109	0x3c1c9b60	0.009558529
110	0x3f93abad	1.1536766
111	0xbd2557d4	-0.040366963
112	0xbeb213b7	-0.34780666
113	0x3e022b44	0.12711817
114	0xbf279ed9	-0.6547676
115	0xbf4b7636	-0.7947725
116	0x3f7534b2	0.9578353
117	0xbf2d1d48	-0.67622805
118	0x3f0a45c6	0.54012716
119	0xbfaa0d82	-1.3285372
120	0xbf1ac8f1	-0.6046286
121	0x3f68a079	0.9086986
122	0x3dad9a98	0.08476752
123	0xbf737c2f	-0.95111364
124	0x3e085478	0.13313472
125	0xbea014a2	-0.31265742
126	0xbf3bc689	-0.73349816
127	0xbc0984b0	-0.008393452
128	0xbf73ce4f	-0.95236677
129	0xbf9c789c	-1.2224307
130	0x404b3f16	3.1757255
131	0xbf2cb936	-0.6747011
132	0xbf8ae31e	-1.0850561
133	0x3eaa8fcc	0.33312833
134	0xbfb7515e	-1.4321706
135	0xbfa8521d	-1.3150059
136	0xbf834610	-1.0255756
137	0xbf840ce7	-1.0316437
138	0x3ea75134	0.3267914
139	0x3f26e4a9	0.6519266
140	0xbf8421e6	-1.0322845
141	0x3f4621f2	0.77395546
142	0x3ec556ae	0.38542694
143	0xbebb84f2	-0.36624867

features.module.0.bias f4 [16]
0	0xbd5fa49c	-0.054600343
1	0x3d87425d	0.06604455
2	0x3e2728a6	0.163241
3	0x3e82b38c	0.25527608
4	0x3e937a40	0.28804207
5	0xbe80600e	-0.25073284
6	0x3da2f96e	0.07957731
7	0xbe0b44b3	-0.13600425
8	0xbd0ded1c	-0.034649953
9	0xbe725aec	-0.23667496
10	0x3e93764e	0.28801197
11	0xbe6da4e9	-0.2320744
12	0x3e2d0d29	0.16899551
13	0x3de396f0	0.111127734
14	0x3dd27127	0.10275488
15	0xbe2f0f3d	-0.17095657

features.module.1.weight f4 [16]
0	0x3facddc4	1.3505177
1	0x3f81618f	1.0107898
2	0x3f9a8ac7	1.2073601
3	0x40096d9f	2.1473157
4	0x3fa4c87d	1.2873684
5	0x3fa916c7	1.3210076
6	0x3fadd551	1.3580724
7	0x3f772648	0.9654279
8	0x3fbb364d	1.4625946
9	0x3f5b7c10	0.8573618
10	0x3f79cab7	0.97574943
11	0x4007b3a6	2.1203399
12	0x3f83dc72	1.030165
13	0x40149cd7	2.3220727
14	0x3feda875	1.8567034
15	0x400dea8c	2.2174406

features.module.1.bias f4 [16]
0	0xc030e976	-2.7642493
1	0xc005e9dc	-2.0923986
2	0xbea1c441	-0.31595042
3	0xbf3e0940	-0.74232864
4	0xbff4c42d	-1.9122368
5	0xbf06f63c	-0.52719474
6	0xbed309d3	-0.41218433
7	0xbf061f9f	-0.52392
8	0xbecd71e2	-0.40125948
9	0xbf8c9b4f	-1.0984896
10	0xbfd9c633	-1.7013611
11	0xbf167eab	-0.5878703
12	0xbfb0618f	-1.3779773
13	0xbf39db9b	-0.72600716
14	0xbf2f3b34	-0.6844971
15	0xbeefd22b	-0.46840033

features.module.1.running_mean f4 [16]
0	0xbbcc3a43	-0.0062325313
1	0x3dc02b90	0.09383309
2	0x3dcabbd9	0.0989911
3	0x3e434c49	0.19072069
4	0x3ec849a4	0.39118683
5	0xbe85ecc0	-0.26157188
6	0x3c81695e	0.015797313
7	0xbde97db8	-0.11400932
8	0xbdb2d53d	-0.08732078
9	0xbe81e9b5	-0.25373617
10	0x3ead2641	0.33818248
11	0xbe91225f	-0.28346536
12	0x3e685528	0.22688735
13	0x3c93473c	0.017978303
14	0xbd39a490	-0.045322955
15	0xbe7bc4ae	-0.24586746

features.module.1.running_var f4 [16]
0	0x40061186	2.0948195
1	0x40024552	2.035481
2	0x40853f24	4.1639576
3	0x40e0f94f	7.030433
4	0x41190e47	9.565986
5	0x404284b6	3.03935
6	0x40d90e44	6.7829914
7	0x40e06399	7.012158
8	0x411de59c	9.868557
9	0x3fd04b0e	1.6272905
10	0x401d9032	2.461926
11	0x40af3f02	5.4764414
12	0x4026311b	2.5967472
13	0x403e6080	2.97464
14	0x40980209	4.7502484
15	0x40e812c6	7.2522917

features.module.4.weight f4 [32, 16, 3, 3]
0	0xbdc6e5ae	-0.09711777
1	0x3d522fc1	0.051315073
2	0xbe339698	-0.17537916
3	0x3d62d60d	0.055379916
4	0x3dc127d2	0.09431423
5	0xbe6e3788	-0.23263371
6	0xbdc3fdd0	-0.09569895
7	0x3e0b118c	0.13580912
8	0x3e8922dd	0.2678441
9	0x3cc94d70	0.024573058
10	0x3e7c4246	0.24634656
11	0x3efb794b	0.49115977
12	0xbddddadb	-0.10832759
13	0xbdeacb3c	-0.11464545
14	0xbc5329c4	-0.012888376
15	0xbd312260	-0.043245673
16	0x3e1ea6a7	0.1549326
17	0x3ed708a1	0.4199877
18	0x3e79ede7	0.24407159
19	0xbe26e0f0	-0.16296744
20	0x3e2f03f3	0.1709135
21	0x3d3aae29	0.04557625
22	0xbe83ffd5	-0.25781122
23	0x3d3bff72	0.04589791
24	0x3dd0fcad	0.10204444
25	0x3c198b28	0.009371556
26	0x3cad3532	0.02114353
27	0xbefa726e	-0.48915428
28	0xbed7aa83	-0.42122278
29	0x3dc844d1	0.09778751
30	0xbf0dfddd	-0.5546549
31	0xbdfdfcd6	-0.1240174
32	0x3b8ab982	0.00423354
33	0xbec024d9	-0.37528113
34	0xbe0807eb	-0.1328427
35	0x3ef675e2	0.48136812
36	0xbd22312f	-0.039597686
37	0xbda0c6a6	-0.07850389
38	0xbdddbbb4	-0.10826817
39	0xbcf54966	-0.029942226
40	0xbd231d74	-0.03982301
41	0xbc01a3bf	-0.007912575
42	0xbd9bda76	-0.076100275
43	0xbae3abe1	-0.001736995
44	0x3e15fa41	0.14646246
45	0xbe244176	-0.16040596
46	0xbc94db4b	-0.018170973
47	0x3e1f1b2f	0.15537713
48	0xbc541fab	-0.012947003
49	0xbd652721	-0.05594552
50	0x3d3b0c40	0.04566598
51	0xbe26645c	-0.16249222
52	0xbd44e951	-0.04807407
53	0xbe13f3a0	-0.14448404
54	0xbe4c3aba	-0.19944277
55	0xbdbcc84d	-0.09217892
56	0x3c8ebc95	0.017423907
57	0xbe741767	-0.23837052
58	0xbe492c17	-0.19645725
59	0xbe68dd4d	-0.2274067
60	0xbd98c6ac	-0.07459769
61	0xbe5590c6	-0.20856008
62	0xbec86660	-0.39140606
63	0xbe387a27	-0.18015347
64	0x3e815520	0.25260258
65	0x3ae2273e	0.0017254127
66	0xbe346595	-0.17616875
67	0x3e2326ac	0.15932721
68	0x3dd1bc76	0.10241024
69	0xbe10124c	-0.1406948
70	0x3d584ef5	0.052809674
71	0x3e6e36f7	0.23263155
72	0x3db84a2c	0.08998522
73	0xbe1ee1cd	-0.15515824
74	0xbeb4c04a	-0.35302955
75	0x3e8da8fc	0.27667987
76	0xbd6263ed	-0.055271078
77	0xbdef27b0	-0.11677492
78	0x3e385b0f	0.18003486
79	0xbd979345	-0.07401136
80	0xbdc8a380	-0.0979681
81	0xbecb0354	-0.39650977
82	0xbe22fe33	-0.15917282
83	0x3eb942c4	0.3618375
84	0xbec57b0c	-0.3857044
85	0xbea5c93f	-0.323801
86	0x3ea3be0d	0.31980935
87	0xbee124d2	-0.43973404
88	0xbe5a573c	-0.2132234
89	0x3e61f75d	0.22067018
90	0x3eb8ffa3	0.36132535
91	0x3dfff9bd	0.12498806
92	0x3ca6c20e	0.020356204
93	0xbd804ab0	-0.062642455
94	0xbc80e06d	-0.015732015
95	0xbdb5f2fc	-0.08884236
96	0xbd80d38d	-0.0629035
97	0x3e625ea4	0.22106415
98	0xbe7ee76e	-0.24892971
99	0xbe48875f	-0.1958289
100	0xbe0d19fa	-0.1377944
101	0x3ddff6d8	0.109357536
102	0x3dfc2356	0.12311427
103	0xbe36f3dc	-0.17866462
104	0xbd40d029	-0.047073517
105	0x3de463d0	0.1115185
106	0x3e04bca2	0.12962583
107	0xbef4ee7d	-0.47838202
108	0xbe03a5b7	-0.12856184
109	0xbeeb803b	-0.4599627
110	0x3e3919cd	0.18076248
111	0x3e00e5c6	0.12587652
112	0xbe6c50b6	-0.23077664
113	0x3c771b6a	0.01508222
114	0x3e0cbd1f	0.13744019
115	0xbd38894f	-0.045052823
116	0x3e0e8851	0.13919188
117	0xbee711ca	-0.4513076
118	0xbe8a8a54	-0.2705866
119	0xbf02822a	-0.50979865
120	0xbe7b36be	-0.24532601
121	0xbe065477	-0.13118158
122	0xbe6a02a4	-0.2285257
123	0xbe874c08	-0.26425195
124	0xbe2af0bc	-0.16693395
125	0xbf0ad2ef	-0.5422811
126	0xbea66eb8	-0.32506347
127	0xbe47f15b	-0.19525664
128	0xbecfa442	-0.40555006
129	0xbe59a54c	-0.21254462
130	0xbd10eed7	-0.035384025
131	0xbe3bf0b4	-0.1835354
132	0xbe7f3e3d	-0.24926086
133	0xbd99f776	-0.075179026
134	0xbf08d5b2	-0.53451073
135	0xbee8093f	-0.45319554
136	0xbe126b16	-0.14298663
137	0xbeee2cf5	-0.46518674
138	0xbd422100	-0.047394753
139	0x3d3f4e36	0.046705447
140	0xbe29b79e	-0.1657395
141	0xbcc52ee9	-0.02407022
142	0xbdd79b6b	-0.105276905
143	0xbe65bab8	-0.22434509
144	0x3ca15426	0.019693445
145	0xbdf527fd	-0.11970518
146	0xbee2d4d4	-0.44303
147	0x3e39ff1e	0.18163726
148	0x3c9fc51f	0.019503174
149	0xbe6f0b6d	-0.23344202
150	0xbd1f0eec	-0.03883259
151	0xbf1665e3	-0.58749217
152	0xbf0b4773	-0.544059
153	0x3b66abed	0.003519769
154	0x3c7b93d5	0.01535507
155	0xbca8ce81	-0.020606281
156	0xbdabd509	-0.083902426
157	0xbd2d4729	-0.04230419
158	0xbe8348f9	-0.2564161
159	0xbcae1ef9	-0.021255003
160	0x3dea8911	0.114519246
161	0xbdee6c67	-0.1164177
162	0x3d9492be	0.07254551
163	0x3cc061f7	0.023484213
164	0x3e9044d3	0.2817751
165	0xbb585e74	-0.0033015283
166	0xbe5b638b	-0.21424691
167	0xbdfca24d	-0.12335644
168	0x3dae8f9e	0.085234866
169	0xbdec42bd	-0.11536167
170	0xbdf9f718	-0.122053325
171	0xbe9180ee	-0.28418678
172	0xbe49d5c7	-0.19710456
173	0xbddb49e3	-0.10707452
174	0x3cae1560	0.021250427
175	0x3e49d395	0.19709618
176	0xbdf00467	-0.1171959
177	0xbd89ff82	-0.067381874
178	0xbd622267	-0.05520859
179	0xbf1cd1f8	-0.61257887
180	0x3e0d4d19	0.13798942
181	0xbd9abf4e	-0.0755602
182	0xbe69df41	-0.22839071
183	0x3d8f5dc1	0.07000304
184	0x3df6b5b3	0.12046375
185	0xbe14639e	-0.14491126
186	0x3e0456d1	0.12923743
187	0x3e013ac2	0.1262007
188	0xbea4197f	-0.32050702
189	0x3d055b51	0.03255779
190	0xbd622ca9	-0.055218372
191	0xbd077339	-0.03306887
192	0x3cf977fd	0.030452723
193	0xbd5ec04b	-0.054382604
194	0x3e0c9e4d	0.13732262
195	0x3cef27db	0.02919381
196	0xbd9b4515	-0.07581536
197	0x3e267898	0.1625694
198	0x3d9e5cdf	0.077325575
199	0x3cebe3c7	0.028795136
200	0xbdfdcb1d	-0.123922564
201	0xbea713ea	-0.3263238
202	0xbdf34b73	-0.11879625
203	0xbdb65562	-0.08903004
204	0xbece9fcb	-0.40356287
205	0xbe2649fd	-0.16239162
206	0xbe33234b	-0.17493932
207	0xbf37b924	-0.7176688
208	0xbf2488d7	-0.642713
209	0xbf3b495e	-0.73158824
210	0xbe9d9283	-0.30775842
211	0xbd95a7b9	-0.07307381
212	0xbe47e7b3	-0.1952198
213	0xbf386df5	-0.7204278
214	0xbf1c170d	-0.6097267
215	0xbf40ec98	-0.75361013
216	0xbda95186	-0.082675025
217	0xbd924867	-0.07142716
218	0xbd2f5aa3	-0.042811047
219	0x3e47e3a7	0.19520436
220	0x3dab670c	0.08369264
221	0x3e246d84	0.16057402
222	0x3c58b074	0.013225663
223	0xbdf055d8	-0.117351234
224	0xbde771b4	-0.11300984
225	0x3e1b6f85	0.1517926
226	0xbdf3584d	-0.118820764
227	0xbef84fb0	-0.48498297
228	0xbd46527e	-0.048418514
229	0x3dbb77ad	0.09153686
230	0xbe63c700	-0.22243881
231	0xbe1a1859	-0.1504835
232	0x3dd9d2a6	0.10635881
233	0xbce04c2a	-0.027380068
234	0x3e940619	0.28910902
235	0xbc18c8cd	-0.009325218
236	0xbc8a7abf	-0.016904233
237	0x3d5501a0	0.052003503
238	0x3c7133c6	0.014721816
239	0xbc56732d	-0.0130889835
240	0x3bbef162	0.005827115
241	0x3d93e810	0.07221997
242	0x3c0f7ea2	0.008758219
243	0x3cba627e	0.022752043
244	0x3c8ff697	0.017573638
245	0x3d8e35bd	0.069438435
246	0xbec3d003	-0.38244638
247	0x3dc64507	0.09681135
248	0xbd573d90	-0.052548945
249	0xbe01fac4	-0.12693316
250	0x3d812dff	0.06307601
251	0xbd9fc58b	-0.0780135
252	0x3c8d136c	0.017221175
253	0xbe026c6a	-0.12736669
254	0xbeb964ce	-0.3620972
255	0xbd436fe9	-0.047714148

features.module.4.bias f4 [32]
0	0x3ca83f0e	0.02053788
1	0x3d227df6	0.039670907
2	0xbd94019a	-0.07226868
3	0xbd61d290	-0.05513245
4	0xbd9b5f99	-0.07586593
5	0x3d1724f8	0.03690049
6	0x3d72d4c4	0.05928494
7	0xbd9b8d25	-0.075952806
8	0x3ca85d07	0.020552171
9	0x3c83552d	0.016031826
10	0xbd2dc2d7	-0.042422142
11	0x3c8be9c3	0.01707924
12	0x3d79ab61	0.060954455
13	0x3d9ecca6	0.07753877
14	0x3d0c03d3	0.034183335
15	0xbc8067b7	-0.015674455
16	0xbd383b4f	-0.044978436
17	0xbcf6a44b	-0.030107638
18	0x3a29f62a	0.00064835197
19	0xbbbe365c	-0.00580482
20	0x3d6c42f9	0.057681058
21	0xbd924f55	-0.07144038
22	0x3be73882	0.007056297
23	0xbccdf584	-0.025141485
24	0x3bd7fd5d	0.0065914826
25	0x3d9bafb2	0.076018706
26	0x3b17900b	0.0023126628
27	0xbc60a22f	-0.013710543
28	0xbcdb7d5f	-0.02679318
29	0xbda19132	-0.07889022
30	0xbd92ad5a	-0.071619704
31	0x3d0d156f	0.03444427

features.module.5.weight f4 [32]
0	0x3f33ed04	0.7028353
1	0x3fb6ef9c	1.4291873
2	0x3fb225a3	1.3917736
3	0x3f5687f2	0.83801186
4	0x3f31cfd1	0.6945773
5	0x3fb08467	1.3790406
6	0x3f667009	0.900147
7	0x3f33d4bd	0.7024649
8	0x3f44add3	0.76827735
9	0x3f7f20d8	0.9965949
10	0x3f7e156f	0.99251455
11	0x3fab9f48	1.3407984
12	0x3f2c3c07	0.67279094
13	0x3f398f2b	0.7248408
14	0x3fb89928	1.442174
15	0x3f4a1430	0.78937054
16	0x3fabdd6a	1.3426945
17	0x3faed767	1.3659486
18	0x3f735e4e	0.9506577
19	0x3f85ef78	1.0463705
20	0x3f950fbf	1.164543
21	0x3f8d0345	1.1016623
22	0x3f50e9eb	0.8160693
23	0x3f843b41	1.0330583
24	0x3f5e051a	0.86726534
25	0x3f62bb8d	0.8856743
26	0x3faaf587	1.3356179
27	0x3fcf1901	1.6179506
28	0x3f5d799d	0.8651369
29	0x3f2a64e1	0.6656018
30	0x3f8f3b67	1.1190003
31	0x3f7ed01a	0.9953629

features.module.5.bias f4 [32]
0	0xbf98823f	-1.1914748
1	0xbf9bea07	-1.2180794
2	0xbf6def36	-0.9294313
3	0xbf7041c6	-0.9385036
4	0xbe8ab4ec	-0.27091157
5	0xbf961804	-1.1726079
6	0xbf6a46e5	-0.91514426
7	0xbf6673fe	-0.9002074
8	0xbf13aa22	-0.5768148
9	0xbf7d7317	-0.9900374
10	0xbf42f333	-0.7615234
11	0xbfa60a0e	-1.2971818
12	0xbf580643	-0.84384555
13	0xbf02c9c9	-0.5108915
14	0xbf920dcb	-1.1410459
15	0xbfa71428	-1.3053026
16	0xbf9c86de	-1.2228658
17	0xbfa71105	-1.3052069
18	0xbf8c5b67	-1.0965394
19	0xbfaa5062	-1.3305781
20	0xbf713555	-0.94222003
21	0xbf4300cd	-0.76173097
22	0xbf808537	-1.0040654
23	0xbfbc2390	-1.4698353
24	0xbf7cf477	-0.98810524
25	0xbf4fcba1	-0.8117009
26	0xbf991954	-1.1960855
27	0xbfa24854	-1.2678323
28	0xbf981ea7	-1.1884354
29	0xbf08fcac	-0.53510547
30	0xbf6cc578	-0.92488813
31	0xbf638e38	-0.88888884

features.module.5.running_mean f4 [32]
0	0xc03fbacd	-2.9957764
1	0xc052a94c	-3.291583
2	0xbfd2f924	-1.6482282
3	0xbf9fcb9d	-1.2484013
4	0xbf4d5931	-0.8021422
5	0xc0160c57	-2.3445032
6	0xc0169e7a	-2.3534226
7	0xc0238926	-2.5552459
8	0xbfc31712	-1.5241416
9	0xbfd56bab	-1.6673483
10	0xc004d402	-2.07544
11	0xc04b8173	-3.179776
12	0xbffe10aa	-1.9848835
13	0xbf976658	-1.1828108
14	0xc04daf3c	-3.2138205
15	0xc00f74ec	-2.2415113
16	0xc06903f1	-3.6408656
17	0xc0494b21	-3.1452105
18	0xc00e0fe3	-2.2197196
19	0xc037c7df	-2.8715742
20	0xbff0db89	-1.8816997
21	0xbfb8a401	-1.442505
22	0xbfe785f8	-1.8087759
23	0xc0552f81	-3.3310244
24	0xc02a2cc3	-2.658982
25	0xc003c2d3	-2.0587661
26	0xbfce9a97	-1.6140927
27	0xc0043519	-2.0657408
28	0xc029deba	-2.6542192
29	0xbfa4c394	-1.2872186
30	0xbfbbdd24	-1.4676862
31	0xbff3fc5a	-1.9061387

features.module.5.running_var f4 [32]
0	0x4020c9ea	2.5123239
1	0x41059199	8.348046
2	0x414b7ec5	12.71845
3	0x3fbe3218	1.4859037
4	0x3fbb954f	1.465494
5	0x40b269c1	5.5754094
6	0x406708ea	3.609919
7	0x4034872b	2.82075
8	0x40037fbe	2.0546718
9	0x40966e70	4.700981
10	0x408918e4	4.2842884
11	0x40c1391d	6.038222
12	0x4033b3a2	2.807839
13	0x4003fad9	2.0621855
14	0x4101fc24	8.124058
15	0x400d5deb	2.2088573
16	0x4132e37b	11.180537
17	0x40d1d8da	6.557721
18	0x404ba3d0	3.1818733
19	0x40b0ec30	5.5288315
20	0x409725cb	4.7233634
21	0x405e8bc7	3.4772813
22	0x40520649	3.2816336
23	0x409d82a6	4.9221983
24	0x406109e1	3.516228
25	0x409a75fe	4.8269033
26	0x40ab3afd	5.3509507
27	0x40c9289b	6.2862067
28	0x40324125	2.785226
29	0x3fbb4be5	1.4632536
30	0x40807252	4.013955
31	0x406c4c09	3.6921408

features.module.8.weight f4 [64, 32, 3, 3]
0	0x3cf3b3f0	0.029748887
1	0x3cb4b759	0.022060083
2	0xbcb63899	-0.022243785
3	0x3d31e466	0.04343071
4	0x3cd9d169	0.026589112
5	0xbc6d6f63	-0.014491889
6	0x3cfec511	0.031099828
7	0x3c77f0cc	0.015133094
8	0xbc700527	-0.014649666
9	0x3c1d7718	0.009610914
10	0x3b8e52a7	0.004343349
11	0xbbc84183	-0.006111325
12	0xbc22b783	-0.009931448
13	0xbc8a02ff	-0.016847132
14	0xbd243ce2	-0.040097125
15	0xbcb8737f	-0.02251601
16	0xbd301c74	-0.042995885
17	0xbdbc31c8	-0.091891825
18	0xbc54b60a	-0.012982855
19	0xbb325ffd	-0.0027217858
20	0xbd17bed9	-0.03704724
21	0xbd086f81	-0.033309463
22	0xbc0e4c03	-0.008685115
23	0xbd47a2fa	-0.04873941
24	0xbd75e019	-0.06002817
25	0xbca9af8a	-0.020713586
26	0xbd731093	-0.05934198
27	0xbc0b0ed8	-0.008487426
28	0xbc90955c	-0.017649345
29	0x3c1e0378	0.009644382
30	0xbc11d30c	-0.008900415
31	0xbc9b8c72	-0.018987868
32	0x3c13b9c3	0.009016457
33	0xbc78ab25	-0.015177523
34	0xbc55664a	-0.013024876
35	0x3c03d836	0.008047154
36	0xbd15608f	-0.03646904
37	0xbc262038	-0.0101395175
38	0xbb8a14cc	-0.004213905
39	0xbd06ac7f	-0.03287935
40	0xbc5bb58b	-0.013409982
41	0xbba3c0fd	-0.004997371
42	0xbc8b07e3	-0.016971534
43	0xbba89e96	-0.005145858
44	0x3b1a24cc	0.0023520468
45	0xbc1413fb	-0.009037967
46	0xbcf666d0	-0.030078322
47	0xbcad0bb8	-0.021123752
48	0xbb38bc6c	-0.002818848
49	0xbc0d6913	-0.008631009
50	0xbc8fae71	-0.017539235
51	0x3cbac42e	0.022798624
52	0x3cb7d6f5	0.022441367
53	0xbc4d8dc7	-0.012546009
54	0xbca0801b	-0.019592335
55	0xbc87e955	-0.016590754
56	0xbbe5ab42	-0.007008941
57	0xbce471f1	-0.027886363
58	0xbd030314	-0.031985357
59	0xbca6070c	-0.020267032
60	0xbd134949	-0.035958562
61	0xbd3a30b1	-0.045456592
62	0xbce1b981	-0.027554275
63	0x3d8d496d	0.068987705
64	0x3ccebf97	0.025237842
65	0x3cd81820	0.026378691
66	0x3cb4fde2	0.022093717
67	0x3bffbde1	0.0078046178
68	0x3c3ce85a	0.011530006
69	0x3b7be3a3	0.0038435243
70	0x3afcefaa	0.00192975
71	0x3ca89f29	0.020583706
72	0xbc8c5ec2	-0.017135028
73	0xbd3011d2	-0.042985745
74	0xbd05569b	-0.032553297
75	0xbcdf3195	-0.027245322
76	0xbd134e4b	-0.035963338
77	0xbc36d522	-0.011159213
78	0xbd5e4c52	-0.054272003
79	0xbd3c09b6	-0.0459077
80	0xbcb50afd	-0.022099966
81	0xbd09be60	-0.03362882
82	0xbc8feeb1	-0.017569872
83	0xbccf74d1	-0.025324257
84	0xbcf25956	-0.029583614
85	0xbcac0c53	-0.02100197
86	0xbcbe037e	-0.023195025
87	0xbd10c78a	-0.035346545
88	0xbcf582fb	-0.029969683
89	0xbca1579a	-0.019695092
90	0x3e174417	0.14772068
91	0x3e4c7c64	0.19969326
92	0x3e6fcc07	0.23417674
93	0x3db514b0	0.088418365
94	0x3e1202e3	0.14258914
95	0x3e4235bb	0.18965809
96	0x3e10d637	0.14144216
97	0x3e629c42	0.2212992
98	0x3e89dd48	0.26926637
99	0x3e73809b	0.23779528
100	0x3df25f4b	0.11834582
101	0x3dea01a5	0.11426095
102	0x3e2af748	0.16695893
103	0x3d4fc338	0.050723284
104	0x3d569c76	0.052395307
105	0x3e83ef1c	0.25768363
106	0x3dfc7f15	0.123289265
107	0x3de3e0d4	0.11126867
108	0xbd671d58	-0.05642447
109	0xbd4c92d5	-0.049944717
110	0xbd4734cf	-0.048634347
111	0xbd0fea7e	-0.03513574
112	0xbce96af8	-0.02849339
113	0xbd2545d6	-0.040349804
114	0xbd6ce202	-0.057832725
115	0xbd77ed82	-0.06052924
116	0xbda5f496	-0.08103292
117	0x3e23e825	0.16006525
118	0x3e00724f	0.12543605
119	0x3e28e580	0.16493797
120	0x3dc92228	0.09820968
121	0x3dac6ca7	0.08419161
122	0x3de2d945	0.11076597
123	0x3e01210c	0.12610263
124	0x3dd9f51b	0.10642453
125	0x3e077c12	0.13230923
126	0x3b4473de	0.0029976289
127	0x3b99ae35	0.0046899565
128	0xbc223beb	-0.009901981
129	0x38fab004	0.000119537144
130	0xbbfd5b00	-0.0077317953
131	0xbd0ad2cf	-0.03389245
132	0x3c7f9bad	0.015601081
133	0x3ba4268f	0.0050094794
134	0xbd15fec0	-0.0366199
135	0x3c344af9	0.011004203
136	0x3c3aee0d	0.011409295
137	0x3c9be45f	0.019029794
138	0x3c16e788	0.009210475
139	0x3c258e2d	0.010104698
140	0x3c7daa15	0.015482445
141	0xbc2d141b	-0.010563876
142	0xbb995e49	-0.004680429
143	0x3885979a	6.370172e-05
144	0x3ce89364	0.028390594
145	0x3ce28e31	0.027655693
146	0x3cd8af9d	0.026450926
147	0x3c883782	0.01662803
148	0x3c5636b0	0.013074562
149	0x3c6a60a7	0.01430527
150	0x3c938f27	0.018012596
151	0x3c487f0a	0.01223732
152	0x3c2386f6	0.009980908
153	0x3c35ee50	0.011104181
154	0x3b2e042b	0.0026552777
155	0x3c1dcdeb	0.009631614
156	0x3c6af691	0.014341013
157	0x3a0d7a19	0.0005396917
158	0xbbfda6fe	-0.0077408543
159	0xbbe7249b	-0.0070539243
160	0xbd10fd48	-0.035397798
161	0xbd0caf97	-0.034347143
162	0xbc500b20	-0.012697965
163	0xbd0cf788	-0.03441575
164	0xbd15fa06	-0.036615394
165	0xbc727eae	-0.014800711
166	0xbc8b516d	-0.0170066
167	0xbc60a89c	-0.013712075
168	0xbd628614	-0.055303648
169	0xbd3a56b6	-0.04549285
170	0xbd2b3516	-0.041798674
171	0x3bcf8d45	0.0063339793
172	0x3b5e8e8f	0.0033959483
173	0x3ca36d17	0.019949479
174	0x3b0060d5	0.0019588966
175	0xbb7f8f97	-0.0038995498
176	0x3c060f82	0.008182408
177	0x3c2280e9	0.00991843
178	0x3c075968	0.008261062
179	0x3c98c799	0.018649863
180	0xbd4245df	-0.047429916
181	0xbcaf8ac2	-0.02142847
182	0xbbe3b989	-0.0069496077
183	0xbd5af506	-0.05345633
184	0xbcb34acb	-0.02188625
185	0x3c4599ff	0.012060641
186	0xbd9ac001	-0.07556153
187	0xbd050620	-0.032476544
188	0xbbadcd08	-0.0053039826
189	0xbc140f6d	-0.009036881
190	0xbd024101	-0.031800274
191	0xbd5b2517	-0.05350217
192	0x3a9cb65f	0.0011956206
193	0xbc241e47	-0.010016984
194	0xbcc9e597	-0.02464561
195	0x3b01e422	0.0019819816
196	0x3b0275e3	0.0019906692
197	0xbba15023	-0.004922883
198	0xbd1869d2	-0.037210293
199	0xbcad0ac9	-0.021123307
200	0xbcf10ff2	-0.029426549
201	0xbc76c23e	-0.015060959
202	0xbbfb5848	-0.007670436
203	0xbc362623	-0.011117491
204	0xbc55f8f3	-0.013059842
205	0xbb513429	-0.003192196
206	0xbc0db0cf	-0.0086481115
207	0xbd327c8b	-0.043575805
208	0xbd327b41	-0.043574575
209	0xbd899c3b	-0.06719252
210	0xbc968ab3	-0.018376684
211	0xbd025f4f	-0.031829175
212	0xbd341c69	-0.043972407
213	0xbd287587	-0.041127708
214	0xbd5d1557	-0.05397543
215	0xbd77fca9	-0.06054369
216	0x3d1cc00d	0.03826909
217	0x3cf45373	0.029824948
218	0x3d8040fa	0.06262393
219	0x3cf16f60	0.029472053
220	0x3caa3b87	0.020780338
221	0x3d64ed99	0.055890653
222	0x3d7f1c02	0.06228257
223	0x3d42dca6	0.047573708
224	0x3db8369e	0.089947924
225	0x3e0c114c	0.13678473
226	0x3dfe3a02	0.12413408
227	0x3de8992f	0.113573425
228	0x3dd6bc14	0.10485092
229	0x3d65dba5	0.056117672
230	0x3d41dc8d	0.047329474
231	0x3e0e99c7	0.13925849
232	0x3d8f6e56	0.07003467
233	0x3d60fd33	0.05492897
234	0xbbfe104a	-0.0077534067
235	0x3c41ca01	0.011827947
236	0xbb2fd4b4	-0.0026829662
237	0xbae7e064	-0.0017690775
238	0x3cd965bf	0.026537774
239	0x3cc55c5d	0.024091894
240	0xbcad353f	-0.021143554
241	0x3b52bf23	0.0032157383
242	0x3bc0fbb9	0.0058893827
243	0xbd889e33	-0.06670799
244	0xbd2f40ea	-0.042786516
245	0xbd41efd2	-0.04734785
246	0xbd16d0ed	-0.03682034
247	0xbc3c5b88	-0.011496432
248	0xbc9e2f72	-0.019309733
249	0xbd399548	-0.04530838
250	0xbc84b33c	-0.016198747
251	0xbc389fd5	-0.011268576
252	0xbc66a503	-0.014077428
253	0xbc470c19	-0.01214888
254	0xbce181b1	-0.027527662
255	0xbc383655	-0.0112434225

features.module.8.bias f4 [64]
0	0xbcd1fe79	-0.025634037
1	0x3c28941e	0.01028922
2	0x3c3187df	0.010835617
3	0x3d617410	0.055042326
4	0x3d51777d	0.051139344
5	0xbd3d128c	-0.046160266
6	0x3ce38579	0.027773606
7	0xbd378d7e	-0.04481267
8	0xbcdfeb06	-0.027333748
9	0x3cb4baa6	0.022061657
10	0xbd1ca706	-0.038245223
11	0x3d4460c9	0.047943864
12	0x3cad681b	0.021167805
13	0x3b9cb60f	0.0047824453
14	0x3d00487d	0.03131913
15	0xbd4318ed	-0.047631193
16	0x3c172264	0.009224508
17	0x3caaaf6a	0.020835597
18	0xbcd2aef9	-0.0257182
19	0xbc8e631e	-0.017381247
20	0x3cb9cb32	0.022679899
21	0x3d41fee1	0.047362212
22	0xbcb2a178	-0.02180551
23	0x3d0a487e	0.03376054
24	0x3d0061cf	0.031343278
25	0xbd06066a	-0.03272096
26	0xbd360a6d	-0.044443537
27	0xbbd7ea4d	-0.00658921
28	0x3d0e1d4e	0.034695916
29	0xbd3eeeb9	-0.046614382
30	0xbd1f2439	-0.038852904
31	0x3d26e17c	0.040742382
32	0xbd03566d	-0.032064844
33	0xbd238366	-0.039920233
34	0xbb1c4850	-0.0023846813
35	0x3d601ca4	0.054714814
36	0x3d170e77	0.03687903
37	0x3cec4d65	0.028845498
38	0x3bea69fb	0.007153747
39	0xbce57c6b	-0.028013429
40	0xbd3270e5	-0.043564696
41	0x3cf3586b	0.029705247
42	0x3c87c2ec	0.016572438
43	0x3c6e695b	0.014551486
44	0xbca949fa	-0.020665158
45	0xbd5f721d	-0.054552186
46	0x3bfa9b9e	0.0076479455
47	0xbc1dc1f7	-0.009628764
48	0xbb8a9fdc	-0.0042304825
49	0x3bade828	0.005307216
50	0xbd05dc96	-0.03268107
51	0xbd0ea737	-0.034827437
52	0xbc84d92a	-0.016216833
53	0x3cb1c519	0.021700429
54	0xbd0f634f	-0.035006817
55	0x3d55736d	0.05211203
56	0xbd61602d	-0.05502336
57	0xbd0e23d8	-0.034702152
58	0x3c83484f	0.01602569
59	0xbd5ec3dd	-0.05438601
60	0xbcfe46fa	-0.031039704
61	0x3cec5c24	0.02885253
62	0xbd1b3687	-0.0378938
63	0x3c92b399	0.017907904

features.module.9.weight f4 [64]
0	0x40e0aa0b	7.020757
1	0x40bedfd8	5.9648247
2	0x40ad83a1	5.422318
3	0x409b3011	4.8496175
4	0x408245ca	4.071019
5	0x40a14213	5.0393157
6	0x40967bb2	4.7025995
7	0x40f98e0c	7.7985897
8	0x4094efbd	4.654265
9	0x40bd6aca	5.919286
10	0x407fab22	3.99482
11	0x409f6453	4.9809966
12	0x40afa5f3	5.4890075
13	0x40d0bfce	6.5234137
14	0x40c0306e	6.005912
15	0x40caa322	6.3324137
16	0x40949b25	4.6439385
17	0x40b10779	5.532162
18	0x40fb50c2	7.853608
19	0x40c12e3f	6.0368953
20	0x409ccf7b	4.900327
21	0x40dca612	6.8952723
22	0x40902b13	4.505258
23	0x40c292ee	6.0804358
24	0x40d699bf	6.706268
25	0x4097933a	4.736722
26	0x40a51da2	5.1598673
27	0x409ba727	4.8641543
28	0x408abf7e	4.3358755
29	0x40961d22	4.6910563
30	0x40876a33	4.231714
31	0x40da318c	6.818548
32	0x40b466a7	5.637531
33	0x40ed5621	7.416764
34	0x40e8f0a6	7.279376
35	0x40b78024	5.734392
36	0x40c5be33	6.1794677
37	0x40eefb37	7.468166
38	0x40b5b3ea	5.678212
39	0x40a07fcc	5.0156
40	0x40f7a8e0	7.7393646
41	0x40ca92a0	6.3303986
42	0x40a776af	5.2332377
43	0x40be15ee	5.940177
44	0x40c67cd4	6.202738
45	0x40ef2f7f	7.474548
46	0x40bc6354	5.887125
47	0x40b30cd9	5.5953183
48	0x40b223f8	5.5668907
49	0x40acab1b	5.395887
50	0x40f1e3cd	7.5590577
51	0x408c327e	4.3811636
52	0x40a23d7c	5.0700054
53	0x40b11cfa	5.534787
54	0x40cbf39f	6.373489
55	0x40e24eb7	7.0721087
56	0x40bd8639	5.9226346
57	0x40b1c892	5.5557337
58	0x40adfc07	5.437015
59	0x40de04cd	6.938086
60	0x40ac726e	5.3889685
61	0x40a1c250	5.05497
62	0x40acc01f	5.3984523
63	0x4097bea4	4.7420216

features.module.9.bias f4 [64]
0	0x3fc1538c	1.5103621
1	0x3f8ff466	1.124646
2	0x3fa1055d	1.2579762
3	0x3f7d0836	0.98840654
4	0x3f3f4e99	0.74729306
5	0x3f8c9257	1.0982159
6	0x3f853078	1.0405416
7	0x400f587b	2.2397754
8	0x3f83df64	1.0302548
9	0x3f931673	1.1491226
10	0x3f838296	1.0274227
11	0x3f994902	1.1975405
12	0x3f8eb9a7	1.1150407
13	0x3fe47328	1.7847643
14	0x3fb02449	1.3761073
15	0x3fc247ed	1.51782
16	0x3f4b97aa	0.79528296
17	0x3f9ff928	1.2497911
18	0x3ff6f694	1.9294
19	0x3fa4379d	1.2829472
20	0x3f904911	1.1272298
21	0x4070a5ce	3.76012
22	0x3f867226	1.0503585
23	0x3f8ed3de	1.1158407
24	0x3faf192a	1.3679554
25	0x3f6cd714	0.92515683
26	0x3f5431fb	0.82888764
27	0x3f871d7b	1.0555872
28	0x3f811d3a	1.0087044
29	0x3f827e7a	1.0194848
30	0x3f6baaec	0.9205768
31	0x4001049e	2.0159068
32	0x3fb0c384	1.3809667
33	0x4065385b	3.5815647
34	0x40185e76	2.3807654
35	0x3f8c2289	1.0948039
36	0x3fc08c4d	1.5042816
37	0x401e02da	2.468924
38	0x3f9e2372	1.2354567
39	0x3f964cd3	1.1742195
40	0x3fb9881a	1.449466
41	0x401a2d49	2.409014
42	0x3f910001	1.1328126
43	0x3fc646db	1.5490373
44	0x4005d9b3	2.0914123
45	0x3f8c99fc	1.0984492
46	0x3f982092	1.188494
47	0x3ff20d8d	1.8910385
48	0x3fa27c35	1.2694155
49	0x3f78f3c9	0.97246987
50	0x3fe5c43f	1.7950515
51	0x3f89f3d8	1.077754
52	0x3f994667	1.197461
53	0x3fc61551	1.5475255
54	0x3fe1fc94	1.7655206
55	0x3fa6e184	1.3037572
56	0x3fba037d	1.4532315
57	0x3fac51c3	1.3462452
58	0x3fb2deec	1.397428
59	0x3fe5eb34	1.7962403
60	0x3f9c1300	1.2193298
61	0x3f90af90	1.1303577
62	0x3fa95ad7	1.3230847
63	0x3f76406a	0.9619204

features.module.9.running_mean f4 [64]
0	0x3ac63554	0.0015122094
1	0x3c7623a7	0.015023149
2	0x3cbda77e	0.023151156
3	0x3d8ab9ac	0.06773695
4	0x3da768a7	0.08174258
5	0xbd1f6b4c	-0.038920686
6	0x3d485b93	0.048915457
7	0xbbccc436	-0.006248976
8	0xbc166142	-0.0091784615
9	0x3d08fba0	0.033443093
10	0xbd070fa4	-0.0329739
11	0x3d9a01aa	0.07519849
12	0x3d6cb5a0	0.0577904
13	0x3d0945af	0.03351372
14	0x3d61b23e	0.055101626
15	0xbc931b49	-0.017957347
16	0x3ca09a21	0.019604744
17	0x3d29d1e3	0.04145993
18	0xbb7b1098	-0.0038309451
19	0x3cc8d1eb	0.02451416
20	0x3cf5aeb7	0.029990537
21	0x3e22fc2a	0.15916505
22	0xbc436508	-0.011925943
23	0x3d16367d	0.036673058
24	0x3d8eabab	0.06966337
25	0xbcaea2de	-0.021317896
26	0xbd15b517	-0.036549654
27	0x3bdcad5a	0.0067345323
28	0x3d0abe78	0.03387305
29	0xbd63175b	-0.055442195
30	0xbaadc222	-0.0013256709
31	0x3d87cbf0	0.06630695
32	0xbca31de2	-0.01991171
33	0x3d787fcf	0.060668763
34	0x3cc94c71	0.024572583
35	0x3dbfb889	0.09361369
36	0x3cbdbd0d	0.023161435
37	0x3d87d841	0.06633044
38	0x3ccffba6	0.02538855
39	0xbd0e59a2	-0.03475345
40	0xbd0dee2d	-0.03465097
41	0x3dbf364b	0.093365274
42	0x3cebed15	0.028799573
43	0x3bc68cb7	0.006059255
44	0x3d8e2329	0.069403
45	0xbc05152e	-0.008122725
46	0x3ca491ff	0.020089148
47	0x3ce57ed4	0.028014578
48	0x3ca877e2	0.020564977
49	0x3c7f7d44	0.0155938305
50	0xbc96355a	-0.018335987
51	0xbd2566bc	-0.04038118
52	0xbbb2559c	-0.0054423343
53	0x3c16eb97	0.009211442
54	0xbd19fa06	-0.037591957
55	0x3dbaa063	0.091126226
56	0xbd047445	-0.032337446
57	0x3cf02d28	0.029318407
58	0x3cb44585	0.022005806
59	0xbd8917fa	-0.06694026
60	0xbc9c7c44	-0.019102223
61	0x3d499187	0.04921105
62	0xbced4072	-0.028961394
63	0x3d4a8abf	0.049448725

features.module.9.running_var f4 [64]
0	0x3ccf67bc	0.02531802
1	0x3c0264c9	0.007958599
2	0x3c295cc4	0.010337058
3	0x3bf60ad2	0.007508614
4	0x3c3983a9	0.011322894
5	0x3bcdf777	0.0062856036
6	0x3c2a6918	0.010401033
7	0x3cc9a58c	0.024615072
8	0x3c29096d	0.010317189
9	0x3c0f73ff	0.008755683
10	0x3c2a11bb	0.010380204
11	0x3bd12a6f	0.0063832323
12	0x3c83bc7a	0.016081084
13	0x3c610de6	0.013736224
14	0x3c7f1e14	0.015571136
15	0x3cafaf55	0.02144591
16	0x3bb6521c	0.0055639874
17	0x3c55ecd0	0.013056949
18	0x3c98d13e	0.018654462
19	0x3c9e9dea	0.019362409
20	0x3c182221	0.009285481
21	0x3cb2b368	0.021814063
22	0x3c156280	0.0091177225
23	0x3c2ae76b	0.010431151
24	0x3cba986f	0.022777764
25	0x3be425a2	0.006962494
26	0x3bb88cc6	0.005632016
27	0x3c2c6440	0.010521948
28	0x3c1a30ee	0.00941108
29	0x3c29af0d	0.010356677
30	0x3c32c92b	0.01091222
31	0x3c88393a	0.01662885
32	0x3c5eed32	0.013606356
33	0x3cd4370a	0.02590515
34	0x3ca3027a	0.019898642
35	0x3c901cf4	0.01759193
36	0x3c89b598	0.016810223
37	0x3caf68a8	0.021412209
38	0x3bfa6f7e	0.0076426854
39	0x3c2bae27	0.010478533
40	0x3c86538d	0.016397262
41	0x3c4ebf1e	0.012618808
42	0x3c468e81	0.0121189365
43	0x3c87be5f	0.016570268
44	0x3ca6c92b	0.020359596
45	0x3cd15254	0.025551952
46	0x3c165af4	0.009176958
47	0x3c587f0b	0.013213883
48	0x3c463c79	0.012099379
49	0x3bd58ad3	0.0065167933
50	0x3c73c66e	0.014878852
51	0x3c30f30a	0.0108001325
52	0x3c37e140	0.011223137
53	0x3c649fd1	0.013954119
54	0x3c8cab73	0.017171597
55	0x3ccd9f44	0.025100358
56	0x3c4acef7	0.012378446
57	0x3c7e1c85	0.015509729
58	0x3c525710	0.01283814
59	0x3cb20767	0.021732045
60	0x3c4e562a	0.012593785
61	0x3c3c956a	0.011510232
62	0x3c363294	0.011120457
63	0x3c545cec	0.012961607

top_layer.weight f4 [10, 64]
0	0xbe019f00	-0.1265831
1	0xbdaf75d5	-0.085673966
2	0xbd8a793c	-0.06761405
3	0xbdc49eca	-0.09600599
4	0xbd58d5d5	-0.0529383
5	0xbd96935b	-0.073523246
6	0x3c81d3d5	0.01584808
7	0x3f11b335	0.56914073
8	0x3c9954ee	0.018717255
9	0xbd8b7770	-0.0680989
10	0xbd353ee0	-0.044249415
11	0xbd8eb99d	-0.06968997
12	0xbc423e21	-0.011855633
13	0xbdb8a33f	-0.09015512
14	0xbe363ee5	-0.1779743
15	0x3c0fe858	0.008783422
16	0xbd137ac3	-0.036005747
17	0xbe259171	-0.16168763
18	0xbe191d22	-0.1495252
19	0xbd3c7b3f	-0.046015974
20	0x3d2a44e9	0.041569624
21	0x3e5e676c	0.2171914
22	0xbb9f97cb	-0.00487039
23	0xbd8e2337	-0.069403104
24	0xbde1cc27	-0.11025267
25	0xbd9c21eb	-0.07623657
26	0xbd8b85f9	-0.06812663
27	0xbc27ebfa	-0.010249132
28	0xbd4b31f2	-0.04960818
29	0x3e99e347	0.3005621
30	0xbd42f3c0	-0.04759574
31	0xbcf285ea	-0.02960487
32	0xbc07ddc1	-0.008292616
33	0xbdd63988	-0.10460192
34	0xbe0600de	-0.13086268
35	0xbcd9cce9	-0.026586967
36	0x3ec693c4	0.3878461
37	0xbe08675d	-0.1332068
38	0xbda037bd	-0.07823131
39	0x3e2eee91	0.17083193
40	0xbde0d8a5	-0.10978822
41	0xbdaa7880	-0.08323765
42	0x3d8e396c	0.06944546
43	0xbd406d4e	-0.04697924
44	0xbd095c2e	-0.033535175
45	0xbe1a7ea9	-0.1508738
46	0xbd937507	-0.072000556
47	0x3ebbac4a	0.36654884
48	0xbdc71adb	-0.09721919
49	0xbda03596	-0.07822721
50	0xbdc712be	-0.09720372
51	0xbc3afb5a	-0.011412466
52	0x3e6ab3fb	0.2292022
53	0x3e9f4083	0.31103906
54	0x3eeff9e6	0.46870345
55	0xbe145f13	-0.14489393
56	0xbca4a559	-0.020098375
57	0xbd3364de	-0.043797366
58	0xbc03022e	-0.007996125
59	0xbd3628bb	-0.044472437
60	0xb9caf94d	-0.00038714186
61	0xbe0498f9	-0.1294898
62	0x3d1e47ad	0.038642574
63	0xbd97e296	-0.07416265
64	0x3e910ebe	0.2833156
65	0x3c8cbcaf	0.017179815
66	0x3c1ddbdf	0.009634941
67	0x3e1ce287	0.15320788
68	0xbd466976	-0.04844042
69	0xbc63bbf5	-0.013899793
70	0xbdb75386	-0.08951478
71	0xbde67ba4	-0.11254051
72	0xbd852839	-0.065018125
73	0x3dbc1033	0.09182777
74	0x3e891405	0.26773086
75	0xbd6affa6	-0.05737271
76	0xbd5230ea	-0.05131618
77	0xbd8a2b5e	-0.06746553
78	0xbe0a3f53	-0.13500719
79	0x3e6aa0e4	0.22912937
80	0x3cc6bef7	0.024260981
81	0xbde91646	-0.113812014
82	0x3e17adb8	0.14812362
83	0xbd9b2a6c	-0.07576451
84	0xbc71d68e	-0.0147606265
85	0xbeb9efb9	-0.36315706
86	0x3d03446f	0.032047685
87	0x3c21ca91	0.009874956
88	0x3d3fb7e0	0.046806216
89	0x3de6bdf7	0.11266702
90	0x3caf967b	0.02143406
91	0xbdb4ba1f	-0.08824562
92	0x3e95ea22	0.29280192
93	0x3dc27ea9	0.09496815
94	0xbd81ac87	-0.06331735
95	0xbe025f55	-0.12731679
96	0x3c686ade	0.014185635
97	0xbec9ab67	-0.39388582
98	0x3c5c149e	0.01343265
99	0xbd35c197	-0.044374075
100	0x3de87de3	0.11352136
101	0xbb8f0062	-0.0043640593
102	0xbc583554	-0.013196308
103	0x3dc2e777	0.09516805
104	0x3c79b5f3	0.015241134
105	0xbe434779	-0.19070233
106	0xbd7450a0	-0.059647202
107	0x3edb6f6c	0.42858446
108	0xbe2a9ac3	-0.166606
109	0x3d645355	0.055743534
110	0x3e12e4e9	0.14345135
111	0xbe32851e	-0.17433593
112	0xbe13ba65	-0.14426573
113	0x3d1e6f05	0.038680095
114	0x3df93479	0.121682115
115	0x3e9c0459	0.30472067
116	0xbd74d0fa	-0.059769608
117	0x3df618fe	0.12016486
118	0xbbf5ed86	-0.0075051216
119	0x3d99db41	0.075125225
120	0xbdb0edc1	-0.08639098
121	0xbdf40ff9	-0.11917109
122	0x3e108a48	0.1411525
123	0x3ef196f1	0.47185472
124	0xbc62a571	-0.01383339
125	0xbe0307fe	-0.12796018
126	0x3bc643ff	0.0060505862
127	0xbd2d9816	-0.04238137
128	0xbe17010f	-0.14746498
129	0xbdd351a1	-0.10318304
130	0xbd70a9b8	-0.058755606
131	0x3e9ad4bb	0.30240425
132	0xbd72bc93	-0.05926187
133	0xbd630431	-0.05542392
134	0xbda5a5e1	-0.080882795
135	0xbd58bef4	-0.052916482
136	0xbd70de8f	-0.058806
137	0x3ec95f7c	0.3933066
138	0xbdb2a5b8	-0.087230146
139	0xbca165b4	-0.019701816
140	0xbddd10b3	-0.10794201
141	0xbd3a4f80	-0.045485973
142	0x3c892c97	0.016744895
143	0xbdcae1e1	-0.09906364
144	0xbd950f54	-0.07278314
145	0xbbeccad1	-0.007226326
146	0xbd8530c8	-0.06503445
147	0xbdc837b6	-0.09776251
148	0xbcfadcb1	-0.030622812
149	0x3dc5892e	0.096453056
150	0xbd8e58e9	-0.06950552
151	0xbd874a55	-0.066059746
152	0xbdb0de1c	-0.08636114
153	0x3e95d8da	0.29267007
154	0xbd41f49a	-0.04735241
155	0xbd3a6012	-0.045501776
156	0x3d725f6c	0.059173033
157	0xbd93f064	-0.07223585
158	0xbd6cac5e	-0.05778157
159	0x3cdf3a1b	0.027249387
160	0xbd853dd7	-0.06505936
161	0x3e3a224d	0.18177147
162	0xbc92058e	-0.017824914
163	0xbde8e8d1	-0.11372531
164	0xbdb6b9a0	-0.08922124
165	0x3d4618d6	0.04836353
166	0xbc1fb40a	-0.0097475145
167	0xbdb7c7d3	-0.0897366
168	0xbdbbd309	-0.09171111
169	0x3ed62ade	0.4182958
170	0xbd4f2c43	-0.05057932
171	0xbdd7f72f	-0.105451934
172	0xbdc77bb8	-0.09740394
173	0xbdb9d68e	-0.09074126
174	0x3ec47a8f	0.38374755
175	0x3c417a7c	0.011808988
176	0x3c03d98f	0.0080474755
177	0xbd30d877	-0.043175187
178	0x3efcf0a8	0.49402356
179	0xbcfa247e	-0.030534979
180	0xbd8a4ca1	-0.06752897
181	0xbd4cc84e	-0.049995713
182	0xbd9aa13f	-0.075502865
183	0xbdca2c94	-0.09871784
184	0x3cbec812	0.02328876
185	0xbdc22bcc	-0.0948101
186	0xbd829874	-0.063767344
187	0xbdf64041	-0.12023974
188	0xbd74615e	-0.05966317
189	0x3c329231	0.010899113
190	0xbd35ffb4	-0.04443331
191	0xbdcaff07	-0.09911924
192	0xbd75ca4b	-0.060007375
193	0xbcf32481	-0.029680492
194	0xbd45f4ac	-0.04832904
195	0xbdd41f0c	-0.10357484
196	0x3b89b0e8	0.004201997
197	0xbd7f444f	-0.062321004
198	0xbe130c75	-0.1436022
199	0xbe26f203	-0.16303258
200	0xbe13ce9e	-0.14434287
201	0xbde3c35e	-0.11121248
202	0xbcf28d2b	-0.02960833
203	0xbd4b40f7	-0.049622502
204	0xbbb46201	-0.005504847
205	0xbd115401	-0.035480503
206	0x3e5fef3e	0.21868607
207	0xbc6d4a8d	-0.014483106
208	0xbdec8c61	-0.11550213
209	0x3e41b543	0.18916802
210	0xbde880ff	-0.11352729
211	0xbcc31fff	-0.023818968
212	0x3ea900bf	0.33008382
213	0xbe7e6258	-0.24842203
214	0xbdec5eed	-0.11541543
215	0xbd3ef9ba	-0.046624877
216	0xbd9f9974	-0.07792941
217	0xbdd1a66c	-0.102368206
218	0xbd6d98c3	-0.058007013
219	0xbd0d5b23	-0.034510743
220	0xbd4e1937	-0.050317015
221	0x3d01268e	0.03153091
222	0xbd8dd13a	-0.069246724
223	0x3ef0747b	0.46963868
224	0xbd9c3078	-0.07626432
225	0x3ed64e9f	0.41856858
226	0xbdd74e62	-0.10512997
227	0x3ca74b1b	0.020421555
228	0x3d5155da	0.051107265
229	0xbddf3c27	-0.10900145
230	0xbd8c0c8a	-0.06838329
231	0x3e51f801	0.20504762
232	0xbd5d155f	-0.05397546
233	0xbd91ea59	-0.071247764
234	0xbde8d95a	-0.113695815
235	0xbc068e01	-0.008212567
236	0xbd65ad00	-0.05607319
237	0xbd715129	-0.05891529
238	0xbdca93a5	-0.09891442
239	0xbe58225b	-0.21106856
240	0x3eb388f4	0.35065424
241	0xbd901616	-0.070354626
242	0xbe01f3df	-0.12690686
243	0xbc2664db	-0.010155882
244	0xbe52188f	-0.20517181
245	0x3dce90ed	0.10086236
246	0x3bfdfa86	0.007750812
247	0xbd72567c	-0.05916451
248	0x3ec777a4	0.38958466
249	0xbd1d5087	-0.038406875
250	0xbda430bf	-0.0801711
251	0x3baa1587	0.0051905545
252	0xbdbe78ab	-0.09300359
253	0x3e386c60	0.18010092
254	0x3ebb5aaa	0.3659261
255	0xbd189ef8	-0.03726098

top_layer.bias f4 [10]
0	0x3b4d5b51	0.0031334946
1	0xbc8ecc70	-0.017431468
2	0x3c28586c	0.010274988
3	0xbbae4a3a	-0.005318907
4	0x3bf71cbc	0.007541267
5	0xba86fa38	-0.001029796
6	0x3ba44cfb	0.0050140596
7	0xbc38a6c8	-0.0112702325
8	0x3bde1735	0.006777669
9	0x3b175089	0.0023088774

momentum_buffer f4 [16, 1, 3, 3]
0	0x3c69ae52	0.014262753
1	0xbbf1d81a	-0.0073804976
2	0x3c67ef1e	0.014156131
3	0x3d2bdfac	0.041961357
4	0x3cfe7ba5	0.031064818
5	0x3d02d245	0.03193881
6	0x3d2132f7	0.039355244
7	0x3c340e84	0.010989789
8	0xbab57ca3	-0.0013846349
9	0xbc9e71d8	-0.019341394
10	0xbc928a3c	-0.01788818
11	0xbb89181a	-0.0041837813
12	0x3a242480	0.00062615424
13	0xbd00103c	-0.031265482
14	0xbcd6ffbe	-0.026244994
15	0xbcf8f5a0	-0.03039056
16	0xbd5c063c	-0.053716883
17	0xbd80b1c1	-0.06283904
18	0x3c20e21b	0.009819533
19	0x3ccc5a9a	0.024945546
20	0x3cfc4cd0	0.030798346
21	0x3d0bb93f	0.03411221
22	0x3d614cbc	0.05500482
23	0x3db7b14c	0.089693636
24	0x3c9a7202	0.018853191
25	0x3d05c550	0.032658875
26	0x3d60f82d	0.05492418
27	0x3d372a9e	0.044718377
28	0x3d57b7b9	0.052665446
29	0x3a7c63a0	0.00096278824
30	0x3cf6e402	0.03013802
31	0x3d69ba3a	0.057062365
32	0x3d10e538	0.03537485
33	0x3cc12a6e	0.023579802
34	0x3d1a2bce	0.03763943
35	0x3dad55a2	0.08463599
36	0xbc150a84	-0.009096745
37	0x3d45de25	0.048307557
38	0x3d4fc6c1	0.050726656
39	0x3abbb3ff	0.0014320611
40	0x3d4ca330	0.049960315
41	0x3cbac8c9	0.02280082
42	0xbc004f71	-0.00783144
43	0x3cbb6ffc	0.022880547
44	0xbc1c1ec1	-0.009528817
45	0xbcb0972a	-0.021556456
46	0x3ccf2792	0.025287423
47	0x3d24d0cd	0.04023819
48	0xbc81ddb0	-0.01585278
49	0x3c86144d	0.016367102
50	0x3cb90088	0.022583261
51	0xbc6e911e	-0.014560966
52	0x3d032bb5	0.032024104
53	0x3cb63c35	0.022245506
54	0x3cd6e3c7	0.02623166
55	0x3cfe00dc	0.03100627
56	0xbd563267	-0.05229416
57	0x3bd3856d	0.0064551146
58	0x3c1c63d4	0.009545285
59	0xbd0154f2	-0.03157515
60	0x3d2d5f67	0.04232731
61	0x3d29ca96	0.041452967
62	0x3bb0faa8	0.0054009743
63	0x3ded7475	0.11594478
64	0x3da71837	0.081589155
65	0xbbf8c471	-0.007591777
66	0x3ded3f4f	0.11584341
67	0x3d34ca8d	0.04413848
68	0xbd1a18f8	-0.03762147
69	0x3dc5d614	0.09659973
70	0xbb618894	-0.0034413682
71	0xbd5c2848	-0.053749353
72	0x3d9b2197	0.07574766
73	0x3d6be86e	0.05759471
74	0x3bfeacf8	0.0077720843
75	0x3daf0814	0.08546463
76	0x3c37cda3	0.011218461
77	0x3bed0a73	0.0072339117
78	0x3d8dfce0	0.06932998
79	0x3c75731d	0.014981058
80	0x3cffaa46	0.031209122
81	0x3ca5078f	0.020145206
82	0xbc1d1c3e	-0.009589253
83	0xbd463c7a	-0.04839752
84	0x3c861c35	0.016370872
85	0x3ca6805f	0.020324884
86	0xbc715eb9	-0.014732056
87	0x3c6cd998	0.014456175
88	0x3c30b787	0.010785944
89	0x3a1faf00	0.00060914457
90	0x3cb10461	0.021608533
91	0xbb45c47d	-0.003017693
92	0xbc2fa7b1	-0.010721133
93	0x3bc666c4	0.006054731
94	0xbc8c967c	-0.0171616
95	0x3a1ca5e0	0.0005975645
96	0xbc926ac1	-0.01787317
97	0xbc4afa51	-0.012388782
98	0x3d21a180	0.03946066
99	0xbc4c5230	-0.012470767
100	0x3cd54d19	0.02603774
101	0x3d36ce85	0.044630546
102	0x3cd9a9d9	0.026570247
103	0x3d437d8e	0.04772716
104	0x3da96cd4	0.082727104
105	0x3cb6ef96	0.02233104
106	0x3cbf0559	0.02331798
107	0x3ce246b3	0.027621603
108	0x3cef6fca	0.02922811
109	0xbc18ab46	-0.0093181785
110	0xbd0ab1ed	-0.03386109
111	0x3c83b8d1	0.016079338
112	0x3c553008	0.01301194
113	0x3d1fb028	0.038986355
114	0xbc529f7a	-0.012855405
115	0x3d0639c8	0.03276995
116	0x3cf667c6	0.03007878
117	0x3c4bf3a4	0.012448225
118	0x3d17666d	0.036962915
119	0x3c85e5c5	0.016344914
120	0x3d1b26f1	0.037878934
121	0x3d85c355	0.06531397
122	0xbc5e3cc2	-0.0135642905
123	0x3d311f7b	0.043242913
124	0x3d7873f8	0.06065747
125	0xbc15b832	-0.009138154
126	0xbc100c86	-0.008792048
127	0x3bb54018	0.005531322
128	0x3c25a288	0.010109551
129	0x3c143124	0.009044919
130	0xbc5e48e8	-0.013567187
131	0xbc8c91b6	-0.017159324
132	0x3bb664f0	0.005566232
133	0xbc8e149c	-0.017343812
134	0xbd1930d8	-0.037400097
135	0x3d997ed2	0.07494892
136	0x3d0df82a	0.034660496
137	0x3c5c4327	0.013443745
138	0x3daa0617	0.08301943
139	0x3d947606	0.07249074
140	0x3d65742c	0.056018993
141	0x3e01e11d	0.1268353
142	0x3dce5f65	0.10076789
143	0x3d002d63	0.031293284

momentum_buffer f4 [16]
0	0xb6b6d216	-5.44848e-06
1	0x36de1eb9	6.619692e-06
2	0x3788e4ec	1.6319063e-05
3	0x37d64878	2.5544534e-05
4	0x37f1b052	2.8811544e-05
5	0xb7d285bc	-2.5096226e-05
6	0x370533c6	7.939472e-06
7	0xb7642dae	-1.3600495e-05
8	0xb66acc68	-3.4987697e-06
9	0xb7c6cb77	-2.3698185e-05
10	0x37f1a3a3	2.8805638e-05
11	0xb7c2b5d3	-2.321127e-05
12	0x378d8adc	1.6873171e-05
13	0x373a09b7	1.1088726e-05
14	0x372c4800	1.0268763e-05
15	0xb78f4419	-1.7078639e-05

momentum_buffer f4 [16]
0	0xbe32dff3	-0.17468242
1	0xbe3b681a	-0.1830143
2	0x3c855823	0.016277378
3	0x3d2fbc0a	0.042903937
4	0x3d2e5606	0.042562507
5	0xbbdfec71	-0.006833606
6	0x3dbbeb14	0.09175697
7	0x3da6c7a2	0.08143546
8	0xba643bd0	-0.00087064225
9	0xbdad6e10	-0.084682584
10	0x3d7ef002	0.062240608
11	0xbccd7cfe	-0.025084015
12	0xbe4a95b4	-0.1978367
13	0xbd1b296a	-0.037881292
14	0xbcf1fe10	-0.029540092
15	0x3ca76388	0.020433202

momentum_buffer f4 [16]
0	0xbd26d5e0	-0.04073131
1	0xbd8f8ede	-0.07009672
2	0xbdbcf982	-0.09227277
3	0xbc42a360	-0.011879772
4	0x3d849f54	0.06475702
5	0xbd04c6b6	-0.032416068
6	0x3e1405f9	0.14455403
7	0x3d97340c	0.07382974
8	0xbe17dd61	-0.14830543
9	0xbbe355b6	-0.006937708
10	0x3d1770f2	0.036972947
11	0xbdbf160b	-0.09330376
12	0xbd59c359	-0.053164814
13	0xbdafaa40	-0.085773945
14	0xbdf9e4d4	-0.122018486
15	0x3baa2330	0.005192183
