deepcluster_implementation/experiments/run_20250107_180402/config_2/checkpoints/checkpoint_epoch_1.pth.tar (torch, 203702 bytes, 32 tensors)

features.module.0.weight f4 [16, 1, 3, 3]
0	0x3f3961a0	0.7241459
1	0x3d42f929	0.0476009
2	0xbe9d10fc	-0.3067702
3	0xbdecc5df	-0.115611784
4	0xbeb3e27d	-0.35133734
5	0xbdfb70f6	-0.12277405
6	0xbf3674e1	-0.71272093
7	0xbd94ec1c	-0.07271597
8	0x3f67d625	0.90561134
9	0xbd102465	-0.03519096
10	0x3e8cb2f9	0.27480295
11	0x3e993053	0.2991968
12	0x3e8b8ef7	0.2725751
13	0xbebd4a83	-0.3697091
14	0xbe18a334	-0.14906007
15	0xbda03e02	-0.07824327
16	0xbc83c7b6	-0.01608644
17	0x3f00a93f	0.5025825
18	0xbefeb737	-0.49749157
19	0xbec713eb	-0.38882384
20	0xbe9dc845	-0.30816856
21	0xbd9fce01	-0.07802964
22	0x3eb5b353	0.35488376
23	0x3eeea97b	0.46613678
24	0xbeefd012	-0.46838433
25	0xbdc32be3	-0.09529855
26	0xbca74182	-0.020416979
27	0xbf78b574	-0.97151875
28	0xbd23d5fe	-0.039999
29	0xbf1bc730	-0.6085081
30	0x3e0b39dc	0.1359629
31	0x3cc33d92	0.02383307
32	0x3e2794fd	0.16365428
33	0x3e816ed9	0.25279883
34	0xbdc707e9	-0.097183056
35	0x3eb399e9	0.35078362
36	0x3dfad67f	0.12247943
37	0x3db2814c	0.08716068
38	0x3eb3ef77	0.35143635
39	0xbdc617f5	-0.09672538
40	0xbf0ef5b2	-0.5584365
41	0xbeb6a75a	-0.35674554
42	0x3edefb20	0.43550968
43	0x3e23318a	0.15936866
44	0x3ee07af1	0.43843797
45	0x3ebc23e9	0.36746147
46	0x3e9f2823	0.3108531
47	0x3e9e7c8f	0.30954406
48	0xbd347496	-0.044056498
49	0xbdb2a6f6	-0.087232515
50	0xbf2821fd	-0.6567686
51	0xbeb78b1c	-0.3584832
52	0xbeb85358	-0.36001086
53	0xbe8f98ff	-0.28046414
54	0x3e6ba3f3	0.2301176
55	0x3e6cd47f	0.23127936
56	0x3ed676b5	0.4188744
57	0xbe252719	-0.16128196
58	0x3e72fdfa	0.23729697
59	0x3db1b034	0.08676186
60	0xbf16897e	-0.58803546
61	0xbee2e870	-0.4431796
62	0xbeca2753	-0.39483127
63	0xbd7c845e	-0.061649673
64	0xbddbe12a	-0.10736306
65	0xbef78e30	-0.48350668
66	0x3e1b2117	0.15149342
67	0xbc350712	-0.011049049
68	0xbefb7cbb	-0.491186
69	0xbe4f2569	-0.20229115
70	0x3edc4147	0.43018553
71	0x3f21e97f	0.6324691
72	0x3f16a242	0.58841336
73	0xbeb20786	-0.34771365
74	0xbf16f83f	-0.58972543
75	0xbe71abad	-0.23600645
76	0xbe1824c2	-0.14857772
77	0xbd18f3fe	-0.037342064
78	0x3e8d4c70	0.2759738
79	0x3e6648fd	0.2248878
80	0x3d09b54a	0.033620156
81	0xbf2386d2	-0.63877594
82	0x3e9f96d8	0.31169772
83	0x3e4d49a3	0.20047621
84	0xbc89dd11	-0.016829045
85	0x3e40407a	0.18774596
86	0x3e8e362f	0.27775714
87	0xbefd2392	-0.494412
88	0xbe8a27d7	-0.2698352
89	0x3e46d33e	0.1941652
90	0xbeb55ea8	-0.3542378
91	0xbe88dabf	-0.2672939
92	0x3f2e0cd2	0.6798831
93	0x3cf4a1b7	0.029862268
94	0xbee8e0af	-0.4548392
95	0x3d475aa0	0.04867041
96	0x3f427323	0.75956935
97	0xbef25d32	-0.47336727
98	0xbea45e8d	-0.32103387
99	0xbf0676e3	-0.52525157
100	0xbd7c7b2c	-0.061640903
101	0x3e376657	0.17910133
102	0x3e05b134	0.13055879
103	0x3e251085	0.16119583
104	0x3e7421c7	0.2384101
105	0xbe25fc15	-0.16209443
106	0xbe9bcc41	-0.3042927
107	0xbeb68750	-0.3565011
108	0xbf027953	-0.50966376
109	0x3c491706	0.012273556
110	0x3efd6c74	0.49496806
111	0xbe61eea6	-0.22063693
112	0x3dcdcf47	0.10049301
113	0xbdeba87e	-0.11506747
114	0xbe827d67	-0.254863
115	0xbec7f88d	-0.39056817
116	0xbda225b2	-0.07917346
117	0xbed198a1	-0.4093676
118	0xbe0e7ef2	-0.13915613
119	0xbe8f109f	-0.27942368
120	0x3e7e7d90	0.24852586
121	0x3df0d28c	0.11758909
122	0x3bd8fb66	0.006621766
123	0x3cf077c5	0.029353986
124	0xbdbdd2cc	-0.09268722
125	0xbe98477e	-0.29742044
126	0xbf3c66f7	-0.7359461
127	0xbea8fc6a	-0.33005077
128	0x3f33c23c	0.70218253
129	0x3c170e88	0.009219773
130	0x3eac4563	0.33646688
131	0x3d87aa90	0.06624329
132	0x3ee0f970	0.43940306
133	0x3e5ec8f2	0.21756342
134	0xbf3651af	-0.7121839
135	0x3e361af7	0.17783724
136	0xbdef95bf	-0.11698484
137	0xbeb94b51	-0.36190274
138	0x3e7e828c	0.24854487
139	0x3d810389	0.062995024
140	0x3e45f68f	0.19332336
141	0xbf00cc51	-0.5031176
142	0xbccca551	-0.024981173
143	0xbeb68531	-0.35648492

features.module.0.bias f4 [16]
0	0xbd6a1d76	-0.057157002
1	0x3d8d9735	0.06913606
2	0x3e2efc49	0.17088427
3	0x3e88d1f7	0.2672269
4	0x3e9a61b8	0.30152678
5	0xbe8662cb	-0.26247248
6	0x3daa9b9c	0.083304614
7	0xbe11cab0	-0.14237475
8	0xbd149370	-0.03627342
9	0xbe7db4d3	-0.2477601
10	0x3e9a5dab	0.30149588
11	0xbe78c63c	-0.2429437
12	0x3e3526f6	0.17690644
13	0x3dee3edc	0.11633083
14	0x3ddc4aa4	0.10756424
15	0xbe3741a2	-0.1789613

features.module.1.weight f4 [16]
0	0x3f469b42	0.77580655
1	0x3efb7ad5	0.4911715
2	0x3f9b8bf0	1.215208
3	0x3f87d04e	1.0610445
4	0x3f0d8f98	0.5529723
5	0x3f8832e8	1.0640535
6	0x3f8c77be	1.0974042
7	0x3f4e8864	0.80676866
8	0x3f348d92	0.7052852
9	0x3f39b962	0.72548497
10	0x3f544158	0.82912207
11	0x3f908fe9	1.1293918
12	0x3f930d51	1.1488439
13	0x3f897445	1.0738608
14	0x3f3a66cd	0.7281311
15	0x3f902d43	1.1263813

features.module.1.bias f4 [16]
0	0xbf3d09d4	-0.7384312
1	0xbf27975e	-0.65465343
2	0xbe8cafcc	-0.27477872
3	0xbe6b5e6b	-0.22985236
4	0xbf21a4bc	-0.6314199
5	0xbe8b80b4	-0.2724663
6	0xbf1d6495	-0.614816
7	0xbe4faf97	-0.20281826
8	0xbe94dfdb	-0.29077038
9	0xbee13a5a	-0.4398983
10	0xbe67120d	-0.2256548
11	0xbe899916	-0.26874608
12	0xbec81b31	-0.39083245
13	0xbe0756bd	-0.13216682
14	0xbf3bad9a	-0.7331177
15	0xbea0cbb3	-0.3140541

features.module.1.running_mean f4 [16]
0	0xbd34f390	-0.04417759
1	0x3dc8340a	0.09775551
2	0x3e03ac16	0.12858614
3	0x3e751071	0.23932053
4	0x3eaed6ec	0.34148347
5	0xbe8cabf5	-0.27474943
6	0x3d8a7cd3	0.067620896
7	0xbe195d1d	-0.14976926
8	0xbd051614	-0.03249176
9	0xbe88ccce	-0.26718754
10	0x3ea00087	0.31250402
11	0xbe8b1db0	-0.27171087
12	0x3e1bafcc	0.1520378
13	0x3db1dcc9	0.086846896
14	0x3dc88eeb	0.097928844
15	0xbe54a3aa	-0.20765558

features.module.1.running_var f4 [16]
0	0x3f346459	0.7046562
1	0x3eb3159e	0.3497743
2	0x3f815045	1.0102621
3	0x3f93ea8c	1.1555953
4	0x3ead9e6e	0.33909935
5	0x3faa25d3	1.3292793
6	0x3f760abc	0.9611013
7	0x3f136624	0.5757773
8	0x3efa11a0	0.48841572
9	0x3f1e75a8	0.6189828
10	0x3ef70e4b	0.48253092
11	0x3eea32c0	0.45741844
12	0x3f764bf0	0.9620962
13	0x3ed0e052	0.40796143
14	0x3f1eac0b	0.61981267
15	0x3edd0500	0.43167877

features.module.4.weight f4 [32, 16, 3, 3]
0	0xbd055dc2	-0.032560118
1	0xbbe34df6	-0.006936784
2	0x3da223e2	0.07917
3	0xbdaf582c	-0.08561739
4	0x3c469bdb	0.01212212
5	0x3d240858	0.04004702
6	0xbbe10b2b	-0.0068677864
7	0x3d4bc26b	0.04974596
8	0xbd62766c	-0.055288717
9	0x3d193af2	0.03740973
10	0xbd1c5334	-0.038165286
11	0xbd6834de	-0.056691043
12	0x3d9f0d6f	0.07766234
13	0xbcd40dde	-0.025885519
14	0xbdceaa03	-0.10091021
15	0xbcaf4237	-0.021393878
16	0xbd79ca99	-0.060984228
17	0xbcdaaa96	-0.02669267
18	0x3d55c600	0.05219078
19	0xbce3c896	-0.027805608
20	0x3b4ce11d	0.0031262108
21	0x3c87ea81	0.016591312
22	0x3d0a13e6	0.033710383
23	0x3cb92b59	0.022603678
24	0x3d37e525	0.044896264
25	0x3c93c132	0.018036459
26	0x3c0f42c2	0.008743944
27	0x3bc679f4	0.0060570184
28	0x3ce2a88a	0.027668256
29	0x3d3184f1	0.043339673
30	0xbcf9ec97	-0.030508323
31	0xbc9969cb	-0.018727204
32	0x3c7a38bb	0.015272315
33	0xbd4963a5	-0.049167294
34	0xbd1a6fc5	-0.037704248
35	0xbdc70e9d	-0.09719584
36	0x3e099dbe	0.1343908
37	0xbd528f10	-0.051405966
38	0xbdc66659	-0.0968749
39	0x3ddbb642	0.10728122
40	0xbdede20b	-0.1161538
41	0xbe1765c2	-0.14784911
42	0x3ddd3620	0.10801339
43	0xbd4b6548	-0.049657136
44	0xbe2217d2	-0.15829399
45	0xbde0c9a1	-0.10975958
46	0xbc8afaf2	-0.016965363
47	0xbcfc0c7d	-0.030767674
48	0x3c8279fd	0.01592731
49	0x3cf87031	0.030326935
50	0x3d38ebee	0.045146875
51	0x3d7be93d	0.06150173
52	0x3d264624	0.040594235
53	0x3c0576b9	0.0081459815
54	0xbe038ded	-0.12847109
55	0xbc8c7a14	-0.017148055
56	0xbe032401	-0.12806703
57	0xbce6c53d	-0.028170222
58	0xbd801b4f	-0.06255209
59	0xbdf9dba7	-0.122000985
60	0xbd881bbe	-0.066459164
61	0xbe0734e7	-0.13203774
62	0xbe15fb1c	-0.14646572
63	0x3cb261f7	0.021775229
64	0x3d2ecdea	0.042676844
65	0x3d11f68c	0.035635516
66	0xbc9cb273	-0.01912806
67	0xbcb2e2e3	-0.021836704
68	0xbdab26b6	-0.08356993
69	0xbe04561f	-0.12923478
70	0xbe0b2444	-0.13588053
71	0xbe48c0a9	-0.19604744
72	0xbdf90ec3	-0.12161019
73	0xbaa2b266	-0.0012412786
74	0x3d2fc3b9	0.042911265
75	0xbd244c42	-0.040111788
76	0xbd30e4b6	-0.043186866
77	0xbc42c1ee	-0.011887057
78	0xbdb62b48	-0.08894974
79	0xbade280f	-0.0016949194
80	0x3df2d798	0.118575275
81	0xbe19b30c	-0.15009707
82	0xbd74dcd3	-0.059780907
83	0xbd9a111a	-0.07522793
84	0xbd4dcdc1	-0.05024505
85	0xbca96a5e	-0.020680603
86	0xbcdb88f6	-0.026798707
87	0xbcd42b3e	-0.025899526
88	0x3d0a9ff8	0.033843964
89	0x3d497fce	0.04919415
90	0xbdfae7ab	-0.122512184
91	0xbdcdbf18	-0.10046214
92	0x3a97f53a	0.0011593469
93	0xbdaffd86	-0.08593278
94	0xbd4db045	-0.05021693
95	0x3bc4d815	0.0060072043
96	0xbdf653ca	-0.120277
97	0xbdb02730	-0.086012244
98	0xbc86fab5	-0.016476968
99	0x3d5e4f5a	0.054274894
100	0x3c81c7b0	0.015842289
101	0xbdab0631	-0.0835079
102	0x3caf9b81	0.021436455
103	0xbd34d8bd	-0.04415201
104	0xbc3eed3f	-0.011653244
105	0x3d544a72	0.05182881
106	0xbd20b385	-0.039233703
107	0xbbab2044	-0.005222352
108	0xbd038d79	-0.03211734
109	0xbda27f97	-0.07934492
110	0xbda1114e	-0.07864629
111	0xbd9f54f1	-0.07779873
112	0x3c928144	0.017883904
113	0x3b3ed3b8	0.0029117893
114	0x3db6f7de	0.08933996
115	0x3c22050d	0.0098888995
116	0xbd2e8d9b	-0.042615514
117	0x3c67182c	0.014104884
118	0xbcae5cc0	-0.021284461
119	0x3c4faab6	0.012674978
120	0xbca4e2c0	-0.020127654
121	0xbd1d5b81	-0.038417343
122	0xbb3f19a7	-0.0029159577
123	0x3c0f3d90	0.008742705
124	0xbcf2be7d	-0.029631848
125	0x3c51c465	0.012803172
126	0xbdcd7d2b	-0.100336395
127	0xbcde59c7	-0.027142419
128	0x3da208ac	0.0791181
129	0xbcf050ba	-0.029335368
130	0xbc865435	-0.016397575
131	0x3cae7a42	0.021298531
132	0xbd81a9ab	-0.0633119
133	0xbdb3e2f2	-0.08783521
134	0xbd933c56	-0.071892425
135	0xbd7175cf	-0.05895024
136	0xbd7436f7	-0.05962273
137	0x3d301b02	0.042994507
138	0x3b5e9619	0.0033963977
139	0xbcb25b11	-0.02177194
140	0x3cf5e9f8	0.030018792
141	0x3dcf385a	0.1011817
142	0x3d5e231a	0.054232694
143	0x3d9b1797	0.07572859
144	0xbe459d0a	-0.19298187
145	0xbc8cfd6c	-0.017210685
146	0xbca33150	-0.019920975
147	0xbe5aabcf	-0.21354602
148	0xbd6c55fe	-0.057699196
149	0x3d1005e7	0.03516188
150	0xbddd5b4b	-0.108084284
151	0xbda9fbd3	-0.08299985
152	0xbd657579	-0.056020234
153	0x3cf2560a	0.029582042
154	0x3d79ee0a	0.061018027
155	0xbe6ce207	-0.23133098
156	0x3d8a7169	0.067599125
157	0xbd232c63	-0.039837252
158	0xbe8b033c	-0.27150905
159	0x3c30711f	0.010769158
160	0xbe4e6cfc	-0.20158762
161	0xbe73e9f0	-0.23819709
162	0xbdd1daf3	-0.102468394
163	0xbbdfae27	-0.0068261805
164	0xbda56004	-0.08074954
165	0xbd60fe1c	-0.054929838
166	0xbcca5e4f	-0.024703173
167	0xbd9926a5	-0.07478074
168	0x3d2e4403	0.04254533
169	0x3cd10794	0.025516309
170	0xbcc2c6f7	-0.023776514
171	0xbe09317c	-0.13397783
172	0xbe1e37ae	-0.15450928
173	0xbe3043fd	-0.17213435
174	0xbdaf613e	-0.08563469
175	0xbcf35a81	-0.029706242
176	0x3da5ca43	0.08095219
177	0xbe44f3d8	-0.19233644
178	0xbdfbf54a	-0.123026446
179	0xbdf0f176	-0.11764805
180	0x3bc77514	0.006086955
181	0x3e03561f	0.12825821
182	0xbdf4b968	-0.11949426
183	0x3d2de78a	0.04245714
184	0x3e077b2d	0.13230582
185	0xbdf77860	-0.120835066
186	0x3da264de	0.07929395
187	0x3c7b2bb3	0.015330243
188	0xbe4054c8	-0.18782341
189	0x3c1d9037	0.009616903
190	0x3d01a041	0.03164697
191	0x3d2225a4	0.03958668
192	0xbd771478	-0.060322255
193	0xbca38e50	-0.01996532
194	0xbd29f23e	-0.041490786
195	0xbd89bb47	-0.067251734
196	0xbcbf7660	-0.023371875
197	0x3db29c43	0.08721211
198	0x3d1832c5	0.037157793
199	0x3aff4cf4	0.001947789
200	0xbde79f39	-0.11309666
201	0xbd9dccf3	-0.077051066
202	0x3c19b3f9	0.009381288
203	0xbdb42515	-0.08796135
204	0xbcc526e0	-0.024066389
205	0xbc6220a8	-0.013801731
206	0xbd9ca165	-0.07647971
207	0xbe219b58	-0.15781915
208	0xbd92654f	-0.07148229
209	0xbd9858ff	-0.0743885
210	0x3d436ef8	0.04771325
211	0x3e02972a	0.12752977
212	0xbcd37521	-0.025812687
213	0xbe687e8d	-0.22704525
214	0xbe3967be	-0.18105981
215	0xbe97d055	-0.29651132
216	0x3e0ae564	0.13564068
217	0x3c8a484c	0.016880177
218	0xbd3e9c65	-0.04653587
219	0x3d780a5b	0.06055675
220	0xbd1b5067	-0.037918475
221	0x3c9cebb1	0.019155355
222	0x3cf7658e	0.030199792
223	0xbd7eea2b	-0.06223504
224	0x3c0c12e4	0.008549426
225	0x3dbff71a	0.09373303
226	0xbd83af7e	-0.06429957
227	0xbd80a3d9	-0.062812515
228	0x3d5e4fd9	0.054275367
229	0xbd5c543a	-0.053791262
230	0xbda9d0ca	-0.082917765
231	0x3de92c5b	0.11385413
232	0xbd8f9a51	-0.070118554
233	0xbe3cdbb7	-0.1844319
234	0x3aebc0b6	0.001798651
235	0xbd7beb23	-0.06150354
236	0xbcd73fe2	-0.026275579
237	0x3a2ab128	0.00065113837
238	0xba2d4c32	-0.000661078
239	0xbbfa36a1	-0.007635907
240	0xbc979b77	-0.018506749
241	0xbd91c4ab	-0.071175896
242	0xbd0b2ac6	-0.03397634
243	0x3ca95cf9	0.020674216
244	0x3d85407e	0.065064415
245	0xbd85ddcb	-0.06536444
246	0x3c9e5730	0.019328684
247	0x3ceaa371	0.028642388
248	0xbd6e4cc8	-0.058178693
249	0x3d82d9e9	0.06389219
250	0xbbc233ca	-0.005926584
251	0xbc18b69e	-0.009320883
252	0x3dd62622	0.10456492
253	0x3dd75850	0.10514891
254	0x3e00f395	0.12592919
255	0x3d0e0893	0.034676146

features.module.4.bias f4 [32]
0	0x3cb0202d	0.021499718
1	0x3d2a19e1	0.041528586
2	0xbd9af12d	-0.07565532
3	0xbd6c65b3	-0.057714175
4	0xbda2a684	-0.079419166
5	0x3d1e3911	0.03862864
6	0x3d7e34f0	0.062062204
7	0xbda2d46c	-0.079506725
8	0x3cb03afc	0.021512501
9	0x3c897b4a	0.016782422
10	0xbd35e469	-0.044407282
11	0x3c927751	0.01787916
12	0x3d82addf	0.063808195
13	0x3da63b36	0.08116762
14	0x3d12932d	0.03578489
15	0xbc866c6a	-0.016409118
16	0xbd40dc46	-0.04708507
17	0xbd01182f	-0.031517204
18	0x3a31f2b4	0.000678818
19	0xbbc7217f	-0.006076991
20	0x3d7753e8	0.060382754
21	0xbd9928eb	-0.074785076
22	0x3bf2071b	0.007386101
23	0xbcd79be9	-0.026319461
24	0x3be2201e	0.0069008013
25	0x3da2f92f	0.07957684
26	0x3b1ea691	0.0024208168
27	0xbc6b2588	-0.01435221
28	0xbce5c58f	-0.028048305
29	0xbda91f93	-0.082579754
30	0xbd998bab	-0.07497343
31	0x3d13af34	0.03605576

features.module.5.weight f4 [32]
0	0x3f554c1c	0.8331926
1	0x3f74c670	0.9561529
2	0x3f575b77	0.8412394
3	0x3f55a970	0.83461666
4	0x3f2f4c89	0.6847616
5	0x3f1d21bd	0.61379606
6	0x3f332e3b	0.6999242
7	0x3f3349dd	0.7003458
8	0x3f63f1d1	0.8904086
9	0x3f2cdeea	0.6752764
10	0x3f4bc954	0.7960408
11	0x3f9e85d6	1.2384593
12	0x3f0ef9a6	0.55849683
13	0x3f50562e	0.813815
14	0x3f519f72	0.8188392
15	0x3f57bed3	0.8427555
16	0x3f8354fb	1.0260309
17	0x3f7b88bf	0.9825553
18	0x3f537512	0.8260051
19	0x3f64dcf0	0.89399624
20	0x3f85a92f	1.0442256
21	0x3f6bf8b0	0.9217634
22	0x3f562b91	0.8366023
23	0x3f593fbc	0.84862876
24	0x3f515dfe	0.81784046
25	0x3f566636	0.8374971
26	0x3f6b2699	0.9185577
27	0x3f3d28e2	0.7389051
28	0x3f400c2f	0.7501859
29	0x3f546b9c	0.829767
30	0x3f5d7ead	0.86521417
31	0x3f6290ac	0.88502

features.module.5.bias f4 [32]
0	0xbe892d9c	-0.2679261
1	0xbf18f158	-0.5974326
2	0xbebca534	-0.3684479
3	0xbebd672a	-0.3699277
4	0xbee9f2a0	-0.4569292
5	0xbf33ef83	-0.7028734
6	0xbec72d94	-0.3890196
7	0xbf039226	-0.5139488
8	0xbed6029d	-0.4179887
9	0xbf65a707	-0.8970799
10	0xbe8be4d3	-0.27323017
11	0xbf46a513	-0.77595633
12	0xbf28e1e5	-0.6596969
13	0xbee86049	-0.4538596
14	0xbe98ae5d	-0.2982053
15	0xbef04add	-0.46932116
16	0xbf34fe23	-0.7070028
17	0xbf2906d1	-0.66026026
18	0xbf3c7561	-0.73616606
19	0xbeeb823d	-0.459978
20	0xbf1a8d1a	-0.60371554
21	0xbeb643d7	-0.35598633
22	0xbf0dce6c	-0.553931
23	0xbf00439f	-0.5010318
24	0xbeecb135	-0.46228948
25	0xbef111b8	-0.4708383
26	0xbf0b2f7c	-0.5436933
27	0xbee046d6	-0.43804044
28	0xbe971abb	-0.2951258
29	0xbedf33ee	-0.43594307
30	0xbedf02be	-0.4355678
31	0xbf9cdaaa	-1.2254231

features.module.5.running_mean f4 [32]
0	0xbe8c8e19	-0.27452162
1	0xbefba3d7	-0.49148437
2	0xbf14643e	-0.5796546
3	0xbeb14e83	-0.34630212
4	0xbf24a66c	-0.6431644
5	0xbec6a630	-0.38798666
6	0xbe4a0b00	-0.19730759
7	0xbf366362	-0.71245396
8	0xbe3b612f	-0.18298791
9	0xbf3c760c	-0.73617625
10	0xbeacc9ae	-0.3374762
11	0xbf5f20f9	-0.8715969
12	0xbf4a1f7b	-0.78954285
13	0xbd35cc79	-0.044384453
14	0xbf0302ff	-0.51176447
15	0xbecf3a11	-0.4047399
16	0xbef375ba	-0.47550756
17	0xbf282934	-0.6568787
18	0xbf1e29fd	-0.6178282
19	0xbf0c67ca	-0.5484587
20	0xbedbf070	-0.42956877
21	0xbeab974d	-0.3351387
22	0xbe7def19	-0.2479824
23	0xbe1c24ae	-0.15248367
24	0xbecf6328	-0.40505338
25	0xbec61d39	-0.3869417
26	0xbf092702	-0.53575146
27	0xbf0087a5	-0.5020698
28	0xbe7f6c68	-0.24943697
29	0xbea12d7e	-0.3148002
30	0xbe6ee197	-0.23328243
31	0xbf73a327	-0.95170826

features.module.5.running_var f4 [32]
0	0x3e89c5bd	0.26908675
1	0x3ee5918a	0.448376
2	0x3e849181	0.2589226
3	0x3ea4ec88	0.3221171
4	0x3e8adf58	0.27123523
5	0x3e91fdc3	0.28513917
6	0x3e95769c	0.29192054
7	0x3e728647	0.23684035
8	0x3ec3fb2f	0.38277575
9	0x3e884130	0.26612234
10	0x3e6f0423	0.23341422
11	0x3f8bfd77	1.0936726
12	0x3eb4ca8f	0.3531079
13	0x3e34b4ae	0.17647049
14	0x3e6beccc	0.2303955
15	0x3eb60695	0.35551897
16	0x3ee0bd77	0.4389455
17	0x3f2b8a57	0.67007965
18	0x3e74301c	0.23846477
19	0x3edf8ee7	0.43663713
20	0x3eb66182	0.35621268
21	0x3ed6123c	0.41810787
22	0x3e272fac	0.16326779
23	0x3e811562	0.25211626
24	0x3ea35a1c	0.31904685
25	0x3e9ae656	0.30253857
26	0x3f1c5d4e	0.6107987
27	0x3e7df61d	0.24800916
28	0x3e677284	0.22602278
29	0x3e6b5280	0.2298069
30	0x3e6a78f9	0.2289771
31	0x3ed8112e	0.42200607

features.module.8.weight f4 [64, 32, 3, 3]
0	0xbd5d709c	-0.05406247
1	0xbd390c3e	-0.04517769
2	0xbd3e5351	-0.046466175
3	0xbd23332e	-0.03984373
4	0xbd388ea8	-0.045057923
5	0xbd3601ae	-0.044435196
6	0xbd07bbe4	-0.03313817
7	0xbd27d49b	-0.04097424
8	0xbd53e1a5	-0.051728863
9	0xbb28dedc	-0.00257676
10	0xbcd57253	-0.02605549
11	0xbc910a2c	-0.017705046
12	0x3ca5402f	0.020172207
13	0x3aa034d6	0.0012222778
14	0xb9770f4d	-0.00023561456
15	0x3c005ba0	0.007834345
16	0xbaf7f5c0	-0.0018917844
17	0xbb97d162	-0.0046331147
18	0x3cbc4c41	0.02298558
19	0x3c05977a	0.008153791
20	0x3ce1a6c1	0.027545335
21	0x3cd71bbe	0.026258346
22	0xbbf8b13d	-0.007589488
23	0x3cdd3d7c	0.027006857
24	0xbc93f44d	-0.018060828
25	0xbd0b399b	-0.033990484
26	0xbc78ee64	-0.0151935555
27	0x3ced17ec	0.02894207
28	0x3d3b5287	0.045733
29	0x3d42225e	0.047396056
30	0x3d0b9dbc	0.034085974
31	0x3d25ee65	0.040510554
32	0x3d07cfc2	0.033157118
33	0x3d0d785a	0.034538604
34	0x3d2da917	0.042397585
35	0x3d1b2e75	0.0378861
36	0x3d997795	0.074935116
37	0x3d0957ae	0.033530883
38	0x3d08b255	0.033373196
39	0x3d5a622a	0.053316273
40	0x3d53a263	0.051668536
41	0x3d3b5272	0.045732923
42	0x3db53411	0.088478215
43	0x3d25f4f8	0.040516824
44	0x3d332b77	0.043742623
45	0xbc3ffdfb	-0.0117182685
46	0xbc9b835e	-0.01898354
47	0xbbc125d1	-0.0058944006
48	0xbc7ea1de	-0.015541522
49	0xbc500972	-0.012697564
50	0xbc790f9a	-0.015201474
51	0xbbfe6d34	-0.007764483
52	0xbc693ebd	-0.014236149
53	0xbd152aef	-0.036417898
54	0x3d80f7bf	0.06297254
55	0x3d41d9a3	0.047326695
56	0x3d71490e	0.05890756
57	0x3d59c891	0.05316979
58	0x3d03c3a0	0.032168984
59	0x3d4fe785	0.050757904
60	0x3d835997	0.06413572
61	0x3d1e4040	0.038635492
62	0x3d0a61d5	0.033784706
63	0xbc9edf20	-0.019393504
64	0xbc9a513b	-0.018837562
65	0xbd19e66b	-0.03757326
66	0xbc11f0af	-0.008907481
67	0xbbe1d620	-0.006891981
68	0xbcd3ba37	-0.02584563
69	0xbd0b934f	-0.03407603
70	0xbce7966b	-0.028269967
71	0xbd518a97	-0.05115756
72	0x3c9c8482	0.019106153
73	0x3c87534a	0.016519208
74	0x3c5be67c	0.013421651
75	0x3c6840db	0.014175619
76	0x3cd07b7a	0.025449503
77	0x3cda9f23	0.02668721
78	0x3d4b23cd	0.04959469
79	0x3d09e6ab	0.033667248
80	0x3d214175	0.039369065
81	0x3941444a	0.00018431354
82	0x3c567629	0.013089695
83	0x3c90012d	0.017578686
84	0xbcc4c9fa	-0.024022091
85	0xbc9e14e5	-0.019297073
86	0xbbe4fec3	-0.006988378
87	0xbd3ec702	-0.046576507
88	0xbd1a849d	-0.037724126
89	0xbd241e63	-0.04006804
90	0xbcc642e9	-0.024201827
91	0xbc817736	-0.015803915
92	0xbb84d368	-0.004053522
93	0xbd0a2636	-0.033727847
94	0xbc9988ad	-0.01874193
95	0xbc35c420	-0.011094123
96	0xbd36dff8	-0.044647187
97	0xbd0fa5cd	-0.03507023
98	0xbceb4348	-0.028718606
99	0x3be6960c	0.00703693
100	0xbbabbc3b	-0.0052409447
101	0xbca93eec	-0.020659886
102	0xba8d69a4	-0.001078893
103	0xbbf0bcdb	-0.007346732
104	0xbc7562e2	-0.014977189
105	0xbc241daf	-0.010016843
106	0xbc778ae2	-0.015108796
107	0xbcbd0fcc	-0.023078822
108	0xbcad6a8c	-0.02116897
109	0xbc45c333	-0.012070465
110	0xbc2cd76c	-0.010549407
111	0xbb032553	-0.002001126
112	0x3c1d996f	0.009619101
113	0x3c1807ec	0.0092792325
114	0xbc885f8d	-0.016647125
115	0xbc631b34	-0.013861466
116	0xbce4ee8c	-0.02794578
117	0xbcb8b27f	-0.022546051
118	0xbc73e9e0	-0.014887303
119	0xbcefe44d	-0.029283667
120	0xbc9957d4	-0.018718638
121	0xbcbca760	-0.02302903
122	0xbcd27c02	-0.025693897
123	0xbcbdf671	-0.023188801
124	0xbcd14a11	-0.025548013
125	0xbcecf9e8	-0.028927758
126	0xbd595d31	-0.05306739
127	0xbd7541b2	-0.059877105
128	0xbd4a9f61	-0.0494684
129	0xbd033e12	-0.032041617
130	0xbd1e156d	-0.038594652
131	0xbd32a388	-0.043612987
132	0xbd233c2a	-0.0398523
133	0xbd2ae3d6	-0.041721188
134	0xbd8242fe	-0.06360434
135	0x3ccb3e5b	0.024810007
136	0x3d247e5a	0.04015956
137	0x3d9cbc0d	0.07653055
138	0xbc3c5f9a	-0.011497403
139	0x3a812fb6	0.0009856138
140	0x3d0d7c85	0.03454258
141	0x3c86823f	0.016419528
142	0x3c7cbeee	0.015426381
143	0x3d4cc8e2	0.049996264
144	0xbc588168	-0.013214447
145	0xba1cd891	-0.00059831986
146	0x39bf04e1	0.00036433994
147	0xbc47adc7	-0.012187428
148	0x3c61d1e1	0.013782949
149	0x3c8869da	0.016652036
150	0xbd54a936	-0.051919185
151	0xbc96ddda	-0.018416334
152	0xbcb5d336	-0.02219544
153	0x3e2396e2	0.15975526
154	0x3d961491	0.073281415
155	0x3dcb6baa	0.09932645
156	0x3e009a57	0.12558876
157	0x3d862f9a	0.06552048
158	0x3db606af	0.088879935
159	0x3e09f457	0.13472115
160	0x3dc0b864	0.0941017
161	0x3dfcd01b	0.123443805
162	0xbd00ada9	-0.031415615
163	0xbcd6849f	-0.026186286
164	0xbd3f4453	-0.04669602
165	0xbc4317f3	-0.011907565
166	0xbb9e5c97	-0.004832815
167	0xbc6b1ae3	-0.014349672
168	0xbcd1a30f	-0.025590448
169	0xbc2585f7	-0.0101027405
170	0xbc944990	-0.018101484
171	0x3d1f78d2	0.038933583
172	0x3d3b10c0	0.04567027
173	0x3d854757	0.065077476
174	0x3c053e09	0.008132466
175	0x3d137809	0.036003146
176	0x3d949886	0.07255654
177	0x3cae16c7	0.021251095
178	0x3d0b6362	0.034030326
179	0x3de665d4	0.11249891
180	0xbcabf958	-0.02099292
181	0xbcbebc09	-0.023283022
182	0xbd1000bb	-0.035156947
183	0x3c12ab18	0.008951925
184	0xba104f0f	-0.0005504945
185	0xbc67e133	-0.014152813
186	0xbaa799c6	-0.0012786917
187	0xbcc13dca	-0.023589034
188	0xbd35e6b5	-0.044409472
189	0xbd47d266	-0.048784636
190	0xbcddfe77	-0.027098877
191	0xbce7c7f1	-0.028293582
192	0xbd093202	-0.033494957
193	0xbbeed0d7	-0.0072880792
194	0xbb00b84c	-0.00196411
195	0xbd03390d	-0.03203683
196	0xba97f400	-0.0011593103
197	0x3c14afc7	0.009075112
198	0xbb94c2a2	-0.0045398036
199	0x3a9d0833	0.0011980593
200	0x3c7a184f	0.015264585
201	0xbd266020	-0.040619016
202	0xbbda5ae9	-0.0066636694
203	0xbb99885c	-0.0046854448
204	0xbd2f42ea	-0.042788424
205	0xbcd844f1	-0.026400061
206	0xbc698c71	-0.014254675
207	0x3c8da8d0	0.01729241
208	0x3be140a3	0.0068741604
209	0x3c11a1ef	0.008888706
210	0xba91e39a	-0.0011130453
211	0xbbe42e08	-0.006963495
212	0x39c8e21a	0.0003831543
213	0x3ab77070	0.0013995301
214	0xbc2f84a7	-0.010712779
215	0xbc050955	-0.008119901
216	0xbd629340	-0.05531621
217	0xbd64e970	-0.055886686
218	0xbdbac16d	-0.09118924
219	0xbd256e1c	-0.04038821
220	0xbcffb3fd	-0.031213755
221	0xbd8f7729	-0.0700515
222	0xbd31003b	-0.04321311
223	0xbd21b25b	-0.039476734
224	0xbd98ad01	-0.07454873
225	0xbddd32a1	-0.10800672
226	0xbd85a044	-0.06524709
227	0xbd402313	-0.04690845
228	0xbd8cb3cb	-0.0687023
229	0xbd298abc	-0.041392073
230	0xbcc3b762	-0.023891155
231	0xbc8da7a2	-0.017291848
232	0xbca74681	-0.020419361
233	0xbc141306	-0.009037739
234	0x3d3de188	0.04635766
235	0x3d1259dc	0.035730228
236	0x3d7d1623	0.06178869
237	0x3d5ab308	0.053393394
238	0x3d034c88	0.032055408
239	0x3d41fce3	0.047360312
240	0x3d77dc95	0.060513098
241	0x3d2f4d3b	0.042798262
242	0x3d67d410	0.056598723
243	0x3d885706	0.066572234
244	0x3d0f922a	0.035051502
245	0x3da741bf	0.08166837
246	0x3d3cfb4c	0.046138093
247	0x3cda1ffb	0.026626578
248	0x3d86a354	0.06574121
249	0x3d7185eb	0.058965605
250	0x3d29c293	0.041445326
251	0x3dc52db4	0.09627858
252	0xbc94bd86	-0.018156778
253	0xbc9d5ff1	-0.019210787
254	0xbbc99778	-0.0061520897
255	0xbc694e18	-0.01423981

features.module.8.bias f4 [64]
0	0xbcdbd25c	-0.026833706
1	0x3c307e73	0.010772335
2	0x3c39d5c4	0.01134247
3	0x3d6c03d2	0.05762083
4	0x3d5b4857	0.053535786
5	0xbd45edca	-0.048322476
6	0x3cee2e84	0.029074915
7	0xbd40261b	-0.04691134
8	0xbcea68ee	-0.028614487
9	0x3cbd310f	0.023094682
10	0xbd23ff01	-0.040038113
11	0x3d4d9320	0.050189137
12	0x3cb58876	0.022159796
13	0x3ba3fe65	0.0050046914
14	0x3d064c23	0.032787453
15	0xbd4c3c88	-0.049862415
16	0x3c1e371b	0.009656693
17	0x3cb2acd1	0.02181092
18	0xbcdc8aae	-0.026921596
19	0xbc950f10	-0.018195659
20	0x3cc28004	0.023742683
21	0x3d4b164b	0.049581807
22	0xbcbaff0d	-0.022826696
23	0x3d10c21b	0.035341363
24	0x3d066709	0.032813106
25	0xbd0c4f35	-0.034255225
26	0xbd3e9136	-0.046525203
27	0xbbe1fabc	-0.006896345
28	0x3d14c634	0.036321834
29	0xbd47e101	-0.048798565
30	0xbd2696e6	-0.04067125
31	0x3d2eb5d4	0.042653874
32	0xbd097e0a	-0.033567466
33	0xbd2b2ee3	-0.04179276
34	0xbb237179	-0.002493946
35	0x3d6a9bee	0.057277612
36	0x3d1e22ec	0.038607523
37	0x3cf76293	0.030198371
38	0x3bf560b3	0.007488334
39	0xbcf03b8a	-0.029325265
40	0xbd3acc4e	-0.045604996
41	0x3cfebe3c	0.03109657
42	0x3c8e1deb	0.01734825
43	0x3c799076	0.015232196
44	0xbcb136b2	-0.021632526
45	0xbd69e9e0	-0.057107806
46	0x3c032c0c	0.008006107
47	0xbc25260c	-0.010079872
48	0xbb911a99	-0.0044282195
49	0x3bb612b9	0.005556431
50	0xbd0c2424	-0.034214154
51	0xbd155668	-0.036459357
52	0xbc8b131b	-0.016976884
53	0x3cba1786	0.022716295
54	0xbd161a94	-0.03664644
55	0x3d5f75ce	0.054555707
56	0xbd6befd0	-0.05760175
57	0xbd14ccac	-0.036328003
58	0x3c896e6e	0.01677629
59	0xbd69342d	-0.056934524
60	0xbd05178b	-0.032493155
61	0x3cf76f88	0.03020455
62	0xbd227c43	-0.039669286
63	0x3c9990ed	0.018745864

features.module.9.weight f4 [64]
0	0x4050fe91	3.2655375
1	0x4051acf2	3.2761807
2	0x4003f9c6	2.06212
3	0x400f1316	2.23554
4	0x40829ecd	4.081885
5	0x40187a0b	2.382449
6	0x401e2092	2.470738
7	0x404a134a	3.1574273
8	0x4005021d	2.078254
9	0x4021e12c	2.5293684
10	0x40524b20	3.2858353
11	0x3ffe527b	1.9868921
12	0x402d1208	2.7042255
13	0x40060713	2.0941818
14	0x40220c2c	2.531993
15	0x3ffe827d	1.9883572
16	0x401211a3	2.2823265
17	0x4005ca10	2.090458
18	0x400f437b	2.2384937
19	0x400491e9	2.0714056
20	0x402d796f	2.7105367
21	0x4023341b	2.5500553
22	0x3fed5406	1.8541267
23	0x4039a656	2.9007773
24	0x4026ede8	2.6082706
25	0x4018d80f	2.3881872
26	0x4015dd9b	2.3416507
27	0x401725ad	2.3616745
28	0x408b9700	4.3621826
29	0x402f395c	2.737876
30	0x409206d6	4.5633345
31	0x40237b69	2.5544074
32	0x4009d02b	2.1533306
33	0x402bde60	2.6854477
34	0x402d2a25	2.7056973
35	0x407f1ccb	3.9861324
36	0x4033ff11	2.812443
37	0x4002bf1a	2.042914
38	0x402e6959	2.72518
39	0x3fe6092d	1.797155
40	0x3ffe7d2e	1.9881952
41	0x4049aa7f	3.1510313
42	0x400eb8ee	2.2300372
43	0x40213ce2	2.519341
44	0x401f1f0a	2.4862695
45	0x40294a19	2.6451476
46	0x400ba88a	2.1821618
47	0x3fd73cf9	1.6815482
48	0x404db91f	3.214424
49	0x40248dfd	2.5711663
50	0x400bb265	2.1827633
51	0x4048da43	3.1383216
52	0x3fecc7b5	1.8498446
53	0x401035ac	2.2532759
54	0x401f310f	2.4873693
55	0x400abf85	2.1679394
56	0x4017f4a1	2.374306
57	0x400e7345	2.2257855
58	0x4027c247	2.6212327
59	0x3fe8319e	1.8140142
60	0x4010542e	2.255138
61	0x3ff63396	1.9234493
62	0x40058bf4	2.086667
63	0x400d954d	2.2122376

features.module.9.bias f4 [64]
0	0x3f8b92fa	1.0904229
1	0x3f2a980f	0.66638273
2	0x3ef065e4	0.46952736
3	0x3f01cf6d	0.5070713
4	0x3f78bbc2	0.97161496
5	0x3f0e5ec8	0.55613375
6	0x3f132740	0.57481766
7	0x3f2b4c8f	0.66913694
8	0x3f021bbb	0.50823563
9	0x3f2d705c	0.6774957
10	0x3ff85482	1.940079
11	0x3ee32be2	0.44369417
12	0x3fc0d2ab	1.5064291
13	0x3f114f70	0.56761837
14	0x3f04b8c7	0.5184445
15	0x3efea576	0.49735612
16	0x3f084dd7	0.53243774
17	0x3ef25315	0.47329012
18	0x3f0489a1	0.51772505
19	0x3f06e0dc	0.5268686
20	0x3fc051f8	1.5025015
21	0x3fa34398	1.2755003
22	0x3e959483	0.29214868
23	0x3f3cd467	0.737616
24	0x3f97c2eb	1.1856359
25	0x3f26446c	0.64948153
26	0x3efdbe84	0.49559414
27	0x3f930456	1.1485698
28	0x3f8815be	1.0631635
29	0x3f56b7fe	0.838745
30	0x3fb3ee8d	1.4057175
31	0x3efffa12	0.49995476
32	0x3efdeee2	0.49596316
33	0x3f5a9b4c	0.85393214
34	0x3f568e0e	0.8381051
35	0x3f7a9527	0.9788384
36	0x3f259e9f	0.6469516
37	0x3ec60f2e	0.38683456
38	0x3f25e4f2	0.6480247
39	0x3ebe0144	0.3711034
40	0x3ee4649b	0.44608006
41	0x3f777d71	0.96675783
42	0x3ef7d81f	0.48407075
43	0x3f0075a2	0.50179493
44	0x3f36db8f	0.7142877
45	0x3f43b0f8	0.7644191
46	0x3f019d0e	0.5063027
47	0x3e95659c	0.29179084
48	0x3f2ffd58	0.68745947
49	0x3f137964	0.576071
50	0x3edb571c	0.42839897
51	0x3f5f96a2	0.8733922
52	0x3eda6055	0.4265162
53	0x3f0f232d	0.5591305
54	0x3f3fc2ae	0.7490643
55	0x3ee8e655	0.4548823
56	0x3f2cb653	0.67465705
57	0x3f06d866	0.5267395
58	0x3f27d7b3	0.65563506
59	0x3ecca968	0.39972997
60	0x3f03eba3	0.5153143
61	0x3ee47168	0.44617772
62	0x3f011369	0.5042024
63	0x3efbde7d	0.49193183

features.module.9.running_mean f4 [64]
0	0xbdc3a418	-0.09552783
1	0xbb0ea280	-0.0021764338
2	0x3d20285c	0.03910099
3	0x3dbc2412	0.09186567
4	0x3d853749	0.065046854
5	0xbd8725fc	-0.06599042
6	0x3bbeeada	0.0058263363
7	0xbdbf5339	-0.09342045
8	0xbceed734	-0.029155351
9	0x3d9b7ac2	0.075917736
10	0x3e74fff5	0.23925765
11	0x3d6e0c3f	0.058117148
12	0x3e908817	0.28228828
13	0xbd8c21c6	-0.06842379
14	0x3d34934b	0.044085782
15	0xbd2c2600	-0.042028427
16	0x3d6b9f03	0.057524692
17	0x3ca588a9	0.020206766
18	0xbbd3aae0	-0.006459579
19	0xbd891433	-0.06693306
20	0x3e85e0ea	0.26148158
21	0x3e6edefe	0.23327252
22	0xbb839152	-0.0040151263
23	0xbd498ef1	-0.049208585
24	0x3e2338cb	0.15939634
25	0x3880dee0	6.145029e-05
26	0xbc4bd3f5	-0.012440671
27	0x3e39a343	0.18128686
28	0xbd719cc4	-0.058987394
29	0xbdf8712c	-0.12130961
30	0xbe257cc7	-0.1616088
31	0x3a36a7ca	0.00069677515
32	0x3c8a248f	0.016863136
33	0xbdc82f74	-0.09774676
34	0xbdf3fc00	-0.119132996
35	0x3d4eb0a2	0.05046142
36	0x3d1be92b	0.038064163
37	0x3d872795	0.065993465
38	0x3c80cc6f	0.015722482
39	0xbda5797a	-0.080798104
40	0xbdb248ef	-0.08705317
41	0xbd498b7a	-0.04920528
42	0x3cac8746	0.021060597
43	0x3c5ce298	0.013481759
44	0xbd00b8db	-0.031426292
45	0xbe4ee7dc	-0.20205635
46	0x3d306c1e	0.04307186
47	0x3b773052	0.003771801
48	0xbd1fccce	-0.039013676
49	0x3c00bc72	0.007857429
50	0xbd286e34	-0.041120723
51	0xbdc19622	-0.09452464
52	0xbd64f842	-0.05590082
53	0x3d9967e2	0.07490517
54	0xbde45280	-0.11148548
55	0x3da41b95	0.08013073
56	0xbdd180d4	-0.1022965
57	0x3c86dff0	0.016464204
58	0x3d8e6e65	0.0695465
59	0xbd4633fa	-0.048389412
60	0xbd974990	-0.07387078
61	0x3d8cf4b4	0.06882611
62	0xbd882edb	-0.06649562
63	0x3da5472d	0.08070216

features.module.9.running_var f4 [64]
0	0x3d254c4b	0.04035596
1	0x3d3b42d1	0.045718018
2	0x3cdb5000	0.026771545
3	0x3cecae60	0.028891742
4	0x3d23d33a	0.039996363
5	0x3cc2ddc6	0.02378739
6	0x3cc360e3	0.02384991
7	0x3d180314	0.03711231
8	0x3d099556	0.033589683
9	0x3cd75094	0.02628354
10	0x3d1dee84	0.038557544
11	0x3cec88b5	0.02887378
12	0x3d021e4b	0.03176717
13	0x3d159844	0.036522165
14	0x3cbcdfd7	0.023055954
15	0x3ce7ef68	0.0283124
16	0x3cdc6032	0.026901338
17	0x3cc7be94	0.024382867
18	0x3ce0ad49	0.027426379
19	0x3d283fcd	0.04107647
20	0x3d09a078	0.0336003
21	0x3ced0388	0.028932348
22	0x3cc99a7c	0.024609797
23	0x3d0cc72d	0.034369636
24	0x3ce4af3a	0.027915586
25	0x3cb91c4a	0.022596497
26	0x3d004ebf	0.031325098
27	0x3cfd6bc1	0.03093517
28	0x3d27fb7f	0.04101133
29	0x3d0a68cc	0.03379135
30	0x3d3998ca	0.045311727
31	0x3cc281ba	0.0237435
32	0x3cd409d5	0.025883595
33	0x3cd4e2fd	0.025987143
34	0x3cf26210	0.029587775
35	0x3d1ec049	0.038757596
36	0x3cec23cc	0.028825663
37	0x3cdb4235	0.026764968
38	0x3cc02fe6	0.02346034
39	0x3d19deb2	0.037565894
40	0x3d046b97	0.03232917
41	0x3d141f2b	0.036162537
42	0x3cb02161	0.021500291
43	0x3ce51c0a	0.027967472
44	0x3d012f32	0.03153915
45	0x3d05b043	0.0326388
46	0x3cd7b18a	0.026329774
47	0x3cd7a233	0.02632246
48	0x3d1e5375	0.03865381
49	0x3cc48232	0.023987863
50	0x3cd8fdaf	0.026488153
51	0x3d1a0274	0.037599996
52	0x3d17bda2	0.037046082
53	0x3ccfd6b8	0.02537094
54	0x3d2c6a77	0.04209372
55	0x3cb12abc	0.021626823
56	0x3d14f521	0.036366586
57	0x3d08b5da	0.033376552
58	0x3cce8368	0.025209144
59	0x3d0031ca	0.031297483
60	0x3cf3e656	0.029772919
61	0x3ce988ee	0.028507676
62	0x3d24dcf9	0.0402498
63	0x3d00f531	0.031483833

top_layer.weight f4 [10, 64]
0	0xbd915f9f	-0.070983164
1	0x3ec12feb	0.3773187
2	0xbc99c382	-0.018769983
3	0x3d160c06	0.03663256
4	0xbde22878	-0.11042875
5	0xbdd4926e	-0.10379492
6	0xbe00ec5d	-0.12590165
7	0x3f1cc5bc	0.6123922
8	0x3b995c23	0.004680173
9	0x3d377552	0.04478962
10	0x3cd1eb10	0.025624782
11	0xbd8aadf1	-0.06771458
12	0xbc1930e4	-0.009350035
13	0xbd61713d	-0.055039633
14	0xbdcdb2d8	-0.10043877
15	0xbd831403	-0.06400301
16	0x3cb40a64	0.02197761
17	0xbd40b562	-0.04704798
18	0xba99b3b6	-0.0011726532
19	0xbd3cfcda	-0.046139576
20	0x3cc28358	0.02374427
21	0x3dd4f414	0.10398117
22	0xbd51ae0f	-0.051191386
23	0xbdce1223	-0.10062053
24	0x3cdcd322	0.026956145
25	0xbd10d125	-0.035355706
26	0xbd864903	-0.06556895
27	0x3c7a1bde	0.015265433
28	0x3f47009d	0.7773531
29	0xbd0b41c2	-0.03399826
30	0xbe476e6e	-0.1947572
31	0x3e4601e1	0.19336654
32	0x3c255f29	0.010093489
33	0xbdc5fbd6	-0.096671745
34	0xbda19858	-0.078903854
35	0xbe0c4678	-0.13698757
36	0xbe004477	-0.12526117
37	0xbc9b7400	-0.018976212
38	0xbdfa4d67	-0.122217946
39	0x3c216570	0.009850845
40	0xbc2b51c9	-0.010456511
41	0xbd8ca794	-0.068679005
42	0xbda1049d	-0.07862208
43	0xbd9ce24b	-0.076603495
44	0xbcf45b8d	-0.029828811
45	0xbd4a95cd	-0.049459267
46	0x3bbe1a23	0.0058014556
47	0x3d134ec2	0.03596378
48	0x3f1865bd	0.5953024
49	0xbdfca018	-0.12335223
50	0xbdc1d100	-0.09463692
51	0xbd931c1c	-0.07183096
52	0xbc186241	-0.009300769
53	0xbcb66ac0	-0.0222677
54	0xbd5ee728	-0.054419667
55	0xbcad03a2	-0.021119896
56	0xbd79108c	-0.060806796
57	0xbd1cc95e	-0.038277976
58	0x3da68da8	0.081324875
59	0xbc5f8ab4	-0.013643909
60	0xbd5d8083	-0.054077636
61	0xbd8bec94	-0.06832233
62	0xbc8e86f0	-0.017398328
63	0xbd792c28	-0.060833126
64	0xbe8e89af	-0.2783942
65	0xbe2eefd6	-0.17083678
66	0xbd490a0e	-0.049081855
67	0xbd557c2e	-0.05212038
68	0x3f2bed96	0.671594
69	0xbe194398	-0.14967191
70	0xbe137979	-0.14401807
71	0xbe0068eb	-0.12540023
72	0xbd5d1e4b	-0.053983968
73	0xbd5fe7a8	-0.054664284
74	0x3e7307a1	0.23733379
75	0xbe041fdf	-0.12902783
76	0x3e4b7b37	0.19871221
77	0xbdffb914	-0.12486473
78	0xbdf2ca20	-0.118549585
79	0xbd98aea1	-0.07455183
80	0xbd9ac3e5	-0.07556895
81	0xbd146645	-0.036230344
82	0xbd713ca5	-0.058895726
83	0xbd8d3c65	-0.06896285
84	0x3e274f6e	0.16338894
85	0x3c405a41	0.011740268
86	0xbdb215c2	-0.08695556
87	0xbe6bc02f	-0.23022531
88	0xbdc743a0	-0.09729695
89	0x3ee27ac6	0.44234294
90	0xbdf1bff2	-0.11804189
91	0x3ceba878	0.028766856
92	0xbe1a9a70	-0.15097976
93	0xbe7bd4f0	-0.24592948
94	0x3f050186	0.5195545
95	0xbe175f8b	-0.1478254
96	0xbd8862bc	-0.06659457
97	0x3eb733c8	0.35781693
98	0x3dce013d	0.1005883
99	0x3f11a157	0.5688681
100	0xbe042ed9	-0.12908496
101	0xbdc5d265	-0.0965927
102	0xbe14fc69	-0.14549412
103	0xbd6881ed	-0.056764532
104	0xbda32ae1	-0.07967163
105	0xbe902ba1	-0.28158286
106	0xbdd24c86	-0.10268502
107	0xbdd363b9	-0.10321755
108	0xbd866929	-0.065630265
109	0xbd1208bb	-0.035652857
110	0xbd4ab9a3	-0.049493443
111	0xbd1c7877	-0.03820082
112	0xbd886c35	-0.06661264
113	0xbdff1a7b	-0.124562226
114	0xbdccb942	-0.099962726
115	0xbe866995	-0.26252428
116	0xbd651834	-0.055931285
117	0xbd9cebda	-0.076621726
118	0xbdda202a	-0.10650666
119	0x3ec264e6	0.37967604
120	0xbda9e12c	-0.08294901
121	0xbe05c416	-0.13063082
122	0xbd135760	-0.035972
123	0xbd95bc2b	-0.07311281
124	0xbe346ea1	-0.17620327
125	0xbdedd852	-0.116135255
126	0xbd816c66	-0.063195035
127	0xbdb5ad1c	-0.088709086
128	0x3e15405c	0.14575332
129	0xbeab1785	-0.3341638
130	0xbe2829c3	-0.16422181
131	0xbe46dbd0	-0.1941979
132	0xbdf94ddf	-0.12173056
133	0xbe93ec52	-0.28891236
134	0xbe925e41	-0.28587535
135	0xbdfd2845	-0.123611964
136	0xbe2381ed	-0.15967532
137	0xbe48b585	-0.19600494
138	0x3ef8da58	0.48604083
139	0xbe806659	-0.25078085
140	0x3ecf7d88	0.4052546
141	0xbe33376e	-0.17501613
142	0xbe920b02	-0.28524023
143	0xbe314e84	-0.17315108
144	0xbe30839c	-0.17237705
145	0xbe1a30a8	-0.15057623
146	0xbe31bf99	-0.17358245
147	0xbe1f08f8	-0.15530765
148	0x3ef03b7d	0.46920386
149	0x3ef33923	0.4750453
150	0xbe5575b0	-0.20845675
151	0x3e4605ac	0.19338101
152	0x3eb8af51	0.36071256
153	0x3caf0811	0.021366151
154	0xbe8f3058	-0.2796657
155	0x3ee61500	0.44937897
156	0xbdf56e0f	-0.11983883
157	0x3e137569	0.14400257
158	0xbde7581f	-0.11296105
159	0xbe876218	-0.26442027
160	0xbe369362	-0.1782966
161	0x3ddf956c	0.10917172
162	0x3e6575ea	0.22408262
163	0xbe73afbc	-0.23797506
164	0xbe9da048	-0.30786347
165	0xbe6db2be	-0.23212716
166	0xbeaad1d0	-0.333632
167	0xbe0e5736	-0.13900456
168	0xbe11c249	-0.1423427
169	0x3e352641	0.17690374
170	0xbe7f1cfd	-0.24913402
171	0xbe9a7c8e	-0.30173153
172	0xbe554bfc	-0.20829767
173	0x3e35394c	0.17697638
174	0xbe262b8d	-0.16227551
175	0xbe1475ad	-0.14498015
176	0xbe22719a	-0.15863648
177	0xbe9a29f9	-0.30110148
178	0xbe8489a2	-0.25886256
179	0x3e42202c	0.18957585
180	0xbe1845d5	-0.14870389
181	0xbe470e4a	-0.19439045
182	0xbe21de10	-0.15807366
183	0xbd0051c1	-0.031327967
184	0xbe26b13a	-0.16278544
185	0xbe979fc8	-0.2961409
186	0xbe537df6	-0.20653519
187	0xbe2f8c52	-0.17143372
188	0x3deeeb6c	0.11665997
189	0xbe8116a5	-0.2521259
190	0xbe12fe10	-0.1435473
191	0xbe94c6cb	-0.29057917
192	0x3e68f9d2	0.22751549
193	0x3ea8fe05	0.33006302
194	0xbe8bd542	-0.2731114
195	0xbe943cbc	-0.28952587
196	0xbe2c2add	-0.16813226
197	0x3e27bf03	0.16381459
198	0x3e98aab9	0.2981775
199	0x3d7b6ba4	0.06138195
200	0xbe61093f	-0.21976183
201	0xbeacd707	-0.33757803
202	0xbd2314fe	-0.03981494
203	0x3e0677d0	0.13131642
204	0xbc35e805	-0.011102681
205	0xbe28a949	-0.16470827
206	0x3ea6369d	0.32463542
207	0xbe2bc271	-0.16773392
208	0xbe894abb	-0.26814827
209	0xbe55586f	-0.20834516
210	0xbe8ed59e	-0.27897352
211	0xbe119917	-0.14218555
212	0xbd052664	-0.032507315
213	0xbcfeacef	-0.03108832
214	0x3e39001b	0.18066446
215	0x3e6bce9b	0.23028032
216	0x3d21d094	0.039505556
217	0xbdc88244	-0.09790471
218	0x3e0eb749	0.13937105
219	0x3ca5818d	0.020203376
220	0x3e66149d	0.22468801
221	0x3e1cb3f8	0.15303028
222	0x3dc88a36	0.09791987
223	0x3ea62ddd	0.32456866
224	0xbe4f826b	-0.20264594
225	0x3cc62a74	0.024190165
226	0x3d5df76d	0.05419104
227	0xbe3bc334	-0.18336183
228	0x3e84950e	0.2589497
229	0x3cb429de	0.02199262
230	0x3ec5e7b5	0.3865334
231	0xbe082292	-0.13294438
232	0xbe4cb58d	-0.19991131
233	0x3e7018af	0.23446916
234	0x3e4e3213	0.2013629
235	0x3e81a290	0.25319338
236	0xbe88c881	-0.26715472
237	0x3dd0de27	0.10198622
238	0xbe889ce7	-0.26682207
239	0xbe5455e6	-0.20735893
240	0x3d8fcdb4	0.07021657
241	0x3e92edca	0.28697044
242	0x3e5d8eeb	0.2163655
243	0x3e6e1a0a	0.2325212
244	0xbe194211	-0.14966609
245	0xbe539790	-0.20663285
246	0xbe14b231	-0.145211
247	0xbda1eb94	-0.07906261
248	0xbe38aa93	-0.18033819
249	0x3d864548	0.06556183
250	0xbeb69800	-0.35662842
251	0xbe15a648	-0.14614213
252	0x3e16bf90	0.14721513
253	0x3c4a5012	0.012348192
254	0xbe28b23b	-0.1647424
255	0xbc924c87	-0.017858757

top_layer.bias f4 [10]
0	0x3b712a52	0.0036798907
1	0x3c36d202	0.011158468
2	0x3d478e46	0.048719667
3	0x3c96f729	0.018428402
4	0xbd0ee506	-0.034886383
5	0x3dac4b08	0.084127486
6	0xbdb6dc92	-0.08928789
7	0x3cdd32aa	0.027001698
8	0xbc4b4078	-0.012405507
9	0xbd6793ad	-0.05653732

momentum_buffer f4 [16, 1, 3, 3]
0	0xbc36cf5b	-0.011157836
1	0xbb9b2912	-0.0047351206
2	0x3c6908b6	0.014223268
3	0xbcad75b4	-0.02117429
4	0xbc8be272	-0.017075751
5	0xbc7e1338	-0.015507512
6	0xbceb1ada	-0.028699327
7	0xbcafdf48	-0.021468773
8	0xbd495671	-0.049154703
9	0xbda3d041	-0.07998706
10	0xbdd2c8a6	-0.10292177
11	0x3c437420	0.011929542
12	0xbd516216	-0.051118933
13	0x3d77f46b	0.06053583
14	0x3e27f3b1	0.16401555
15	0x3c79eb46	0.015253847
16	0x3dcdcdd0	0.10049021
17	0x3e1dbcc4	0.1540404
18	0x3cc38531	0.023867222
19	0x3cfabee0	0.030608594
20	0x3da522b6	0.08063261
21	0x3d84ddc9	0.06487615
22	0x3d667876	0.056267224
23	0x3de053d0	0.10953486
24	0x3d0a2498	0.033726305
25	0x3d9bd6ac	0.07609305
26	0x3dd5b867	0.104355626
27	0x3cf3876a	0.029727656
28	0xbcc9caaa	-0.02463277
29	0xbca0e6b0	-0.01964125
30	0x3c491c80	0.012274861
31	0xbcb7c518	-0.022432849
32	0x3ba14a10	0.004922159
33	0xbc88cf16	-0.016700309
34	0xbc7b7618	-0.01534798
35	0x3d11d4f4	0.03560348
36	0x3d7c0334	0.061526492
37	0xbc064ff0	-0.0081977695
38	0x3d6fffd6	0.058593594
39	0x3d8c0d93	0.068385266
40	0x3d987de9	0.074458905
41	0x3dec6744	0.11543134
42	0x3c180254	0.009277899
43	0x3d373d54	0.04473622
44	0x3d9bebe7	0.07613354
45	0xbe0965eb	-0.13417785
46	0xbe2ab5c5	-0.16670902
47	0xbe15d525	-0.1463209
48	0xbdc2dac3	-0.09514382
49	0xbdfaa9bd	-0.12239406
50	0xbde2cd77	-0.110743456
51	0xbc1860d2	-0.0093004275
52	0xbd748f5e	-0.059707038
53	0xbd9d0127	-0.076662354
54	0xbdfdd653	-0.12394395
55	0xbd6a957c	-0.057271466
56	0xbd44aa42	-0.048013933
57	0xbdfc0190	-0.123049855
58	0xbd2dbb9c	-0.042415246
59	0xbc9bc54c	-0.019014977
60	0xbd8253db	-0.063636504
61	0xbc235e78	-0.009971254
62	0x3c4c58a4	0.012472305
63	0xbc42cb84	-0.011889342
64	0xbd6d642c	-0.05795686
65	0xbd9cf068	-0.07663041
66	0xbc1c1316	-0.009526035
67	0xbd8efd96	-0.069819614
68	0xbdbb760e	-0.091533765
69	0xbd67d5d7	-0.056600418
70	0xbdcb4e36	-0.09927027
71	0xbdf4180e	-0.119186506
72	0x3cda0735	0.026614765
73	0x3ca941c0	0.020661235
74	0x3c5f35ab	0.013623635
75	0x3da84d1d	0.08217833
76	0x3d24c4c5	0.040226717
77	0xbcb6d52a	-0.022318441
78	0x3d8e8bfe	0.06960295
79	0x3b055bd1	0.0020348916
80	0xbc965e49	-0.018355506
81	0x3ddda13b	0.10821768
82	0x3dcd72dc	0.10031673
83	0x3d3a1eba	0.04543946
84	0x3dbfe234	0.09369317
85	0x3da7065c	0.0815551
86	0x3d7ca545	0.06168105
87	0x3d150ae2	0.03638733
88	0x3d48e851	0.04904968
89	0x3d8becb3	0.06832256
90	0xbc586a64	-0.013208959
91	0xbde41360	-0.11136508
92	0xbe8128ca	-0.25226432
93	0xbcf69822	-0.03010184
94	0xbe09dc03	-0.13462834
95	0xbe663ace	-0.2248337
96	0xbbe1bf60	-0.0068892688
97	0xbda43dae	-0.08019577
98	0xbdf110fc	-0.11770818
99	0x3c3fefc5	0.01171488
100	0xbcd1e9d8	-0.0256242
101	0xbe0b2460	-0.13588095
102	0x3c2395b4	0.0099844225
103	0xbd73f666	-0.059561156
104	0xbe2fef6f	-0.1718118
105	0xbd134bae	-0.035960846
106	0xbce470a8	-0.02788575
107	0xbe1aa2d6	-0.1510118
108	0x3cc5da5e	0.024151977
109	0xbd7f439a	-0.06232033
110	0xbe14e0d8	-0.14538896
111	0xbd0a9d03	-0.033841144
112	0xbe02eea8	-0.12786353
113	0xbe4d0bf2	-0.20024088
114	0xbd3a7391	-0.04552037
115	0xbdadf07c	-0.084931344
116	0xbe043901	-0.1291237
117	0xbd3edfcc	-0.046600148
118	0x3c80d31c	0.015725665
119	0xbc84952c	-0.016184412
120	0xbd7e9e3c	-0.062162623
121	0xbb1c6749	-0.0023865274
122	0x3c8bb1ec	0.017052613
123	0xbd8704cd	-0.065927126
124	0x3bbc5dc0	0.0057484806
125	0x3d3b97d6	0.0457991
126	0xbde6e3a6	-0.11273889
127	0xbb879670	-0.0041378066
128	0xbcfc8b84	-0.030828245
129	0xbe045939	-0.1292466
130	0xbbb95450	-0.005655803
131	0xbc7ffdec	-0.015624505
132	0xbe142883	-0.14468579
133	0x38c0ac00	9.187311e-05
134	0x3c10b36c	0.00883184
135	0xbd076e0c	-0.033063933
136	0xbc60f4d0	-0.013730243
137	0xbc8ddf56	-0.017318409
138	0xbd78fc9a	-0.060787775
139	0xbd30dba2	-0.04317821
140	0xbc8e646f	-0.017381875
141	0xbcb8c73d	-0.022555942
142	0xbd1b2ff5	-0.037887532
143	0xbc3bc988	-0.011461623

momentum_buffer f4 [16]
0	0xb6bfc160	-5.7147554e-06
1	0x36eb2e0d	7.008907e-06
2	0x37905950	1.7207727e-05
3	0x37e0a08e	2.6777645e-05
4	0x37fcd58b	3.014018e-05
5	0xb7dbb0c3	-2.6189146e-05
6	0x370ba2d5	8.322958e-06
7	0xb76f4bd5	-1.4263166e-05
8	0xb66f559c	-3.5663606e-06
9	0xb7cfcd7d	-2.477201e-05
10	0x37fc6533	3.0087866e-05
11	0xb7cc29b6	-2.4338118e-05
12	0x37946b83	1.7693039e-05
13	0x3742c24e	1.1608541e-05
14	0x373555fb	1.080846e-05
15	0xb796fbf5	-1.799872e-05

momentum_buffer f4 [16]
0	0xbd7d1c20	-0.0617944
1	0x3eef9378	0.46792197
2	0x3bb7e1a6	0.005611616
3	0x3d08f44a	0.033436097
4	0x3e011477	0.12605463
5	0xbc4a36ac	-0.012342136
6	0xbdecbc1f	-0.11559319
7	0x3c0c70e4	0.008571837
8	0x3b66a898	0.0035195705
9	0x3db03bd4	0.08605161
10	0xbda88320	-0.08228135
11	0xbca484e1	-0.020082893
12	0xbd0a964a	-0.033834733
13	0x3c767e04	0.015044693
14	0xbcd7f231	-0.026360603
15	0xbc38daa3	-0.011282596

momentum_buffer f4 [16]
0	0xbcf1f0a8	-0.0295337
1	0x3e3c228d	0.18372555
2	0xbc5bb9aa	-0.013410965
3	0x3c62da58	0.0138460025
4	0x3d46ca9e	0.048533075
5	0x3e0f114d	0.13971443
6	0xbd816ac6	-0.063191935
7	0x3d5c9fb9	0.05386326
8	0xbd0a750c	-0.03380303
9	0x3d6788b0	0.05652684
10	0xbdd23f00	-0.102659225
11	0x3cbb1273	0.022835946
12	0x3ba3dbb4	0.005000556
13	0x3cdf9452	0.027292404
14	0xbcb06924	-0.02153451
15	0x3c63f668	0.013913728
