deepcluster_implementation/experiments/run_20250107_180402/config_3/checkpoints/checkpoint_epoch_2.pth.tar (torch, 203702 bytes, 32 tensors)

features.module.0.weight f4 [16, 1, 3, 3]
0.87206185 0.15933803 -0.55254906 -0.34725395 0.04168992 0.10296533 -0.6281715 0.040016603
0.7483447 -0.1707421 0.24350704 0.61011755 -0.22417153 -0.33095667 -0.00067818165 0.29774106
0.35413465 0.1375882 -0.54038537 -0.0699384 -0.22836232 -0.42291486 0.38540703 0.46339127
-0.5657481 -0.2633516 -0.21084112 -1.0542448 0.038459394 -0.5085175 0.045883656 0.028037209
0.06704104 0.46248126 -0.109962024 0.4685375 0.51390964 0.034214716 0.3026809 -0.1901128
-0.4386097 -0.123634666 0.5675389 -0.047748584 0.62000215 0.3523806 0.30742985 0.5194145
-0.31270555 0.014976193 -0.7100194 -0.38750157 -0.045495838 -0.39948776 0.11466728 0.15311371
0.32097405 -0.27412608 0.49663004 0.27661076 -0.8912466 -0.445013 -0.6006817 0.31767267
-0.18280564 -0.529977 0.43213052 -0.21793808 -0.61696154 0.101459846 0.23259799 1.0792592
0.4623832 -0.1927133 -0.32843512 -0.47864932 -0.28849402 -0.18087377 0.33683634 0.2248136
-0.45452103 -0.6458966 -0.48865774 -0.33272505 0.25665286 0.33976918 0.46188635 -0.5295671
-0.38823974 0.10598588 -0.119200505 -0.70852107 0.9792097 0.26937827 -0.8135263 0.3563618
0.72597843 -0.703446 -0.08452844 -0.67543906 0.052712962 0.20517881 -0.13714233 0.02263679
0.27970785 -0.2968863 -0.26173204 -0.53557146 -0.5744587 0.05472721 0.053594872 -0.17594364
0.36198878 -0.09813672 -0.49502653 -0.25154066 0.617959 -0.24440078 0.07839397 -0.37289008
0.04076912 0.014442698 0.0709355 -0.20611678 0.025882676 -0.3516441 -0.51318926 -0.44048455
-0.32537866 -0.39069203 0.33777484 -0.045249466 -0.55441684 0.39114812 0.21622969 -0.4177069
-0.4849669 -0.55263895 0.059405938 0.34143227 -0.4340109 0.23987938 0.30031893 -0.6197397
00000000: 723f 5f3f 8229 233e db73 0dbf 45cb b1be
00000010: 0dc3 2a3d 7ddf d23d d9cf 20bf 73e8 233d
00000020: 8593 3f3f 04d7 2ebe e959 793e aa30 1c3f
00000030: 398d 65be 2773 a9be 00c8 31ba 8471 983e
00000040: 2351 b53e ece3 0c3e b256 0abf dd3b 8fbd
00000050: d0d7 69be 4c88 d8be 1254 c53e 9f41 ed3e
00000060: ded4 10bf 05d6 86be bce6 57be 7ef1 86bf
00000070: 9987 1d3d 342e 02bf 80f0 3b3d 4aae e53c
00000080: d04c 893d 58ca ec3e c533 e1bd 26e4 ef3e
00000090: 958f 033f bb24 0c3d fef8 9a3e eeac 42be
000000a0: 7391 e0be 2c34 fdbd 3b4a 113f 0594 43bd
000000b0: 76b8 1e3f 3b6b b43e 7267 9d3e 59f8 043f
000000c0: f11a a0be b55e 753c d5c3 35bf 9b66 c6be
000000d0: d859 3abd a989 ccbe aed6 ea3d d7c9 1c3e
000000e0: b656 a43e 415a 8cbe 4b46 fe3e ed9f 8d3e
000000f0: bd28 64bf bed8 e3be 47c6 19bf fea5 a23e
00000100: 6731 3bbe 93ac 07bf 3640 dd3e 292b 5fbe
00000110: 31f1 1dbf 2eca cf3d 2b2e 6e3e 2a25 8a3f
00000120: 7ebd ec3e a356 45be a628 a8be 8611 f5be
00000130: 7db5 93be f936 39be d075 ac3e 8935 663e
00000140: fbb6 e8be 7b59 25bf 5931 fabe f05a aabe
00000150: 0168 833e 3af6 ad3e 5e7c ec3e b691 07bf
00000160: 5cc7 c6be 200f d93d 651f f4bd a361 35bf
00000170: 7dad 7a3f f3eb 893e 4243 50bf 0e75 b63e
00000180: b9d9 393f 0915 34bf 3f1d adbd 93e9 2cbf
00000190: 8ce9 573d 651a 523e 0a6f 0cbe ca70 b93c
000001a0: de35 8f3e 7b01 98be be01 86be 361b 09bf
000001b0: ba0f 13bf a429 603d 4c86 5b3d 922a 34be
000001c0: 9856 b93e e8fb c8bd 1e74 fdbe f0c9 80be
000001d0: 9032 1e3f 3344 7abe 058d a03d 73eb bebe
000001e0: 85fd 263d 11a1 6c3c a246 913d 4710 53be
000001f0: e807 d43c b20a b4be 5f60 03bf 3187 e1be
00000200: 0898 a6be c908 c8be d3f0 ac3e 8157 39bd
00000210: 43ee 0dbf 9144 c83e 516b 5d3e aedd d5be
00000220: 954d f8be bf79 0dbf a453 733d 36d0 ae3e
00000230: ad36 debe f1a2 753e 67c3 993e 43a7 1ebf

features.module.0.bias f4 [16]
-0.056955613 0.0688947 0.17028302 0.2662838 0.3004701 -0.2615491 0.08301133 -0.141871
-0.036146093 -0.24688639 0.3004358 -0.24209258 0.17628615 0.115920454 0.107186005 -0.1783322
00000000: 4a4a 69bd aa18 8d3d ac5e 2e3e 5a56 883e
00000010: 38d7 993e c3e9 85be d801 aa3d a246 11be
00000020: ed0d 14bd c9cf 7cbe b9d2 993e 1ee7 77be
00000030: 5b84 343e b467 ed3d 5684 db3d b79c 36be

features.module.1.weight f4 [16]
0.5785502 0.6234911 1.347163 0.69575375 0.47116902 0.72321016 0.6903321 0.6902981
0.9966241 1.212625 0.4049499 1.5215065 0.71903473 1.4762549 1.2270547 1.3955772
00000000: de1b 143f 1d9d 1f3f d66f ac3f eb1c 323f
00000010: 113d f13e 4d24 393f 9bb9 303f 60b7 303f
00000020: c222 7f3f 4c37 9b3f 9855 cf3e bac0 c23f
00000030: a912 383f ecf5 bc3f 2110 9d3f 46a2 b23f

features.module.1.bias f4 [16]
-0.7411023 -1.0177984 -0.40511364 -0.23552763 -0.44158384 -0.22152056 -0.14413102 -1.0820663
-0.37420106 -0.4790091 -0.036441777 -0.5861476 -0.30916518 -0.4849113 -0.44782126 -0.4736434
00000000: e1b8 3dbf 3847 82bf 0e6b cfbe 282e 71be
00000010: 4717 e2be 49d6 62be 1597 13be 2681 8abf
00000020: 4897 bfbe ae40 f5be f943 15bd c50d 16bf
00000030: e64a 9ebe 4b46 f8be d448 e5be 6381 f2be

features.module.1.running_mean f4 [16]
-0.044055987 0.10239279 0.11702672 0.24668707 0.357803 -0.27322704 0.044688497 -0.11406463
-0.047416333 -0.29343706 0.3344171 -0.28462774 0.15547112 0.081518084 0.061690688 -0.22999883
00000000: 0d74 34bd 50b3 d13d b4ab ef3d 899b 7c3e
00000010: f431 b73e 6ae4 8bbe 490b 373d b79a e9bd
00000020: a137 42bd 623d 96be b838 ab3e baba 91be
00000030: d233 1f3e f4f2 a63d 60af 7c3d d084 6bbe

features.module.1.running_var f4 [16]
0.65157807 0.7446935 1.6499934 1.1811864 0.8478235 1.1504062 1.5407335 1.0461951
0.92868614 1.2841299 0.58886284 1.2962091 0.7966991 0.5619465 1.7945379 1.9919119
00000000: d2cd 263f 3ca4 3e3f fc32 d33f 1e31 973f
00000010: f60a 593f 8340 933f c136 c53f b9e9 853f
00000020: 60be 6d3f 5e5e a43f b7bf 163f 2eea a53f
00000030: 79f4 4b3f badb 0f3f 6bb3 e53f f8f6 fe3f

features.module.4.weight f4 [32, 16, 3, 3]
-0.0040888516 -0.036671277 0.0033142096 0.034797795 0.022104358 0.029088523 -0.14555311 -0.044050314
0.021187035 -0.0058362493 0.030930594 -0.17812435 -0.058734413 -0.060492337 -0.18688324 -0.011406476
-0.11596361 -0.23573633 -0.011369709 0.019650456 0.056123253 0.19789194 0.08134967 -0.026712809
-0.1393142 -0.20253485 -0.15905696 -0.23793095 -0.14105996 -0.08601868 -0.19843164 -0.032665156
0.07026963 -0.11155967 -0.03565845 -0.13985515 0.027850231 0.03063402 -0.12243624 0.03626228
0.05460699 -0.07904309 0.008988433 0.039021567 -0.15930367 -0.0138187 -0.041283287 -0.052468497
-0.0029380366 0.018054936 -0.007446818 -0.085323155 0.006150056 -0.061006274 0.10632718 -0.009067506
-0.032291893 0.031137357 0.056549165 -0.018322835 -0.23173013 -0.14493003 -0.16187264 0.0029325592
0.0018723682 -0.09663029 0.11801198 0.09066107 -0.13300702 -0.04232748 -0.09849791 -0.21715401
0.07980742 -0.053867567 -0.0618563 0.23303598 0.04110891 0.06459987 0.05223581 -0.098682545
0.01752457 -0.114582196 -0.029808985 -0.04973028 -0.040917683 -0.03204676 -0.055569716 -0.09175881
-0.10316713 -0.11081968 0.030014232 0.05651348 -0.15777396 0.03292561 0.07404424 -0.009649691
0.02713242 0.017137077 -0.1194609 0.031222446 0.09778831 0.023686554 0.09353324 0.03939796
-0.031719584 -0.06911251 -0.15024479 -0.107681386 0.08627615 0.021502182 0.007191429 -0.09008908
-0.08541449 -0.045462687 -0.015716616 -0.18389258 -0.30427778 -0.2067886 0.010726539 0.015637938
-0.15756671 0.0066492544 0.0006025743 -0.24873233 -0.16301152 -0.11764811 -0.17094067 0.06204083
0.021439625 -0.14242059 0.011093647 -0.0046539763 -0.12863672 -0.06723255 -0.06789074 -0.22224212
-0.18071412 -0.040675793 -0.06259699 0.006385306 0.10881021 -0.038149033 -0.051691126 -0.056198582
0.03938277 0.001025481 0.067654625 0.024051357 -0.014811804 0.10586012 0.048321903 0.09021632
-0.060177844 0.04116294 0.02868278 -0.07801255 -0.01418938 -0.0663965 -0.111337535 -0.12546495
-0.15740526 -0.09657201 -0.02153153 0.061160658 0.0119037675 -0.057262097 -0.005271186 -0.06187912
-0.0009500041 0.039712638 0.01186034 -0.15258612 -0.11233719 -0.10341453 -0.124164924 -0.084926926
-0.02889507 -0.11622857 -0.12157893 -0.10998623 0.10249985 0.015253921 -0.09361723 0.044284858
0.0003260399 -0.13761729 0.04622665 0.004890571 -0.14272475 -0.036943324 0.0073984656 0.029364688
0.018885946 0.034165896 -0.035557266 0.019017812 0.03283769 -0.08160465 -0.1869717 -0.10399868
-0.11888043 -0.11919231 -0.059612606 -0.07350386 -0.086012445 -0.040550083 -0.038253896 -0.018303849
-0.09895514 -0.096618235 0.060381353 0.016415276 -0.10601815 -0.0145388 0.014099615 -0.098555245
0.09945904 0.04351252 0.042678263 0.04949572 0.010787849 0.046801098 0.060584817 0.012992975
0.05345442 -0.032615285 -0.076553725 -0.064609714 -0.042829137 -0.015184119 -0.064059965 -0.08730412
0.004502995 -0.077981725 -0.018248415 -0.005991597 -0.09572765 0.0036903182 0.046841264 -0.02095858
0.22109859 0.048156045 -0.0037227755 -0.08021959 -0.023085034 -0.026708225 -0.12646891 -0.01259183
-0.010748236 -0.0052537634 0.01927536 0.02482128 -0.024472963 -0.020241644 -0.014986096 -0.08855876
00000000: c6fb 85bb 9f34 16bd 3633 593b 2288 0e3d
00000010: 3314 b53c 0e4b ee3c e00b 15be 1a6e 34bd
00000020: 6f90 ad3c 023e bfbb 2862 fd3c 3b66 36be
00000030: 7f93 70bd d0c6 77bd 525e 3fbe 3ae2 3abc
00000040: 547e edbd dd64 71be 0448 3abc fef9 a03c
00000050: 7fe1 653d 2fa4 4a3e a89a a63d d2d4 dabc
00000060: 62a8 0ebe 4c65 4fbe d4df 22be 2ca4 73be
00000070: 0672 10be 902a b0bd aa31 4bbe e6cb 05bd
00000080: 86e9 8f3d 6579 e4bd 980e 12bd 3036 0fbe
00000090: 2b26 e43c 32f4 fa3c dabf fabd c287 143d
000000a0: 94ab 5f3d 58e1 a1bd 3844 133c 14d5 1f3d
000000b0: 8020 23be d467 62bc aa18 29bd 35e9 56bd
000000c0: 138c 40bb f2e7 933c 7004 f4bb e8bd aebd
000000d0: 6986 c93b b7e1 79bd 11c2 d93d e08f 14bc
000000e0: 8144 04bd c513 ff3c 19a0 673d c519 96bc
000000f0: aa4a 6dbe 8a68 14be f1c1 25be 2e30 403b
00000100: 406a f53a 1ae6 c5bd 44b0 f13d 83ac b93d
00000110: fe32 08be 945f 2dbd 46b9 c9bd 9f5d 5ebe
00000120: 1372 a33d 3da4 5cbd 085d 7dbd fca0 6e3e
00000130: d161 283d f04c 843d 37f5 553d 131a cabd
00000140: b08f 8f3c 12aa eabd f931 f4bc fab1 4bbd
00000150: 4d99 27bd 7743 03bd 129d 63bd 0bec bbbd
00000160: 4a49 d3bd 6ef5 e2bd 68e0 f53c ae7a 673d
00000170: 7f8f 21be 01dd 063d 82a4 973d bd19 1ebc
00000180: cf44 de3c 0e63 8c3c eba7 f4bd 37c6 ff3c
00000190: 3d45 c83d 4e0a c23c 5b8e bf3d c15f 213d
000001a0: 65ec 01bd dc8a 8dbd c5d9 19be 0f88 dcbd
000001b0: 8db1 b03d 5825 b03c 14a6 eb3b a080 b8bd
000001c0: cbed aebd 1537 3abd 22c0 80bc 564e 3cbe
000001d0: 4cca 9bbe 64c0 53be 5ebe 2f3c 221b 803c
000001e0: 2b59 21be fde1 d93b 14f6 1d3a b0b3 7ebe
000001f0: 7eec 26be 7ef1 f0bd 120b 2fbe 861e 7e3d
00000200: 27a2 af3c b4d6 11be 21c2 353c 6280 98bb
00000210: 58b9 03be 38b1 89bd 4d0a 8bbd 7093 63be
00000220: 1f0d 39be a99b 26bd da32 80bd d43b d13b
00000230: e3d7 de3d 2942 1cbd 13ba 53bd 7c30 66bd
00000240: d44f 213d 6f69 863a 828e 8a3d 5a07 c53c
00000250: 35ad 72bc 31cd d83d 30ed 453d 55c3 b83d
00000260: 0b7d 76bd 799a 283d 26f8 ea3c 0bc5 9fbd
00000270: 937a 68bc e3fa 87bd ef04 e4bd e279 00be
00000280: d82e 21be 8cc7 c5bd e462 b0bc 9983 7a3d
00000290: 0508 433c a98b 6abd eab9 acbb f674 7dbd
000002a0: b209 79ba b8a9 223d df51 423c 893f 1cbe
000002b0: 0a11 e6bd ffca d3bd 2e4a febd 2bee adbd
000002c0: 5bb5 ecbc 3f09 eebd 60fe f8bd 7640 e1bd
000002d0: 71eb d13d 95eb 793c 64ba bfbd 0a64 353d
000002e0: 56f0 aa39 8ceb 0cbe 2858 3d3d 1541 a03b
000002f0: 7026 12be e251 17bd d46e f23b 378e f03c
00000300: b3b6 9a3c 8af1 0b3d 7fa4 11bd 3ecb 9b3c
00000310: d080 063d 5720 a7bd 8275 3fbe 43fd d4bd
00000320: 9577 f3bd 191b f4bd 592c 74bd 3189 96bd
00000330: 4b27 b0bd d817 26bd 1eb0 1cbd f4f1 95bc
00000340: fea8 cabd c8df c5bd 7052 773d 5479 863c
00000350: 0b20 d9bd 2634 6ebc 1202 673c 55d7 c9bd
00000360: 2eb1 cb3d 2f3a 323d 67cf 2e3d 06bc 4a3d
00000370: 85bf 303c 82b2 3f3d c927 783d 7de0 543c
00000380: 06f3 5a3d 9b97 05bd 33c8 9cbd 1952 84bd
00000390: 9b6d 2fbd d0c6 78bc df31 83bd 81cc b2bd
000003a0: dc8d 933b e2b4 9fbd b37d 95bc 2955 c4bb
000003b0: dc0c c4bd 44d9 713b a0dc 3f3d 54b1 abbc
000003c0: ab67 623e 463f 453d cff9 73bb 2b4a a4bd
000003d0: d31c bdbc 35cb dabc 1181 01be f74d 4ebc
000003e0: 5f19 30bc c327 acbb 5ce7 9d3c ff55 cb3c
000003f0: 867b c8bc ced1 a5bc 3e88 75bc 4c5e b5bd

features.module.4.bias f4 [32]
0.021423275 0.04138231 -0.07538861 -0.05751295 -0.079140685 0.038492713 0.061843753 -0.07922942
0.021436421 0.016723702 -0.04425181 0.017816156 0.06358343 0.080883734 0.03565941 -0.016351433
-0.046919286 -0.031406153 0.00067648554 -0.006055653 0.060170677 -0.07452269 0.0073597785 -0.026227098
0.006876429 0.07929758 0.002412397 -0.01430166 -0.02794881 -0.08228976 -0.074709944 0.03592969
00000000: dd7f af3c 7f80 293d 5865 9abd b392 6bbd
00000010: 8314 a2bd 89aa 1d3d e04f 7d3d 0943 a2bd
00000020: 6f9b af3c 2500 893c 6341 35bd 30f3 913c
00000030: 0838 823d 5fa6 a53d 9a0f 123d 71f3 85bc
00000040: 702e 40bd bda3 00bd 2d56 313a 806e c6bb
00000050: 8775 763d 5a9f 98bd 4c2a f13b 36da d6bc
00000060: ab53 e13b c566 a23d 4e19 1e3b 8251 6abc
00000070: e7f4 e4bc 8987 a8bd 8701 99bd 032b 133d

features.module.5.weight f4 [32]
0.7989831 0.6680008 0.6892237 0.9011434 0.9844123 0.5372025 0.6849378 0.738939
0.7727719 0.83850414 0.61393243 0.8889759 0.72001225 0.93073475 0.6141922 0.642828
0.67718405 0.6446967 0.70231146 0.81521016 0.68534356 0.63722444 0.7606707 0.6187072
0.8844162 0.50948495 0.6779106 1.0340359 0.7212055 0.7299555 0.7510361 0.8657447
00000000: 288a 4c3f 1a02 2b3f f770 303f 55b1 663f
00000010: 7202 7c3f 1a86 093f 1558 2f3f 1b2b 3d3f
00000020: 61d4 453f 35a8 563f ad2a 1d3f ed93 633f
00000030: b952 383f a244 6e3f b33b 1d3f 6090 243f
00000040: ef5b 2d3f d80a 253f afca 333f 9db1 503f
00000050: ad72 2f3f 2421 233f 51bb 423f 9863 1e3f
00000060: 1a69 623f 9b6d 023f 8d8b 2d3f 4a5b 843f
00000070: eca0 383f 5dde 3a3f e743 403f 72a1 5d3f

features.module.5.bias f4 [32]
-0.9680342 -0.3680494 -0.6904403 -0.6837221 -0.7986446 -0.9140507 -0.32542378 -1.1991148
-0.3267022 -1.278609 -0.34459192 -1.5517876 -0.6963453 -0.658209 -0.32442597 -0.5038393
-0.72248846 -0.70111984 -0.7834942 -0.5091213 -0.9033762 -0.4211067 -0.4493923 -0.81459457
-0.8563115 -0.7397422 -0.69428 -0.70471174 -0.62311715 -0.26805001 -0.3492666 -0.5456229
00000000: 17d1 77bf f970 bcbe b2c0 30bf 6908 2fbf
00000010: f973 4cbf 3aff 69bf f29d a6be 987c 99bf
00000020: 8345 a7be 76a9 a3bf 5a6e b0be faa0 c6bf
00000030: b043 32bf 6380 28bf 291b a6be 9dfb 00bf
00000040: 01f5 38bf 977c 33bf 1393 48bf c655 02bf
00000050: aa43 67bf 4c9b d7be bf16 e6be 4589 50bf
00000060: 3b37 5bbf bf5f 3dbf 56bc 31bf fd67 34bf
00000070: 9b84 1fbf da3d 89be 12d3 b2be f1ad 0bbf

features.module.5.running_mean f4 [32]
-0.67846984 -0.31275257 -0.824234 -0.4164334 -0.4734308 -0.6907179 -0.1005391 -1.0106087
-0.1194482 -1.1593646 -0.18799064 -1.043965 -0.42456383 -0.1937747 -0.4662835 -0.055384714
-0.9125389 -0.8704735 -0.43009222 -0.3292481 -0.6246955 -0.45784786 -0.3878907 -0.7263031
-0.43805927 -0.4546879 -0.3082171 -0.37673113 -0.2585326 -0.5194894 -0.28871515 -0.15470058
00000000: 33b0 2dbf 1b21 a0be 0001 53bf c236 d5be
00000010: 8665 f2be e3d2 30bf 72e7 cdbd a05b 81bf
00000020: 42a1 f4bd 0f66 94bf 9e80 40be a5a0 85bf
00000030: 6e60 d9be e06c 46be b6bc eebe 15db 62bd
00000040: 269c 69bf 5ad7 5ebf 0c35 dcbe 3593 a8be
00000050: 0bec 1fbf 096b eabe 9c99 c6be 00ef 39bf
00000060: 4e49 e0be dacc e8be a2ce 9dbe e7e2 c0be
00000070: 635e 84be 42fd 04bf 79d2 93be d469 1ebe

features.module.5.running_var f4 [32]
0.21740565 0.1670331 0.2746207 0.27087674 0.5267817 0.22388792 0.18935125 0.30789062
0.2326765 0.43573317 0.27723658 0.26610285 0.14885515 0.295339 0.28641182 0.2585332
0.36300138 0.30785033 0.1799126 0.2265857 0.37335244 0.25216734 0.17632009 0.28777906
0.34946314 0.11934866 0.2847027 0.41414014 0.22451946 0.16794704 0.23669067 0.20520034
00000000: 969f 5e3e ba0a 2b3e 169b 8c3e 5bb0 8a3e
00000010: 2adb 063f e042 653e 4be5 413e d7a3 9d3e
00000020: c042 6e3e 6b18 df3e f4f1 8d3e a23e 883e
00000030: 7c6d 183e ac36 973e 92a4 923e 775e 843e
00000040: 51db b93e 8f9e 9d3e 023b 383e 1506 683e
00000050: 0d28 bf3e 141c 813e 418d 343e c757 933e
00000060: d5ec b23e 126d f43d 8dc4 913e 2d0a d43e
00000070: 6ee8 653e 4ffa 2b3e 0a5f 723e 0a20 523e

features.module.8.weight f4 [64, 32, 3, 3]
0.019648336 0.026529241 0.047672268 -0.020122353 -0.017701838 -0.0037541133 -0.026290942 -0.022270933
-0.017175982 -0.018954135 -0.0071011637 -0.0023334615 -0.01655497 -0.012044546 -0.012120756 -0.032098446
-0.032349274 -0.0392092 0.10590488 0.089653 0.12034896 0.08730048 0.07519566 0.10481855
0.095256105 0.087378286 0.12298857 0.0677877 0.056136973 0.062175218 0.042904586 0.03158985
0.03905432 0.036468923 0.028144617 0.040333223 0.15277994 0.12877232 0.1867315 0.08916727
0.06577148 0.12452462 0.1283996 0.089831784 0.15934926 0.036226697 0.029571349 0.044211674
0.013517441 0.008448252 0.022655852 0.029274853 0.018964076 0.02936947 -0.0022858584 -0.0016256787
0.0058382684 -0.021087376 -0.024453677 -0.033467602 -0.014941975 -0.028081303 -0.042451665 -0.0075565754
-0.004566713 0.00012287348 0.008399468 0.01619849 0.022909136 -0.0043540895 0.005025544 0.008160525
0.005750457 0.012067291 0.00834331 -0.004307272 -0.0019643933 -0.0055713076 -0.00922395 -0.008237787
-0.012921162 -0.02399035 -0.015312821 -0.029566936 -0.042438444 -0.023433603 -0.029131195 -0.040256623
-0.029291376 -0.04346711 0.017727701 0.024437837 0.02394711 0.0010726713 0.016518166 0.013867563
-0.008572882 -0.00021559779 0.00187828 0.10838582 0.07952625 0.08524113 0.117717646 0.08021067
0.09324066 0.092335545 0.06608232 0.06822772 -0.06074152 -0.037242807 -0.043413956 -0.038410585
-0.016485091 -0.012064239 -0.032507733 -0.024050223 -0.023195857 0.0041123005 -0.006421249 0.00092290284
0.013680039 -0.006702109 -0.004392757 -0.005239291 -0.021546632 -0.017609954 0.032126952 0.013846185
0.008803047 0.02451216 0.01510746 0.0099470485 0.04193097 0.028979445 0.025388217 -0.013119746
-0.004379815 -0.010690154 0.0054835742 -0.008922287 -0.010288249 0.007439642 -0.0010440102 0.008422949
0.010448273 -0.0059197266 0.0013020819 0.0042478046 -0.004699996 0.0023402513 0.01218799 0.0076888846
0.008998858 -0.006529313 0.0005357682 -0.014892464 -0.0007802858 -7.1875635e-05 -0.020142572 -0.0005053066
-0.0026603495 -0.025164345 0.03177905 -0.0171029 -0.043497164 0.01477208 -0.027667373 -0.05624187
0.024616914 -0.018508213 -0.037735965 -0.0077593965 -0.0074793915 -0.00078355795 -0.030992458 -0.020243663
-0.012872957 -0.0499908 -0.02516916 -0.008493412 0.025499113 0.020575754 0.028108012 0.019812787
0.0114821335 0.024510384 0.016254777 0.01058191 0.016577825 -0.009636201 -0.006281578 -0.012213814
-0.00937207 -0.0008618386 -0.0013976563 -0.020966427 -0.004069536 0.0014173684 -0.034685317 -0.027766315
-0.028690638 0.004234462 0.0014673602 0.0031836862 0.008743779 0.005204892 0.007644576 -0.0013593426
-0.007885936 -0.014967503 0.0062651015 -0.0059646526 -0.009202546 -0.004376506 -0.016384834 -0.021956606
0.0034470605 0.0046041775 0.00826777 0.0024639068 0.0041453126 0.00668116 0.01782686 0.013291994
0.00841629 -0.042004097 -0.030180132 -0.03317891 -0.037367187 -0.027921509 -0.019623026 -0.035637088
-0.02648446 -0.027823387 -0.042990316 -0.04434055 -0.047735386 -0.032703567 -0.025685925 -0.031137297
-0.023836467 -0.027562374 -0.04379293 0.06427777 0.049241517 0.12653539 0.079023585 0.051094517
0.12417118 0.15736102 0.11248049 0.1770562 -0.023464048 -0.0073824516 0.0142672965 -0.00180672
00000000: 8cf5 a03c da53 d93c ff43 433d a2d7 a4bc
00000010: 7203 91bc 9207 76bb 1a60 d7bc 8871 b6bc
00000020: a5b4 8cbc b445 9bbc e1b0 e8bb fdec 18bb
00000030: 4a9e 87bc 7d56 45bc 2396 46bc a979 03bd
00000040: ac80 04bd d399 20bd a8e4 d83d fe9b b73d
00000050: 8479 f63d 98ca b23d 2f00 9a3d 1cab d63d
00000060: a215 c33d 63f3 b23d 6ee1 fb3d 47d4 8a3d
00000070: e2ef 653d 71ab 7e3d b8bc 2f3d 5c64 013d
00000080: 6cf7 1f3d 7060 153d 8a8f e63c 7334 253d
00000090: 5872 1c3e e4dc 033e 8b36 3f3e 549d b63d
000000a0: 33b3 863d c406 ff3d 2f7b 033e baf9 b73d
000000b0: 742c 233e 7262 143d 9d3f f23c 4d17 353d
000000c0: 4278 5d3c 8a6a 0a3c c498 b93c d1d1 ef3c
000000d0: 8d5a 9b3c 3e98 f03c 57ce 15bb ba14 d5ba
000000e0: f24e bf3b 6fbf acbc 1453 c8bc 5315 09bd
000000f0: 2fcf 74bc c30a e6bc cce1 2dbd 269d f7bb
00000100: 5da4 95bb 99d7 0039 ec9d 093c b2b2 843c
00000110: f1ab bb3c c0ac 8ebb 52ad a43b b9b3 053c
00000120: 546e bc3b e3b5 453c 61b2 083c 0424 8dbb
00000130: 0dbd 00bb 848f b6bb 0d20 17bc c8f7 06bc
00000140: 48b3 53bc 6987 c4bc a0e2 7abc 5c36 f2bc
00000150: efd3 2dbd d4f7 bfbc 8ba4 eebc 21e4 24bd
00000160: 78f4 efbc 910a 32bd af39 913c dc31 c83c
00000170: bb2c c43c e098 8c3a 1b51 873c c634 633c
00000180: 4675 0cbc 1712 62b9 9e30 f63a 63f9 dd3d
00000190: a9de a23d e792 ae3d f315 f13d 7e45 a43d
000001a0: f6f4 be3d 6b1a bd3d 2b56 873d faba 8b3d
000001b0: 1acc 78bd ea8b 18bd d5d2 31bd 6b54 1dbd
000001c0: be0b 87bc 16a9 45bc d426 05bd f904 c5bc
000001d0: 3d05 bebc 7ac0 863b 5769 d2bb f6ee 713a
000001e0: 3e22 603c 5d9d dbbb 1ef1 8fbb 5cae abbb
000001f0: 9082 b0bc c042 90bc 8d97 033d 1cdb 623c
00000200: a83a 103c bacd c83c 4885 773c f2f8 223c
00000210: cfbf 2b3d 4d66 ed3c f3fa cf3c 34f4 56bc
00000220: 8d84 8fbb c125 2fbc 8eaf b33b c92e 12bc
00000230: 0b90 28bc 3ec8 f33b 2bd7 88ba 6900 0a3c
00000240: 3c2f 2b3c 44fa c1bb 9eaa aa3a 2b31 8b3b
00000250: 6d02 9abb e75e 193b 23b0 473c 0af3 fb3b
00000260: f26f 133c d9f3 d5bb cc72 0c3a 85ff 73bc
00000270: 188c 4cba f0bb 96b8 0902 a5bc 8d76 04ba
00000280: 4259 2ebb 7525 cebc c02a 023d 621b 8cbc
00000290: 152a 32bd 9806 723c b0a6 e2bc e05d 66bd
000002a0: 69a9 c93c 899e 97bc 0791 1abd 8942 febb
000002b0: af15 f5bb af67 4dba e5e3 fdbc 0ad6 a5bc
000002c0: 18e9 52bc 27c3 4cbd 8e2f cebc f427 0bbc
000002d0: 84e3 d03c 7c8e a83c c642 e63c 6d4e a23c
000002e0: 8f1f 3c3c 00ca c83c bd28 853c bf5f 2d3c
000002f0: 38ce 873c 28e1 1dbc b2d5 cdbb 731c 48bc
00000300: 508d 19bc 02ed 61ba 9031 b7ba c9c1 abbc
00000310: be59 85bb fec6 b93a 3112 0ebd 2f76 e3bc
00000320: a108 ebbc 3ec1 8a3b 7054 c03a 64a5 503b
00000330: 1142 0f3c cc8d aa3b 5a7f fa3b f82b b2ba
00000340: 0334 01bc 423a 75bc 7b4b cd3b 2273 c3bb
00000350: 47c6 16bc cb68 8fbb 7d39 86bc 57de b3bc
00000360: 14e8 613b a4de 963b 8a75 073c 7f79 213b
00000370: 67d5 873b a2ed da3b a309 923c aac6 593c
00000380: 7be4 093c 7d0c 2cbd 533c f7bc 9ce6 07bd
00000390: 560e 19bd a6bb e4bc 78c0 a0bc 32f8 11bd
000003a0: f0f5 d8bc dfed e3bc 9d16 30bd 709e 35bd
000003b0: 2e86 43bd 2df4 05bd 4a6b d2bc a513 ffbc
000003c0: b244 c3bc 7dca e1bc 3760 33bd 10a4 833d
000003d0: 79b1 493d 7e92 013e 1ed7 a13d 7c48 513d
000003e0: 764d fe3d 3f23 213e 2c5c e63d 384e 353e
000003f0: ad37 c0bc 7ee8 f1bb 61c1 693c 77cf ecba

features.module.8.bias f4 [64]
-0.026739175 0.0107346615 0.01130237 0.05741787 0.053347 -0.04815224 0.028972724 -0.046746217
-0.02851368 0.023013454 -0.039896645 0.0500132 0.022081764 0.004987172 0.032672152 -0.049686767
0.009623106 0.021734234 -0.026827104 -0.018131722 0.023659062 0.04940775 -0.022745712 0.03521715
0.032697786 -0.0341347 -0.04636122 -0.00687206 0.036193404 -0.048626553 -0.040528245 0.04250421
-0.03344913 -0.04164556 -0.0024850708 0.057076026 0.038471855 0.030091783 0.007461961 -0.029222716
-0.04544457 0.030987114 0.017287903 0.015178581 -0.021556545 -0.056906942 0.007978929 -0.010044076
-0.0044130343 0.0055368044 -0.0340936 -0.036330745 -0.016917331 0.022636527 -0.036517244 0.054364424
-0.057398964 -0.036200244 0.01671729 -0.056734405 -0.032379076 0.030098407 -0.039529778 0.018680247
00000000: 1d0c dbbc 6fe0 2f3c 932d 393c 002f 6b3d
00000010: 6282 5a3d 493b 45bd 3558 ed3c f678 3fbd
00000020: 8595 e9bc b686 bc3c aa6a 23bd a4da 4c3d
00000030: d1e4 b43c 6e6b a33b 3cd3 053d 5a84 4bbd
00000040: 3baa 1d3c fe0b b23c 84c4 dbbc fa88 94bc
00000050: a6d0 c13c c85f 4a3d 3755 babc dc3f 103d
00000060: 1dee 053d d4d0 0bbd 43e5 3dbd 042f e1bb
00000070: 893f 143d a32c 47bd f200 26bd e518 2e3d
00000080: f401 09bd 8994 2abd 92dc 22bb 8dc8 693d
00000090: aa94 1d3d 0b83 f63c 7783 f43b 7a64 efbc
000000a0: 1624 3abd b0d8 fd3c 5c9f 8d3c 95af 783c
000000b0: 5a97 b0bc 4117 69bd 0eba 023c e88f 24bc
000000c0: 379b 90bb 156e b53b bba5 0bbd 8ccf 14bd
000000d0: 3796 8abc 3d70 b93c 1b93 15bd 3bad 5e3d
000000e0: 2d1b 6bbd b546 14bd b3f2 883c 5662 68bd
000000f0: ec9f 04bd ef90 f63c fae9 21bd 5107 993c

features.module.9.weight f4 [64]
4.4567404 3.2496629 3.4043138 3.3317487 2.4068718 3.5027254 3.6663902 2.6805632
2.8415802 3.3018446 2.2891593 2.6289787 2.895044 2.8549309 3.4861827 4.299666
2.913922 3.1416016 2.7221727 3.0984788 3.3173447 2.950456 2.8732688 3.7723076
3.3651884 2.9878194 3.2419508 2.923821 3.1097112 2.9952543 3.7694278 3.456172
3.2304323 3.1066575 2.9485705 3.1405575 3.5302289 4.733224 2.9099467 3.9996717
3.124928 2.738935 3.2215962 2.8587773 2.894774 3.7282162 4.09433 2.8055513
3.740416 3.7752156 3.1766107 3.4344592 2.9034426 3.0854676 3.621121 3.9775853
3.2569268 3.2127593 3.5534155 3.3352478 3.5675185 3.736492 2.837558 3.2281458
00000000: 9e9d 8e40 7afa 4f40 47e0 5940 5f3b 5540
00000010: 300a 1a40 a72c 6040 23a6 6a40 598e 2b40
00000020: 73dc 3540 6c51 5340 9681 1240 3041 2840
00000030: 6748 3940 30b7 3640 9e1d 5f40 dd96 8940
00000040: b37d 3a40 0010 4940 1438 2e40 7a4d 4640
00000050: 604f 5440 45d4 3c40 a3e3 3740 7d6d 7140
00000060: 3f5f 5740 6f38 3f40 1f7c 4f40 e21f 3b40
00000070: 8205 4740 3fb2 3f40 4e3e 7140 ec31 5d40
00000080: 67bf 4e40 7ad3 4640 61b5 3c40 e5fe 4840
00000090: 45ef 6140 9276 9740 913c 3a40 9ffa 7f40
000000a0: d2fe 4740 b64a 2f40 a22e 4e40 35f6 3640
000000b0: fa43 3940 189b 6e40 c004 8340 278e 3340
000000c0: fa62 6f40 229d 7140 974d 4b40 2ece 5b40
000000d0: 01d2 3940 4d78 4540 72c0 6740 c290 7e40
000000e0: 7d71 5040 d99d 4d40 296b 6340 b374 5540
000000f0: 3952 6440 af22 6f40 8d9a 3540 f199 4e40

features.module.9.bias f4 [64]
1.2335489 0.7495357 0.81559074 0.824872 0.71320295 0.8713367 0.822979 1.3424792
1.4221035 0.8990238 0.66387033 1.259516 0.6575543 0.73221946 0.8052958 1.1573014
0.81796676 0.74592096 1.3345082 1.1779752 0.8618001 1.5349501 0.91603035 0.8398612
1.128913 0.7124327 0.9161653 0.71286595 0.7614072 1.1939994 0.9263348 0.9902931
0.8463731 1.1211375 0.85469496 0.75709087 0.97360235 1.2824547 0.78364605 1.0429562
0.88405 0.6902737 0.9017673 1.200465 1.4817758 1.1381987 1.4668252 1.4133513
0.83890057 0.74484974 0.9794634 1.1402044 0.7762579 0.8022817 0.8848178 1.490637
0.8707301 1.1464648 0.90259856 0.676849 0.7387644 0.7896749 0.61562383 1.7071368
00000000: eee4 9d3f 92e1 3f3f 8eca 503f d02a 533f
00000010: 7894 363f ec0f 5f3f c0ae 523f 5cd6 ab3f
00000020: 7d07 b63f 6c26 663f 68f3 293f d237 a13f
00000030: 7b55 283f bc72 3b3f de27 4e3f 7422 943f
00000040: 4566 513f adf4 3e3f 2ad1 aa3f e4c7 963f
00000050: ee9e 5c3f 3f79 c43f f780 6a3f 2501 573f
00000060: 3980 903f fd61 363f cf89 6a3f 627e 363f
00000070: 95eb 423f f9d4 983f 4724 6d3f d983 7d3f
00000080: e8ab 583f 6f81 8f3f 4acd 5a3f b5d0 413f
00000090: 013e 793f 7a27 a43f 079d 483f 977f 853f
000000a0: 1a51 623f c7b5 303f 39da 663f d6a8 993f
000000b0: d4aa bd3f 7fb0 913f eec0 bb3f b2e8 b43f
000000c0: 30c2 563f 79ae 3e3f 1dbe 7a3f 38f2 913f
000000d0: d6b8 463f 5562 4d3f 6b83 623f 31cd be3f
000000e0: 2be8 5e3f 5cbf 923f b310 673f fa45 2d3f
000000f0: aa1f 3d3f 2228 4a3f 8699 1d3f 7583 da3f

features.module.9.running_mean f4 [64]
-0.025273189 0.024816344 0.024980163 0.0749455 0.032969072 -0.03527192 0.030481813 0.039104316
0.005874284 0.031949818 -0.042668417 0.098614216 0.038584344 -0.028392812 0.0446333 -0.07150246
-0.04810916 0.028463144 0.049904123 0.0030700741 0.017976062 0.11464396 -0.09566143 0.07739392
-0.032597102 -0.015590713 -0.05927964 -0.012455177 0.07411314 -0.04967543 -0.03253046 0.055765275
-0.061150484 -0.074619375 -0.028291488 0.06985063 0.04423957 0.081222445 0.021912716 -0.022416115
-0.041032314 0.03531893 0.004064906 0.031289253 0.04897816 -0.069785796 -0.029219188 0.03596625
0.006007791 0.046982747 -0.1261936 -0.10647124 -0.0028506736 -0.021858769 -0.09478784 0.00048083736
-0.046760924 -0.0284226 0.01295929 -0.018063294 -0.010632923 0.04255864 -0.08658658 0.1081286
00000000: b809 cfbc a54b cb3c 33a3 cc3c 077d 993d
00000010: 940a 073d 4a79 10bd ffb4 f93c d92b 203d
00000020: 117d c03b d0dd 023d 14c5 2ebd 40f6 c93d
00000030: 9e0a 1e3d 0b98 e8bc 68d1 363d e26f 92bd
00000040: 1c0e 45bd 8a2b e93c 4468 4c3d 4c33 493b
00000050: 8942 933c 74ca ea3d 24ea c3bd b480 9e3d
00000060: 8a84 05bd 3170 7fbc 35cf 72bd cc10 4cbc
00000070: a1c8 973d 7778 4bbd a93e 05bd 216a 643d
00000080: ee78 7abd 0bd2 98bd 8dc3 e7bc d90d 8f3d
00000090: 8d34 353d f457 a63d 4c82 b33c 00a2 b7bc
000000a0: 8011 28bd 95aa 103d e732 853b 2929 003d
000000b0: 539d 483d dbeb 8ebd 145d efbc 5951 133d
000000c0: 01dd c43b fb70 403d e538 01be 980d dabd
000000d0: 5ed2 3abb 2911 b3bc 2120 c2bd e618 fc39
000000e0: 6288 3fbd 83d6 e8bc 3453 543c 79f9 93bc
000000f0: b635 2ebc f851 2e3d 4e54 b1bd 8772 dd3d

features.module.9.running_var f4 [64]
0.013822236 0.015815374 0.015088974 0.014390337 0.022831103 0.014659263 0.016345037 0.020664483
0.011129265 0.012998925 0.015757654 0.00864475 0.009460322 0.011760986 0.015084297 0.008264697
0.02236769 0.014473293 0.015300528 0.010358963 0.012115484 0.023763072 0.011401871 0.016832931
0.025611233 0.013554471 0.011797675 0.010705614 0.009119694 0.013812362 0.011829459 0.014374097
0.009330129 0.020230053 0.019912705 0.009392332 0.015465891 0.011366123 0.012599586 0.011638236
0.011292413 0.015759135 0.0127768675 0.00945725 0.023404574 0.012341472 0.01225376 0.008837903
0.016546981 0.018451743 0.021543572 0.02301393 0.011848789 0.01337064 0.01212582 0.010311897
0.013187546 0.010562806 0.00984262 0.012646816 0.011334865 0.017639995 0.009945661 0.012754873
00000000: a976 623c 3e8f 813c be37 773c 73c5 6b3c
00000010: 4b08 bb3c 682d 703c 07e6 853c 9048 a93c
00000020: 8557 363c 71f9 543c 3216 813c b6a2 0d3c
00000030: 77ff 1a3c 27b1 403c 2124 773c a768 073c
00000040: 723c b73c 6421 6d3c 11af 7a3c a4b8 293c
00000050: 0680 463c c6aa c23c eace 3a3c 37e5 893c
00000060: a6ce d13c 9213 5e3c 094b 413c 9a66 2f3c
00000070: c56a 153c 3f4d 623c 59d0 413c 5581 6b3c
00000080: 66dd 183c 7fb9 a53c f81f a33c 4ce2 193c
00000090: a664 7d3c fa38 3a3c 7e6e 4e3c 4dae 3e3c
000000a0: d003 393c 4d19 813c 1156 513c 95f2 1a3c
000000b0: f3ba bf3c e333 4a3c ffc3 483c dacc 103c
000000c0: 898d 873c 1c28 973c 257c b03c b687 bc3c
000000d0: 6c21 423c 8710 5b3c 60ab 463c 3bf3 283c
000000e0: 9410 583c 9f0f 2d3c f142 213c 9734 4f3c
000000f0: dfb5 393c c081 903c 20f3 223c d1f9 503c

top_layer.weight f4 [10, 64]
0.03993593 0.0057802023 0.06312335 -0.11914122 -0.18562123 -0.048809953 -0.025578283 0.02089376
-0.10966473 -0.13388865 -0.14320986 -0.087145016 0.20001468 0.18237072 -0.015816268 0.12640342
-0.13941984 -0.10811654 -0.009596506 -0.20108041 0.4483866 0.080006644 0.23640442 -0.04463072
-0.22916861 -0.012402751 -0.14872928 0.32738507 -0.08972596 -0.14020392 0.0046158256 0.20420524
0.54775757 -0.16898088 -0.18586774 -0.07296811 -0.13254558 -0.0051805284 -0.076024085 0.022329431
8.396874e-05 -0.03004806 -0.100939564 -0.16680698 0.074411355 0.013138613 0.08000954 -0.045983918
-0.17888263 -0.11035317 -0.18273759 -0.21638379 -0.02617707 0.34586197 0.6052942 0.07227111
-0.10608208 -0.19758753 0.46030918 -0.03966146 -0.015889088 -0.024969712 0.50956625 -0.024346841
0.6435283 0.04733694 0.013812654 -0.07743553 0.13689737 -0.15590248 -0.03918103 -0.13489184
-0.118675075 -0.16235068 0.17309952 -0.060132172 0.08250011 -0.10332736 0.09812556 -0.12879685
0.1598457 0.1317167 -0.118417755 0.0646639 -0.068657175 -0.23274824 -0.21633829 -0.057010267
0.034785617 -0.019928707 -0.1935632 0.060530223 -0.1415711 -0.06167894 0.6262839 -0.17655878
0.11740839 -0.057793163 0.23378511 0.5268527 -0.14456311 -0.20727244 -0.09190233 0.6376034
-0.19151793 -0.017339021 -0.1281705 0.044101316 -0.19228145 0.44025806 0.13046007 -0.096078515
0.061144054 -0.038511276 -0.0503136 -7.096189e-05 -0.17423728 -0.2450625 -0.12955905 -0.01043125
-0.1781304 0.20147252 0.14706233 -0.035833612 -0.05720398 -0.038682465 0.052415296 -0.016998854
-0.11158458 -0.14401738 -0.1331866 -0.04308467 0.27705333 0.083364084 -0.08565381 -0.2936321
-0.053757526 0.19783853 0.18952894 -0.21493249 -0.10805204 0.019954026 -0.21356037 -0.16393797
0.3655768 -0.16085066 -0.24757901 -0.1847082 -0.032175004 -0.27946642 0.20762935 -0.016390823
0.49763095 -0.09658186 0.15108196 -0.09117913 0.005660206 0.2562285 -0.07869057 0.01688948
-0.03196049 0.4328312 0.3478415 0.0255286 0.045605503 -0.021751214 0.08446732 -0.12670927
0.18840595 -0.08072714 0.10414239 -0.24362867 -0.33096373 0.10332902 0.13586634 -0.27281523
-0.1882038 -0.09451478 0.51584387 0.5514782 0.17288224 0.1349954 0.0627032 0.20878413
0.19734363 -0.2372472 -0.14282526 -0.058602344 -0.113805294 -0.06731546 -0.009289453 -0.41886508
-0.18661395 -0.064439096 -0.08705742 -0.07975378 -0.05881537 0.4149094 0.34093124 -0.016244788
-0.057966333 -0.082418874 -0.09755638 -0.052257545 -0.077038504 0.24065173 -0.042510204 0.028543016
-0.0779859 -0.06149876 -0.015267782 -0.05017977 -0.100845195 -0.0149490535 -0.13602339 0.48655647
-0.05647461 -0.06321166 -0.053564746 -0.07454569 0.30579385 -0.09753247 -0.13288786 -0.1441457
-0.07341709 -0.076643415 -0.08008712 -0.101011895 -0.14222294 0.44380563 0.2962191 -0.16400641
0.30570886 0.033284288 -0.12615407 -0.03251774 -0.027751416 -0.19511954 -0.29740873 -0.072343975
-0.0971519 0.45362625 -0.085520834 -0.06564409 0.29073998 -0.10423429 -0.07341469 -0.32365805
0.20638564 -0.03854234 -0.077200375 0.3613366 0.35109767 0.392197 -0.055354144 -0.07446551
00000000: dc93 233d da67 bd3b d146 813d 5000 f4bd
00000010: 7e13 3ebe f2ec 47bd 8c89 d1bc 6429 ab3c
00000020: e797 e0bd 1b1a 09be 9ba5 12be 1679 b2bd
00000030: a6d0 4c3e 64bf 3a3e 1e91 81bc e66f 013e
00000040: 13c4 0ebe 346c ddbd aa3a 1dbc 06e8 4dbe
00000050: ee92 e53e 86da a33d 0014 723e b4ce 36bd
00000060: 2dab 6abe e834 4bbc 7d4c 18be 049f a73e
00000070: 3ec2 b7bd 9e91 0fbe 5a40 973b 2e1b 513e
00000080: d739 0c3f 5309 2dbe 1d54 3ebe 4e70 95bd
00000090: 07ba 07be 6cc1 a9bb 84b2 9bbd 36ec b63c
000000a0: 6018 b038 5927 f6bc 67b9 cebd 73cf 2abe
000000b0: fb64 983d 5643 573c 0bdc a33d a259 3cbd
000000c0: 022d 37be d800 e2bd 901f 3bbe b693 5dbe
000000d0: 4b71 d6bc d214 b13e 90f4 1a3f e002 943d
000000e0: 9041 d9bd 6354 4abe a5ad eb3e 0e74 22bd
000000f0: d529 82bc 488d ccbc ef72 023f 0773 c7bc
00000100: 45be 243f 61e4 413d 784e 623c 8596 9ebd
00000110: d32e 0c3e e6a4 1fbe 4a7c 20bd 1621 0abe
00000120: eb0b f3bd 423f 26be 0041 313e 274d 76bd
00000130: d1f5 a83d 4b9d d3bd 0ef6 c83d 52e3 03be
00000140: 97ae 233e bee0 063e 0285 f2bd 826e 843d
00000150: 229c 8cbd 8e55 6ebe c987 5dbe 9983 69bd
00000160: 5d7b 0e3d 8741 a3bc 6e35 46be 8aee 773d
00000170: 04f8 10be 0ea3 7cbd 2454 203f d3cb 34be
00000180: cf73 f03d 86b8 6cbd 5d65 6f3e d2df 063f
00000190: 5a08 14be 3a3f 54be 4a37 bcbd fa39 233f
000001a0: 471d 44be 900a 8ebc 213f 03be 95a3 343d
000001b0: 6ee5 44be 8169 e13e 5397 053e d0c4 c4bd
000001c0: 3072 7a3d 00be 1dbd a215 4ebd 60d1 94b8
000001d0: 426b 32be aaf1 7abe 21ab 04be d5e7 2abc
000001e0: d167 36be d04e 4e3e 8297 163e 44c6 12bd
000001f0: b84e 6abd 8171 1ebd 6cb1 563d 2e41 8bbc
00000200: 7586 e4bd 4b79 13be 1162 08be 8d79 30bd
00000210: efd9 8d3e caba aa3d 446b afbd f256 96be
00000220: da30 5cbd 2f96 4a3e e013 423e 4317 5cbe
00000230: 634a ddbd a076 a33c 92af 5abe 5bdf 27be
00000240: e22c bb3e 09b6 24be 5a85 7dbe 2524 3dbe
00000250: f0c9 03bd 3916 8fbe ca9c 543e 0c46 86bc
00000260: 7cc9 fe3e b6cc c5bd 3bb5 1a3e 20bc babd
00000270: 4079 b93b 6230 833e 8628 a1bd cf5b 8a3c
00000280: 01e9 02bd 0d9c dd3e 4818 b23e 5b21 d13c
00000290: d6cc 3a3d 9a2f b2bc 34fd ac3d 13c0 01be
000002a0: 7ded 403e 4554 a5bd 9b48 d53d cb79 79be
000002b0: 1474 a9be 2a9e d33d 8c20 0b3e 70ae 8bbe
000002c0: 7fb8 40be f790 c1bd 580e 043f ad2d 0d3f
000002d0: 0b08 313e 3c3c 0a3e 896a 803d 82cb 553e
000002e0: 7314 4a3e eef0 72be c940 12be 0309 70bd
000002f0: c012 e9bd b0dc 89bd ca32 18bc 7c75 d6be
00000300: ba17 3fbe a5f8 83bd 294b b2bd f355 a3bd
00000310: 63e8 70bd 016f d43e 8a8e ae3e ca13 85bc
00000320: 1b6e 6dbd 3acb a8bd a4cb c7bd 020c 56bd
00000330: 5dc6 9dbd 686d 763e 2e1f 2ebd 0bd3 e93c
00000340: 12b7 9fbd 20e6 7bbd b825 7abc 4d89 4dbd
00000350: ed87 cebd e0ec 74bc b749 0bbe ee1d f93e
00000360: ec51 67bd 1d75 81bd b566 5bbd 69ab 98bd
00000370: 0391 9c3e 1bbf c7bd c113 08be ee9a 13be
00000380: b35b 96bd 39f7 9cbd b704 a4bd 53df cebd
00000390: e4a2 11be 7e3a e33e 08aa 973e 4cf1 27be
000003a0: df85 9c3e 1b55 083d 882e 01be 5231 05bd
000003b0: f056 e3bc 6bcd 47be f545 98be 1429 94bd
000003c0: 93f7 c6bd b341 e83e 8c25 afbd 6970 86bd
000003d0: dfdb 943e ca78 d5bd 715a 96bd 82b6 a5be
000003e0: c256 533e 93de 1dbd 3b1b 9ebd 1c01 b93e
000003f0: 13c3 b33e 0cce c83e 07bb 62bd 6081 98bd

top_layer.bias f4 [10]
0.026792401 -0.051540356 0.017754 -0.010256562 -0.004961513 0.08410581 -0.009915029 -0.015515538
-0.017253166 -0.019210795
00000000: bd7b db3c fb1b 53bd d670 913c 240b 28bc
00000010: 3094 a2bb ab3f ac3d a572 22bc e234 7ebc
00000020: 8356 8dbc f55f 9dbc

momentum_buffer f4 [16, 1, 3, 3]
-0.019554064 -0.0027809516 0.041400902 -0.006561829 -0.009954651 0.029482042 -0.008532988 -0.0044252975
0.031298757 -0.0532709 -0.0052678 -0.018989474 0.0061445413 0.016002981 -0.0050567235 0.020967657
0.0053011333 -0.0075475387 0.013252703 0.05908879 0.063917555 -0.005600311 0.039527904 0.09885423
0.003838696 0.06681808 0.104668796 0.01784913 0.015781397 0.0314925 0.016396971 0.01878544
0.028608125 0.04750469 0.02874372 0.016290728 0.03299848 0.051384334 0.020178035 0.11377695
0.07201502 -0.039879058 0.12821394 0.06374938 -0.08741346 0.034859244 0.03202309 0.03126871
0.028408838 0.002017912 0.022048548 0.015267929 0.019560896 0.038203374 0.046914246 0.0008918904
0.014685702 0.043323804 0.03213901 0.02816039 0.018246822 0.021475786 0.005606383 0.013036867
-0.027387574 -0.048707977 -0.015409052 -0.02812545 -0.059175722 -0.049243834 -0.045014128 -0.055466868
-0.079367295 -0.024879392 -0.038181372 -0.013962643 0.0030586272 -0.027504645 -0.019747643 0.002209328
-0.02215185 0.044879362 0.04824553 0.06970015 0.062180124 0.052075356 0.1079633 0.031014241
0.036259234 0.118457384 0.035885714 -0.0026924647 -0.061243944 0.015495394 -0.040025517 -0.075206324
-0.014986781 -0.056280382 -0.083120294 0.001024032 -0.03659986 0.01688727 0.007524971 0.017917128
0.0441946 0.008534889 0.02926144 0.021798633 0.0010957508 -0.013881102 0.0065133907 -0.020174293
-0.030645428 -0.015987372 -0.01276952 -0.0072322786 -0.008588016 -0.0076884828 -0.011728099 -0.011069286
-0.038524996 -0.023105517 -0.021775536 -0.029114775 0.006659543 0.02560566 -0.010999501 -0.010741249
-0.023532543 -0.0040635895 -0.017115276 -0.01599784 0.0034481026 -0.017045166 -0.044738755 -0.01006788
0.002704518 -0.004833689 -0.039279345 -0.012472456 -0.005766895 -0.035384055 -0.026570985 -0.016860558
00000000: d82f a0bc a040 36bb fe93 293d 9c04 d7bb
00000010: d518 23bc 5384 f13c f2cd 0bbc 1602 91bb
00000020: 2033 003d 9632 5abd 829d acbb d08f 9bbc
00000030: 2658 c93b af18 833c dfb2 a5bb 5dc4 ab3c
00000040: 21b5 ad3b 5851 f7bb dd21 593c 1607 723d
00000050: 35e7 823d d082 b7bb 03e8 213d 1674 ca3d
00000060: a292 7b3b ebd7 883d 985c d63d 5738 923c
00000070: fd47 813c 48fe 003d f152 863c ece3 993c
00000080: 965b ea3c 4794 423d f377 eb3c 2274 853c
00000090: 6a29 073d 6178 523d 684c a53c e403 e93d
000000a0: 9c7c 933d 3958 23bd 844a 033e 098f 823d
000000b0: d405 b3bd 91c8 0e3d a52a 033d 9e13 003d
000000c0: a7b9 e83c f23e 043b 289f b43c 5626 7a3c
000000d0: 2c3e a03c 247b 1c3d 2729 403d c0cd 693a
000000e0: 4c9c 703c 4d74 313d 32a4 033d 9eb0 e63c
000000f0: 5c7a 953c fded af3c c0b5 b73b 9598 553c
00000100: e85b e0bc 0482 47bd 4076 7cbc 5867 e6bc
00000110: 3e62 72bd e7b3 49bd bc60 38bd 3a31 63bd
00000120: 528b a2bd decf cbbc 1264 1cbd 92c3 64bc
00000130: 4073 483b 6c51 e1bc cfc5 a1bc 60ca 103b
00000140: cc77 b5bc 6cd3 373d 1b9d 453d f4be 8e3d
00000150: 96b0 7e3d f84c 553d dd1b dd3d 9411 fe3c
00000160: 9084 143d c999 f23d e6fc 123d 1074 30bb
00000170: eeda 7abd 65e0 7d3c ccf1 23bd c605 9abd
00000180: 1e8b 75bc 4286 66bd f93a aabd d038 863a
00000190: bce9 15bd 2c57 8a3c 0894 f63b f1c6 923c
000001a0: 6605 353d ebd5 0b3c b0b5 ef3c 0c93 b23c
000001b0: 4c9f 8f3a 906d 63bc 486e d53b 8f44 a5bc
000001c0: 1f0c fbbc f3f7 82bc 4037 51bc c0fc ecbb
000001d0: c0b4 0cbc abef fbbb 3627 40bc f35b 35bc
000001e0: 63cc 1dbd c847 bdbc 9c62 b2bc 1c82 eebc
000001f0: 4c38 da3b f6c2 d13c 4037 34bc 10fc 2fbc
00000200: 52c7 c0bc dc27 85bb 5635 8cbc e70d 83bc
00000210: 90f9 613b 4ea2 8bbc fc3f 37bd c0f3 24bc
00000220: 483e 313b ec63 9ebb 61e3 20bd 4659 4cbc
00000230: 39f8 bcbb dfee 10bd 65ab d9bc 271f 8abc

momentum_buffer f4 [16]
-5.7017796e-06 6.9147204e-06 1.7062117e-05 2.6629661e-05 3.0002691e-05 -2.6165875e-05 8.289281e-06 -1.4167397e-05
-3.5543007e-06 -2.4705096e-05 3.0008654e-05 -2.4253011e-05 1.7599878e-05 1.1577658e-05 1.0643683e-05 -1.7850394e-05
00000000: ea51 bfb6 ff04 e836 9e20 8f37 c362 df37
00000010: 4aae fb37 ca7e dbb7 3112 0b37 82b0 6db7
00000020: 6c86 6eb6 ca3d cfb7 18bb fb37 f272 cbb7
00000030: 73a3 9337 aa3d 4237 4592 3237 6ebd 95b7

momentum_buffer f4 [16]
-0.14508753 -0.050644293 0.08082516 0.031741094 -0.048934296 0.030514995 0.01691156 -0.17815697
-0.030234333 0.02488583 -0.22740942 0.03998942 0.005105575 0.10004619 0.057443157 -0.01164671
00000000: d391 14be 6470 4fbd a987 a53d f302 023d
00000010: 546f 48bd 95fa f93c 1d8a 8a3c c86e 36be
00000020: fead f7bc 5edd cb3c 04de 68be f2cb 233d
00000030: ab4c a73b 04e5 cc3d 8449 6b3d d8d1 3ebc

momentum_buffer f4 [16]
-0.058278225 -0.0334685 0.16525549 0.018561587 -0.048389435 0.021722294 0.008872688 -0.051719062
0.00023657829 0.01579468 -0.049987458 0.0644751 0.0022810563 0.20084646 0.14580935 0.019381396
00000000: 26b5 6ebd 4416 09bd bc38 293e 780e 983c
00000010: 0034 46bd f4f2 b13c c05e 113c 5ed7 53bd
00000020: 0012 7839 d863 813c a6bf 4cbd 850b 843d
00000030: c67d 153b b2aa 4d3e 0c4f 153e bcc5 9e3c

momentum_buffer f4 [32, 16, 3, 3]
-0.02340585 -0.026048856 -0.012716549 -0.034816023 -0.027484462 0.0024368647 -0.0051605864 -0.003644049
0.022414763 0.0157116 0.010384319 -0.0015659194 0.010168618 0.012433609 -0.010374935 -0.0003435742
0.0066372408 -0.0060524773 0.011183873 0.01833037 0.0016021668 -0.0011362461 -0.006238341 0.009156868
-0.00051533745 0.0033488218 0.0064507877 -0.0076637673 -0.007310331 -0.0034543732 -0.0069676903 -0.01321171
-0.008271312 -0.011533406 -0.015125948 -0.0014232892 0.022362448 0.028563382 0.0022497182 0.01940273
0.03330516 -0.000641183 0.022025764 0.032575876 -0.00056069554 -0.04152871 -0.048491556 -0.017223466
-0.0037769396 0.027655121 0.03736352 0.013528319 0.022429405 0.007063497 -0.033677384 -0.020117544
0.013832814 0.002546872 0.013956024 0.007291093 -0.006161657 0.002148199 0.0048123687 -0.0107408995
0.0015189862 0.005581864 -0.00871163 -0.0033981325 0.00312407 -0.009273488 -0.0032763702 -0.00028673495
-0.032779954 -0.013422472 -0.0073218895 -0.03365338 -0.036041733 -0.008674882 -0.018319737 -0.0050410796
0.0082479725 0.0038647857 -0.005028017 0.0028023543 0.0007743039 -0.0039737136 -0.0016904278 -0.0018852117
-0.004843979 -0.00044112618 -0.057693478 -0.008080668 -0.006024499 -0.027241468 0.013562239 -0.015984457
-0.023398794 0.012397628 -0.010041904 -0.026322337 -0.010106392 -0.016496938 -0.0021842392 -0.032685764
-0.0049637216 -0.0028847598 -0.004907198 0.0033751326 7.132976e-05 0.0029818732 -0.0053495937 -0.010915929
0.0029608305 -0.0028341743 -0.011364332 -0.004249478 3.0879484e-05 0.0047258413 0.013266536 0.025667354
-0.00032683602 0.0027304953 0.0074744904 0.0020825714 0.007556166 0.013918476 0.0018468741 0.00535958
0.0029360494 -0.0034814065 -0.0010716418 0.0013316527 -0.009375472 -0.00693822 -0.0015202158 0.01852508
0.017321061 0.017414115 0.0009812639 -0.003088307 0.0077432236 -0.014594397 -0.011195057 -0.0019063051
-0.0054146117 -0.012388246 -0.0135254655 0.002828138 -0.010820086 -5.6429766e-05 0.0065796357 0.007265585
-0.0076493733 -0.0091264425 -0.016614031 -0.0044324524 -0.0002287291 -0.002905822 0.0001285614 -0.0022822702
4.8173824e-05 0.00018958224 0.013035263 0.0050369888 0.007404527 0.0072062765 -0.0011675031 0.0030304922
0.006030823 -0.005266052 0.004004323 -0.002902746 -0.001649983 0.0033496015 0.001038959 -0.0034976362
-0.002825966 -0.00020610495 -0.00038922147 -0.007675226 -0.024550736 -0.013891331 -0.009053986 -0.0114820935
-0.009987875 -0.002673181 0.007115254 0.004867769 -0.0031116272 -0.029970162 -0.028124103 -0.026064431
-0.009626645 -0.0051516956 -0.0013821721 -0.0012846421 -0.008304538 -0.0063265306 -0.0018554025 -0.004507781
-0.011971708 0.0050041513 0.000991581 -0.0047792215 -0.00432104 -0.0049906783 -0.0039982665 0.008905765
-0.0021180985 0.0008712294 0.0035341717 0.003163903 -0.0004610303 -0.008041546 0.0039075343 0.0016736966
-0.01932985 -0.014479623 -0.0051207165 -0.020004025 -0.015561155 0.004229508 0.0028787483 0.00037401076
0.00032875477 0.003716033 0.004246778 0.0022093093 0.0029853908 0.0011445517 0.0009699197 0.00028118218
-0.00015311991 0.0013614824 -0.0036048782 0.006140424 0.0024486308 0.0017168369 0.0033278407 0.0044854097
0.0063416893 0.0020236787 0.00035779993 0.0077646812 0.0053228065 0.0009316304 0.0062177978 0.0013357266
-0.004210812 0.0050162026 -0.0028232506 -0.0015838819 0.0037374396 0.0034652292 -0.0010360394 -0.0003189217
00000000: a0bd bfbc 6964 d5bc 1359 50bc 3f9b 0ebd
00000010: 1827 e1bc ceb3 1f3b 231a a9bb ffd0 6ebb
00000020: 2a9f b73c 9db5 803c fe22 2a3c 893f cdba
00000030: 469a 263c 56b6 4b3c a2fb 29bc c021 b4b9
00000040: 367d d93b dc53 c6bb 903c 373c 9229 963c
00000050: ccff d13a 18ee 94ba ff6a ccbb b006 163c
00000060: b617 07ba e877 5b3b 2161 d33b 5720 fbbb
00000070: 808b efbb c462 62bb 3951 e4bb ee75 58bc
00000080: 6684 07bc 9cf6 3cbc d3d2 77bc a98d baba
00000090: 7431 b73c c1fd e93c 0270 133b 79f2 9e3c
000000a0: fe6a 083d 1015 28ba 606f b43c 486e 053d
000000b0: a4fb 12ba 021a 2abd 159f 46bd 3a18 8dbc
000000c0: 8886 77bb fe8c e23c 7e0a 193d e2a5 5d3c
000000d0: dfbd b73c e874 e73b 4cf1 09bd 8ccd a4bc
000000e0: 07a3 623c 6ce9 263b cfa7 643c 1fea ee3b
000000f0: bae7 c9bb ccc8 0c3b 13b1 9d3b 99fa 2fbc
00000100: b818 c73a 12e8 b63b 39bb 0ebc 34b3 5ebb
00000110: 32bd 4c3b d4ef 17bc 5fb8 56bb ea54 96b9
00000120: 4644 06bd eee9 5bbc 76ec efbb 20d8 09bd
00000130: 7fa0 13bd 1821 0ebc 4613 96bc a42f a5bb
00000140: 8122 073c 5848 7d3b 10c2 a4bb b4a7 373b
00000150: a8fa 4a3a ed35 82bb 5891 ddba 3519 f7ba
00000160: 3eba 9ebb f446 e7b9 ff4f 6cbd c764 04bc
00000170: 2969 c5bb 8029 dfbc 2734 5e3c d6f1 82bc
00000180: d4ae bfbc 6c1f 4b3c cc86 24bc f1a1 d7bc
00000190: 4895 25bc 9624 87bc 7425 0fbb 82e1 05bd
000001a0: b7a6 a2bb 3d0e 3dbb 8fcc a0bb 5431 5d3b
000001b0: e096 9538 886b 433b a54b afbb bad8 32bc
000001c0: 7e0a 423b 8ebd 39bb 7731 3abc 353f 8bbb
000001d0: 9884 0138 3bdb 9a3b e35b 593c 5844 d23c
000001e0: 305b abb9 1cf2 323b 92ec f43b c07b 083b
000001f0: b799 f73b 520a 643c d012 f23a 6a9f af3b
00000200: bc6a 403b 4f28 64bb 5576 8cba da8a ae3a
00000210: 949b 19bc 025a e3bb fa41 c7ba e9c1 973c
00000220: e6e4 8d3c 0ca8 8e3c c19d 803a 3265 4abb
00000230: deba fd3b 561d 6fbc 796b 37bc fcdc f9ba
00000240: 0e6d b1bb 12f8 4abc ea99 5dbc 4858 393b
00000250: bb46 31bc 00af 6cb8 fc99 d73b 2514 ee3b
00000260: 98a7 fabb 1387 15bc 261a 88bc 1b3e 91bb
00000270: 00d7 6fb9 9a6f 3ebb 70ce 0639 2492 15bb
00000280: 400e 4a38 98ca 4639 db91 553c 530d a53b
00000290: ada1 f23b a122 ec3b e706 99ba 399b 463b
000002a0: 369e c53b d98e acbb b236 833b ff3b 3ebb
000002b0: 3e44 d8ba fd84 5b3b ae2d 883a 9938 65bb
000002c0: d833 39bb e01d 58b9 6c10 ccb9 7680 fbbb
000002d0: a01e c9bc 7798 63bc 2b57 14bc 641f 3cbc
000002e0: 2fa4 23bc 8930 2fbb 1427 e93b ce81 9f3b
000002f0: 71ec 4bbb fc83 f5bc 8564 e6bc 1385 d5bc
00000300: 13b9 1dbc 8ecf a8bb 002a b5ba 7061 a8ba
00000310: c20f 08bc c94e cfbb fa30 f3ba 02b6 93bb
00000320: fc24 44bc ddf9 a33b f0f7 813a 049b 9cbb
00000330: 8397 8dbb d888 a3bb e403 83bb 7ce9 113c
00000340: cccf 0abb 3763 643a 909d 673b 7c59 4f3b
00000350: 70b6 f1b9 b0c0 03bc c60a 803b f05f db3a
00000360: a259 9ebc f13b 6dbc afcb a7bb 7bdf a3bc
00000370: 37f4 7ebc af97 8a3b 62a9 3c3b e016 c439
00000380: b85c ac39 b088 733b 8e28 8b3b 0fca 103b
00000390: 8ca6 433b c804 963a 3642 7e3a a26b 9339
000003a0: d08e 20b9 c573 b23a d23f 6cbb 9c35 c93b
000003b0: 3579 203b 7d07 e13a e717 5a3b 58fa 923b
000003c0: f2cd cf3b b29f 043b 1897 bb39 de6e fe3b
000003d0: f06a ae3b a838 743a abbe cb3b 8c13 af3a
000003e0: dafa 89bb f55e a43b 4906 39bb 429a cfba
000003f0: d5ef 743b e618 633b b7cb 87ba f234 a7b9

momentum_buffer f4 [32]
2.1571227e-06 4.128317e-06 -7.543635e-06 -5.7680613e-06 -7.9071815e-06 3.777603e-06 6.267227e-06 -7.916464e-06
2.1869796e-06 1.6654193e-06 -4.443282e-06 1.8099448e-06 6.351611e-06 8.087678e-06 3.5549667e-06 -1.6150191e-06
-4.7433527e-06 -3.141813e-06 3.8564448e-08 -6.3383703e-07 6.022062e-06 -7.4541026e-06 7.323853e-07 -2.622447e-06
7.080099e-07 7.943298e-06 2.127947e-07 -1.4084985e-06 -2.782861e-06 -8.203842e-06 -7.458348e-06 3.6142396e-06
00000000: 16c3 1036 f985 8a36 551f fdb6 458b c1b6
00000010: 16a9 04b7 ba82 7d36 124b d236 f4d0 04b7
00000020: 06c4 1236 5f87 df35 8017 95b6 3bed f235
00000030: ec1f d536 50b0 0737 dd91 6e36 a2c3 d8b5
00000040: 1729 9fb6 f0d7 52b6 0fa2 2533 f324 2ab5
00000050: 1e11 ca36 411e fab6 2299 4435 4cfd 2fb6
00000060: 120e 3e35 3544 0537 907c 6434 a40b bdb5
00000070: 30c1 3ab6 3ca3 09b7 b942 fab6 2a8c 7236

momentum_buffer f4 [32]
-0.031888463 -0.020969681 -0.05575409 0.028472025 0.06396499 -0.14207964 -0.05410389 0.10412773
-0.010509143 -0.031036096 0.015919816 0.024309913 0.013516878 0.0036671478 -0.01799566 0.024619281
0.28358805 0.15111148 0.044140052 0.008252691 0.08593666 0.015482614 0.020126877 -0.08921214
0.023308663 -0.17106739 -0.07996237 -0.015004187 -0.061414145 0.019713014 -0.07220326 -0.023281977
00000000: 7a9d 02bd 9cc8 abbc 675e 64bd 2a3e e93c
00000010: 1400 833d 537d 11be 0a9c 5dbd eb40 d53d
00000020: 8a2e 2cbc 693f febc 466a 823c 9525 c73c
00000030: e575 5d3c 8854 703b a26b 93bc 60ae c93c
00000040: 7432 913e f8bc 1a3e 33cc 343d 4b36 073c
00000050: 8fff af3d caaa 7d3c 1fe1 a43c dbb4 b6bd
00000060: cff1 be3c 4a2c 2fbe 50c3 a3bd 1fd4 75bc
00000070: 668d 7bbd 307d a13c 4edf 93bd d8b9 bebc

momentum_buffer f4 [32]
-0.005487959 -0.034587845 -0.03294059 0.012886109 0.06826092 -0.035798393 -0.07857458 0.050673656
-0.0075522745 -0.037136756 0.013019241 0.023764126 0.022813817 0.0066437367 -0.020288913 0.041830506
0.17768027 0.07839046 0.0426081 0.00306392 0.059391484 0.002810901 0.024580216 -0.052944385
0.00852287 -0.05927795 -0.04886391 0.030366145 -0.04845782 0.0058374368 -0.10556171 -0.016630536
00000000: 56d4 b3bb fcab 0dbd b6ec 06bd 4220 533c
00000010: 62cc 8b3d 56a1 12bd b6eb a0bd 2e8f 4f3d
00000020: 1279 f7bb b61c 18bd a84e 553c fcac c23c
00000030: 0be4 ba3c b4b3 d93b ef34 a6bc 7756 2b3d
00000040: d1f1 353e 2d8b a03d d585 2e3d 0ccc 483b
00000050: 7c44 733d 1837 383b 735c c93c 36dc 58bd
00000060: 82a3 0b3c 70cd 72bd 8625 48bd 6cc2 f83c
00000070: b57b 46bd f847 bf3b bd30 d8bd c33c 88bc
