deepcluster_implementation/experiments/run_20250107_180402/config_4/checkpoints/checkpoint_epoch_0.pth.tar (torch, 203702 bytes, 32 tensors)

features.module.0.weight f4 [16, 1, 3, 3]
000000 9d 41 f2 3e f8 98 9e 3d f4 91 c0 be a3 01 2a 3d
       0.47315684 0.0774402 -0.37611353 0.041505467
000010 3a 47 cb bb d1 44 8c bc 7a 2f f6 be 83 71 56 bd
       -0.006203559 -0.017122658 -0.48083097 -0.052354347
000020 93 ff e3 3e 37 0c 86 be 38 36 26 3e f9 ff 4e 3e
       0.44530925 -0.26181194 0.1623162 0.20214833
000030 b3 b7 91 3e f6 63 9a be 8d 45 67 bc 32 cf d7 3d
       0.28460464 -0.3015439 -0.014115703 0.10537566
000040 e9 5e e8 3c dc 53 39 3e 2f 61 b7 be 40 0c 44 3e
       0.02836557 0.18098396 -0.35816333 0.19145298
000050 67 e6 b6 bd 12 ff 38 bd a2 41 57 3d 97 ca ae 3e
       -0.089306645 -0.04516513 0.052552827 0.3413894
000060 26 1f 48 be 5d 21 23 be d8 0c 54 be 32 41 20 bf
       -0.19543132 -0.15930696 -0.20708025 -0.6259948
000070 1c 1a 7d 3c d2 36 cf be 75 b9 a4 3e 5c 8d c4 bd
       0.0154481195 -0.40471512 0.32172742 -0.09597275
000080 67 f8 1b 3e ef 09 68 3e 63 05 db bd d2 42 c8 3e
       0.15231477 0.2266004 -0.10694387 0.3911348
000090 25 a0 73 3e 4a d4 85 3d e6 da 28 3e 2d d9 9a bd
       0.23791559 0.065346316 0.16489753 -0.07560954
0000a0 4e 83 9a be 65 51 28 be 6c 9d 1c 3e 96 7f 29 3d
       -0.30178303 -0.164373 0.15294427 0.04138144
0000b0 f4 94 cd 3e 87 6f 32 3e f8 70 b0 3e 29 c7 13 3d
       0.40152705 0.17425357 0.34461188 0.036078606
0000c0 ab 3d 86 3d 8b 20 89 bd 0b 76 f0 be 53 3c 9d be
       0.06554731 -0.0669566 -0.4696506 -0.30710086
0000d0 fd a6 80 be f2 03 14 bc 4c d0 b1 3d e2 8e ac 3d
       -0.25127402 -0.009034144 0.086823076 0.0842569
0000e0 8d 4a fa 3e 86 82 17 be 44 22 47 3c 71 31 a6 bc
       0.48885003 -0.14795884 0.012154166 -0.020287247
0000f0 55 36 80 be 71 31 84 be a9 f5 87 be 0e 7a 09 be
       -0.25041452 -0.2581897 -0.2655461 -0.13425466
000100 58 22 a1 be 57 cb 6f be 92 21 b5 3e c1 60 bc bd
       -0.31471515 -0.23417412 0.35377175 -0.09198142
000110 16 8c d4 be 0d 6c c0 3d da 99 d9 3e 9c 25 b1 3e
       -0.41513127 0.09395609 0.42500192 0.34599006
000120 64 40 b1 3e 92 20 7b be 7f 3d d4 be 20 7e a7 be
       0.3461944 -0.24524143 -0.41453168 -0.32713413
000130 1c 47 f5 bd 88 7a ea 3d 12 ec d6 3e 16 39 7c 3e
       -0.11976454 0.11449152 0.41976982 0.24631152
000140 cb f1 b3 bd f0 48 80 be 05 88 94 3e d7 7d fb 3d
       -0.08786353 -0.25055647 0.29010025 0.122798614
000150 1b fc 5e bd 44 d7 ad 3d 2b 6d 89 3e 17 99 ec be
       -0.054439645 0.08488324 0.268411 -0.46210548
000160 ba 89 80 be b6 27 50 3e bb 77 57 3e 88 ec 89 be
       -0.25105077 0.20327649 0.21041767 -0.26938272
000170 d0 39 0f 3e 5a 45 18 3e 1b 63 5d be ff 1d 34 be
       0.13986897 0.14870206 -0.21619837 -0.17589568
000180 b2 4a d9 3e 0c a2 9b 3d 74 4f ac be 6a 3a 9d be
       0.424398 0.07599267 -0.33654368 -0.3070863
000190 c0 95 00 bd e3 a1 b3 3e 8c 97 6c 3c bc c6 17 be
       -0.031392813 0.35084447 0.014440428 -0.14821905
0001a0 8d bf d7 3d 79 03 24 be 2d fb 78 be f4 89 67 be
       0.10534582 -0.1601695 -0.24314566 -0.22611219
0001b0 b3 30 a5 be ba 8f 03 3d 73 b9 0c 3f 91 50 27 be
       -0.32263717 0.03211949 0.54970473 -0.16339327
0001c0 df c0 02 be 31 91 50 be 40 7d 59 be 7f e8 3c bd
       -0.12768887 -0.20367886 -0.21239185 -0.046120163
0001d0 80 f7 1b 3e 4a d6 a0 be 3e af cb bd 5b 52 6c be
       0.15231133 -0.3141349 -0.09945534 -0.23078291
0001e0 1b 03 51 3d 10 32 9d bd e8 2b b5 bc b3 06 5b be
       0.051028352 -0.07675564 -0.022115663 -0.21389274
0001f0 ce cc 3c be b8 bd 68 be ed 28 ef be eb 27 6a be
       -0.18437502 -0.22728622 -0.4671091 -0.2286679
000200 41 5b db 3e c9 98 07 3d 28 e0 9e 3e b3 18 3b 3c
       0.4284306 0.03310469 0.31030393 0.011419463
000210 bb 1b 12 bd cf dc a1 3e f2 7f 01 bf 41 79 0f be
       -0.035670977 0.31613776 -0.50585854 -0.14011098
000220 d9 d6 99 bd 4a 9f a0 be e8 70 5f 3e ff 1f cd 3d
       -0.07511682 -0.31371528 0.21820414 0.100158684
000230 81 b1 d9 3d 82 1a 61 be 96 ab a7 3e ec 3c ba be
       0.10629559 -0.21982768 0.32748097 -0.36374605

features.module.0.bias f4 [16]
000000 81 f0 6a bd 63 17 8e 3d 1c 9a 2f 3e b7 4d 89 3e
       -0.05735827 0.069380544 0.17148632 0.26817104
000010 f5 ed 9a 3e c9 db 86 be 86 35 ab 3d a3 4e 12 be
       0.30259672 -0.26339558 0.08359818 -0.1428781
000020 05 1a 15 bd 0d 99 7e be 91 e9 9a 3e f1 a6 79 be
       -0.036401767 -0.24863072 0.30256322 -0.2438009
000030 cc ca 35 3e 54 15 ef 3d ea 10 dd 3d b0 e6 37 be
       0.17753142 0.1167399 0.10794242 -0.17959094

features.module.1.weight f4 [16]
000000 d8 95 64 3f d6 c4 29 3f f9 9b 83 3f 68 9f 8d 3f
       0.89291143 0.6631597 1.0281974 1.1064272
000010 f7 4e 41 3f ae 9a 86 3f c1 70 8f 3f 2e fc 7e 3f
       0.75511116 1.0515954 1.1206285 0.99603546
000020 10 20 72 3f ff e7 64 3f 1e 93 61 3f 83 61 7b 3f
       0.94580173 0.894165 0.8811511 0.98195666
000030 d8 a8 80 3f ab 95 6b 3f f3 57 6d 3f 02 ad 74 3f
       1.0051527 0.9202525 0.92712325 0.9557649

features.module.1.bias f4 [16]
000000 1f 50 07 bf b8 a6 c4 be e2 7c 9c be e0 4b 0b be
       -0.5285663 -0.38408446 -0.30564028 -0.13603163
000010 63 db fa be 0b d3 30 be 17 6d 8c be 80 bb c9 be
       -0.48995504 -0.17268007 -0.2742698 -0.39400864
000020 15 6e 51 be 16 b6 28 be a1 79 ac be 39 b2 7f be
       -0.20452149 -0.1647571 -0.33686545 -0.2497033
000030 d1 2f a0 be bd c8 9c be 4a 87 7f be c5 b2 84 be
       -0.3128648 -0.306219 -0.24953952 -0.2591764

features.module.1.running_mean f4 [16]
000000 76 65 5c bd ca a6 aa 3d f2 fd 19 3e 89 ec 85 3e
       -0.0538077 0.08332594 0.15038279 0.26157025
000010 ac d9 a8 3e 96 31 8b be 22 d1 a3 3d fe 8b 0f be
       0.3297857 -0.2718627 0.07998873 -0.14018247
000020 a2 a2 03 bd 6b ac 82 be dd ea 9f 3e 5e f6 83 be
       -0.03213752 -0.2552217 0.31233874 -0.257739
000030 14 2c 34 3e 7b 00 a8 3d 26 b0 bb 3d ae ab 4f be
       0.1759494 0.08203217 0.09164457 -0.20280334

features.module.1.running_var f4 [16]
000000 b3 f6 6f 3e ad 2f fb 3d 74 54 66 3e 3a 7c d1 3e
       0.23433952 0.12264953 0.22493154 0.4091509
000010 12 c8 47 3e 4f 45 04 3f 7d b4 cf 3e 26 36 e9 3e
       0.19509915 0.51668257 0.4056739 0.45549124
000020 10 24 87 3e f7 3c be 3e 58 37 8b 3e 77 9d e2 3e
       0.263947 0.37155887 0.2719066 0.4426076
000030 8d 62 bd 3e 78 77 8a 3f c6 ee 73 3e 3a 8e 12 3e
       0.3698925 1.0817709 0.23821554 0.14312068

features.module.4.weight f4 [32, 16, 3, 3]
000000 a2 cb dc 3d 12 b3 a4 3d 36 1b 03 bd bb 00 07 be
       0.107810274 0.080419675 -0.032008372 -0.13183872
000010 23 c6 e9 bc e0 0a 79 bd d5 56 ca bd 1d 50 97 3d
       -0.028536862 -0.060801387 -0.09879843 0.07388327
000020 f5 0c f6 bc 4c 5f 9b bd 9f 9b ce bc d2 e4 29 bc
       -0.030035475 -0.07586536 -0.02522069 -0.010369496
000030 3d 09 bc 3c 08 99 9a bc 33 81 8f bd 88 59 a8 bc
       0.022953624 -0.0188718 -0.07007065 -0.020550504
000040 8b 4a 32 bd db f7 8e bc ae 7a 16 3c 1b 4e df bd
       -0.04352812 -0.017452171 0.009184523 -0.10903569
000050 78 f6 6c bd 61 b5 a5 3c 13 b0 4d 3c 12 43 36 bd
       -0.05785224 0.02022809 0.012554186 -0.044497557
000060 11 96 7d bc af 8c 63 3c 91 58 21 3b e6 de 4b bd
       -0.015477673 0.013888522 0.002461944 -0.04977312
000070 af 13 48 bc ee 3d 35 3b f9 2e cf bc 4f b2 28 bd
       -0.012211724 0.0027655321 -0.025290953 -0.041185673
000080 f9 88 42 3c ef b0 08 3e 08 80 5d 3d 2e 42 1f bd
       0.011873477 0.13348745 0.05407718 -0.038881473
000090 9a 64 14 3d 9a 28 ce bb 08 4b 1f bd af 26 8f 3c
       0.036228754 -0.006291461 -0.038889915 0.0174745
0000a0 32 9a 81 bd b6 fe aa bd b9 60 e3 3c 8b 97 1c 3d
       -0.063282385 -0.083493635 0.027756082 0.03823046
0000b0 b3 60 68 bd e0 15 20 3b 28 54 02 bd ed de c1 bd
       -0.056732845 0.00244271 -0.03181854 -0.09466348
0000c0 7b 41 9a bd 2b 56 03 3c e5 fb 3c 3d e3 91 da 3c
       -0.07532021 0.0080161495 0.046138663 0.026680892
0000d0 cf 47 d1 bc 88 52 d6 bc 6a 83 55 3d 25 c6 96 3d
       -0.025546936 -0.0261624 0.05212728 0.07362012
0000e0 ee 08 3e bd e3 ad 84 bc d8 fb de 3c b1 87 f0 bc
       -0.046395235 -0.016196197 0.027219698 -0.029361578
0000f0 18 2a 52 bd 7d 69 97 3d 51 18 19 bd 05 11 a3 bc
       -0.051309675 0.07393167 -0.037376706 -0.019905576
000100 e8 2b 4f bd 58 6b 5c 3d d8 ad 21 3d 3e 4d a8 bc
       -0.05057898 0.05381331 0.03947243 -0.020544644
000110 f5 a9 ac bd 58 59 5d bc 7a 3a 85 bd a8 26 0c ba
       -0.08430854 -0.013510071 -0.06505294 -0.00053463364
000120 af f8 15 3d 30 ac b1 3d 86 c2 a8 3c 02 8f 62 bb
       0.036614116 0.0867542 0.020600569 -0.0034570103
000130 2f fc 2e 3c d3 d8 59 bd d5 72 4f bd 31 d3 42 bd
       0.010680242 -0.053185295 -0.05064662 -0.04756469
000140 0d 0b 26 3d 2b d5 c2 bd e9 17 60 bd 5f f0 ae bd
       0.040537883 -0.09513315 -0.054710303 -0.08541941
000150 39 04 53 bd 1a 49 26 bd c1 f8 84 bd 13 19 0c bd
       -0.0515177 -0.04059706 -0.064927585 -0.0342036
000160 73 30 05 bc 36 43 04 bd 1f b8 d0 bd 63 9e 56 bb
       -0.008129227 -0.03229066 -0.10191368 -0.0032748214
000170 6a 20 ae bb b8 e2 49 bd 59 1d 8b 3c ab 1f 1d bc
       -0.0053139227 -0.04928848 0.016981767 -0.00959007
000180 de 7f fb bb 04 cf 96 3c 4d 7f 46 3d 21 3b 46 3c
       -0.007675155 0.01840926 0.048461247 0.012099058
000190 70 0b 7e 3b b9 b6 8f bd 75 ed 21 3d e1 bd 4b bd
       0.0038764141 -0.070172735 0.039533097 -0.04974163
0001a0 a3 f6 45 3c 7f 0f df 3c 87 0d ff bc 2e d8 44 bc
       0.012082729 0.027229069 -0.03113438 -0.012014432
0001b0 8e 42 65 bd 1b 88 5d bd 61 6c 35 3d 9e 45 d7 bd
       -0.055971675 -0.05408488 0.04429281 -0.10511325
0001c0 c4 77 33 3d 8e 00 01 3d 2c cb ed 3c 32 12 d4 bb
       0.04381539 0.03149467 0.029027544 -0.0064718956
0001d0 3f cd 87 bd 0d 67 9c bc 1d c4 36 bb a6 97 e9 bd
       -0.066309445 -0.019092107 -0.0027887889 -0.11405878
0001e0 ee de dd bc f4 42 42 bd 21 48 ec bc fb 24 7f bd
       -0.02708384 -0.047427133 -0.028842987 -0.062291127
0001f0 0c e8 2e bd 98 c3 1c bd 54 4f 06 be c2 3f 76 3d
       -0.042701766 -0.03827247 -0.13116199 0.060119398
000200 fa 57 c2 3d fb 66 8e bc b5 6e 07 bd 01 24 22 bd
       0.094894364 -0.01738309 -0.033064563 -0.039585117
000210 af 26 2b bd 73 07 a0 bd 4e ea 24 bb 60 f9 2f bd
       -0.04178494 -0.07813921 -0.002516407 -0.042962432
000220 af 21 90 bd 74 fe 45 bd ec 12 9e bc d3 3d 16 bd
       -0.07037675 -0.04833837 -0.019296132 -0.036680054
000230 83 7b 8c bb ae 5e ed bc 26 a4 f7 bc 72 b0 82 bc
       -0.0042871847 -0.02897581 -0.03022964 -0.015953276
000240 cd 13 0d 3d 09 a3 ea bc a9 c6 0f bc 4b 3f d7 3c
       0.03444271 -0.028642194 -0.008775392 0.026275298
000250 75 00 39 bd e5 ef 06 bd 6a 49 f4 bc d5 19 fc bc
       -0.04516645 -0.032943625 -0.029820163 -0.030774036
000260 55 b3 71 bd a4 78 96 3d 2d e3 cb 3d 8c d6 00 3d
       -0.059008915 0.07347229 0.0995544 0.031454608
000270 ab f8 7e 3d fc dd 56 3d 60 bc 31 bd 07 db a5 3c
       0.062248867 0.052457795 -0.04339254 0.020246042
000280 a0 0f 4d bd 1d e5 87 bd b5 a1 11 3d 29 31 c4 3c
       -0.05006373 -0.06635497 0.035554606 0.023949223
000290 3f cc 2e bd 67 2e 38 bd eb bd 12 bd 56 87 8a bd
       -0.042675253 -0.044966128 -0.03582565 -0.067640945
0002a0 6a e7 ed 3c 67 42 0f 3d 0d c8 57 3d f4 03 29 bd
       0.02904101 0.034975436 0.052681018 -0.041263536
0002b0 be ae e1 bd af 2a d0 bd dd 3e bb bc 1f f0 a2 bd
       -0.110196576 -0.10164391 -0.022857124 -0.07955956
0002c0 3e 24 4e bc 51 2a 3a bd 62 40 97 bd 33 e1 ef bd
       -0.012581883 -0.045450512 -0.07385327 -0.11712875
0002d0 19 f7 39 3c 10 ff 8d 3c 62 dc 81 bd 8f 21 c8 3c
       0.011350417 0.017333537 -0.06340863 0.024430064
0002e0 62 a7 54 3c e3 e5 29 bd 7a bc 40 3d 0a 50 32 bc
       0.01297936 -0.041479003 0.047054745 -0.010883341
0002f0 66 19 17 be 79 60 6b 3d 36 1a 11 bb 4f 3e c3 3c
       -0.14755782 0.05746505 -0.0022140867 0.023833422
000300 59 eb a4 bb a2 d9 5b bd d6 86 3a bd 40 f3 1d bd
       -0.0050329384 -0.053674348 -0.045538746 -0.03856206
000310 aa b9 26 3d ca a4 1d 3d 1c e0 e8 bd 70 c9 57 3b
       0.040704407 0.038487233 -0.113708705 0.0032926463
000320 10 1d 5e 3c b3 31 0c be 07 b0 b5 bd 63 46 1d bd
       0.013556734 -0.13690834 -0.08871465 -0.038397204
000330 24 5b 34 bd ab d8 1f 3b b8 89 06 bd 8c e0 2f be
       -0.04403223 0.0024390619 -0.032846183 -0.17175502
000340 d9 6a 08 be 32 0a ab bd d2 2c c4 bb 3d 05 65 3d
       -0.13322009 -0.08351554 -0.0059867883 0.0559132
000350 b6 e3 1b bc 4e 46 05 be c5 88 08 be 22 31 10 be
       -0.00951474 -0.130151 -0.13333423 -0.14081243
000360 73 ba ba 3b 15 af c9 bb a4 d9 04 bc 84 0c a4 3a
       0.005698496 -0.0061549046 -0.00810853 0.0012515937
000370 98 03 84 3d b4 c6 61 3b 2f a3 3a bd dc 55 4b bd
       0.06445998 0.0034450712 -0.04556578 -0.04964243
000380 2a da 81 bd 39 76 44 3c 45 6b 5e bd b6 0e cc bc
       -0.063404396 0.011991077 -0.05430152 -0.024909358
000390 54 16 4d 3d 22 71 23 bd c9 47 8a bd 67 26 26 3c
       0.050070122 -0.039902814 -0.06751973 0.010140992
0003a0 94 42 9e bc 2e d1 ad bd 75 c1 1e 3e 05 9b 8d 3c
       -0.019318856 -0.084871635 0.15503486 0.017285833
0003b0 c7 bf ca bc 65 da bc 3d 7d e9 9a 3c 3e 25 2e bb
       -0.02474965 0.09221343 0.018910164 -0.002657249
0003c0 a2 b3 89 3d 6d ce 34 bd 0a cd 2e bd 06 db 3a bd
       0.06723715 -0.044142175 -0.04267601 -0.045619033
0003d0 60 16 42 3a fb 6d 36 bd 52 eb 99 bd 24 77 57 bc
       0.0007403847 -0.04453848 -0.07515587 -0.013150964
0003e0 53 32 e7 bc 68 d3 77 3d 49 6d f0 3c 58 7d 94 bb
       -0.028222239 0.060504347 0.029348986 -0.0045315437
0003f0 5c a2 78 3d 24 34 ab 3d 42 a1 ed 3d 8f 4c e1 3c
       0.060701713 0.083595544 0.11603023 0.027502326

features.module.4.bias f4 [32]
000000 19 bf b0 3c 5c b3 2a 3d 43 7d 9b bd 0c 3b 6d bd
       0.021575497 0.041674957 -0.07592251 -0.05791764
000010 b9 38 a3 bd 06 c8 1e 3d 00 1a 7f 3d ae 67 a3 bd
       -0.07969803 0.038764976 0.062280655 -0.0797876
000020 05 da b0 3c b9 f7 89 3c d2 88 36 bd fd fa 92 3c
       0.021588335 0.016841756 -0.044564076 0.017941946
000030 1a 24 83 3d 8e d1 a6 3d 6d 17 13 3d 90 e4 86 bc
       0.0640337 0.08145438 0.035911012 -0.016466409
000040 8b 89 41 bd 72 8c 01 bd 9e 98 32 3a 1d d6 c7 bb
       -0.04725031 -0.03162808 0.0006812903 -0.0060985223
000050 49 33 78 3d 32 b3 99 bd 45 e2 f2 3b 50 5e d8 bc
       0.060595784 -0.07504882 0.0074122273 -0.02641216
000060 9c eb e2 3b 6f 8c a3 3d 4b 36 1f 3b 97 fa 6b bc
       0.0069250595 0.0798577 0.0024293836 -0.014403007
000070 f9 93 e6 bc df b8 a9 bd 2c 16 9a bd 40 35 14 3d
       -0.02814673 -0.082872145 -0.0752376 0.036183596

features.module.5.weight f4 [32]
000000 54 82 62 3f 9e ba 80 3f 70 d5 6e 3f bf 22 78 3f
       0.88480115 1.0056951 0.9329443 0.9692802
000010 7c f6 6a 3f 12 ba 7e 3f 8c 2b 54 3f 52 d2 62 3f
       0.91782355 0.9950267 0.8287895 0.88602173
000020 da ad 5d 3f 4f 6b 6b 3f 73 c2 69 3f 1f 80 79 3f
       0.865934 0.91960615 0.9131233 0.9746112
000030 43 f2 77 3f 99 25 77 3f ce 0b 65 3f 28 9e 8e 3f
       0.9685404 0.96541744 0.8947114 1.1142015
000040 65 35 90 3f 7c ab 89 3f 2c d2 81 3f 42 64 60 3f
       1.1266295 1.0755458 1.0142264 0.8765298
000050 90 62 89 3f 69 ee 74 3f a9 5a 61 3f 4d 20 5f 3f
       1.0733204 0.95676285 0.8802896 0.8715866
000060 c9 75 69 3f 8d 5b 5f 3f f8 08 81 3f af bc 66 3f
       0.9119535 0.8724907 1.0080862 0.9013166
000070 96 7a 69 3f c9 b8 80 3f 93 31 6d 3f 68 c3 64 3f
       0.91202676 1.0056392 0.9265377 0.89360666

features.module.5.bias f4 [32]
000000 56 a2 50 be f3 51 ae be 09 3f 53 be 28 e2 8b be
       -0.20374426 -0.34046897 -0.20629515 -0.2732098
000010 23 83 b0 be 40 a3 bd be 70 20 82 be 40 f5 b4 be
       -0.3447505 -0.37038612 -0.25415373 -0.3534336
000020 3c e4 61 be 2a 22 97 be 7a 16 37 be ae 39 b3 be
       -0.22059721 -0.29518253 -0.17879668 -0.35004944
000030 ce a6 cd be 26 f7 a3 be 84 e2 3f be e4 b1 d7 be
       -0.40166324 -0.32024497 -0.18738753 -0.42127907
000040 fd 9c e7 be e5 f3 03 bf 6f 29 8e be f5 ef 59 be
       -0.4523696 -0.5154403 -0.27765986 -0.21282943
000050 4b a3 da be 7f cb 3d be 37 08 5c be 7b 34 93 be
       -0.42702708 -0.18534659 -0.21487509 -0.28750977
000060 bd 6c 83 be d9 cd 25 be df 65 8b be 6f e0 2c be
       -0.25668898 -0.16191806 -0.2722616 -0.1688249
000070 36 9f 73 be 9d a3 ac be 22 88 83 be dd 6b e9 be
       -0.23791203 -0.33718577 -0.256898 -0.45590106

features.module.5.running_mean f4 [32]
000000 bb a8 b8 be 4d 24 9c be 3f f9 e6 be 82 f6 9e be
       -0.3606623 -0.30496445 -0.45112035 -0.31047446
000010 ad 9e ad be d7 5c 0d bf 1a b0 14 bd 1c 02 62 bd
       -0.33910123 -0.5521979 -0.036300756 -0.055177793
000020 e4 4d 35 be 90 6a 10 be da b7 b6 be 22 69 8b be
       -0.17705494 -0.1410315 -0.35687143 -0.27228647
000030 8e 6d 55 be 81 df a1 be 35 90 ff be 8d be e3 be
       -0.20842573 -0.31615832 -0.4991471 -0.44481316
000040 c9 e7 94 be c3 3e c1 be 3f f7 aa be d8 93 e5 bc
       -0.29083088 -0.37743196 -0.3339176 -0.028024599
000050 16 a6 db bd c8 3c 24 be eb 07 d2 be 0d cb 67 be
       -0.10725038 -0.16038811 -0.41021666 -0.22636051
000060 8c a2 73 be ac 45 ae be 8b 61 35 be 20 36 8d be
       -0.23792475 -0.3403753 -0.17712991 -0.27580357
000070 7e e0 10 be 9d ce 1a bf f2 40 5e be be 9c 13 bd
       -0.14148137 -0.60471517 -0.21704462 -0.036038153

features.module.5.running_var f4 [32]
000000 28 80 2f 3e 8d be e5 3e be 96 cf 3e b5 1e a2 3e
       0.17138731 0.4487194 0.40544695 0.31664053
000010 53 b0 b5 3e 74 51 f6 3e 21 21 82 3e 1e 47 90 3e
       0.35486087 0.4810902 0.254159 0.28179258
000020 80 2e 4b 3e b2 3c 54 3e 05 33 80 3e 8c 35 cd 3e
       0.19841957 0.20726278 0.25038925 0.40079916
000030 58 f6 c2 3e 0d 9f 81 3e b3 cc 95 3e 65 51 07 3f
       0.3807857 0.2531666 0.29257736 0.52858573
000040 6f 99 cd 3e 45 e0 ed 3e 22 f2 cb 3e 64 f5 25 3e
       0.40156123 0.46460167 0.3983317 0.1620689
000050 1c f8 92 3e cb 46 8b 3e 75 9f 99 3e d3 e9 8e 3e
       0.28704917 0.27202448 0.3000447 0.2791277
000060 1c d7 92 3e 38 8e 80 3e 0a f2 ce 3e 5a 91 8d 3e
       0.2867974 0.25108504 0.40419036 0.27649957
000070 60 0c 8e 3e ac 49 8f 3e 70 cb 71 3e 7c a3 a9 3e
       0.27743816 0.27985895 0.23612761 0.3313254

features.module.8.weight f4 [64, 32, 3, 3]
000000 d2 5d 28 bd d3 ef 6b 3c 04 a1 b1 bc 45 43 2c 3c
       -0.0411051 0.01440044 -0.021683224 0.010514085
000010 ea 96 dc 3c 44 db eb 3a 4f 22 14 3c 84 78 16 3d
       0.02692743 0.0017994423 0.009041383 0.036736026
000020 84 f0 96 bc 2d 9d c2 3c ef aa e6 bc 2e fd 59 3d
       -0.018425234 0.023756588 -0.02815768 0.053219967
000030 f0 5e 70 bc 67 8f 12 3c 11 48 0a 3d 3f 0d 56 3a
       -0.014671072 0.008945323 0.033760134 0.0008165426
000040 02 d6 19 3d aa 98 44 bc 6f 8f d4 bc 28 3e 0d 3d
       0.03755761 -0.011999289 -0.0259473 0.034483105
000050 85 bf 0b bd 82 c9 ef 3c c0 7e 19 3d e3 a2 d0 3c
       -0.034118194 0.029270891 0.037474394 0.025468295
000060 56 22 dc bc f3 a6 ce bb e3 ab 41 bd a4 72 0b bd
       -0.026871841 -0.006306523 -0.047283065 -0.034044877
000070 af 76 d3 bc 80 25 33 bd 82 19 45 3c d9 0c cd 39
       -0.025813429 -0.043736935 0.012030007 0.0003911022
000080 8e 6a e0 bc 56 71 be bc d5 3e ce 3c c2 cf 96 bc
       -0.02739456 -0.023247402 0.025176445 -0.018409614
000090 83 55 3c 3d fe 71 21 3d dd c2 37 bc 21 67 47 bd
       0.045979988 0.039415352 -0.011215893 -0.048682336
0000a0 27 db 20 3d 78 35 63 bc 1a 3b 41 3d f8 c2 13 bd
       0.0392715 -0.013867728 0.047175504 -0.03607461
0000b0 30 0d af 3c 06 f7 92 3b a0 b0 92 bc 3a e4 6e 3c
       0.021368593 0.004485014 -0.017906487 0.014580781
0000c0 68 c6 3a bd 55 fe b1 bc 83 85 d0 bc 53 2a 6d 3c
       -0.04559937 -0.02172772 -0.025454288 0.014475423
0000d0 e5 25 b0 3b c7 0c 35 3b 7a 10 00 3d 03 d1 15 3d
       0.005375611 0.0027626024 0.031265713 0.036576282
0000e0 85 c0 a3 bc 19 c7 3b bc 77 05 36 bc 98 b5 77 3c
       -0.019989261 -0.011461043 -0.011109701 0.015118979
0000f0 71 95 ae bb 31 37 9e 3c 31 e1 8b 3c a1 46 4a bc
       -0.0053278734 0.019313427 0.017075153 -0.012345941
000100 8c df ab 3c 92 a4 5f bb c8 04 f8 3b eb 31 5f bc
       0.020980619 -0.003412519 0.0075689293 -0.013622741
000110 e9 8f da bc f5 a9 3f 3a 6b d4 3f bb ca c3 04 3d
       -0.02667995 0.00073113973 -0.0029270898 0.03241328
000120 21 23 c0 3c d1 48 b2 ba 01 f6 19 bd 28 70 58 bd
       0.02345425 -0.0013602023 -0.037588123 -0.052841336
000130 e2 51 dd 3b 3a 01 2e 3d 77 16 2d bc bc 2b 99 bc
       0.006754146 0.04248164 -0.010564438 -0.018697612
000140 52 08 d2 3c e0 5d e9 bc 09 b5 22 3c dd 5e eb bc
       0.025638733 -0.028487146 0.009930857 -0.028731758
000150 5d 13 33 bd 91 90 b0 bc 5a de 68 bc fb c9 0f bc
       -0.04371964 -0.02155331 -0.014213169 -0.008776183
000160 21 26 f9 3a d1 cd ed bc 05 39 e3 bc 27 c5 e0 3b
       0.0019008556 -0.029028805 -0.02773715 0.00685944
000170 aa 25 e6 bb 0a 88 a6 bc 8e f2 cc 3b d3 40 da bc
       -0.007023533 -0.02032854 0.0062545007 -0.026642239
000180 24 09 66 3c c0 bd 86 3c 93 3c 91 bb e6 73 40 bd
       0.014040265 0.016447902 -0.00443227 -0.04698553
000190 a1 f4 09 bd ec fb 01 bd d1 f5 17 bd 7f ca 0d 3c
       -0.033680562 -0.031734392 -0.037099663 0.008654236
0001a0 41 b5 ad 3c e2 80 aa bc 38 af c4 3c da 54 a6 bc
       0.021204593 -0.02081341 0.024009332 -0.020304132
0001b0 23 04 92 bc ab 5e 00 bd 19 68 86 3b 80 4e d1 3c
       -0.017824238 -0.031340282 0.004101765 0.025550127
0001c0 04 74 f3 3c 5d 69 66 3b 6d b2 9a bc 25 56 3f bc
       0.029718406 0.0035158016 -0.018883908 -0.011678253
0001d0 9c 0e 8a bc 5e e3 fb bc 53 9c 2f 3d d6 99 84 bc
       -0.01685267 -0.030748066 0.04287369 -0.016186636
0001e0 30 0a 2f 3b f2 9c ee bc 42 56 43 bb 55 79 16 3d
       0.0026708953 -0.029127572 -0.0029806052 0.036736805
0001f0 18 39 45 3c 6a 44 13 bb 22 50 b5 bb 9c 92 1b 3c
       0.012037538 -0.0022471198 -0.005533234 0.009495404
000200 a4 f8 e2 3b 01 f9 67 bd 71 b5 7a bc 2d ce 86 bd
       0.006926613 -0.056633953 -0.015302048 -0.06582294
000210 87 3a 76 bd 58 78 4f 3c 36 da 90 bd 38 33 80 bb
       -0.06011441 0.0126629695 -0.070728704 -0.0039123558
000220 e8 3a 5e 3c 1e 61 b7 3b 7a 72 cf bc f4 c8 e6 bc
       0.013563849 0.005596294 -0.025323141 -0.028171994
000230 20 15 16 bd 3b 93 c2 3c d9 3e e3 3a 15 f6 9c bc
       -0.03664124 0.023751846 0.0017337456 -0.01916031
000240 4c 39 05 3e 2a f8 94 3d 96 a2 05 3e 2d 1b c3 3d
       0.13010138 0.07273896 0.13050303 0.09526668
000250 43 33 b2 3d 82 a2 99 3d 68 8e d9 3d b6 50 be 3d
       0.08701184 0.07501699 0.10622865 0.09292738
000260 1a 35 aa 3d 53 5f c3 3c 8e e1 06 bd dc 54 fc 3b
       0.083109096 0.023849165 -0.03292995 0.0077005457
000270 ed 2e b6 3c 28 2c 74 3a c4 29 94 bc aa ff 05 bd
       0.022239173 0.0009314441 -0.018086322 -0.032714523
000280 a8 31 0b bc ae 82 04 bc 11 17 95 3a 70 05 a5 3b
       -0.008495726 -0.008087797 0.0011374672 0.0050360486
000290 da a1 21 3c 7c ed 2a bc b3 b7 e2 bc cb 26 cf 3c
       0.009865249 -0.010432597 -0.027675485 0.025287053
0002a0 1f 55 3e 3a 5f 13 48 bb 48 d6 5f bc ab 07 74 3d
       0.0007260609 -0.0030529124 -0.0136619285 0.059577625
0002b0 93 20 00 3d 4a e9 b2 bc c4 b0 35 bd 40 9e 28 3d
       0.031281065 -0.021839757 -0.04435803 0.041166544
0002c0 8a 13 b0 3c cc 57 b4 bb 06 f4 33 bd 9e 89 dd 3c
       0.021493692 -0.0055036303 -0.04393389 0.02704316
0002d0 98 6a 6b 3d 87 be da 3d 77 d2 75 3d 72 d6 19 3d
       0.057474703 0.106808715 0.060015168 0.037558027
0002e0 70 4e d0 3c 72 51 f6 3d 15 06 e7 3d 4b 41 00 3d
       0.025428027 0.12027253 0.11280457 0.03131227
0002f0 81 dd ee 3d d6 1d 14 3c 04 e4 dd bc db 0a 2d 3d
       0.11663342 0.009040317 -0.027086265 0.04224668
000300 1b c5 2c 3d 16 48 e3 3c f0 4d 1d 3c 5a a7 5a 3d
       0.042180162 0.027744334 0.009601101 0.053382255
000310 54 16 42 bd 16 e7 6c 3c 97 65 9c bc ee 72 fa ba
       -0.047384575 0.014459392 -0.01909141 -0.0019107738
000320 f5 5a 11 3d dd 2a 25 bd 46 73 9d 3c 57 6c 0b bc
       0.035487134 -0.04032408 0.019220006 -0.008509717
000330 c5 7a c7 3c 8f 04 3c bc a0 16 a9 3c 4c 34 6c 3c
       0.024350533 -0.011475696 0.020640671 0.014416765
000340 5c 9c 42 bc ad c8 93 bc 45 37 01 3d 6d 0b 96 bc
       -0.011878099 -0.018040026 0.03154685 -0.018315995
000350 69 5f a2 3c 95 fa ac 3c 09 f6 26 ba b9 be 0c 3d
       0.019820886 0.02111558 -0.00063690596 0.034361575
000360 e2 f4 14 3d f6 e3 2c bc b4 df 89 bb 5d 98 12 3c
       0.03636635 -0.010552397 -0.0042075757 0.008947459
000370 cb 6c 2d 3d ed 2f e4 3c 6b 5c b8 bc be 87 8e 3b
       0.04234008 0.027854884 -0.022505006 0.004349678
000380 7f 05 06 3d 4b 22 d3 3c 6b 81 b3 3b 7b 7f 37 ba
       0.032720085 0.025773188 0.0054780743 -0.0006999892
000390 01 8d 81 bc 91 b3 ac bb e9 95 1a bd c9 79 a0 3c
       -0.015814306 -0.0052704294 -0.03774062 0.019589322
0003a0 3d 69 c2 3c b0 55 e6 bc e0 fd 16 3d 66 a8 c0 3d
       0.023731822 -0.02811703 0.036863208 0.094071195
0003b0 04 b8 05 3d b7 0e b9 3d 38 0f 89 3c fe 32 37 3d
       0.032646194 0.0903601 0.01673089 0.044726364
0003c0 4b 42 26 3d a5 b0 ad 3d 8f ae 6c 3d 3e a8 0b 3d
       0.040590566 0.08480958 0.05778366 0.034095995
0003d0 c0 b7 48 bb 12 4f d0 3c 11 32 87 3c 92 5d 41 3c
       -0.0030627102 0.025428329 0.016503366 0.011802094
0003e0 8f 3b a1 3c 73 51 31 bd 57 22 32 bd 90 04 4f bc
       0.01968172 -0.043290567 -0.04348978 -0.012635365
0003f0 ea 0f b6 3d 90 87 d8 3c 63 3b 70 3c bc eb 15 3c
       0.08889754 0.026431829 0.014662596 0.009150442

features.module.8.bias f4 [64]
000000 b3 99 dc bc 03 1e 31 3c 2a 7d 3a 3c e6 d8 6c 3d
       -0.026928758 0.010810378 0.0113823805 0.057824038
000010 3b 0e 5c 3d 89 a0 46 bd d7 04 ef 3c 72 d3 40 bd
       0.05372451 -0.048492942 0.029177113 -0.04707665
000020 98 3c eb bc 95 db bd 3c 4c 93 24 bd c4 4c 4e 3d
       -0.028715417 0.023175994 -0.040179536 0.05036618
000030 f1 2c b6 3c 30 92 a4 3b 23 c5 06 3d c8 f4 4c bd
       0.022238227 0.0050223097 0.032902848 -0.05003813
000040 d1 c5 1e 3c 83 4e b3 3c 2b 52 dd bc cf 95 95 bc
       0.009690718 0.021888023 -0.02701672 -0.01825991
000050 f4 2f c3 3c d0 cd 4b 3d 75 a7 bb bc c0 44 11 3d
       0.023826577 0.049756825 -0.022906998 0.035465956
000060 0b e0 06 3d b8 cd 0c bd b6 3d 3f bd 84 c6 e2 bb
       0.032928508 -0.034375876 -0.04668971 -0.0069206376
000070 89 4c 15 3d fe 95 48 bd ae 2d 27 bd 81 52 2f 3d
       0.036449943 -0.04897117 -0.040815048 0.04280329
000080 ca f9 09 bd ef c8 2b bd f8 07 24 bb a5 6f 6b 3d
       -0.033685483 -0.041939672 -0.0025029164 0.05747952
000090 dc b1 1e 3d 3b 41 f8 3c 90 3e f6 3b c0 14 f1 bc
       0.03874384 0.030304542 0.0075147822 -0.02942884
0000a0 13 74 3b bd 30 a4 ff 3c 83 9e 8e 3c 77 71 7a 3c
       -0.045764994 0.03120622 0.017409569 0.015285841
0000b0 8b d6 b1 bc 7d bd 6a bd 79 a2 03 3c 91 b9 25 bc
       -0.021708747 -0.057309616 0.008034342 -0.010115043
0000c0 93 9e 91 bb 44 b6 b6 3b a1 a2 0c bd 4d dd 15 bd
       -0.0044439523 0.005575927 -0.034334783 -0.036588002
0000d0 57 91 8b bc 3f bf ba 3c 8f a1 16 bd c9 3e 60 3d
       -0.017037077 0.022796271 -0.036775168 0.054747377
0000e0 f3 c4 6c bd 6a 53 15 bd 5d ea 89 3c 41 07 6a bd
       -0.057805013 -0.036456503 0.016835386 -0.057135824
0000f0 62 90 05 bd f2 4d f8 3c 31 0e 23 bd e2 1b 9a 3c
       -0.032608397 0.030310605 -0.039808456 0.018812124

features.module.9.weight f4 [64]
000000 3d c6 c0 3f ed 84 2b 40 a1 d7 06 40 eb 1c c9 3f
       1.5060498 2.6799881 2.106911 1.571195
000010 11 13 17 40 1f 71 d5 3f 18 db da 3f bc 0b 03 40
       2.3605387 1.6675147 1.7098112 2.0475912
000020 17 26 c6 3f 09 65 d8 3f f3 ba f0 3f 54 13 d9 3f
       1.5480374 1.6905833 1.8807052 1.6959023
000030 f3 cf f4 3f da 88 d4 3f 6c 38 39 40 bb 66 cc 3f
       1.9125961 1.6604264 2.8940687 1.5968851
000040 ef e6 c8 3f 31 f4 13 40 74 f7 d0 3f e0 38 b1 3f
       1.5695475 2.3117793 1.6325517 1.3845482
000050 e3 45 e9 3f b8 30 b6 3f 4d 1c c2 3f fd ec e3 3f
       1.8224453 1.4233618 1.5164887 1.7806698
000060 1d d4 da 3f 00 3e d8 3f 68 29 bd 3f 9e 38 d3 3f
       1.7095982 1.6893921 1.4778261 1.6501653
000070 41 3d 18 40 8e 3d f5 3f 78 93 25 40 d3 fa e9 3f
       2.3787386 1.915941 2.5871258 1.827967
000080 35 4e c9 3f 91 19 0a 40 80 eb f5 3f c0 67 03 40
       1.5726992 2.1578104 1.9212494 2.0532074
000090 79 5d cb 3f 8d f7 10 40 26 01 00 40 bc 91 0b 40
       1.58879 2.2651093 2.00007 2.18077
0000a0 ed b5 b6 3f 28 1f f7 3f ca 62 ec 3f e0 77 06 40
       1.4274269 1.9306383 1.8467648 2.1010666
0000b0 69 e6 dc 3f c3 ec c8 3f 5a d6 c7 3f 87 28 de 3f
       1.7257816 1.5697254 1.561229 1.7356118
0000c0 c8 d4 08 40 bb 6a fc 3f de 8c 03 40 57 9e c2 3f
       2.1379871 1.9720072 2.0554729 1.5204571
0000d0 a0 4a be 3f 90 96 cf 3f 98 dd cf 3f 4a 6c b2 3f
       1.4866524 1.6217823 1.62395 1.3939297
0000e0 4b 9e d7 3f 51 1a 0d 40 2b 3a e6 3f 64 f1 e5 3f
       1.6845182 2.2047312 1.7986501 1.7964292
0000f0 1c 9b cc 3f a3 2e e1 3f 94 18 d3 3f f2 45 ee 3f
       1.5984836 1.7592357 1.6491876 1.8615096

features.module.9.bias f4 [64]
000000 53 08 69 3e 2e 2d 0a 3f b0 d9 e2 3e e0 36 10 3f
       0.22757082 0.5397519 0.44306707 0.5633373
000010 6f 4d 16 3f a5 12 af 3e 62 86 8a 3e 2c 21 8a 3e
       0.58711904 0.34193912 0.2705565 0.26978433
000020 5a 31 8f 3e 6b 86 c4 3e 2b 53 56 3f 3b eb 87 3e
       0.2796734 0.38383803 0.83720654 0.26546654
000030 d6 50 10 3f 8d c9 97 3e f0 c3 28 3f 8d 53 99 3e
       0.56373346 0.2964596 0.65923977 0.29946557
000040 b5 7a 90 3e 8a 58 e0 3e f0 4e 88 3e cd 4a de 3e
       0.28218618 0.4381755 0.26622725 0.43416443
000050 8c fd 58 3f cd 23 29 3e da b2 6f 3e 79 fb 2f 3f
       0.8476188 0.16517563 0.2340807 0.6874309
000060 06 25 9e 3e ad 8a 39 3f 6b b3 84 3e 62 2d be 3e
       0.30887622 0.7247723 0.25918135 0.37144
000070 88 49 e4 3e b2 e7 5e 3f b3 9e f5 3e ed af a5 3e
       0.4458735 0.8707229 0.4797264 0.32360783
000080 6e 80 96 3e 59 13 1e 3f f5 92 0d 3f 50 1d 07 3f
       0.2939486 0.6174827 0.55302364 0.527791
000090 17 c5 91 3e dc 83 18 3f 0b 1e e0 3e f5 fb 06 3f
       0.2847068 0.595762 0.4377292 0.52728206
0000a0 73 02 28 3e e6 35 61 3f 1f 57 aa 3e 6c 91 e1 3e
       0.16407184 0.8797287 0.33269593 0.4405626
0000b0 b2 31 bb 3e ad d3 8c 3e 6d db 87 3e d8 87 36 3f
       0.36561352 0.27505246 0.26534596 0.7130103
0000c0 c0 75 11 3f 94 01 d3 3e f3 b6 08 3f b1 6f 89 3e
       0.568203 0.41212142 0.5340416 0.26843026
0000d0 f3 f6 76 3e 50 e4 aa 3e 81 34 a7 3e 26 6a 1a 3e
       0.24117641 0.33377314 0.32657245 0.15079555
0000e0 64 f3 a8 3e 7d d8 cc 3e 09 0f b7 3e d7 c0 b4 3e
       0.32998192 0.40008917 0.35753658 0.35303375
0000f0 25 49 8c 3e 51 71 9f 3e 81 c0 9e 3e 40 b4 bc 3e
       0.27399555 0.3114114 0.31006244 0.3685627

features.module.9.running_mean f4 [64]
000000 16 1a 6a 3e d4 a8 13 3e 18 96 35 3d ab f2 96 3e
       0.22861513 0.14419872 0.044332594 0.29482016
000010 5a 3b 8c bd 09 3c 24 3e 1c 16 4e 3e db 14 19 3e
       -0.06847258 0.16038527 0.20125622 0.14949362
000020 23 02 0e 3e fe 9c eb 3d 0b bb 56 3e c4 70 49 3e
       0.13868003 0.11504553 0.20969789 0.19671923
000030 aa 63 07 be 82 5b 11 3e b1 c6 08 bd ce 99 0a 3e
       -0.13221613 0.14195064 -0.033392612 0.13535234
000040 4a f7 34 3e 97 f5 e4 bd 46 d0 00 3d d0 49 71 3d
       0.17672458 -0.11179655 0.031448625 0.058908284
000050 cc 97 38 3e 27 f7 46 3e 24 55 4c 3e 60 dd 13 3e
       0.18026656 0.19430219 0.19954354 0.14439917
000060 55 42 d1 3d f5 e7 ec 3d 7d 95 fb 3d 3a bc 04 be
       0.1021773 0.1156768 0.12284372 -0.12962428
000070 94 50 b2 3e 53 72 19 3e ae 79 e8 3d 74 41 ba 3e
       0.348271 0.14985017 0.113513336 0.36378062
000080 1b 13 0e 3e 83 23 8f bd b6 31 ea bd ad 22 d9 bd
       0.13874476 -0.06989195 -0.11435263 -0.10602317
000090 f9 2c 9a 3e 94 f2 10 3d 97 7d 73 3e e4 a6 5b 3b
       0.30112436 0.03538759 0.23778377 0.0033516223
0000a0 2e 09 22 3e 20 05 88 3e fa 7c 67 3e ad 29 8c 3e
       0.15823814 0.2656641 0.22606269 0.27375546
0000b0 03 87 52 3d 12 e4 e9 3d 70 e8 30 3e 6d 7d 33 3e
       0.05139829 0.11420454 0.17276168 0.17528315
0000c0 dc d7 3f be 14 f0 49 3e f6 7d 67 be 20 a9 03 3e
       -0.18734688 0.19720489 -0.22606644 0.12857485
0000d0 b9 64 2d 3e f3 c2 45 3e 3a ff 7f bc b4 e1 88 3e
       0.16932954 0.19312648 -0.015624816 0.26734698
0000e0 0e 69 9f 3d 41 e4 09 3e 59 e4 d3 3d 16 5f 84 3e
       0.077837095 0.13465978 0.10346288 0.25853795
0000f0 c1 b1 03 3e b8 ec 4c 3e 68 b5 07 3e 26 8f 56 3e
       0.12860776 0.20012176 0.13252795 0.20953044

features.module.9.running_var f4 [64]
000000 b7 e9 c4 3d 60 97 17 3e 6e a9 cb 3d 7a 21 00 3e
       0.0961489 0.14803839 0.099444255 0.1251277
000010 4a 75 e9 3d 80 1e b9 3d 80 9e b4 3d d7 b7 03 3e
       0.11399324 0.090390205 0.08819294 0.12863098
000020 e5 1d d7 3d f3 24 f9 3d 99 52 05 3e 82 fc de 3d
       0.10503749 0.12165251 0.1301979 0.10888006
000030 38 de b3 3d ef 30 b3 3d bd 36 e4 3d 64 6b c0 3d
       0.08782619 0.08749568 0.11143253 0.09395483
000040 a1 6d ec 3d 1e 88 d8 3d f1 7e cf 3d 7e 2b a3 3d
       0.115443476 0.10572837 0.10131634 0.0796728
000050 ff b8 df 3d e2 d4 b7 3d bd 95 b7 3d 2d 3a 97 3d
       0.10923957 0.08976151 0.08964107 0.07384143
000060 09 4a d8 3d 12 3b ce 3d 9d 40 c2 3d 79 8e 97 3d
       0.10560996 0.100698605 0.0948498 0.074002214
000070 92 fc 24 3e f1 94 dc 3d 83 ec 2a 3e 81 bd 06 3e
       0.16111973 0.10770596 0.16691785 0.13158228
000080 27 fd c4 3d 0c b8 c6 3d 5e d0 b7 3d 60 dd d6 3d
       0.096185975 0.09703073 0.0897529 0.10491443
000090 47 bf d2 3d 1d e5 bc 3d 49 ab d8 3d 36 43 b8 3d
       0.102903895 0.092233874 0.10579545 0.089971945
0000a0 43 30 ce 3d f6 5c e0 3d 71 a7 d5 3d 33 23 05 3e
       0.10067799 0.10955231 0.104323275 0.13001709
0000b0 0e 85 eb 3d 44 2a ac 3d 85 93 d8 3d de 04 ee 3d
       0.114999875 0.08406499 0.10575012 0.11622022
0000c0 82 2f dd 3d 68 d4 d0 3d a5 75 d8 3d f4 78 cd 3d
       0.10800077 0.10196763 0.10569314 0.100328356
0000d0 f7 9e a3 3d 58 28 cf 3d 72 1b e4 3d 7e c7 bc 3d
       0.079893045 0.10115117 0.11138047 0.092177376
0000e0 24 ff cd 3d 55 d6 e8 3d 3d 56 de 3d dd 3b f7 3d
       0.1005843 0.113690056 0.108562924 0.12071965
0000f0 4c 20 8c 3d 0f 56 ae 3d a8 39 9c 3d c3 39 cb 3d
       0.06842098 0.08512508 0.076281846 0.099231265

top_layer.weight f4 [10, 64]
000000 08 e8 3b bd 44 07 1d 3f d7 78 0a be ef 45 da bd
       -0.04587558 0.6133921 -0.13522659 -0.1065787
000010 f6 40 08 be 75 ec ed bd ad b4 ac 3d c3 91 e8 3e
       -0.1330603 -0.11617366 0.08432899 0.45423707
000020 fc fc 81 bd b7 1f 59 bd 20 10 06 be 00 74 d1 3d
       -0.06347081 -0.05300876 -0.13092089 0.10227203
000030 e3 8f f1 bd 62 c8 9c bd eb dd f8 3e 7b 46 6b bd
       -0.11795022 -0.076554075 0.4860681 -0.057440262
000040 0e bf d9 bc 72 bb e0 bd 9a c2 37 bd ab 58 c4 bd
       -0.02658036 -0.10973252 -0.04486332 -0.095872246
000050 5e 97 1e be 0f e8 38 bd 69 2b c2 bd e1 f6 1a be
       -0.1548743 -0.045143183 -0.09480936 -0.1513324
000060 ce a2 73 bd a9 07 fb bd 96 b6 03 be 62 69 e9 bd
       -0.059481435 -0.122573204 -0.1286262 -0.11397053
000070 30 09 02 3f 9c 87 07 be f7 33 11 3f 28 b3 98 3e
       0.5079527 -0.13235325 0.5671992 0.29824185
000080 2d c4 c4 bd 09 39 23 be 1c f3 3c be ca c3 06 be
       -0.0960773 -0.15939726 -0.18452114 -0.13160625
000090 28 dc be bd 6a d1 47 be 47 21 99 bd 3a 4f 18 be
       -0.09319335 -0.19513479 -0.0747705 -0.14873973
0000a0 6d 40 10 bd 69 1e 14 be 1e 2d 63 3e ad 14 15 3e
       -0.03521769 -0.14464726 0.2218518 0.14558668
0000b0 27 ff 2f bd 02 1a cc bd 1b 84 13 bd 75 8c e9 bd
       -0.04296794 -0.09965898 -0.036014657 -0.11403743
0000c0 79 c7 17 be ed ea 05 be 53 3e 2e be 86 3c 04 be
       -0.14822187 -0.13077898 -0.17015962 -0.12913713
0000d0 26 37 90 bd d0 66 e5 bd 5d 6d b5 bc 29 7c 74 bd
       -0.07041769 -0.112012506 -0.022146875 -0.05968872
0000e0 e6 02 a9 bd 56 b1 a9 3e 13 7e 04 bd d4 13 e0 3c
       -0.08252506 0.3314311 -0.032346796 0.027353205
0000f0 14 83 cc bd 41 98 d8 bd 66 3f b3 bd 45 ad 4b bd
       -0.09985939 -0.10575915 -0.08752327 -0.04972579
000100 51 50 0e be 96 7a a6 bc 27 77 b3 3d 1f e3 32 3e
       -0.13897826 -0.020322125 0.08762961 0.17469452
000110 30 79 8e 3e 23 17 8b be 36 97 61 be bb 3c e0 bd
       0.27826834 -0.2716609 -0.22030339 -0.109490834
000120 91 1e 02 be 2f 3a 97 be 2c 93 87 3e 30 0d 71 be
       -0.12706973 -0.29536578 0.2647947 -0.23540187
000130 69 a0 9c 3e 12 ad 57 be e0 38 61 3e c3 db 6a be
       0.30591133 -0.21062115 0.21994352 -0.22935395
000140 94 01 71 be 3e 37 38 3e 05 1c 4b be be 9c 2a 3e
       -0.23535758 0.17989823 -0.19834907 0.16661355
000150 66 95 94 3e 04 fd 11 be 01 74 70 be b0 8d 33 3e
       0.29020232 -0.14256674 -0.23481752 0.17534518
000160 89 6f 21 be bc 46 78 3e 17 b6 78 be 0f 00 3e 3e
       -0.15765204 0.24245733 -0.24288212 0.1855471
000170 9e 4b 0e be fa 1c 69 3e e9 05 09 3d 00 f2 49 be
       -0.13896033 0.2276496 0.033452902 -0.19721222
000180 b3 e3 81 be fb 52 50 3e d8 10 3b 3e ec 1c 80 3e
       -0.25369033 0.20344155 0.18268144 0.25022066
000190 36 81 84 be eb 7e ea 3d 25 b6 af be e0 40 ee 3c
       -0.2587983 0.11449989 -0.34318653 0.02908367
0001a0 33 13 36 be 55 51 62 3e c1 6d 6d be ec 00 8a be
       -0.17780761 0.22101338 -0.23186399 -0.26953828
0001b0 9a 03 83 be 8c 52 70 be b6 9a 52 be d5 50 5c 3e
       -0.25588685 -0.23468989 -0.2056683 0.2151521
0001c0 07 83 83 3e a4 83 aa be 23 ba 6f 3e dd 97 82 be
       0.25685903 -0.3330356 0.2341085 -0.25506487
0001d0 ac 93 5f be cc 42 85 be ee f3 6f be b7 b4 0c be
       -0.21833676 -0.26027524 -0.23432896 -0.13740812
0001e0 5e 8c 7b be 84 09 64 be 44 02 65 be 67 b2 8a be
       -0.24565265 -0.22269255 -0.22364146 -0.27089235
0001f0 33 b3 76 be db 3e 92 be 1d f3 7e be 38 8b 94 be
       -0.24091797 -0.2856358 -0.24897428 -0.29012465
000200 7c a7 a5 bc 82 09 c1 be 13 65 b9 3e 18 29 1b 3e
       -0.020221464 -0.37702566 0.36209926 0.15152395
000210 e3 f7 30 be 46 ec 03 be 23 2f 0a be 23 25 25 be
       -0.17282061 -0.128831 -0.13494544 -0.16127448
000220 d7 65 a5 bc 43 0f 3c be f5 dc 79 3e dd 45 97 bd
       -0.020190163 -0.18365197 0.24400695 -0.07386372
000230 5a 80 ba bd b1 8d 87 bd ff a0 06 bf 1d b7 bf bd
       -0.09106512 -0.06618822 -0.5258941 -0.09361098
000240 ac 18 b5 bd 1c 9e 8e be ea 30 ad bd 82 05 bb 3c
       -0.088425964 -0.27855003 -0.08456595 0.022829775
000250 7f af 83 3e 4b 26 ad bc a0 ba 92 bc 5c 9d bd 3e
       0.2571983 -0.021136424 -0.017911255 0.37034118
000260 21 62 95 bc 67 08 80 3e b5 98 8a bd 97 8e 38 3e
       -0.018235268 0.2500641 -0.06767408 0.18023144
000270 42 e0 fc bd 34 f0 89 3e b8 d9 3b be de 86 ef bd
       -0.12347461 0.26941073 -0.18344772 -0.11695646
000280 51 02 0b be 3a 7d a5 3e 09 ad 60 3e 2e 3c 35 be
       -0.13575102 0.32322103 0.21941008 -0.17698738
000290 27 f7 18 be 36 10 bb 3e 2f e3 8c bd e7 ca 05 3f
       -0.14938031 0.36535805 -0.06879269 0.5226273
0002a0 74 90 ed bc a2 b9 9f 3e 49 85 12 be 97 f7 85 bd
       -0.028999545 0.31196314 -0.14308657 -0.06541365
0002b0 ef 9d 0a be 15 e3 61 bd 44 15 cb bd f6 75 56 3e
       -0.1353681 -0.055148203 -0.099161655 0.20943436
0002c0 d1 1d d6 bd 4e 14 9d bd 63 cf aa bd 25 43 32 bc
       -0.10454906 -0.076698884 -0.08340337 -0.010880266
0002d0 68 71 13 bb 1c 72 b4 bd ce ec e3 bd c6 54 66 3b
       -0.0022498015 -0.08810827 -0.11129151 0.0035145744
0002e0 33 d2 1f be b6 6f 52 be c3 b6 ee bd 92 2a 87 bd
       -0.15607528 -0.20550427 -0.11655953 -0.065999165
0002f0 46 90 86 bd fd 1b 14 be fd cf 06 be d2 ac 10 be
       -0.06570487 -0.14463802 -0.13165279 -0.14128426
000300 6a 3b 94 bd 55 cc d2 3d 38 4c a5 bd 63 cb 84 bd
       -0.07237895 0.102928795 -0.08071178 -0.064841054
000310 1d de 17 be 62 4c 2b 3d 94 7b 88 3e aa a7 a6 3d
       -0.14830823 0.04182089 0.26656783 0.08137448
000320 05 9b cc bd 4e 12 5e bb 88 e3 8d bd 31 48 86 3e
       -0.09990505 -0.0033885422 -0.06928164 0.26226953
000330 b2 4d 0e be 1c 64 fd bc 2c 08 e8 bd 3e 9c 52 bc
       -0.13896826 -0.030931525 -0.11329684 -0.012854634
000340 32 69 19 bd 07 da 05 be d8 0a e0 bd 58 b3 c4 bc
       -0.037453838 -0.13071452 -0.10939568 -0.024011299
000350 cc 96 ca bd a4 c1 cd bd ce d8 35 3e b6 33 d0 bd
       -0.098920435 -0.100467 0.17758486 -0.10166113
000360 b0 5f 00 be 6c bd b7 bd 95 4e a3 3d cd 2e 0c be
       -0.12536502 -0.08971676 0.07973973 -0.13689728
000370 4e 07 09 3e 5d 86 77 bd 9d f1 95 3d 5b 79 13 3e
       0.13381693 -0.060430873 0.07321475 0.14401762
000380 3e 7b a8 3d ea db 0e be a0 b7 00 be 24 7e 08 be
       0.082266316 -0.13951078 -0.12570047 -0.13329369
000390 f9 44 4b 3e dd 9c 8f bd 3f 4b b1 3e 85 1e ce bb
       0.1985053 -0.07012341 0.3462772 -0.0062902593
0003a0 36 16 54 bd c9 95 77 bd f7 eb 54 3e 17 22 a1 3e
       -0.051778995 -0.06044558 0.20793138 0.3147132
0003b0 07 1e a2 bd 19 38 7f 3d 13 23 58 bd 0d ae 95 bd
       -0.079158835 0.06230936 -0.052767824 -0.07308588
0003c0 f1 21 1f be 18 72 a5 3e 92 b0 fe bd b4 98 98 3d
       -0.15540291 0.3231361 -0.12436022 0.07451001
0003d0 c3 ed 43 3c 70 44 73 3c 8d bf 98 bd 70 2c b3 bd
       0.011958542 0.01484786 -0.074584104 -0.0874871
0003e0 74 36 fe bb 0a 3b 89 3e 63 27 e5 bd 82 90 78 3e
       -0.007757956 0.26802856 -0.11189153 0.24273875
0003f0 1d 40 a5 3d cd f3 92 3e 28 ce 9c 3d 18 ae 96 3e
       0.08068869 0.2870163 0.07656509 0.29429698

top_layer.bias f4 [10]
000000 3d a5 c4 bd 3a 1e ab 3d 62 21 4e 3d 7d e0 d7 bc
       -0.09601829 0.08355375 0.050324805 -0.026352162
000010 e3 44 4f bd b5 2a b9 bd 18 97 d1 3d 2c 39 6e 3d
       -0.050602805 -0.09041349 0.10233897 0.058159992
000020 f0 bb 17 be 4e fe ef 3d
       -0.14817786 0.11718427

momentum_buffer f4 [16, 1, 3, 3]
000000 b3 ad 13 3e 83 4a 5b 3e 26 e7 65 3e c7 3b 4a 3e
       0.1442173 0.21415143 0.22451457 0.19749366
000010 85 c1 8b 3e 6c e8 81 3e e0 7b 60 3e 49 70 7d 3e
       0.2729608 0.25372636 0.21922255 0.24749865
000020 c1 a9 44 3e 4e 42 d3 bd 5c 57 f1 bd f4 10 11 be
       0.19205381 -0.10315381 -0.117842406 -0.14166623
000030 7a d8 86 bd 25 24 a9 bd 81 e7 04 bd 7e 89 ed bc
       -0.065842584 -0.08258847 -0.03244734 -0.028996225
000040 a4 4a 90 bc 24 9f 4b 3d 21 a2 23 bc 16 92 28 bc
       -0.017613716 0.049712315 -0.009987385 -0.010288736
000050 a2 8a 4f bd b7 37 8e bc 37 a8 ed bc 3f b7 96 bd
       -0.05066932 -0.017360551 -0.029010875 -0.0735917
000060 5f c6 8b bc 80 a4 94 bc 12 5a 3d bd 00 72 05 3b
       -0.017062364 -0.018144846 -0.046228476 0.0020362139
000070 0a 2b 29 3c 4c 95 6f 3d a4 03 1c 3d 9a 1e b3 3c
       0.010325203 0.05849199 0.03808941 0.021865178
000080 84 d4 ef 3c 94 8a 6b 3d 24 8c c6 3b b7 d3 dd bc
       0.02927614 0.057505205 0.0060591865 -0.027078493
000090 31 e2 c7 bd 96 e9 96 bd a2 db c7 bd 12 a0 ba bd
       -0.097599395 -0.07368772 -0.097586885 -0.09112562
0000a0 e0 f2 e3 3a f0 0a cf 3c 31 2a aa bd b6 7d 64 3d
       0.0017391108 0.02527377 -0.083088286 0.05578395
0000b0 2c 6a d1 3d dd dd 94 3d cc 85 8e 3d 32 f4 72 3d
       0.10225329 0.072688796 0.069591135 0.059314914
0000c0 48 4e 7c 3d af 0c 27 3d 12 37 11 3d c7 fb 87 3d
       0.061598092 0.04078358 0.03545291 0.066398196
0000d0 26 c6 0e 3d fb 7b 02 3d 88 cc ce 3d 7f ef a9 3d
       0.034856938 0.03185652 0.10097605 0.082976334
0000e0 a2 c1 23 3d f9 84 9e 3d 78 39 81 3d 24 e0 ad 3c
       0.039979585 0.07740206 0.063097894 0.021225043
0000f0 93 ce 8a 3d fb c5 13 3d 32 3c 0d 3c 20 5e 49 bd
       0.06777682 0.03607748 0.008620309 -0.04916203
000100 32 8f 6f bc 33 c4 de 3c ac 11 7d bd 70 87 22 bc
       -0.014621543 0.027193164 -0.06178443 -0.009919986
000110 bf 8f 13 3d 81 04 20 bd 37 9d 9a 3c ae ed 33 3d
       0.03602576 -0.039066795 0.018873794 0.04392784
000120 22 72 4e bc 18 f0 a9 bc fc 19 7f bb ef 0e 3e bd
       -0.012600454 -0.020744368 -0.00389254 -0.04640096
000130 0b 76 03 bd f2 c3 08 3c 2b a5 6a bd d7 16 a2 bb
       -0.032094996 0.008347498 -0.057286423 -0.0049465704
000140 f0 65 07 3c 8a ef 35 bc 53 35 2b bc d5 8c 33 3c
       0.00826405 -0.011104474 -0.010449725 0.01095887
000150 a4 ff 4c 3c 48 a4 89 bb 58 6d aa bb 40 71 a9 ba
       0.012512121 -0.004200492 -0.005201023 -0.0012927428
000160 26 98 52 bc 0f 23 14 bd 5a 43 62 3d 5a db 9f 3d
       -0.012853658 -0.036166247 0.055240013 0.0780551
000170 e0 e1 9e 3d 9a 6b 67 3d 7e 77 9e 3d 68 4c 54 3d
       0.07757926 0.0564991 0.07737635 0.05183068
000180 18 56 80 3c 60 73 0b 3d 5c a4 c6 bb a0 92 c6 3a
       0.015666053 0.034045577 -0.0060620736 0.0015149899
000190 2a 00 66 bc 8a 28 57 bd 62 e6 bb bb c0 6c 9c bc
       -0.014038125 -0.052528895 -0.005734251 -0.019094825
0001a0 ba 7b 64 bd 73 b3 ab bc c4 6f c5 bc 1d d6 4e bd
       -0.055782057 -0.020959591 -0.024101146 -0.050497163
0001b0 e4 b8 2a bc b7 1a 85 bc c0 f9 29 ba 1a 71 4d bb
       -0.010420058 -0.01624809 -0.0006484054 -0.0031347931
0001c0 96 b6 81 3c 20 37 07 3d 12 99 26 3b 1d 43 13 3d
       0.015834134 0.033011556 0.0025420827 0.035952676
0001d0 0b 42 18 3d e8 33 a0 3b 67 84 1d bb de 2e c2 ba
       0.03717236 0.004889 -0.0024035217 -0.0014814993
0001e0 8a 9c 8b bb 21 78 dd bb d4 83 70 bb 9c 38 e5 ba
       -0.0042606043 -0.0067587052 -0.003669967 -0.0017488184
0001f0 62 72 67 bb 5c 16 00 3b 37 98 71 3c d4 d3 db 3c
       -0.003531598 0.0019544577 0.0147457635 0.026834406
000200 43 57 53 3d b8 92 74 3b 5a be 35 3c c8 7b 12 3d
       0.05159689 0.0037318897 0.011092747 0.03576258
000210 00 d3 57 bb 5e 2e 51 3c ac c4 31 3d 6e 8f 60 bd
       -0.0032932162 0.012767402 0.04340045 -0.054824285
000220 ee 25 2a bd cf 84 9a bc 0c 65 53 bd ce 9a 5c bd
       -0.04154008 -0.018862156 -0.051610038 -0.05385857
000230 1d 7a ad bc 51 7d 10 bd 5b 6d 95 bd 6e 51 2c bd
       -0.021176392 -0.03527576 -0.072962485 -0.042069845

momentum_buffer f4 [16]
000000 2f b2 c1 b6 89 a6 ea 36 c2 82 8f 37 9d 1c e2 37
       -5.7725915e-06 6.9931307e-06 1.7107817e-05 2.6954624e-05
000010 24 ef fc 37 b6 63 dc b7 75 4c 0c 37 28 be 6f b7
       3.01521e-05 -2.6272475e-05 8.362452e-06 -1.4289784e-05
000020 43 d1 74 b6 d6 c4 d0 b7 3c c0 fd 37 36 5c cc b7
       -3.648064e-06 -2.4887191e-05 3.0249466e-05 -2.4361634e-05
000030 a0 ef 94 37 bf ef 42 37 4a d0 35 37 1a 7f 94 b7
       1.7754559e-05 1.1619121e-05 1.0836937e-05 -1.7702161e-05

momentum_buffer f4 [16]
000000 32 49 b0 3d ce 24 4e 3c dc a7 00 bd ac 9b b4 3c
       0.08607711 0.012582017 -0.031410083 0.022046886
000010 20 1c c4 39 ae 74 0c bc 75 72 d7 3c a0 73 b3 3c
       0.00037404988 -0.0085727405 0.026299695 0.02190572
000020 74 80 f9 bb 5e c4 a5 3b 5c d6 7b bc b6 4f 1c bd
       -0.0076141898 0.005058809 -0.0153709315 -0.038161956
000030 bb ee 9a 3c ee db 20 bd d0 02 7b 39 cc 49 c3 bb
       0.018912664 -0.03927224 0.00023938273 -0.005959725

momentum_buffer f4 [16]
000000 42 2d 6f 3d 79 53 c0 3c 2c cf a0 bc ef 1c 40 3c
       0.05839277 0.023477303 -0.019630037 0.011725648
000010 64 53 70 3c 14 45 12 bd 4e d0 f4 3a d5 1c ca 3c
       0.014668319 -0.03571041 0.0018677802 0.024671951
000020 87 51 86 3c d6 20 98 3c 1d b0 a1 3c a9 e6 17 bd
       0.016396297 0.018570345 0.019737298 -0.03708521
000030 29 b2 c7 3c a1 eb 88 bd 09 c0 dc 3c 57 46 89 3c
       0.024376946 -0.06685568 0.026947038 0.016757173
