deepcluster_implementation/experiments/run_20250107_180402/config_2/final_model.pth.tar (torch, 203365 bytes, 32 tensors)

features.module.0.weight f4 [16, 1, 3, 3]
00000000: cc71 723f fd82 9d3d 5486 ccbe a57a e63c
00000010: b8ec 88be ec66 e5bb 4103 6cbf 359e 74bd
00000020: 7343 953f 0cac 033e 9de6 183f e010 f73e
00000030: 1024 0a3e 6bfd e3be 4e9a 0fbe b100 26be
00000040: 9071 0dbe 7f33 513f f3c2 25bf d83b 10bf
00000050: 0eed 03bf 3f92 b3be 1885 013f 4439 8b3e
00000060: 6523 3dbf 7dac 4ebd 8a3d c53e 71e6 abbf
00000070: a6e4 b5be 9856 2abf e5be a9bd 328d df3d
00000080: 0d41 68bd 2421 e83e bce3 843d 49b6 ec3e
00000090: d7dd 0f3e 3fd4 ae3d ae96 2f3f b8c2 3bbd
000000a0: 3ea1 31bf 62cc f6be 071b 363f 7b42 273e
000000b0: a226 1d3f 92b1 eb3e 70ac 613e fa5b 693e
000000c0: 823b 94bd abed c93d 15f3 56bf 6ad7 0bbf
000000d0: 0de3 e8be 2ff4 0dbf ff18 cb3e 7332 bb3e
000000e0: 2686 033f 6694 e1be 51b4 ab3e fa61 8e3e
000000f0: 5d28 65bf e074 e4be 21de 15bf f4ce 8d3e
00000100: ab31 99be 640a 76bf 9aa3 6a3e 7b7b 2c3d
00000110: 27b7 d2be 4d90 48be 7cda 3d3f 2184 6e3f
00000120: bb82 7e3f f0ca b3be f046 f1be d147 2d3e
00000130: fe76 01be 0a03 95be 6c92 003f 1686 7e3e
00000140: 8457 e73d 4f2b 84bf ffbe c73e 4797 c73e
00000150: 4efe afbd 07cc a93e f9ce 0e3e debd 24bf
00000160: db66 07bf f89d 723e f2c9 e5be 545b b9be
00000170: a5b0 8c3f 96fa e2bd 4391 e8be 82de 1ebe
00000180: d2b5 9e3f 93fc 33bf 4855 00bf d1d7 83bf
00000190: 3083 6839 d5cc 573e 07da 743c 43b7 af3e
000001a0: b3e8 443d 441e 80be 089e ccbe 6e35 0bbf
000001b0: c1cb 07bf 84af e83d 5aca 1b3f 8ee1 23bf
000001c0: e09d ce3e 309b ad3d 9b1f cabe 94f4 1cbf
000001d0: 88fc 18bf 3d60 00bf b3a2 33bf ef9e 16bf
000001e0: 88cd 9c3e 00bf e53e 6c2b 46be 7904 903e
000001f0: 5595 9e3d 00fa 50bf a01d 43bf 7ae6 1fbf
00000200: 7532 543f 214b d1bd 6ef1 303f 3163 3e3d
00000210: 0080 4b3f fe46 e03d 0219 72bf dd41 923e
00000220: 0e39 043d 4b46 3cbf 3d0a 0a3e b721 c03e
00000230: d6e9 f9bd de41 09bf b104 c6be 894a 1bbf
0.9470489 0.07691 -0.39946234 0.028134653 -0.26743102 -0.0070007946 -0.92192465 -0.05972119
1.1661209 0.128586 0.5972689 0.48255062 0.13490319 -0.4452928 -0.14023706 -0.16211201
-0.13812852 0.817192 -0.64750594 -0.56341314 -0.5153359 -0.35072514 0.5059371 0.27192128
-0.7388213 -0.050457466 0.38523513 -1.34297 -0.35526007 -0.6653838 -0.08288363 0.10915603
-0.056702662 0.45337784 0.064887494 0.46232823 0.14049469 0.085365765 0.68589294 -0.045839995
-0.6938666 -0.48202807 0.7113499 0.16333954 0.61387074 0.46033913 0.22038436 0.22788993
-0.07237913 0.09859785 -0.83964664 -0.5462557 -0.45485726 -0.5545072 0.39667508 0.36561927
0.5137657 -0.44058532 0.33536008 0.27809125 -0.89514714 -0.4462042 -0.58542067 0.27696955
-0.29920706 -0.96109605 0.22913972 0.042109948 -0.4115536 -0.19586296 0.74161506 0.9317036
0.9941823 -0.35115767 -0.47124434 0.16921927 -0.12643048 -0.2910388 0.5022342 0.24855837
0.11295989 -1.0325717 0.39012906 0.38982603 -0.08593427 0.33163473 0.13946141 -0.64352214
-0.5289132 0.23693073 -0.44880635 -0.3620249 1.0991408 -0.11082952 -0.45423326 -0.15514567
1.2399237 -0.7030727 -0.5013013 -1.0300237 0.00022174115 0.21074231 0.01494456 0.34319505
0.04807348 -0.2502309 -0.39964318 -0.543784 -0.5304528 0.11361602 0.6085564 -0.64016044
0.40354824 0.08476865 -0.39477238 -0.61310697 -0.5976033 -0.5014685 -0.70170134 -0.58836263
0.30625558 0.44872284 -0.19352502 0.28128412 0.077433266 -0.8163147 -0.7621708 -0.62461054
0.8288949 -0.10219408 0.6911839 0.046481315 0.7949219 0.10951041 -0.9456941 0.28565875
0.032280974 -0.7354476 0.13480468 0.37525722 -0.12202804 -0.5361613 -0.38675454 -0.60660607

features.module.0.bias f4 [16]
00000000: 0ba8 67bd 451b 8c3d f625 2d3e d560 873e
00000010: c7c3 983e d0f7 84be 5bd0 a83d 2442 10be
00000020: bf03 13bd 560a 7bbe cabf 983e 2a29 76be
00000030: fa3f 333e 34be eb3d 47f9 d93d 0454 35be
-0.056556743 0.06841139 0.16909012 0.26441064 0.29836866 -0.25970316 0.08242866 -0.1408773
-0.035892244 -0.24515662 0.29833823 -0.2403914 0.17504874 0.11510888 0.10643249 -0.1770783

features.module.1.weight f4 [16]
00000000: 2472 2e3f 0836 283f da45 c83f cd41 9a3f
00000010: c728 203f 072d 863f ccb7 343f df24 2d3f
00000020: 769b 0f3f ef64 573f e6a3 243f 6a1b cb3f
00000030: 2f7c ac3f f7ce c73f ce8e 213f 7d2c d73f
0.68142915 0.65707445 1.5646317 1.2051331 0.6256222 1.0482491 0.7059295 0.67634386
0.5609659 0.8413839 0.6431259 1.5867741 1.3475398 1.5610036 0.6310853 1.6810452

features.module.1.bias f4 [16]
00000000: 7bcb 94bf 619b 85bf facf 05bf d3e3 acbe
00000010: 18bc 7fbf afd1 d2be 3354 f0be 8be1 1dbf
00000020: 416a 29bf c051 dcbe 8757 23be 5687 f9be
00000030: 8205 adbe 5f10 e0be cf0f 4cbf 0e38 23bf
-1.1624597 -1.0438043 -0.5227047 -0.33767566 -0.99896383 -0.411756 -0.4693924 -0.61672276
-0.66177756 -0.4303112 -0.15951358 -0.48736066 -0.33793265 -0.4376249 -0.7971162 -0.6375741

features.module.1.running_mean f4 [16]
00000000: 710f 0bbd 80ca e53d 806c e83d 148d 653e
00000010: ae3c b73e 9f79 93be 9c2a 813d 1454 0abe
00000020: 43b2 94bb db65 8ebe eff8 a23e 840e 96be
00000030: 52a3 073e 5c35 7a3d 5c2e c43d de55 6bbe
-0.033950273 0.112202644 0.1134882 0.22417098 0.35788482 -0.28803727 0.06306955 -0.13508636
-0.004537852 -0.27812085 0.31830546 -0.2930795 0.13245896 0.061086044 0.09579155 -0.22981974

features.module.1.running_var f4 [16]
00000000: 7f0d 893f a3b3 963f 2af3 3940 9aba 5340
00000010: d4ed 6d3f b352 3140 50d4 ef3f 1c89 bf3f
00000020: ba99 ac3f 4cd1 bb3f c810 813f 9e88 dd3f
00000030: 034e 1740 9cfd 0b40 5cae 893f 5324 0c40
1.0707244 1.1773571 2.9054666 3.3082643 0.9294102 2.7706726 1.8736668 1.4963717
1.3484414 1.4673247 1.0083246 1.7307317 2.3641365 2.187354 1.0756335 2.189717

features.module.4.weight f4 [32, 16, 3, 3]
00000000: 21bf 29bd e223 113d 2b3d 153e cbe3 23be
00000010: 266c 43bc 5205 f93d 9dcd 4cbe a32a 5dbd
00000020: 1103 11be 010e 283e 8170 253e 6634 07be
00000030: c1c9 ac3d 9b33 5f3d 2205 56be 19ec 9cbd
00000040: 44e8 d9bd 8cb8 20be 2cb6 2c3d 0504 5fbd
00000050: 7487 fbbc c830 7d3d 8c74 c23c 804e 963c
00000060: 0286 b23d 0aee a13d bf80 2abc 59f6 44bd
00000070: 647d 8dbb 9eaa 463d b654 1cbd 2000 833d
00000080: 514d 43bb 9e3a d6bc 23d2 8ebb 8353 13be
00000090: 51ec 503e 4f4b 34bd 8dce 4cbe 6e81 0a3e
000000a0: af55 4bbd 307b 92be 691d 383d 8f45 04bc
000000b0: 9ba4 7dbe 40e1 4abd ae9e 053d 2469 493e
000000c0: 23f4 21bd 5778 393c fe25 553e 4fd2 04be
000000d0: 62c5 9dba 8192 f43d 7d88 64be d058 f2bd
000000e0: 40a7 16be 8928 12be 289f 17be 2771 e3bd
000000f0: 594d a3be ad10 a8be e793 91be a4de 67bc
00000100: 7529 eb3c 85d5 9e3d 1207 0fbd f82a cebc
00000110: e84f bcba 1684 10be edda 17be 809e 59be
00000120: 28b9 c9bd 683d 20be 7be3 7bbd f09b 15bd
00000130: 2559 98bd 00f8 08bd 81fb c73d 7a94 453d
00000140: 987f 4c3c 7803 acbe cba1 4ebe 57d0 dbbd
00000150: 7599 dbbd 0be7 803d 3b9e 633d 5a10 4b3d
00000160: 9da8 133e 3e55 f73d 962c 71be a69f c93d
00000170: 9c0c 853d 0b87 08be ff49 a03d 3f7d 303d
00000180: bac1 17be 000b 9c3d f027 dc3c cb85 8cbb
00000190: 41a8 d0bc 5410 f2bd 4c58 ae3c 63de 02bb
000001a0: 77d2 0fbd 5c6a a2bc baf8 b7bd dc07 023c
000001b0: fd1f 03bd 3576 f03b 4b5c afbd aceb afbd
000001c0: 661f 96bc 5ad1 0bbd 0e05 573b 7688 9abd
000001d0: e000 22bd ddfb dbbd 2501 ecbc bcef 133e
000001e0: 97d1 83bc 41a5 273d 9d83 9b3d 82d0 cb3c
000001f0: 9a24 5d3d 1aaa 1b3d 9ca6 6abd 9ea7 223b
00000200: 5e91 073d 390b 8cbd 8d93 a1bc 29b4 13bd
00000210: 2d4c 58bd 1a56 a23c bd9d dfbd d720 c6bd
00000220: 0d48 f3bd 6689 92bd d526 89bb 3424 7ebd
00000230: d508 253d 02d5 253c 603f 12bd c72b 993d
00000240: c73d e0be dacf 8abe 516b 05bc b714 babe
00000250: ee3d 0bbe 8173 163d 6c72 9fbe cce0 c3bd
00000260: dde7 81bd 542b b03b abdb 4c3e 71d7 79be
00000270: 0917 0d3d 4110 e93d c3f1 f8be 5dd9 303e
00000280: ae89 d3be 8cc8 f5be 8081 80bd cdef d9ba
00000290: 1227 72bd 9799 d8bd 9f5c 643c d96a adbd
000002a0: 676c 13be 3ea5 db3b f68b 14be 7d6b 84be
000002b0: 2a80 13be 9e87 f6bd abbf 65be 6a85 1abc
000002c0: 6f6a d53c ef5e 59be ccf5 cabd acef 4abe
000002d0: a3bb e53d fb29 8d3d 4396 3c3d b91f 60bd
000002e0: b377 f53d d4ac 61be 1ce4 063e c36e 9cbd
000002f0: 9526 acbe e679 01bd f509 6abd 8155 953d
00000300: 18f9 2bbe 1d3c a2bc 7e5b 04bd 2cfa bcbd
00000310: f804 09bd 8286 df3c b565 a5be 0ea7 fcbd
00000320: b3f3 26be c48f b7bb 15d6 933c 7f74 40be
00000330: 6cd8 973b 9614 9dbc 1aa8 67be 8777 f9be
00000340: fa3e 99be db4b 6fbe 096c 08be 50e8 54bd
00000350: e2fe b6bd 6a0b 90be 250f 8cbe 2a51 d9be
00000360: 2487 1d3e a5dd 48bd 31f3 30bd 91d1 ff3d
00000370: 7269 cbbc eaf3 5aba 20d1 b13d 6c57 313d
00000380: e077 433d 43aa 0b3d 93d1 cfbd 4385 acbd
00000390: ab6d 163d 74d6 25be db5b dcbd a942 143d
000003a0: 5523 f1bd ca36 53be d71b aabe 2192 6abe
000003b0: 4d50 82bd 20a4 74be 402a 6dbd d805 9cb9
000003c0: 5175 67bd 8bf4 02bd 446a a83d 8d4b 93bd
000003d0: a3cf f03c f50e 90bd 0740 9f3c ee2f 113d
000003e0: ac15 cabd 6b3f 37bd 6da3 9cbd 7770 8dbd
000003f0: fcf6 edbd d935 6cbd d686 073e 1484 75bd
-0.04144204 0.03543461 0.14574115 -0.16004865 -0.01192764 0.12159218 -0.2000031 -0.05399574
-0.14161326 0.16411592 0.16156198 -0.13203582 0.08436919 0.054492574 -0.20900396 -0.076622196
-0.10640004 -0.15695399 0.04216592 -0.054447193 -0.030704238 0.0618141 0.023737215 0.018347979
0.08716966 0.079067305 -0.010406672 -0.048086498 -0.0043179262 0.048502557 -0.038166724 0.06396508
-0.0029800723 -0.026150998 -0.0043585463 -0.14387326 0.20402648 -0.044017132 -0.20000668 0.13525936
-0.04964226 -0.2860961 0.044949923 -0.008073225 -0.24769823 -0.04953122 0.032622032 0.19669014
-0.039539468 0.011320195 0.20815274 -0.12970851 -0.0012036974 0.11942006 -0.22317691 -0.11833346
-0.14712238 -0.14273275 -0.14806807 -0.111055665 -0.3189495 -0.32825223 -0.28433153 -0.014152203
0.028706292 0.07755569 -0.034918852 -0.025166973 -0.0014367076 -0.14112887 -0.14829607 -0.21251869
-0.09849769 -0.15648425 -0.06149624 -0.036525667 -0.07438878 -0.033439636 0.097647674 0.0482373
0.012481593 -0.33596396 -0.20178907 -0.10733097 -0.10722629 0.06294068 0.055570822 0.04957614
0.1441979 0.120768055 -0.23552164 0.09844904 0.06496546 -0.13332765 0.07826614 0.043088194
-0.14819995 0.076192856 0.026874512 -0.0042884103 -0.025470855 -0.118195206 0.021282338 -0.0019968979
-0.035112824 -0.019826107 -0.08982988 0.007936444 -0.03201293 0.00733831 -0.08562525 -0.08589873
-0.018325519 -0.0341352 0.003280941 -0.07545559 -0.039551616 -0.107413985 -0.02880914 0.1444692
-0.016091151 0.040929083 0.075934626 0.024879698 0.053989984 0.03800402 -0.057287797 0.0024819146
0.033097617 -0.06838078 -0.019723678 -0.036060486 -0.052807022 0.019816447 -0.10918758 -0.096742325
-0.11878977 -0.07155113 -0.0041855373 -0.062046245 0.040291626 0.010121586 -0.03570497 0.07479053
-0.43797132 -0.27111703 -0.008143262 -0.3634393 -0.13597843 0.036731247 -0.31141984 -0.09564361
-0.063430525 0.005376259 0.20005672 -0.2439859 0.034445796 0.11380053 -0.4862195 0.17270418
-0.4131598 -0.48004568 -0.062747 -0.0016627252 -0.05911929 -0.1057617 0.013938098 -0.08467645
-0.14396821 0.006703048 -0.14506516 -0.25863257 -0.1440436 -0.12037586 -0.22436397 -0.009431222
0.026051728 -0.2122762 -0.09910163 -0.1981799 0.112174295 0.06892773 0.04604174 -0.054717753
0.119857214 -0.22038585 0.13172954 -0.076383136 -0.33623186 -0.031610392 -0.057138402 0.07291699
-0.1679424 -0.019804055 -0.032313816 -0.09227404 -0.033452004 0.027285818 -0.3230416 -0.12336551
-0.16303901 -0.005601855 0.018046418 -0.1879444 0.004633954 -0.019174855 -0.2262272 -0.48724005
-0.2993086 -0.2336878 -0.13322462 -0.051979363 -0.08935334 -0.28133708 -0.27355304 -0.42444736
0.15383583 -0.0490395 -0.043200675 0.124911435 -0.024830554 -0.0008352386 0.086824656 0.043296263
0.047721744 0.03409792 -0.10147395 -0.08423855 0.03672568 -0.16195089 -0.107597075 0.036196385
-0.11774317 -0.20626369 -0.33224365 -0.22907306 -0.063629724 -0.23890734 -0.05790162 -0.00029758993
-0.056508366 -0.031971496 0.082233936 -0.071921445 0.029395884 -0.07034103 0.01943971 0.0354461
-0.09867415 -0.044738214 -0.076483585 -0.069062166 -0.11619374 -0.05766854 0.1323503 -0.059940413

features.module.4.bias f4 [32]
00000000: c744 ae3c 1850 283d 9150 99bd 87e9 69bd
00000010: 49f1 a0bd c48e 1c3d f188 7b3d 051f a1bd
00000020: 9a61 ae3c 5309 883c abf9 33bd 4ded 903c
00000030: a14d 813d c77c a43d 4609 113d 8903 85bc
00000040: 1ad5 3ebd f379 ffbc ad04 303a 1d09 c5bb
00000050: 4dbb 743d 538c 97bd 6e7f ef3b cd58 d5bc
00000060: 76c0 df3b cb43 a13d 76fb 1c3b dbad 68bc
00000070: 725c e3bc 4859 a7bd d2ee 97bd 7722 123d
0.02127303 0.04109201 -0.0748607 -0.057107475 -0.078585215 0.03822209 0.061409894 -0.07867245
0.021286774 0.016606009 -0.043939274 0.017691279 0.06313635 0.08031612 0.035409234 -0.016237037
-0.04658995 -0.03118608 0.0006714564 -0.0060130493 0.059748936 -0.073998116 0.007308892 -0.02604332
0.006828363 0.078742586 0.0023953593 -0.014201607 -0.027754042 -0.08171326 -0.07418598 0.0356774

features.module.5.weight f4 [32]
00000000: eb7f 233f 35bb 853f f672 4b3f 2226 403f
00000010: a46a 1e3f 6db9 4f3f 6fd8 1f3f 3770 3a3f
00000020: 0d47 623f ff21 283f 1091 203f b1e6 993f
00000030: c8ba 0b3f 9899 4a3f c6ec 2e3f d588 8a3f
00000040: 4d81 683f e704 6b3f c939 4c3f f009 2b3f
00000050: 0cef 903f 195f 2f3f 4aab 613f 810c 403f
00000060: 745d 503f 60e1 413f d5f1 293f 6079 0b3f
00000070: 0902 273f 9c55 6e3f 71e5 803f 0c8d 8a3f
0.6386706 1.0447756 0.7947229 0.75058186 0.6188147 0.8114231 0.62439626 0.72827476
0.88389665 0.65676874 0.6272135 1.2023526 0.5458188 0.79140615 0.6833004 1.0823008
0.908223 0.91804355 0.79775673 0.6681204 1.1322951 0.6850448 0.8815199 0.7501908
0.813926 0.7573452 0.6638463 0.5448208 0.6523748 0.9309938 1.007002 1.0824294

features.module.5.bias f4 [32]
00000000: c5ed 97be 4ed5 61bf 7257 c8be 306c 1fbf
00000010: 88ad 85bf 7545 59bf eb7b 10bf 777f 95bf
00000020: 000d e1be 68c1 80bf 03cb 8abe e218 4dbf
00000030: 629e 1abf b20d 38bf 3807 87be 0814 54bf
00000040: a112 29bf 76ee 3dbf c9c0 62bf 434f 24bf
00000050: 788d 5abf e87a edbe 52a9 51bf 8db6 44bf
00000060: d173 39bf 078d 1fbf 2ff7 56bf 378e e7be
00000070: 25a7 cbbe 621d 3fbf 10ea 47bf 5828 0bc0
-0.2967359 -0.882161 -0.39129215 -0.62274456 -1.0443583 -0.8487161 -0.56439084 -1.1679524
-0.4395523 -1.0059023 -0.2710801 -0.80116093 -0.60397923 -0.718959 -0.26372695 -0.82843065
-0.6604405 -0.7419199 -0.88575417 -0.64183444 -0.85372114 -0.46382833 -0.8189899 -0.7684105
-0.72442347 -0.62324566 -0.8397092 -0.4522569 -0.3977596 -0.7465421 -0.78091526 -2.1743374

features.module.5.running_mean f4 [32]
00000000: 4c56 bebe f4ea a0bf 9861 35bf 0d1d 37bf
00000010: 7615 90bf eba6 68bf 643b 71bf f5bd a5bf
00000020: 26a5 bfbe 9177 a9bf 9182 9abe 7298 87bf
00000030: 7e87 9dbf a6d2 e2be bcfb eebe 7afa 8fbf
00000040: a08d 43bf 24ab 99bf c3e5 5dbf e270 41bf
00000050: 89da 16bf 6c04 01bf d330 f7be 44de 6abf
00000060: bfb1 53bf c725 16bf 0b22 08bf 9237 53bf
00000070: 4d3e c9be 128c cabe 3425 39bf 5fa0 e7bf
-0.37175214 -1.2571702 -0.7085204 -0.715287 -1.1256549 -0.90879697 -0.9423125 -1.2948595
-0.37430686 -1.3239614 -0.3017774 -1.0593398 -1.2306974 -0.44301337 -0.46676433 -1.1248314
-0.7638798 -1.2005353 -0.86678714 -0.7556287 -0.5892721 -0.5039737 -0.48279437 -0.917454
-0.82693094 -0.58651394 -0.53176945 -0.8250667 -0.39305344 -0.3955999 -0.7232239 -1.8095816

features.module.5.running_var f4 [32]
00000000: 3e59 ab3e 5450 953f a5a3 e63e 082e f53e
00000010: 5f1c ee3e 8b99 3d3f 94a4 dd3e ee4e f33e
00000020: 9d75 5f3f 7401 023f 77e3 bf3e 284f e73f
00000030: 7402 0d3f 6886 ce3e 463b a43e 95f9 873f
00000040: 3be0 403f 942b 923f 1e35 163f ef9c de3e
00000050: 166d 363f 5e75 fe3e 6fda 083f a933 353f
00000060: 1d59 0b3f 9521 c13e b598 033f ef77 a23e
00000070: f019 cb3e 1a61 d03e 5a58 6b3f 462a 2d3f
0.33466524 1.1665139 0.45046726 0.47886682 0.4650602 0.7406241 0.43289626 0.47521156
0.8728884 0.5078347 0.3747823 1.8071032 0.5508187 0.4033692 0.32076472 1.0623041
0.7534215 1.1419549 0.586748 0.43479106 0.712602 0.4969892 0.53458303 0.7078195
0.5443285 0.37720934 0.5140489 0.31732127 0.39668226 0.40699083 0.9193169 0.6764263

features.module.8.weight f4 [64, 32, 3, 3]
00000000: ec0b 94bc 1cee ed38 ed4f 87bc 798d a43a
00000010: d3ab 213c 9b4f abbc cdd5 36bb 1baa d1ba
00000020: 97a7 f3bc 3de7 f6bd 0412 62bd 0d16 32bd
00000030: 1e26 80bd 6f47 2ebd 855f 16bd 42f3 68bd
00000040: 4e3c 3ebd 3c2b 59bd bd37 983d a4df 1c3d
00000050: 93ad 6e3d e7d1 043d a170 bcbb 44fe 173c
00000060: f056 f63c 08c2 8cbb 6091 b23c 5414 883d
00000070: 3dd0 0b3d 50ab 593d 80fa 903d f1b1 0b3d
00000080: dcff 823d eb24 863d 4660 0c3d 8706 9d3d
00000090: b124 8a3b 629c b7bc e248 42bb 2728 6ebc
000000a0: 334b a2bc 7207 98bb 17f5 08bc af42 25bc
000000b0: cfec 943c d17e 14bd bd1c 29bd a567 0cbd
000000c0: c32e e5bc 719b b6bc 7ebf 92bc fcf1 ebbc
000000d0: 500e c3bc 0a0b 2fbd 7fcc b53d 8b30 ae3c
000000e0: dd0f 373d ff7b 4f3d 91e6 2f3c c475 313d
000000f0: ffc4 233d df77 ed3c a162 3f3d f6cd 693d
00000100: be73 2c3d fdb4 673d 3f71 663d 4256 7f3d
00000110: e9cd b83d 4655 8d3d d20c 973d 660b f93d
00000120: 0e76 da3c eca1 803c 8687 8e3b f7d8 aa3c
00000130: 43ee b43c b010 093c af7c 1f3d 36f8 f03c
00000140: f854 603c a267 98bb 7982 44bc 1d76 9abb
00000150: 9281 6bbb 799a 80bc e2ae 87bc 74de 84bc
00000160: a9e5 c5bc a7a0 00bd 0860 d0bc 4d8f dbbc
00000170: 4dc2 dabc 15bc 06bd c5af 00bd 25a4 21bd
00000180: 91c3 a4bc 6afc c0bc 83c7 03bd 6862 793c
00000190: 3ab4 903c 01b3 be3a a232 9dbb 384e 96bb
000001a0: 5447 d1bc 6865 3dbc 67af 2abc d87d 08bd
000001b0: 9f1d 193d 66b5 243c b1f3 843c 6623 af3c
000001c0: 9ba1 68bb 5a45 833c 5365 483c f2c7 43b9
000001d0: 8bbf 383c ca9a 62bc 0673 8e3a e8ee a6bb
000001e0: da0d 44bc 38a2 7abb 48fa f7bb 0cdc b1bc
000001f0: 9a12 a1bb 9022 84bc 42e0 85bd 23e8 75bd
00000200: 2d7f fbbc 4502 3dbd fe31 43bd 9e23 ffbc
00000210: 2bf7 c5bc d481 e2bc ec99 c6bc 1b9c 05bd
00000220: 3d5c b4bc 0f46 11bd 86f9 31bd 5786 9fbc
00000230: e81e f5bc 4fe7 84bd 2700 00bd 2a66 4cbd
00000240: 1928 1cbd 1c8c cfbc e4e6 a3bc cab2 0dbd
00000250: 98f7 88bc 4aff a1bc 8239 1bbd bd0b b0bc
00000260: dfaf 07bd 4940 4c3e a130 fb3d 8785 0c3e
00000270: eabf 1d3e 1685 c03d 5e95 063e 63dc 263e
00000280: 9280 053e e84b 393e b0ba 6ebb 501e 75bc
00000290: 3f58 f8bc c538 ac3b 209d 2bbc 31a9 14bd
000002a0: 408c 2dbc dfcb c0bc 6962 1cbd c065 5b3d
000002b0: 7fa8 273d b74c 813d bca7 513d 78f1 4e3d
000002c0: 7ce1 b83d 66fc 863d 12a3 8d3d 48be 1c3e
000002d0: 580b fabb eef3 14bc 56bc 4fb9 da15 453c
000002e0: 7102 1ebb 60bb 9b3a f647 583c b9be 60bc
000002f0: 2def 5abc 05eb 59bb 4c01 38bc c3ee 76bc
00000300: 28fe 963b 3036 303b c88a 1a38 b00e cc3c
00000310: 83f8 9c3c 630d 863c 6845 46bd cc83 dbbc
00000320: 3cf1 8cbc a183 8ebd 52de eebc 68ef 1bbc
00000330: 6903 88bd 5044 a9bc 331d b2bb f7b0 d7bc
00000340: ec3b 84bc 40f8 60bc 61fa f5bc 7427 89bc
00000350: b267 e1bc 6f10 2bbd 6258 16bd d18a 57bd
00000360: 725b 68bd 50c5 28bd 1a4b 81bd faa5 c3bc
00000370: 7da8 e8bb 78b8 24bd 38e7 04bd 0890 b4bc
00000380: 036c 79bd 4d18 6ebd 1404 81bc c713 0f3a
00000390: 9ce7 66bd 8c88 07bd a284 8dbc dcec 01bd
000003a0: 9f7a afbc 5bd8 363b 1629 41bc d659 32bb
000003b0: 16e7 443b b442 4cbc c991 c13b 89b4 3a3c
000003c0: 6310 a1bc 049e 483b 812c fe3b a63d 853d
000003d0: cc40 d93c c037 ba3d 71b8 303d 30da 113d
000003e0: 5f73 af3d fb7c 433d a530 1d3d 4cc5 f63d
000003f0: 1ee9 22bd 3d89 e7bc 23b2 d3bc 912e 28bd
-0.018072091 0.00011345392 -0.016517604 0.0012554369 0.009867626 -0.020911982 -0.0027898431 -0.001599613
-0.029742999 -0.12055824 -0.055192962 -0.04347806 -0.0625727 -0.042548593 -0.03671219 -0.056872614
-0.04644423 -0.053019747 0.07432506 0.038299218 0.058271002 0.03242674 -0.005750731 0.00927693
0.030070752 -0.0042955913 0.021797836 0.06644502 0.03413414 0.053141892 0.07079029 0.034105245
0.063964576 0.0655001 0.0342715 0.076672606 0.0042157997 -0.022413436 -0.0029645492 -0.01453594
-0.019811248 -0.0046395594 -0.008359215 -0.010086699 0.018179325 -0.036253754 -0.041287173 -0.03427853
-0.0279764 -0.022290917 -0.017913576 -0.02880191 -0.023810536 -0.042735137 0.08876895 0.021263381
0.044692863 0.05065536 0.010736124 0.0433252 0.039982792 0.028987823 0.04672492 0.057081185
0.042102568 0.05656909 0.056260344 0.06233812 0.09023649 0.0690103 0.07375492 0.12160377
0.026667621 0.01570221 0.0043496517 0.02085541 0.022086268 0.008365795 0.038937267 0.029415231
0.013692133 -0.004651026 -0.011993998 -0.004713787 -0.0035935384 -0.015698658 -0.016562883 -0.016219355
-0.024157362 -0.03140321 -0.025436416 -0.02680173 -0.026703978 -0.032894213 -0.031417627 -0.03946318
-0.020112785 -0.02355786 -0.03217269 0.015221216 0.017664064 0.0014549197 -0.0047972957 -0.004586961
-0.025546707 -0.011559822 -0.010417796 -0.03332314 0.037381765 0.010053014 0.016229482 0.021379184
-0.0035496715 0.01602428 0.012231189 -0.00018671135 0.011276136 -0.01383085 0.001086802 -0.005094398
-0.011966193 -0.0038243663 -0.0075676776 -0.021711372 -0.0049155476 -0.016129762 -0.065369144 -0.060035836
-0.03070029 -0.046144743 -0.0476551 -0.031144913 -0.02416571 -0.027649797 -0.024243318 -0.032619577
-0.022016639 -0.035467204 -0.043450855 -0.019473238 -0.029921964 -0.06489431 -0.031250145 -0.04990212
-0.038124178 -0.025335364 -0.020007558 -0.034594335 -0.016719624 -0.019775052 -0.03789664 -0.021489972
-0.033126708 0.19946398 0.122651346 0.13722812 0.1540524 0.09400384 0.13142917 0.16295008
0.13037327 0.18095362 -0.0036427192 -0.01496084 -0.030315517 0.005255791 -0.010474473 -0.036294166
-0.01059252 -0.023534713 -0.03817979 0.053563833 0.040932175 0.0631346 0.051185355 0.05052325
0.09027383 0.0659111 0.06915869 0.15306962 -0.007630747 -0.0090913605 -0.00019811219 0.012029136
-0.0024110342 0.0011881404 0.013200751 -0.013717347 -0.013362688 -0.0033251655 -0.011230778 -0.015071574
0.0046079345 0.0026887767 3.684571e-05 0.024909347 0.019161468 0.016363805 -0.048406035 -0.026796244
-0.017204873 -0.069587 -0.029158745 -0.009517528 -0.066412754 -0.020662457 -0.0054356097 -0.0263295
-0.016141854 -0.013731062 -0.030026617 -0.016742446 -0.027515266 -0.04176372 -0.036705382 -0.05262262
-0.056727834 -0.041203797 -0.063131526 -0.023882855 -0.0071001635 -0.040214986 -0.03244707 -0.022041336
-0.060894024 -0.058128644 -0.015749015 0.0005457964 -0.056373224 -0.033089206 -0.017275158 -0.031720027
-0.021420775 0.0027899954 -0.011789581 -0.002721419 0.0030044965 -0.012467075 0.0059072715 0.011395582
-0.019661134 0.0030611763 0.00775677 0.06505899 0.026520155 0.09092665 0.043144647 0.03560847
0.08566927 0.047726613 0.03837647 0.1204935 -0.0397731 -0.028263682 -0.025841778 -0.041060034

features.module.8.bias f4 [64]
00000000: 5e83 d9bc d9a4 2e3c a1e2 373c 1289 693d
00000010: b1f9 583d 0ed9 43bd 5cad eb3c a020 3ebd
00000020: 07f2 e7bc b833 bb3c 1746 22bd 6a6a 4b3d
00000030: d29d b33c 3e43 a23b e7e1 043d 3516 4abd
00000040: b78c 1c3c 8bcc b03c 5438 dabc f67d 93bc
00000050: b573 c03c 6ff3 483d e807 b9bc ba3d 0f3d
00000060: 2dfd 043d 7ad5 0abd e190 3cbd 559e dfbb
00000070: 8635 133d 6bc6 45bd 1ed3 24bd 6de0 2c3d
00000080: 6e0b 08bd 7161 29bd 8bb1 21bb 3624 683d
00000090: 0a79 1c3d e1c8 f43c e4d3 f23b f5b4 edbc
000000a0: bbd5 38bd 7112 fc3c ba9f 8c3c 5ef1 763c
000000b0: 8759 afbc 4e73 67bd c6ca 013c 686a 23bc
000000c0: aa99 8fbb 9929 b43b eea9 0abd 69c4 13bd
000000d0: 259d 89bc 4522 b83c 8486 14bd 9d1c 5d3d
000000e0: da74 69bd 903c 13bd 69fd 873c 4ec1 66bd
000000f0: 68b1 03bd 16d6 f43c 47c7 20bd b0f3 973c
-0.026551899 0.01065942 0.011223466 0.057015486 0.0529725 -0.04781442 0.028769188 -0.046417832
-0.02831365 0.02285181 -0.039617624 0.04966203 0.02192584 0.0049518635 0.032442 -0.049337585
0.009555033 0.021581909 -0.026638187 -0.018004399 0.023492673 0.04906028 -0.022586778 0.034970976
0.03246801 -0.033894993 -0.046036605 -0.0068242946 0.035939716 -0.04828493 -0.0402404 0.042206217
-0.033214025 -0.041352693 -0.0024672474 0.05667516 0.03820137 0.029880943 0.0074105132 -0.029016951
-0.045125704 0.030770512 0.017166007 0.015072195 -0.021404995 -0.056506447 0.00792188 -0.0099741
-0.004382332 0.005498123 -0.033853464 -0.036075983 -0.016798565 0.022477278 -0.036261097 0.053982366
-0.056996204 -0.03594643 0.016600328 -0.056336693 -0.03215161 0.02988724 -0.039252546 0.018548816

features.module.9.weight f4 [64]
00000000: 3a86 9b40 34c4 9940 e33d 4e40 2ae7 5c40
00000010: a682 c740 7d91 6940 d309 7640 366f a440
00000020: 4348 4540 ce94 8040 3bfd a540 95e3 4240
00000030: a256 8740 7a1e 4e40 06e9 8340 b531 4440
00000040: 448f 6440 528f 5d40 5256 6040 3daa 5040
00000050: d965 8640 fb12 7540 b70e 3540 946e 8a40
00000060: 1572 7540 53e7 6740 12b2 6d40 914c 7440
00000070: 572c cf40 916c 8540 265d e740 6057 8740
00000080: 1a8b 5b40 65e5 8440 96ec 8d40 8dd8 c340
00000090: 0003 8840 15ed 5140 6cf0 8f40 7a84 2f40
000000a0: 4263 3d40 da26 9340 7f56 5e40 b7c0 7840
000000b0: d652 6a40 bf68 8540 0266 5840 dd3d 2640
000000c0: 77b7 a240 15a4 8140 2e38 5340 8c34 9940
000000d0: 72a1 3740 4a1a 5f40 bb1b 7a40 2190 5d40
000000e0: 6d75 5c40 a643 6440 5d88 8540 dd66 2b40
000000f0: 2129 5e40 c34e 3f40 fccd 4c40 a8ca 5a40
4.860135 4.8052006 3.2225273 3.4516091 6.2346983 3.649505 3.8443496 5.1385756
3.0825355 4.0181646 5.187162 3.0451405 4.2293253 3.2206101 4.1221952 3.0655339
3.5712442 3.4618726 3.5052686 3.2603905 4.1999326 3.8292835 2.8290231 4.3259983
3.835088 3.623494 3.7139935 3.8171732 6.4741626 4.1695027 7.2301207 4.229416
3.430365 4.1530023 4.43513 6.1201844 4.250366 3.2800953 4.4980984 2.7424607
2.9591832 4.5984926 3.4740293 3.8867624 3.661306 4.1690364 3.381226 2.5975258
5.0848956 4.0512795 3.300304 4.7876644 2.8692288 3.4859796 3.9079425 3.461922
3.444667 3.566629 4.172896 2.6781533 3.4712603 2.9891822 3.2000723 3.4186192

features.module.9.bias f4 [64]
00000000: 9331 bd3f 2fba 6e3f 1e3b 423f 4b08 683f
00000010: 260b bf3f 26ae 553f 6812 723f 9601 643f
00000020: 7bde 4c3f b345 803f c927 4240 60f9 2e3f
00000030: 48bd 1f40 15e0 813f 2809 583f bacf 5d3f
00000040: bf8d 643f 30b0 423f b8ca 513f 63be 6a3f
00000050: 20ce 1640 2199 f33f adb9 063f f87e a33f
00000060: 0e90 dd3f 2f98 703f 30b2 4a3f 31a8 da3f
00000070: 3133 ab3f db5a 9e3f 8259 1040 6bec 503f
00000080: b6b6 5b3f 0e1f b23f a00c a93f 2048 c23f
00000090: 4814 8e3f 223e 2c3f 1381 833f bab2 313f
000000a0: 7112 4b3f 5b1b bb3f 5c7a 3d3f dde2 5b3f
000000b0: bf34 863f ad6f a63f acf7 593f 94e1 173f
000000c0: b16f 653f 9083 803f f5ca 313f 044c a73f
000000d0: 26d6 433f 28d4 703f fb5b a13f ead8 383f
000000e0: cff8 8b3f 51d6 683f 8094 8a3f 20c6 403f
000000f0: 5a90 533f 08ae 3d3f b14c 5e3f 915c 633f
1.4780754 0.93252844 0.75871456 0.90637654 1.4925277 0.83468854 0.94559336 0.8906492
0.8002698 1.002127 3.0336783 0.68349266 2.4959278 1.014651 0.8438897 0.8664509
0.8927879 0.7605009 0.8194995 0.9169676 2.3563309 1.9031106 0.5262707 1.2773123
1.7309587 0.93982214 0.7917814 1.7082578 1.3374997 1.2371477 2.2554631 0.81610745
0.8582567 1.3915727 1.3206978 1.5178261 1.1099939 0.6728231 1.0273765 0.6941334
0.79325014 1.4617723 0.7401483 0.8589304 1.0484847 1.3002831 0.8514354 0.5932858
0.8962355 1.004015 0.6945031 1.3070073 0.7649864 0.94073725 1.2606195 0.72205985
1.0935305 0.9095202 1.0826569 0.75302315 0.8264214 0.74093676 0.8683577 0.8881312

features.module.9.running_mean f4 [64]
00000000: 0e7e 27bd 4a1b 413d 195e 103c 9d29 cb3d
00000010: f4b0 3b3d 67ac e0bc 0fc2 e23c 0adf 2ebd
00000020: 05f5 4abc b57a 843c 8bf0 243d 406e 973d
00000030: 010c e13d 3f6c f7bc b0bf c43c b2ce 61bd
00000040: 56f9 763c 432a d13a 1020 23bd cde8 d1bc
00000050: dab2 df3d b920 dc3d a62e 273b cf4f fcbc
00000060: ba09 b33d e6cf 28bd 7cff 9abc 3bf2 233d
00000070: 5ce0 72bb 379e b0bd 5dc5 03be 22ec 6a3c
00000080: fbfa 03bd 817c d5bd 51c2 45bc f52e 363d
00000090: 9f5b 813d 1af7 643d c055 80ba 55e3 16bd
000000a0: 3978 81bd 10a2 88bd 7cd1 393d 73c9 e73c
000000b0: d4c2 c6bc ba0e 05be 41d8 103d 261d 9e3c
000000c0: ae63 bcbb d54b a73c e4d3 cc39 3087 7cbd
000000d0: bf25 3a3b f3ee 7a3d 11c1 95bd 6951 6a3d
000000e0: 76c0 cfbd 3f9e 9cbc de4f b83c 6c4a 3a3c
000000f0: 060f d2bc c03e 453d 071e 04bd d2ce 863d
-0.0408917 0.047145166 0.008811497 0.099200465 0.045823053 -0.027425958 0.027680425 -0.042693175
-0.012387519 0.016171793 0.040268462 0.073940754 0.10988618 -0.030202983 0.024017185 -0.05512876
0.015074095 0.001595803 -0.0398255 -0.025623703 0.10922785 0.10748429 0.0025509982 -0.030799774
0.087420896 -0.041213892 -0.018920653 0.04002593 -0.0037059998 -0.08623927 -0.12868257 0.014338525
-0.032221776 -0.10424138 -0.012070254 0.044478375 0.063163035 0.055899717 -0.000979118 -0.036837894
-0.06321759 -0.06671536 0.045365795 0.0282943 -0.024262823 -0.12993899 0.035362486 0.019301008
-0.0057491874 0.020421902 0.00039067783 -0.061652362 0.0028403846 0.061263036 -0.07312215 0.057206545
-0.10144131 -0.019118426 0.022499021 0.011370283 -0.02564193 0.048155546 -0.0322552 0.065824166

features.module.9.running_var f4 [64]
00000000: 5fbd 7e3c c58e 963c 931e e23b 336a 0e3c
00000010: 06c4 a53c 479c 333c eeff 943b fa56 823c
00000020: 5d38 f83b cedc 023c 4371 563c 257b 423c
00000030: 356f 273c b72f 093c 764a a83b f032 fa3b
00000040: 3ecf 053c ac75 e93b 3995 e53b f263 0e3c
00000050: 76fe 363c 0b12 383c 2f47 193c 4a8b 223c
00000060: 4877 213c 5563 293c 4a25 403c cdb3 213c
00000070: 588b bd3c 069d 4a3c 34ac c43c c9c2 bd3b
00000080: fd96 043c 9aab 3a3c f89e 413c 0809 a13c
00000090: 890e 473c 960d 2d3c cf47 ba3b 201b fb3b
000000a0: b97b ef3b 2ae5 223c 1899 363c a857 233c
000000b0: 777b ef3b 167d 2f3c a743 0e3c abcc 063c
000000c0: 3c73 833c b76c 983b 59c8 323c 2cf5 813c
000000d0: c428 f73b a854 0f3c 21bc 273c 3bfb 123c
000000e0: 2d29 043c a722 223c 7b76 0f3c ff43 0b3c
000000f0: b828 303c 2e29 283c 8c73 083c 02a8 373c
0.015548079 0.018378625 0.0069006174 0.008692312 0.020235073 0.010962552 0.0045471108 0.015910614
0.0075750784 0.007987214 0.013088527 0.01187018 0.010219385 0.0083731925 0.0051358296 0.0076354668
0.008167086 0.0071246233 0.007006314 0.008690821 0.011169067 0.0112347705 0.00935535 0.009920904
0.009855099 0.010338624 0.01172764 0.009869528 0.023137733 0.012366539 0.024007894 0.0057910425
0.008092639 0.011393452 0.011817686 0.019657627 0.012149462 0.010562321 0.00568483 0.0076631457
0.00730845 0.009942332 0.011144899 0.009969629 0.0073084193 0.010710975 0.008683122 0.008227508
0.016046159 0.0046516317 0.010912024 0.015863977 0.0075427014 0.008748211 0.0102377245 0.008971031
0.008066458 0.009895957 0.008756275 0.008500098 0.010751896 0.010263724 0.00832833 0.01120949

top_layer.weight f4 [10, 64]
00000000: 3214 79bd 423f 893e 6f47 c9bc 5a0b 9139
00000010: 2968 0dbe 47e2 b6bd a126 efbd fd90 263f
00000020: 2707 9fbc 3895 43bd c09e de3b c994 8dbd
00000030: e3a1 46bd 7aa5 d7bc a1a7 bebd 79cd 23bd
00000040: 469d 37bc d5f3 cfbc 2733 85bc 8a73 7cbd
00000050: 645b 99bd b2ee a43e 41f2 a0bd b41f 89bd
00000060: c273 813d 2c1a aabd 0739 85bd b4bf 2abd
00000070: 3e3f 1c3f e7d2 b5bc 7b76 32be 29e0 eabd
00000080: 1f7e debc b80b 6fbd b5b2 793d 055e f5bd
00000090: 089b bbbd 3bb8 98bd fb2c dbbd 8231 5dbd
000000a0: 5faa 7bbd 78e7 02be 7734 82bd ab70 d6bd
000000b0: 075e fbbc 0b8a 863d 9aae 323c 884a 213d
000000c0: b082 253f edfd d1bd c5cf 88bd 4ed4 27bd
000000d0: b6e1 7dbc 1ae1 663c 694e a0bd 9732 4dbd
000000e0: 80c4 80bd 966d 47bd 56da 94bc 684c 303d
000000f0: 4e93 5f3c 824f 93bd 26e5 27bd 8a57 703b
00000100: 671a cfbd 0d19 f6bc 2721 b93c 204c 65bb
00000110: 71cd 323f adaf bbbd 4030 aebd 12aa 423d
00000120: 0da2 eabc 8478 7f3c 6e1a a03e 98e0 14bd
00000130: 6a55 2d3e 1641 e0bd 7455 a1bd 8af3 85bd
00000140: 7045 023d 4981 5abc 3814 003b 7d83 5dbd
00000150: 68be a53b 92b9 08bd 3077 80bd 1e98 29be
00000160: 4c13 9d3d 392b ba3e 2b46 c9bd 024f 07be
00000170: ee9c 46bd 74cf 13be 411d f7bd a86d c2bd
00000180: aef3 bbbc 6466 37bd 681d 36be 7cc1 223f
00000190: 542e 83bd 8b5f 95bd 1b50 e2bc 3c9e 8abd
000001a0: 4a2c d9bd f817 6dbe 35c4 12bd 2cc1 d8bd
000001b0: 62b3 01bd 3eb7 6ebe 2e2f bfba 896d d33b
000001c0: 03fd f93c 578b 81bc 4aca 78bd 24fb 08be
000001d0: 2b9c febc bd2c a43b fc56 adbd bde1 d43e
000001e0: 710b f4bd f9ee afbd 50c4 223c ff6a 473d
000001f0: 1d36 c5bd 9cdc 74bd 74b1 1cbd 3bad 7dbd
00000200: 1207 73be bbac 71be a7c8 66bd ab0a 3ebd
00000210: 3503 a3bd c31f 1abe 9c3f cbbd 0ba0 e3bd
00000220: 47e6 13bd c631 14bd 29e6 2d3e 3740 08be
00000230: 7c0a cc3e eb89 f9bd 14e7 f1bd d425 b6bd
00000240: 0129 85bd cbf5 93bd 3135 8abd 6421 e7bd
00000250: dde3 053f a025 9c3e 0b79 0fbe 885a 3e3e
00000260: 5982 7fbd 604e 25bd e3e4 1dbe cb17 073f
00000270: 2686 41be b248 46be 5034 2abe 835e fabd
00000280: ead3 84bd 8dba 8b3e 450a e03e f227 f8bd
00000290: 4246 37be f859 06be 201e b23d 1101 a8bd
000002a0: 8a34 91bd 7efd 4ebe 23a0 0bbe 09f9 38be
000002b0: 1cdc 66bd d1a5 4b3e a1d9 bcbd a73b 72bd
000002c0: b269 c1bd f009 d63c 4ec4 21be 378d 69be
000002d0: 6426 91bd d012 a0bd e726 1dbe 2516 50bd
000002e0: 6e00 e9bd ef9c f0bd 73d8 72bd d586 ddbc
000002f0: 1b03 13be 61c4 05be a099 bdbd f8c1 f9bd
00000300: 010d 3a3e d315 173e eda5 0abe ed0f 2cbe
00000310: 85be 30be 265e 01ba 7e43 053f a157 15be
00000320: 0e4e 0ebe a812 36be 5def 14be 74c0 503d
00000330: 2f44 a6bc 18fe dcbc ab5b 0c3f 187a 26bd
00000340: fc9b 39be e182 fabd a04b 3cbe 9f68 47bd
00000350: 1748 c13d 3bc8 39bd 6126 033e 2d91 1c3e
00000360: 9667 aabd 1b12 b3bd 99da aabb fb3a 863d
00000370: 9756 453d d434 49bd bccd a4bc b83a fc3e
00000380: b83c 11be 8c24 08bd 98ef 2ebd 8b47 13be
00000390: e266 553e 90e7 9d3b 1c77 193f af24 33bd
000003a0: 7642 74bd 30dd 4a3e 45ee 093d 4ba4 833e
000003b0: c0fa 0dbe 0e88 01bc 059e 21be a1fc 0bbe
000003c0: d80f e2bd dbd4 073f 9c05 1a3e 3d8c f63c
000003d0: 36cd 26bd 9e21 1cbe d349 c9bb 7565 abbd
000003e0: e5b1 8cbd 1e0d e0bd 19f4 3ebe 5682 fcbd
000003f0: 8f1d c13a d367 18bd 934d 44bd 216f ebbd
-0.060810275 0.26806074 -0.024570195 0.00027665013 -0.13809265 -0.08929878 -0.1167729 0.65064985
-0.01941259 -0.047749728 0.006793827 -0.06913144 -0.04849423 -0.026324023 -0.093093164 -0.039990876
-0.0112069305 -0.025384823 -0.016259743 -0.061633624 -0.074881345 0.3221336 -0.07858706 -0.066955
0.06320907 -0.08305773 -0.06505018 -0.04168673 0.61034 -0.022195293 -0.17428009 -0.114685364
-0.027159749 -0.058360785 0.060961444 -0.119808234 -0.09160429 -0.07457014 -0.10701939 -0.054002292
-0.061441775 -0.12783611 -0.06357663 -0.104707085 -0.030684484 0.06569298 0.010905886 0.03937772
0.6465254 -0.102535106 -0.06680254 -0.040973954 -0.015495708 0.014091754 -0.078274556 -0.050097074
-0.062874794 -0.048688494 -0.018170517 0.043041617 0.01364596 -0.07192899 -0.040990017 0.003667327
-0.10112458 -0.030041242 0.022598816 -0.0034988 0.6984473 -0.09164367 -0.08505297 0.047525473
-0.028641725 0.015592698 0.31270164 -0.036347 0.16927114 -0.10949914 -0.07877627 -0.06540592
0.031804502 -0.013336488 0.0019543301 -0.054080475 0.0050580986 -0.0333801 -0.06272733 -0.16561934
0.07669696 0.363611 -0.098278366 -0.13213733 -0.048489504 -0.14434606 -0.120661266 -0.094935715
-0.022943344 -0.04477538 -0.17784655 0.63576484 -0.06405321 -0.07293614 -0.027626088 -0.06768462
-0.106041506 -0.23153675 -0.03583165 -0.105837196 -0.031665213 -0.23312089 -0.0014586204 0.0064522666
0.030516153 -0.015813513 -0.060739793 -0.13377053 -0.031080326 0.005010216 -0.084638566 0.41578475
-0.11916245 -0.08590502 0.0099345 0.048686024 -0.09629462 -0.059780702 -0.03825517 -0.061932784
-0.23733166 -0.23601048 -0.0563437 -0.046396893 -0.07959596 -0.15051179 -0.09924242 -0.1111451
-0.03610828 -0.03618028 0.1698233 -0.13305746 0.3985175 -0.12184509 -0.11811653 -0.08893934
-0.065019615 -0.07224616 -0.06748427 -0.11285666 0.52300817 0.30497456 -0.14011018 0.18589222
-0.06238017 -0.040357947 -0.15419345 0.5277068 -0.1889883 -0.19363669 -0.16621518 -0.12225058
-0.06485732 0.27290764 0.43757835 -0.12116994 -0.17897895 -0.13120258 0.08697152 -0.082033284
-0.07090099 -0.20213887 -0.13635306 -0.1806375 -0.056362256 0.19887473 -0.09221197 -0.05913892
-0.09443988 0.026127785 -0.1579754 -0.22807775 -0.070874006 -0.07816088 -0.15346871 -0.05080237
-0.11377035 -0.11748683 -0.059288453 -0.027041832 -0.14356653 -0.13063194 -0.09257817 -0.121952
0.18169023 0.14754419 -0.13539858 -0.1680295 -0.17260177 -0.00049349887 0.5205611 -0.14584209
-0.13896963 -0.17780554 -0.14544435 0.050964788 -0.020296184 -0.02697663 0.54827374 -0.04064378
-0.1812591 -0.122319944 -0.18388224 -0.04868376 0.09437578 -0.04535697 0.12807609 0.15289755
-0.08320539 -0.08743688 -0.005214047 0.065542184 0.04817828 -0.049122646 -0.020117633 0.4926355
-0.14183319 -0.03323798 -0.042708963 -0.1438276 0.20840028 0.004818864 0.5994737 -0.043736156
-0.059633695 0.19810939 0.033674497 0.25711283 -0.13865185 -0.007905973 -0.15782936 -0.13670589
-0.11038178 0.53059167 0.15041202 0.030096168 -0.04072305 -0.15247199 -0.0061428337 -0.08368961
-0.06869868 -0.10940002 -0.18647803 -0.12329547 0.0014733541 -0.03720839 -0.047925543 -0.114958055

top_layer.bias f4 [10]
00000000: b20d 1bbc 5f39 13bb 8114 9b3c 5772 a2bb
00000010: b62b 12bc f1e8 f93c 0688 e8bb ff6f a5bc
00000020: 7145 2b3c 15ba e5bb
-0.009463714 -0.0022464616 0.018930675 -0.004957478 -0.008921554 0.030506583 -0.0070962934 -0.020195005
0.010453568 -0.007010708

momentum_buffer f4 [16, 1, 3, 3]
00000000: 733d 93bd d368 33bd 4ec8 de3c 3dc9 b0bd
00000010: 2a88 36bd 4cf0 be3c 4c7e 6fbc a9dc 16bc
00000020: 5348 2d3d e047 05bd 945a 79bc e82e 3e3d
00000030: 1fb9 1d3d 7b9b d03d f528 ef3d 32a5 a13d
00000040: b00a 0d3e 2c6a ad3d e951 7b3c 74fd 533d
00000050: d4f3 7b3c b178 9a3d b2a1 f03d 444b c33d
00000060: 47a4 a73d 376f b63d 32c8 ec3d 4a4f 613c
00000070: d02b 4b3c 560b 38bc db50 913d 2c9f 3e3c
00000080: 12ec d3bc 0c59 833d 804e 11bd 3fbd 00bd
00000090: b675 c9bd 90cf f73a 4aa5 853d 9054 8cbb
000000a0: c00e 843d bed2 a23d e2cb dd3c b829 a03d
000000b0: 3f64 c23c 4e30 ee3d 39a6 e73d 10d2 463d
000000c0: 5455 973d 6aad 723d 1b57 293d d134 7c3d
000000d0: e04d 073d 2199 9c3c 64aa 683d c44a dc3d
000000e0: 6514 813d 8224 7e3d 4f17 c03d 4035 8e3d
000000f0: f08f 153d a20f 8c3d e007 d13d e42e e63d
00000100: 1824 0c3e f829 1b3d 4fe1 ff3d 16ab e93d
00000110: b76f 493c 202c a13d 2c2f 773d 950e a4bc
00000120: 56cf 7b3d 94bc a43d 7eea 033e 63c5 4b3d
00000130: 411b 763d 7419 f93d 7c1b 8a3d 0a9f 443d
00000140: 0b3b c73d f0ff 013c 320f 2f3b 20d3 4c3b
00000150: 443b 8fbb fce6 64bd 3aea 29bd 42d0 85bc
00000160: d6b4 98bd 3df4 e1bd f756 0dbc e43d 833c
00000170: f282 5b3c 3936 2abd b7dd a6bc c015 0f3b
00000180: 337e acbd 08c2 7cbd 85c6 13bd 0a97 8f3b
00000190: d2ba 1b3d 8041 823d 4e19 d83c 7076 143c
000001a0: b415 8e3c e544 303d 12f4 7d3c 2048 c53a
000001b0: 4ac4 fa3d 9c72 2f3e 4746 4a3e 3cd2 983d
000001c0: 25b3 f53d 9416 e53d ec57 623d 2237 613d
000001d0: 7d17 8b3d c356 913e 91c8 1d3e 4644 5a3d
000001e0: 88f6 b13e 1ae8 393e 304b 8c3d b692 863e
000001f0: 60ec 963d b0ac 25ba cc95 07be d809 19be
00000200: 86c6 07be 9f77 8cbd 91b9 bbbd c7ff 9fbd
00000210: b4cc 53bd e47b c0bd c06b 8cbc 8e41 fb3d
00000220: 1c44 bb3d 0479 4b3d 3214 1c3e 8c33 293d
00000230: 20b2 373b 81c6 953d 442d 9c3b 06b3 213c
-0.07189455 -0.04380114 0.027195122 -0.08632133 -0.04456345 0.023307942 -0.014617514 -0.009207883
0.042305302 -0.03253925 -0.015219349 0.046431452 0.038506623 0.101859055 0.11677734 0.07892837
0.13773608 0.08467516 0.015339353 0.051755384 0.015377957 0.07542551 0.11749591 0.0953584
0.0818563 0.08907931 0.11561622 0.013751814 0.012400582 -0.011233171 0.070955 0.011634629
-0.025869403 0.06413469 -0.035475254 -0.03143048 -0.09836905 0.0018906463 0.06525667 -0.0042825416
0.06448126 0.07950352 0.027074758 0.07820457 0.023729442 0.11630307 0.11311001 0.048540175
0.07389322 0.05924741 0.041342836 0.061573807 0.03303325 0.019115986 0.056803122 0.10756448
0.06302718 0.062046535 0.09379446 0.069437504 0.036514223 0.06838919 0.1020658 0.112394124
0.13685644 0.03788182 0.12494146 0.11409585 0.012294701 0.07869744 0.06034772 -0.020026485
0.061477028 0.08043781 0.1288242 0.04974879 0.060084585 0.12163058 0.067435235 0.048003234
0.097280584 0.007934555 0.0026711938 0.003125377 -0.0043710787 -0.055884346 -0.04148314 -0.016334657
-0.07456367 -0.11032913 -0.008626691 0.016020723 0.013397919 -0.041555617 -0.020369394 0.0021833032
-0.08422508 -0.06170848 -0.036077995 0.004382019 0.038019963 0.063601494 0.026379254 0.009061441
0.017344333 0.043034453 0.015500085 0.0015051402 0.122444704 0.17133564 0.19753371 0.07461974
0.1199706 0.11185947 0.05525963 0.05498422 0.067915894 0.28386506 0.15408541 0.053287767
0.347584 0.18154946 0.068502784 0.26283807 0.07369304 -0.0006319983 -0.13240737 -0.14945161
-0.13259324 -0.068587534 -0.09166253 -0.078124575 -0.051708892 -0.0939863 -0.017141223 0.12268363
0.0914385 0.049675956 0.15242079 0.041308925 0.0028029755 0.07313252 0.0047661383 0.009869343

momentum_buffer f4 [16]
00000000: 7c2f bfb6 be6c e436 6ebc 8d37 c07b de37
00000010: 4832 fa37 b2e5 d9b7 275f 0a37 2b37 6cb7
00000020: 627d 70b6 2cb4 cdb7 d996 fa37 0585 c9b7
00000030: 5cc6 9237 d5dd 4037 51be 3237 ae0e 95b7
-5.6977715e-06 6.8075888e-06 1.6896254e-05 2.6522088e-05 2.9825736e-05 -2.5975376e-05 8.247595e-06 -1.4079541e-05
-3.583577e-06 -2.4521803e-05 2.9872566e-05 -2.402301e-05 1.7496925e-05 1.1495741e-05 1.0653938e-05 -1.776902e-05

momentum_buffer f4 [16]
00000000: f8af dd3d 2a2b b6bd 2514 72bc bf3c 83bc
00000010: fa48 9e3d 963a 323d 90d2 a23d b52a 143e
00000020: 10b6 5b3b f649 873c 0536 893d b1f3 7ebd
00000030: e0af 2ebd 10a1 22bd fa67 d6bd dc28 89bb
0.10824579 -0.08894952 -0.014775311 -0.016020177 0.07728763 0.043512903 0.07950318 0.14469416
0.0033525266 0.01651476 0.066997565 -0.06224412 -0.042648196 -0.039704382 -0.10469051 -0.004185779

momentum_buffer f4 [16]
00000000: 068c 7f3d 89f6 e7ba 70a7 0fbd 9ce1 ecbc
00000010: bfca ab3d d04b ba3b c275 4c3d b25c d43d
00000020: 969c 2c3d 64d2 183d 6835 873d 288d f4bd
00000030: c425 30be e650 fabd 9a96 86bd 7cfd 95bc
0.062389396 -0.0017697375 -0.03507179 -0.028916173 0.0838828 0.005685307 0.04991699 0.10369243
0.04214152 0.03731002 0.06601983 -0.11940986 -0.17201906 -0.122224614 -0.06571694 -0.018309347

momentum_buffer f4 [32, 16, 3, 3]
00000000: ca8e 4dbc f1b0 9fbc 46e1 ec3c 7284 73bc
00000010: 7c0f 543c bae3 ea3c ff9c 6c3b 3015 cd3c
00000020: b560 8d3c deed 993c 93fc 393c b07d 953c
00000030: 9654 02bb a60c fc3b 24d2 a03c d2f7 0bbb
00000040: 1c3b ae3b 7d05 703c 98ce 88bc 6cec c9bb
00000050: b82f 0d3d a653 2ebd d821 783c 3264 e63c
00000060: bc82 78bb cdb5 f13c fe89 263c 6cf8 b7bc
00000070: 4df8 98bc 1969 2f3c 00ec 31bc f575 773c
00000080: 123a 683c ab71 2a3c d956 a13c e6f1 893b
00000090: 166b 1b3d 8139 e73b 7870 953c f7bf 083d
000000a0: 23c9 813c dcb6 023c a49b bc3c 8a22 0d3c
000000b0: dce5 6a3c 8e8c 49bc 68e8 30bc 1e5e 0d3b
000000c0: c407 70bb 4c27 6e3c 4406 e83c 1a73 733c
000000d0: f98c f03c 2e00 213d 27df bd3b a64c d4ba
000000e0: a9b3 c13b d838 e83b 6d41 7b3c 9a3b 863c
000000f0: a6e8 263c 2cd1 903c 8488 523c 08c8 a8ba
00000100: 00d2 70bb 33a4 49bc 48b6 f2bb 285a 623b
00000110: 7102 863c 20dd 07bb 474e 573b 348f 5b3b
00000120: 7926 adbb 6cc6 5b3c f6f3 fa3c 9215 eabb
00000130: 3c85 ab3c 0eba cc3c 9c56 5f3c 234d fc3c
00000140: 2f14 a73c acfa 283c 689e 5e3b 7940 493c
00000150: 2d2a a83b 3475 0239 5e6f c73c 01f4 93bc
00000160: 01ce aa3b fc6b 163d 14de 02bc 0af9 d9bc
00000170: b888 473a 40d4 b23b f9c0 dabb db34 23bc
00000180: f86e b33c 5009 2cba 6e28 69bc c835 a3bb
00000190: 4cb1 d7bb 94e5 abbc 9e23 36bb a41d 83bc
000001a0: 367f 79bc 106e 68bc bcae 99bc 6a72 3fbc
000001b0: 400b 4f39 4a62 33bc b0e6 99bc 738c 0f3b
000001c0: 3d2d afbb e83c e5bb 9c32 21bb 5fd2 02bb
000001d0: 1c0e cc3b 68fd 71bc c4e0 5c3a 37aa 6f3c
000001e0: e56c 17bc 4859 58bc 8c86 08bc 40eb a739
000001f0: 08ef e6bb 0aff bbbc 2a29 b43c 12c0 803c
00000200: 198b 03bd bf57 013d 4408 a6ba 465d f2bc
00000210: 354f 823c 7e8f 1fbd fc84 6abb f812 31bc
00000220: ebb7 f1bb b6c9 20bc ef5e 3abc 3910 e3bb
00000230: f274 b93c 0810 bdbb 4861 3d3c 5ea1 053d
00000240: cdc9 0c3c c7e0 8c3b 18ba e03a accb a33c
00000250: d1d3 8f3b 7305 c93c e85e 043c b715 843c
00000260: 9ed6 083d 2b50 143d 849a b03c c6e5 0a3d
00000270: 2f4d 9d3c fa78 8c3c 1497 7ab9 cea2 08bd
00000280: 09fb f1bb 9cef 9b3c 5290 c23c 70be 7bba
00000290: ba6c 27bc b10e a23b 91a8 0bbc 8bda 2bbc
000002a0: 806e 00bc 2e44 1cbc 0200 23bc aa67 d03b
000002b0: 9bfe 273c 6788 993b 68e9 093c 39c2 dc3b
000002c0: 27e1 6e3b b8e1 ee3a fedc 873a 0e51 033b
000002d0: c981 1abd 3d6b aabc d760 bb3c be8e 81bd
000002e0: 486e 2dbd aa8f 293c 30af aebd ead2 34bd
000002f0: e7fa ae3a cdc2 303b 3a83 d73b 425a c63c
00000300: a62a 7c3c 462b e53c e809 563d 7dda 8a3c
00000310: 4324 283d f6b0 b43d d3fd 9a3a 10a9 c43b
00000320: 8aa3 d73b f845 283d 6af2 cd3c 0f8c a73c
00000330: 491e 783d 78c4 7f3d 452f dc3c d8a0 ab3c
00000340: 4e4d 383c 772f 8cbc ed48 613c eafb 0b3c
00000350: 0f6f 11bc 1d01 71bb 5a6a 14bb 3e51 aeba
00000360: 40ee c63b 336a c13c 0940 06bd 0059 063b
00000370: f386 f8bc 50ac c0bc 98ed 41bc bc99 21bd
00000380: 3135 5dbd d624 473d b898 203c 639c b63a
00000390: 1c6f 9a3c 8f54 053c 10d2 cb3a 382c 263d
000003a0: a850 833c 2c70 c33a 98e1 8ebc 19e5 4d3c
000003b0: a966 47bc df9e 913b fcb4 403c ca10 343d
000003c0: 850f 5d3d 21d7 393d 9476 5bbd 4aaa 82bc
000003d0: 6d13 52bc dfe8 a0bc e229 46bc 5812 77bc
000003e0: 6b6c 44bc e463 2c3c 7857 81bc 46bb 2abc
000003f0: c8de e8ba 2abc 02bc 64fa ffbb 0f06 eebb
-0.012546251 -0.019493552 0.028916012 -0.01486312 0.012943145 0.028673042 0.003610432 0.025034517
0.017258028 0.018790182 0.011351722 0.018248409 -0.0019886843 0.0076919375 0.019631453 -0.002135743
0.005317105 0.014649746 -0.016700074 -0.006162217 0.034469336 -0.042560242 0.015144788 0.028123949
-0.003791972 0.029505635 0.010164736 -0.022457324 -0.018673087 0.01070621 -0.010859489 0.015103807
0.014174001 0.010403077 0.019694733 0.0042097447 0.037943922 0.0070564155 0.018242106 0.033386197
0.01584298 0.007978167 0.023023434 0.008614192 0.014337029 -0.012301577 -0.0107975975 0.002157099
-0.0036625722 0.014535736 0.0283233 0.014858985 0.029364096 0.039306812 0.005794424 -0.001619716
0.0059113097 0.0070868544 0.015335423 0.016385842 0.010187304 0.017677866 0.012849931 -0.0012876997
-0.0036746264 -0.012307215 -0.0074069835 0.00345386 0.016358586 -0.0020731166 0.0032853053 0.0033502104
-0.0052841273 0.013414007 0.030633908 -0.0071436847 0.020937555 0.024991062 0.013631489 0.0307985
0.020395366 0.010313671 0.003396893 0.012283438 0.005131981 0.00012441428 0.024345096 -0.018060686
0.005212546 0.036724076 -0.007987518 -0.026608009 0.000761162 0.005457431 -0.006675836 -0.009961332
0.0219035 -0.0006562667 -0.014230831 -0.0049807765 -0.0065824147 -0.020983495 -0.0027792226 -0.016005345
-0.015228083 -0.014186397 -0.018760078 -0.011684993 0.0001974525 -0.010948727 -0.018786758 0.0021903783
-0.005345969 -0.006995786 -0.0024596816 -0.0019961817 0.006227268 -0.014769889 0.00084258267 0.014627985
-0.009242271 -0.01320488 -0.00833286 0.00032027997 -0.0070475377 -0.02294876 0.021992285 0.015716586
-0.032115076 0.03157782 -0.0012667258 -0.029585492 0.01590691 -0.038955204 -0.0035784831 -0.010807745
-0.007376661 -0.009813717 -0.011375173 -0.006929424 0.022638772 -0.0057697333 0.011558838 0.032624595
0.008593035 0.0042992565 0.0017145304 0.01999458 0.004389264 0.024538731 0.008079268 0.016123636
0.0334078 0.036209267 0.021558054 0.033910535 0.019201843 0.01714753 -0.00023898139 -0.033358388
-0.007384662 0.019035153 0.023750458 -0.00096032675 -0.0102187935 0.004945599 -0.008524076 -0.010489116
-0.007838845 -0.00953774 -0.009948732 0.006360014 0.010253574 0.00468545 0.008417465 0.0067370203
0.003645012 0.0018225228 0.0010365543 0.0020037326 -0.03772143 -0.020803088 0.022873325 -0.06326054
-0.0423415 0.010349194 -0.08529508 -0.044146456 0.0013349921 0.002697158 0.0065769227 0.02421296
0.015391028 0.027974736 0.05225554 0.016949886 0.041050207 0.08822815 0.0011824913 0.006001599
0.0065807747 0.041082352 0.025140006 0.020452527 0.060575757 0.062443227 0.026878009 0.02095072
0.0112489 -0.017112477 0.013750297 0.008543948 -0.008876576 -0.0036774345 -0.0022646398 -0.0013299359
0.006070882 0.02361021 -0.032775912 0.0020499825 -0.030337786 -0.023519665 -0.011836432 -0.039453253
-0.054005805 0.048619114 0.009802036 0.0013932105 0.01885181 0.008137836 0.0015550274 0.040569514
0.01602967 0.0014910749 -0.017441556 0.012566828 -0.012170472 0.0044439877 0.0117619 0.043961324
0.05396988 0.04537118 -0.05357988 -0.01595034 -0.012822014 -0.019642292 -0.012094947 -0.015080057
-0.0119887395 0.010521863 -0.015788779 -0.010420626 -0.0017766589 -0.007979432 -0.0078118313 -0.007263906

momentum_buffer f4 [32]
00000000: a2b8 0b36 5e94 8936 158b fbb6 07ea bfb6
00000010: 3037 04b7 22bb 8036 2224 cf36 7111 04b7
00000020: 9376 0b36 f78f de35 e087 92b6 3b49 f035
00000030: ad5f d236 37d4 0637 5e10 6d36 41d8 dab5
00000040: ab8d 9cb6 a4d0 52b6 226b 7533 1837 21b5
00000050: 46b5 c736 be7c f8b6 e932 4735 6b7f 2cb6
00000060: df8e 3235 c0f9 0337 cf6f 8134 04ca c0b5
00000070: acd6 3ab6 0eb6 08b7 0c52 f8b6 708e 6d36
2.0820085e-06 4.1001904e-06 -7.496574e-06 -5.719488e-06 -7.880662e-06 3.8364824e-06 6.173287e-06 -7.871874e-06
2.0781633e-06 1.6582188e-06 -4.366957e-06 1.7902706e-06 6.269626e-06 8.0364325e-06 3.532528e-06 -1.6305204e-06
-4.6656546e-06 -3.1413883e-06 5.7140944e-08 -6.0057346e-07 5.951765e-06 -7.405498e-06 7.420736e-07 -2.5704164e-06
6.651807e-07 7.866358e-06 2.4109474e-07 -1.4363909e-06 -2.7841115e-06 -8.14862e-06 -7.4005275e-06 3.5398662e-06

momentum_buffer f4 [32]
00000000: 5d61 e53d 74a1 8c3d c758 7e3c 88f2 aebd
00000010: b002 853c eec6 0dbd 69a0 11bd 9cb2 ec3c
00000020: f934 883d e87a efbd ac09 073e 596e 13bd
00000030: c31f 82be 7803 3ebd 9d2f c73d 2a96 d7bd
00000040: e2fa b1bc d8e1 a8bc d7dc 0a3d 6965 893c
00000050: ccee db3c d8e2 343d 75e5 cf3d 730e 65bd
00000060: a9de 823d 3e83 3abd 31d4 8dbd e8ea 06bd
00000070: c64d 5abc 5a85 3c3c 552b d6bc d484 703d
0.11200211 0.06866732 0.015524096 -0.08542353 0.016236633 -0.034613542 -0.03555337 0.028893761
0.06650729 -0.116933644 0.13187283 -0.035993908 -0.25414857 -0.046390027 0.097258784 -0.105266884
-0.021726076 -0.020615503 0.033902016 0.016771989 0.026847266 0.044161648 0.10151187 -0.055921983
0.06390125 -0.04553532 -0.06925238 -0.032938868 -0.013324207 0.011506403 -0.02614371 0.058720425

momentum_buffer f4 [32]
00000000: 10a2 063e f8ee 6d3d e8f1 203d 72a8 9abd
00000010: 18e8 5b3c acbf 04ba 2618 c1bc 2171 933c
00000020: d25e e83d 8239 90bd 85f2 2b3e 7699 c0bc
00000030: 4a22 15be 24cb a3bb fad1 263e 468f 78bd
00000040: 6727 ebbc fc2d 32bc 28c2 463b 8773 953c
00000050: 27c9 e33c 4e38 053d e832 b23d 722a 33bd
00000060: 9bcf c43c d5a7 0dbd 8322 2fbd 5ed9 28bc
00000070: 1b80 64bc f01f a7bb cc24 b9bc 8a67 cd3c
0.1314776 0.058089226 0.0392932 -0.0755166 0.013422035 -0.0005063962 -0.023571085 0.01799828
0.113462105 -0.07042219 0.16791733 -0.023510676 -0.14563861 -0.0049985815 0.16291037 -0.06068351
-0.028705312 -0.010875221 0.0030328128 0.018243564 0.027805878 0.0325244 0.08701116 -0.04374165
0.024024775 -0.034583885 -0.042757522 -0.010305731 -0.013946558 -0.005100243 -0.022600554 0.025073785
