deepcluster_implementation/experiments/run_20250107_180402/config_3/final_model.pth.tar (torch, 203365 bytes, 32 tensors)

features.module.0.weight f4 [16, 1, 3, 3]
00000000: a90b 653f bced 6c3e 0e51 eebe 5c71 87be
00000010: f61e b73d dd5e a63d 5022 29bf 632a 98bb
00000020: 5786 763f 6614 10be d2c3 343e b854 363f
00000030: 2a09 d6be de77 b1be 78b7 b2bc 6760 ff3e
00000040: e182 d23e baf7 ec3d 90e4 21bf 6445 0fbe
00000050: daec 25be df03 07bf bd65 023f 887a d53e
00000060: 5f79 26bf a3f7 b5be 6d7c 67be 7b94 94bf
00000070: 95de 62bd 5bb2 26bf d264 583c c6f0 103e
00000080: cc2a 58bd 6d2b 123f 5474 fdbc 1d5e cd3e
00000090: 1c57 0d3f 358a 5b3c 1a53 f43e 2585 f2bd
000000a0: e2be 20bf 5995 a3bd a8ba 273f b3c4 c9bd
000000b0: b496 253f a121 b83e b881 af3e 9917 013f
000000c0: 7ca8 9dbe 6f6c e93d 29f6 45bf 6714 19bf
000000d0: 96ff 73be f028 f3be 8bd5 353d a003 0e3d
000000e0: 2c9a 663e b99e 9dbe cc3b 1e3f 2296 bc3e
000000f0: e712 71bf b2e2 01bf 1f2a 4abf f3cf e83e
00000100: b648 55bd 9bcc 2ebf 7a38 0b3f 46bc 86be
00000110: 0d9a 00bf d6e9 583e 4d2a 683e 610c 913f
00000120: bf8e 1f3f 123d 0dbe 1cbb 04bf f882 24bf
00000130: b432 83be 3ad6 a5bd 079c a53e e185 8e3e
00000140: 202a 08bf 462c 33bf 907e 11bf a1ff c3be
00000150: bbea 413e cab7 ff3e e757 063f 82eb 28bf
00000160: 95ae cbbe 664e 943d 6c84 4cbd 3e0a 3cbf
00000170: 3aef 8e3f 92c5 5b3e 35b0 57bf a70a c63e
00000180: 4b30 423f 1148 2bbf a894 adbd f63e 32bf
00000190: beb4 6c3b 7795 803e d51b 3bbe bf17 a33d
000001a0: 0c61 9e3e 61a1 afbe 0824 86be 823c 50bf
000001b0: 2451 2dbf 591a 4dbc e7d0 923d 2135 a2be
000001c0: 5ecc ca3e 375e 5b3c deea 0cbf 044b c7be
000001d0: 0003 1f3f 04cf 5dbe 1853 3abd 0dde c7be
000001e0: c7eb f23c d3cd 94bc effb 9f3d 2ac8 3cbe
000001f0: b6e2 9b3c 2c68 febe f9ed 1fbf 2f2e 15bf
00000200: 2322 e5be a4d9 dfbe b856 aa3e 74e9 7e3d
00000210: 00d1 16bf f0ea 9e3e 53bc a63e 1b80 ddbe
00000220: 93fa 38bf 7790 0cbf 01af 1f3e ec8c e43e
00000230: ec85 f7be 50f6 bd3e 19ac 843e fcfd 40bf
0.89470917 0.23137563 -0.46546215 -0.26453674 0.08941452 0.081235625 -0.6606798 -0.0046437248
0.96298736 -0.14070281 0.17652825 0.7122302 -0.41803867 -0.34661764 -0.021816 0.49878237
0.41115478 0.115706876 -0.63239384 -0.13991314 -0.16203633 -0.5274028 0.5093649 0.41695046
-0.6502895 -0.35540494 -0.22606058 -1.1607813 -0.055388052 -0.651159 0.013207631 0.14154348
-0.05277519 0.5709751 -0.030939259 0.40110865 0.55211043 0.01339965 0.4771965 -0.118418016
-0.62791264 -0.0798747 0.6551919 -0.098519705 0.6468308 0.35963157 0.34278655 0.5042663
-0.30792606 0.11397635 -0.77328736 -0.59796757 -0.23827967 -0.4749217 0.044393104 0.034671426
0.2251975 -0.30785158 0.6180999 0.36833292 -0.9416947 -0.50736535 -0.7897052 0.45471153
-0.052071296 -0.68280953 0.5438305 -0.26315516 -0.5023506 0.21182951 0.22672386 1.1331903
0.6232719 -0.13792828 -0.51848006 -0.6426234 -0.2562462 -0.08097501 0.32345602 0.27836516
-0.5318928 -0.6998943 -0.56833744 -0.38280967 0.18937199 0.49944907 0.5247788 -0.65984356
-0.39781633 0.07241516 -0.049930975 -0.7345313 1.1166756 0.21462086 -0.84253246 0.38680002
0.7585494 -0.6690684 -0.084756196 -0.6962732 0.0036118473 0.25114033 -0.18272336 0.079635136
0.30933416 -0.3430281 -0.26199365 -0.8134233 -0.67701936 -0.012518489 0.07168751 -0.3168116
0.39609045 0.013389162 -0.5504588 -0.3892442 0.6211395 -0.21661001 -0.0454894 -0.390366
0.029653443 -0.01816455 0.078117244 -0.18435732 0.019029003 -0.49688852 -0.6247249 -0.58273596
-0.44752607 -0.43720734 0.33269286 0.062234357 -0.5891266 0.31038618 0.32565555 -0.432618
-0.72257346 -0.54907936 0.15594102 0.44638765 -0.48344362 0.37101984 0.2591255 -0.7538755

features.module.0.bias f4 [16]
00000000: c4a7 67bd aa1b 8c3d 2c25 2d3e 5161 873e
00000010: 38c4 983e cbf7 84be 93d0 a83d 9042 10be
00000020: 2c04 13bd db09 7bbe b9bf 983e 8f29 76be
00000030: e03f 333e 67bd eb3d 86f9 d93d 6454 35be
-0.05655648 0.06841214 0.16908711 0.26441434 0.29837203 -0.259703 0.082429074 -0.14087892
-0.03589265 -0.24515478 0.29833773 -0.24039291 0.17504835 0.11510735 0.10643296 -0.17707974

features.module.1.weight f4 [16]
00000000: 4dcd 153f 2f96 253f aea2 b73f 0764 213f
00000010: 5d5b f03e 9127 3d3f 9d99 4d3f e0cf 333f
00000020: a618 863f 2590 a43f 7eed d83e ac1a e63f
00000030: d8f3 373f f3ee dc3f eb01 ab3f c613 bf3f
0.5851639 0.64682287 1.4346521 0.63043255 0.46944705 0.738885 0.8031252 0.7023907
1.0476272 1.285649 0.42368692 1.797689 0.7185645 1.7260422 1.335996 1.4927909

features.module.1.bias f4 [16]
00000000: c677 66bf 4e3d 94bf d21f cebe 45d5 d0bd
00000010: e40b f3be 6627 88be 7e74 41be 4907 aebf
00000020: 8ff1 e0be ee99 f5be a954 bdbc b3e0 3fbf
00000030: b919 8cbe 68c2 0cbf ef68 d1be 82d9 01bf
-0.9002651 -1.1581209 -0.40258652 -0.10196928 -0.4747001 -0.2659256 -0.18892094 -1.3595973
-0.43934295 -0.47969002 -0.023111658 -0.7495224 -0.27363375 -0.5498414 -0.4090037 -0.50722516

features.module.1.running_mean f4 [16]
00000000: b01b 0abd 8927 dc3d 612a df3d 6256 733e
00000010: 2ae9 ba3e 9b60 90be d800 fe3c 7d3e d3bd
00000020: 93e9 4cbd 00c1 99be 941c ac3e b111 96be
00000030: 1b53 173e 479a 9c3d b809 5c3d 46d0 6bbe
-0.03371781 0.10749728 0.10896755 0.23763421 0.36506015 -0.28198704 0.031006262 -0.10314653
-0.05002744 -0.3003006 0.33615553 -0.29310372 0.14777796 0.076466136 0.053720206 -0.23028669

features.module.1.running_var f4 [16]
00000000: 896d 823f afe5 713f 124f 1540 9bb2 da3f
00000010: 7494 8d3f 882c fa3f d173 0040 4852 d13f
00000020: d0f7 8f3f 74f2 df3f 1463 2b3f ef7e 0140
00000030: dbc3 a83f 471c 6b3f 0489 3e40 367d 1f40
1.0189677 0.94491094 2.332951 1.7085756 1.1060929 1.954484 2.0070689 1.6353235
1.1247501 1.7495866 0.66948056 2.0233724 1.318477 0.9184002 2.9771128 2.4920173

features.module.4.weight f4 [32, 16, 3, 3]
00000000: 2c12 0dbd 5b19 1dbc b5bd 5cbd e103 8f3d
00000010: 7381 613d 3dd2 be3c 698a 76bc 0e54 0b3d
00000020: 3d60 ac3c fb1f 1cbd 2001 3abc fbea 79bc
00000030: b803 3ebd 8366 ba3c 02ca dbbb 6823 38bd
00000040: 6079 4cbd a1a2 babd bb76 563c 72a3 95bc
00000050: dead 323d d912 b23d 2eff 9c3d ed0e 8a3d
00000060: 5fe4 acbe 83d8 a6be b1e8 88be 3757 14be
00000070: beec c5bd f1ff 9abc c07e 0dbe 90fb c8bd
00000080: dffe dfbc 1572 75be 03c4 48be d2d0 58be
00000090: d0a3 22bd c7a6 e83b aac3 cfbd c125 bcbd
000000a0: 80dd 18bd 288d 00be d349 94bd dfb9 7dbc
000000b0: 59f1 82bd 19ee f93c 674f 9cbc 2072 50bc
000000c0: 74e8 913c f172 31bd 27e7 c2bc 39a9 a5bc
000000d0: 9473 0a3d 9c86 34bd 13e4 e43d 6fdb 473d
000000e0: 2f35 eabc e6d4 9b3d d19a 3cbd f85c a9bb
000000f0: 6ac6 f4be f892 d8be 84dc ecbe a030 59bb
00000100: 358d 1ebd 1987 b1bd a1fb 1bbc 55b1 d93b
00000110: 862b b3bd 76aa 12be f0ee e9bd 59fb 35be
00000120: 6b77 663d 1c25 d5bc 84d7 a2bc 4028 703e
00000130: 5b67 52bb 2c44 8ebc 3e61 1c3e 8a46 a6bc
00000140: a7f8 37bd cdcf 3dbd 134b 66bc 880d 413d
00000150: a406 adbc cf2e 7c3d 4460 ad3c 6231 09be
00000160: e193 b7bd e03a 11be bba5 c53c eea1 e1bb
00000170: b010 8e3d 9b49 7e3d a2bd 093c 7f63 063e
00000180: 5dc1 51bd 391b 93bd 9780 89bd 4f46 603d
00000190: cc6a 71bd cc92 343d 1de9 873d 963d 183d
000001a0: e3c6 dd3d bcd2 7bbe ceb7 68be 0aa8 6abe
000001b0: 81f2 c63d 8ad8 e03d e21f 573e 6943 bbb9
000001c0: 5437 12bd 408f 5f38 4636 09be 2b63 8cbe
000001d0: 53df babe 0cfa 4cbd c681 823b 45bf 96bb
000001e0: a37c abbd a481 b73d 9e32 0abb 2152 b7be
000001f0: 0efc 83be 1a50 83be 6554 e2bd 04f5 8a3c
00000200: 5764 3abd 2d34 45be 5f5b 40bd 04c9 f6bd
00000210: 6d17 67be 6c55 0bbe de78 5ebe ce5a dbbd
00000220: c678 94bd d23b fcbc 2d5b 3ebe 2e6c 8fbd
00000230: 513f 9fbd 23d1 7cbe a9af 40be 8189 36be
00000240: 5c7b 98bc a123 1bbd 7a66 ab3c 5bf6 89bc
00000250: ec48 c0bd 64dc 363c 502e 1f3d d4ac 7dbd
00000260: 4048 0abe 8d78 773d f639 063c 85b6 25be
00000270: bef8 e03c 1249 11be 1395 4bbe b933 73bd
00000280: 03f0 4bbe 0323 39be ec61 2e3c 5e35 aa3d
00000290: 2929 6b3d 80a9 b6bd 2847 e5ba a65a 94bc
000002a0: a958 ce3b 307e 8c3d 2b4d 8d3d 2a15 32be
000002b0: 5c91 d8bd d7bf fdbd c64a 3bbe 069c edbd
000002c0: 5e6a bfbc b53c 0cbe 4d21 0dbe 6754 a7bd
000002d0: ef7d c63d e5b8 a2ba 08f3 23be 962f c03d
000002e0: fc5a 663d ee3b edbd 5a8d 4a3d 25a1 9d3d
000002f0: 9172 85bd b7dd 3abd 645d ca3c b991 c3bc
00000300: c19f bb3b 4e6b 263d 355c 60bd b803 21bc
00000310: 4cab 4cbc b7f9 febd c6bd 85be 3191 01be
00000320: ed92 48be eaaa 02be cc3f 89bd 2ab6 e6bd
00000330: e9e6 bebd 209b f2bc 2d28 70bd ff77 393d
00000340: a707 18bd a81a fabd 2961 f43a 68e5 f33b
00000350: af7f b7bd 05ea 8abc 3946 9d3c 4b54 da3b
00000360: c5cd 353e 6e05 953d 265e 653d 11fc 703c
00000370: c34d 9bbc eda0 8d3d 6483 b13d 70dd 6d3d
00000380: 5820 573d a95c 35bd 7cf4 9fbd 5137 a3bc
00000390: df4c 78bd b73f babc bb6a 23bd cda7 a4bd
000003a0: 5ced 2039 d082 c9bc 2589 09bc cd88 2ebd
000003b0: bcea 26be 4252 92ba 3f3a 113d 9ac3 64bd
000003c0: a0c3 aa3e f613 a33d b171 7c3d 76ea babd
000003d0: cd7b 153c 366b c63c a607 34be 4211 0d3c
000003e0: c752 a1bc 4a8d 86bd 15d6 4c3d 5f1c 1a3d
000003f0: db55 8cbb 7c4f 96bd 215b 61bd 87a2 32bd
-0.03444116 -0.009588565 -0.053891856 0.06983162 0.055055093 0.023293609 -0.015047648 0.034015708
0.021041984 -0.038116436 -0.011352807 -0.015253778 -0.046390265 0.02275396 -0.006707431 -0.04495564
-0.04992044 -0.0911305 0.013089831 -0.018266413 0.043622844 0.08695001 0.07665859 0.06741128
-0.33767983 -0.3258706 -0.2674003 -0.14486395 -0.096642956 -0.01892087 -0.13817883 -0.09813607
-0.027343212 -0.239693 -0.19606023 -0.21173409 -0.039707005 0.0070999595 -0.10144742 -0.091868885
-0.037320614 -0.12553847 -0.07240643 -0.01548621 -0.0639369 0.030509042 -0.01908083 -0.012722522
0.017811038 -0.043322507 -0.023791863 -0.020222293 0.03380163 -0.044073686 0.11176314 0.048793253
-0.028589813 0.076089665 -0.046046082 -0.0051685534 -0.47807628 -0.42299628 -0.4626199 -0.0033140555
-0.038708884 -0.08668346 -0.009520442 0.006643454 -0.08748536 -0.14322838 -0.11422527 -0.17771663
0.05626623 -0.026018672 -0.019878156 0.23452854 -0.0032105062 -0.017366491 0.1527147 -0.020297308
-0.044914868 -0.046340752 -0.014055985 0.047132045 -0.02112133 0.061568078 0.021164067 -0.13397744
-0.089637525 -0.14182615 0.024126878 -0.0068857586 0.06936777 0.062081914 0.008407028 0.13123892
-0.051209796 -0.07182927 -0.0671398 0.05475455 -0.05893974 0.04408531 0.0663626 0.037168108
0.1082895 -0.24592108 -0.22726366 -0.22915664 0.09714223 0.109788015 0.21008256 -0.00035717644
-0.035697296 5.3300755e-05 -0.1339961 -0.2741941 -0.36498508 -0.05004315 0.0039827554 -0.004600438
-0.08373382 0.08960274 -0.00210873 -0.35804847 -0.2577824 -0.2564705 -0.11051253 0.016962536
-0.045505848 -0.19258185 -0.04696214 -0.120500594 -0.2256753 -0.13606805 -0.21725795 -0.10710679
-0.07249598 -0.030790243 -0.18589468 -0.070030555 -0.077757485 -0.24689154 -0.18817009 -0.17825891
-0.01861351 -0.037875775 0.020922888 -0.016841104 -0.09388909 0.011160944 0.038862526 -0.0619324
-0.13504124 0.0604177 0.00819253 -0.16182907 0.02746236 -0.1418803 -0.19881086 -0.0593755
-0.19915776 -0.18079762 0.010643464 0.0831096 0.0574123 -0.08919048 -0.001749252 -0.01810963
0.00629719 0.06860006 0.06899484 -0.17390886 -0.105746 -0.12390106 -0.18290243 -0.11602025
-0.02336615 -0.13695033 -0.13782234 -0.08170395 0.09691989 -0.0012414722 -0.16010678 0.09384076
0.056239113 -0.11583696 0.04945121 0.076967515 -0.065159924 -0.0456216 0.024702735 -0.023873197
0.0057258313 0.040629677 -0.054775435 -0.009827547 -0.012492012 -0.12449973 -0.26121348 -0.12653042
-0.19587298 -0.12760511 -0.067016214 -0.11265214 -0.09321386 -0.029614985 -0.058632065 0.045280453
-0.037116673 -0.122121155 0.0018644679 0.007443119 -0.089599006 -0.016957292 0.019198524 0.0066628805
0.17754276 0.07276426 0.05599799 0.014708535 -0.018957978 0.0691546 0.08667639 0.058072507
0.05252108 -0.04427782 -0.078103036 -0.019923838 -0.060620185 -0.02273546 -0.039896708 -0.08039818
0.00015347212 -0.02459851 -0.008394514 -0.042610932 -0.16300482 -0.0011163431 0.03545594 -0.055850603
0.33352375 0.079627916 0.061631862 -0.09126751 0.009123755 0.024221044 -0.17581043 0.008610072
-0.019692792 -0.065699175 0.050008852 0.037624713 -0.0042826957 -0.07339379 -0.055018548 -0.04361203

features.module.4.bias f4 [32]
00000000: 8044 ae3c 2e50 283d ab50 99bd 67eb 69bd
00000010: 04f1 a0bd ef8f 1c3d 6c88 7b3d 891f a1bd
00000020: 525f ae3c 700a 883c 45fc 33bd f3ec 903c
00000030: fc4d 813d 5e7d a43d fe08 113d 3e02 85bc
00000040: 59d5 3ebd 9c79 ffbc 6f15 303a 320a c5bb
00000050: edba 743d 738c 97bd a37c ef3b 9758 d5bc
00000060: 28be df3b 4943 a13d 36fc 1c3b 33ad 68bc
00000070: 8d59 e3bc ae58 a7bd efee 97bd b622 123d
0.021272898 0.04109209 -0.07486089 -0.057109263 -0.0785847 0.038223203 0.0614094 -0.07867343
0.021285687 0.01660654 -0.043941755 0.017691111 0.063137025 0.080317244 0.035408966 -0.01623642
-0.046590183 -0.031185918 0.0006717061 -0.0060131783 0.05974858 -0.073998354 0.007308559 -0.02604322
0.0068280883 0.07874162 0.002395404 -0.01420145 -0.027752662 -0.08171211 -0.0741862 0.035677634

features.module.5.weight f4 [32]
00000000: 3d62 7b3f 8b11 fb3e 4207 163f d5bf 2e3f
00000010: 6453 7d3f 50d7 ff3e 2230 193f 8365 343f
00000020: 6c64 173f 8775 523f e030 e43e 6a1a 6f3f
00000030: b151 183f 2466 773f 6abf 043f e943 293f
00000040: ce76 4a3f 3c98 f83e 6456 2c3f 63c1 473f
00000050: 81fa 2b3f 9b89 073f 5739 2e3f bb9f 073f
00000060: 154b 6e3f b39b 073f 8c64 0b3f 64f1 8c3f
00000070: f4d5 213f 3daa 113f d918 6a3f 8d89 673f
0.98196775 0.49036822 0.58604825 0.6826146 0.9895537 0.49968958 0.5983907 0.70467395
0.59137607 0.8221058 0.4456854 0.9339968 0.5949965 0.9664023 0.51854575 0.6611925
0.7908753 0.48553646 0.6731932 0.7802946 0.67179114 0.52944344 0.68056244 0.52978104
0.93083316 0.52971953 0.544503 1.1011167 0.6321709 0.5690039 0.91444165 0.9044426

features.module.5.bias f4 [32]
00000000: 945d ebbf b6fd fabe dbb5 69bf 1b4f 64bf
00000010: 8909 53bf 064f 7ebf cdce cfbe 358e 9dbf
00000020: 0fdb 96be 98db a4bf baf7 b9be 6161 fbbf
00000030: b6f4 65bf 02d5 35bf 8596 e2be e700 08bf
00000040: 0644 53bf 6197 22bf da13 6bbf 2f92 0fbf
00000050: ef72 94bf d8fc babe 659c 04bf e5c4 83bf
00000060: cec2 62bf d943 44bf 483a 2bbf 2cb1 44bf
00000070: a635 0cbf 2d0b 5bbe faaf 20bf aca3 1dbf
-1.8387933 -0.4902169 -0.91293114 -0.89183205 -0.82436424 -0.9933933 -0.40587464 -1.2309023
-0.29464003 -1.2879515 -0.36321813 -1.9639093 -0.89826524 -0.7102815 -0.44255462 -0.53126377
-0.8252567 -0.63512236 -0.91827166 -0.56082433 -1.1597575 -0.3652103 -0.5180114 -1.0294462
-0.885785 -0.7666603 -0.66885805 -0.7683284 -0.5476936 -0.21390982 -0.6276852 -0.6157787

features.module.5.running_mean f4 [32]
00000000: d9f5 94bf 7489 f2be e988 97bf fa8b 36bf
00000010: 4b96 05bf 9a0e 84bf cebf 0fbe d222 b0bf
00000020: 85eb 1dbe a6a7 b8bf 05da cebe 88f2 b4bf
00000030: 24a0 59bf 11f7 aebe 80da 23bf eb34 97be
00000040: d003 6dbf 5776 97bf c167 46bf c84e c9be
00000050: 48fd 93bf 802c 12bf 98d1 cfbe d06e 90bf
00000060: a704 3abf 709f 3ebf 4c74 eabe 9a15 f4be
00000070: 8d0c 29be 8e50 1cbf 0a66 fcbe 43a5 8bbe
-1.1637527 -0.47370493 -1.1838657 -0.7130734 -0.52182454 -1.0316956 -0.14038011 -1.3760626
-0.15421875 -1.4426162 -0.4040071 -1.4136515 -0.8500998 -0.34172872 -0.6400528 -0.2953256
-0.9258394 -1.183299 -0.77502066 -0.39317918 -1.156167 -0.5709915 -0.40589595 -1.1283817
-0.7266335 -0.7446203 -0.45791852 -0.4767273 -0.16508694 -0.61060417 -0.492966 -0.27274522

features.module.5.running_var f4 [32]
00000000: 8310 a33e d664 4e3e e0df b73e a3c8 753e
00000010: 340f 2e3f 0c04 a13e b67b 6a3e c615 f83e
00000020: cd6e 8a3e a99e 0b3f 142f 823e 844e cb3e
00000030: 4cdd 843e 28e3 f83e c0fa 863e 2ce0 c83e
00000040: eab5 113f c2fc c73e 1090 973e 6ee6 a63e
00000050: 8e66 113f e826 8c3e f45f 3a3e cd3f a73e
00000060: 0501 213f 7172 5e3e d88e a03e c82c 193f
00000070: 3796 803e e918 643e f83c b23e a663 b63e
0.31848535 0.20155653 0.3591299 0.24002318 0.6799195 0.314484 0.22898754 0.48454112
0.2703766 0.5453897 0.25426543 0.3970834 0.25950086 0.48610806 0.26363182 0.3923353
0.56918204 0.39060026 0.29602098 0.3259768 0.5679711 0.27373433 0.18200666 0.32665864
0.6289218 0.21723343 0.3135898 0.59833956 0.25114605 0.22275127 0.3481214 0.356229

features.module.8.weight f4 [64, 32, 3, 3]
00000000: 3a99 4cbc ee15 c83b 735c ab3c c25c 60bd
00000010: 94d4 e9bc e2de 2ebc 5035 6bbd e817 0fbd
00000020: 6557 d7bc f8e5 8ebb 2bb2 1abc b4f0 843b
00000030: d3c1 54bc b84d 4ebc 372f 44bb 87f4 e9bc
00000040: 795a b9bc 50c4 b6bb 7d0f f83d 12a2 be3d
00000050: a72b 023e bb2e b73d a1fb 853d 7722 d23d
00000060: 8260 f13d 129f cb3d 9141 143e 45e6 bc3d
00000070: 4bf1 723d 05f3 a63d 409b 6f3d 5e5f 1a3d
00000080: cf40 643d 1bdd 833d 5fd5 463d d623 823d
00000090: bae2 123e a414 1d3e b33d 723e 5870 c93d
000000a0: d2c2 c63d 76a5 2d3e f9d0 133e 34ed e33d
000000b0: 1e7e 393e b730 e83c e2a4 bc3c 99ca 0a3d
000000c0: 0886 b43c 080c 4b3c d313 093d 100b ba3c
000000d0: ec4b 273c 88ca e33c 8fe1 043c c4c3 433b
000000e0: aa91 293c 599f 10bc 8915 c1bc 2d2d c3bc
000000f0: 31ae 9abc 47e4 3fbd d089 96bd 23b3 9fbc
00000100: d6ff 18bc 7007 dfbb 738b 72bb 04fa 063c
00000110: 8fa2 b53a f657 0b3b 2f38 843c b0a4 983c
00000120: 2faf 773c a0b5 083c bd27 11ba 7a30 be3b
00000130: 3101 0f3c 3f3b 9bba dd03 403b 8fee 4d3b
00000140: f7ac 26bc 3c8d 2dbd 5632 f2bc e1dd 05bd
00000150: 3fe7 2abd 7777 d7bc 5b05 b5bc 4233 c4bc
00000160: 38ee 76bc f899 2fbc 75e6 c13c 49e9 6c3c
00000170: 337d a93c a783 023c 861c 0c3c e793 443c
00000180: ee19 763a 54ed 48ba 9046 493c 5632 883c
00000190: 9d2b 1dbb d61e b13c 7563 2c3d e574 653c
000001a0: 605c 183d f25f 293d 97f8 cb3c c42c fe3c
000001b0: eea1 c1bc 0d26 37bc c90a 5fbc ccec 7dbc
000001c0: f03d 2dba ee57 26bb 8cf4 ddbb a437 0fbb
000001d0: 4532 79bb 845d 48bc c934 45bc f90b 6cbb
000001e0: d4de 56bc d3c6 9cbc ffb8 12bc a046 3dbd
000001f0: ede5 54bd df4f 4abd 275a 833c ac7e 513c
00000200: ef58 c03c e2e3 373c 0ca8 253c 2ce0 bb3c
00000210: 8109 8c3c 0be0 db3b d821 b23c 7e2f caba
00000220: 1f2b 3ebb 5e4f 5bbc 8c2e 8fbc 5a2e 4ebc
00000230: d00c 26bc cab3 93bc c209 88bc cd70 82ba
00000240: 6f17 303c 3c0d e63b 204a 0137 8875 f4ba
00000250: 1099 f23a 1bfb c5ba 7f8e d83c e4b9 de3c
00000260: 4113 da3c ca1b 6ebc b6c3 1abc daa0 c7bc
00000270: da86 d2bb 6c2b b0ba 04eb 1fbc a5a7 3abb
00000280: 39d7 33bc c5c4 babc e1c1 363d 9d6f 103c
00000290: 53c0 7abc 35db 773c 370e babb bdfe d0bc
000002a0: d0a8 a73c 539c 73bc f029 02bd 561a 91bc
000002b0: aeb6 bfbc 694e 6bbc 87ae 78bc eab0 01bc
000002c0: 7e87 64ba a001 86bc dc16 50bc 4ae5 ff3a
000002d0: 2437 6ebc 5624 93bc d042 99bc aa6c c7ba
000002e0: 398d bf39 225a ef3b 72ff 3ebb d6c6 413b
000002f0: f2dd 033c 8f6f 27bc b593 903a 3d47 ac3c
00000300: af1e 9bbb 373a a53b a066 753c 58db 78bc
00000310: 458c 48bb 6b62 df3b 0c84 883b 7401 ba3b
00000320: 9642 ab3a 1d92 e83b 3a83 093c 8d00 6f3b
00000330: d18d 783c 6585 143c f064 553b dbe0 eebc
00000340: 5cd4 dcbc 482e 1abd bb03 02bc 543a 45bc
00000350: e646 79bc 1458 4ebc 459d a4bc ba09 c9bc
00000360: 9bc7 bebb d387 60bc a9b6 9ebb 41d7 c73b
00000370: a5b8 163c ee25 183c 61ac 8e3c 549c f73c
00000380: 0f44 113d e065 27bd 8ece f9bc 89ac fabc
00000390: d23f 0cbd ce2e dfbc ed11 f3bc 94b2 eebc
000003a0: 7905 d0bc 7605 05bd db1e 2bbd 7428 31bd
000003b0: fb9d 5fbd bfc7 09bd f05b ddbc 8954 19bd
000003c0: fc38 e1bc f605 9cbc 77f3 04bd 785d 1b3d
000003d0: 10e0 0c3d 0712 0d3e 3100 c33d be50 463d
000003e0: eceb 0f3e d678 463e bf77 023e 3540 723e
000003f0: a3a4 a1bc bd5f 67bc 81bf f8bb b60b 1dbc
-0.012487704 0.00610613 0.020918107 -0.05477596 -0.028543748 -0.010673257 -0.05742389 -0.03493491
-0.02628679 -0.0043609105 -0.009441893 0.0040570144 -0.012985664 -0.012591772 -0.0029935369 -0.028558983
-0.022626149 -0.0055776015 0.12112329 0.09308256 0.12711965 0.0894446 0.06542135 0.1026048
0.117859855 0.0994245 0.14478137 0.09223608 0.059312146 0.08151821 0.058497667 0.037688605
0.05572587 0.06438657 0.04854333 0.063544914 0.14344302 0.15339905 0.23656349 0.09835881
0.09705128 0.1695765 0.14435185 0.11129227 0.18114516 0.028343542 0.023027841 0.03388462
0.022036567 0.012393005 0.03346617 0.022710353 0.010210972 0.027806535 0.008110418 0.0029871324
0.01034967 -0.008827054 -0.02356984 -0.023825252 -0.018881889 -0.04684856 -0.073505044 -0.019494599
-0.00933834 -0.0068063065 -0.0037009388 0.008238319 0.001385765 0.0021262146 0.016140072 0.018633217
0.015117451 0.008344084 -0.00055372325 0.0058041187 0.008728311 -0.0011843218 0.0029299178 0.003142271
-0.010173074 -0.04237102 -0.029565018 -0.032682303 -0.04172444 -0.026302082 -0.02209728 -0.023950223
-0.015071444 -0.010717861 0.02366946 0.014459916 0.020689582 0.007965959 0.008551722 0.011998153
0.0009388019 -0.0007664759 0.01228489 0.016625565 -0.0023982294 0.021621149 0.042087037 0.014004921
0.03719747 0.041351266 0.02489881 0.031027205 -0.023636784 -0.011178506 -0.013613411 -0.015498351
-0.00066086557 -0.0025382 -0.006773537 -0.0021853233 -0.0038024348 -0.012229327 -0.012036511 -0.0036017878
-0.01311465 -0.019137776 -0.008955239 -0.04620993 -0.051977087 -0.049392577 0.016034199 0.012786549
0.023479907 0.011223765 0.010110866 0.022934042 0.017094376 0.0067100576 0.021744654 -0.0015425531
-0.0029017401 -0.013385622 -0.01747825 -0.012584293 -0.010134891 -0.018030066 -0.016606215 -0.000995183
0.0107477745 0.0070206206 7.706258e-06 -0.001865075 0.0018508751 -0.0015104742 0.026435135 0.027188249
0.02662051 -0.014532993 -0.009446075 -0.024368692 -0.006424767 -0.0013440675 -0.009760622 -0.0028481272
-0.010976606 -0.022798905 0.04461849 0.008815673 -0.015304643 0.015127947 -0.005677964 -0.025512094
0.020466238 -0.014868814 -0.031778276 -0.017712753 -0.023402538 -0.014361956 -0.015178329 -0.007915715
-0.00087176997 -0.016358197 -0.012700763 0.001952329 -0.014539514 -0.017961662 -0.018708616 -0.001521488
0.00036535578 0.007304446 -0.0029143956 0.0029567978 0.008048521 -0.010219469 0.0011030348 0.021030063
-0.0047338824 0.00504234 0.014978081 -0.015189014 -0.0030601185 0.0068171523 0.004166132 0.0056764428
0.0013066109 0.007097496 0.008393103 0.0036468834 0.01517053 0.009065007 0.0032561384 -0.029159954
-0.02695673 -0.037641793 -0.00793546 -0.012037832 -0.015214657 -0.012594242 -0.020094523 -0.02454077
-0.0058221347 -0.013704258 -0.004843552 0.0060986583 0.009199296 0.009286387 0.017416181 0.03022591
0.035465296 -0.04086864 -0.030494 -0.03059985 -0.03424055 -0.027243998 -0.029671634 -0.029137887
-0.025393235 -0.03247591 -0.041777473 -0.04325147 -0.05459402 -0.03363776 -0.027021378 -0.037434135
-0.027492993 -0.019045811 -0.03245875 0.037930936 0.03439337 0.13776408 0.09521521 0.048416846
0.14054841 0.19382033 0.12740992 0.23657306 -0.019731825 -0.014121947 -0.0075911884 -0.009585312

features.module.8.bias f4 [64]
00000000: 1b82 d9bc 45a4 2e3c 91e1 373c ff87 693d
00000010: 93fa 583d bed8 43bd 6dad eb3c 1d21 3ebd
00000020: 7af0 e7bc cd33 bb3c 0345 22bd 256a 4b3d
00000030: c49f b33c f146 a23b 85e2 043d ed14 4abd
00000040: 6f90 1c3c e7cb b03c aa39 dabc 537d 93bc
00000050: 2a75 c03c b0f4 483d 9005 b9bc e53c 0f3d
00000060: 14fe 043d 47d5 0abd 3090 3cbd 3a9a dfbb
00000070: 0b35 133d 96c6 45bd efd5 24bd 39e0 2c3d
00000080: cf0a 08bd b561 29bd 73b2 21bb 8e23 683d
00000090: 0d79 1c3d 98c6 f43c 3acf f23b 87b5 edbc
000000a0: 10d5 38bd 9c10 fc3c c6a1 8c3c 9eee 763c
000000b0: 525a afbc d672 67bd f0d1 013c 3269 23bc
000000c0: 8b97 8fbb 182a b43b 52aa 0abd 4cc3 13bd
000000d0: 2b9c 89bc 1724 b83c 6285 14bd 131d 5d3d
000000e0: 5974 69bd 0d3c 13bd 8afd 873c 98c0 66bd
000000f0: ccb1 03bd 4fd5 f43c bdc6 20bd 46f4 973c
-0.026551297 0.010659282 0.011223213 0.05701446 0.05297334 -0.047814123 0.02876922 -0.046418298
-0.02831291 0.022851849 -0.039616596 0.049661774 0.021926768 0.0049523045 0.03244259 -0.049336363
0.00955592 0.021581603 -0.026638824 -0.018004095 0.023493368 0.049061477 -0.02258566 0.034970183
0.03246887 -0.033894803 -0.046035945 -0.006823805 0.035939258 -0.04828509 -0.040243085 0.042206023
-0.033213433 -0.041352946 -0.0024673014 0.056674533 0.03820138 0.029879853 0.0074099572 -0.029017223
-0.045125067 0.030769639 0.017166983 0.015071539 -0.021405373 -0.056506 0.007923588 -0.009973811
-0.004382079 0.005498182 -0.033853836 -0.03607492 -0.0167981 0.022478146 -0.036260016 0.053982805
-0.056995723 -0.03594594 0.016600389 -0.056336015 -0.032151982 0.02988687 -0.03925203 0.018549096

features.module.9.weight f4 [64]
00000000: d1fc b340 dee4 8140 bde4 8740 ff62 8640
00000010: 59a0 4340 8a19 8840 5ecb 8f40 27ed 5140
00000020: abc6 6a40 9fc1 8340 6481 3640 e045 5540
00000030: a7e2 6c40 86d2 5d40 afbd 8b40 a128 af40
00000040: 0335 6b40 8d7d 7940 e720 5440 9e19 8240
00000050: 549c 8640 41e5 6940 352e 6240 b80d 9340
00000060: ab5c 8a40 69d5 6d40 940e 8040 bf7f 6340
00000070: bfa0 7140 752e 7c40 42f1 9940 1884 8740
00000080: 8673 8140 f0bb 7b40 6154 7040 3b3f 8040
00000090: 30c3 8d40 1bbc b840 747a 6640 944c a040
000000a0: f2e6 7940 0f68 5740 a435 8140 022f 7440
000000b0: b878 6340 2896 9340 b4e2 a440 0179 5740
000000c0: c507 9540 dcf7 9040 3533 8140 5dc6 8b40
000000d0: 6193 6240 c910 7740 9631 9240 6fa6 9f40
000000e0: b7c1 7a40 dc95 8340 d5c9 8d40 c381 8040
000000f0: 6de4 8940 c32a 9340 b117 6640 f18c 7940
5.6246114 4.059188 4.246672 4.1995845 3.0566618 4.2531176 4.493575 3.2800996
3.6683757 4.1173854 2.8516474 3.3323898 3.7013338 3.4659743 4.3669047 5.4737096
3.6751106 3.898288 3.3145082 4.065627 4.206583 3.6546175 3.5340703 4.5954247
4.323812 3.7161505 4.0017796 3.554672 3.7754362 3.9403355 4.8107004 4.2348747
4.045352 3.9333458 3.75515 4.0077186 4.4300766 5.772962 3.601224 5.009348
3.9047208 3.3657262 4.037798 3.8153691 3.554243 4.6120796 5.1526737 3.3667605
4.6571984 4.5302563 4.037501 4.3679643 3.5402453 3.8603995 4.568553 4.9890666
3.9180734 4.1120434 4.4308877 4.01584 4.309134 4.59897 3.595196 3.8992274

features.module.9.bias f4 [64]
00000000: e76d ad3f e847 6a3f a3eb 713f bcc7 803f
00000010: 14f7 783f 4378 873f efbf 863f 3646 e53f
00000020: de20 c43f dd46 8b3f b749 5e3f 3dfa b93f
00000030: b549 5d3f 59f1 6a3f cac5 733f 048f b73f
00000040: 171f 8f3f c004 6a3f 221a e23f c6dc a03f
00000050: a147 833f a138 0340 107a 903f ecde 883f
00000060: e977 c23f 81f6 5d3f edc9 8e3f 92e8 5c3f
00000070: fb92 643f 7345 a23f 3bf5 883f b50c 923f
00000080: 9807 873f c872 b63f df58 983f d921 613f
00000090: fbae 983f 3c3e bc3f 6e6f 7c3f 7fbc 963f
000000a0: e11c 8c3f 2b26 5a3f afe9 8f3f 5485 a23f
000000b0: de8f fb3f cb31 a73f d30a de3f b08f e13f
000000c0: c6a3 823f dfe6 7a3f 1ca2 ac3f f0a2 c23f
000000d0: ee85 763f d32c 843f c11e 913f 53af e33f
000000e0: b556 913f cbe7 a03f 3a02 903f 9b14 543f
000000f0: 591b 643f 1b7f 863f 4502 523f 672b 0b40
1.3549165 0.9151597 0.9450018 1.0060954 0.9725201 1.0583576 1.0527323 1.7912052
1.532253 1.0881001 0.8683123 1.4529492 0.86440593 0.9177452 0.9522368 1.434052
1.1181363 0.914135 1.7664225 1.2567375 1.0256234 2.0503314 1.128725 1.069303
1.5192844 0.8670426 1.1155373 0.86292374 0.89286774 1.2677444 1.0699838 1.1410128
1.0549192 1.4253778 1.1902121 0.8794227 1.19284 1.4706492 0.9860753 1.1776274
1.0946313 0.8521449 1.124319 1.2696939 1.965328 1.3062071 1.7347053 1.7621975
1.020623 0.9800853 1.3486972 1.5205975 0.9629811 1.0326179 1.133751 1.778788
1.1354586 1.2570738 1.125068 0.8284394 0.8910423 1.050754 0.82034713 2.174524

features.module.9.running_mean f4 [64]
00000000: b268 07bc 706c 683c de28 a53c 3b40 7a3d
00000010: 123c 0a3d 584d 75bc 471b e63c f3e0 563d
00000020: acd2 b9bc 4c53 253d 7ab7 2fbd d269 873d
00000030: e28f 6a3c c5d3 27bb 1f6a 263d 13db 83bd
00000040: 3aeb 05bc 4721 cb3c bba9 703d 2dde 8bbc
00000050: 14d9 fe3c 4f2c 193e fe87 f7bc ef1e 913d
00000060: 1944 42bc d146 07bd a701 29bd 708f 12bc
00000070: 9cc6 4b3d 5eb6 18bd a878 8dbc 6aac 6e3d
00000080: d965 50bd a696 62bd 5361 cbbc 68df 9a3d
00000090: 3c6a 4e3d 5005 183d 21ec 903c 3943 f1bb
000000a0: 00ca 1abd 5492 af3c d039 e33c 78c2 823c
000000b0: fa42 a13d 6c14 6bbd bcc4 78bc 1213 553d
000000c0: a449 ce3a d492 253d 48d5 adbd 1f37 9dbd
000000d0: b748 9f3b 3722 763c 5cf8 4abd be08 563c
000000e0: 4913 43bd 2356 0cbd 1462 8f3b ca51 a3bc
000000f0: 9c30 bdba d0b4 173d 013c 44bd f619 033e
-0.008264707 0.01418601 0.020161089 0.06109641 0.033748694 -0.0149720535 0.028089179 0.052460622
-0.022683464 0.04036264 -0.042899586 0.066119805 0.014316531 -0.0025608402 0.04062855 -0.064382695
-0.008173758 0.024796141 0.058755618 -0.017073715 0.03110937 0.14958309 -0.030216213 0.07085978
-0.011857056 -0.03302652 -0.04126134 -0.008945331 0.049749956 -0.037283294 -0.017269447 0.058269896
-0.05087838 -0.05531945 -0.024826681 0.075621426 0.05039428 0.03711444 0.01769072 -0.00736275
-0.0377903 0.02143208 0.027737528 0.01596187 0.07874103 -0.057392523 -0.015183624 0.05202014
0.0015738499 0.04042323 -0.08487946 -0.07676529 0.004860963 0.015022806 -0.04955326 0.013063608
-0.047625814 -0.034261834 0.0043757055 -0.019936461 -0.0014434042 0.03703767 -0.047908787 0.12802872

features.module.9.running_var f4 [64]
00000000: b76d 343c 9f8c 053c b544 9a3b f0d8 0a3c
00000010: 0e90 3b3c 6654 0e3c ba4c e23b 3fb4 293c
00000020: 3ad4 423b 46f1 113c 1f19 ec3b a4b6 973b
00000030: 4704 cb3b 3c44 c83b 915b c33b 3fb8 9b3b
00000040: 5836 313c 2803 0c3c e980 e73b 3ed7 013c
00000050: 22b7 953b b84c 283c 5990 d13b a00d 373c
00000060: 6fc7 4b3c e709 fd3b f668 093c 2d09 ad3b
00000070: e7e6 883b 4f0d 503b 0c32 003c fe8a bd3b
00000080: 8759 ca3b 75e1 c63b 2cc6 3a3c ee37 cb3b
00000090: f457 273c 0c88 c63b 32c4 ed3b c05f 0b3c
000000a0: 6592 053c 6fca 013c f411 063c 1b5a f23b
000000b0: 373c 243c 38df db3b 32de 383c 1065 b13b
000000c0: 9657 113c 6269 313c 9d23 433c 5274 523c
000000d0: 0765 e93b df2b e83b a96e 023c abd5 e93b
000000e0: 6062 143c b769 013c d886 e13b 0308 fc3b
000000f0: f0a6 dc3b 238c 033c 91d8 d13b 712f 1f3c
0.011012486 0.008151202 0.0047078975 0.0084745735 0.0114479195 0.008687114 0.006906119 0.010357915
0.0029728548 0.008907622 0.007205143 0.0046299268 0.0061955783 0.00611165 0.0059618433 0.0047521885
0.010816179 0.008545674 0.007064928 0.007924853 0.0045689503 0.010272197 0.0063953814 0.011172682
0.012437685 0.0077221277 0.008386841 0.005280635 0.0041779163 0.0031746214 0.007824432 0.0057843914
0.0061752233 0.006069357 0.011399787 0.0062017357 0.010213841 0.0060586985 0.0072560543 0.008506715
0.008152579 0.007921799 0.008182991 0.0073959953 0.010024122 0.0067099594 0.011283444 0.005413659
0.00887098 0.010828348 0.011910346 0.012845116 0.007122639 0.007085308 0.007960954 0.007136067
0.009056658 0.00789874 0.0068825297 0.0076913848 0.0067337677 0.008029017 0.0064039906 0.009715901

top_layer.weight f4 [10, 64]
00000000: eece de3c 7cbf e4bc c6c4 0b3a 0482 1abe
00000010: 525a 33be 6bca 1dbd 18ca 95bd 6762 513d
00000020: c802 2bbc 564b fbbd bdf7 22be 5469 47bd
00000030: 5200 493e 1923 823e 52ba dbbd 6aa7 86bd
00000040: 7c39 35be 8a39 f9bd 7fa6 713d 8408 1ebe
00000050: 187b e33e 4d13 2c3d 64fb 533e 83b7 2ebd
00000060: 5342 44be 4bbc 23bd a269 07be e9d2 783e
00000070: 9cb4 90bc 8d22 3fbd f1bd eebc bd39 7d3d
00000080: 03e6 f93e 3803 e1bd b285 3bbe 1c65 063d
00000090: 51b9 1bbe 6466 edbd aff8 2b3d 367e 1c3c
000000a0: ed43 733d 15cb 22bd 5c5a 03be 8839 dabd
000000b0: 611d 3d3d 982c ebbc d41a 5a3e c655 153d
000000c0: 2e6f 35be 7976 b0bd 1f4d 30be 34c3 64be
000000d0: 2982 b73c 1cc6 e43e 5380 113f 8e24 b93d
000000e0: 84d6 02be 8489 2bbe b3a2 b63e cd4d 0bbd
000000f0: fa56 b4bc 0a88 c2bd 8711 f43e 78a8 733d
00000100: d973 283f be24 243b 93ef 3abd a8c8 38bd
00000110: fae9 933d 881a c1bd 5f30 a9ba 854b f9bd
00000120: 2bc0 acbd a9f6 5dbd d052 db3d 436c fd3c
00000130: 23c4 f83d c78c d1bd 613d 4f3b db4c bcbd
00000140: df2f d93d 0189 bc3d 047c 12be dff7 ec3d
00000150: b1e3 03be cbfc 17be 6e13 edbd e269 f8bc
00000160: 503c 2dbc 4cf5 56bd d61e 94bd c456 70bd
00000170: f246 b5bd f922 0bbd e459 1c3f 490a 03be
00000180: 5fe2 5f3b d6e7 8ebd 57c4 ef3d ab4d 033f
00000190: 9863 76bd 7ac7 f4bd af62 6fbd 1883 1b3f
000001a0: 54c9 a8bd 52ae d2bc 4e0b 40bc 5f1f 943d
000001b0: 73e3 16be c955 d73e 4680 f7bd 9b04 9cbd
000001c0: 1ff6 3a3d 2c70 28bb 1bc7 04bd 3fd3 86bc
000001d0: 300e b3bd d9ac f7bd b7ab 06be 70fe dcbd
000001e0: fef5 e8bd 4829 fb3d ccfb cf3d 93f4 2bbd
000001f0: 90f9 68bd 9aa1 b73c 38d1 27bd 00b0 0dbe
00000200: 6f8d 2fbe 51da 1dbe c966 1bbe 79d4 b4bd
00000210: 2672 a63e 379b 263d 4620 05bd 90e4 6fbe
00000220: b133 a63d 103b 733d 0f50 553e 4250 10be
00000230: 2d14 8fbd 6d8a c03c faa8 31be 5951 b6bd
00000240: 4226 b93e c559 47be 29c5 84be 05de 88bd
00000250: cc8b 0abc 4258 7abe 6ef9 103e f578 fabb
00000260: fda0 023f fdc1 d7bd 68e2 7e3d 01bd 5fbd
00000270: f1fb 89bd c7e0 1a3d ee25 0cbe a4d3 58bd
00000280: d0dd 8f3c a2cf c53e 9271 c33e abf9 02be
00000290: 3b66 043d f2bb 8ebd c80e 503d 1159 22be
000002a0: f30e 243d 3866 d1bd ebc9 983d 27ce 6ebd
000002b0: 50ff 77be 6ba3 45bd b4df 193d ac82 83be
000002c0: 828c 42be 07be 99bc 0e8d fb3e 3ea2 043f
000002d0: 771c fa3d 0ec9 a13d d87f 6d3d fe2d 0f3e
000002e0: 133e 123e 59bf 9ebd b389 0dbd a7c3 1ebd
000002f0: 9537 6bbd f485 12bd a0b9 eb3c 36bc abbe
00000300: 8270 b2bd 17f7 07be 1984 adbd 87c4 00be
00000310: 7079 50bd d4cd f53e 1daf 4f3e 2fac 6fbd
00000320: cf9f e1bd e29c 96bd f3c3 bbbd c3ba b1bd
00000330: 7e4e 7dbd 168a 743e c09c e2bd 2c8c 40be
00000340: 9182 a3bd e432 aabd 242f 8ebd 083e c5bd
00000350: e02e 79bd 4783 7abc 18b1 b0bc 2beb fa3e
00000360: b3f4 a5bd 2945 a5bd 4f0a d4bd 25a9 30bd
00000370: 0f7f 833e df27 f7bd c478 afbd 991f 00be
00000380: 7ead 37bd ca66 97bd 82b2 c5bd 7102 53bd
00000390: b0a5 d8bd 1c8a 583e 9da2 9c3e 7fba cbbd
000003a0: 475e 853e 9f0c 9fbc 7ec7 b3bd 23a0 5bbd
000003b0: c712 1dbd ba80 0dbe afa4 21be 3d25 b3bd
000003c0: a7e1 e8bd 5891 d33e 889b 70bd fdc6 61bd
000003d0: ab6b b63e 7faa 97bc 5ed4 b6bc 1c3e 49be
000003e0: 29ee 833e 18ba c7bd 4bdb 0fbd c73e d33e
000003f0: 9da6 c13e bd89 8c3e 57c2 a7bc c956 54bd
0.027198281 -0.027923338 0.0005331751 -0.1508866 -0.17514923 -0.03852312 -0.07313937 0.051119234
-0.010437675 -0.122702286 -0.15914817 -0.048684433 0.19629028 0.25417402 -0.10728897 -0.065749004
-0.1769771 -0.12169178 0.058996674 -0.15432936 0.4442985 0.042010594 0.20701367 -0.04265548
-0.19165926 -0.039974492 -0.1322389 0.24299206 -0.017664246 -0.04666381 -0.029143305 0.06182264
0.48808298 -0.10986942 -0.1831272 0.03281127 -0.15207411 -0.11591795 0.04198521 0.009551575
0.05939095 -0.039744455 -0.12827438 -0.106555045 0.046170596 -0.028707787 0.21299297 0.036458753
-0.17718193 -0.08616347 -0.1721692 -0.22340089 0.022400932 0.44682395 0.5683643 0.090401754
-0.12777144 -0.16751677 0.35671005 -0.034009743 -0.02201413 -0.09498604 0.47669622 0.059486836
0.6580177 0.0025046314 -0.045638632 -0.045113236 0.07222362 -0.094288886 -0.0012908092 -0.12172607
-0.08435091 -0.05419031 0.107091546 0.030935412 0.12146785 -0.10231929 0.0031622278 -0.091943465
0.10604834 0.09205819 -0.1430512 0.11570715 -0.12879826 -0.14842527 -0.115759715 -0.030323926
-0.010573462 -0.052480027 -0.07232444 -0.058676496 -0.08851422 -0.0339689 0.6107466 -0.12796892
0.0034162027 -0.06977813 0.11707371 0.51290387 -0.060153574 -0.1195211 -0.05844372 0.6074691
-0.08241525 -0.025717888 -0.011721445 0.07232546 -0.14735202 0.42057636 -0.12085013 -0.07618066
0.045644876 -0.0025701625 -0.032416444 -0.016458152 -0.087429404 -0.12093515 -0.13151442 -0.107907176
-0.11375044 0.12263733 0.10155448 -0.04198129 -0.056878626 0.022415925 -0.04097101 -0.1383667
-0.17143796 -0.15415312 -0.15175928 -0.088295884 0.32508963 0.04067537 -0.03250148 -0.23427033
0.08115328 0.0593825 0.20831321 -0.14093116 -0.0698627 0.023503507 -0.17349616 -0.089022346
0.36162 -0.19467838 -0.2593167 -0.06682972 -0.008456182 -0.2444773 0.1415765 -0.0076438137
0.510269 -0.10535047 0.062227637 -0.054623608 -0.06737507 0.03781202 -0.13686344 -0.05293621
0.017561823 0.38634974 0.38172585 -0.12790553 0.032324057 -0.069694415 0.050795346 -0.15854289
0.04005332 -0.10224575 0.07460388 -0.05830207 -0.24218488 -0.04825155 0.037566856 -0.25685632
-0.18998912 -0.01876737 0.49131054 0.5181006 0.122124605 0.07899676 0.05798325 0.13982388
0.14281492 -0.077513404 -0.03455515 -0.038760807 -0.057426054 -0.03577228 0.028775036 -0.3354203
-0.087128654 -0.13277851 -0.08472461 -0.12574969 -0.05089706 0.48008597 0.20281644 -0.058513816
-0.11016809 -0.07354142 -0.09168234 -0.086782 -0.061842434 0.238808 -0.11065054 -0.18803471
-0.07983888 -0.08310488 -0.06942585 -0.09630972 -0.06083572 -0.015290088 -0.02156882 0.49007544
-0.08103313 -0.08069832 -0.10353529 -0.04313006 0.25682876 -0.12068152 -0.08567956 -0.12512054
-0.04484319 -0.07392652 -0.09653188 -0.051516 -0.105784774 0.21146435 0.30592814 -0.09947681
0.2604849 -0.019415198 -0.087782845 -0.053619515 -0.038347986 -0.13818637 -0.15785478 -0.08747337
-0.11371165 0.41321826 -0.058742076 -0.05512141 0.3562902 -0.018513916 -0.022318061 -0.19652599
0.2576764 -0.097522914 -0.035121243 0.41258833 0.37822428 0.27448836 -0.02047841 -0.051840577

top_layer.bias f4 [10]
00000000: 97a8 ea3b 7907 d6bc 0b1b 533c b58b 72bc
00000010: cecb 893b 8305 483d 5b0f c73b 2a5b a5bc
00000020: f2b6 e2bb b247 36bc
0.0071612108 -0.02612661 0.0128848655 -0.014803817 0.0042052036 0.04883338 0.0060748286 -0.020185072
-0.0069187814 -0.011125492

momentum_buffer f4 [16, 1, 3, 3]
00000000: 1364 64bc a030 963a b9b5 b43c 5afd dabc
00000010: 381c 19bc 94b3 91bb 3076 62bd 4b53 03bd
00000020: a40f bbbc 6b4c 1b3d fa0a 863b 93da a93c
00000030: a079 4f3d 2027 8a3d c20e df3c 2ed8 413d
00000040: 5ac9 053d 19f3 46bd 54a7 203b 943c d3bc
00000050: 4446 7dbc f031 c2bb 407e 13bd 08cc 06bd
00000060: b2dc 9bbb 3373 c8bc 0785 0cbd 14a6 083d
00000070: 3241 0b3d b28b 343d 16dd 433d 6646 a83d
00000080: 2b92 b83d 90a4 503d 4892 993d a0ba a23d
00000090: bb38 5b3d c0f5 ee3c 388f 8bbc 604e 8ebc
000000a0: 9023 81bd c8c4 8cbd f452 8dbd 35f6 8cbd
000000b0: ecc3 59bd e457 22bc 0cfd 24bc 3855 443b
000000c0: ecea c3bc 503c a7bc f0fd 8dba 0080 adb8
000000d0: 144f 093c 3c4a 273b 137d b9bd fac1 9ebd
000000e0: ce2d b5bc 71b0 1ebd d0ca 96bc 4040 9a3a
000000f0: a8d3 b2ba f2b2 193c fcbe 6bbc 914d c9bc
00000100: 644a 82bc d683 253b aa13 27bd c28c 9cbc
00000110: de51 43bb 96aa 02bd 57de 493b 8a08 eb3c
00000120: 554f 11bd fc2b 673c a04a 883a 88d3 b2bc
00000130: 9898 b0bb f66c 29bc 0e62 c33b 37cb 433c
00000140: f8b9 90b9 40e3 5a3c 66b6 e63c c47a 3f3c
00000150: 3c35 d43c 10c0 293d 3c0b c13c 0e19 893c
00000160: a081 e8ba a096 47bb 79a7 38bd 0024 8a3a
00000170: b277 853c ac52 debd 3495 31bd 5c3e adbb
00000180: f3a1 58bd 401d a1b9 5dd6 f7bc 68bb 92ba
00000190: b1da aa3c e364 f33c e733 8dbc 2a75 1abd
000001a0: aff5 3ebd 0e57 f33b 70dd 8e3a c4d5 bfbb
000001b0: 5452 c0bc 1890 44bc a199 f8bc 8e4c 16bc
000001c0: d0bf 15bb ad58 14bd 3aa0 02bc 4b3e 18bd
000001d0: b1df 76bd 74ac 343b 5c21 eb39 a59b 053c
000001e0: 3f71 8bbc 3c40 13bd 5ce3 e5bc 7018 c23b
000001f0: b5de 92bc bc4e 4dbc 3a4a 9abc 204a 87bc
00000200: 7e53 dbbc 4c48 85bc 72ad 03bd 545e 88bd
00000210: 6c2d 05bd 568f 82bd 4071 adbd 22d8 583d
00000220: 7803 5b3d 71e6 803d e835 003e 12b9 d43d
00000230: 28f1 ab3d 72e9 0a3e 1a7d c83d cc9a a13c
-0.013939875 0.0011458583 0.022059308 -0.026732136 -0.009345107 -0.004446456 -0.055288494 -0.032061856
-0.022834606 0.037914675 0.004090664 0.020734107 0.0506531 0.06745744 0.027228717 0.047325306
0.032662727 -0.04857168 0.0024513798 -0.025785722 -0.015458647 -0.005926363 -0.036009073 -0.032909423
-0.0047565335 -0.024468994 -0.034306552 0.03336151 0.033997722 0.044078536 0.047818266 0.082165524
0.09012254 0.05093819 0.07498604 0.07945752 0.0535209 0.029169917 -0.017036065 -0.017371356
-0.06305611 -0.068734705 -0.06900588 -0.06882898 -0.05316536 -0.00990865 -0.010070097 0.002995802
-0.02391573 -0.020414501 -0.0010833126 -8.273125e-05 0.00838067 0.0025526425 -0.09057059 -0.07751842
-0.022116568 -0.038742486 -0.018407255 0.0011768416 -0.0013643401 0.009381043 -0.014388796 -0.02457312
-0.015904613 0.0025255582 -0.040790237 -0.019110087 -0.0029803435 -0.031900965 0.003080269 0.028690595
-0.035476048 0.014109608 0.0010398217 -0.021829382 -0.0053892843 -0.01034092 0.0059626168 0.011950306
-0.00027604378 0.013359845 0.028163146 0.011686984 0.02590429 0.04144293 0.023564927 0.01673558
-0.0017738827 -0.003045477 -0.04508159 0.0010539293 0.016292427 -0.10855612 -0.04335518 -0.005286975
-0.05288882 -0.00030730106 -0.030253584 -0.0011194767 0.020856233 0.029711192 -0.017236663 -0.037709393
-0.04662102 0.007426149 0.0010899734 -0.0058543403 -0.023476757 -0.011997245 -0.030346693 -0.0091735255
-0.0022849925 -0.03621738 -0.007972771 -0.037168782 -0.060271922 0.002756861 0.00044847548 0.008154784
-0.017021773 -0.03594993 -0.028062515 0.0059233233 -0.01792846 -0.012530979 -0.018834222 -0.016514838
-0.02677321 -0.016269825 -0.032147832 -0.06658617 -0.03251402 -0.063749954 -0.08468866 0.052940495
0.053470105 0.06293953 0.12520564 0.10386862 0.08395606 0.13565615 0.09789486 0.019727133

momentum_buffer f4 [16]
00000000: 0ed0 bdb6 94c6 e536 41a8 8d37 4c03 de37
00000010: 2891 fa37 7edf d9b7 224c 0a37 b745 6cb7
00000020: 04ad 70b6 6df8 cdb7 b043 fa37 828f c9b7
00000030: 7fb7 9237 d5c9 3f37 5c5f 3237 4995 94b7
-5.6568597e-06 6.8478494e-06 1.688686e-05 2.6465998e-05 2.9869916e-05 -2.5972487e-05 8.243167e-06 -1.4082928e-05
-3.5863495e-06 -2.4553587e-05 2.9833842e-05 -2.4027893e-05 1.7490003e-05 1.143148e-05 1.0631829e-05 -1.7712491e-05

momentum_buffer f4 [16]
00000000: 7c1b 80bc 824a 8cbd 6c16 1c3b 3886 073d
00000010: bca2 18be 68e3 fc3c 10b7 58bb 9af0 563d
00000020: 8e59 80bb 9119 f73c 4cdc aa3d 049b 4dbc
00000030: c808 a1bd 4c38 73bd 9c22 11bd b470 f13c
-0.015638106 -0.06850149 0.0023817075 0.033086985 -0.14905828 0.030870155 -0.0033068098 0.05247555
-0.0039169258 0.030163558 0.083427995 -0.012549166 -0.07863003 -0.05937986 -0.035433397 0.029472686

momentum_buffer f4 [16]
00000000: 2636 e4bb e8fe e0bc 0d36 853c a671 29bd
00000010: 10a0 fabc 2c18 af3c dae5 23bd c4cc ff3c
00000020: 5177 8b3c 5058 a33c c201 d53d d2f0 80bc
00000030: a2a7 c5bd 2924 c5bd 1a0e 0bbd f302 28bd
-0.006964463 -0.027465299 0.016261125 -0.04136815 -0.030593902 0.02137383 -0.040014125 0.03122557
0.017024668 0.019939572 0.10400726 -0.015739832 -0.09651114 -0.096260376 -0.033948995 -0.041018438

momentum_buffer f4 [32, 16, 3, 3]
00000000: b2d3 d0bb 68dd 633a c000 0639 612a 083b
00000010: a687 1d3b 6a84 6a3b dd55 123c 69f5 173c
00000020: 68ef 8c3a 9835 f53a a44a 263b 3097 c13b
00000030: 8c35 ae3b d86a ba3b ea13 833b 20e3 fb38
00000040: 3485 303b a050 95bb c136 e23c b725 4e3d
00000050: 5ce7 863c ecd4 093b e661 323b bc5f 03bc
00000060: c4ff d1bb 769d 41bc a25b 62ba 2dce 1fbb
00000070: 8727 253b 42cb afba c233 ad3b 276c 03bc
00000080: 50ef 3bbb 7973 8abb 6b13 6ebc 058c 06bc
00000090: fe34 8c3b 16ec 883c 04a1 7ebb 09d6 e73b
000000a0: aa71 2c3c 2f0d 293c 0821 b03b c294 ff3b
000000b0: 7ced 0bbb a60b 87bc 459d 3ebc eb78 9c3c
000000c0: b544 95bc d4c1 afba c6b2 30bc f819 4dbc
000000d0: f4cf 88bc b460 95bc 8093 043a 3b42 7e3c
000000e0: a315 663c afb8 e3bc c21c fdbc 666d 02bc
000000f0: 710b b0bb e01e 93b9 fe9f d2ba 6c6a 213b
00000100: 574c 073c 3f0b ba3b 28f1 37b9 0012 27b9
00000110: a64f c83a f8ce f7ba 9163 a93a f8df c337
00000120: e8b5 29bb 815e ddbc 52be 93bc d849 1abd
00000130: 3676 97bc 2611 4ebc f057 c0bc 9c02 893b
00000140: 006c 56bc 8f1a 5a3c 2eb1 ea3c 6870 523b
00000150: 4983 fbbb 2866 7bbb aff6 32bc 5007 d2bb
00000160: b0a1 10bc 4ce7 86ba 4952 5c3c f6f1 a03c
00000170: 96b7 e6bc b4bc 383c 39b5 dd3c 3ed6 25bd
00000180: 28cc 99bc 249e b6bb a7eb 34bd 14ce 0c3b
00000190: fa59 5b3c af2a 59bc 38ea f4bc 3ee7 e6bc
000001a0: 950c 60bd 2cee 03bc 99a6 2fbc fc69 2bbb
000001b0: 6c28 a2bc a1ab 81bc c60b 1bbd e487 06bc
000001c0: ded1 83bc a261 8bbc a0ad fd39 0024 03b8
000001d0: 1249 3abc 1e96 253c 00e8 62ba 8144 7f3c
000001e0: 6bf0 9b3b e7aa 92bb cb56 f93b 448c 65bb
000001f0: e0cf a4bb eb7a ea3b dbc6 3b3c fed7 2b3b
00000200: c235 b53b cabb 9f3a 4a29 bfbb ae63 5cbb
00000210: ba49 bfba 65ce 2fbc f291 f8bb 5d76 79bc
00000220: b797 ffbb 66be 8fbc 985a d93b 78bc ab3b
00000230: 1182 3c3c 8467 a13b 3b96 883a 25d5 013c
00000240: c29c 0e3c 3e2e a73b 4684 113b 6010 813c
00000250: c911 993b b830 ca39 1b98 933c 65ef 343c
00000260: 95a8 9c3b ac16 b9bc d784 06bc d41d 15ba
00000270: f8d8 1cbc e8ec 8c3a e062 4c39 fa02 273b
00000280: 7039 dab9 d893 6c3a 2849 223b 7120 203c
00000290: 066e c53b 7cb2 213a 3cf5 d03a 009b 7638
000002a0: 9c57 e4ba 5cc9 84ba e5d0 05bc 080d 283b
000002b0: c252 b63b 2a85 933b 8420 053c d22d 043c
000002c0: f0a6 9e3b bd84 e73b 7245 9d3b 8e61 f53b
000002d0: 3ec0 9a3c 12ca 163c e4f0 cd3a 0a9b c73c
000002e0: f433 903c 2699 e63b d2f9 dc3c fa44 9b3c
000002f0: cac3 0b3c f2fe 79bb c03f 2ebb 1855 b6ba
00000300: 2ff1 cc3a c0b0 9eba 08aa dcbb d449 823b
00000310: d0b6 8db9 d1e6 ba3b a2fd 0e3b 28ed 713b
00000320: b799 c73a daec 4e3b e6ca 9c3a 1fe6 15bb
00000330: e678 7b3b af3d 793b e9fe 8bba 76d6 e13c
00000340: e446 6a3c a8e1 8cba ee32 e23c 3e06 e53c
00000350: 2047 cc3b 668f e03c 74d2 003d 6261 af3c
00000360: 0844 26ba 9606 14bc f2e5 8dbc 4e72 48bc
00000370: 9353 73bc eecd 48bc 5f6d a0bb 5a22 bebb
00000380: 1a34 f2bb b80c b8ba 4bde 663b 0ea6 bf3a
00000390: 5c4d d0b9 0216 4f3b bbc7 be3a 98a8 edba
000003a0: fc3e 17bb 4cb0 5bbb a4d7 b43a 3a14 8a3c
000003b0: 113a a03c 1ced f23b 4c2c 833c 1806 573c
000003c0: 457a 063c f4d9 9f3c 1624 2d3c 17a3 4d3b
000003d0: 47a6 8b3b 2f4c 953b 284f b23a fec2 0d3b
000003e0: 5828 c73a 2e9a e5ba 18c5 33ba 2849 0dbb
000003f0: 7487 1bbc d81f c6ba 303c 573a 6c4e 5bbb
-0.0063728923 0.0008692355 0.00012779515 0.0020777213 0.0024037152 0.0035784491 0.008931604 0.009274819
0.0010752501 0.0018707989 0.002537408 0.0059079155 0.005316442 0.0056890063 0.0040001767 0.00012010918
0.0026934864 -0.0045567304 0.027614 0.050328936 0.016467743 0.0021031452 0.0027218997 -0.00801843
-0.0064086635 -0.011817327 -0.000863487 -0.0024384365 0.0025200562 -0.0013412016 0.005285711 -0.008021391
-0.0028676577 -0.004225191 -0.014530997 -0.008212094 0.004278778 0.016714137 -0.0038853297 0.0070750755
0.0105251465 0.010318085 0.0053750314 0.0077997157 -0.0021351269 -0.016485047 -0.011634176 0.019100627
-0.018221239 -0.0013409206 -0.01078481 -0.012518398 -0.016700722 -0.018234588 0.00050573796 0.01551872
0.0140432445 -0.027798025 -0.030897502 -0.007960653 -0.0053724577 -0.0002806103 -0.001606941 0.0024630083
0.008257947 0.00567761 -0.00017542078 -0.00015933067 0.0015282526 -0.0018906286 0.001292335 2.3350105e-05
-0.0025895778 -0.027022602 -0.018035088 -0.03766808 -0.018488985 -0.012577331 -0.023479432 0.0041812193
-0.013087273 0.013311996 0.028648939 0.0032110456 -0.0076755625 -0.003836045 -0.010923072 -0.006409563
-0.008827612 -0.001029232 0.013447353 0.019646626 -0.028163712 0.011275459 0.027063953 -0.04048752
-0.018774107 -0.005573051 -0.044170048 0.0021485137 0.013388151 -0.0132548055 -0.02989684 -0.028186437
-0.0546995 -0.00805239 -0.010720872 -0.00261557 -0.019794665 -0.01582891 -0.037853025 -0.00821111
-0.016091283 -0.017014328 0.0004838528 -3.126636e-05 -0.01136996 0.0101065915 -0.00086557865 0.015580297
0.0047588847 -0.0044759396 0.0076092235 -0.0035026232 -0.0050296634 0.0071557662 0.011460985 0.002622127
0.00553009 0.0012186703 -0.0058337795 -0.003362875 -0.0014594116 -0.010730361 -0.0075857574 -0.015225974
-0.0078000682 -0.017546844 0.006633114 0.005240973 0.01150562 0.00492567 0.0010420749 0.007924353
0.008704366 0.005101948 0.0022204085 0.015754879 0.0046713096 0.0003856474 0.018016865 0.011043404
0.0047808387 -0.022593819 -0.008210382 -0.00056883437 -0.009573214 0.0010751756 0.0001949179 0.0025483952
-0.00041622994 0.0009024716 0.0024762843 0.00977336 0.0060250787 0.0006168259 0.0015942226 5.8795325e-05
-0.0017421129 -0.001013081 -0.00816748 0.0025642533 0.0055640647 0.0045019584 0.008125428 0.008067565
0.004841678 0.007065384 0.0047995383 0.007488436 0.018890496 0.009203451 0.001571205 0.02436592
0.017602898 0.0070372997 0.026974592 0.018953789 0.0085305665 -0.0038146344 -0.002658829 -0.0013910858
0.0015635843 -0.0012107119 -0.0067341365 0.003976086 -0.00027029822 0.005703785 0.0021818657 0.0036915038
0.0015228306 0.003157428 0.0011962324 -0.0022872759 0.0038371622 0.003803115 -0.0010680828 0.027568083
0.014299128 -0.0010748403 0.027612176 0.027957078 0.0062340647 0.027412128 0.031450704 0.02140874
-0.0006342535 -0.009034773 -0.01732156 -0.012234284 -0.014851469 -0.012256129 -0.0048958506 -0.005802435
-0.007391465 -0.0014041876 0.0035227712 0.0014621632 -0.0003973049 0.003159881 0.0014555374 -0.001813191
-0.0023078313 -0.003352183 0.0013797176 0.016855348 0.019558938 0.0074135195 0.016012333 0.013124011
0.008207862 0.019513108 0.010567686 0.0031377727 0.004261765 0.004556201 0.0013603913 0.0021631117
0.0015194518 -0.0017517263 -0.00068576774 -0.0021558497 -0.009492744 -0.0015115691 0.0008210568 -0.003346349

momentum_buffer f4 [32]
00000000: e23b 1036 56af 8a36 3e89 fbb6 4e92 bfb6
00000010: 83c8 03b7 7275 8036 2df0 ce36 3dd5 03b7
00000020: 1b33 0e36 b308 dc35 bab7 92b6 0c0c ee35
00000030: 14ad d336 7997 0637 5d71 6e36 f852 dcb5
00000040: ae06 9bb6 8da1 52b6 3723 8533 598c 1db5
00000050: 64f1 c736 badc f8b6 1153 4635 8a23 2eb6
00000060: 4c61 3835 8969 0437 7399 8534 5809 c4b5
00000070: c49d 38b6 2b38 09b7 efa9 f6b6 a4ec 7036
2.1492529e-06 4.1331323e-06 -7.49636e-06 -5.7092757e-06 -7.854894e-06 3.8283697e-06 6.1672386e-06 -7.857857e-06
2.1189396e-06 1.6393809e-06 -4.3725277e-06 1.7735888e-06 6.308439e-06 8.02229e-06 3.553075e-06 -1.6415424e-06
-4.6201376e-06 -3.1386473e-06 6.199701e-08 -5.869129e-07 5.9587637e-06 -7.416672e-06 7.3881625e-07 -2.5948707e-06
6.8686927e-07 7.892385e-06 2.488483e-07 -1.4605857e-06 -2.7509968e-06 -8.178914e-06 -7.351154e-06 3.590053e-06

momentum_buffer f4 [32]
00000000: d92b c8bd e085 07bb 2d1e 723d f00e b83c
00000010: 6c12 e33c f6ff 9c3d 8b96 eebb 27c7 bc3d
00000020: 1beb d83c f43e 1dbe e87e bcbc 1ee1 b93d
00000030: 3aa0 583c 40b1 7f3d a511 0dbc 99b7 213d
00000040: e043 233a 8443 3fbd 806a d4bd 3a07 833c
00000050: 236c 06be e8f8 90bd 3345 1cbd d2fc 79bd
00000060: daf4 703c 25bf a13d 908b 2bbd e048 a03c
00000070: 50ef 55bd 709b ff3c 085a 90bb c063 84b9
-0.09773988 -0.002067916 0.05911081 0.02246806 0.027718745 0.07666008 -0.0072811297 0.09217673
0.026479295 -0.15356046 -0.023009732 0.09076141 0.013221795 0.0624249 -0.008610164 0.039481733
0.00062280707 -0.046695247 -0.10371876 0.015994657 -0.13127188 -0.07078725 -0.03815193 -0.061032124
0.014706815 0.07897786 -0.041881144 0.019566 -0.05223018 0.031202048 -0.004405264 -0.00025251321

momentum_buffer f4 [32]
00000000: 1c41 02bd e008 3b3b 2d19 f93c 7cd5 143c
00000010: a5c7 283d 4227 fb3c 1b54 1ebb d221 343d
00000020: bd15 ef3c 031b 89bd 12eb 74bc 0cd1 3a3d
00000030: b01c a03a 9e71 743d 40c7 d23a 5090 073d
00000040: bc9e 7bbc 709b 57bc 9a95 86bd a4c5 5c3c
00000050: 48bb 54bd ba6f e2bc 60f9 26bd e457 c4bc
00000060: 889e 4abc f32f 073d 3677 c8bc 79cb 5e3c
00000070: 52a3 edbc cc89 2c3d 6495 c9bc 8cd1 9ebb
-0.031800374 0.0028539225 0.030407513 0.009084102 0.04120602 0.030658368 -0.0024159017 0.043977566
0.02918517 -0.06694605 -0.014948623 0.04560952 0.0012215581 0.059678666 0.001608111 0.03309661
-0.015357669 -0.013159618 -0.06571503 0.013474856 -0.051936418 -0.027641166 -0.040765166 -0.02396769
-0.012366898 0.033004712 -0.024470907 0.013598316 -0.029008541 0.0421236 -0.024607368 -0.0048467573
