deepcluster_implementation/experiments/run_label_fraction_variation/config_6/checkpoints/checkpoint_epoch_14.pth.tar (torch, 203741 bytes, 32 tensors)

features.module.0.weight f4 [16, 1, 3, 3]
0	0x3f2fe758	0.6871238
1	0x3ce4b051	0.027916105
2	0xbf671f7e	-0.9028243
3	0xbec8edb1	-0.39243844
4	0x3f79f5f1	0.976409
5	0xbefcd1c5	-0.4937879
6	0xbf831249	-1.0239955
7	0x3d07a429	0.03311554
8	0x3f2da167	0.67824405
9	0x3f5fb278	0.87381697
10	0x3da7e48d	0.081978895
11	0x3f43b95e	0.7645472
12	0xbe05eac7	-0.13077842
13	0xbf26bcb4	-0.6513169
14	0x3e7143a2	0.23560956
15	0xbf66dacb	-0.901776
16	0x3e8239da	0.25434762
17	0x3f54df84	0.8315356
18	0xbf7b377f	-0.98131555
19	0x3d847fea	0.0646971
20	0xbe7e2d16	-0.24821886
21	0xbf4b92b1	-0.7952071
22	0x3f4d6732	0.8023559
23	0x3f17014c	0.58986354
24	0xbf4a6d73	-0.79073256
25	0xbed06c8d	-0.40707818
26	0xbd0633e5	-0.032764334
27	0xbfa03be0	-1.2518272
28	0xbe17d189	-0.14826025
29	0xbf68c554	-0.909261
30	0x3ec326bb	0.38115487
31	0x3e502602	0.20326999
32	0xbe0fab7b	-0.14030258
33	0x3f1aa871	0.6041327
34	0xbdea9611	-0.11454404
35	0x3f24a839	0.6431919
36	0x3f38b59f	0.7215213
37	0xbbc64724	-0.006050961
38	0x3f42b16e	0.76051986
39	0xbd14a11c	-0.03628646
40	0xbf841093	-1.0317558
41	0xbe8c59c8	-0.27412248
42	0x3f7a5fb4	0.9780228
43	0xbe084887	-0.13308917
44	0x3f815912	1.0105307
45	0x3e1ed608	0.15511334
46	0x3e6bee2b	0.23040073
47	0x3dd284d7	0.102792434
48	0xbf1d5dd2	-0.61471283
49	0x3f68abb1	0.9088698
50	0xbf2d61c1	-0.67727286
51	0xbf8c2b2a	-1.0950673
52	0xbf122ae7	-0.57096714
53	0xbf55cfd3	-0.8352024
54	0x3f02e48a	0.5112997
55	0x3dc328f4	0.095292956
56	0x3f06656f	0.52498525
57	0xbe5be9b1	-0.21475865
58	0x3ecb5ed2	0.3972078
59	0x3ec10973	0.37702522
60	0xbf4b559c	-0.79427505
61	0xbed209c8	-0.41023088
62	0xbf9435e0	-1.1578941
63	0x3f349992	0.7054683
64	0x3b6cc764	0.0036129588
65	0xbf9293c8	-1.1451349
66	0x3eef1a69	0.46699837
67	0xbdd04ee0	-0.10171294
68	0xbe679c1e	-0.22618148
69	0x3eab5961	0.33466628
70	0x3daf5cb1	0.08562601
71	0x3fa76a9a	1.3079407
72	0xbf432714	-0.76231503
73	0xbf48ac93	-0.7838833
74	0xbf93cf67	-1.1547669
75	0x3e4ff3dc	0.20307869
76	0x3f366b93	0.71257895
77	0xbf1b3941	-0.6063424
78	0x3f141aa3	0.57853144
79	0x3dc1ca7c	0.09462449
80	0xbf2564a0	-0.64606667
81	0xbe335b44	-0.17515284
82	0xbeab30a1	-0.33435538
83	0xbf6f85c6	-0.935635
84	0x3f4265c2	0.7593652
85	0x3f6aae99	0.91672665
86	0xbf094075	-0.5361398
87	0xbf13c720	-0.57725716
88	0xbf274f58	-0.65355444
89	0xbf77ed5d	-0.9684656
90	0x3e5afcfb	0.21385567
91	0xbe96bbf6	-0.29440278
92	0xbc756d55	-0.01497968
93	0x3edee4a3	0.4353381
94	0xbf5bd08d	-0.858651
95	0xbd809561	-0.06278492
96	0x3fa08640	1.254097
97	0xbee2eecf	-0.44322821
98	0xbf31a203	-0.69387835
99	0xbf55b613	-0.8348095
100	0xbbbc4d02	-0.0057464847
101	0x3e530fdd	0.2061152
102	0xbe32ccce	-0.1746094
103	0xbe766808	-0.24063122
104	0x3efb2a7a	0.49055845
105	0xbef71515	-0.48258272
106	0xbe82db71	-0.25558046
107	0xbf8022d4	-1.0010629
108	0xbf57ceac	-0.8429973
109	0xbe35f95f	-0.17770909
110	0x3f893457	1.0719098
111	0xbf0bfd95	-0.5468381
112	0x3da27c98	0.079339206
113	0xbea2729d	-0.31728068
114	0xbec44f83	-0.38341913
115	0xbeaa74eb	-0.33292326
116	0xbdc6ebf5	-0.09712974
117	0xbe90b398	-0.2826202
118	0xbcef1728	-0.029185846
119	0xbf28010c	-0.656266
120	0x3dfcec74	0.12349787
121	0x3de0c073	0.10974207
122	0x3e0b1747	0.13583098
123	0xbe7f8bb1	-0.24955632
124	0xbe361d66	-0.17784652
125	0xbf230da5	-0.63692695
126	0xbf0b9f4e	-0.54539955
127	0xbf1908d4	-0.59779096
128	0xbea8447c	-0.3286475
129	0xbf079155	-0.52956134
130	0x3ea1045b	0.31448635
131	0x3d883c72	0.06652154
132	0xbf295ecd	-0.6616028
133	0xbea8edab	-0.32993826
134	0x3f8020d6	1.0010021
135	0xbf4e1d9f	-0.8051395
136	0xbf3c093f	-0.7345161
137	0xbf2dee71	-0.6794196
138	0xbe846d24	-0.25864518
139	0x3f16321a	0.586702
140	0xbeb1a4dd	-0.34696093
141	0xbf1234f2	-0.5711204
142	0x3f653765	0.8953765
143	0xbf0133b2	-0.50469506

features.module.0.bias f4 [16]
0	0xbd5fa475	-0.054600198
1	0x3d8741b6	0.0660433
2	0x3e272881	0.16324045
3	0x3e82b338	0.25527358
4	0x3e937a4a	0.28804237
5	0xbe805fc6	-0.2507307
6	0x3da2f926	0.079576775
7	0xbe0b44a1	-0.13600399
8	0xbd0ded71	-0.03465027
9	0xbe725a6f	-0.2366731
10	0x3e937663	0.2880126
11	0xbe6da5d2	-0.23207787
12	0x3e2d0cd0	0.16899419
13	0x3de3959b	0.11112519
14	0x3dd26ff5	0.1027526
15	0xbe2f0e78	-0.17095363

features.module.1.weight f4 [16]
0	0x3f162741	0.58653647
1	0x3f658b15	0.8966535
2	0x3fa0de0f	1.2567767
3	0x3f2a5c5d	0.66547185
4	0x3f129fb1	0.5727492
5	0x400506bd	2.0785363
6	0x3f21b490	0.6316614
7	0x3f8f9c8b	1.1219648
8	0x3fd702bf	1.6797713
9	0x3fcdad0a	1.6068432
10	0x3f234bf3	0.63787764
11	0x40158b77	2.3366373
12	0x3f93df33	1.155249
13	0x3ffa1d0f	1.9540118
14	0x3f99899b	1.1995119
15	0x400e8c2a	2.227305

features.module.1.bias f4 [16]
0	0xbe208c3a	-0.15678492
1	0xbfbd1d26	-1.477452
2	0xbe794239	-0.24341668
3	0xbe1b7bec	-0.15183991
4	0xbf188f50	-0.5959368
5	0xbf5e3d65	-0.8681243
6	0xbeb98111	-0.36231282
7	0xc00ee2cf	-2.2325933
8	0xbf115622	-0.56772053
9	0xbf107b4a	-0.56438124
10	0xbe0a8028	-0.1352545
11	0xbf7f19a8	-0.99648523
12	0xbf09ad3e	-0.5377997
13	0xbf15e918	-0.585588
14	0xbea80363	-0.32815084
15	0xbf665a4a	-0.8998152

features.module.1.running_mean f4 [16]
0	0xbdaf2f44	-0.08553937
1	0x3df7ac40	0.12093401
2	0x3db8f824	0.09031704
3	0x3e66eabb	0.2255048
4	0x3ec6eb34	0.3885132
5	0xbea9c115	-0.33155122
6	0x3d45e6fe	0.048315994
7	0xbdbc20d1	-0.09185947
8	0xbdeb28f7	-0.11482423
9	0xbea9ed8f	-0.33189055
10	0x3e9b819e	0.30372328
11	0xbe990c10	-0.29892015
12	0x3e0c5938	0.13705909
13	0x3d5ebd52	0.05437977
14	0x3d793202	0.060838707
15	0xbe84ce55	-0.2593867

features.module.1.running_var f4 [16]
0	0x3f64c65f	0.8936519
1	0x40053b3a	2.08174
2	0x40546bc4	3.3190775
3	0x400d70b5	2.210004
4	0x400d89ab	2.2115276
5	0x409f6897	4.9815173
6	0x400f1d43	2.236161
7	0x402a1ac6	2.6578841
8	0x40a3510d	5.103644
9	0x409f4c89	4.9780927
10	0x3fe7de99	1.8114806
11	0x4063a51e	3.556953
12	0x402dcb5b	2.7155368
13	0x3fd44106	1.6582344
14	0x406ce097	3.7012079
15	0x4086d446	4.2134123

features.module.4.weight f4 [32, 16, 3, 3]
0	0xbeaeff3a	-0.34179097
1	0xbe581dd3	-0.21105127
2	0xbe883570	-0.2660327
3	0xbde852f7	-0.11343949
4	0xbd37187c	-0.044701084
5	0xbdb55ba2	-0.08855368
6	0xbd80b496	-0.06284444
7	0xbd0ef0e2	-0.034897693
8	0xbe003e14	-0.12523681
9	0x3d802d6b	0.06258663
10	0xbcbc4e06	-0.022986423
11	0xbd03ab9b	-0.032146078
12	0x3ceabc55	0.028654257
13	0xbc276b19	-0.010218405
14	0x3d9548f4	0.07289305
15	0xbe259bac	-0.16172665
16	0xbe95fca6	-0.29294318
17	0xbe85eaaf	-0.26155612
18	0x3bed90c8	0.0072499253
19	0xbce20b85	-0.027593384
20	0x3c63d79f	0.013906389
21	0xbd1d57bc	-0.03841375
22	0x3ab35d62	0.0013684446
23	0x3c54fe5e	0.013000099
24	0x3ca0156e	0.019541468
25	0xbd2e8a5a	-0.04261241
26	0x3bee26da	0.007267815
27	0xbe822453	-0.25418338
28	0xbe2ef935	-0.17087252
29	0xbe868307	-0.2627184
30	0xbdcf5d70	-0.10125244
31	0xbd60e395	-0.05490454
32	0xbdde7b53	-0.10863366
33	0xbe4c9192	-0.19977406
34	0xbd55b9b8	-0.05217907
35	0xbe2b7579	-0.16744031
36	0xbdc72816	-0.09724443
37	0x3d7b6bc3	0.061382066
38	0xbda048c2	-0.078263775
39	0xbdf544ce	-0.11976014
40	0x3c94cc34	0.018163778
41	0xbdaee7e4	-0.085403234
42	0xbe0a8116	-0.13525805
43	0xbe03fe01	-0.12889864
44	0xbe3af0e8	-0.18255961
45	0xbda4dea2	-0.08050276
46	0x3c60fc24	0.01373199
47	0xbcbe1f93	-0.023208415
48	0xbe01c083	-0.12671094
49	0xbdc1f192	-0.09469904
50	0xbe07868a	-0.13234916
51	0x3e573eed	0.21020098
52	0x3ccfcca1	0.02536613
53	0x3d13d287	0.036089446
54	0xbea4cd40	-0.32187843
55	0xbe477d00	-0.19481277
56	0xbe7da1d2	-0.24768761
57	0xbe73965a	-0.23787823
58	0xbe67a286	-0.22620592
59	0xbeadc400	-0.339386
60	0x3dc9df8a	0.0985709
61	0x3d8671af	0.06564652
62	0x3d1528db	0.036415916
63	0xbe86269e	-0.26201338
64	0xbe178ded	-0.14800234
65	0xbe2f7aef	-0.17136739
66	0xbd7e15dd	-0.06203257
67	0xbd7092b9	-0.058733676
68	0xbdde763f	-0.108623974
69	0xbe0b8a91	-0.13627078
70	0xbe2ce2e9	-0.16883434
71	0xbd9a9014	-0.07547012
72	0xbc3014e7	-0.010747171
73	0xba64d12b	-0.0008728678
74	0x3cadeb9e	0.021230515
75	0xbd035159	-0.03206
76	0x3bdf3c58	0.0068126135
77	0xbd4a0c61	-0.04932821
78	0xbdac2351	-0.084051736
79	0x3ce0d96e	0.027447429
80	0x3b226e2a	0.0024784901
81	0x3c06617c	0.008201953
82	0x3c43c86d	0.011949641
83	0xbd7e9aed	-0.062159467
84	0xbd9a5be9	-0.07537062
85	0xbd69047a	-0.056889035
86	0xbdd74e64	-0.10512999
87	0xba8a4dd1	-0.0010551756
88	0x3d08ed81	0.033429626
89	0x3d88af76	0.066740915
90	0xbe01030b	-0.12598817
91	0xbbf09824	-0.0073423553
92	0xbd52ff77	-0.05151316
93	0xbd6730c2	-0.056442983
94	0x3d113989	0.03545526
95	0xbc532fb6	-0.012889793
96	0xbe88d215	-0.2672278
97	0xbdf009b8	-0.11720604
98	0xbe1814f8	-0.14851749
99	0xbc7e6f95	-0.015529533
100	0xbcd638a9	-0.026150065
101	0xbd0d8680	-0.034552097
102	0xbd666573	-0.056249093
103	0xbcc0903a	-0.023506273
104	0xbd4ac734	-0.04950638
105	0x3cebc9eb	0.028782805
106	0x3bbd1cbe	0.0057712486
107	0x3d73613a	0.059418894
108	0xbe0be7a5	-0.13662584
109	0xbe1e4df9	-0.15459432
110	0xbe0a9ce4	-0.13536412
111	0x3cffa037	0.031204326
112	0x3d566678	0.052343816
113	0x3d1b4515	0.03790768
114	0x3ddc7dcc	0.10766181
115	0x3db4d15f	0.08828997
116	0x3d093688	0.03349927
117	0x3c135aa1	0.008993776
118	0xbccb5dd8	-0.024825022
119	0xbc604feb	-0.013690929
120	0xbc8bc846	-0.017063271
121	0xbc117536	-0.008878043
122	0xbca79790	-0.020458013
123	0xbcd50110	-0.026001483
124	0xbc07df59	-0.008292996
125	0xbc006b12	-0.007838028
126	0xbd5f023d	-0.054445494
127	0x3d0a6b38	0.033793658
128	0xbc2be202	-0.010490896
129	0x3aa3d4ea	0.0012499366
130	0x3cf06f5b	0.029349973
131	0x3d00fcf5	0.03149124
132	0xbda07879	-0.07835478
133	0xbde6c825	-0.11268643
134	0xbe07dd58	-0.1326803
135	0xbc9ef6e7	-0.019404842
136	0xbc3ac9fd	-0.011400697
137	0xbc173472	-0.0092288125
138	0xbd84c6ee	-0.06483255
139	0xbcb89c5d	-0.022535497
140	0xbd153076	-0.03642317
141	0xbceb9bbb	-0.028760782
142	0xbd27d2a9	-0.040972386
143	0xbc259e15	-0.0101084905
144	0x3d44e976	0.04807421
145	0x3e307aac	0.17234296
146	0x3d9e94be	0.07743214
147	0xbd0d3264	-0.034471884
148	0xbe01e0f3	-0.12683468
149	0x3d2b51ac	0.041825935
150	0xbe1234f7	-0.14278017
151	0x39d08880	0.00039774552
152	0x3c78b1ae	0.015179081
153	0xbe526bef	-0.20548986
154	0xbe38a3fa	-0.18031302
155	0xbde326ee	-0.110914096
156	0x3daf8785	0.0857077
157	0x3c9dc292	0.019257817
158	0xbe4ba8a1	-0.19888546
159	0xbd705c92	-0.058682032
160	0xbe2c317b	-0.1681575
161	0xbeb68440	-0.35647774
162	0x3dc1d8eb	0.09465202
163	0xbd40f60e	-0.047109656
164	0xbb87030a	-0.0041202353
165	0xbdf18021	-0.11792017
166	0x3db357c9	0.08756978
167	0x3d881007	0.06643682
168	0xbeb67e7b	-0.35643372
169	0xbcdd924b	-0.027047297
170	0x3c8e0a1c	0.017338805
171	0xbde19fb6	-0.110167906
172	0x3d38d4f0	0.045124948
173	0xbd816bb5	-0.063193716
174	0xbd3dddee	-0.046354227
175	0xbdfacada	-0.12245722
176	0xbddc6a80	-0.10762501
177	0xbe80b509	-0.2513812
178	0xbec0349b	-0.37540135
179	0xbee2ba28	-0.4428265
180	0xbc9307fa	-0.01794814
181	0xbcd88c0e	-0.02643397
182	0x3e842473	0.2580906
183	0xbd78c944	-0.060738817
184	0xbd867e13	-0.065670155
185	0x3d06bf47	0.03289726
186	0xbc6e2d2d	-0.014537138
187	0xbdfa5626	-0.12223463
188	0xbe4f4b75	-0.20243628
189	0xbd5d91b1	-0.05409402
190	0x3e57be36	0.21068653
191	0x3e1183bc	0.14210409
192	0xbea1ee2a	-0.31627017
193	0xbd9de830	-0.07710302
194	0xbdbb46fe	-0.091444
195	0xbe7b9e8b	-0.24572198
196	0x3d9c58ca	0.07634123
197	0x3db14f61	0.086577184
198	0x3cc48893	0.023990905
199	0x3df87920	0.12132478
200	0x3e17ce20	0.14824724
201	0xbdf36f14	-0.11886421
202	0xbbdc54da	-0.0067239823
203	0xbcfc3b16	-0.030789893
204	0xbe07f402	-0.13276675
205	0xbda58d5a	-0.08083601
206	0xbc999514	-0.018747844
207	0xbde074c7	-0.109597735
208	0xbe31f91e	-0.17380187
209	0xbe9e5f5c	-0.30932128
210	0xbd99a26e	-0.07501684
211	0x3d3ec75c	0.046576843
212	0xbe08d5dd	-0.13362832
213	0xbddbe3a8	-0.10736781
214	0xbe1cdd60	-0.15318823
215	0xbe6cbe4d	-0.23119469
216	0xbe5eb475	-0.21748526
217	0xbed5dce4	-0.4177009
218	0xbee2ff45	-0.4433538
219	0xbdb0c05a	-0.08630438
220	0x3d0c7b96	0.03429755
221	0xbd3d0367	-0.046145823
222	0xbec43f80	-0.38329697
223	0xbe86e24d	-0.2634453
224	0xbeadcaa6	-0.3394367
225	0xbd799f29	-0.060942803
226	0xbd99e2b9	-0.07513947
227	0xbe30200e	-0.17199728
228	0x3d0d5c09	0.0345116
229	0x3c68c253	0.014206487
230	0xbe1ce332	-0.15321043
231	0x3db2940c	0.08719644
232	0x3e1b1a81	0.15146829
233	0xbbec7f83	-0.007217349
234	0x3e527ff8	0.20556629
235	0xbd21490f	-0.039376315
236	0xbdb59760	-0.08866763
237	0x3c566029	0.01308445
238	0x3af1262f	0.001839822
239	0x3c879d7a	0.016554583
240	0x3de29dd5	0.1106526
241	0xbd85ddb8	-0.0653643
242	0xbb69fdd4	-0.0035704272
243	0xbd85ef90	-0.065398335
244	0xbc03ff09	-0.008056411
245	0x3d316231	0.043306533
246	0xbec514d6	-0.3849246
247	0x3c8272b3	0.015923833
248	0xbe0c9160	-0.13727331
249	0xbecaf918	-0.39643168
250	0x3dd62fd5	0.10458342
251	0xbd1ac279	-0.03778312
252	0xbc0d7965	-0.0086349
253	0xbd0b016b	-0.0339369
254	0x3e51f3e0	0.20503187
255	0xbd1a05a2	-0.037603028

features.module.4.bias f4 [32]
0	0x3ca84220	0.020539343
1	0x3d227d38	0.0396702
2	0xbd940211	-0.07226957
3	0xbd61d341	-0.055133108
4	0xbd9b5fba	-0.07586618
5	0x3d17246e	0.036899976
6	0x3d72d5f5	0.059286077
7	0xbd9b8d5e	-0.07595323
8	0x3ca858e2	0.020550195
9	0x3c83553e	0.016031858
10	0xbd2dc2ef	-0.04242223
11	0x3c8be903	0.017078882
12	0x3d79ab33	0.060954284
13	0x3d9ecc77	0.07753842
14	0x3d0c0564	0.03418483
15	0xbc806910	-0.015675098
16	0xbd383a8b	-0.044977706
17	0xbcf6a43a	-0.030107606
18	0x3a2a08f1	0.0006486318
19	0xbbbe3f6e	-0.0058059013
20	0x3d6c42eb	0.057681005
21	0xbd924f7b	-0.07144066
22	0x3be73585	0.0070559406
23	0xbccdf633	-0.025141811
24	0x3bd7ffa3	0.0065917536
25	0x3d9bb02e	0.07601963
26	0x3b178f36	0.0023126132
27	0xbc60a1ba	-0.013710434
28	0xbcdb7c42	-0.02679265
29	0xbda18fef	-0.07888781
30	0xbd92ada7	-0.07162028
31	0x3d0d148a	0.034443416

features.module.5.weight f4 [32]
0	0x3f020148	0.50783205
1	0x3f389341	0.7209969
2	0x3eee74ec	0.4657358
3	0x3f2fe1ca	0.687039
4	0x3f6387c8	0.8887906
5	0x3fc53457	1.5406598
6	0x3f1a082f	0.6016874
7	0x3f57f0b5	0.84351665
8	0x3f00ca3d	0.5030859
9	0x3f483fab	0.7822215
10	0x3f0e9c78	0.557075
11	0x3f942557	1.1573895
12	0x3f6ecf7c	0.93285346
13	0x3f11462b	0.5674769
14	0x3ece71fb	0.40321335
15	0x3f889304	1.0669866
16	0x3f51c2d5	0.81937915
17	0x3f9f774f	1.2458285
18	0x3fa813b7	1.3131016
19	0x3f76d033	0.96411437
20	0x3f6478e6	0.89246976
21	0x3f6c6072	0.92334664
22	0x3f148b36	0.5802492
23	0x3f3d3c75	0.73920375
24	0x3f3efa10	0.74600315
25	0x3f342c6b	0.70380276
26	0x3f2a017e	0.66408527
27	0x3f352dc9	0.7077299
28	0x3f9be141	1.2178117
29	0x3f5dc26d	0.86624795
30	0x3ef054ef	0.469398
31	0x3f48d7dc	0.78454375

features.module.5.bias f4 [32]
0	0xbe01f75a	-0.12692013
1	0xbf7304e4	-0.9492934
2	0xbe90973e	-0.2824039
3	0xbf4dfe21	-0.80465895
4	0xbf3ac9fa	-0.7296444
5	0xc04fad77	-3.2449625
6	0xbf5f64a1	-0.8726292
7	0xbfd2a5c3	-1.6456836
8	0xbec15021	-0.37756446
9	0xbfa9abcb	-1.3255552
10	0xbf149d62	-0.5805265
11	0xc0285db6	-2.6307197
12	0xbf7375a7	-0.951014
13	0xbf2b6adc	-0.6695993
14	0xbeb7b185	-0.35877624
15	0xbffe0ca8	-1.9847612
16	0xbf51c359	-0.819387
17	0xbf8d4ce2	-1.1039088
18	0xc03e3fd3	-2.9726455
19	0xbf2010d6	-0.6252569
20	0xbf3178ed	-0.69325143
21	0xbf2dfc43	-0.67963046
22	0xbf0aba83	-0.54190844
23	0xbf7f9227	-0.99832386
24	0xbf488a74	-0.7833626
25	0xbf9a2a31	-1.2044126
26	0xbf8c7c24	-1.0975385
27	0xbf8d7d63	-1.105389
28	0xbf8803d3	-1.0626167
29	0xbfb1631c	-1.3858371
30	0xbe212f41	-0.15740682
31	0xbfb31d8e	-1.3993394

features.module.5.running_mean f4 [32]
0	0xbf47cf87	-0.78051037
1	0xbfde78ff	-1.7380675
2	0xbf30dd7a	-0.69087946
3	0xbf8f41c8	-1.119195
4	0xbf5147f4	-0.81750417
5	0xc045c51c	-3.0901556
6	0xbea525c0	-0.32255363
7	0xc0218934	-2.5239992
8	0xbf2268ef	-0.63441366
9	0xbfd21270	-1.6411877
10	0xbf9da515	-1.2316004
11	0xc020d8dc	-2.513236
12	0xbf84ddbd	-1.0380169
13	0xbf9cad80	-1.2240448
14	0xbf06e636	-0.52695024
15	0xc0096c60	-2.1472397
16	0xbfb21d46	-1.3915184
17	0xbf993a06	-1.1970832
18	0xc04271db	-3.0381992
19	0xbf67144a	-0.90265334
20	0xbf4909c3	-0.7853052
21	0xbf68e5d4	-0.9097569
22	0xbf4bd080	-0.7961502
23	0xbfdf90ae	-1.7466028
24	0xbfa5fc42	-1.2967608
25	0xbfded409	-1.7408458
26	0xbff341c1	-1.9004441
27	0xbfb4a366	-1.4112365
28	0xbf416c16	-0.7555555
29	0xbff890a1	-1.9419137
30	0xbdc279b3	-0.094958685
31	0xbfb44c59	-1.40858

features.module.5.running_var f4 [32]
0	0x3f1cb033	0.6120636
1	0x3f4aab10	0.7916727
2	0x3f5c18f4	0.85975575
3	0x3f2a1dff	0.6645202
4	0x3f8fb7e4	1.1227994
5	0x3fcbc37a	1.591903
6	0x3f283bc8	0.6571622
7	0x3f9e1fb8	1.235343
8	0x3f36fbb5	0.71477824
9	0x3f88d06d	1.0688607
10	0x3f4e0002	0.8046876
11	0x3f992293	1.1963676
12	0x3f546462	0.8296567
13	0x3f1ceade	0.6129588
14	0x3ef61b9e	0.48067945
15	0x3f84e7de	1.038326
16	0x3fad4a8f	1.3538378
17	0x4016ad48	2.3543262
18	0x3fae7241	1.3628618
19	0x3fbc9adf	1.4734763
20	0x3f84a7bc	1.0363688
21	0x3fc3857a	1.5275109
22	0x3f097772	0.53697884
23	0x3f53ce25	0.82736427
24	0x3f82b783	1.0212253
25	0x3f703991	0.9383784
26	0x3f80fa78	1.0076437
27	0x3f5ca446	0.8618816
28	0x3fc86b06	1.5657661
29	0x3f6c1a28	0.9222741
30	0x3f213a72	0.62979805
31	0x3f4a2997	0.7896971

features.module.8.weight f4 [64, 32, 3, 3]
0	0xbc4af5cc	-0.012387704
1	0xbc63aa42	-0.013895573
2	0xbbda9538	-0.0066706203
3	0xba7f6774	-0.0009742894
4	0xbbacddf3	-0.005275482
5	0xbaea3d97	-0.0017871138
6	0xbcc0957c	-0.02350878
7	0xbd0a7df8	-0.03381154
8	0xbc95e501	-0.018297674
9	0x39f416bb	0.00046556242
10	0xbbadcfc5	-0.005304309
11	0x3a7290bd	0.0009253135
12	0xbd3c8066	-0.046020888
13	0xbd1e3850	-0.038627923
14	0xbd17c737	-0.03705522
15	0xbd3dacde	-0.046307437
16	0xbd249c90	-0.040188372
17	0xbd02ec50	-0.031963646
18	0xbc799a78	-0.015234582
19	0x3b8480a4	0.0040436555
20	0x3c9176c8	0.017756835
21	0xbced7dba	-0.028990615
22	0xbc87abd1	-0.01656142
23	0xbba92c54	-0.005162755
24	0xbce3ce00	-0.02780819
25	0xbcb79349	-0.022409098
26	0xbc300cf6	-0.010745278
27	0x3e5e7a7d	0.21726413
28	0x3e0b7d5e	0.13622043
29	0x3dc5271b	0.096265994
30	0x3e036c06	0.12834176
31	0x3da00322	0.078130975
32	0x3d6ddfad	0.058074642
33	0x3e2a98a4	0.1665979
34	0x3dfc74b8	0.1232695
35	0x3dfe4a4e	0.12416516
36	0x3e1f6507	0.15565883
37	0x3dcb0756	0.099135086
38	0x3e16c123	0.14722113
39	0x3d4cf86a	0.050041594
40	0x3c88a4b4	0.0166801
41	0x3d32a475	0.04361387
42	0x3dbc046d	0.09180532
43	0x3d042b54	0.032267883
44	0x3d6b065e	0.05737912
45	0xbca65555	-0.020304361
46	0xb911e87f	-0.00013914889
47	0xbc6b8a3e	-0.014376221
48	0xbd1dbea9	-0.038511906
49	0xbc1d0946	-0.0095847305
50	0xbcb185ac	-0.021670185
51	0xbddcda5d	-0.10783837
52	0xbdb48a3d	-0.08815429
53	0xbda7fc3a	-0.08202405
54	0xbd7b0ceb	-0.061291616
55	0xbd6f6241	-0.05844331
56	0xbd90eb97	-0.07076185
57	0xbd41e734	-0.047339633
58	0xbd531447	-0.05153301
59	0xbd8b1072	-0.06790246
60	0xbd5cad77	-0.053876366
61	0xbd910319	-0.07080669
62	0xbdefc420	-0.1170733
63	0x3cf2ac35	0.02962313
64	0x3ccdea34	0.02513609
65	0x3cb4bdf0	0.022063226
66	0x3d57092d	0.052498985
67	0x3d3946f0	0.045233667
68	0x3d17102e	0.036880665
69	0x3d6bb78a	0.057548083
70	0x3d3c1f92	0.045928545
71	0x3d45561d	0.048177827
72	0x3aaca7f4	0.0013172613
73	0x3b9c1d9c	0.004764272
74	0x3bf4bc3b	0.007468728
75	0x3c1e4556	0.009660086
76	0x3b9d2d3f	0.0047966535
77	0xbc686469	-0.014184096
78	0xba81092b	-0.0009844651
79	0x3bb1ae09	0.005422358
80	0xbaac4986	-0.001314447
81	0xbc5c8a42	-0.013460698
82	0x3b85806c	0.004074147
83	0x3c637bb3	0.013884473
84	0xbcc38ac8	-0.023869887
85	0xbcb240a4	-0.021759339
86	0xbc038aaa	-0.008028666
87	0xbc813830	-0.015773863
88	0xbc6a6a97	-0.01430764
89	0xbbfc9bf2	-0.00770902
90	0xbc2f1437	-0.010685972
91	0x3a52bd0c	0.00080390344
92	0x3c0516b0	0.008123085
93	0xbce4f102	-0.027946953
94	0xbbd7478b	-0.006569808
95	0x3abedf59	0.0014562412
96	0xbcd45b75	-0.025922516
97	0xbc6cf1fc	-0.01446199
98	0xbc508fef	-0.012729629
99	0xbe45d933	-0.19321136
100	0xbe26fc5b	-0.16307203
101	0xbe18bfe8	-0.14916956
102	0xbdc72865	-0.097245015
103	0xbdaf54bc	-0.08561084
104	0xbdab4f48	-0.08364731
105	0xbd8033e0	-0.06259894
106	0xbd811b31	-0.063040145
107	0xbd84106b	-0.06448444
108	0xbd6cb98f	-0.05779415
109	0xbd421ca3	-0.04739059
110	0xbd773cd5	-0.06036075
111	0xbd68a8a5	-0.056801457
112	0xbd59083c	-0.05298637
113	0xbd81ccbe	-0.063378796
114	0xbd3cf033	-0.04612751
115	0xbd36cb72	-0.044627614
116	0xbdad7274	-0.08469096
117	0x3da213c3	0.079139255
118	0x3d84a8aa	0.064774826
119	0x3db73bb4	0.08946934
120	0x3d566811	0.05234534
121	0x3d343ce0	0.044003367
122	0x3da9ea6f	0.08296668
123	0x3da50ee6	0.08059482
124	0x3d9d58e7	0.076829724
125	0x3ddc2a06	0.10750203
126	0xbc3f7396	-0.011685273
127	0xbc7e51f5	-0.01552247
128	0xbd056bc1	-0.032573465
129	0xbd079374	-0.033099607
130	0xbd0ba572	-0.034093328
131	0xbd2a8723	-0.041632783
132	0xbd51e9a2	-0.0512482
133	0xbd78b50a	-0.060719527
134	0xbd7f3de6	-0.06231489
135	0xbc469e2c	-0.012122672
136	0xbcfb149a	-0.030649472
137	0xbc49b89b	-0.01231208
138	0xbba29e06	-0.0049626855
139	0xbcebce1c	-0.028784804
140	0xbc44518c	-0.011982333
141	0x3d2c5080	0.04206896
142	0x3c974079	0.01846336
143	0x3cab4a34	0.020909406
144	0xbd3e094d	-0.04639559
145	0xbd437e29	-0.047727738
146	0xbd2c600a	-0.042083777
147	0xbc631dd8	-0.013862096
148	0xbc8a2695	-0.0168641
149	0xbb85d64c	-0.004084384
150	0x3d75e576	0.060033284
151	0x3d0474c1	0.032337908
152	0x3d64c01e	0.05584728
153	0x3d9382e0	0.07202697
154	0x3d2087ba	0.03919194
155	0x3dda44f1	0.10657681
156	0x3dbe23ba	0.09284158
157	0x3d0c3cdd	0.03423773
158	0x3df9538b	0.12174138
159	0x3e4cd3d7	0.20002685
160	0x3dfa466b	0.122204624
161	0x3e63e9eb	0.22257201
162	0xbdfa2f79	-0.12216086
163	0xbdbc1c79	-0.09185118
164	0xbdab98a7	-0.083787255
165	0xbe15a0cc	-0.1461212
166	0xbdcb93b0	-0.099402785
167	0xbdc1697f	-0.0944395
168	0xbe4463cf	-0.19178699
169	0xbe16c27e	-0.1472263
170	0xbe05cbb5	-0.1306599
171	0x3d89b206	0.067234084
172	0x3d341859	0.043968532
173	0x3de6548c	0.11246595
174	0x3c8dcd9e	0.01730996
175	0x3ca1d3f9	0.019754397
176	0x3da8971c	0.08231947
177	0x3d11d0d3	0.03559954
178	0x3d453ba7	0.048152592
179	0x3de9f061	0.11422802
180	0xbd2b09e0	-0.041757464
181	0xbcee6e92	-0.029105458
182	0xbd46ecfe	-0.048565857
183	0xbca87598	-0.020563886
184	0xbc79b3fa	-0.015240664
185	0xbd006ae3	-0.031351935
186	0x3bb92859	0.005650562
187	0xba44f670	-0.00075135287
188	0x398616ee	0.00025575556
189	0xbd35645b	-0.04428516
190	0xbd1921b0	-0.037385643
191	0xbd7858eb	-0.060631674
192	0xbca2bbd4	-0.019864954
193	0xbc4c9cb1	-0.01248853
194	0xbcdc02ec	-0.026856862
195	0xbce5a333	-0.028031921
196	0xbced735d	-0.028985674
197	0xbd18169d	-0.03713094
198	0xbd30c886	-0.043159984
199	0xbd0b63b2	-0.034030624
200	0xbd114364	-0.03546466
201	0xbc8d567e	-0.017253157
202	0xbc60376a	-0.013685087
203	0xbcaf97b1	-0.021434637
204	0xbcff0c73	-0.031133866
205	0xbcb5a89f	-0.022175131
206	0xbd09190e	-0.03347116
207	0xbc973e38	-0.018462285
208	0xbc916a39	-0.017750846
209	0xbc98601d	-0.018600518
210	0xbb863ba4	-0.004096465
211	0xbc73b1a1	-0.014873893
212	0xbce1826d	-0.027528012
213	0xbbe0ecf2	-0.0068641836
214	0xbcbc0c15	-0.02295498
215	0xbd2c7b9d	-0.042110074
216	0xbcc2e8c1	-0.023792626
217	0xbcaee59f	-0.021349726
218	0xbc9d2de8	-0.019186929
219	0xbadd47ea	-0.0016882394
220	0xb999b6cb	-0.00029318625
221	0xbbd1c10f	-0.006401188
222	0x3b19792d	0.0023418174
223	0x3bc81db4	0.0061070565
224	0x3c5e5ee0	0.013572425
225	0x3bb9b755	0.005667607
226	0x3cbacc16	0.022802394
227	0x3cbfc1a1	0.02340776
228	0xbc7ab434	-0.015301753
229	0xba4f1859	-0.00079000514
230	0x3c8a3a2d	0.016873443
231	0xbc9cabea	-0.019124944
232	0xbc1bc843	-0.009508195
233	0x3c5e844e	0.013581349
234	0x3caafbe5	0.020872066
235	0x3cc47f41	0.02398646
236	0x3c4bee98	0.012447022
237	0x3c9a6b93	0.018850124
238	0x3c1a84bf	0.009431063
239	0xba3134ce	-0.00067598827
240	0x3cdd35ed	0.027003253
241	0x3c315791	0.0108241
242	0x3c1dfacd	0.009642315
243	0x3d074c10	0.033031523
244	0x3d312162	0.043244727
245	0x3d2f1ac1	0.042750124
246	0x3bd6941f	0.006548419
247	0x3cb4c6d1	0.02206746
248	0x3c46c954	0.012132961
249	0xbc69e01a	-0.014274621
250	0xbb81fed7	-0.003967147
251	0xbce05fba	-0.027389396
252	0x3e702d84	0.23454863
253	0x3e35c997	0.17752682
254	0x3e7899e4	0.24277455
255	0x3dc28b8b	0.09499272

features.module.8.bias f4 [64]
0	0xbcd1fbba	-0.025632728
1	0x3c28944b	0.010289262
2	0x3c3181cb	0.010834168
3	0x3d617608	0.055044204
4	0x3d5178d7	0.051140632
5	0xbd3d0e80	-0.046156406
6	0x3ce38a9a	0.027776051
7	0xbd378cde	-0.044812076
8	0xbcdfeabf	-0.027333615
9	0x3cb4b7b4	0.022060253
10	0xbd1ca39d	-0.03824197
11	0x3d446382	0.04794646
12	0x3cad66f3	0.021167254
13	0x3b9c96d4	0.0047787223
14	0x3d004755	0.031318028
15	0xbd43179f	-0.04762995
16	0x3c171f07	0.009223706
17	0x3caaac5b	0.020834139
18	0xbcd2a9da	-0.025715757
19	0xbc8e6353	-0.017381346
20	0x3cb9caa3	0.022679633
21	0x3d41ff03	0.04736234
22	0xbcb296b4	-0.021800376
23	0x3d0a47fd	0.03376006
24	0x3d006527	0.031346466
25	0xbd060819	-0.032722566
26	0xbd360b17	-0.04444417
27	0xbbd7dd8d	-0.00658769
28	0x3d0e1b59	0.03469405
29	0xbd3eeef9	-0.04661462
30	0xbd1f2197	-0.038850393
31	0x3d26e65d	0.040747035
32	0xbd035253	-0.032060932
33	0xbd23853a	-0.039921977
34	0xbb1bf567	-0.0023797394
35	0x3d601dfa	0.054716088
36	0x3d170ec2	0.03687931
37	0x3cec4df5	0.028845767
38	0x3bea6549	0.0071531874
39	0xbce57a7b	-0.028012505
40	0xbd326eca	-0.043562688
41	0x3cf35731	0.029704662
42	0x3c87c458	0.016573116
43	0x3c6e6267	0.014549828
44	0xbca943d5	-0.020662228
45	0xbd5f6dac	-0.05454795
46	0x3bfaa00b	0.007648473
47	0xbc1dbe92	-0.009627955
48	0xbb8a9ffa	-0.0042304965
49	0x3badeab2	0.005307519
50	0xbd05dbd8	-0.032680362
51	0xbd0ea672	-0.034826703
52	0xbc84d933	-0.01621685
53	0x3cb1c3c2	0.02169979
54	0xbd0f5f50	-0.035003006
55	0x3d557714	0.052115515
56	0xbd615f71	-0.05502266
57	0xbd0e20cf	-0.034699257
58	0x3c834508	0.016024128
59	0xbd5ec560	-0.05438745
60	0xbcfe42a9	-0.031037645
61	0x3cec5bdf	0.028852401
62	0xbd1b357d	-0.037892807
63	0x3c92af93	0.017905986

features.module.9.weight f4 [64]
0	0x40eda445	7.4263024
1	0x40c50b9b	6.1576667
2	0x40c03e9a	6.007642
3	0x40ce5f9b	6.4491706
4	0x40f39c2e	7.612815
5	0x40ca8dc3	6.329805
6	0x40d3d7ab	6.6200767
7	0x40b3abda	5.614728
8	0x40a20ff4	5.0644474
9	0x40b81cb2	5.753503
10	0x40feec76	7.966365
11	0x40bbbc6f	5.866752
12	0x40913d25	4.538714
13	0x40c32aff	6.0989985
14	0x40c3feda	6.12486
15	0x40dcd1db	6.900617
16	0x40a9edc0	5.310272
17	0x40a77855	5.233439
18	0x40dcbbfa	6.8979464
19	0x40de7b2e	6.9525366
20	0x40a8d9b2	5.276574
21	0x40c3484c	6.1025753
22	0x40c6ac2e	6.208518
23	0x40babb7c	5.8353863
24	0x40cdc292	6.4300013
25	0x40aeea44	5.466097
26	0x40b80c34	5.7514896
27	0x408a2c2d	4.3178926
28	0x40a2ffe5	5.093737
29	0x40c07ef1	6.015496
30	0x40b04070	5.507866
31	0x40ba9d97	5.831737
32	0x40c6a0bd	6.2071214
33	0x40b2a287	5.58234
34	0x40d77734	6.733301
35	0x40aeae12	5.458749
36	0x40a1a255	5.051066
37	0x410dd654	8.864826
38	0x40b44e8b	5.634588
39	0x40c216b6	6.0652723
40	0x40b32638	5.5984154
41	0x40a1a7bc	5.0517254
42	0x40b2b8b0	5.585045
43	0x40a73a5d	5.2258744
44	0x40b1aab5	5.5520883
45	0x4107ab4f	8.479323
46	0x40bb7bbf	5.8588557
47	0x40a618cd	5.1905274
48	0x40c43024	6.1308765
49	0x40c2128c	6.064764
50	0x40d71ab3	6.722009
51	0x40c903fd	6.281737
52	0x409b83ba	4.85983
53	0x40af86b9	5.4851956
54	0x40c698cf	6.2061534
55	0x40e12e42	7.0368967
56	0x40991c7e	4.784728
57	0x40ac3c1a	5.3823366
58	0x40b2c6fa	5.586789
59	0x408dac76	4.4273024
60	0x40ac415b	5.382978
61	0x40a24a58	5.071575
62	0x40a6e36e	5.2152624
63	0x40c415e4	6.127672

features.module.9.bias f4 [64]
0	0x3fc534ef	1.5406779
1	0x3fac4fe8	1.3461885
2	0x3fb29375	1.395125
3	0x4018cbe8	2.3874454
4	0x3fd2446e	1.6427133
5	0x3f992a47	1.1966027
6	0x40068c2b	2.1023052
7	0x40513203	3.2686775
8	0x3fa535db	1.290706
9	0x3fe68254	1.8008523
10	0x3fbfeb29	1.499364
11	0x3f9f2025	1.2431685
12	0x3f80899b	1.0041994
13	0x3f815c19	1.0106231
14	0x3fab2d05	1.3373114
15	0x3fb2aabf	1.3958358
16	0x3f9b347f	1.2125396
17	0x3f88e804	1.0695806
18	0x3fbd7965	1.4802672
19	0x3fb25bea	1.39343
20	0x3f89aa29	1.0755054
21	0x4069c7ed	3.6528275
22	0x3fc1ccaa	1.5140584
23	0x3faab16a	1.3335392
24	0x400b8bde	2.1804118
25	0x3f9237eb	1.1423315
26	0x3fae6cc6	1.3626945
27	0x3f419e02	0.75631726
28	0x3f87a10a	1.059602
29	0x3faca9f6	1.3489368
30	0x3fdac5e8	1.7091646
31	0x3fa13418	1.2594023
32	0x3f97687c	1.1828761
33	0x40001579	2.0013106
34	0x40233db7	2.5506418
35	0x4007a18b	2.1192348
36	0x3fc8504b	1.5649503
37	0x3ff22443	1.8917316
38	0x3fb8fd39	1.4452277
39	0x3f9f383b	1.2439035
40	0x3fd6e785	1.6789404
41	0x3f9e498b	1.2366194
42	0x3fecd9b4	1.8503938
43	0x4043c065	3.0586178
44	0x3f8683fb	1.0509027
45	0x3ffb517c	1.9634242
46	0x3f863f45	1.0488058
47	0x3f81da9a	1.0144837
48	0x3faa5df6	1.3309925
49	0x3fa49cde	1.2860372
50	0x3f98dc36	1.1942203
51	0x3f78591b	0.97010964
52	0x3fbbbb6c	1.4666572
53	0x3fb1141e	1.3834264
54	0x3fc727a8	1.5558977
55	0x4014cdc2	2.3250585
56	0x3f4d8a6b	0.80289334
57	0x3f90d81e	1.1315954
58	0x3f927e9b	1.1444887
59	0x3f80aea4	1.0053296
60	0x3f80c4f6	1.0060108
61	0x3f893e14	1.072207
62	0x3fa935bf	1.3219527
63	0x4065b6fb	3.5892932

features.module.9.running_mean f4 [64]
0	0xbd0d4b43	-0.034495603
1	0x3d186a85	0.03721096
2	0x3ba26df0	0.004956953
3	0x3c9068cf	0.017628102
4	0x3d80fee2	0.06298615
5	0xbd74cab9	-0.059763644
6	0xbd427cfa	-0.04748247
7	0x3d6e7201	0.05821419
8	0xbc0ed689	-0.008718141
9	0xbb83cd7f	-0.0040223
10	0xbd0bf842	-0.034172304
11	0xbccc45f3	-0.024935698
12	0x3cf6d497	0.030130668
13	0x3c254aa7	0.010088599
14	0x3d9ef9b9	0.077624746
15	0xbc31d5c5	-0.010854189
16	0x3d3b2712	0.045691557
17	0x3d72dbc0	0.0592916
18	0x3b94dc8f	0.004542894
19	0x3c587cc3	0.013213339
20	0x3c95e295	0.01829652
21	0x3e339833	0.17538528
22	0xbdee4a29	-0.11635239
23	0xbd373590	-0.044728816
24	0x3ce4eb31	0.02794418
25	0xbc4d4386	-0.012528306
26	0xbc023c11	-0.007948891
27	0x3c5ccaef	0.0134761175
28	0x3d41451f	0.04718506
29	0xbccc41b0	-0.024933666
30	0xbcdb0f3b	-0.02674066
31	0xbd0d7704	-0.03453733
32	0xbcddb85b	-0.027065447
33	0xbd898599	-0.06714935
34	0xbd268d5a	-0.040662147
35	0x3c1d6e5a	0.009608829
36	0xbbfc2d60	-0.007695839
37	0xbc3581e3	-0.011078331
38	0x3d3b7a4f	0.04577094
39	0xba45b2ab	-0.0007541577
40	0xbdda8359	-0.10669584
41	0x3d479020	0.048721433
42	0xbd899e32	-0.067196265
43	0x3e0db941	0.138402
44	0xbd67ed4d	-0.056622792
45	0xbd88f0c0	-0.066865444
46	0x3c8498c8	0.016186133
47	0xbccddbc9	-0.025129216
48	0x3d09bbe7	0.033626463
49	0x3d184a3e	0.037180178
50	0xbd2c0e2b	-0.0420057
51	0xbcda7a9c	-0.026669793
52	0x3ba1093e	0.004914432
53	0xba321f3d	-0.0006794816
54	0xbdb69a32	-0.08916129
55	0x3d7e9481	0.062153343
56	0xbd24bbfa	-0.04021833
57	0xbde34cae	-0.1109861
58	0x3b2a0c7b	0.002594738
59	0xbce8f7e1	-0.02843851
60	0xbd0c827f	-0.03430414
61	0x3d7c3427	0.061573174
62	0xbc907e2f	-0.017638294
63	0x3e189e1c	0.14904064

features.module.9.running_var f4 [64]
0	0x3c653473	0.013989556
1	0x3bfd8dc7	0.0077378484
2	0x3c346315	0.011009951
3	0x3ca55860	0.020183742
4	0x3c62c8ce	0.013841821
5	0x3be4edab	0.00698634
6	0x3c9a13ae	0.018808212
7	0x3c4513fc	0.01202869
8	0x3bca1eb4	0.006168211
9	0x3c4ea3cd	0.012612295
10	0x3c1fb0b0	0.009746715
11	0x3c211842	0.009832444
12	0x3bbe0fc2	0.0058002183
13	0x3bc4b356	0.006002824
14	0x3c44bf91	0.012008564
15	0x3c9d05c8	0.019167796
16	0x3c2e0acf	0.010622694
17	0x3c1a5b30	0.009421155
18	0x3c40b764	0.011762474
19	0x3c9923fd	0.018693918
20	0x3c0b422c	0.008499663
21	0x3c67a08f	0.014137401
22	0x3c4f8a19	0.012667202
23	0x3bd595f7	0.0065181213
24	0x3c1fc3c1	0.009751261
25	0x3c0a5a34	0.008444358
26	0x3c689eff	0.014198064
27	0x3b95a6b2	0.004566991
28	0x3be54300	0.0069965124
29	0x3c05034b	0.008118461
30	0x3c4db112	0.012554424
31	0x3c1db0f5	0.009624709
32	0x3bc00af9	0.005860683
33	0x3c835a9a	0.016034413
34	0x3cc3ce2b	0.02390202
35	0x3c75055a	0.014954889
36	0x3c3b8a12	0.011446493
37	0x3c4d20a4	0.012519989
38	0x3c48457e	0.0122235995
39	0x3c6d89f4	0.014498223
40	0x3c62feac	0.013854664
41	0x3c26ef99	0.0101889605
42	0x3c65b863	0.014021012
43	0x3c557cbb	0.013030226
44	0x3bf5dc9a	0.0075031044
45	0x3ca024a0	0.019548714
46	0x3bbc50ba	0.005746928
47	0x3c055ad2	0.008139329
48	0x3c33f92a	0.010984698
49	0x3c803573	0.015650487
50	0x3bf6d0c4	0.007532211
51	0x3c1c365f	0.009534447
52	0x3c269cfe	0.010169266
53	0x3c18f352	0.009335356
54	0x3c207d5a	0.009795511
55	0x3cbeee4b	0.023306986
56	0x3bb58c59	0.0055404124
57	0x3c15a204	0.009132866
58	0x3c0e9849	0.0087033
59	0x3c2702a7	0.010193503
60	0x3bf561e5	0.0074884766
61	0x3c3680c5	0.0111390995
62	0x3bff0b78	0.0077833496
63	0x3c7acfdf	0.015308349

top_layer.weight f4 [10, 64]
0	0x3ddc3cda	0.10753794
1	0xbe0eaef4	-0.13933927
2	0x3dada8fe	0.08479498
3	0xbe3b4209	-0.18286909
4	0xbc48c093	-0.0122529445
5	0xbd0c2484	-0.03421451
6	0x3e2103d1	0.15724112
7	0xbd0ba884	-0.034096256
8	0xbda449e9	-0.0802191
9	0xbe17853a	-0.14796916
10	0xbca95528	-0.020670488
11	0x3ecb822f	0.3974776
12	0x3ace2239	0.0015726752
13	0xbd61a3cb	-0.055087846
14	0xbe1464db	-0.14491598
15	0xbd9e787e	-0.07737826
16	0xbe0c0fed	-0.1367795
17	0xbe0485ef	-0.12941717
18	0xbdc74372	-0.09729661
19	0xbd91b44a	-0.071144655
20	0x3e11cd88	0.1423856
21	0x3d6f4fdb	0.058425765
22	0x3ec8dcaa	0.39230853
23	0x3d83b34f	0.06430685
24	0xbe02e696	-0.12783274
25	0xbd85f1d2	-0.06540264
26	0xbd90d15c	-0.07071182
27	0xbbb61339	-0.0055564907
28	0xbd2747bd	-0.0408399
29	0xbd51555a	-0.05110679
30	0xbe1cc9d3	-0.15311365
31	0x3ebfba9c	0.3744706
32	0xbcdfc952	-0.027317677
33	0xbe1aa4db	-0.1510195
34	0xbe30b0fb	-0.17255013
35	0xbdd28431	-0.1027912
36	0x3c808f96	0.015693467
37	0xbdc3b7b7	-0.09556525
38	0xbe44e7c5	-0.19229038
39	0xbd2a4f45	-0.041579504
40	0x3de16eaa	0.110074356
41	0xbd57ec77	-0.052715745
42	0x3dc3637d	0.0954046
43	0x3a708824	0.000917556
44	0x3eaf2def	0.34214732
45	0xbd93c1de	-0.072147116
46	0xbd3addb8	-0.045621604
47	0x3e3736c3	0.17891984
48	0xbe409080	-0.18805122
49	0xbd8985d7	-0.06714981
50	0xbd940736	-0.07227938
51	0x3db010fd	0.0859699
52	0xbde41180	-0.1113615
53	0x3e158962	0.14603189
54	0x3ec749ce	0.38923496
55	0xbe28c5fb	-0.16481774
56	0xbd14868b	-0.036261123
57	0x3ec17a9b	0.37788853
58	0x3e3eb509	0.18623747
59	0xbd14b290	-0.036303103
60	0x3e3cc6e6	0.18435249
61	0xbd5a5f9c	-0.053313836
62	0xbc8d7874	-0.01726935
63	0x3cfe65fb	0.031054487
64	0x3ed02631	0.40654138
65	0xbd07f799	-0.033195112
66	0xbced32ab	-0.028954824
67	0xbcbd4443	-0.023103839
68	0x3f07ff51	0.53123957
69	0xbda1c04a	-0.07898004
70	0xbd6e2f83	-0.05815078
71	0xbdcb01f8	-0.09912485
72	0xbd51e6d0	-0.05124551
73	0xbd376777	-0.044776406
74	0xbdc12901	-0.09431649
75	0xbde2dd76	-0.110773966
76	0x3e913c56	0.28366345
77	0xbd84df10	-0.06487858
78	0x3d91a000	0.07110596
79	0xbc3f52af	-0.011677428
80	0x3c279dc6	0.010230487
81	0x3cfcd930	0.030865282
82	0x3c191d27	0.009345329
83	0xbd3ca040	-0.046051264
84	0x3d9dd7fb	0.07707211
85	0xbe092583	-0.13393216
86	0xbde3c644	-0.111218005
87	0xbdcb6d6a	-0.099329785
88	0xbd34feb2	-0.04418821
89	0xbc7737e8	-0.015089013
90	0xbd04e2fb	-0.032443028
91	0x3e3de653	0.18544893
92	0x3ebefbbb	0.3730143
93	0x3d26ca95	0.04072054
94	0xbd028bd4	-0.03187163
95	0xbdf76ff5	-0.12081901
96	0xbd88c1bf	-0.06677579
97	0xbd5175db	-0.051137786
98	0xbd4cd490	-0.050007403
99	0xbd3de034	-0.046356395
100	0xbd2c51b9	-0.042070124
101	0xbd534834	-0.05158253
102	0x3c658b88	0.014010318
103	0xbd655331	-0.05598754
104	0xbd804736	-0.062635824
105	0xbced8f11	-0.028998883
106	0xbdbb5a58	-0.09148091
107	0xbda5f32d	-0.08103023
108	0xbd9594a7	-0.07303744
109	0x3f04df96	0.51903665
110	0xbccadbfa	-0.024763096
111	0x3e11cab9	0.14237489
112	0xbbc59ebc	-0.0060308855
113	0xbd141bec	-0.03615944
114	0xbda99287	-0.08279901
115	0xbc877305	-0.016534338
116	0x3c4a9ae3	0.012366029
117	0xbd265fff	-0.040618893
118	0xbdc272d0	-0.09494555
119	0x3e97a8ea	0.2962106
120	0x3d9bb79c	0.0760338
121	0xbda433fa	-0.08017726
122	0x3d0f9a50	0.035059273
123	0xbd3a099f	-0.04541933
124	0xbd795ed7	-0.060881462
125	0xbd20b8e2	-0.039238818
126	0xbc8f0d41	-0.017462375
127	0xbdd93ec5	-0.106076755
128	0xbe466d9c	-0.1937775
129	0xbe08cd89	-0.13359655
130	0xbcc89196	-0.024483483
131	0x3efb1d13	0.4904562
132	0xbe1f382c	-0.15548772
133	0xbd3dd585	-0.046346206
134	0xbba220d9	-0.0049477634
135	0xbe121003	-0.1426392
136	0xbcf065bb	-0.029345384
137	0x3d72c5db	0.05927072
138	0xbd9de73c	-0.0771012
139	0x3d4fcc2e	0.05073183
140	0xbd90f90e	-0.070787534
141	0xbd714522	-0.05890382
142	0xbe00959e	-0.12557074
143	0xbd39a307	-0.04532149
144	0xbde2c90e	-0.110735044
145	0xbde98b07	-0.114034705
146	0xbd9337a2	-0.071883455
147	0x3ae5d54b	0.001753488
148	0xbceb8db5	-0.028754095
149	0xbe861ad5	-0.26192346
150	0x3acd6a06	0.0015671856
151	0xbbd695bf	-0.006548613
152	0x3e9aa19c	0.30201423
153	0xbd9de5cb	-0.07709845
154	0x3bca909c	0.0061817896
155	0xbdda22fb	-0.10651203
156	0xbdc996f2	-0.09843244
157	0xbd8c678b	-0.06855687
158	0xbcfb8516	-0.030703109
159	0x3d43a863	0.047768008
160	0xbd8b709b	-0.06808587
161	0x3ece5a29	0.40303162
162	0x3efab8df	0.4896917
163	0x3ed4c14d	0.41553727
164	0x3b2675cb	0.00253998
165	0xbcc13186	-0.023583185
166	0xbd4f06ec	-0.05054371
167	0xbd2cebef	-0.04221719
168	0xbc8dd0f8	-0.017311558
169	0xbdaf3f95	-0.08557049
170	0x3d66629c	0.056246385
171	0xbe3bda3e	-0.18344972
172	0xbc9e25bf	-0.019305108
173	0xbddd8290	-0.108159184
174	0xbdb254e7	-0.087076
175	0x3bcc37c6	0.0062322346
176	0xbe0e73a5	-0.13911302
177	0xba168df2	-0.00057431974
178	0xbded760a	-0.1159478
179	0xbd96abd1	-0.0735699
180	0xbdad331d	-0.08457015
181	0x3d52a42a	0.05142609
182	0x3d24e9c2	0.04026199
183	0x3e8d4e3a	0.27598745
184	0xbd1491b3	-0.036271762
185	0x3cb95fd3	0.0226287
186	0xbc7720e8	-0.015083529
187	0x3ce3dfbb	0.027816644
188	0xbcd6a8cd	-0.026203537
189	0xbb5e6ed7	-0.0033940577
190	0xbdbef180	-0.09323406
191	0xbe86e117	-0.26343605
192	0xbdba6688	-0.091015875
193	0x3ce5ef5c	0.028068237
194	0xbdb870ef	-0.090059154
195	0xbd25a8e6	-0.040444277
196	0xbd980271	-0.07422341
197	0xbdbfcadc	-0.09364864
198	0xbd896145	-0.06708006
199	0x3c15abe5	0.009135221
200	0x3e20c355	0.15699513
201	0xbcb15e77	-0.02165149
202	0xbc7af62c	-0.015317481
203	0xbc9ffd8c	-0.01953008
204	0xbd529350	-0.05141002
205	0x3c82e56d	0.01597854
206	0x3e7859ca	0.24253002
207	0x3d715614	0.05891998
208	0xbcee2b54	-0.029073395
209	0x3e86402a	0.26220828
210	0x3eed78b3	0.4638115
211	0xbd981c57	-0.074272804
212	0xbdafeac0	-0.08589697
213	0x3ca29911	0.019848378
214	0xbdbb46dc	-0.09144375
215	0xbd698329	-0.05700985
216	0xbcefb14f	-0.029259352
217	0x3e8b88fc	0.27252948
218	0xbd7f4816	-0.062324606
219	0x3e4ef408	0.20210278
220	0xbd5aa19b	-0.053376775
221	0x3ed0d3bd	0.40786543
222	0xbcae13e4	-0.021249719
223	0xbd87ad1c	-0.06624815
224	0x3be459f6	0.006968732
225	0xbc2e14d4	-0.010625083
226	0xbcf4453e	-0.029818173
227	0xbc781825	-0.015142475
228	0xbd3063ff	-0.043064114
229	0xbdd7ef19	-0.10543651
230	0xbba60066	-0.0050659655
231	0xbd8b2f79	-0.06796164
232	0xbd4f91c8	-0.050676137
233	0xbcedc071	-0.029022427
234	0xbd1e3dd3	-0.03863318
235	0x3d9a5930	0.075365424
236	0xbbc5df2b	-0.0060385666
237	0xbdccb250	-0.09994948
238	0x3e2907bd	0.16506858
239	0xbdd92b95	-0.10604016
240	0xbacd23d6	-0.0015650939
241	0xbd8cf109	-0.06881911
242	0xbd9ae058	-0.075623214
243	0x3ed3f77d	0.41399756
244	0xbc098577	-0.008393637
245	0xbdb79230	-0.0896343
246	0xbc54c2ff	-0.012985944
247	0xbd64c2b4	-0.055849746
248	0x3e9ba88e	0.30402035
249	0xbd9ca97d	-0.07649515
250	0xbdb9fcf0	-0.09081447
251	0xbd17adfb	-0.037031155
252	0x3e39284c	0.18081778
253	0xbd18451a	-0.037175275
254	0x3e8b4772	0.27202946
255	0x3cf39f5f	0.02973908

top_layer.bias f4 [10]
0	0x3862aeb8	5.404532e-05
1	0xbc7a7ec0	-0.015289009
2	0xbaa1bba7	-0.001233925
3	0xbabea93c	-0.0014546285
4	0xbb350874	-0.0027623447
5	0xbb976bbf	-0.0046209986
6	0x3bfc5ff4	0.007701868
7	0xbb3e8df3	-0.0029076308
8	0x3cb29643	0.021800166
9	0xbaa8be21	-0.0012874046

momentum_buffer f4 [16, 1, 3, 3]
0	0xbc1716f1	-0.009221778
1	0xba1a9960	-0.00058974884
2	0xba749980	-0.00093307346
3	0xbc9f8eb4	-0.019477226
4	0xbb0da6c0	-0.0021614283
5	0xbc0ef272	-0.008724796
6	0xbbf9eaef	-0.007626883
7	0xbafde568	-0.0019370737
8	0xbca97e2d	-0.020690048
9	0x3d4206cc	0.047369763
10	0x3cd75cb4	0.026289321
11	0xbb09c1a0	-0.002101995
12	0x3ca0a95a	0.019612003
13	0xbc9bd325	-0.01902158
14	0xbd551d65	-0.052029986
15	0x3b8a6509	0.00422347
16	0xbd03e8d9	-0.032204483
17	0xbd24f745	-0.040274877
18	0x3c75a430	0.014992759
19	0x3b8ca502	0.0042921314
20	0x37e36f80	2.711243e-05
21	0x3c9cccb8	0.019140586
22	0x3cd5a900	0.026081562
23	0x3d5502be	0.05200457
24	0x3c69ef95	0.014278312
25	0x3cd51738	0.026012048
26	0x3d0992dc	0.03358732
27	0x3b9f5e62	0.004863546
28	0xbc3a0abf	-0.011355101
29	0xbc91d4f5	-0.017801741
30	0xbc5ed174	-0.013599742
31	0xbc5c0599	-0.013429069
32	0xbc3d04a0	-0.011536747
33	0xbb82e1a8	-0.0039941855
34	0xba5c5d40	-0.00084062293
35	0xbbf021a0	-0.007328227
36	0x3c491dc8	0.012275167
37	0x3b4c87e6	0.0031208931
38	0xbc052d52	-0.008128481
39	0x3a9ff1e8	0.0012202831
40	0xbc689834	-0.014196444
41	0xbc5a5e26	-0.013328111
42	0xbba72043	-0.0051002814
43	0xbc7c6e6b	-0.015407185
44	0xbca545ed	-0.020174945
45	0xbd3f64d9	-0.046727035
46	0xbcd2e343	-0.025743132
47	0x3a18dd80	0.0005831346
48	0x3bbba6b9	0.005726662
49	0x3cc90cac	0.024542175
50	0x3c8f9c88	0.017530695
51	0xba92e5ba	-0.001120738
52	0x3b7ff79f	0.0039057506
53	0xbb9a20fa	-0.004703638
54	0xbc7aa382	-0.015297772
55	0xbc5752a2	-0.01314226
56	0xbceb2cba	-0.02870785
57	0xbceaba43	-0.02865327
58	0xbbfb2fb7	-0.0076656
59	0xbc36d915	-0.011160155
60	0xbc053aa4	-0.008131657
61	0xbc0bd6d3	-0.008535105
62	0xbc46c950	-0.012132958
63	0xbd31adfb	-0.04337881
64	0xbd3f3881	-0.046684746
65	0xbd8904d0	-0.06690371
66	0xbd906138	-0.07049793
67	0xbce384c6	-0.027773272
68	0xbd08e4f5	-0.033421475
69	0xbd40f3e9	-0.04710761
70	0x3c111675	0.008855452
71	0xbc28ccdc	-0.0103027485
72	0xbc1f3f4c	-0.009719681
73	0x3bc02e32	0.005864882
74	0x3c5c60cb	0.013450812
75	0x3c816d96	0.015799325
76	0x3cd332c0	0.025781035
77	0x3cf1c80d	0.029514337
78	0x3d484497	0.048893537
79	0x3d3ce7bc	0.046119437
80	0x3d266b81	0.040629867
81	0x3c0aea2e	0.008478684
82	0x3c896fb6	0.0167769
83	0x3c3b2f86	0.011424905
84	0x3c8f5fda	0.01750176
85	0x3ad99650	0.0016600583
86	0x3a28079a	0.0006409824
87	0x3beb0f99	0.0071734902
88	0xbc0265e6	-0.007958865
89	0x389c83e0	7.463223e-05
90	0xbcb2a540	-0.021807313
91	0xbce9a58a	-0.028521318
92	0xbb997711	-0.0046833833
93	0xbcae1b8b	-0.021253368
94	0xbc3d0440	-0.011536658
95	0xbbb723c8	-0.0055889823
96	0xbbb003a1	-0.0053715263
97	0x3b41caee	0.0029570418
98	0xbb113fe0	-0.0022163317
99	0x3bda990e	0.0066710776
100	0x3baa4ea0	0.005197361
101	0xbd020f6a	-0.03175298
102	0x3bc15e96	0.005901168
103	0x3c6c4f33	0.014423179
104	0x3cb38d56	0.02191798
105	0xbad63bb9	-0.0016344703
106	0xbb7e11c2	-0.0038767909
107	0xbb2b0600	-0.0026096106
108	0x3c5b2140	0.013374627
109	0x3cab41d8	0.02090542
110	0xbbc8565c	-0.0061138105
111	0xbc13cad8	-0.00902053
112	0xbbd40dcc	-0.0064713713
113	0xbb2b1a80	-0.0026108325
114	0xbc91e178	-0.017807707
115	0xbca751f9	-0.02042483
116	0xbc81e1aa	-0.015854675
117	0x3c03e089	0.008049139
118	0x3c9a2dc8	0.018820658
119	0xbab7f4c8	-0.0014034742
120	0xbc2c09c2	-0.010500373
121	0x3c329677	0.010900131
122	0x3c1a934e	0.009434534
123	0xbc9ef4e2	-0.019403879
124	0x3b594b3c	0.0033156415
125	0x3bf64dc5	0.007516595
126	0xba7e0100	-0.000968948
127	0xbc5bae26	-0.013408219
128	0xbcc9b85e	-0.024624046
129	0xbbbb9ad4	-0.005725244
130	0xbc5d9d7c	-0.013526317
131	0xbd03ac0c	-0.0321465
132	0xbc88de4f	-0.016707567
133	0xbcb7c3a4	-0.022432156
134	0xbd0b1e12	-0.033964224
135	0xbbae8dc8	-0.0053269602
136	0xbcb24a28	-0.021763876
137	0xbc650ffa	-0.01398086
138	0x3c05e79a	0.008172894
139	0xbcb63d25	-0.022245953
140	0xba867450	-0.0010258052
141	0x3d1c0cae	0.03809803
142	0x3c564256	0.013077339
143	0x3c48b740	0.012250721

momentum_buffer f4 [16]
0	0xb6b749f6	-5.462435e-06
1	0x36ddb79b	6.6076877e-06
2	0x3788dcd6	1.6315298e-05
3	0x37d60351	2.5512332e-05
4	0x37f19328	2.8797964e-05
5	0xb7d1e788	-2.5022557e-05
6	0x3705921d	7.961437e-06
7	0xb7641f39	-1.3597129e-05
8	0xb669835e	-3.4796171e-06
9	0xb7c696e4	-2.3673703e-05
10	0x37f17f35	2.8788674e-05
11	0xb7c29da1	-2.3200004e-05
12	0x378db624	1.6893326e-05
13	0x373afacc	1.1144857e-05
14	0x372c4d64	1.0270018e-05
15	0xb78f8a79	-1.711141e-05

momentum_buffer f4 [16]
0	0xbdbd2eac	-0.092374176
1	0xbc3760e4	-0.011192534
2	0x3c38b4ff	0.011273622
3	0x3c1a23f8	0.00940799
4	0xbdf04e5b	-0.11733695
5	0x3cccaf22	0.024985854
6	0xbccdd934	-0.025127985
7	0xbd2fe01b	-0.042938333
8	0x3be0b008	0.006856922
9	0x3c12525f	0.008930772
10	0x3ccb56be	0.024821635
11	0xbbea9533	-0.007158899
12	0xbaa4afc4	-0.0012564589
13	0xbb9785ce	-0.004624105
14	0x3cb5ded4	0.02220098
15	0xbb168f68	-0.002297366

momentum_buffer f4 [16]
0	0xbdb7c5d0	-0.089732766
1	0xbacf86cc	-0.0015833019
2	0xbc37700c	-0.011196148
3	0xbd10d75c	-0.035361633
4	0xbd2b72fc	-0.041857705
5	0x3d38c061	0.04510534
6	0xbc5597f2	-0.013036715
7	0xbcc588df	-0.024113117
8	0xbd0ca4ae	-0.03433674
9	0x3c882874	0.016620852
10	0x3d0059b0	0.031335533
11	0xbc87aa0b	-0.016560575
12	0x3cf6a6dc	0.030108862
13	0xbc4efd6a	-0.012633661
14	0x3da7ccc8	0.08193356
15	0xbbc807ba	-0.0061044367
