deepcluster_implementation/experiments/run_label_fraction_variation/config_6/checkpoints/checkpoint_epoch_8.pth.tar (torch, 203702 bytes, 32 tensors)

features.module.0.weight f4 [16, 1, 3, 3]
00000000: 3f1f 1f3f 51b4 423d a4f5 4cbf 958f 93be
00000010: 48c3 3b3f b4ca dfbe d40c 72bf 9ebc 673d
00000020: f75d 2a3f 2655 383f 42dd 8d3d 5866 1c3f
00000030: 0bac 2ebe 4364 febe 91b7 283e b010 52bf
00000040: 7d16 773e f9c6 3f3f 733e 5bbf 3dfc 523c
00000050: 9ce2 9dbe 0af6 27bf 5e5a 323f 5067 133f
00000060: da50 2fbf 0faf c4be 97bc 0dbe 4b5e 91bf
00000070: b8b3 26be 8d17 48bf 1d04 883e 75ec d23d
00000080: 4bd6 8bbd b6f1 183f 3e9d 31be af68 233f
00000090: 49e1 353f 6ff5 85bd 72b0 3e3f 6d83 26be
000000a0: 6b19 72bf a7a7 93be 74d6 523f d6af 03bd
000000b0: 942b 4b3f 6fad 303e 9e2c 473e 5f88 093e
000000c0: 5313 05bf 71f9 3b3f 6603 17bf 9de6 6abf
000000d0: 05a6 01bf 3b14 39bf 1560 ff3e f4fc 813d
000000e0: 654c e23e ad46 82be 315f bc3e 84ba d33e
000000f0: af92 0ebf 2be4 c9be a82f 8abf 4086 233f
00000100: 00a9 29bd 4c84 6ebf fa22 ed3e 2b21 3dbe
00000110: f230 8cbe 86e3 9a3e 1301 063e 602f 973f
00000120: 6910 34bf 60e6 27bf ac91 6ebf 3f64 933d
00000130: 82c2 133f a0c4 03bf c362 333f da20 b43d
00000140: 0ea2 09bf 6071 22be 637d afbe cd4f 51bf
00000150: cb1b 493f b188 4f3f b6ad 92be 9de7 1abf
00000160: cb68 eebe 81f2 6abf 12da ac3e 91cc e2be
00000170: dca2 3f3d 179d b33e 46f6 28bf 3bec eabd
00000180: 1665 993f 2ec0 dbbe cad8 efbe 5c4d 42bf
00000190: d4ad 9cbd 81b4 1c3e e926 3fbe 579d 04be
000001a0: 3c93 d43e e186 c1be 9f31 44be afc7 67bf
000001b0: 2756 5dbf 29c8 a9bd ef93 663f 45b4 d0be
000001c0: 17a9 3abd 5fac 46be fb90 bcbe b27d 9dbe
000001d0: a876 db3c 17c3 41be 5750 2f3d 37ed 1abf
000001e0: d487 fdbc 6002 883d 3492 173e df47 2fbe
000001f0: a0c7 83bd aa2a 18bf ce49 11bf 5cbb 19bf
00000200: 4a20 80be 4811 e4be cbbf 6c3e c738 73bc
00000210: 6382 27bf 1b15 45be c67f 5e3f cfc1 38bf
00000220: 8686 2bbf 1c47 21bf 1f66 9cbe 56c0 013f
00000230: 3568 3ebe 674b 03bf b632 4b3f e0a1 ffbe
0.6215705 0.047535244 -0.8006232 -0.28820482 0.7334485 -0.43709338 -0.94550824 0.056576364
0.6654963 0.72004926 0.06926967 0.61093664 -0.17057817 -0.4968587 0.16476275 -0.82056713
0.24129672 0.74912983 -0.85642165 0.012877521 -0.30836952 -0.656098 0.6966914 0.5757952
-0.68482745 -0.3841481 -0.13841473 -1.1356901 -0.16279495 -0.78160936 0.26565638 0.10299007
-0.068279825 0.5974382 -0.1734514 0.6383161 0.7104688 -0.06540953 0.74487984 -0.16261072
-0.94570035 -0.28838846 0.8235848 -0.032150112 0.7936337 0.1725366 0.19450614 0.13430928
-0.5198261 0.7342749 -0.5898956 -0.9175814 -0.5064395 -0.72296494 0.49877992 0.06347075
0.4419891 -0.25444546 0.36791375 0.41353238 -0.5569257 -0.3943189 -1.0795794 0.63876724
-0.041420937 -0.9317062 0.46315747 -0.18469684 -0.27381092 0.30251712 0.13086347 1.1811333
-0.7033754 -0.655859 -0.9319103 0.07196855 0.5771867 -0.514719 0.70072573 0.087953284
-0.537629 -0.15863562 -0.3427535 -0.8176239 0.78558034 0.8106795 -0.28648156 -0.60509664
-0.46564326 -0.9177628 0.33760124 -0.44296697 0.046786174 0.35080788 -0.66000783 -0.11470839
1.1983974 -0.4292006 -0.46845084 -0.7589929 -0.076503426 0.15303232 -0.18667187 -0.12950645
0.4151858 -0.37798217 -0.19159554 -0.9053907 -0.86459583 -0.08290131 0.9006948 -0.40762535
-0.045571413 -0.19401692 -0.3682936 -0.3075996 0.026789978 -0.18922077 0.042801227 -0.6051821
-0.030948557 0.06641078 0.14801866 -0.1711726 -0.0643456 -0.594401 -0.5675324 -0.6005151
-0.25024635 -0.44544435 0.23120038 -0.01484508 -0.6543333 -0.19246332 0.86913717 -0.7217073
-0.6700214 -0.6299913 -0.30546662 0.50684106 -0.1859444 -0.5128693 0.79374254 -0.49928188

features.module.0.bias f4 [16]
00000000: 916a 64bd 6a25 8a3d 49ba 2a3e 2e7d 853e
00000010: 17a0 963e 731d 83be 3473 a63d 933d 0ebe
00000020: 5cf5 10bd 7087 77be fc9b 963e b6b7 72be
00000030: 14bf 303e e871 e83d 05ed d63d 38cb 32be
-0.055765692 0.067454174 0.16672625 0.26072067 0.29419014 -0.25608405 0.08127442 -0.13890676
-0.035390243 -0.24172759 0.29415882 -0.23702893 0.1726039 0.11349851 0.10494427 -0.17460334

features.module.1.weight f4 [16]
00000000: 8c9e 023f 5623 533f 093b 983f bbf3 1c3f
00000010: 5fa6 133f f0aa e53f c3b6 1b3f f6b6 6c3f
00000020: ffe1 c03f e3de a03f e1c8 043f 0748 0940
00000030: f0fb 803f 6b7f e63f 3657 8f3f 0659 fd3f
0.51023173 0.82475793 1.1893016 0.61309403 0.5767574 1.7942791 0.6082575 0.92466676
1.5068969 1.256802 0.51869017 2.1450212 1.0076885 1.8007635 1.119849 1.9792793

features.module.1.bias f4 [16]
00000000: eafa f4bd 0a13 a9bf 738c 62be ec74 c3bd
00000010: 77b8 24bf f9d3 3ebf d846 a3be 6adf eebf
00000020: 6a75 fabe 64a6 b3be 5baf ebbd b831 54bf
00000030: 2113 d7be 1831 0abf 1acc c7be a2ca 43bf
-0.119619206 -1.3208935 -0.2212389 -0.095437855 -0.6434397 -0.74542195 -0.31889987 -1.866193
-0.48917705 -0.35087883 -0.11508056 -0.82888365 -0.42006782 -0.5398116 -0.39022905 -0.7648107

features.module.1.running_mean f4 [16]
00000000: 21aa a2bd 100a e53d f9cb c83d 0dbf 733e
00000010: a82e c23e 8d18 a4be c761 6a3d da23 c6bd
00000020: 1214 c9bd b15a a5be 7d3e a23e 4a3d 98be
00000030: f8d1 173e b8c3 873d 4c21 863d b56f 81be
-0.07942606 0.1118356 0.0980453 0.23803349 0.3792622 -0.3204998 0.057222154 -0.09674807
-0.09818281 -0.32295755 0.316883 -0.2973426 0.1482619 0.06629127 0.065493196 -0.25280538

features.module.1.running_var f4 [16]
00000000: 4392 353f e53d c83f 86d2 2b40 71ec f23f
00000010: de0f b63f db45 6740 f7ca d63f f0c1 0840
00000020: 22d5 6f40 8594 4d40 e69d ab3f 1abf 3440
00000030: b2e8 0440 b667 9a3f fcbe 5540 960e 5d40
0.709263 1.5643889 2.6847243 1.8978406 1.4223592 3.6136386 1.678069 2.136837
3.7473836 3.21219 1.3407562 2.824164 2.0767026 1.20629 3.3397818 3.4540153

features.module.4.weight f4 [32, 16, 3, 3]
00000000: 6b66 82be 3ac7 02be 0a1b 5ebe a606 aabd
00000010: 2edf 0cbc 9895 d1bd 9906 71bd 1101 45bc
00000020: 87c3 a5bd 6cba c03d 6537 0a3d 7a1b ddbc
00000030: f702 613d fa4d da3b b9b9 113d 4e75 0abe
00000040: 3032 80be 005e 5fbe d218 cb3a 82d5 cebc
00000050: 7a72 89bb 6ff3 ccbc 5073 76bc f694 87bb
00000060: 6715 fd3c 7a6c bb3a c0a1 4439 2237 45be
00000070: 7a3b 04be 5679 74be 49fc 03be c135 afbd
00000080: 3dc8 2abe ec56 1cbe 6ddd d2bc fdb1 15be
00000090: 9957 aebd 1bba 8e3d 1ff8 9dbd d479 1abe
000000a0: 1924 a0bc ad8a e0bd 01dd d4bd 29d4 ccbd
000000b0: 91f1 2abe 6304 94bd e032 153c 0a60 b6bd
000000c0: 6904 c3bd ed31 a3bd 38bb 09be 3d0c 4f3e
000000d0: 8e3a 713d 6945 753d 3869 88be efa3 08be
000000e0: d878 48be 26b0 53be 9d21 48be 3926 8dbe
000000f0: 5e5e 5f3c 690c a83c 79c5 80bc 4383 7dbe
00000100: 9bc7 26be 86f4 52be b832 84bd 1841 9ebd
00000110: 385b 14be c013 0cbe 7e2a 22be b021 a7bd
00000120: e249 6c3c 55bd 83bb 55a0 b43c d32c d2bc
00000130: b43a 56bc bae2 cfbc 81e8 88bd e5be 24bc
00000140: 5d09 4d3b e040 ad3b f6a6 cebc 3329 27bd
00000150: cef1 2ebd 2046 ebbc 0ea2 95bd 083d 673b
00000160: 442c fc3b ce2b 6c3d 5a7b 15be 49be 02bd
00000170: 66d8 1ebd 4192 07be dfe9 e83c ae44 cabc
00000180: d273 82be 70d2 f9bd 1077 e2bd c864 febb
00000190: 7e7a 59bd a06d 9ebd 42a5 8cbd eee4 07bd
000001a0: 5cec 8abc 56a1 813d 1278 7dbc 860b af3d
000001b0: fbaf afbd 4def 14be d8a9 14be db03 e53c
000001c0: 3525 0f3d d795 313d 6342 973d 30c0 433d
000001d0: b645 f43c 1c41 57bc 9520 a0bc e693 75bb
000001e0: 2fae 53bc bd5b 5abc e3d1 94bc 72d8 b53c
000001f0: d8e6 4dbc 8e14 6b3c 84f3 21bd 97ed b53c
00000200: 68b4 983c 7095 9e3c a57c 243d 26e2 f73c
00000210: 8b15 9bbd 48ea 13be 2e3c 16be d7d3 ea3c
00000220: 56fa 21bd 0cc1 513c 134f 03bd 3cb5 cebb
00000230: 50b7 e3bb 7287 abba 356b efbc e1bf 93bb
00000240: ed10 1b3a 15ea 463e d2eb 053e 6ede 6ebd
00000250: bb0e 43bd 13e8 803d 043a a9bd 4229 34bc
00000260: 58fb 933d 8556 50be 6d84 51be 61e6 17be
00000270: 5e81 e73c 3f08 12bd df4c 8dbe a572 13bd
00000280: e319 26be 3004 9dbe 7014 eabc 47e6 a4bd
00000290: d68c e0bc 8535 5abe 08a3 933c a6b9 363d
000002a0: 90d0 a7be 349c d7bc b003 20bd 36c8 643b
000002b0: 736c 373d 8c9a d6bd 54f2 2c3d ff33 acbd
000002c0: 0ff9 64bd 0844 90be 8de2 96be 2d9b c9be
000002d0: 5a7a 9cbd 01f2 bc3b f264 f93d c948 d0bc
000002e0: 9856 8c3b aa14 293d 9d6c aebc 2431 99bd
000002f0: fe1c 48be 7559 e3bc 829a b03d 3b17 893c
00000300: 5fea 8cbe c1ee c6bd 19a7 d0bd 8e81 68be
00000310: cfe9 193d 2c06 8e3d c3c0 f1bc e81d b23d
00000320: 6cac 5c3d b6ba 11be c187 63bd 5733 1cbd
00000330: fe64 47bd 6aff a2bb c8fd 823b cbbc f7bd
00000340: 9f6f 59be 339f 91be 4280 bdbd 799f 053d
00000350: 0cf4 04be 7473 0fbe 2f66 2cbe 70d0 7bbe
00000360: 9a8a 9cbe 6b58 c0be 3dcf b8be 8f47 1ebe
00000370: c004 37bb ff80 f4bc 98d5 c1be b1d4 81be
00000380: f6c2 9cbe a898 e1bd ce67 97bd 56b5 ddbd
00000390: a205 9a3c 72c0 f63c 5d41 eabd b124 97bb
000003a0: e6df 713d 585b 31bc b99e 643e b9a8 36bc
000003b0: 2d91 9dbd 7954 9d3d 0f3b 2c3c 1db3 213c
000003c0: b205 ce3d f02e 97bc 9ff7 88bc 0685 2dbd
000003d0: 8d55 d23c cd9f 203d 3460 8bbe a282 813c
000003e0: 4f73 b8bd 5354 8bbe 6248 683d 6107 2cbd
000003f0: d64c 593c 93a0 b8bc 3ab9 4a3e 9fc0 b7bd
-0.25468764 -0.12771311 -0.21690002 -0.08302049 -0.008598132 -0.10233611 -0.058844183 -0.01202418
-0.080939345 0.09410557 0.033744235 -0.02699064 0.054934468 0.0066621276 0.03557751 -0.1352131
-0.2503829 -0.21813202 0.0015495068 -0.025248293 -0.004194555 -0.025018422 -0.015042141 -0.0041376306
0.030893994 0.0014299296 0.00018752273 -0.19259313 -0.12913314 -0.23874411 -0.12889208 -0.085551746
-0.16677947 -0.15267533 -0.02574035 -0.14618678 -0.08512802 0.069690906 -0.07713341 -0.15085536
-0.019548463 -0.1096395 -0.10393716 -0.10001404 -0.16693713 -0.07227399 0.009106368 -0.08905037
-0.095223255 -0.07968507 -0.13450325 0.20219512 0.058893733 0.059880648 -0.26642776 -0.13343786
-0.19577348 -0.20672664 -0.19544072 -0.27568224 0.013633339 0.02051373 -0.015719162 -0.24757104
-0.16287081 -0.20601091 -0.06454986 -0.077272594 -0.14487922 -0.13679409 -0.15836522 -0.08160722
0.014421912 -0.004020373 0.022049109 -0.02565614 -0.013075519 -0.025376666 -0.066849716 -0.010055278
0.0031286099 0.0052872747 -0.025226098 -0.040810775 -0.04271107 -0.028719962 -0.073063 0.003528418
0.0076957066 0.057658963 -0.14597836 -0.03191975 -0.038780592 -0.13239385 0.02843183 -0.024690952
-0.2547899 -0.12198341 -0.110578656 -0.007763479 -0.053095333 -0.07735753 -0.06867458 -0.03317731
-0.016958408 0.063296005 -0.0154705215 0.0854712 -0.085784875 -0.14544411 -0.14517915 0.02795594
0.034947593 0.04335579 0.07385709 0.047790706 0.029818397 -0.013138082 -0.019546786 -0.0037472188
-0.012919947 -0.013327536 -0.018166488 0.022197936 -0.0125672445 0.014348162 -0.039538875 0.022208018
0.018640712 0.019358367 0.040157933 0.030259203 -0.07572468 -0.1444484 -0.14671394 0.028665466
-0.03954538 0.012802374 -0.032057833 -0.006308226 -0.006949343 -0.001308663 -0.029225925 -0.0045089577
0.0005915303 0.19425233 0.1307824 -0.058317594 -0.04762147 0.06294265 -0.08263019 -0.010996165
0.072256744 -0.20345505 -0.20460673 -0.14833976 0.02825993 -0.035652395 -0.2759771 -0.035998005
-0.16220812 -0.30667257 -0.028574198 -0.080517344 -0.027410906 -0.21309479 0.018022075 0.044610642
-0.32776308 -0.0263196 -0.039066017 0.0034909374 0.04478116 -0.10478696 0.04222329 -0.08408355
-0.055901583 -0.28176904 -0.2946972 -0.39376202 -0.07640524 0.005766154 0.12177457 -0.025425332
0.0042827837 0.041279472 -0.021292025 -0.07480076 -0.1954231 -0.027752617 0.0862322 0.01673471
-0.2752256 -0.097135074 -0.10188121 -0.22705671 0.037576493 0.06934771 -0.029510861 0.086971104
0.05387537 -0.14231381 -0.055549387 -0.0381349 -0.048680298 -0.0049742954 0.0039975382 -0.12096556
-0.21233986 -0.28441772 -0.09252979 0.032622788 -0.12983721 -0.14008886 -0.16835855 -0.24591231
-0.30574495 -0.37567458 -0.3609561 -0.15456985 -0.0027926415 -0.029846666 -0.37858272 -0.25357583
-0.30617493 -0.11015445 -0.07392846 -0.10825603 0.018801514 0.030121062 -0.11438248 -0.0046125283
0.059051417 -0.010825001 0.22326173 -0.011148625 -0.07693706 0.076821275 0.010512128 0.009869364
0.1005968 -0.018454999 -0.016719637 -0.04236319 0.02567556 0.039214898 -0.27221835 0.01580936
-0.09006368 -0.27212772 0.056709655 -0.041999225 0.013262948 -0.022537505 0.19797221 -0.089722864

features.module.4.bias f4 [32]
00000000: a6d9 ab3c 00f5 253d dd2a 97bd 48a4 66bd
00000010: c3b0 9ebd 8a5e 1a3d 4a05 783d 78df 9ebd
00000020: d0f0 ab3c cf22 863c de77 31bd dce5 8e3c
00000030: 0cff 7e3d 8630 a23d 8902 0f3d 9626 83bc
00000040: ca29 3cbd 0fe8 fbbc 29b8 2d3a d44e c2bb
00000050: 0d4f 713d b86e 95bd 5f25 ec3b 865c d2bc
00000060: 0c9c dc3b d502 9f3d 92cd 1a3b 076d 65bc
00000070: c52b e0bc c102 a5bd 6bcf 95bd b917 103d
0.020977806 0.040516853 -0.073812224 -0.056309015 -0.07748558 0.037687816 0.06055192 -0.07757467
0.020988852 0.01637402 -0.043327205 0.01744359 0.06225495 0.07919411 0.034914527 -0.01600961
-0.04593829 -0.030750303 0.0006626868 -0.005929807 0.05891328 -0.072965086 0.0072066034 -0.025678884
0.0067324694 0.07764212 0.0023621065 -0.014003045 -0.027364621 -0.08057166 -0.073149525 0.035178874

features.module.5.weight f4 [32]
00000000: e560 003f 14b8 213f 9182 d73e ae8c 2b3f
00000010: ae24 473f ed69 af3f 46c2 083f 8b31 453f
00000020: 6933 dd3e e2ba 2a3f 76e8 003f 49a7 893f
00000030: de00 413f 0028 133f 256b d63e 513c 693f
00000040: 8f7a 313f e346 8f3f 1743 8e3f 9370 573f
00000050: b89c 483f 38f7 653f 7dd7 1a3f 3513 273f
00000060: 6617 213f e0af 293f ed41 043f 258d 393f
00000070: 9344 6e3f e9aa 2a3f dff0 e43e ddab 2c3f
0.5014785 0.63171506 0.42091802 0.67011535 0.77790344 1.3704201 0.5342144 0.7702872
0.43203285 0.6669141 0.5035471 1.0754176 0.7539195 0.5748291 0.4187862 0.9110766
0.69327635 1.1193508 1.1114224 0.8415615 0.78364134 0.8983035 0.6048506 0.6526368
0.6292633 0.6628399 0.51663095 0.72480994 0.93073386 0.6666704 0.4471502 0.6744974

features.module.5.bias f4 [32]
00000000: a0bf 3ebe 9493 4ebf c997 b8be c710 37bf
00000010: bd75 2fbf 44d9 38c0 d9ad 20bf 439a babf
00000020: 78e3 95be 157b 90bf 770b 02bf ae82 18c0
00000030: 3467 1ebf 8023 ecbe 024d d7be 59e5 dbbf
00000040: 31dd 2cbf 9bbc 7cbf ffb2 26c0 4b93 10bf
00000050: ac0c 1abf 1c2f 1fbf 537e c6be a337 6fbf
00000060: 2a65 30bf 57b8 8bbf 4c56 4dbf cb5e 6abf
00000070: 7391 51bf 00e7 91bf 2c6d 31be d2be 8bbf
-0.18627787 -0.80693936 -0.36053303 -0.71509975 -0.6853903 -2.8882608 -0.6276527 -1.4578327
-0.29275107 -1.1287562 -0.50798744 -2.382976 -0.61876225 -0.46120834 -0.4205094 -1.7179366
-0.6752501 -0.9872529 -2.604675 -0.5647475 -0.60175586 -0.6218126 -0.38768253 -0.9344427
-0.68904364 -1.0915631 -0.80209804 -0.9155089 -0.8186256 -1.1398621 -0.17326802 -1.0917609

features.module.5.running_mean f4 [32]
00000000: 06ba 20bf 7248 c2bf 87de 36bf 44ae 57bf
00000010: e407 13bf 6fdc 15c0 c05b 163e dc22 07c0
00000020: e837 03bf a2e5 babf 5b19 95bf 8f04 08c0
00000030: a20e 1fbf 4a01 42bf 6d1d afbe 3fbc debf
00000040: 67e0 83bf b8e9 7ebf ab4f 1ac0 bb76 2fbf
00000050: 09d0 1abf 540c 56bf 8848 fbbe 0f11 b8bf
00000060: ba40 67bf 77bb b8bf 8425 bdbf 3866 55bf
00000070: fee4 efbe b5a3 b8bf ed42 c1bd 0141 85bf
-0.6278385 -1.5178359 -0.714333 -0.84250283 -0.57433915 -2.3415792 0.14683437 -2.1115026
-0.5125718 -1.4601328 -1.1648363 -2.1252782 -0.621317 -0.75783217 -0.34202138 -1.7401198
-1.0302857 -0.99575377 -2.4111125 -0.68540543 -0.60473686 -0.8361256 -0.49078774 -1.4380206
-0.9033314 -1.443221 -1.4777074 -0.833591 -0.46854395 -1.442496 -0.09436593 -1.0410463

features.module.5.running_var f4 [32]
00000000: 83f5 033f 7ebb 143f 6079 153f 6bba e13e
00000010: 88f7 243f 26d6 793f eaf4 e03e 2a83 543f
00000020: 47a4 083f 1755 483f 1641 223f ab17 513f
00000030: b87c e23e 6882 193f 4be2 b03e c79f 3e3f
00000040: 78df 533f 7819 cd3f 10c8 603f 4792 673f
00000050: 810d 343f 569f 973f 3c22 bb3e 84c8 273f
00000060: 910a 313f de44 283f ab08 453f a01e 0a3f
00000070: 0dd2 893f c75f 043f e1b7 e13e 1cdb ff3e
0.51546496 0.5809859 0.5838833 0.44087538 0.644402 0.9759239 0.43936855 0.8301264
0.5337567 0.78254837 0.63380563 0.8167674 0.44235778 0.5996461 0.34547648 0.7446255
0.8276286 1.6023397 0.8780527 0.90457577 0.70333105 1.18455 0.36549556 0.6554034
0.6915675 0.65730083 0.7696635 0.5395298 1.0767227 0.51708645 0.440856 0.49971855

features.module.8.weight f4 [64, 32, 3, 3]
00000000: 7513 bbbb 0401 173a e041 cc3b dfb0 77bc
00000010: 3cbf 82bc f68c d2bb c44f 18bd a06a 12bd
00000020: 2bbe edbc e6a6 89bc e542 1fbc 8073 38bc
00000030: 0943 b3bc 101b 64bc db75 96bc 7942 6abc
00000040: 3750 7abc 21e9 f5bc 8229 22bb 49cf 103c
00000050: 7795 2fb9 c396 81bc 2ef2 17bc b140 b0bc
00000060: 7bdc f9bc 2142 b6bc fb11 0abd da24 503e
00000070: b988 ee3d f6b6 e03d 4de1 db3d badd 823d
00000080: 5108 993d f599 2d3e 79e7 023e 695d 103e
00000090: 5349 2a3e 6b9b d83d f6ce 183e 0c09 703d
000000a0: 3ce4 d13c db3a 203d b962 b33d 375e a53c
000000b0: d5ab 473d 9531 e7bc d63b 91bc 3d79 cebc
000000c0: 6b23 81bd 3de9 25bd 6e6a 2cbd d726 d2bd
000000d0: c208 b3bd 0b7f adbd c024 05bd 695b 31bd
000000e0: 164f 5cbd 73f2 a6bc cb27 42bd da48 8fbd
000000f0: 62fb 8ebc b685 80bd 11bf c0bd 0f79 1b3c
00000100: d074 ae3b f562 8d3b 7f2f d83c fcbe d43c
00000110: 99f0 be3c e366 d33c fce5 b83c eec8 c93c
00000120: adc7 fe3c 9dd7 b43c 080c a43c 6896 033d
00000130: 63aa ce3c bd88 923c 1772 2d3d b12e f63c
00000140: 25b9 ba3c 8ed6 24bc 6636 2a3c 8f3f e53c
00000150: a4a1 47bc 7e89 85bc d005 423c 901b 1938
00000160: 6c5d 83bb 37bc ed3c 984b 1e3d 36fc c43c
00000170: 8b70 613c 50ec ba3c 411d 703c f625 833c
00000180: bb37 6c3c 4d66 ad3c 560f 933c 7856 4abe
00000190: 0dfc 33be d708 24be 4a5a d0bd 703b cabd
000001a0: 2490 c0bd 88bd 97bd a60b a2bd a28d bdbd
000001b0: 4385 2fbd cb30 06bd 91b0 ebbc 9d0b 62bd
000001c0: 975c 38bd 235f 21bd b4f3 3dbd 6633 11bd
000001d0: 4e07 5fbd 2373 663d 8d17 473d a53a 963d
000001e0: a6a0 5d3d 87f5 2d3d 078d 7d3d c0e2 553d
000001f0: 5c48 5f3d cfd8 853d d0c2 61bc 4dd7 7ebc
00000200: 2867 efbc 5531 d2bc 6790 c7bc a5cf a0bc
00000210: 1a27 01bd 138b 1abd 3f7d cabc 08e9 653d
00000220: 8aba 8a3c 876c 043d 812d 2a3d a79a f93b
00000230: 99ba e83c e3a4 573d f9fb ed3c 841b 3c3d
00000240: c6cd a0bc c8ee 60bc 6e69 f4bb 7769 f1bb
00000250: 1f8c e73b e74b ed3c 6bf3 1d3d e4ef 053d
00000260: 5582 6c3d 3495 c53d 10dd 1b3d 83fe 023e
00000270: 6827 ee3d 57b1 483d 6213 143e db60 6e3e
00000280: e79a 0d3e b8cf 813e 39fa 5dbd ead5 48bd
00000290: 7bd8 04bd 6a7e d1bd d3c4 adbd 7460 9cbd
000002a0: e3ec c9bd cbbb 91bd 9937 83bd 1a60 1a3d
000002b0: 171d 183c 2ae0 443d ea01 e13c 6bc6 a23c
000002c0: ff37 4b3d 7d9b 983d 2cc3 5b3d f3d4 993d
000002d0: be8c b0bc 3653 b1bc 1718 51bd 43c6 06bc
000002e0: e4c4 84bc 127b 21bd f309 373b 5c74 63bb
000002f0: f37a 34bc 5913 37bd 3377 5ebd a5c3 c9bd
00000300: 1d8c dabc ba4d f5bc f7ff 81bd b7fe dfbc
00000310: d19e 28bd b9a6 8fbd 1dbb eebc a33d 75bc
00000320: 1c31 c8b9 60d1 acbc 9622 bebb e093 ba37
00000330: d65d 0dbd 90a5 1fbc 519a 11bc 7c57 06bd
00000340: 69cb f7bc 5401 0dbd 3406 59bc 3ab1 a0bc
00000350: 978c 0bbd 9d73 b3bc baf8 cabc 5359 3cbd
00000360: fda1 dcbc fa47 d0bc d432 0cbd 83fd 2ebc
00000370: eefd 43bc 42bb d9bc fc2d b338 f7e1 743b
00000380: 6ba8 12bc 1340 d73c c6e8 1d3c 736d 06bb
00000390: c9f6 1f3c 1187 5f3b 43de 0abc 94fa 7e3b
000003a0: e625 3b3b c56e 26bc 713d 0cbd 44f6 26bc
000003b0: b2aa 70bc e0f2 bdbb a4e9 44ba b8ef e4bb
000003c0: 0ea7 9ebb 589c cc39 60f6 0ebb fa4c 643d
000003d0: 570b 4f3d 03c3 b83d be31 9f3c 3ba2 b03c
000003e0: 87e7 453d e2f4 aa3c b755 943c 0696 1b3d
000003f0: 2b02 df3d e555 9f3d 56c4 053e e172 d43c
-0.0057091066 0.0005760344 0.006233439 -0.015117853 -0.015960328 -0.0064254953 -0.037185445 -0.035746217
-0.029021343 -0.016803216 -0.009720539 -0.011258006 -0.02188255 -0.013922468 -0.018366745 -0.014298075
-0.015277914 -0.030018391 -0.002474398 0.008838483 -0.0001674498 -0.01581896 -0.009274049 -0.021515222
-0.030500641 -0.02224833 -0.033708554 0.20326558 0.116471715 0.10972397 0.10736332 0.06389947
0.07472289 0.16953261 0.12783612 0.14098133 0.16629533 0.105765186 0.149227 0.058602378
0.025621526 0.03911863 0.08759064 0.020186527 0.048747856 -0.028221885 -0.017728727 -0.025204295
-0.063055836 -0.040505636 -0.042093687 -0.10261314 -0.08741905 -0.08471497 -0.03250575 -0.043300066
-0.05378636 -0.02037928 -0.04740123 -0.06996317 -0.017453853 -0.06275503 -0.09411443 0.009489312
0.0053239837 0.004314775 0.026389835 0.025969975 0.023308085 0.025805896 0.022570603 0.024631944
0.031101072 0.022075469 0.020025268 0.03212586 0.025227731 0.017887468 0.042345133 0.030051561
0.022793362 -0.010060919 0.010388946 0.027984409 -0.012184534 -0.016300913 0.011842206 3.6503712e-05
-0.0040089395 0.029020412 0.03864631 0.024046045 0.0137597425 0.02281776 0.014655412 0.016009312
0.014417584 0.021166945 0.017951649 -0.19759548 -0.17576618 -0.16018997 -0.10173471 -0.09874618
-0.09402493 -0.07409197 -0.07912378 -0.0925553 -0.042851698 -0.032761376 -0.028770717 -0.055186857
-0.045010176 -0.03939737 -0.04637499 -0.035449408 -0.054450326 0.056262147 0.048606444 0.07335404
0.054108284 0.04247048 0.061902072 0.0522182 0.054512367 0.065354936 -0.013779357 -0.015554261
-0.029223993 -0.025658289 -0.024360849 -0.019630263 -0.03153143 -0.037730288 -0.024717925 0.05613044
0.016934652 0.032330062 0.041547302 0.007617313 0.02840929 0.052647483 0.029050814 0.04592468
-0.01962937 -0.013728805 -0.0074588573 -0.0073673087 0.0070662643 0.028966857 0.03856222 0.03269948
0.05774148 0.09647599 0.03805262 0.12792401 0.1162861 0.04899725 0.14460519 0.23279135
0.13828622 0.2535379 -0.05419371 -0.04903213 -0.032433014 -0.1022919 -0.08484807 -0.076355845
-0.09859636 -0.07115897 -0.06407089 0.037689306 0.009284279 0.048065342 0.027466733 0.019870004
0.04961395 0.07451532 0.053652927 0.0751132 -0.021551486 -0.021646123 -0.051048364 -0.00822598
-0.016207166 -0.03942401 0.0027929514 -0.0034706807 -0.0110156415 -0.044696186 -0.054312896 -0.09851769
-0.02667814 -0.02994429 -0.063476495 -0.027343137 -0.041167084 -0.07014222 -0.029141957 -0.014968309
-0.00038183562 -0.021095932 -0.005802463 2.2241788e-05 -0.034513317 -0.009744063 -0.00888689 -0.032798275
-0.03024836 -0.034425095 -0.013246108 -0.019615758 -0.034069624 -0.021905715 -0.024776805 -0.045983624
-0.02693271 -0.025424946 -0.03422816 -0.010680559 -0.011962397 -0.02657855 8.5439504e-05 0.003736613
-0.008951287 0.02627567 0.009638017 -0.0020512014 0.009763428 0.0034107605 -0.008475843 0.003890668
0.0028556525 -0.010158245 -0.034238283 -0.01019055 -0.014689134 -0.005796775 -0.0007511622 -0.0069865845
-0.004841692 0.00039026397 -0.0021814331 0.055737473 0.050547924 0.090215705 0.019432899 0.021561733
0.048316505 0.020868722 0.018107278 0.03798487 0.108890854 0.07780055 0.13063177 0.025933685

features.module.8.bias f4 [64]
00000000: 4c78 d6bc a32f 2c3c f24a 353c 1046 663d
00000010: 30f2 553d 8017 41bd ee64 e83c 6c77 3bbd
00000020: 35b2 e4bc 7593 b83c 1efd 1fbd d993 483d
00000030: a61b b13c 14f5 9f3b 2305 033d 1242 47bd
00000040: 075a 1a3c 9452 ae3c 5f2a d7bc e06c 91bc
00000050: 5dc3 bd3c 7723 463d dd6a b6bc ca3b 0d3d
00000060: 8b22 033d f6e3 08bd 5aee 39bd 5079 dcbb
00000070: e624 113d 0e02 43bd 4788 22bd 7275 2a3d
00000080: c221 06bd 5203 27bd f355 1fbb c2e6 643d
00000090: d747 1a3d ff5b f13c 045f ef3b f360 eabc
000000a0: bc3e 36bd b489 f83c ebaa 8a3c 177b 733c
000000b0: 4ae3 acbc 1134 64bd 92f8 ff3b e11c 21bc
000000c0: 4d95 8dbb 8da4 b13b bcb9 08bd 57b2 11bd
000000d0: caaf 87bc aa90 b53c b470 12bd 4105 5a3d
000000e0: 5030 66bd c92a 11bd b312 863c 8a86 63bd
000000f0: ccd7 01bd b768 f13c 0986 1ebd 1cd3 953c
-0.026180409 0.010509404 0.011065232 0.05621916 0.05223292 -0.047141552 0.02836844 -0.045768186
-0.027917007 0.02253125 -0.03905975 0.048969124 0.02161963 0.0048815105 0.03198732 -0.048646994
0.009420878 0.02127961 -0.026265321 -0.017752111 0.023164446 0.048373666 -0.022267753 0.034480847
0.032015365 -0.033420525 -0.045393325 -0.0067283288 0.03543558 -0.04760938 -0.039680745 0.04161591
-0.032747038 -0.04077465 -0.0024312704 0.05588413 0.037666168 0.029462812 0.007305028 -0.028610682
-0.044493422 0.0303391 0.016927203 0.01486089 -0.021104474 -0.055713717 0.0078116143 -0.009833545
-0.0043207766 0.0054212273 -0.033380255 -0.03557047 -0.016563315 0.022163708 -0.035752013 0.053227667
-0.05619842 -0.035441194 0.016366338 -0.05554823 -0.03169994 0.029468877 -0.038702045 0.018289141

features.module.9.weight f4 [64]
00000000: 70fb c740 da78 a740 40d5 9f40 1a61 ac40
00000010: e0ff cc40 ed17 ac40 4273 ae40 2ba1 9940
00000020: c692 8840 a9c3 9940 c90d d540 1968 9c40
00000030: 663f 7540 2cc2 a140 8987 a440 da6f bb40
00000040: f5c5 8e40 75fa 8b40 bbee b840 9efb ba40
00000050: 4ca2 8b40 aa69 a540 9bf3 a540 75ce 9c40
00000060: 334e af40 f742 9440 af5c 9a40 bdf9 6940
00000070: 8692 8840 f5f9 a040 7f68 9340 8be7 9b40
00000080: 68de a540 c025 9640 95d9 b640 894b 9340
00000090: f1c8 8540 bb24 ee40 04f7 9640 954d a340
000000a0: f2b7 9440 d167 8740 ad67 9440 801d 9040
000000b0: 6558 9640 a48b e540 f0e3 9e40 25df 8940
000000c0: 6fae a640 16dc a340 f2df b440 8466 a740
000000d0: 7b0b 8040 06b8 9040 aa1c a640 7db7 bf40
000000e0: 24fe 7f40 4097 8f40 f3b1 9740 6985 7140
000000f0: 1b8a 9040 83de 8840 2c68 8c40 6008 a740
6.249443 5.2335024 4.9947815 5.386853 6.4062347 5.3779206 5.4515696 4.800924
4.2679167 4.8051343 6.6579328 4.887707 3.8319945 5.0549526 5.141545 5.8574038
4.4616647 4.3743234 5.779142 5.843215 4.3635616 5.1691484 5.185987 4.9002023
5.478296 4.6331744 4.823814 3.6558678 4.267886 5.0305123 4.606506 4.8720145
5.183399 4.692108 5.7140603 4.6029706 4.180779 7.4419837 4.7176533 5.1032205
4.6474543 4.231423 4.6376557 4.503601 4.6982903 7.173296 4.9653244 4.3084893
5.208793 5.120616 5.652337 5.231264 4.0014014 4.522464 5.190999 5.9911485
3.9998865 4.487213 4.7404723 3.7737677 4.5168586 4.277162 4.3877163 5.2197723

features.module.9.bias f4 [64]
00000000: 1bd9 ae3f 9923 933f 9233 993f f72a fb3f
00000010: 2bc2 c03f 7e63 863f 4416 dd3f 7147 3240
00000020: b21b a53f b31a bb3f 5841 b63f 7f85 8f3f
00000030: fe13 7c3f f483 6f3f 9edd 8b3f 1d08 9e3f
00000040: 6b39 7a3f 659d 613f 02e8 b03f 15e0 993f
00000050: 76f9 6f3f b143 4540 9778 a73f 7dcb 903f
00000060: 6a20 f73f 5225 913f b378 a03f b737 2c3f
00000070: aee2 723f 40b4 a93f 7a5e b63f f551 8f3f
00000080: 0d18 8a3f d805 d53f ab81 0a40 5a37 e23f
00000090: f3dc a03f 28e4 da3f e24b 923f d0ff 8c3f
000000a0: 5882 ad3f d4ca 833f 1408 c23f 4d7d 2640
000000b0: 90fa 7b3f d982 fa3f b01a 763f 0758 6f3f
000000c0: e652 883f 6f57 913f caaf 893f b9c0 633f
000000d0: 0f9b 9c3f f155 a23f 14bb be3f 3e9a 0240
000000e0: 4124 363f 4673 7c3f 0207 893f d846 653f
000000f0: ed41 7d3f 8edd 6f3f 9417 a63f 449e 4140
1.3660005 1.1495239 1.1968863 1.9622487 1.5059255 1.0499113 1.727242 2.7856104
1.2899077 1.4617523 1.4238691 1.1212615 0.98468006 0.9356072 1.0927007 1.2346226
0.9774386 0.8813079 1.3820803 1.202151 0.9374002 3.0822566 1.3083676 1.13121
1.9306767 1.1339514 1.2536834 0.67272514 0.94877136 1.3258133 1.4247582 1.1196886
1.078859 1.6642408 2.1641643 1.7673142 1.2567428 1.7100878 1.1429408 1.1015568
1.3555403 1.0296273 1.5158715 2.6013978 0.98429203 1.9571182 0.9613447 0.93493694
1.0650299 1.1354808 1.0756772 0.88965946 1.223482 1.2682477 1.4900842 2.0406642
0.7114907 0.98613393 1.0705264 0.89561224 0.9892872 0.9369744 1.2975945 3.0252848

features.module.9.running_mean f4 [64]
00000000: 5614 06bc 6cc3 043d 26e7 eb3c 91df 4e3c
00000010: 7af8 983d 7d84 47bd 4fd5 27bd 1021 1e3d
00000020: ce2c 97bc 80ee f43c 76b6 14bd c959 90bc
00000030: 505e 033d 31bc 303c a8a5 893d f674 ccbc
00000040: 8167 103d 723e 3e3d c8d2 a0bb 36a0 8b3b
00000050: da34 043d 7c8d 0f3e a372 d6bd a9d6 bf3b
00000060: c6b4 0e3d 14f4 d1bc 660d 9ebc ed3a 4e3c
00000070: 5655 593d 59ea d9bc 7707 95bc b351 4bbc
00000080: 8242 3abd 56b5 56bd ac4d 40bd f627 ed3b
00000090: 2671 943c bd07 adbb 605c 3c3d 2b38 0dbc
000000a0: c87c bdbd 032f 633d 4e39 f1bc 4859 df3d
000000b0: d624 66bd 5b0c 6cbd 8392 8e3c ffa4 53bc
000000c0: 1d4c 903c 11bc ee3c f22d 46bd 34f5 b8bc
000000d0: 30a0 c63b 4877 943c 14e3 c9bd 91f1 683d
000000e0: 93d9 1fbd 559f d3bd 2913 d83c f8e5 0fbd
000000f0: c882 0bbd 0ada 413d b3b2 efbc 5aea e63d
-0.008183559 0.03241293 0.028796744 0.012626545 0.07469268 -0.048710335 -0.04097491 0.03860575
-0.018453982 0.029898882 -0.03630682 -0.017620938 0.032072365 0.010787056 0.067210495 -0.024958115
0.03525496 0.04644627 -0.0049079396 0.004261042 0.032276966 0.14018816 -0.10471084 0.005854447
0.034840368 -0.02562908 -0.019293498 0.012587291 0.0530599 -0.026601003 -0.018192036 -0.012409615
-0.045473583 -0.05241903 -0.046949074 0.0072374297 0.01812036 -0.0052804635 0.045986533 -0.0086193485
-0.09252316 0.055464756 -0.02944627 0.10905701 -0.056187473 -0.05762897 0.017403847 -0.012917756
0.017614419 0.029142411 -0.04838366 -0.02257786 0.0060615763 0.018123284 -0.09857765 0.056871
-0.039025854 -0.103331245 0.026376324 -0.035131425 -0.03406027 0.04732708 -0.029260015 0.11275168

features.module.9.running_var f4 [64]
00000000: 9067 183c 27f2 a03b babd 073c b344 423c
00000010: 21de 1a3c 81ea 493b 525e 3f3c aece 153c
00000020: 5b1f 7d3b 1210 043c 7304 bf3b 90fb 243c
00000030: 28b8 683b 4622 7c3b 4efc c63b ebb2 4a3c
00000040: f200 973b c7d6 873b 3a3c fe3b 13c6 493c
00000050: 465d cd3b a453 2e3c 4b94 3a3c 307d 803b
00000060: 78c2 2c3c 2b0a af3b eab0 113c e1df 813b
00000070: bd06 b23b 6388 bb3b 155a 023c b272 f73b
00000080: 6e4b 743b 159a 3d3c b53f 6e3c 3927 0f3c
00000090: ce14 e63b 77b3 ac3b 8401 093c 2dbf 1e3c
000000a0: dae0 0f3c 6a65 f03b 512e 013c e516 1d3c
000000b0: 7579 ea3b eb36 2d3c 07fc 8b3b ac9d c33b
000000c0: 2261 a93b 5e06 1a3c fc1d 513b 8f3e bd3b
000000d0: dac0 d33b cbcc d13b 421b 0a3c 5629 4d3c
000000e0: 1b42 7f3b 4f22 163c 7cc1 8b3b 6457 d03b
000000f0: f538 ad3b 8ef6 003c 1702 953b fdd1 3f3c
0.009302035 0.0049116793 0.00828498 0.0118571995 0.009452374 0.0030809941 0.011680203 0.009143515
0.0038623426 0.008060472 0.005829388 0.010069743 0.0035510156 0.0038472577 0.0060725575 0.012371759
0.004608267 0.0041454765 0.0077586444 0.012315291 0.0062672226 0.010640059 0.011387895 0.0039211735
0.010544412 0.0053417883 0.008892277 0.003963456 0.005432932 0.0057230457 0.007956048 0.0075515145
0.0037276405 0.011572381 0.014541556 0.008737379 0.007021523 0.0052704173 0.008362178 0.009689135
0.008781636 0.0073363082 0.007884578 0.009587978 0.007155592 0.0105721755 0.0042719874 0.0059697237
0.00516905 0.009400932 0.0031908741 0.00577528 0.0064621987 0.006402587 0.00842935 0.012522062
0.0038949314 0.009163453 0.0042650085 0.006358074 0.005286331 0.007871283 0.0045473683 0.01170778

top_layer.weight f4 [10, 64]
00000000: e8af 7c3d a041 03be f8f5 3e3b c3b1 1bbe
00000010: 1db2 d3bc 4e77 a0bd a1cd 103e bf10 35bc
00000020: a8a8 dc3c 146f 2fbe 4326 2a3d bc57 d33e
00000030: 7a39 96bc 7997 b1bc 0f82 d9bd 68bd c4bd
00000040: fdf0 92bd dec8 9abd d7fc 21bd 86e4 f0bd
00000050: 5fda 813d d236 e73b 6777 e53e 4e28 173d
00000060: 3458 2abe 6395 803d dae4 debd 048e a43c
00000070: c09b 2fbd f713 d3bc 8689 5dbe 4942 ce3e
00000080: 7c88 653e 4b40 15be 903b 20be ade3 d4bd
00000090: f878 25bd 934d 42bd 8858 6bbe 809b 94bd
000000a0: 5f88 9c3d 62d3 5bbd f122 163d ec02 b23c
000000b0: 15a1 b23e dbb2 60bd bb5e 76bd c670 0b3e
000000c0: d7ca febd b646 b5bd e848 f1bc 8a03 0b3c
000000d0: 2399 2abe beb8 0d3e c1ff b53e 8a48 1fbe
000000e0: 7e25 36bd 3c29 bd3e caf7 b73d f3e6 84bd
000000f0: 59f1 3f3e 8a40 82bd 6d1d 153c 5913 8e3d
00000100: b476 f23e d68b 12bd 842b 2ebd 1e4f cdbc
00000110: 4a12 043f 1900 cabd b426 a6bd 3f51 9fbd
00000120: fd3e a8bd 0d0b 9dbc 862b 7cbd 4af4 28bd
00000130: 9a3f 7f3e 82ad 48bd 6967 b83d 794a 48bc
00000140: 2d23 b9bd 02dd 7c3b bfc4 7dbc 47f7 41bd
00000150: 8ec0 dc3d 7353 f5bd cdae b6bd 77dc 47bd
00000160: bb37 34bb 1c3c 94bd 5c8a 87bd 7bad 643e
00000170: 7dfa a93e b88b 463c a28b 3ebc b867 fdbd
00000180: bcb6 03be d484 413d 2dee 1abd 9e49 65bd
00000190: 9176 bbbc 13b4 90bd 808d 4dbb c167 7abd
000001a0: 60f6 a5bc 0321 aebd 4e28 80bd cb86 9fbd
000001b0: 3403 cebd 18b1 fb3e bc8d 9ebd c7b2 d43d
000001c0: 9089 33bd 7aa6 8dbd 3805 c2bd 9419 1bbd
000001d0: 0ac2 15bd e7a1 50bd f1d3 04be 3266 8c3e
000001e0: b032 5b3d dee8 93bd 1853 46bd c614 84bd
000001f0: 2321 94bd 3152 9abd 0708 93bd 2d26 c5bd
00000200: eae1 62be d7ed 4fbd 26e8 2e3d efe1 e13e
00000210: 3186 3ebe eac3 193c d0f6 333b a127 54be
00000220: d7ed 5fbd 931b 7a3c 4909 fbbd ed8e fe3c
00000230: d182 acbd e795 98bd 3a9f edbd f2bb 8cbd
00000240: af0c 18bd c3b8 debd 45e3 42bd 701b 41bc
00000250: d55f 2f3d f82a 79be a543 8d3c 1dae 96bd
00000260: a32c b23e 2e08 3abd 3500 2a3c b2c0 0fbe
00000270: 68e3 14be cc96 4bbd c5a6 85bb 4411 1c3d
00000280: 347a 20bd 34af b63e d32e f03e d7e1 c43e
00000290: 56c3 d5ba 1549 bfbb 8dfb 50bd e7ef 8cbc
000002a0: 6414 24bd 38da 123d 6610 113d c080 5abe
000002b0: f689 023d 5918 27be 68fc ccbd 110b 5a3d
000002c0: fd3f 32bd 94f1 853b 6f9a d9bc 90ea e1bc
000002d0: 2715 903c f1df 923d ffb1 063e 7fa8 963e
000002e0: a941 8bbc 6222 37bb d4fc c3bc da9b 783d
000002f0: 8237 513c 1481 95bc 3a31 9abc 8430 94be
00000300: 6a65 813c d95b 25bd c449 98bd e049 26bd
00000310: 7db4 fcbc 1f8a 9cbd cc3e abbd fa45 393b
00000320: 3d5e ef3d 4c06 42bd 8e8f acbd ab5b 9cbd
00000330: 480f ffbc de7c fdbc 0170 a93e d5f1 bf3d
00000340: 6090 7ebd 6299 a13e fc46 043f f651 78bd
00000350: 6c8b 69bd d88a 133c 9bcc bfbd bd7a 8abd
00000360: 0a02 6fbd 3b19 723e 74e7 7dbd d036 5b3e
00000370: aecd 743d c97e ec3e 174b babc d8d5 edbd
00000380: 8384 ebbd d650 e8bc 42b4 8cbd 92f5 7fbd
00000390: 7c5f 57bd 256e d3bd a0fa af3d 36a5 86bd
000003a0: 64eb 8bbd f0d2 7fbd fbc1 bbbd 30f1 ba3d
000003b0: 6523 a6bc becd 22bd c97c f33d bd9a a7bd
000003c0: a799 483d e03e 6abc 4e5a 7cbd ee3b e73e
000003d0: f2f9 25bd 0334 d4bd c1d7 d6bd b7a2 16bd
000003e0: a4c9 b03e 896d 8bbd 611e 0bbe 7399 2dbd
000003f0: 3a98 6e3e 85ab 31bd 1ac4 223e 8e7e 073b
0.061691195 -0.12818003 0.0029138308 -0.1520453 -0.025841767 -0.078352556 0.14140941 -0.011051356
0.02693589 -0.17132217 0.041540395 0.41277874 -0.018337954 -0.021678673 -0.1062051 -0.09606439
-0.07174871 -0.075578436 -0.039547767 -0.117623374 0.06340479 0.0070560956 0.4481766 0.036903672
-0.1663521 0.06278493 -0.10883494 0.02008725 -0.042873144 -0.025766356 -0.21634492 0.40284947
0.22415346 -0.14575307 -0.15647721 -0.10394988 -0.040398568 -0.04743726 -0.2298299 -0.07256222
0.07643198 -0.053668387 0.036654416 0.021729909 0.3488852 -0.05485807 -0.060148936 0.13617238
-0.124410324 -0.08851378 -0.02945371 0.0084847305 -0.1665998 0.13840005 0.35546687 -0.15555015
-0.04446935 0.36945522 0.08982809 -0.064893626 0.1874441 -0.06359966 0.009101254 0.06937284
0.47356188 -0.03577789 -0.04252197 -0.02506214 0.51590407 -0.098633 -0.08112851 -0.07779168
-0.08215139 -0.019170308 -0.061564945 -0.041248597 0.24926606 -0.048993595 0.09004099 -0.012224787
-0.090399124 0.003858388 -0.015488802 -0.047354963 0.107789144 -0.11978807 -0.08920059 -0.048794236
-0.0027499038 -0.072380275 -0.06618187 0.22331803 0.3319892 0.0121182725 -0.011629971 -0.123732984
-0.12862676 0.047245815 -0.0378248 -0.05597841 -0.022883685 -0.070655964 -0.0031364858 -0.061134104
-0.020259082 -0.0850239 -0.062576875 -0.077893816 -0.10059205 0.4915855 -0.077418774 0.103856616
-0.04383236 -0.069165185 -0.09473652 -0.03786619 -0.036562003 -0.050935652 -0.12971474 0.2742172
0.053515136 -0.0722215 -0.048419088 -0.06449275 -0.07232883 -0.07535208 -0.071792655 -0.09626422
-0.22156492 -0.05076393 0.042701863 0.44117686 -0.18605877 0.009385088 0.0027460344 -0.20718242
-0.05467018 0.015265363 -0.122576304 0.031074012 -0.08423389 -0.074504666 -0.11602636 -0.06871785
-0.03712147 -0.10875084 -0.047580022 -0.011786327 0.042816002 -0.24332798 0.01724417 -0.07357428
0.3479968 -0.045417957 0.010376026 -0.14038351 -0.14539874 -0.049704358 -0.0040787184 0.038102403
-0.039179042 0.35680544 0.46910724 0.38453552 -0.0016308825 -0.0058375695 -0.051021148 -0.017204238
-0.04005851 0.03585264 0.03541603 -0.21338177 0.03186985 -0.16317882 -0.1000908 0.05323321
-0.043518055 0.0040876362 -0.026562897 -0.027577668 0.017588211 0.0717162 0.13153838 0.29425427
-0.016999083 -0.0027944078 -0.023924269 0.060695507 0.012769582 -0.018250026 -0.018822301 -0.28943264
0.015795428 -0.040370796 -0.07435945 -0.040597796 -0.030847782 -0.07643532 -0.08361587 0.002827047
0.116878964 -0.047369286 -0.084258184 -0.07634672 -0.031135216 -0.03094333 0.33093265 0.09372298
-0.062149405 0.31562334 0.51670814 -0.06062504 -0.05701773 0.009005271 -0.09365197 -0.06761692
-0.058351554 0.23642437 -0.06198831 0.21407628 0.059766464 0.4619048 -0.022740884 -0.11613053
-0.11499884 -0.028358858 -0.06870319 -0.062490053 -0.052581295 -0.10323743 0.08592725 -0.0657448
-0.068320066 -0.062457025 -0.09167858 0.09128034 -0.02028055 -0.039746992 0.11889035 -0.08183811
0.04897466 -0.014297217 -0.06160956 0.4516291 -0.04052157 -0.10361483 -0.104903705 -0.03677627
0.3452884 -0.068080015 -0.13585807 -0.04238267 0.23300257 -0.043376464 0.1589512 0.0020674798

top_layer.bias f4 [10]
00000000: 61e1 bbba f683 88bc 8b1c d0b9 ccec f7bb
00000010: 92b3 1fbc 7e9f a7bb c81c a33c 53b4 89bb
00000020: 1180 053d 6dc2 f1bb
-0.0014334136 -0.016664486 -0.00039694118 -0.00756607 -0.009747403 -0.0051154485 0.019911185 -0.0042024045
0.032592837 -0.0073779137

momentum_buffer f4 [16, 1, 3, 3]
00000000: 50d1 8ebc 8235 8b3c acf0 653b 24c3 923c
00000010: e8c0 3f3d f83a c6bb 9c25 a3bb c0a5 62bb
00000020: da2f 1dbd 21b0 533d dcb8 413d 4bb2 8e3c
00000030: 2aac 9c3c 12db d13c 8892 a33b 0c7f 613c
00000040: a080 c739 9e21 14bd 9337 863c d263 bb3c
00000050: 18f5 ebbb 05e0 b63c 0710 ce3c 62fd 823c
00000060: 9594 b03c 312b 90bc dc7b 15bd 4870 44bb
00000070: 657f 373c 0814 783d 8455 613c d001 363d
00000080: de8d 863d c498 503d b400 6b3d 46ab f83c
00000090: 2267 0b3d 590e a13c 02b7 8b3d c6b6 103d
000000a0: 6730 de3c baf3 5c3d 02fb 09bc f5d5 75bd
000000b0: d898 07bd d2f5 71bc 14b3 f83d 15d9 d63d
000000c0: fa16 853d f650 5d3d 6a70 9d3c 1448 af3c
000000d0: 2724 ff3b f671 653c 0455 12bd d6a1 b7bb
000000e0: 00f0 e73b 0c3e f9bc e712 d9bc 0053 8dba
000000f0: 7296 0ebd 0518 b2bc fd47 363c 0fb3 e23c
00000100: 12a4 e8ba f30c f53b 3aac 3b3c 2019 4eb9
00000110: ae27 993c fdeb 9dbc 2fa9 d9bc c2e5 12bb
00000120: 9145 fbbc b22f 8e3b 0c5c e83c a792 0abd
00000130: 3a9c 373d 94d0 4a3d d28d e73c 76ce 833d
00000140: 2a8c 143d af4f 3a3e 7a41 1d3e 5ffc a03d
00000150: 2088 393e afdd cb3d d061 1b3d b4d0 9c3d
00000160: efb9 c53c abca 8b3c 0a8b 25bd 0aec 52bd
00000170: cfa5 fbbc 8ce3 25bd 04ee 0cbd e7e9 efbb
00000180: f084 a0bc 4177 e9bb b054 80bb 7fd2 f63c
00000190: 260f 083d c2f4 a83d 2cab 0bbb 487a 3c3c
000001a0: 72d3 923c a2cb b43b 425d db3b 369f 17bc
000001b0: c3bc fa3c b4e3 293d 9fa8 a93d aa5c 123d
000001c0: 75bd 333d 30bc ac3d 133b d23c 23c0 d13c
000001d0: da49 9c3d 0a68 d0bb 4bff 253d c12d 2e3c
000001e0: dcf4 debc 9015 953b b8f9 8cbc 9ce7 ab3b
000001f0: cb87 ab3c 9c7e 2ebc 2857 a9bb 16d3 fcbb
00000200: ec72 81bc 988f 173b 64f9 533b aef5 59bc
00000210: f03d c73c 2c7f e13c 3a83 2a3c 2cf1 07bb
00000220: 1eca 923a 9a90 613c edd1 273d 78ba 6e3d
00000230: f33f a33d 32bf 2e3e b635 673e 204c 3f3e
-0.017433792 0.016993288 0.0035086079 0.017915316 0.04681483 -0.00604951 -0.0049788486 -0.0034583658
-0.038375713 0.05168164 0.047295436 0.017419001 0.019125063 0.025617156 0.004991833 0.0137632005
0.0003805207 -0.036164872 0.016383922 0.022874746 -0.0072008483 0.022323618 0.025154127 0.015989963
0.021555224 -0.01759872 -0.036495075 -0.0029974151 0.011199807 0.06056598 0.013753299 0.044435322
0.06570028 0.05092694 0.057373717 0.030355107 0.034033902 0.019660162 0.06822015 0.035330556
0.02712269 0.053943373 -0.008421661 -0.0600185 -0.033104748 -0.014768081 0.121435314 0.10490624
0.06498523 0.05403229 0.019218642 0.021396674 0.007786292 0.014004221 -0.03572561 -0.005604009
0.007078171 -0.030425094 -0.026498271 -0.0010782182 -0.034811445 -0.021739969 0.011125562 0.027673272
-0.0017749092 0.0074783503 0.011454636 -0.0001965505 0.018695679 -0.019277567 -0.02656993 -0.0022414778
-0.03067282 0.004339182 0.028364204 -0.033831265 0.044826724 0.04951532 0.028265867 0.06435864
0.036266483 0.1819446 0.15357009 0.07860636 0.18118334 0.09954392 0.03793508 0.076569945
0.024136512 0.017064413 -0.0404158 -0.051494636 -0.030718712 -0.04050021 -0.034406677 -0.0073215845
-0.01959464 -0.007124812 -0.0039163455 0.03012967 0.03321757 0.08249809 -0.0021311743 0.0115037635
0.01792309 0.005517439 0.006694467 -0.009254267 0.030607587 0.04147692 0.08284115 0.035732903
0.043881852 0.084343314 0.025662934 0.025604313 0.076312736 -0.0063600587 0.04052667 0.010631026
-0.027216367 0.0045496896 -0.017208919 0.005246116 0.020938775 -0.010650303 -0.0051678605 -0.007715593
-0.01580187 0.002312636 0.0032344693 -0.0133032035 0.024321526 0.02752646 0.010407263 -0.0020743115
0.0011199152 0.013767386 0.040971685 0.0582833 0.07971182 0.17065123 0.22579083 0.18681383

momentum_buffer f4 [16]
00000000: 0d2b bcb6 24b2 e236 8729 8c37 1f52 da37
00000010: 57c9 f637 a250 d7b7 33c2 0837 1c95 69b7
00000020: 0388 6eb6 7e9f cab7 807e f637 e58b c6b7
00000030: d487 9037 4045 3e37 d6f7 2f37 0248 92b7
-5.6078484e-06 6.756063e-06 1.6708638e-05 2.6025866e-05 2.9419241e-05 -2.5667545e-05 8.151447e-06 -1.39225995e-05
-3.5543933e-06 -2.4154546e-05 2.9384391e-05 -2.3668583e-05 1.7229388e-05 1.1341006e-05 1.0488517e-05 -1.7438088e-05

momentum_buffer f4 [16]
00000000: d4ad e3bd b3ff 46bd effe 75bc 4f88 e93d
00000010: 71fe 54be 26a6 22bb 9ef3 82bb 80df 2ebc
00000020: b4a2 303c a735 083d cf3f a3bd 081a 74bd
00000030: 4831 633d 1a3b c7bc 696e 9b3d 29a9 fcbc
-0.111171395 -0.048583698 -0.015014394 0.11402952 -0.20800187 -0.002481827 -0.0039963266 -0.010673404
0.010780979 0.03325429 -0.07971155 -0.059595138 0.05546692 -0.024320174 0.075894184 -0.03084238

momentum_buffer f4 [16]
00000000: 3899 37bd 1960 25bd b983 2dbd e6f5 143e
00000010: 7abf 10be 18c0 bbbc 3073 24bd 80d8 3a3a
00000020: f665 c33c c1ed e43c 68ff 4bbd 1424 d1bd
00000030: 4f44 223d b85b ebbc 89bc 253e a377 70bd
-0.044823855 -0.04037485 -0.04236195 0.14546928 -0.14135543 -0.022918746 -0.040148914 0.0007127598
0.02385233 0.027945401 -0.04980412 -0.102119595 0.039615925 -0.028730258 0.16185202 -0.058707844

momentum_buffer f4 [32, 16, 3, 3]
00000000: 55b1 6abb 324a 05bb c8ee 97b9 1804 58ba
00000010: c876 ab3a a2b1 22b9 32da 893a ca46 0e3a
00000020: 0971 1cbc 790b 52bc e579 49bc e312 1fbc
00000030: 57b6 61bb f866 81bb ba15 76bb 7ac2 f33b
00000040: 8f4e 253b fb3c 113b 7428 743c 76db 2d3c
00000050: fae3 dabb e93b b23c 37d1 8b3c acfe c63a
00000060: 9a9d d93c 7c07 953c 16e1 623c 0acf 723b
00000070: 550a 983b 63a9 ed3a 716d 45bb 270c 8ebb
00000080: 0777 acbb a320 b33a e032 bab8 2849 62bb
00000090: a841 343a 9121 383b 68d0 22b9 7044 1c39
000000a0: fb5a 923a d0f9 72bb 44d8 043b 2b31 993b
000000b0: 00a8 4cb6 b638 a33b d817 11bb 91c1 ebbb
000000c0: 8e4e 713c bf60 253c 2d04 8d3b 9536 2c3c
000000d0: 40f3 8f38 da6a 3bbb cac0 a9b9 325b 60ba
000000e0: 90c9 95ba 007b fb3a 2249 0a3b 1400 583a
000000f0: 8bdb 94bb 1edd 2ebc 6f76 22bc fc71 ce3b
00000100: 0fe2 7b3b a57e 383b 846f 9e3b d198 c23b
00000110: 3ce6 c23b a601 543b 4a17 723b 618c 5b3b
00000120: 294d a73b cb7b 953b 3e9c 27bb 35c7 9d3b
00000130: 44a2 a33a 682a 67ba fd6f 843c c829 d33b
00000140: 2ad0 a73b 70c9 d73a 7721 eebb e717 12bc
00000150: d05b 663c 7216 8f3b 34e8 3a3a 9fda 933c
00000160: 7c48 ad3b 1017 daba d4c4 a4bb cec3 a2bb
00000170: 03ea 77bb a3ff edbb fde5 c7bb 7ddc 05bc
00000180: 7e1f e5bb 9acc 4abc aa46 9ebb 469f 0c3c
00000190: 3c01 85bb 3d79 a2bc 39f3 8e3c f856 3e3c
000001a0: 99c5 45bb c79b ba3c c36d ec3c 0245 453c
000001b0: 2c22 72ba 39c1 8c3a 6241 f5bb d329 97bb
000001c0: 0dfe 34bb 56cb 43bb 3ccb f7ba 885a d6ba
000001d0: eb30 d9ba 0019 a0ba e583 c7bc 3a28 adbc
000001e0: deb7 913c 509f 79bb 3f6a 2abc f76a 9c3c
000001f0: 01db fc3b ab74 443b 9218 9fba 2eff f6ba
00000200: bd43 61bb 38f9 693b 7b77 0b3a 6b88 a4bb
00000210: 20fc 4b3b 9b0e bd3a 471d c8ba e314 2f3c
00000220: 5c8a e03a 20c5 48bb 0351 453c d797 8a3b
00000230: 284a 3dba a46a 8a3c 0b14 883c 7bb5 d83b
00000240: f4f9 863c 76f9 393c 63f4 063c ac6a 7c3a
00000250: b25a 0a3c ceaf 6e3c 2a85 393c 58b8 0b3c
00000260: 804a f73c 5e62 debb 163a 3cbb f04a 0cba
00000270: 1707 7cbb 4940 0f3b 7c08 243a 8966 f43a
00000280: 8867 2739 d301 ac3b b712 6dba a83e 12bb
00000290: 2c46 97bb a3ff 4bba 39a3 4cbb 244e 08bc
000002a0: ca50 62bb 3d27 10bc a986 0bbc 74fd a93c
000002b0: fcf0 653c dcc8 853b 51f8 893c 3e77 de3b
000002c0: 092e 9d3b f8c1 ed3b 3d92 f93b 6c70 1b3c
000002d0: b034 c6bb a07c b4bc f3e2 85bc 8969 c2bb
000002e0: f8d9 9bbc d733 94bc a6ab 76bc 0c3e 1fbc
000002f0: 7ec7 beb9 4eec b6bb 55c6 19bc 8329 63bc
00000300: 7b33 74bb 7a41 60bb 84d3 cabb bd72 5c3b
00000310: 5e5c c1ba 50dd 8f3a 7281 f5bb 8672 44bc
00000320: 5635 12bc 5df0 223b 9309 153b 8070 56b8
00000330: 706c 4c3c 6adc af3b 90ea 143b adc3 0b3c
00000340: 2474 eaba f4dc 743a b5c5 d93b fbc9 fc3a
00000350: 13bb 5a3b 35d6 a43b 649e 5b3b 7b71 0d3c
00000360: a240 cb3b 0367 213b c062 8b3b 0c28 b7ba
00000370: 42f7 a13a 060c 1b3b a506 e6ba 0053 a83b
00000380: 881e 983b 3434 3bba 1281 a33b a4f1 b33b
00000390: e0e5 e53b 5abc a93b 64e3 623b 7946 a63a
000003a0: 72e8 96bb 1dae 14bc 17fb a13c 752b 6e3c
000003b0: 65fe c53c ba96 893c a621 d43c ee59 273c
000003c0: 8ccd 633c 7cbe 903c 53f8 a03b d3e4 72bb
000003d0: 92e8 9dbb 9632 5c3b aeec 3abb d10b 86bb
000003e0: 5e6f ffba 8d3a 89bb 5797 a1bb 510f e3bb
000003f0: 10d8 64b9 7843 b5ba d156 be3b cc48 233b
-0.0035811265 -0.0020338413 -0.0002897887 -0.0008240356 0.0013081664 -0.00015515697 0.0010517298 0.00054274185
-0.009548434 -0.012820118 -0.012297128 -0.009709093 -0.0034440958 -0.0039490424 -0.003754957 0.007438955
0.0025223827 0.0022161591 0.014902223 0.010611406 -0.006680009 0.021757083 0.017067535 0.0015182099
0.026564408 0.018192045 0.01384761 0.0037049674 0.0046399035 0.0018132146 -0.0030125047 -0.0043349448
-0.0052632126 0.0013666343 -8.878647e-05 -0.0034528468 0.00068762386 0.002809618 -0.00015527161 0.00014902814
0.001116603 -0.003707517 0.0020270506 0.0046750507 -3.0496158e-06 0.0049811257 -0.0022139456 -0.007194706
0.014728202 0.010093867 0.0043034763 0.01051106 6.86408e-05 -0.0028597624 -0.0003237783 -0.0008558511
-0.0011427868 0.0019186437 0.002110072 0.0008239758 -0.004542773 -0.010672836 -0.009915932 0.006300209
0.0038434302 0.0028151658 0.004835071 0.0059386273 0.005947856 0.0032349615 0.003694015 0.003350042
0.0051056338 0.0045618764 -0.0025575305 0.004815007 0.0012484272 -0.00088182697 0.016166681 0.0064441897
0.0051212506 0.0016463231 -0.007267173 -0.008916832 0.014059976 0.0043666894 0.0007129938 0.018048583
0.005288182 -0.0016638953 -0.0050283466 -0.0049671894 -0.003782869 -0.0072631403 -0.006100415 -0.008170244
-0.0069922796 -0.012377882 -0.004830201 0.008582896 -0.004058985 -0.019833202 0.017449962 0.011617415
-0.0030177592 0.022779359 0.028860932 0.0120403785 -0.00092366594 0.0010738737 -0.007484601 -0.00461314
-0.0027617246 -0.0029875836 -0.0018905173 -0.0016353885 -0.0016570365 -0.0012214482 -0.024354884 -0.021137346
0.01778787 -0.0038089342 -0.010401308 0.019093974 0.007716537 0.0029976766 -0.001213806 -0.001884436
-0.003437265 0.0035701524 0.0005320233 -0.005021145 0.003112562 0.0014423908 -0.0015267514 0.010686132
0.0017131078 -0.0030635074 0.0120432405 0.0042295265 -0.0007220828 0.016896553 0.01661112 0.006613431
0.016476609 0.01135098 0.008236977 0.00096289325 0.008444475 0.014568282 0.011323253 0.008527838
0.030186892 -0.0067866286 -0.0028721145 -0.0005351743 -0.0038456374 0.0021858385 0.0006257368 0.001864628
0.0001596493 0.005249241 -0.0009043621 -0.0022315178 -0.0046165194 -0.0007781928 -0.0031225218 -0.008319411
-0.0034533017 -0.008798418 -0.008515992 0.020750739 0.014034506 0.004082782 0.01684204 0.006789117
0.0047967476 0.007255789 0.00761631 0.009487253 -0.0060487613 -0.022032082 -0.01634357 -0.005932991
-0.019024834 -0.018091125 -0.015055573 -0.009719383 -0.00036388257 -0.005582369 -0.009385665 -0.013864878
-0.003726213 -0.0034218715 -0.0061897654 0.0033637725 -0.0014752259 0.001097599 -0.0074922377 -0.011990195
-0.008923849 0.0024862506 0.0022741302 -5.112635e-05 0.012477025 0.0053668516 0.0022722818 0.008530539
-0.0017887396 0.0009340786 0.006645883 0.0019286269 0.0033375665 0.0050304183 0.0033511156 0.008633013
0.006202773 0.002462805 0.0042537153 -0.0013973727 0.0012357014 0.002365829 -0.0017549588 0.0051368475
0.0046423115 -0.0007141263 0.0049897516 0.0054914523 0.0070159286 0.005179924 0.0034620399 0.0012685797
-0.0046053464 -0.009074715 0.01977305 0.014536728 0.024169156 0.016795505 0.025894951 0.010214312
0.013903987 0.017668955 0.004912415 -0.003706266 -0.0048189843 0.0033599488 -0.002852242 -0.004090764
-0.0019488146 -0.004187888 -0.004931371 -0.006929316 -0.00021824264 -0.0013829311 0.005808689 0.0024915216

momentum_buffer f4 [32]
00000000: a026 0736 559e 8736 8412 f8b6 ce2e bcb6
00000010: 4f20 02b7 ffe7 7836 f037 cb36 a317 02b7
00000020: 4683 0d36 6d72 dc35 ed20 91b6 6797 e235
00000030: 44f7 d036 2be6 0437 029e 6a36 de88 d7b5
00000040: 9d00 9ab6 d556 4eb6 07ea a531 20b3 13b5
00000050: b787 c536 6cc8 f4b6 af9e 3e35 c6ab 2cb6
00000060: d51a 3535 8747 0237 5e21 7c34 bef0 bab5
00000070: 83a6 37b6 b355 07b7 f7c6 f6b6 8bfb 6a36
2.013905e-06 4.041746e-06 -7.3931315e-06 -5.6082854e-06 -7.756126e-06 3.708992e-06 6.0563834e-06 -7.754107e-06
2.1087048e-06 1.642458e-06 -4.32517e-06 1.6882376e-06 6.2276686e-06 7.921403e-06 3.496069e-06 -1.6058582e-06
-4.589629e-06 -3.0746935e-06 4.828738e-09 -5.502243e-07 5.886857e-06 -7.295099e-06 7.101143e-07 -2.5729983e-06
6.74668e-07 7.765258e-06 2.3481468e-07 -1.3928145e-06 -2.7366048e-06 -8.06658e-06 -7.354534e-06 3.5015134e-06

momentum_buffer f4 [32]
00000000: 2921 013e 4ef9 bb3d 2cce 8e3c 7919 5f3d
00000010: ec64 80bc b8a6 62be 78b5 d43c 40c9 49be
00000020: 944f 753d 827f fb3d 3cd8 183d a452 dabc
00000030: 2776 24bd bff2 bebd 1bf8 61bd ae48 69be
00000040: 80b7 7d3b c64d a0bd d5b5 a13d 186d 943d
00000050: 836e a83c 0e1d 673c 1db6 a4bb 4049 b4bd
00000060: 68e7 0b3e cc2a 11bd 95d9 9b3d 726d f3bb
00000070: 0411 fbbb 9be7 19be 2338 933d 7f1b 97bd
0.12610306 0.091784105 0.017432295 0.054467652 -0.015673123 -0.2213391 0.025965437 -0.19705677
0.059890345 0.122801796 0.037315592 -0.026650734 -0.04015174 -0.09323644 -0.055168252 -0.22781631
0.003871411 -0.07827334 0.0789601 0.072473705 0.020560509 0.014106048 -0.0050265924 -0.08803034
0.13662493 -0.035441205 0.0760986 -0.0074288184 -0.0076619405 -0.15029757 0.071884416 -0.07378291

momentum_buffer f4 [32]
00000000: fc74 2d3e 72db 593d bc42 103d 4733 e73c
00000010: 9618 48bc ab06 babd fb66 0c3c cfa7 c9bd
00000020: a063 353d 8891 743d a60a d83c 10f2 1bbc
00000030: e571 16bd 282c 74bd 4700 00bd 31b2 77bd
00000040: 796c 973b 178f 83bd ff59 d03c 3d2b 723d
00000050: 052e 07bc 4855 d83a e8d2 bd3c 1aea 2abd
00000060: 48d8 d13d ee78 a3bc 57a0 2d3d 6cb0 18bc
00000070: 660b cebb b1a1 abbd 191d bf3d 2838 08bd
0.16939157 0.053187795 0.035219893 0.028222693 -0.012212893 -0.09083303 0.008569474 -0.0984646
0.044284463 0.059709102 0.026372265 -0.009518161 -0.036729712 -0.059612423 -0.031250264 -0.06047267
0.0046210852 -0.064237766 0.025433538 0.059123266 -0.008250718 0.0016504908 0.023171857 -0.041727163
0.102463305 -0.019955125 0.04238924 -0.009319406 -0.00628798 -0.083804496 0.09331722 -0.03325668
