deepcluster_implementation/experiments/run_label_fraction_variation/config_6/checkpoints/checkpoint_epoch_11.pth.tar (torch, 203741 bytes, 32 tensors)

features.module.0.weight f4 [16, 1, 3, 3]
0.61602306 0.079179004 -0.84469724 -0.46824518 0.89178574 -0.4519551 -0.9986838 0.037477646
0.6388128 0.8306466 0.10175676 0.73633444 -0.12240323 -0.5675186 0.18505621 -0.822302
0.2050471 0.83607286 -0.9957556 0.047549024 -0.26351717 -0.68049985 0.768212 0.60116374
-0.7076354 -0.37379935 -0.060803052 -1.1977228 -0.18556683 -0.77950656 0.3568241 0.15513436
-0.1251292 0.62661415 -0.10683385 0.6863622 0.7401909 -0.06443182 0.7389064 -0.059819672
-0.98887116 -0.3552524 0.8668208 -0.0721881 0.93610543 0.1346122 0.15199725 0.09285523
-0.56216687 0.84714526 -0.63050646 -1.0256424 -0.57386327 -0.7868373 0.48451185 0.047819052
0.517608 -0.2223484 0.40495875 0.40600884 -0.65223235 -0.43912947 -1.11354 0.71334004
-0.03352366 -1.0578609 0.49457157 -0.0775988 -0.2386765 0.3315572 0.103470884 1.209934
-0.70105416 -0.7459299 -1.1030707 0.13468802 0.65916777 -0.5707819 0.60858506 0.06794609
-0.5937802 -0.10534702 -0.36592442 -0.8646902 0.8193819 0.8690897 -0.38031748 -0.56916416
-0.5250716 -0.96120423 0.21785347 -0.319406 0.06313247 0.38823292 -0.7757665 -0.101209626
1.2469695 -0.47551665 -0.5423766 -0.79367614 -0.04185775 0.21496679 -0.2019363 -0.23673256
0.4269899 -0.44334492 -0.22160126 -0.96226186 -0.82195514 -0.061176147 1.0322351 -0.45846286
0.02957437 -0.278968 -0.38381252 -0.3388904 0.009037217 -0.24199982 -0.0115231555 -0.6645708
0.026829846 0.110794425 0.2406827 -0.22611178 -0.09343122 -0.5664701 -0.5890459 -0.62021345
-0.26721972 -0.4925778 0.27088708 0.06503355 -0.6053825 -0.27909142 0.95061326 -0.7960603
-0.664234 -0.7068083 -0.29551294 0.5689449 -0.3398502 -0.5168042 0.8091711 -0.40990314
00000000: b0b3 1d3f 9a28 a23d 143e 58bf d5bd efbe
00000010: 124c 643f a966 e7be bea9 7fbf 2982 193d
00000020: 3c89 233f 41a5 543f d965 d03d 6a80 3c3f
00000030: 8bae fabd e648 11bf 607f 3d3e 6282 52bf
00000040: def7 513e df08 563f d7e9 7ebf c4c2 423d
00000050: b9eb 86be 3d35 2ebf 8ba9 443f dee5 193f
00000060: 9827 35bf a162 bfbe 9f0c 79bd fb4e 99bf
00000070: 3b05 3ebe be8d 47bf a6b1 b63e 8bdb 1e3e
00000080: de21 00be c969 203f b5cb dabd 6fb5 2f3f
00000090: 277d 3d3f d4f4 83bd f828 3d3f 7905 75bd
000000a0: a926 7dbf a4e3 b5be f8e7 5d3f 5bd7 93bd
000000b0: 9ba4 6f3f c8d7 093e 2ba5 1b3e e22a be3d
000000c0: 2bea 0fbf 83de 583f df68 21bf 4048 83bf
000000d0: b4e8 12bf 2b6e 49bf f011 f83e e9dd 433d
000000e0: f581 043f 4daf 63be c156 cf3e 64e0 cf3e
000000f0: b3f8 26bf 94d5 e0be 7b88 8ebf 749d 363f
00000100: 1b50 09bd fc67 87bf 7c38 fd3e 1fec 9ebd
00000110: 9d67 74be dec1 a93e 8be8 d33d 1edf 9a3f
00000120: 4978 33bf 43f5 3ebf 6c31 8dbf a8eb 093e
00000130: 38bf 283f c31e 12bf 3bcc 1b3f 5227 8b3d
00000140: fb01 18bf 2ec0 d7bd 725a bbbe 565c 5dbf
00000150: 03c3 513f aa7c 5e3f f9b8 c2be beb4 11bf
00000160: 186b 06bf 7b11 76bf fb14 5f3e 2f89 a3be
00000170: 994b 813d 77c6 c63e a298 46bf fe46 cfbd
00000180: b29c 9f3f eb76 f3be 31d9 0abf 5c2e 4bbf
00000190: 0873 2bbd 4120 5c3e 64c8 4ebe 056a 72be
000001a0: 6c9e da3e 1bfe e2be 71eb 62be cb56 76bf
000001b0: a76b 52bf d793 7abd 4820 843f a5bb eabe
000001c0: f345 f23c e5d4 8ebe 1383 c4be 0b83 adbe
000001d0: d610 143c cdce 77be 9ecb 3cbc 5021 2abf
000001e0: 44ca db3c 30e8 e23d 8775 763e d989 67be
000001f0: de58 bfbd 2f04 11bf b6cb 16bf 4fc6 1ebf
00000200: 06d1 88be 2833 fcbe b6b1 8a3e 4f30 853d
00000210: 59fa 1abf 12e5 8ebe 645b 733f 9cca 4bbf
00000220: 3d0b 2abf 64f1 34bf 794d 97be 5fa6 113f
00000230: d800 aebe 484d 04bf d625 4f3f d3de d1be

features.module.0.bias f4 [16]
-0.055179812 0.06674607 0.16497137 0.2579801 0.29110596 -0.2533788 0.08042341 -0.13745166
-0.035018805 -0.2391875 0.29107463 -0.23454022 0.17078805 0.11230505 0.10384203 -0.17277205
00000000: 3a04 62bd 2ab2 883d 41ee 283e f815 843e
00000010: d70b 953e deba 81be 07b5 a43d 21c0 0cbe
00000020: e16f 0fbd 91ed 74be bc07 953e 502b 70be
00000030: 10e3 2e3e 3100 e63d 21ab d43d 28eb 30be

features.module.1.weight f4 [16]
0.5717357 0.8343594 1.2154176 0.5720725 0.51493955 1.9700129 0.6534843 1.0290639
1.5877097 1.4652435 0.5825612 2.2679088 1.1163986 1.9561393 1.1465492 2.0958803
00000000: 455d 123f 9498 553f ce92 9b3f 5873 123f
00000010: 14d3 033f 6229 fc3f bf4a 273f 5eb8 833f
00000020: 123a cb3f 198d bb3f bb22 153f 6b25 1140
00000030: 26e6 8e3f c662 fa3f 20c2 923f e722 0640

features.module.1.bias f4 [16]
-0.06846 -1.4552411 -0.25867102 -0.15640481 -0.54728067 -0.8118877 -0.292983 -2.058782
-0.51151043 -0.5222208 -0.079152204 -0.9271447 -0.45050162 -0.53156066 -0.35374403 -0.7970639
00000000: c234 8cbd 5745 babf 8770 84be 9528 20be
00000010: 961a 0cbf dfd7 4fbf de01 96be 16c3 03c0
00000020: 59f2 02bf 43b0 05bf 8d1a a2bd 5b59 6dbf
00000030: 26a8 e6be 5c14 08bf f01d b5be 610c 4cbf

features.module.1.running_mean f4 [16]
-0.086624965 0.12358385 0.09313934 0.2350774 0.38627496 -0.33102334 0.051121432 -0.09096646
-0.11184899 -0.32912117 0.3107113 -0.301271 0.14345111 0.060407788 0.06289253 -0.25922623
00000000: 6e68 b1bd 8819 fd3d d7bf be3d 21b8 703e
00000010: d5c5 c53e e47b a9be b564 513d a04c babd
00000020: 1511 e5bd 9282 a8be 8d15 9f3e 3140 9abe
00000030: d9e4 123e 286e 773d cccd 803d 4db9 84be

features.module.1.running_var f4 [16]
0.85982203 2.0517902 2.8572562 2.0552988 1.7967105 4.3953586 1.9737892 2.637319
4.676296 4.0119653 1.5110142 3.4477334 2.2524538 1.1177155 3.4895778 3.8464901
00000000: 4c1d 5c3f 8850 0340 49dd 3640 048a 0340
00000010: 9cfa e53f c7a6 8c40 20a5 fc3f d6c9 2840
00000020: 38a4 9540 0562 8040 ea68 c13f aaa7 5c40
00000030: 3428 1040 4d11 8f3f 3e55 5f40 e52c 7640

features.module.4.weight f4 [32, 16, 3, 3]
-0.30474722 -0.17883101 -0.25667146 -0.098395705 -0.023977766 -0.09859633 -0.05229482 -0.012121823
-0.11240472 0.10729907 0.0022227615 -0.047929596 0.04860339 -0.011919457 0.0381724 -0.14983816
-0.28285027 -0.2598388 -0.025422176 -0.02974626 -0.010439652 -0.039158963 -0.0043884907 -0.006296036
0.0049225898 -0.022538302 0.021428065 -0.22630383 -0.14823624 -0.24836542 -0.10674797 -0.062093996
-0.12807485 -0.17271036 -0.035134416 -0.15241607 -0.07957774 0.08313841 -0.09070078 -0.13679738
0.0025089423 -0.10820642 -0.10908606 -0.1029087 -0.1645139 -0.07578273 0.011807761 -0.044916715
-0.10957797 -0.09033971 -0.1288902 0.2141216 0.037689485 0.037208594 -0.3011154 -0.17281567
-0.23929766 -0.22440846 -0.21612851 -0.32177836 0.06705493 0.041784976 0.008904044 -0.25402856
-0.14646482 -0.18018107 -0.066292726 -0.06403439 -0.123005405 -0.13510771 -0.16165023 -0.077841975
-0.017350659 -0.015087886 0.0028670183 -0.04198658 -0.008941833 -0.052905556 -0.0889093 0.008221706
0.002853185 0.018574568 0.021888588 -0.043272465 -0.031138454 -0.035995312 -0.08793453 0.0037943497
0.025841463 0.057588104 -0.1464598 0.006136176 -0.030770604 -0.08602432 0.045619316 -0.022782367
-0.26315325 -0.1141888 -0.13392177 -0.017686022 -0.03606702 -0.06431202 -0.041775428 -0.024895163
-0.040818438 0.01110644 -0.015232827 0.05198538 -0.111010544 -0.16835332 -0.14471616 0.0309134
0.039291795 0.03148073 0.095823936 0.052013535 0.020481423 -0.0052117915 -0.0024392812 -0.020825207
-0.024638558 -0.0020410984 -0.0059255576 -0.037843764 -0.014676107 -0.0037844174 -0.03680858 0.01512011
-0.029255522 0.02193248 0.02820789 0.04338433 -0.068264194 -0.1309704 -0.14064346 0.0071698176
-0.012465997 -0.010896504 -0.04799502 -0.0075929966 -0.03503048 0.0005071648 -0.018738322 -0.010862933
0.022908486 0.20047833 0.15326712 -0.02886029 -0.08209101 0.06355885 -0.1264319 -0.013566585
0.04962383 -0.21420585 -0.16380431 -0.1657862 0.10006998 -0.02600168 -0.24428967 -0.057738505
-0.1720263 -0.33626437 0.05187924 -0.04332584 -0.023597043 -0.18787989 0.030889729 0.06630654
-0.37443197 -0.016096741 0.0013685911 -0.05671842 0.022991644 -0.10383295 -0.03599168 -0.08662237
-0.06622737 -0.26404202 -0.33200502 -0.40373918 -0.061459247 0.012907903 0.16237332 -0.0059830584
-0.027138436 0.058064565 -0.016686175 -0.113805786 -0.21716073 -0.07976164 0.12585555 0.10951021
-0.32992616 -0.11614069 -0.074007556 -0.27174497 0.07837359 0.105023295 -0.041988138 0.11626956
0.12663886 -0.1724918 -0.04373496 -0.0062012407 -0.131367 -0.050149474 -0.0012432539 -0.101217404
-0.18309171 -0.31465584 -0.05557904 0.053717148 -0.120041795 -0.10613645 -0.15285236 -0.22389093
-0.27917388 -0.40511468 -0.38951808 -0.09707665 0.03613113 -0.008973811 -0.3494372 -0.2519545
-0.31580684 -0.09517902 -0.070333816 -0.113438204 0.020398647 0.014669328 -0.115897715 0.05978563
0.118831046 0.035201304 0.2163956 -0.0144856805 -0.09584269 0.0062644943 0.03412474 0.03563498
0.108627245 -0.031751473 0.019977096 -0.027382558 0.010826772 0.051489424 -0.32650092 0.027346421
-0.088115565 -0.3391298 0.079821706 -0.044900782 -0.025624072 -0.04043711 0.19848047 -0.042136613
00000000: d407 9cbe 7a1f 37be 716a 83be b083 c9bd
00000010: 056d c4bc dfec c9bd 1833 56bd 9c9a 46bc
00000020: 7234 e6bd 9dbf db3d c0ab 113b d351 44bd
00000030: 5914 473d d449 43bc aa5a 1c3d 2d6f 19be
00000040: c0d1 90be 9709 85be 2b42 d0bc 6eae f3bc
00000050: 130b 2bbc 2665 20bd 54cd 8fbb fa4e cebb
00000060: ad4d a13b 3fa2 b8bc e989 af3c 31bc 67be
00000070: 3ecb 17be 8153 7ebe ae9e dabd 4656 7ebd
00000080: 0e26 03be fcda 30be 1be9 0fbd f512 1cbe
00000090: a7f9 a2bd 7844 aa3d 55c1 b9bd 9d14 0cbe
000000a0: 116d 243b 549b ddbd 8368 dfbd ccc1 d2bd
000000b0: 5576 28be fa33 9bbd 5775 413c 97fa 37bd
000000c0: 6a6a e0bd 0704 b9bd cbfb 03be b142 5b3e
000000d0: 4a60 1a3d 0a68 183d cc2b 9abe 97f6 30be
000000e0: 720a 75be 55cb 65be cb50 5dbe 22c0 a4be
000000f0: 1854 893d b926 2b3d 44e2 113c 0810 82be
00000100: e0fa 15be 6381 38be 7bc4 87bd 7624 83bd
00000110: 42ea fbbd ad59 0abe a387 25be 9d6b 9fbd
00000120: f822 8ebc 2e33 77bc 96e4 3b3b 1ffa 2bbd
00000130: c480 12bc 7fb3 58bd 1416 b6bd 56b4 063c
00000140: 80fc 3a3b b129 983c b24f b33c 783e 31bd
00000150: 1216 ffbc d26f 13bd 0517 b4bd a0aa 783b
00000160: 7ab1 d33c 81e1 6b3d 8ff9 15be fa11 c93b
00000170: a212 fcbc 852d b0bd 52db 3a3d 16a2 babc
00000180: 06bc 86be d1db e9bd ca22 09be 47e2 90bc
00000190: 03bb 13bd 05b6 83bd b61c 2bbd f1f0 cbbc
000001a0: 3c31 27bd c9f7 353c 1b93 79bc 9fee 543d
000001b0: 7f59 e3bd d064 2cbe 7930 14be 193e fd3c
000001c0: 6ff0 203d f0f1 003d 573f c43d 250c 553d
000001d0: a8c8 a73c adc7 aabb 59dc 1fbb a099 aabc
000001e0: cdd6 c9bc f3c3 05bb 2e2b c2bb 1002 1bbd
000001f0: 0e74 70bc fd03 78bb 98c4 16bd 56ba 773c
00000200: 47a9 efbc bfab b33c 3c14 e73c c4b3 313d
00000210: 19ce 8bbd 1b1d 06be d704 10be caf0 ea3b
00000220: 2e3e 4cbc 4087 32bc 6d96 44bd acce f8bb
00000230: 1f7c 0fbd 41f3 043a 1c81 99bc 71fa 31bc
00000240: 94aa bb3c 314a 4d3e 0ef2 1c3e 6a6c ecbc
00000250: 551f a8bd 242b 823d 5d77 01be 6246 5ebc
00000260: 5b42 4b3d c758 5bbe 51bc 27be dcc3 29be
00000270: 7df1 cc3d 7a01 d5bc 1227 7abe 367f 6cbd
00000280: aa27 30be d82a acbe 537f 543d 7076 31bd
00000290: 964e c1bc 9663 40be 750c fd3c b9cb 873d
000002a0: 8cb5 bfbe 50dd 83bc 4c62 b33a 9351 68bd
000002b0: f958 bc3c 5fa6 d4bd 036c 13bd 1267 b1bd
000002c0: 37a2 87bd 8430 87be 90fc a9be e7b6 cebe
000002d0: b1bc 7bbd ab7b 533c 3145 263e 880d c4bb
000002e0: 6d51 debc 1cd5 6d3d 72b1 88bc 0213 e9bd
000002f0: 625f 5ebe 125a a3bd 47e0 003e e446 e03d
00000300: 15ec a8be 2cdb edbd 4691 97bd 2822 8bbe
00000310: 5582 a03d 7416 d73d c1fb 2bbd bc1e ee3d
00000320: 9ead 013e b1a1 30be 6e23 33bd c733 cbbb
00000330: 1285 06be 8969 4dbd aef4 a2ba 124b cfbd
00000340: 657c 3bbe 921a a1be d9a6 63bd 8306 5c3d
00000350: 79d8 f5bd 115e d9bd 5485 1cbe aa43 65be
00000360: e1ef 8ebe 316b cfbe ea6e c7be 1fd0 c6bd
00000370: 3cfe 133d e406 13bc 6fe9 b2be 2e00 81be
00000380: 6fb1 a1be 38ed c2bd 2d0b 90bd 4a52 e8bd
00000390: 101b a73c 9f57 703c c85b edbd c7e1 743d
000003a0: b15d f33d 3e2f 103d cf96 5d3e 5955 6dbc
000003b0: 2c49 c4bd 6346 cd3b 62c6 0b3d fcf5 113d
000003c0: f677 de3d d50d 02bd 02a7 a33c 6351 e0bc
000003d0: c662 313c 93e6 523d 212b a7be 9a05 e03c
000003e0: ef75 b4bd 6ca2 adbe 9079 a33d e2e9 37bd
000003f0: 93e9 d1bc 62a1 25bd 773e 4b3e 7197 2cbd

features.module.4.bias f4 [32]
0.02075731 0.04009171 -0.07303987 -0.05571804 -0.07666886 0.037292667 0.05991544 -0.07675707
0.020768384 0.016201885 -0.0428715 0.017260144 0.06160084 0.07836019 0.03454692 -0.015841268
-0.04545574 -0.03042729 0.0006555585 -0.005867193 0.058294028 -0.07219622 0.0071305498 -0.025408959
0.0066617243 0.07682406 0.0023371927 -0.013855954 -0.027077025 -0.07972274 -0.07238033 0.034809165
00000000: 3c0b aa3c 3437 243d ed95 95bd 9938 64bd
00000010: 9004 9dbd 32c0 183d e469 753d d032 9dbd
00000020: 7522 aa3c d1b9 843c 079a 2fbd 2565 8d3c
00000030: 2a51 7c3d 4f7b a03d 1281 0d3d 8cc5 81bc
00000040: cc2f 3abd a742 f9bc c9d9 2b3a 9541 c0bb
00000050: b8c5 6e3d 9ddb 93bd 63a7 e93b 7326 d0bc
00000060: 984a da3b ef55 9d3d 962b 193b 1504 63bc
00000070: a3d0 ddbc ad45 a3bd 233c 94bd 0e94 0e3d

features.module.5.weight f4 [32]
0.52327114 0.679384 0.45413655 0.66832936 0.83297324 1.4905334 0.5779631 0.76873136
0.47567686 0.7346578 0.49457166 1.1044697 0.9064078 0.53627944 0.3832494 1.02159
0.7099625 1.1733974 1.2260909 0.9217452 0.83252096 0.9098867 0.5753776 0.68895
0.67866874 0.7169299 0.60646087 0.71799165 1.0965036 0.7787067 0.47464007 0.7288519
00000000: 19f5 053f 1cec 2d3f 9684 e83e a217 2b3f
00000010: bc3d 553f ccc9 be3f 64f5 133f 94cb 443f
00000020: eb8b f33e 8912 3c3f 7f38 fd3e 435f 8d3f
00000030: 570a 683f 9c49 093f 4439 c43e 76c3 823f
00000040: 1ac0 353f e331 963f 8cf0 9c3f 7ef7 6b3f
00000050: 1820 553f 56ee 683f f24b 133f 075f 303f
00000060: 3cbd 2d3f b888 373f 0541 1b3f 4dce 373f
00000070: 3b5a 8c3f 5359 473f 0604 f33e 0a96 3a3f

features.module.5.bias f4 [32]
-0.13274582 -0.92523843 -0.357513 -0.7557807 -0.67708564 -3.0866277 -0.77385914 -1.51145
-0.34448713 -1.2530277 -0.55661225 -2.5702422 -0.8103088 -0.56303465 -0.3505521 -1.9397542
-0.7763033 -1.0631704 -2.8090687 -0.550518 -0.64381963 -0.6390238 -0.42852673 -0.9217139
-0.7370685 -1.1348196 -0.9683858 -1.0124665 -0.9195797 -1.3199841 -0.17908679 -1.2116783
00000000: 85ee 07be 6ddc 6cbf f20b b7be d87a 41bf
00000010: 7c55 2dbf 4f8b 45c0 a21b 46bf 3277 c1bf
00000020: 9e60 b0be 3663 a0bf 247e 0ebf d97e 24c0
00000030: 6670 4fbf 0a23 10bf 917b b3be de49 f8bf
00000040: d0bb 46bf f815 88bf c8c7 33c0 bfee 0cbf
00000050: 5dd1 24bf 1097 23bf db67 dbbe 71f5 6bbf
00000060: 85b0 3cbf c541 91bf 22e8 77bf 8198 81bf
00000070: 9369 6bbf 3df5 a8bf 8762 37be 4618 9bbf

features.module.5.running_mean f4 [32]
-0.76802796 -1.6293036 -0.7804093 -0.9695563 -0.73248243 -2.8234916 -0.14650804 -2.4267745
-0.5242515 -1.5997212 -1.2080083 -2.5368834 -0.8379698 -1.0940124 -0.41906178 -2.268914
-1.3410542 -1.0629737 -2.8189027 -0.7993636 -0.64671516 -0.921661 -0.60521907 -1.6605886
-1.2054935 -1.6777884 -1.5830545 -1.097174 -0.49386752 -1.801561 -0.034695398 -1.3952489
00000000: 7b9d 44bf 058d d0bf e7c8 47bf d734 78bf
00000010: f883 3bbf 16b4 34c0 3406 16be 4650 1bc0
00000020: 5935 06bf aac3 ccbf 04a0 9abf 4c5c 22c0
00000030: 3085 56bf 9908 8cbf 448f d6be e335 11c0
00000040: aaa7 abbf 860f 88bf e768 34c0 18a3 4cbf
00000050: 208f 25bf faf1 6bbf a3ef 1abf 2b8e d4bf
00000060: 9c4d 9abf c5c1 d6bf 88a1 cabf 3370 8cbf
00000070: 34dc fcbe 8d99 e6bf c31c 0ebd 8497 b2bf

features.module.5.running_var f4 [32]
0.53109366 0.6565478 0.707796 0.5572032 0.8246902 1.3298244 0.55553913 1.1206434
0.63837785 0.9971907 0.8004534 1.1652186 0.6429548 0.55189544 0.4051277 1.0653145
1.0143855 1.9441396 1.1826915 1.1119329 0.86439115 1.2913382 0.4809831 0.7674085
0.9162831 0.82727253 0.9043141 0.70582914 1.2534707 0.74862087 0.5242738 0.6892936
00000000: c1f5 073f 8413 283f 1e32 353f dea4 0e3f
00000010: e61e 533f b037 aa3f d037 0e3f 3e71 8f3f
00000020: bb6c 233f e447 7f3f 84ea 4c3f e225 953f
00000030: b098 243f 0549 0d3f e66c cf3e 3a5c 883f
00000040: 62d7 813f 91d9 f83f 6f62 973f d153 8e3f
00000050: bd48 5d3f 924a a53f 6b43 f63e e274 443f
00000060: 8791 6a3f 22c8 533f 2181 673f 38b1 343f
00000070: ba71 a03f 9ea5 3f3f cf36 063f 8c75 303f

features.module.8.weight f4 [64, 32, 3, 3]
-0.0115175275 -0.018427763 -0.0059675323 -0.01766607 -0.02449734 -0.021399995 -0.030120686 -0.02971327
-0.021855514 -0.014551143 -0.017386874 -0.01688414 -0.04929273 -0.038794562 -0.03507825 -0.045528047
-0.0381992 -0.036393583 -0.002909496 0.0046239146 0.01356821 -0.025819262 -0.023674792 -0.021197036
-0.029400766 -0.027808385 -0.027628282 0.21212701 0.1345418 0.10183011 0.11967407 0.07709201
0.066939965 0.1639942 0.12046113 0.123155646 0.18377787 0.112090476 0.16880096 0.068093285
0.031182073 0.06610537 0.10791519 0.03479392 0.06288104 -0.019373368 -0.0018109696 -0.015560001
-0.044805534 -0.016496832 -0.024557853 -0.09699261 -0.07951757 -0.07687288 -0.06669697 -0.06633092
-0.07434953 -0.056821704 -0.06301639 -0.07484552 -0.060055528 -0.07794943 -0.115783975 0.027620979
0.022427313 0.008505324 0.044803675 0.03882643 0.025306355 0.045897633 0.037130687 0.034530103
0.008901243 0.006628599 0.005675632 0.011728681 0.010801112 -0.0073509766 0.01181434 0.009209341
-0.0075454055 -0.023496863 -0.0028964495 0.012129036 -0.023646278 -0.02691705 -0.008166967 -0.014674626
-0.017358715 -0.0017717099 -0.003990475 -0.004346475 -0.005133885 -0.016453644 -0.007120895 -0.005161867
-0.025801586 -0.016272116 -0.0204752 -0.196164 -0.1671747 -0.156035 -0.10071956 -0.09075359
-0.08956965 -0.06812958 -0.07001466 -0.08070017 -0.053966887 -0.042869937 -0.04939689 -0.05013922
-0.043147612 -0.0489623 -0.037900116 -0.031578444 -0.05840749 0.07409282 0.06381726 0.09020205
0.05906654 0.049241945 0.07678991 0.06623539 0.06621919 0.089392684 -0.0036547815 -0.009933855
-0.021578984 -0.024584565 -0.03185693 -0.029624257 -0.046456736 -0.05112391 -0.043856427 0.036891863
-0.00028933937 0.018105334 0.037661903 0.0050172308 0.01872732 0.04332986 0.015993327 0.031848323
-0.03711473 -0.031972118 -0.025230238 -0.013457423 -0.016336614 0.0069846883 0.054185744 0.038594697
0.061926983 0.081009105 0.027993472 0.11164084 0.08711634 0.01902201 0.12054898 0.20775594
0.12548465 0.24270748 -0.11291289 -0.08996544 -0.07970474 -0.1377947 -0.1006319 -0.099254966
-0.15359661 -0.1239123 -0.119802706 0.041477088 0.029906595 0.074424155 0.015724195 0.020399343
0.0526643 0.037088335 0.04706283 0.08392643 -0.023838835 -0.021970384 -0.04385602 -0.008967825
-0.009461336 -0.03259297 0.005788261 -0.0027049135 -0.005823283 -0.03536285 -0.028898302 -0.065874256
-0.022372942 -0.014873528 -0.03882536 -0.034217924 -0.033853922 -0.052019835 -0.035389494 -0.028577711
-0.02653658 -0.012189521 -0.002493096 -0.013414524 -0.026477734 -0.020018479 -0.025988532 -0.020851469
-0.030542383 -0.032034326 -0.0061036483 -0.0064310413 -0.032484714 -0.008872572 -0.023440555 -0.060139216
-0.03287591 -0.03854339 -0.032308627 -0.011292568 -0.01369093 -0.02346423 -0.00061286526 -0.009847479
-0.011019782 0.023989633 0.016015345 0.013207609 -0.00039563645 0.010225041 0.010896976 0.0046083424
0.008516891 0.01346795 0.0055122315 0.0110219335 -0.001475903 0.0075780246 -0.004671264 -0.0017781132
0.023554599 0.009002009 0.0073361206 0.035993874 0.046052866 0.051338248 -0.0021376505 0.018995192
0.014703369 -0.031480104 -0.01439266 -0.02502949 0.17942439 0.1303544 0.19169123 0.06591501
00000000: 03b4 3cbc d2f5 96bc 4a8b c3bb 6fb8 90bc
00000010: a5ae c8bc 0b4f afbc a8bf f6bc 3e69 f3bc
00000020: 560a b3bc eb67 6ebc eb6e 8ebc 9c50 8abc
00000030: 2ce7 49bd 0ce7 1ebd 36ae 0fbd 9e7b 3abd
00000040: c476 1cbd 7011 15bd 3ead 3ebb 3584 973b
00000050: 334d 5e3c eb82 d3bc a3f1 c1bc 68a5 adbc
00000060: e0d9 f0bc 69ce e3bc b554 e2bc d337 593e
00000070: 53c5 093e 4e8c d03d ae17 f53d 6ae2 9d3d
00000080: d217 893d 18ee 273e 53b4 f63d 0739 fc3d
00000090: 4430 3c3e b18f e53d 29da 2c3e 7e74 8b3d
000000a0: 8c71 ff3c 4162 873d a402 dd3d 1284 0e3d
000000b0: c6c7 803d e6b4 9ebc 0e5e edba 60ef 7ebc
000000c0: 0286 37bd 5d24 87bc 8d2d c9bc 10a4 c6bd
000000d0: 1cda a2bd 876f 9dbd 6c98 88bd 81d8 87bd
000000e0: 9144 98bd e0bd 68bd bd0e 81bd 9c48 99bd
000000f0: c9fc 75bd f3a3 9fbd 2620 edbd 6445 e23c
00000100: 7cb9 b73c ea59 0b3c 0f84 373d 7608 1f3d
00000110: 464f cf3c 28ff 3b3d 5916 183d 706f 0d3d
00000120: 85d6 113c b834 d93b a7fa b93b a729 403c
00000130: 26f7 303c 76e0 f0bb ef90 413c c7e2 163c
00000140: 733f f7bb 7e7c c0bc 5cd2 3dbb ddb8 463c
00000150: d7b5 c1bc 2581 dcbc bece 05bc d86d 70bc
00000160: dd33 8ebc b838 e8ba 88c2 82bb e06c 8ebb
00000170: 263a a8bb cbc9 86bc 6656 e9bb e124 a9bb
00000180: d95d d3bc 1a4d 85bc 9bbb a7bc 37df 48be
00000190: d82f 2bbe a4c7 1fbe 0f46 cebd 05dd b9bd
000001a0: 4b70 b7bd 8587 8bbd d963 8fbd 2146 a5bd
000001b0: 620c 5dbd 6398 2fbd 6554 4abd c85e 4dbd
000001c0: 8dbb 30bd b18c 48bd 273d 1bbd 6658 01bd
000001d0: b13c 6fbd fabd 973d a0b2 823d dabb b83d
000001e0: c2ef 713d ecb1 493d 0744 9d3d 6ca6 873d
000001f0: ed9d 873d 8313 b73d 0f85 6fbb 9cc1 22bc
00000200: 69c6 b0bc 9265 c9bc 6a7c 02bd 92ae f2bc
00000210: 6b49 3ebd 4e67 51bd cca2 33bd ec1b 173d
00000220: 79b2 97b9 a351 943c 5e43 1a3d 9567 a43b
00000230: 096a 993c a77a 313d 7004 833c 6373 023d
00000240: 9d05 18bd 32f5 02bd a5af cebc 867c 5cbc
00000250: 5dd4 85bc d0df e43b dff1 5d3d 7915 1e3d
00000260: 26a7 7d3d 1ae8 a53d 9152 e53c f4a3 e43d
00000270: 0d6a b23d 0cd4 9b3c 62e2 f63d f9bd 543e
00000280: 0c7f 003e 4f88 783e e03e e7bd cd3f b8bd
00000290: 3d3c a3bd 0e1a 0dbe 1918 cebd 3046 cbbd
000002a0: 6e48 1dbe bbc5 fdbd 1f5b f5bd e1e3 293d
000002b0: adfe f43c b16b 983d 07d0 803c 861c a73c
000002c0: 85b6 573d f0e9 173d f4c4 403d 9fe1 ab3d
000002d0: a949 c3bc 3cfb b3bc 5fa2 33bd c9ed 12bc
000002e0: b803 1bbc 3580 05bd 74ab bd3b eb44 31bb
000002f0: 3dd1 bebb a3d8 10bd 22bc ecbc 15e9 86bd
00000300: 7647 b7bc 19b0 73bc 5707 1fbd 1828 0cbd
00000310: 69aa 0abd c012 55bd 93f4 10bd ce1b eabc
00000320: 3e63 d9bc 8fb6 47bc 3663 23bb 97c8 5bbc
00000330: d5e7 d8bc cbfd a3bc e7e5 d4bc b3d0 aabc
00000340: 0534 fabc 6d36 03bd 1d01 c8bb 7cbb d2bb
00000350: b10e 05bd 445e 11bc 6806 c0bc 8a54 76bd
00000360: e4a8 06bd acdf 1dbd 0d56 04bd 7704 39bc
00000370: ec4f 60bc 0f38 c0bc b1a8 20ba 5257 21bc
00000380: 518c 34bc e885 c43c 9d32 833c ba64 583c
00000390: 6d6d cfb9 ee86 273c 3b89 323c 9401 973b
000003a0: 6e8a 0b3c ada8 5c3c f39f b43b 5795 343c
000003b0: 1673 c1ba 1451 f83b 6711 99bb 940f e9ba
000003c0: 93f5 c03c 2a7d 133c d763 f03b 506e 133d
000003d0: eea1 3c3d 0e48 523d d317 0cbb ce9b 9b3c
000003e0: 66e6 703c 48f1 00bd 31cf 6bbc a50a cdbc
000003f0: 07bb 373e a07b 053e b54a 443e 73fe 863d

features.module.8.bias f4 [64]
-0.025905276 0.010399037 0.010948918 0.05562832 0.051683445 -0.046646226 0.028070599 -0.045287702
-0.02762372 0.022294266 -0.038649086 0.048455145 0.021392263 0.004829409 0.0316506 -0.048135716
0.009321785 0.02105553 -0.025989128 -0.017565684 0.022920702 0.047865063 -0.02203303 0.034118544
0.031678684 -0.03306969 -0.044916186 -0.0066574304 0.035062935 -0.04711012 -0.039263025 0.041178968
-0.032402307 -0.040346224 -0.0024054938 0.05529701 0.037271105 0.02915334 0.007228532 -0.028309884
-0.04402583 0.030020121 0.016749721 0.014704502 -0.02088146 -0.055128217 0.0077297622 -0.009729961
-0.0042757387 0.0053639333 -0.033027884 -0.035196565 -0.016389197 0.02193047 -0.035375193 0.052668236
-0.055607308 -0.03506826 0.016194314 -0.054964762 -0.031366903 0.029159026 -0.038295057 0.018096425
00000000: 4d37 d4bc b960 2a3c 1763 333c 85da 633d
00000010: 05b2 533d 1d10 3fbd 50f4 e53c 997f 39bd
00000020: 244b e2bc 77a2 b63c 814e 1ebd e778 463d
00000030: d43e af3c 0540 9e3b 0fa4 013d f529 45bd
00000040: 66ba 183c a67c ac3c 27e7 d4bc e9e5 8fbc
00000050: 32c4 bb3c 280e 443d 9d7e b4bc e3bf 0b3d
00000060: 82c1 013d 1574 07bd 09fa 37bd 9326 dabb
00000070: 279e 0f3d 8bf6 40bd 44d2 20bd 47ab 283d
00000080: 48b8 04bd 1542 25bd 7da5 1dbb 1e7f 623d
00000090: 96a9 183d fcd2 ee3c 52dd ec3b 21ea e7bc
000000a0: 6e54 34bd c2ec f53c b636 893c 27eb 703c
000000b0: 980f abbc 20ce 61bd f249 fd3b 6a6a 1fbc
000000c0: 7f1b 8cbb efc3 af3b 3f48 07bd 462a 10bd
000000d0: a342 86bc 87a7 b33c 94e5 10bd a6ba 573d
000000e0: 7dc4 63bd bca3 0fbd f0a9 843c bb22 61bd
000000f0: 957a 00bd e9de ee3c 47db 1cbd f43e 943c

features.module.9.weight f4 [64]
6.837632 5.6945457 5.5651183 5.934277 7.00241 5.8948584 6.089735 5.2501106
4.68607 5.343881 7.3546886 5.422413 4.197708 5.6086197 5.688529 6.42713
4.9043317 4.8275166 6.43279 6.447624 4.877984 5.6752553 5.748433 5.400782
5.977707 5.096692 5.3079715 4.0024924 4.6686106 5.5932403 5.1207104 5.388688
5.7183447 5.1492906 6.229182 5.048904 4.6480646 8.2137 5.2114615 5.619335
5.1805387 4.674323 5.164201 4.9076614 5.1678395 7.8574767 5.4621964 4.817935
5.6648884 5.6114607 6.244505 5.8323107 4.467022 5.0646896 5.7352033 6.536094
4.4297366 4.965046 5.20498 4.1327367 5.0020213 4.6915617 4.8274803 5.7283106
00000000: e2cd da40 b839 b640 7315 b240 99e5 bd40
00000010: be13 e040 aea2 bc40 1cdf c240 e800 a840
00000020: 49f4 9540 1301 ab40 9c59 eb40 6884 ad40
00000030: a053 8640 d079 b340 6e08 b640 0dab cd40
00000040: 49f0 9c40 047b 9a40 6ad9 cd40 f052 ce40
00000050: 7218 9c40 b19b b540 2af3 b740 35d3 ac40
00000060: 6049 bf40 1a18 a340 e7da a940 6b14 8040
00000070: 4265 9540 d3fb b240 dcdc a340 2270 ac40
00000080: aefc b640 fdc6 a440 7555 c740 9f90 a140
00000090: f2bc 9440 516b 0341 4bc4 a640 98d1 b340
000000a0: f9c6 a540 0e94 9540 2241 a540 900b 9d40
000000b0: f15e a540 7370 fb40 50ca ae40 862c 9a40
000000c0: c446 b540 1691 b340 fcd2 c740 4aa2 ba40
000000d0: d8f1 8e40 f011 a240 c986 b740 af27 d140
000000e0: 67c0 8d40 a8e1 9e40 328f a640 613f 8440
000000f0: 8f10 a040 4621 9640 b87a 9a40 524e b740

features.module.9.bias f4 [64]
1.4620619 1.2388172 1.3185099 2.196656 1.5720475 1.0901845 1.9543836 3.0644872
1.2867907 1.6458523 1.4100918 1.1958388 0.99240875 0.9505202 1.2258173 1.3361719
1.0911156 0.9750291 1.4402804 1.313467 1.0306865 3.398522 1.430377 1.2225839
2.065959 1.1213857 1.3174274 0.7256471 1.0004905 1.3466132 1.586896 1.1960264
1.1061954 1.8402886 2.3680286 1.9624773 1.4215107 1.7644222 1.2950798 1.1894
1.5503346 1.1523987 1.7045753 2.8658895 1.0235591 1.9493339 1.0130155 0.9913915
1.1765727 1.2206985 1.0901966 0.94897145 1.3617159 1.3458254 1.5384573 2.1986563
0.77556807 1.0770819 1.1197516 0.9563848 1.0090789 1.0142375 1.3109349 3.3485138
00000000: d824 bb3f 9091 9e3f efc4 a83f 0396 0c40
00000010: da38 c93f 2a8b 8b3f 3e29 fa3f 8f20 4440
00000020: 8fb5 a43f 4aab d23f e37d b43f 3f11 993f
00000030: 800e 7e3f 4b55 733f 95e7 9c3f ae07 ab3f
00000040: ada9 8b3f 829b 793f 1c5b b83f b01f a83f
00000050: 89ed 833f 6281 5940 9816 b73f a17d 9c3f
00000060: ac38 0440 9189 8f3f 76a1 a83f 02c4 393f
00000070: 1310 803f d25d ac3f 681f cb3f 6517 993f
00000080: d097 8d3f 948e eb3f c88d 1740 7532 fb3f
00000090: 10f4 b53f 96d8 e13f 2dc5 a53f 423e 983f
000000a0: 5d71 c63f cd81 933f 862f da3f bc6a 3740
000000b0: fc03 833f c683 f93f 7eaa 813f d5cb 7d3f
000000c0: ef99 963f d93f 9c3f 908b 8b3f cbef 723f
000000d0: b54c ae3f 0244 ac3f 2bec c43f c9b6 0c40
000000e0: a18b 463f d2dd 893f 0554 8f3f a2d5 743f
000000f0: 7f29 813f 89d2 813f b7cc a73f 0d4e 5640

features.module.9.running_mean f4 [64]
-0.031477343 0.0394583 0.014073968 -0.0029062126 0.056178473 -0.05320427 -0.055615176 0.04862122
-0.0123896375 0.0313677 -0.027201207 -0.023329534 0.027428392 0.008966978 0.07380861 -0.011712616
0.052365135 0.04840234 -0.005375373 0.020313801 0.021799732 0.16665691 -0.11936942 -0.024968553
0.024218928 -0.027893329 -0.01278373 0.0010905009 0.042517528 -0.037599903 -0.011619792 -0.028648147
-0.022209134 -0.06976568 -0.06889616 -0.0092983665 0.004904848 0.012340544 0.052390732 -5.2080868e-05
-0.10806957 0.061280917 -0.04493658 0.12545897 -0.059289012 -0.062767886 0.023281947 -0.014675166
0.025391296 0.03499484 -0.03804194 -0.03441505 0.019386332 0.016364735 -0.10141559 0.0358304
-0.05008796 -0.11192537 0.013642864 -0.030765425 -0.047356755 0.056340694 -0.025543546 0.13568932
00000000: 63ee 00bd 079f 213d 8096 663c 2876 3ebb
00000010: 661b 663d b8ec 59bd bdcc 63bd 0b27 473d
00000020: e8fd 4abc 6b7b 003d 11d5 debc 941d bfbc
00000030: 82b1 e03c 3bea 123c f828 973d 46e6 3fbc
00000040: d37c 563d 8841 463d e623 b0bb 2169 a63c
00000050: 5a95 b23c 1ca8 2a3e f477 f4bd da8a ccbc
00000060: c666 c63c 8d80 e4bc da72 51bc 23ef 8e3a
00000070: dc26 2e3d 5b02 1abd f160 3ebc 85af eabc
00000080: eeef b5bc 4fe1 8ebd 6e19 8dbd 2d58 18bc
00000090: d9b8 a03b fe2f 4a3c aa97 563d 6871 5ab8
000000a0: 9453 ddbd b301 7b3d 6b0f 38bd 5178 003e
000000b0: 09d9 72bd 738c 80bd c8b9 be3c 1c70 70bc
000000c0: 6801 d03c c056 0f3d ded1 1bbd ccf6 0cbd
000000d0: 16d0 9e3c 560f 863c fab2 cfbd e6c2 123d
000000e0: 0829 4dbd 2139 e5bd 5286 5f3c c607 fcbc
000000f0: 28f9 41bd 80c5 663d b340 d1bc 24f2 0a3e

features.module.9.running_var f4 [64]
0.013969061 0.006450792 0.011918392 0.018978443 0.014194993 0.005742889 0.017984858 0.011410449
0.00548174 0.013705797 0.0075075696 0.010147446 0.0043047955 0.004632409 0.010160398 0.017186232
0.009435508 0.0067939013 0.010130088 0.016613577 0.008806073 0.01349254 0.012152549 0.005767273
0.010052851 0.007120047 0.012143757 0.0042627803 0.0074221566 0.0065033487 0.0131660225 0.009690866
0.0045454632 0.017935509 0.0202851 0.014286253 0.012204727 0.009731307 0.011929304 0.013403379
0.013955708 0.011256858 0.014176447 0.01285646 0.007816436 0.018743105 0.005380936 0.008432584
0.008454514 0.013212677 0.005834177 0.0073763765 0.010275496 0.009983585 0.010585832 0.024112329
0.004492332 0.009647953 0.008027921 0.008444755 0.0065993704 0.0106879035 0.0066763926 0.014925665
00000000: 7dde 643c 2a61 d33b 5c45 433c ae78 9b3c
00000010: 1e92 683c d82e bc3b fb54 933c e4f2 3a3c
00000020: 2ba0 b33b 478e 603c 0f02 f63b 7941 263c
00000030: 3e0f 8d3b 77cb 973b cc77 263c 24ca 8c3c
00000040: 6497 1a3c 609f de3b abf8 253c 3219 883c
00000050: 5947 103c d10f 5d3c 7c1b 473c 64fb bc3b
00000060: b7b4 243c 494f e93b 9cf6 463c cbae 8b3b
00000070: 9035 f33b 0b1a d53b 4db6 573c 70c6 1e3c
00000080: 1cf2 943b 7ded 923c f02c a63c e310 6a3c
00000090: 56f6 473c 0f70 1f3c 2173 433c d999 5b3c
000000a0: 7ba6 643c af6e 383c 5444 683c e7a3 523c
000000b0: 8210 003c 248b 993c 9052 b03b d228 0a3c
000000c0: cd84 0a3c fc79 583c a02c bf3b 88b5 f13b
000000d0: 8e5a 283c 3192 233c 3370 2d3c 3887 c53c
000000e0: 6a34 933b 7312 1e3c 8b87 033c df5b 0a3c
000000f0: 883f d83b 511c 2f3c a4c5 da3b c78a 743c

top_layer.weight f4 [10, 64]
0.073961005 -0.19565158 0.11483471 -0.18915984 0.0117838485 0.081024796 0.16950515 0.004896701
-0.05180108 -0.18540643 -0.061057292 0.41099954 -0.05146129 0.006269686 -0.12491372 -0.11030531
-0.14206944 -0.11982567 -0.13052417 -0.117330894 0.12867692 0.03188919 0.42297697 0.11148778
-0.1833082 0.008762318 -0.06786802 -0.008461485 -0.029339764 -0.059293553 -0.17610297 0.3784639
0.012292944 -0.16808267 -0.14051178 -0.11391928 -0.011172177 -0.11710157 -0.20256124 -0.0424903
0.07545092 -0.05401882 0.040772077 0.007133238 0.30948675 -0.03810312 -0.060516313 0.15931913
-0.1637679 -0.05422695 -0.03832651 0.04356662 -0.16420865 0.13080886 0.37911487 -0.20838858
-0.050138693 0.38002813 0.14535937 -0.021616314 0.20128065 -0.05979247 -0.05259855 0.03787112
0.45402136 -0.013577775 -0.05797416 -0.0250119 0.55726564 -0.11867908 -0.030139465 -0.11152938
-0.027724197 -0.021758802 0.0029041034 -0.109731466 0.26431558 -0.06427129 0.057051595 -0.039586093
-0.016566396 0.021351103 0.028337935 -0.064729564 0.0957135 -0.11800964 -0.11617042 -0.05984776
0.010608359 -0.03076922 -0.052264035 0.20658268 0.39224747 0.03739146 -0.00012843107 -0.14140113
-0.10480151 0.024231367 -0.046631 -0.049263142 -0.020548655 -0.10067992 0.009242809 -0.04228374
-0.030122729 -0.027278678 -0.07321515 -0.112458244 -0.09943231 0.56668466 -0.0828771 0.12699647
-0.0004517333 -0.057774942 -0.09862763 0.017324822 0.00941445 -0.03679928 -0.10740482 0.20031074
0.05163703 -0.100921944 -0.0134891765 -0.050953243 -0.07020289 -0.03122797 -0.017270185 -0.121933915
-0.21013534 -0.10269019 -0.019628111 0.49224037 -0.16158032 0.008089583 -0.0040457253 -0.18921195
-0.036740396 -0.015516156 -0.08936101 0.055753455 -0.07101599 -0.06790926 -0.13072129 -0.057095375
-0.12465586 -0.10682469 -0.06763536 -0.006870954 -0.010797737 -0.2645518 0.039390262 -0.012930819
0.33964783 -0.07522011 -0.012338099 -0.105851695 -0.08400094 -0.025553158 -0.058389746 0.043069117
-0.06770499 0.42022035 0.51237994 0.41795492 -0.017545912 0.041298322 -0.08367596 -0.028802302
0.006527396 -0.051594183 0.01826841 -0.18273139 0.01924614 -0.15300684 -0.10528969 0.0033075393
-0.10009576 -0.0096194055 -0.02292883 -0.103014514 -0.09069035 0.024596822 0.13272075 0.3892314
0.023242138 0.04428524 -0.018107286 0.020785088 0.011903625 0.0049197604 -0.049126677 -0.22690554
-0.10148497 -0.02662113 -0.12389683 -0.026535304 -0.11296504 -0.11096596 -0.086922236 0.019528644
0.1768894 -0.011585107 -0.075273216 -0.013978319 -0.045447364 -0.06732198 0.27589262 0.0719419
-0.022880185 0.29157495 0.48814967 -0.036883578 -0.1212459 0.013048358 -0.087157905 -0.06149148
-0.05649151 0.27249378 -0.05117072 0.2125694 -0.034142416 0.42826673 -0.02848471 -0.083330005
-0.05196598 -0.03719819 -0.04765235 -0.022445502 -0.046758395 -0.07245782 0.022659097 -0.05516254
-0.04848983 -0.06419197 -0.069411814 0.064956576 0.012474033 -0.11934139 0.17124212 -0.12905115
0.03250601 -0.04478583 -0.078153 0.4577142 -0.01305974 -0.085853145 -0.07164905 -0.059765037
0.33336353 -0.043544736 -0.10326506 -0.056709282 0.20847465 -0.025303394 0.24533777 0.023232535
00000000: de78 973d e358 48be 762e eb3d 1eb3 41be
00000010: 0b11 413c 54f0 a53d c292 2d3e 8174 a03b
00000020: 5f2d 54bd 2fdb 3dbe 3617 7abd 886e d23e
00000030: 13c9 52bd f071 cd3b c4d2 ffbd c0e7 e1bd
00000040: a77a 11be 2967 f5bd 21a8 05be 2e4b f0bd
00000050: e2c3 033e 3d9e 023d 7090 d83e b553 e43d
00000060: 25b5 3bbe d38f 0f3c 63fe 8abd 0aa2 0abc
00000070: f259 f0bc ccdd 72bd 5654 34be 05c6 c13e
00000080: 5868 493c dd1d 2cbe 52e2 0fbe 834e e9bd
00000090: 820b 37bc f3d2 efbd 376c 4fbe 4f0a 2ebd
000000a0: 0386 9a3d d742 5dbd 9f00 273d f0bd e93b
000000b0: 0c75 9e3e 0412 1cbd f4df 77bd 8e24 233e
000000c0: c6b2 27be 141d 5ebd 42fc 1cbd ea72 323d
000000d0: 5026 28be c2f2 053e 581b c23e d163 55be
000000e0: 3b5e 4dbd 0c93 c23e 16d9 143e b214 b1bc
000000f0: 841c 4e3e f3e8 74bd 9471 57bd bf1e 1b3d
00000100: 7d75 e83e 5175 5ebc 5076 6dbd c2e5 ccbc
00000110: f6a8 0e3f 040e f3bd 0ae7 f6bc 8469 e4bd
00000120: db1d e3bc 843f b2bc c552 3e3b e4ba e0bd
00000130: 5f54 873e aba0 83bd efae 693d 0725 22bd
00000140: 40b6 87bc 82e8 ae3c f524 e83c ef90 84bd
00000150: 7105 c43d 0aaf f1bd c2ea edbd ed22 75bd
00000160: afce 2d3c bb0f fcbc d012 56bd 698a 533e
00000170: a9d4 c83e ca27 193d 74ab 06b9 75cb 10be
00000180: 2da2 d6bd dc80 c63c 2600 3fbd 26c8 49bd
00000190: a755 a8bc 4631 cebd 276f 173c b731 2dbd
000001a0: f1c3 f6bc 8977 dfbc d3f1 95bd 8250 e6bd
000001b0: 2ba3 cbbd 3f12 113f 78bb a9bd 5d0b 023e
000001c0: 9ed6 ecb9 6ba5 6cbd 48fd c9bd c9ec 8d3c
000001d0: 113f 1a3c d8ba 16bd 0ff7 dbbd 421e 4d3e
000001e0: 5a81 533d 2ab0 cebd b501 5dbc 59b4 50bd
000001f0: 88c6 8fbd cdd1 ffbc 347a 8dbc 7db8 f9bd
00000200: b82d 57be 3c4f d2bd 22cb a0bc ee06 fc3e
00000210: 5075 25be 2c8a 043c 0192 84bb c7c0 41be
00000220: 197d 16bd 7a37 7ebc e802 b7bd bc5d 643d
00000230: d570 91bd 0314 8bbd cddb 05be d7dc 69bd
00000240: 924b ffbd e7c6 dabd 6884 8abd bd25 e1bb
00000250: fee8 30bc 5573 87be af57 213d c9db 53bc
00000260: 52e6 ad3e 000d 9abd bd25 4abc c6c8 d8bd
00000270: af08 acbd db54 d1bc 162a 6fbd 3e69 303d
00000280: eaa8 8abd 1f27 d73e 552b 033f 30fe d53e
00000290: 72bc 8fbc 6e28 293d 4d5e abbd cef2 ebbc
000002a0: c4e3 d53b 6c54 53bd a2a7 953c f01d 3bbe
000002b0: 15aa 9d3c d3ad 1cbe 1fa2 d7bd 4dc3 583b
000002c0: 01ff ccbd b69a 1dbc 3ed5 bbbc 46f9 d2bd
000002d0: ddbb b9bd 467f c93c f3e7 073e 5749 c73e
000002e0: 4c66 be3c 7164 353d bb55 94bc 7d45 aa3c
000002f0: 6c07 433c f135 a13b 0e39 49bd ed59 68be
00000300: 5ad7 cfbd 8e14 dabc 9fbd fdbd 9160 d9bc
00000310: 375a e7bd 1f42 e3bd 4904 b2bd 89fa 9f3c
00000320: 7f22 353e 76cf 3dbc d828 9abd 5205 65bc
00000330: 0427 3abd 1be0 89bd cc41 8d3e 4656 933d
00000340: 3a6f bbbc 5049 953e c1ee f93e 3c13 17bd
00000350: c54f f8bd c8c8 553c d87f b2bd 7dde 7bbd
00000360: a463 67bd 4e84 8b3e 6498 51bd cbab 593e
00000370: ebd8 0bbd c745 db3e c458 e9bc eca8 aabd
00000380: 48da 54bd 215d 18bd 1c2f 43bd a1df b7bc
00000390: bb85 3fbd c464 94bd 929f b93c 1ef2 61bd
000003a0: 469d 46bd 1477 83bd c827 8ebd f407 853d
000003b0: e35f 4c3c 4269 f4bd 185a 2f3e fc25 04be
000003c0: 0625 053d 5971 37bd ae0e a0bd 8459 ea3e
000003d0: 85f8 55bc c6d3 afbd bdbc 92bd 2fcc 74bd
000003e0: a0ae aa3e f75b 32bd a27c d3bd fe47 68bd
000003f0: 617a 553e 1049 cfbc d339 7b3e 2852 be3c

top_layer.bias f4 [10]
-0.00023415033 -0.01784752 0.003632177 -0.0021383583 -0.0058883517 -0.00647194 0.015431598 -0.0046038167
0.02369289 -0.005572461
00000000: 4086 75b9 f634 92bc d109 6e3b b323 0cbb
00000010: 13f3 c0bb 9112 d4bb d0d4 7c3c 9ddb 96bb
00000020: 9717 c23c 3199 b6bb

momentum_buffer f4 [16, 1, 3, 3]
-0.04970106 -0.104143366 -0.0697458 -0.053624693 -0.07973331 -0.060116097 -0.005420969 -0.0072235316
-0.014639872 -0.010523163 0.0018805861 -0.017381977 -0.034116462 -0.038963716 -0.038515095 -0.0021873657
0.00854968 -0.0031870343 0.0529452 0.044723313 0.015053261 0.054023016 0.05933439 0.063993044
0.0008751638 -0.0143644875 0.015243902 0.010193768 0.016721424 0.0012178286 0.013749628 0.0053887162
-0.014053602 -0.00071632606 0.010234726 0.013648123 0.101463184 0.07043456 0.04148872 0.06269899
0.0100214705 0.0012728069 -0.040651377 -0.09121035 -0.06646524 0.09765964 0.09174598 0.05220516
0.022148265 0.04324132 0.019592531 0.023068625 0.025135161 0.014367963 0.024096992 -0.053289212
-0.11861414 0.040129073 -0.06781411 -0.13425705 0.012268788 -0.046817984 -0.11289068 0.010734789
0.0014488704 0.019346595 0.025855765 0.0063304706 0.012215695 0.033248954 -8.529425e-05 -0.007777955
0.04894615 0.01700937 0.0001356285 0.041578237 -0.0066008363 -0.04209161 -0.016593087 -0.034848552
-0.051204495 -0.068771936 -0.085106716 -0.061381586 -0.06163424 -0.050682224 -0.03698586 0.027934296
0.018014824 -0.008824457 -0.0530498 -0.03135815 -0.018786706 -0.04713191 -0.020316277 -0.03317789
-0.008383911 -0.0057708127 -0.012801583 -0.020289097 -0.07259883 -0.08268428 -0.0043116137 -0.018199421
-0.053925328 -0.005783389 0.0017066919 -0.011165261 0.01239288 -0.0078722965 -0.029569682 -0.033783637
-0.023194311 -0.024568943 -0.028563038 -0.01802341 -0.0029231831 -0.015685808 -0.008465892 -0.027730526
0.0063256444 0.020247385 -0.009701979 0.020652667 0.04962146 0.027922144 -0.0061158016 -0.0101429485
-0.023785992 -0.0053668185 -0.023355916 -0.030440994 -0.035341408 -0.047652643 -0.04910749 -0.002685194
0.011509926 0.030275863 0.00640969 0.038341746 0.038359962 0.0035186617 0.030284686 0.015874099
00000000: 5793 4bbd 1e49 d5bd e3d6 8ebd 91a5 5bbd
00000010: 384b a3bd 4c3c 76bd 62a2 b1bb 60b3 ecbb
00000020: 13dc 6fbc 5869 2cbc 007e f63a a664 8ebc
00000030: b4bd 0bbd 6b98 1fbd 01c2 1dbd e859 0fbb
00000040: f513 0c3c 90dd 50bb 11dd 583d cb2f 373d
00000050: f4a1 763c 3d47 5d3d 9e08 733d c90e 833d
00000060: 406b 653a 0759 6bbc 8fc1 793c c303 273c
00000070: 5efb 883c 8c9f 9f3a 1f46 613c d493 b03b
00000080: 1441 66bc d4c7 3bba 8daf 273c 609c 5f3c
00000090: eecb cf3d ff3f 903d 13f0 293d 5468 803d
000000a0: 1831 243c 50d4 a63a 0f82 26bd 7ecc babd
000000b0: ee1e 88bd c701 c83d 51e5 bb3d 14d5 553d
000000c0: 4770 b53c cf1d 313d 8480 a03c 6afa bc3c
000000d0: 41e8 cd3c 9b67 6b3c 0e67 c53c ca45 5abd
000000e0: f8eb f2bd 625e 243d 20e2 8abd ae7a 09be
000000f0: 0703 493c 37c4 3fbd 3b33 e7bd f8e0 2f3c
00000100: 06e8 bd3a c07c 9e3c 78cf d33c d66f cf3b
00000110: 5724 483c 0e30 083d 00e0 b2b8 37de febb
00000120: c27b 483d 3c57 8b3c 8037 0e39 f14d 2a3d
00000130: d44b d8bb 4168 2cbd 3aee 87bc 5bbd 0ebd
00000140: cebb 51bd 4dd8 8cbd 6e4c aebd 426b 7bbd
00000150: 2f74 7cbd 2a98 4fbd 7c7e 17bd 77d6 e43c
00000160: d393 933c 7594 10bc bf4a 59bd 6771 00bd
00000170: 94e6 99bc 640d 41bd 526e a6bc 8ae5 07bd
00000180: ac5c 09bc 1619 bdbb bbbd 51bc 5235 a6bc
00000190: b2ae 94bd 6056 a9bd 7048 8dbb f416 95bc
000001a0: cee0 5cbd 9582 bdbb 14b3 df3a 80ee 36bc
000001b0: 820b 4b3c cefa 00bc 1e3c f2bc b660 0abd
000001c0: ff01 bebc cf44 c9bc 08fd e9bc d5a5 93bc
000001d0: e092 3fbb 867f 80bc 86b4 0abc 212b e3bc
000001e0: 5a47 cf3b d8dd a53c 0df5 1ebc c82f a93c
000001f0: df3f 4b3d fbbc e43c 1067 c8bb 9c2e 26bc
00000200: d7da c2bc 23dc afbb e854 bfbc 645f f9bc
00000210: 27c2 10bd 6b2f 43bd ef24 49bd 14fa 2fbb
00000220: 2194 3c3c 1605 f83c 6008 d23b 3c0c 1d3d
00000230: 561f 1d3d 5999 663b 9717 f83c 660a 823c

momentum_buffer f4 [16]
-5.5368087e-06 6.691136e-06 1.6491325e-05 2.5775467e-05 2.9086836e-05 -2.533812e-05 8.053737e-06 -1.37636835e-05
-3.551407e-06 -2.3949735e-05 2.9143263e-05 -2.3467761e-05 1.7026998e-05 1.1206963e-05 1.0367751e-05 -1.7267197e-05
00000000: d3c8 b9b6 6c84 e036 da56 8a37 6538 d837
00000010: 81ff f337 338d d4b7 891e 0737 92ea 66b7
00000020: b554 6eb6 aae7 c8b7 ae78 f437 a2dc c4b7
00000030: 33d5 8e37 8a05 3c37 27f1 2d37 06d9 90b7

momentum_buffer f4 [16]
-0.026179174 0.04568591 0.010440009 0.00028084405 0.08208452 0.065858826 -0.17420374 -0.10823148
-0.004283759 0.06488361 -0.066510886 -0.0039451984 -0.060343955 0.09704304 0.05572618 -0.008945705
00000000: b575 d6bc 2621 3b3d 920c 2b3c 403e 9339
00000010: ee1b a83d fee0 863d 7762 32be 77a8 ddbd
00000020: c65e 8cbb b3e1 843d dc36 88bd b946 81bb
00000030: 392b 77bd 80be c63d 2341 643d 0291 12bc

momentum_buffer f4 [16]
-0.0250221 0.01722905 0.052992806 -0.033821538 0.031731006 0.09260666 -0.13431595 -0.02548086
-0.0066405633 0.14686209 -0.096669 0.0073088445 -0.03152877 0.189571 0.12917937 -0.010983121
00000000: 26fb ccbc f023 8d3c fc0e 593d 7488 0abd
00000010: 5ff8 013d 90a8 bd3d 1f8a 09be 3dbd d0bc
00000020: 1599 d9bb 0463 163e 66fa c5bd 087f ef3b
00000030: 5024 01bd e61e 423e 9947 043e 8cf2 33bc

momentum_buffer f4 [32, 16, 3, 3]
-0.0013945382 0.001181804 -0.0024672812 0.0031757518 -0.0024668593 0.0024603368 0.0016617901 -0.0036612677
-0.0050440035 -0.020708695 -0.005367201 -0.00042641186 -0.017565569 -0.0026754232 0.010623037 -0.0045152917
-0.003734698 0.004835856 0.005566867 0.010049721 0.020749267 -0.003933486 0.010955565 0.010580239
-0.01408923 -0.00100001 0.012428678 0.00070662703 -0.0025563885 -0.0018508403 0.00073507783 0.002152244
-0.00071145844 -0.00086543756 -0.0011677021 -0.0018101237 -0.009665278 -0.01494579 -0.013598532 -0.011647992
-0.009525328 -0.012927391 -0.0071657044 -0.0078821415 -0.0049171615 0.0014329087 0.00765823 0.008107905
-0.002738065 -0.0066238684 0.0031594606 -0.011109081 -0.013821992 -0.0059664818 0.0013192785 -0.0005246793
0.0010258564 0.000738025 -2.1089436e-05 -0.0015250185 -0.009013694 -0.008928077 -0.004630047 -0.0027422013
-0.0028227442 -0.005335459 -0.0013516068 -0.0050023035 -0.0022595935 -0.0015608073 -0.0015942048 -0.0035045405
0.014361594 0.010348696 0.0015477627 0.012637038 0.014889472 0.018187584 -0.008510406 0.0013582256
0.004069186 0.011532787 0.009675242 -0.0016880045 0.016564226 0.0028686184 0.00284311 -0.0064993454
-0.00051186734 -0.010468525 -0.00032426836 -0.0051529496 -0.012894068 -0.0019469252 -0.012524607 -0.019724723
0.00038822368 -0.0071059936 -0.017926032 0.02797237 0.021120789 0.020555792 0.007038395 0.01796075
0.009047563 -0.007880447 0.011692552 0.0058600865 -0.005180383 0.004984421 0.014672374 -0.0022390038
0.01603633 0.009756504 -0.00027499016 0.014454107 0.01690948 0.03418188 0.030110087 0.018300667
0.035450473 0.028282417 0.016127668 0.007264965 0.00088595785 0.005507783 -0.003980507 0.007759188
0.00093251606 -0.0029825864 0.0037115142 -0.0025780445 0.00045499986 -0.0004289921 -0.0031058867 0.015861899
0.016602185 0.01147995 0.020848893 0.020296779 0.02270708 0.009773195 0.00474675 0.018528366
-0.004746434 -0.006539532 -0.015308058 -0.011635369 -0.0015574167 -0.0021214765 -0.0061185975 -0.0057461355
0.0047540427 0.013771001 0.0048404736 -0.0008136214 0.010592539 0.012052394 0.006368099 0.007530325
0.003976791 0.0034699077 0.0076977652 -0.012658524 -0.008483573 0.005210323 -0.017036738 -0.009004706
-0.0024032963 -0.024350187 -0.01804972 0.0041504772 0.0020978758 -0.00065317564 -0.006171705 -0.0016342292
0.0032821917 0.0048625353 0.006159357 0.006461721 0.024675533 0.0400939 0.02827891 0.040799342
0.04188325 0.02981765 0.042771112 0.031333856 0.018945402 -0.0035071347 -0.013132607 -0.017958006
-0.016740378 -0.008471261 -0.015642783 -0.0144303385 -0.015389938 -0.014677749 -0.019361608 -0.016802028
-0.01661956 -0.016403113 -0.0131435795 -0.004843401 -0.018138196 -0.01492353 -0.0007036347 0.0025995097
0.010517247 0.010980919 0.006384693 0.007401783 0.008887785 0.009088533 0.010935228 0.0030048382
-0.031410284 -0.0035513479 0.002716587 -0.026293987 -0.009947086 -0.00479045 -0.009945704 -0.007951829
-0.001386439 -0.019570397 -0.0008856398 0.01255858 -0.010698994 -0.0072214156 0.016666804 -0.007110413
-0.008872819 0.014502856 -0.035397783 0.013122104 0.03211373 -0.02065057 0.022045609 0.044734303
0.0059597944 0.044700053 0.044304226 -0.0032349653 -0.0031101045 -0.006978523 -0.00091670535 -0.010698044
-0.014412537 -0.0018936311 -0.024320547 -0.020249467 -0.0011125637 -0.01022923 -0.0121743325 -0.00081637834
00000000: f0c8 b6ba c3e6 9a3a 1cb2 21bb 4620 503b
00000010: 08ab 21bb 9a3d 213b 6cd0 d93a e1f1 6fbb
00000020: 2b48 a5bb 48a5 a9bc 58df afbb 0890 dfb9
00000030: abe5 8fbc 2756 2fbb 3f0c 2e3c 03f5 93bb
00000040: d6c1 74bb 1a76 9e3b 446a b63b 96a7 243c
00000050: 5efa a93c 79e4 80bb f87e 333c bd58 2d3c
00000060: 84d6 66bc c412 83ba a7a1 4b3c f03c 393a
00000070: 1589 27bb e597 f2ba 3db2 403a aa0c 0d3b
00000080: 2b81 3aba 88de 62ba 950d 99ba ac41 edba
00000090: 1d5b 1ebc 30df 74bc 61cc 5ebc 38d7 3ebc
000000a0: 1f10 1cbc 68cd 53bc 49ce eabb 1924 01bc
000000b0: 2420 a1bb 70d0 bb3a e4f1 fa3b 05d7 043c
000000c0: 1c71 33bb 090d d9bb f40e 4f3b dd02 36bc
000000d0: a375 62bc 7a82 c3bb a4eb ac3a a28a 09ba
000000e0: 0776 863a 0578 413a 38e9 b0b7 21e3 c7ba
000000f0: 2cae 13bc 1247 12bc a6b7 97bb 81b6 33bb
00000100: cafd 38bb 13d5 aebb 6628 b1ba 5dea a3bb
00000110: b015 14bb 0194 ccba a3f4 d0ba 6fac 65bb
00000120: e44c 6b3c 948d 293c 4cde ca3a 940b 4f3c
00000130: f9f2 733c 21fe 943c 3b6f 0bbc 7d06 b23a
00000140: ce56 853b 04f4 3c3c e884 1e3c 0840 ddba
00000150: b3b1 873c 6eff 3b3b 7853 3a3b 76f8 d4bb
00000160: d62e 06ba 2d84 2bbc 9002 aab9 13da a8bb
00000170: a441 53bc f82f ffba 0234 4dbc be95 a1bc
00000180: 808a cb39 65d9 e8bb 9dd9 92bc 5026 e53c
00000190: 8105 ad3c 9f64 a83c 56a2 e63b 6c22 933c
000001a0: 3b3c 143c fe1c 01bc 1e92 3f3c f805 c03b
000001b0: 34c0 a9bb 5b54 a33b 6664 703c 40bc 12bb
000001c0: 9f5e 833c bed9 1f3c 8e2c 90b9 ebd0 6c3c
000001d0: c085 8a3c 4d02 0c3d 6ea9 f63c 48eb 953c
000001e0: 8434 113d 87b0 e73c 2c1e 843c f20e ee3b
000001f0: a03f 683a a27a b43b ea6e 82bb c940 fe3b
00000200: 1874 743a 7f77 43bb e03c 733b 69f4 28bb
00000210: 0c8d ee39 58ea e0b9 228c 4bbb d0f0 813c
00000220: 4e01 883c 6616 3c3c 4ccb aa3c 6e45 a63c
00000230: 3304 ba3c c01f 203c a08a 9b3b cdc8 973c
00000240: f987 9bbb 9249 d6bb a6ce 7abc 46a2 3ebc
00000250: 3c22 ccba 7808 0bbb 847e c8bb 144a bcbb
00000260: cdc7 9b3b c49f 613c d69c 9e3b 3549 55ba
00000270: 548c 2d3c 6877 453c 7cab d03b f2c0 f63b
00000280: be4f 823b 6467 633b 893d fc3b b365 4fbc
00000290: affe 0abc 5bbb aa3b a190 8bbc 7988 13bc
000002a0: 9f80 1dbb 0b7a c7bc 02dd 93bc ba00 883b
000002b0: 847c 093b e039 2bba 043c cabb a233 d6ba
000002c0: 0a1a 573b e755 9f3b 6ed4 c93b d8bc d33b
000002d0: 5824 ca3c 8039 243d 2ca9 e73c 361d 273d
000002e0: c58d 2b3d 2544 f43c c330 2f3d ee57 003d
000002f0: 6333 9b3c f5d7 65bb 252a 57bc ab1c 93bc
00000300: 1e23 89bc 0bcb 0abc 4b25 80bc 3a6d 6cbc
00000310: 1426 7cbc f17a 70bc 3c9c 9ebc 68a4 89bc
00000320: be25 88bc d25f 86bc 2b58 57bc 64b5 9ebb
00000330: 8e96 94bc d281 74bc 2074 38ba 895c 2a3b
00000340: 8850 2c3c 50e9 333c b036 d13b a88a f23b
00000350: 129e 113c 12e8 143c ac29 333c d2ec 443b
00000360: 12a8 00bd bbbd 68bb c408 323b 7d66 d7bc
00000370: 1af9 22bc 35f9 9cbb 4ef3 22bc 6348 02bc
00000380: 2cb9 b5ba 1952 a0bc 482a 68ba 81c2 4d3c
00000390: d54a 2fbc a0a1 ecbb d288 883c 78fe e8bb
000003a0: 4d5f 11bc 639d 6d3c 44fd 10bd 18fe 563c
000003b0: b089 033d 622b a9bc fe98 b43c 513b 373d
000003c0: 614a c33b 6717 373d 5978 353d b601 54bb
000003d0: e5d2 4bbb 18ac e4bb 0e4f 70ba d946 2fbc
000003e0: 9022 6cbc b733 f8ba e23b c7bc 36e2 a5bc
000003f0: 71d3 91ba 8098 27bc da76 47bc 3902 56ba

momentum_buffer f4 [32]
2.1084584e-06 3.9966176e-06 -7.3009933e-06 -5.574766e-06 -7.644952e-06 3.7189893e-06 6.003293e-06 -7.691071e-06
2.0776044e-06 1.6075186e-06 -4.2872794e-06 1.7526802e-06 6.1429873e-06 7.824074e-06 3.4525149e-06 -1.5874792e-06
-4.547251e-06 -3.056816e-06 7.963772e-08 -5.5731664e-07 5.815589e-06 -7.202877e-06 7.0861495e-07 -2.5237835e-06
6.721682e-07 7.688443e-06 2.527855e-07 -1.3723184e-06 -2.7142744e-06 -7.992381e-06 -7.182394e-06 3.502474e-06
00000000: 0a7f 0d36 af1a 8636 0efb f4b6 e00e bbb6
00000010: d242 00b7 c093 7936 e56f c936 e608 01b7
00000020: f96c 0b36 ebc1 d735 73db 8fb6 a23d eb35
00000030: dc1f ce36 2444 0337 c1b1 6736 5f11 d5b5
00000040: 9794 98b6 b323 4db6 4d05 ab33 829a 15b5
00000050: 8723 c336 3eb0 f1b6 a637 3e35 455e 29b6
00000060: 0c6f 3435 9cfd 0037 93b6 8734 8030 b8b5
00000070: e126 36b6 0417 06b7 4b00 f1b6 0c0c 6b36

momentum_buffer f4 [32]
-0.024398338 0.089898825 0.1632579 0.09391539 -0.009802733 -0.026461504 0.06055168 0.13196647
-0.08090876 -0.07346839 -0.13654944 0.22750624 -0.12205492 -0.06287322 -0.095062785 0.087379664
0.07066105 -0.08229251 -0.04202847 -0.0011811294 0.04628574 0.030159088 -0.022654422 0.0988175
0.13004084 0.020793108 0.055703614 0.030927332 -0.07635128 -0.039765403 -0.020320304 0.1197525
00000000: 06df c7bc e01c b83d 142d 273e b656 c03d
00000010: a49b 20bc ccc5 d8bc 0a05 783d 3822 073e
00000020: 7eb3 a5bd 9876 96bd 9ed3 0bbe 65f7 683e
00000030: eef7 f9bd adc3 80bd 47b0 c2bd 1cf4 b23d
00000040: beb6 903d fa88 a8bd 0c26 2cbd 20d0 9aba
00000050: 1e96 3d3d 3110 f73c c495 b9bc d460 ca3d
00000060: 6d29 053e 4f56 aa3c 7929 643d 515b fd3c
00000070: 0f5e 9cbd 0ce1 22bd c476 a6bc cc40 f53d

momentum_buffer f4 [32]
-0.0067120288 0.04451584 0.113121934 0.056997422 -0.012450252 -0.002152009 0.03269776 0.06283431
-0.051562667 -0.041484788 -0.078308865 0.10073053 -0.07928979 -0.042164925 -0.06427964 0.041595776
0.07356466 -0.06118114 -0.004718855 -0.0064248852 0.025630808 0.037710935 -0.027366273 0.06666164
0.05463279 0.03093006 0.014121251 0.03391826 -0.083358064 -0.022187298 -0.027354624 0.059498295
00000000: 94f0 dbbb 3e56 363d 79ac e73d 2176 693d
00000010: 24fc 4bbc b808 0dbb 16ee 053d 46af 803d
00000020: 6033 53bd f4eb 29bd 6660 a0bd cf4b ce3d
00000030: af62 a2bd 21b5 2cbd 0ba5 83bd 5560 2a3d
00000040: 12a9 963d 1399 7abd a0a0 9abb d887 d2bb
00000050: b3f7 d13c c876 1a3d 3c2f e0bc e685 883d
00000060: a2c6 5f3d 0a61 fd3c d25c 673c e0ed 0a3d
00000070: a2b7 aabd 23c2 b5bc ce16 e0bc 7cb4 733d
