deepcluster_implementation/experiments/run_label_fraction_variation/config_4/checkpoints/checkpoint_epoch_4.pth.tar (torch, 203702 bytes, 32 tensors)

features.module.0.weight f4 [16, 1, 3, 3]
00000000: e719 823f 3fd8 993d a6aa efbe 9940 2dbe
00000010: 7051 513e e2c5 90bb 5225 30bf 8858 0f3e
00000020: 03fa 5e3f aea8 923e 8978 823e bf87 193f
00000030: 4fde 16bf 53f8 00bf 2825 5d3e 7e94 b33d
00000040: f6a4 933e 13ab 0e3f d28c d8be 6a4b b8be
00000050: dd73 f0be 026b cfbe a0a7 d63e b7ff a93e
00000060: 7d90 24bf a268 a1be 2d27 223e 1a29 92bf
00000070: 870d 1bbe 94ef 10bf 93a3 59bd a44b 883d
00000080: 1f4b 42be 6851 c73e d2b7 6d3c 9e24 183f
00000090: a82d 1f3f 3dac 36bd eec7 123f 793b 7ebc
000000a0: b440 22bf 365a 66be 2f1a 113f 517d 47bb
000000b0: 0407 133f ed48 823e 123a 6d3e edeb 173e
000000c0: 6e68 65be ca4c 963e 8aca 35bf 9b7a 26bf
000000d0: c0a0 03bf 6026 1abf 61c8 a93e 588e f2bc
000000e0: 794b a43e 5f07 74be f427 e93e 059a cd3e
000000f0: 6123 49bf 76e3 9bbe 9237 66bf eb4e 913e
00000100: 948d 46bd 93e2 19bf 2c1d d33e a26d abbe
00000110: 2da6 dfbe db8f ca3e 2da2 263e b50d 923f
00000120: 18e3 243f 06f0 8cbd e753 3bbf 5db0 40bf
00000130: c641 88be ee97 17be de50 973e fa40 a9bc
00000140: 1eb0 843d 8642 53bf 6c1c ecbe fba5 d2bc
00000150: cd7c 50be c08b 5a3e cd7b 05bd 7dc3 2abf
00000160: cefc 553d 4c13 0d3f f6ad 50be 4a21 33bf
00000170: 5ea9 653f 6425 223e bbcb 30bf a01d b03e
00000180: 5d05 793f a9e4 35bf f9cf 3cbe c9e7 2bbf
00000190: 758d 063d b046 aa3d 3dd4 86be 6d4f 743d
000001a0: c61f af3e 467f c3be 3d46 6dbe c6db 2ebf
000001b0: 123e 67bf c064 a43e a4a5 063f 400e 77be
000001c0: d9e7 8bbe 3c47 e3be cc44 8cbe 3636 07be
000001d0: 5f97 873e 756d fbbd 5918 c7bc 5c38 fcbe
000001e0: 6161 0c3e 6e6d c2bd 5409 c43d c60c 31be
000001f0: 63fb 29bb 477a 17bf 8ac2 6cbf 69d1 5dbe
00000200: f425 fcbd cce2 a13e bcde 4d3f b13f e83e
00000210: 1c42 82bf f3db f3be 7838 3abe bc5d 22bf
00000220: cdfc 00bf 9617 5cbf 0814 963e b507 9b3e
00000230: 70b9 e6be bb35 103f fc0a 2f3e 7d66 0dbf
1.0164155 0.07511949 -0.46809882 -0.16919173 0.20441222 -0.0044181207 -0.68806946 0.13998616
0.8710024 0.28644317 0.25482586 0.5997276 -0.58932966 -0.5037891 0.21596205 0.08768557
0.28836793 0.5572979 -0.42294937 -0.35995036 -0.46963397 -0.40511328 0.41924763 0.33202907
-0.6428297 -0.3152514 0.15835257 -1.1418793 -0.15141879 -0.5661557 -0.053134512 0.06655052
-0.18973969 0.38929296 0.014509158 0.59430873 0.6217904 -0.044597853 0.5733632 -0.015517109
-0.6337998 -0.2249535 0.5668058 -0.0030439685 0.5743258 0.25446263 0.23166683 0.14836092
-0.22403118 0.2935546 -0.71012175 -0.6503083 -0.5141716 -0.60214806 0.3316069 -0.02960889
0.3208883 -0.23830937 0.45538294 0.4015657 -0.7856961 -0.30446976 -0.89928544 0.28380522
-0.048474863 -0.6011135 0.41233194 -0.3348208 -0.4368147 0.39562878 0.16272803 1.1410433
0.6440902 -0.06881718 -0.731749 -0.7526911 -0.2661268 -0.1480405 0.29553884 -0.020660866
0.06478904 -0.8252338 -0.46115434 -0.025713911 -0.20360108 0.21342373 -0.03258877 -0.6670454
0.052243046 0.5510757 -0.20378861 -0.6997267 0.8971156 0.15834576 -0.6906087 0.34397602
0.9727381 -0.7105203 -0.1843871 -0.6715055 0.032849748 0.08314264 -0.263338 0.05964606
0.3420393 -0.3818304 -0.23171325 -0.683041 -0.90329087 0.32108116 0.525965 -0.2412653
-0.27325323 -0.44390285 -0.27396238 -0.13204274 0.26482674 -0.12276737 -0.024303602 -0.4926175
0.13709022 -0.09493528 0.09572092 -0.17290029 -0.0025937192 -0.59170955 -0.92484343 -0.21661915
-0.123119265 0.31618345 0.8041799 0.45361093 -1.0176425 -0.47628745 -0.18185604 -0.6342428
-0.50385743 -0.8597349 0.29312158 0.30279317 -0.45063353 0.56331986 0.17094034 -0.5523451

features.module.0.bias f4 [16]
00000000: eea7 67bd a51b 8c3d b425 2d3e 0561 873e
00000010: ddc3 983e cdf7 84be 62d0 a83d 7c42 10be
00000020: 2a04 13bd 1c0a 7bbe 89bf 983e 4229 76be
00000030: 2a40 333e 82bd eb3d fff8 d93d f153 35be
-0.056556635 0.0684121 0.16908914 0.26441208 0.29836932 -0.25970307 0.08242871 -0.14087862
-0.035892643 -0.24515575 0.2983363 -0.24039176 0.17504945 0.11510755 0.10643195 -0.17707802

features.module.1.weight f4 [16]
00000000: ff79 2f3f 248b 403f 60d0 b33f 48f3 553f
00000010: b71a fb3e 461a a93f 583a 363f 933b 333f
00000020: 6a18 a23f 3481 893f e414 c83e 9711 e73f
00000030: 3489 8d3f 76cd c93f 6bbe 5b3f 82b6 9c3f
0.68545526 0.7521231 1.4047966 0.8357434 0.4904382 1.3211143 0.71182775 0.7001278
1.26637 1.0742555 0.39078438 1.8052243 1.1057496 1.5765827 0.8583743 1.2243197

features.module.1.bias f4 [16]
00000000: efa5 99bf c044 a0bf a33c d8be d63a 83be
00000010: 3814 eebe 19be 09bf 02a6 bdbe 1fd8 92bf
00000020: 3879 24bf a51d b7be 417d aabc f90a 3cbf
00000030: ea8b eabe 7c9e f4be 8e41 32be 5637 c6be
-1.2003764 -1.2520981 -0.42233762 -0.25630826 -0.464998 -0.5380569 -0.37040716 -1.1472205
-0.64247465 -0.35764804 -0.020811679 -0.7345424 -0.4580987 -0.47777164 -0.1740782 -0.38714093

features.module.1.running_mean f4 [16]
00000000: 801d 0abd 60b7 ee3d eb73 ea3d 8439 713e
00000010: 7fd0 ba3e 4c87 9cbe 9684 453d ebe9 d1bd
00000020: 623d 38bd 96bd 91be 01db a73e 311c 96be
00000030: f7d8 1e3e 463a 9a3d 88b7 213d 45c6 6cbe
-0.03371954 0.1165607 0.11447891 0.23557097 0.36487195 -0.30571973 0.048222147 -0.102496944
-0.044980414 -0.28464955 0.32784274 -0.29318383 0.15512453 0.07530646 0.03948167 -0.23122509

features.module.1.running_var f4 [16]
00000000: cf48 893f 166f 9d3f 3f54 1740 2c2b 0940
00000010: f08b 8d3f ae29 4840 ae01 b43f 10e8 b73f
00000020: cf31 a43f 07d7 1b40 4994 223f dfb2 f73f
00000030: eaae b73f 3578 8b3f 06ad d63f 41ec 3f40
1.0725344 1.2299526 2.364517 2.14326 1.105833 3.127544 1.4063013 1.4367695
1.28277 2.4349992 0.63507515 1.9351462 1.4350255 1.0896059 1.6771553 2.9987948

features.module.4.weight f4 [32, 16, 3, 3]
00000000: 95fc bbbd a934 a9bd f8a2 dfbd 6b9b 1dbe
00000010: 2f8b cabc 432f c6bd f079 37bd 8883 2b3c
00000020: 0cd6 c3bd 8830 ebbd 74c6 debd 8273 c0bd
00000030: 762d 213a f51a 52bd 91bb cabd 9620 a1bd
00000040: c114 efbd 6c56 50bd dc6c 413b 1d59 c3bc
00000050: 3652 0ebc d7de 1abc dae6 8b3b e2b6 e3b9
00000060: 25ab 22bc acd2 75bc 22a3 9abc 2977 08bd
00000070: f0bc 42bd 3553 8bbc 5964 1ebd dc49 1dbd
00000080: f89a b7bc b1fe 44bd 025e c6bc 9555 23be
00000090: 2d0a bdbd 9177 fdbd 656d ddbd c69a b6bd
000000a0: ae3b 22be 62cd f9bd 8eaf 8dbd 660f a3bd
000000b0: 4dbb 8dbd 756a 99bd b0ec 0bbc 3862 c3bd
000000c0: 403a 71bd 2f9e 30bd 0699 3ebd 3566 14bc
000000d0: d830 e7bd 4757 aabd 6ca6 9abd 713a 2b3b
000000e0: 24b0 9cbd 5bb7 f6bd bfbf 60bd 44da c5bd
000000f0: 1cf4 4dbe 194f 6ebd b5f2 1cbe 0679 93bd
00000100: 86d7 1ebe 885e 17bb 70fa eb3c ebbd b5bc
00000110: fd03 dbbd 4f3c f6bd a7ba 02be 2d36 adbc
00000120: 5108 56be f8e8 acbd 2b9e a9bd cc32 a3bd
00000130: eda9 46bd c017 abbd 14b5 17be 6639 b7bd
00000140: a251 afbd e724 8bbd 4af5 083c 49ad 4c3d
00000150: 9125 1dbd 7fd6 92bc 511f 483c bacd a8bd
00000160: 9cf5 b5bd b091 e6bd 349a 71bd d49d c93b
00000170: e512 d2bd c937 a4bd 6b6b 753c 4c88 57ba
00000180: 390a 46be 38a5 5cbd cb65 a0bc 944f 093b
00000190: b4a7 cabc 0e31 d4bc e6a3 fcba fd6b 36bc
000001a0: 4fdd 0cbd f060 143c 506b c5bc 97e3 21bc
000001b0: aafd 73bd 86a1 8fbd c0ee 14be 53e8 b53b
000001c0: 1e19 583d 8891 5f3d 7024 78bb 97aa 1bbd
000001d0: ac40 a4bd 725f 7bbc 0496 80bc 4a97 13bc
000001e0: 5f8d eebb 0c7d 123c ce88 b9bb 6ebb 86bc
000001f0: 3dcb bbbc a0a2 dbba 90b0 0f3c e9f3 ffbb
00000200: d882 013c e6f5 a1bb e43b 1b3b 7abc 87bb
00000210: 58ff 9f3b ce57 f2bc 7e01 073c ae6c 673d
00000220: ded5 253b aa3b ef3c eb3e 04bd 8d33 7e3c
00000230: a1b6 e3bc 537c 80bd 2fdf 04bc c5d2 2f3b
00000240: 84a1 1dbe 65cb cebd 207d a43d fae8 293c
00000250: a6f1 2fbd 0397 033e 8578 00be 507e 34be
00000260: 48ea c8bc f2f4 a3bd 5877 48be bd08 abbe
00000270: a3ce 24bd 0980 8abe 2dd3 79be a0a2 b63d
00000280: f31f 89be 2e4b 91be 26b6 94bd f69b e73d
00000290: f69a 30bc 75ff fdbd ea04 803d ce6c 4ebd
000002a0: bada 52be 2499 95bc 3b2c 76bd c409 64be
000002b0: ce06 8bbe 86c3 3abe 442d 8ebe 5ed7 bbbd
000002c0: 4748 72bd 628f 7bbe 4be2 cbbd 1373 60be
000002d0: 6ac9 103e 65de 213d 9cee 45bc fb04 bb3d
000002e0: ed85 993c e18c dbbd 74a6 f83d f5a5 383c
000002f0: 269f 61be b900 a3bd 49c4 24bc da82 873d
00000300: 7a3b c1bd db8e 5f3d 6322 ba3c 9a93 81bd
00000310: adad 8e3d 9ad9 363d 1363 2ebe f21b 04bb
00000320: 8f1a 3a3c 25f8 1bbe 9d86 ffbc fc23 81bd
00000330: f2d7 f2bd 5d6b 76bd 6b36 80bd b6a7 8f3c
00000340: 3655 193b b033 46be e3bc a43d d149 a93d
00000350: a176 2bbe 4b98 033d 15d8 24be e651 a8be
00000360: bd04 c33d 9e40 233e 5043 843d 2551 3c3d
00000370: 55f7 7a3c 3cbd 6b3d 7d8f 55bd ae3e f8bb
00000380: 443b 1bba 1436 f3bd 76c5 5ebe 8bbe b4bd
00000390: 19d4 00be cde3 c7bd a929 6fbd 3235 8fbd
000003a0: 9e96 66bd 17c1 65be fb9b 063d fa7d 7b3d
000003b0: 560f b23d 2b8d a83c 9eed 7c3d b573 7d3d
000003c0: 22f3 ba3d 151f bd3d 2d3a 98bc 36cb 413d
000003d0: 9900 b03d 6ac2 863d 5d9e 02be 9cb0 743d
000003e0: cbcb 31bd d978 5fbe b215 29bd 7231 7bbc
000003f0: 748d c43d 2ede c33c 6971 c93d ce5d 88bd
-0.091790356 -0.08261997 -0.10919756 -0.15391319 -0.024724571 -0.09676983 -0.044794023 0.010468371
-0.095623106 -0.11483866 -0.10877696 -0.09397031 0.0006148437 -0.05129524 -0.09899057 -0.078675434
-0.1167388 -0.05086367 0.0029514348 -0.023846203 -0.008686593 -0.009452543 0.004269463 -0.00043433072
-0.009928499 -0.015003841 -0.018876616 -0.033316765 -0.047543466 -0.01700745 -0.038669918 -0.038400516
-0.022412762 -0.048094455 -0.024214748 -0.15950616 -0.092304565 -0.12376321 -0.10811881 -0.089162394
-0.15843078 -0.12197377 -0.0691825 -0.079619214 -0.069204904 -0.07491008 -0.008540317 -0.09540218
-0.058893442 -0.043119606 -0.046532653 -0.009057571 -0.11288613 -0.08317428 -0.07551274 0.0026127363
-0.07650784 -0.12046691 -0.054870363 -0.096607715 -0.20112652 -0.058180902 -0.1532696 -0.07200818
-0.15511903 -0.0023097117 0.028805941 -0.022185287 -0.1069412 -0.12023222 -0.12766515 -0.021143997
-0.2090161 -0.08442873 -0.08282121 -0.07968673 -0.048501898 -0.08354139 -0.1481517 -0.08946495
-0.08560492 -0.06794148 0.008359263 0.049969945 -0.038365904 -0.017924545 0.012214498 -0.08242364
-0.08884737 -0.112582564 -0.05898495 0.006152848 -0.1025751 -0.08018453 0.014979224 -0.0008221909
-0.19339837 -0.053868502 -0.019579789 0.0020951973 -0.02473817 -0.025902297 -0.001927492 -0.011134145
-0.034390744 0.009056315 -0.024099022 -0.009880922 -0.059568085 -0.0701323 -0.14544201 0.005551377
0.05275833 0.05458215 -0.0037863515 -0.038004484 -0.08020148 -0.01534258 -0.015696533 -0.009008238
-0.0072800363 0.008940946 -0.0056620603 -0.016446795 -0.02292406 -0.001675684 0.008770123 -0.007811059
0.007904731 -0.0049426435 0.002368682 -0.004142341 0.0048827343 -0.029582884 0.008240102 0.05650013
0.0025304477 0.029203255 -0.032286566 0.01551522 -0.027797045 -0.06273713 -0.008109852 0.002682851
-0.15393645 -0.10097388 0.08031678 0.010370487 -0.042955063 0.12850575 -0.12545975 -0.1762631
-0.024525777 -0.08005704 -0.19576776 -0.33405104 -0.040236127 -0.27050808 -0.24396963 0.08917737
-0.26782188 -0.2837767 -0.072613046 0.11309044 -0.010779133 -0.1240224 0.06250937 -0.050396733
-0.2059125 -0.0182615 -0.060100775 -0.2226935 -0.2715363 -0.18238649 -0.2776891 -0.091719374
-0.05915096 -0.24566415 -0.09955271 -0.21918897 0.14139333 0.039518733 -0.012080815 0.09131809
0.018740619 -0.1072023 0.121411234 0.011270036 -0.22033367 -0.07959122 -0.010056564 0.06616755
-0.094351724 0.054579597 0.022721475 -0.06326981 0.0696672 0.044641115 -0.17029981 -0.0020158258
0.011358871 -0.15231378 -0.031192118 -0.063056916 -0.118575945 -0.060160983 -0.062603794 0.017536025
0.0023396737 -0.19355655 0.0804384 0.082660325 -0.16744472 0.03212766 -0.16098054 -0.32874984
0.09522388 0.15942618 0.06458151 0.045975823 0.015317758 0.057553515 -0.052138794 -0.0075758314
-0.0005921612 -0.11875549 -0.21755013 -0.08825406 -0.12580909 -0.097602464 -0.05838934 -0.06992568
-0.056295983 -0.22436939 0.0328636 0.061399437 0.08694331 0.020575127 0.061750047 0.061877925
0.09128405 0.09234444 -0.018582428 0.047312938 0.08593864 0.0658005 -0.12755723 0.05973874
-0.043407243 -0.21823443 -0.041280456 -0.015331613 0.095972925 0.023909654 0.098360844 -0.06658517

features.module.4.bias f4 [32]
00000000: e045 ae3c 6d51 283d e350 99bd 8ee9 69bd
00000010: 19f1 a0bd 738f 1c3d 9e88 7b3d b51f a1bd
00000020: cc63 ae3c 2709 883c a7fc 33bd b1ec 903c
00000030: 4f4e 813d e77c a43d 2709 113d b902 85bc
00000040: 9dd4 3ebd 9d7a ffbc f904 303a bf10 c5bb
00000050: fdb9 743d ce8c 97bd 5d7f ef3b 2f57 d5bc
00000060: 71c0 df3b a843 a13d fdfb 1c3b 48aa 68bc
00000070: 795a e3bc ef59 a7bd 88ee 97bd b322 123d
0.021273553 0.04109328 -0.07486131 -0.0571075 -0.07858486 0.03822274 0.061409585 -0.07867376
0.021287821 0.016605927 -0.04394212 0.017690988 0.06313764 0.08031636 0.03540912 -0.01623665
-0.046589483 -0.031186396 0.0006714608 -0.006013959 0.059747685 -0.07399903 0.007308884 -0.026042549
0.0068283607 0.078742325 0.0023953908 -0.014200754 -0.027753102 -0.0817145 -0.07418543 0.035677623

features.module.5.weight f4 [32]
00000000: 4167 1e3f 1bdc 233f b78c dd3e 423c 413f
00000010: e690 933f 8896 1e3f a893 0b3f ca92 113f
00000020: ceae 1b3f aacc 553f 7f04 2a3f c845 643f
00000030: 5aff 393f 73c9 6b3f 4fec 1f3f a61c 3f3f
00000040: 894e 813f 2729 a43f 3ea8 153f 625d 383f
00000050: 32bf 6a3f 5710 d43e 90e7 073f 9c43 1a3f
00000060: 8077 603f 4743 1b3f 5bf4 093f 0e5a 123f
00000070: c876 1c3f 870e 053f 7c10 3a3f 2865 103f
0.618763 0.6400773 0.4327142 0.7548257 1.1528594 0.6194844 0.5452218 0.5686461
0.60813606 0.8351542 0.6641311 0.8916898 0.7265526 0.9210426 0.62469953 0.7465309
1.0102092 1.2825059 0.5845984 0.7201749 0.9169799 0.41418716 0.5308771 0.60259414
0.8768234 0.6064953 0.5388848 0.5716866 0.61118746 0.5197529 0.72681403 0.5640435

features.module.5.bias f4 [32]
00000000: e038 80be 5aa6 15bf 822b adbe 7607 29bf
00000010: d76d 0fc0 592f 99bf c930 4ebf 447e 7ebf
00000020: 969f 87be d8e1 f4bf 8735 16bf 2d2a efbf
00000030: e47e 26bf cc2c 3abf 152b abbe 45de 16bf
00000040: 398c 35bf c87d 82bf 3871 45bf 5c90 e5be
00000050: d606 2ebf 721a 1ebf 8ab8 31bf cd50 74bf
00000060: d837 3abf 43c6 1fbf b22c 01bf 8a24 eebe
00000070: 2a61 05bf ada5 14bf 7f5f 1bbf ff6c 53bf
-0.25043392 -0.5845696 -0.33822256 -0.6602701 -2.241079 -1.1967574 -0.8054319 -0.99411416
-0.26488942 -1.9131422 -0.58675426 -1.8684746 -0.6503737 -0.72724605 -0.33431306 -0.58932906
-0.7091709 -1.0194635 -0.77125883 -0.448367 -0.6797918 -0.617591 -0.6942221 -0.9543579
-0.7274146 -0.624119 -0.50458825 -0.46512252 -0.52101386 -0.580653 -0.6069259 -0.8258819

features.module.5.running_mean f4 [32]
00000000: cd68 edbe 58ca 38bf 3abf 57bf 97db d8be
00000010: b5fe bebf f57a c9bf cc0f 4bbf 77f9 81bf
00000020: e61d 81be ccad c7bf b056 d7be 7105 abbf
00000030: 8e02 dfbe 7ad2 c4be 79bc c7be a62c f6be
00000040: 33c3 40bf 644b 35bf 6947 10bf 0e4d ddbe
00000050: dd55 f4be 7b7a 37bf 79a4 4abf 7a71 97bf
00000060: b1a6 0dbf b77d adbe 5374 5cbe 5866 20bf
00000070: 6b0c 5bbe 33bf 48bf 2f6d bcbe 0284 55bf
-0.4636902 -0.7218375 -0.84276164 -0.42355034 -1.492148 -1.5740649 -0.7932098 -1.0154256
-0.25218123 -1.5599914 -0.42058325 -1.3361036 -0.43556637 -0.3844183 -0.3901098 -0.4808094
-0.7529785 -0.7081816 -0.56358963 -0.4322285 -0.47721758 -0.71671265 -0.79157215 -1.1831505
-0.55332476 -0.33884975 -0.21528749 -0.62656164 -0.21391456 -0.78416747 -0.3680205 -0.8340455

features.module.5.running_var f4 [32]
00000000: 2a6b 8d3e eb99 fa3e 4fe8 ad3e d343 b43e
00000010: c70f df3e 0312 143f 8459 843e f781 b23e
00000020: 5c68 c63e 7ebd ce3e dd8c 993e 000f ca3e
00000030: 53e2 5e3e 1e41 ff3e eddb 573e 0a48 183f
00000040: ad74 8d3f 390a 813f 742d 703e 0a85 9c3e
00000050: 86c3 2d3f 43b6 5a3e 87dc 823e b2fc 163f
00000060: b66a 2f3f 4db6 813e 506c ea3e 35fc ca3e
00000070: 8e26 9b3e 5cc9 843e 7a7f 7b3e f2e8 b73e
0.27620822 0.48945555 0.339663 0.35207996 0.43566725 0.57839984 0.25849545 0.3486478
0.38751495 0.40378946 0.29990283 0.3946457 0.21766023 0.49854368 0.21079989 0.5948492
1.1051232 1.0081245 0.23454839 0.3057025 0.6787647 0.2135859 0.25558874 0.5897933
0.685222 0.25334397 0.4578576 0.39645544 0.30302852 0.25934875 0.24560347 0.3591991

features.module.8.weight f4 [64, 32, 3, 3]
00000000: c67f 1a3b 66dd 5eba 89a3 423b 82b7 e1bb
00000010: b0f0 0abc 21ab 94bb a061 27bc 7cc3 d2bb
00000020: 200c e5bb c69c d4bb c82d 98bb 1d89 d8bb
00000030: 7035 ad3b 60f5 213b c1fa 0d3c f642 e1bb
00000040: e657 88bb 89e7 23bb d110 5cbb f188 9cbb
00000050: d80c 4939 0a2c 4bbb 8e2f a5ba 70c0 683b
00000060: 2812 ffbb 9b35 abba 6ee2 883a 8301 d53b
00000070: ece3 d53b 2f14 d83b 37a8 533c 43c8 b63b
00000080: 4010 bf3b 14bf f03c c562 5a3c 9960 7f3c
00000090: c1ec 133e db9f f83d 94ee 183e c4a5 5c3e
000000a0: 1943 3d3e be22 713e 5cc4 a63e 35c3 7e3e
000000b0: 15b3 a13e 0aac 81bb 427f d43b 76f9 813b
000000c0: c141 4cbb 59db be3b 245c 5f3b b1b9 b5bc
000000d0: dadf 3cbc 0579 4abc f5d5 63ba 8f82 303b
000000e0: 3daa 7f3a 14b3 a8bb 1249 cfbb 47a9 3dbc
000000f0: be5d 9abc e8d0 65bc 5664 c6bc 38ba 813b
00000100: 9be0 0a3c e44e f83a 868b bc3a 7869 a239
00000110: 2e85 0ebb c085 cdba f532 1cba d2fe 6bbb
00000120: 7ee3 653a de4b e13a 7899 af3b 48f8 0dbc
00000130: f0fc c5bb 58ab 9fba ee20 88bb 9ab5 9fba
00000140: ff82 a33a 98f5 d0bc 8c14 06bd 3676 88bc
00000150: daa7 3e3d 639b cc3c 62d7 833d 134f 2e3c
00000160: 5151 65bc e526 f73c 2761 043c 092a 2f3b
00000170: f32c bc3b 9862 bf3c ad0c 2f3c c76a 423c
00000180: 54ef 343d 7fc0 0c3d 83f5 193d cedd 1dbb
00000190: 8cdc cdbb 6bb6 63bc 169c fe39 b52a 16ba
000001a0: 8ed2 c9bb a911 3abc fa99 b6ba 581a 2dbb
000001b0: da84 a43b f513 943b 5923 0a3b f358 093b
000001c0: da17 c0bb a510 07bc 81bb 17bb a67c c1bb
000001d0: 3419 3ebc 6468 44bc 7363 f6bb f60c 41bc
000001e0: 82fe 07bc f598 cbbb add2 dfbb deb8 2039
000001f0: f940 933b bd89 043c da65 17bc cce8 ebba
00000200: 1546 afbb f2e4 e0b8 ec12 32bb 8381 00bb
00000210: 04fe 543b aa7a ac3b df32 4f3b 7268 a13c
00000220: 2155 4c3c 6ef0 593c a7e0 b03c 9227 863c
00000230: 910f 6c3c 0818 a23a 52a0 6b3b dccb 2bb9
00000240: 7f2f 84bb 9de6 95bb e570 48bc 4113 e03a
00000250: 9583 97bb bd8a 5fbc d7c6 03bb fc85 13bc
00000260: 432d debc 2d86 c4bb 9c57 26bb e23e e538
00000270: 3920 89bb 8ab4 1fba fc6b 99bb 9f9e d1bb
00000280: d3f3 cfbb d624 2ebc a5cb 9dbc dbc6 2ebc
00000290: d97c afbb 2aed bfbc 9dc8 7abc fcd9 1cbc
000002a0: 719b a6bc 6699 39bc 4c3a f2bb dcb1 3bbc
000002b0: f9c6 7dba 09b4 1c3c ce74 5eba 826c 8f3a
000002c0: 0045 083c baeb 333c 19cf 4b3c 47a8 9a3c
000002d0: 4082 2dbc a053 083b 7624 ce3c 4924 8fbc
000002e0: c63c 24bc bbaa 9f3b dec1 3bbb cd33 44ba
000002f0: d87d d93c a12e 9e3c 470f 5b3c 65a9 4f3c
00000300: 6445 b03c 66e8 613c 9934 403c 2183 983c
00000310: f6f8 a03b 05ef 7c3b cbe6 6e3d f92a 023d
00000320: 6467 333d 8439 083d 3884 893c cb02 083d
00000330: 2df0 1b3d 54f6 d23c fe2f 483d b551 14bb
00000340: 7892 db3a 40f2 cd3b 60d8 7fbb a064 d0ba
00000350: 3c46 bf3a 150e 0dbb eedb 67bb 9f0d b8bb
00000360: 04c4 a33c c8ef ed3b b653 643c f805 cc3c
00000370: b24e 103c 901e 443c 2fa7 293d 4bd0 943c
00000380: 35be cc3c 6b25 133c 8ca5 873b bcaa ae3b
00000390: 47ba b63b a010 ae39 1d91 143b 5c32 043c
000003a0: 82a8 093c 1e95 b33c 1814 353d 17d9 da3c
000003b0: 49ff d13c 2342 0b3d acf0 b53c bfc1 d63c
000003c0: 7239 2c3d f7b6 173d 0f87 2f3d 69c1 b7bb
000003d0: 5846 38bc 6faa 30bc 4839 6abb 21c1 d2bb
000003e0: e7f5 14bc 9294 adbb d34d 24bc 9f6f 16bc
000003f0: adb7 5bbb 8298 58bb c4f0 31bc 9002 5bbb
0.0023574694 -0.0008501619 0.0029699525 -0.006888331 -0.008480236 -0.0045370017 -0.010216147 -0.006431995
-0.006989971 -0.0064884154 -0.0046441294 -0.006608142 0.0052859113 0.0024712905 0.008665741 -0.0068744374
-0.004160869 -0.0025009832 -0.003357936 -0.004777067 0.00019173638 -0.003100159 -0.0012602673 0.0035515092
-0.007784147 -0.001306224 0.0010443458 0.0065004244 0.0065274145 0.006594203 0.0129185235 0.0055780723
0.0058307946 0.029387988 0.013329213 0.0155869955 0.14445783 0.12139865 0.1493476 0.2154761
0.18482627 0.2354841 0.32571685 0.24879153 0.3158194 -0.003957276 0.006484897 0.0039665056
-0.0031167122 0.005824488 0.003408202 -0.022183271 -0.01152798 -0.012357955 -0.0008691245 0.0026933288
0.00097528455 -0.005148301 -0.0063258493 -0.011576003 -0.018843528 -0.014026858 -0.024217766 0.0039589666
0.008476402 0.001894441 0.0014384843 0.00030977628 -0.0021746862 -0.0015680119 -0.0005958521 -0.003601004
0.0008769556 0.0017188748 0.005358871 -0.008665152 -0.0060421154 -0.0012181802 -0.004154316 -0.0012184859
0.0012474953 -0.025507733 -0.03273444 -0.01665793 0.046546794 0.024976438 0.064375654 0.01063897
-0.013996438 0.030169914 0.008079804 0.0026727936 0.005742663 0.023362443 0.0106841745 0.011866278
0.044173554 0.034363266 0.037587654 -0.0024088505 -0.0062823948 -0.013898472 0.00048562948 -0.000572841
-0.0061591333 -0.01135675 -0.0013931387 -0.0026413407 0.00502072 0.0045189806 0.0021078198 0.002095756
-0.0058622183 -0.008243714 -0.0023152533 -0.005904752 -0.011602689 -0.011987779 -0.0075191795 -0.011782875
-0.0083004255 -0.0062133023 -0.0068305344 0.00015327657 0.0044938293 0.00808948 -0.009240592 -0.0017998456
-0.0053489306 -0.00010723797 -0.0027171923 -0.0019608445 0.0032500038 0.005263646 0.0031616015 0.019703124
0.012471468 0.013301952 0.021591498 0.01637629 0.014408008 0.0012366781 0.0035953713 -0.00016383774
-0.0040339823 -0.0045746104 -0.012233947 0.0017095582 -0.00462384 -0.013643918 -0.0020107531 -0.009004112
-0.027121192 -0.0059974403 -0.002538181 0.00010931284 -0.0041847494 -0.0006092271 -0.004682062 -0.006397083
-0.006346205 -0.0106289 -0.019262144 -0.010667528 -0.005355459 -0.023428518 -0.015306619 -0.009573456
-0.020337792 -0.011328077 -0.0073922034 -0.011455979 -0.00096808333 0.009564408 -0.0008486033 0.0010942372
0.008317232 0.010981495 0.012439513 0.018879069 -0.010590136 0.0020801798 0.02516387 -0.017473357
-0.010024255 0.0048726476 -0.002864949 -0.00074845256 0.026549265 0.019309344 0.013370342 0.012674664
0.021517463 0.013788318 0.01173129 0.018617215 0.004912491 0.0038594615 0.05832557 0.031779263
0.043799773 0.033257976 0.01678668 0.03320579 0.038070846 0.025752224 0.048873894 -0.002263171
0.0016752025 0.006284982 -0.0039038882 -0.0015899129 0.0014593075 -0.0021523286 -0.003537889 -0.005616858
0.019990928 0.00726125 0.013935974 0.02490519 0.008807825 0.011970177 0.041419204 0.018165728
0.024993042 0.008981089 0.004139608 0.0053304117 0.005576405 0.00033200253 0.0022669502 0.008068647
0.008401992 0.02192169 0.044208616 0.026714845 0.025634425 0.03399862 0.022209488 0.026215432
0.04204697 0.037039723 0.04285341 -0.005607773 -0.01124724 -0.010782822 -0.0035739709 -0.006431714
-0.009091831 -0.005297252 -0.01002832 -0.009181886 -0.0033526227 -0.0033049886 -0.010860626 -0.0033418275

features.module.8.bias f4 [64]
00000000: 8f83 d9bc 7ca3 2e3c 99e0 373c 5588 693d
00000010: 3ffa 583d ced7 43bd 61ad eb3c bc20 3ebd
00000020: 68f2 e7bc d034 bb3c de43 22bd e468 4b3d
00000030: c9a0 b33c c341 a23b 6ee2 043d 6c15 4abd
00000040: 518e 1c3c 88cb b03c f937 dabc 5c7d 93bc
00000050: 2e76 c03c 64f2 483d 7106 b9bc 9c3c 0f3d
00000060: d9fc 043d edd4 0abd ad8f 3cbd 139d dfbb
00000070: 4036 133d 94c7 45bd bfd4 24bd 28e0 2c3d
00000080: 960b 08bd aa60 29bd 4cb4 21bb 4424 683d
00000090: 2979 1c3d c3c1 f43c 62e0 f23b 0bb5 edbc
000000a0: 9bd5 38bd 9c12 fc3c 659e 8c3c fdef 763c
000000b0: a359 afbc 0f74 67bd 93cd 013c a066 23bc
000000c0: a292 8fbb fe27 b43b 23aa 0abd 61c2 13bd
000000d0: 669c 89bc 3b24 b83c 9686 14bd 611c 5d3d
000000e0: 7173 69bd b73b 13bd abfa 873c 75bf 66bd
000000f0: d4af 03bd ead4 f43c 63c7 20bd 67f4 973c
-0.02655199 0.010659095 0.011222982 0.057014782 0.05297303 -0.04781323 0.028769197 -0.046417937
-0.02831383 0.022852331 -0.039615504 0.04966058 0.021927254 0.004951687 0.032442503 -0.049336836
0.009555415 0.021581426 -0.026638018 -0.018004112 0.023493852 0.049059287 -0.02258608 0.03496991
0.032467697 -0.033894468 -0.046035457 -0.0068241446 0.03594041 -0.048286036 -0.040241953 0.04220596
-0.033214174 -0.04135195 -0.0024674116 0.05667521 0.038201485 0.029877549 0.0074120024 -0.029016992
-0.045125585 0.030770592 0.017165372 0.015071866 -0.021405047 -0.056507166 0.007922548 -0.009973198
-0.0043814937 0.0054979315 -0.03385366 -0.036074046 -0.01679821 0.022478214 -0.036261164 0.053982142
-0.05699486 -0.03594562 0.01659902 -0.05633493 -0.032150105 0.029886682 -0.03925265 0.018549157

features.module.9.weight f4 [64]
00000000: e505 7d40 1a53 9b40 768c 6b40 d568 8b40
00000010: addf 6c40 3270 8140 9062 5540 0c60 6940
00000020: d38c 5c40 1c5a 7b40 0b92 8340 11e4 8b40
00000030: 33e2 2540 c2b3 a040 fa4e 5a40 1403 7c40
00000040: 724a 8840 fc1d 6840 ae42 3440 31ce 4e40
00000050: 4a69 9140 5fa9 8740 29de 6040 a969 6a40
00000060: 00f8 9240 c8e3 5a40 b6cf 8340 9fb9 7340
00000070: 665a ae40 ff6e 6c40 7630 a840 9700 6e40
00000080: edca 8640 0036 9540 d1f4 8e40 c6c8 5940
00000090: 0218 6840 f0e6 b240 0232 b040 9008 5c40
000000a0: 427a 7c40 033c b140 5f13 8a40 5342 7340
000000b0: 5f07 6a40 e631 5c40 b60f 6840 5a56 9440
000000c0: 880a 5340 8bf2 8e40 ff79 8840 c947 a240
000000d0: 3a3a 8840 66d4 9640 8026 8040 d40a 8040
000000e0: 80ac 7a40 578c 5540 a9de 9340 3709 7340
000000f0: ce08 6c40 396f 8040 8ca4 6440 2278 8440
3.9534848 4.853894 3.680448 4.356547 3.701152 4.0449457 3.3341408 3.6464872
3.4460952 3.9273748 4.1115775 4.37159 2.591931 5.021943 3.4110703 3.9376879
4.2590876 3.62683 2.8165698 3.231335 4.5441027 4.239425 3.5135596 3.662699
4.5927734 3.4201527 4.1191053 3.8082044 5.448535 3.6942747 5.2559156 3.718786
4.212271 4.662842 4.467385 3.4028792 3.6264653 5.5906906 5.5061045 3.4380226
3.944962 5.5385756 4.3148646 3.800923 3.6567 3.4405456 3.625959 4.635541
3.2975178 4.4671073 4.264892 5.071263 4.2571077 4.7134275 4.0046997 4.001322
3.9167786 3.3366907 4.62093 3.7974374 3.6880374 4.013577 3.5725431 4.1396646

features.module.9.bias f4 [64]
00000000: 4abb 4b3f f768 893f 2488 653f bdc9 8a3f
00000010: 614f 963f 58de 643f 578d 6a3f b569 0240
00000020: 737d f23f a0e2 863f 9c8b 973f c1f6 a83f
00000030: 2e73 963f 03d6 913f 76de 3d3f 741d 613f
00000040: 5202 7f3f 7764 6b3f 32e2 8e3f 8e5d 813f
00000050: c5c0 8b3f e25a be3f 9615 783f e8dc 783f
00000060: e790 7b3f bd03 3e3f 76c5 583f 82c6 5a3f
00000070: a44d b43f 6a67 0240 3116 e73f ad43 7f3f
00000080: 4a6f 853f 3038 dc3f 2ca3 993f 5dd0 303f
00000090: 0ed9 683f 798a 903f 116d 0e40 a096 4f3f
000000a0: 060e 8b3f 50a9 e93f 83a4 853f 1a1a 0840
000000b0: cb3e 5b3f fc66 6e3f de54 773f f090 9f3f
000000c0: fd60 693f 5f58 6c3f ed8c c83f 49f1 ec3f
000000d0: be6c 883f ff74 dc3f d08b 8b3f 807d 803f
000000e0: 3d84 873f a00f 8c3f 9e83 923f a292 1c3f
000000f0: 3245 463f c3d7 483f 9204 913f da5d 0b40
0.79582655 1.0735158 0.8966086 1.0842816 1.1742975 0.8940177 0.9162192 2.0377018
1.8944534 1.053791 1.183948 1.3200303 1.17539 1.1393436 0.74167573 0.87935567
0.99612916 0.9195017 1.1162779 1.0106676 1.0918204 1.4871485 0.9690794 0.97212076
0.9826798 0.74224454 0.846763 0.8545915 1.4086194 2.037562 1.8053647 0.9971264
1.0424588 1.7204647 1.2002921 0.6906794 0.909562 1.1292259 2.225407 0.8108921
1.0863655 1.8254795 1.044083 2.126593 0.8564269 0.9312589 0.9661387 1.2466106
0.9116362 0.92322344 1.5668007 1.8511134 1.0658185 1.7223204 1.0902042 1.00383
1.0587231 1.0942268 1.1446416 0.61161244 0.77449334 0.78454226 1.132952 2.1776032

features.module.9.running_mean f4 [64]
00000000: eb2a b8bc 53a0 e43c 811f a93c faf1 fc3c
00000010: dfeb 2e3d ea3a 59bd 7d86 0f3c 0647 3f3d
00000020: ca96 7c3d c52d 0f3d 06c6 12bd 17a6 503d
00000030: fe17 d73d 5151 26bb a655 0c3d a8b4 60bd
00000040: 9c65 d73c 0db6 2c3d 5004 b1bc 350b b3bc
00000050: 4e3b 7c3c f896 763d 8c40 9cbc 7a2a 5c3d
00000060: e88c fc3c 22d1 13bd 85c7 34bd f540 aa3a
00000070: 6c11 4c3b ef1b d43c 5dc6 9dbd 66cb 6c3c
00000080: 0261 18bd 2d97 efbc e168 32bb ad83 653d
00000090: 851a 943c 7e6c c63c fe4d 99bd efb9 90bc
000000a0: 802a 88bd 562a c83c b218 fe3c ac73 dd3d
000000b0: fb97 94bc e6fb 65bd 365f b6bc 8995 c5bc
000000c0: 6719 5b3b 6bca 483a b2c6 3cbd 4a7e 56bd
000000d0: d16f 943b 6c3b 373c 99b7 07bd aaf3 8b3c
000000e0: a2b0 b6bd 71b1 2cbd e61a 923c a136 4ebd
000000f0: f737 d2bc 5b29 023d 49dd 0ebd 0543 8b3d
-0.022481402 0.02790848 0.020644905 0.030877102 0.042705413 -0.0530347 0.008760092 0.046698593
0.06166724 0.03495576 -0.03583338 0.050939646 0.10502623 -0.0025378058 0.03426137 -0.054859787
0.026293568 0.042165805 -0.021608502 -0.02185593 0.015394999 0.06020257 -0.019073747 0.053751446
0.030828908 -0.036088116 -0.04413559 0.0012989329 0.0031138314 0.025892226 -0.077038504 0.014452791
-0.03720189 -0.02924689 -0.0027223157 0.05603378 0.018079052 0.024221655 -0.07485579 -0.017666785
-0.06648731 0.02443425 0.031017635 0.10813078 -0.018138876 -0.056148432 -0.022262197 -0.024119155
0.003343189 0.0007659557 -0.046087928 -0.052366532 0.004529931 0.011183601 -0.033134077 0.017083962
-0.08920409 -0.04216141 0.017835092 -0.050345067 -0.025661452 0.03177772 -0.034879003 0.06799892

features.module.9.running_var f4 [64]
00000000: 7e46 213b a098 e13b 6cf0 a23b b2de f13b
00000010: 76fb b23b ba21 833b d4b4 b83b b872 153c
00000020: ee44 203c 19f4 c53b 9b24 453b a238 9c3b
00000030: 4c35 053c 64f7 b33b fe93 3e3b 9577 413b
00000040: 6cb0 613b 8d5a c83b f464 5d3b 9c56 ad3b
00000050: 5953 ea3b 85a7 183b 7a58 983b bede a83b
00000060: 573b e03b 640a 2e3b 82ba 523b d25f fd3a
00000070: 787d dd3b def1 e13b c987 223c e9c2 be3b
00000080: 08ac ba3b a68d ae3b 636f 753b 4b30 973b
00000090: 83ad da3b 0493 8e3b fb56 3e3c ff9f bd3b
000000a0: e3a9 e33b 9b25 293c 307a cb3b c579 163c
000000b0: 4e02 ba3b f035 ba3b 815d b03b cdf8 b13b
000000c0: 8bbf b83b d51e 5d3b 904c ba3b f62e 413c
000000d0: 1482 c63b 85f0 ea3b b39e b53b 13ae bb3b
000000e0: c48a ca3b 0bda 763b dd44 bb3b f413 fe3a
000000f0: 528f e73a ba7e 673b 15eb 343b 1867 b23b
0.0024608667 0.0068846494 0.004972508 0.0073812837 0.0054621054 0.0040018233 0.005636791 0.009121589
0.009782059 0.0060410616 0.0030081633 0.0047674933 0.008130383 0.0054921377 0.002907991 0.002952074
0.003443743 0.00611431 0.0033782097 0.0052898657 0.007151049 0.0023293209 0.004649219 0.005153506
0.0068430114 0.0026556486 0.0032154624 0.0019330925 0.006759342 0.006895288 0.009920069 0.005821575
0.0056967773 0.0053269444 0.0037450425 0.0046139113 0.0066735162 0.0043510217 0.011617417 0.0057868953
0.0069477423 0.010323907 0.0062096342 0.009184306 0.0056765443 0.0056826994 0.0053822403 0.0054312707
0.005638068 0.00337403 0.0056853965 0.0117909815 0.006057987 0.0071697854 0.0055426 0.0057275384
0.006181093 0.0037666585 0.0057149963 0.0019384609 0.0017666614 0.0035323338 0.002760594 0.0054444186

top_layer.weight f4 [10, 64]
00000000: fb7b 93bd 4e20 023f 3dcf 06bd 5821 20be
00000010: 43bb d9bd fe19 69bd f3cc b9bd 701c 47bd
00000020: c3fe 7ebd 6a5c e23e 4e6f bdbd ba87 74bd
00000030: c48a abbc 6a40 d8bc 8b2c 3fbd bfbf 4a3d
00000040: f514 933e 1e1d e23e 6252 39bd b06c 013e
00000050: 422e 003d 4aa7 72bc c26a 88bc 7060 bb3e
00000060: 01d6 e9bd 6f62 3ebd 4149 323e 60e8 9cbd
00000070: d887 11bd a06d 7abd 1dc4 86bd e07e ecbd
00000080: b606 4cbd f3b8 6bbd c898 b7bd 9e47 a8bd
00000090: 052b e7bd 63c4 b2bd 56c3 eebd 2de6 c03e
000000a0: b26d 08be ed4c acbd 2e87 fe3e 3ce0 8dbd
000000b0: 6fee 96bd d058 a43e b2bc 63bd 433f a9bd
000000c0: ceeb f93d e8ae e03d a252 edbd d263 8cbd
000000d0: 893b 093f c487 27bd 1804 07bd 0326 cbbd
000000e0: ca68 a4bd ef6e 8abd 4d5d 4dbd ccdb 05bc
000000f0: 095c 90bc 5d63 cdbd 5f8e 83bd 5201 c3bd
00000100: 6ac7 60bd f3a1 90bd c873 063e d270 63be
00000110: 8684 d5bd c4cb 4e3d 0b93 23be 62d9 b33d
00000120: 98d5 ef3c 16d2 b1bd 5898 6dbd f76b 7dbc
00000130: 570d 4e3d 5f76 d5bc 1540 b93e 6b09 c0bd
00000140: 7336 e3bc d30d c3bc f25e 1abe 9c79 d53d
00000150: ce27 093f ddc9 62bd 00de 263e 7784 f43c
00000160: 7a1d 23be b821 a93e 17be f5bd d446 fa3a
00000170: 726f 633e e1a0 d83c ea40 ff3e adda 21be
00000180: 7ced 073f 0bbf 9fbd 8555 4cbd ca98 5cbd
00000190: 0a2c 30be 44d1 31be 25be b83d 8f84 a5bd
000001a0: 68e6 3cbe 98d8 72be 2ca4 dfbc b459 773d
000001b0: c5e1 c4bc 48bb aebd a5b5 b4bd 287c 0e3d
000001c0: cb2c 643d e4a0 f7bd ebbd 60be 918d 82be
000001d0: 9d96 95bc 41b9 64be 5b9d 083d ebac c23d
000001e0: ba0d fcbd c2c0 b73c 6ae9 eb3e b4b2 573d
000001f0: e557 dcbc 1198 48bc f801 31bd 31f0 3e3d
00000200: 6030 a3bd 6a5f cabd b845 4bbd 1e43 e0bd
00000210: 568f 463e ccaf 40be 97a4 94bd 7627 89be
00000220: 1fb4 34be c423 ca3d e381 54bd 0260 ecbd
00000230: 81a3 31be fe43 7fbe f109 61bd 19ae 85bd
00000240: 7f17 e4bd f777 debc 4d90 583e 82bc 2c3e
00000250: 39b0 8a3b 2c06 80bc 3af9 0b3d e256 b8bc
00000260: d558 2cbe 7467 183d 04f5 0fbe 4acc 94bd
00000270: ef0b 09be 58f3 4bbe c23a fc3c effb d6bc
00000280: a9cd 703c 2c4e 1abd 46a3 10be c7ef 21be
00000290: 19d5 9cbd 5b19 06be 0a44 183f 1c59 61bd
000002a0: e1a5 aebd 1aae db3e 9d7f 13bc 759d 9dbe
000002b0: a711 e9bd 1a8d 163e f696 ad3d 8e46 47be
000002c0: c2f2 9d3c 64dd 94bd 192f bc3e 8bdd 1c3f
000002d0: 93f7 5f3d b5a9 0a3f 795e 94bd 327c 13bc
000002e0: d4f9 583d 915e 3dbe ec5f dd3c 32d3 d5bc
000002f0: 52bb 63bd a007 cebd b15d c13b 8d96 9bbe
00000300: 983b bf3d 2ca1 593e 3db0 41bd 9f8e abbc
00000310: f214 e6bd b0a7 16be d22d c6bb d1d6 83bc
00000320: b2f9 19bc 4293 03be 1298 0f3f 420f 983d
00000330: 1c55 e0bb 7910 96bd 5b4e f1bd 01d8 9bbd
00000340: f2a4 c93e 4a13 023a 6ece acbd 7252 f1bd
00000350: 6521 33bd 36ce c7bc 9b2f 50bd f6fb 0c3e
00000360: 80ed a33e 008c 01be 0acd a13e d693 85bd
00000370: b39c 07be 54ed 25bd a191 dbbd 5884 1bbd
00000380: 6a77 a4bd 90c0 fb3e f1f4 c63e ffd6 843e
00000390: 8f02 1ebc 6b82 9cbd aabf 03be 0ec6 2fbd
000003a0: 5d0c 413c bd5e 05be 98af 0abe 9d4c 263d
000003b0: d16c 363c f529 bcbd 9c0a 85bd 197c 5ebe
000003c0: 9023 2fbd 1049 babd fb60 12be b5d3 11bd
000003d0: 632e 01be 5b4f dcbd 287f bcbc a6a1 c9bd
000003e0: 9478 89bd 0031 afbd b037 04be d13f 2ebe
000003f0: 974b e8bd 4b44 6f3e 14d3 e33e a822 b83e
-0.07201382 0.50830543 -0.03291248 -0.1563772 -0.106314205 -0.056909554 -0.09072294 -0.048611104
-0.06225468 0.4421113 -0.09249745 -0.05969975 -0.020940192 -0.026397903 -0.04667334 0.04949927
0.28726926 0.4416284 -0.045244582 0.12639117 0.031294115 -0.014810393 -0.016652469 0.36597013
-0.11417771 -0.046480592 0.17410757 -0.076615095 -0.03552994 -0.061139703 -0.065803744 -0.11547637
-0.049811088 -0.05754943 -0.089646876 -0.08216785 -0.11287502 -0.08728864 -0.11658351 0.3767561
-0.13323095 -0.0841311 0.4971251 -0.06927535 -0.07369696 0.3209901 -0.055599876 -0.08264019
0.12203179 0.10970861 -0.115880266 -0.06854977 0.5360647 -0.04090096 -0.03296289 -0.099193595
-0.080277994 -0.0675944 -0.050137807 -0.008170079 -0.01762201 -0.10028718 -0.064236395 -0.09521736
-0.054877676 -0.07062139 0.13130105 -0.22211006 -0.104256675 0.050487295 -0.15974061 0.08781697
0.029276654 -0.08682649 -0.058006614 -0.015467635 0.05030569 -0.02605742 0.36181703 -0.09376796
-0.027735924 -0.023810303 -0.15075281 0.10423586 0.5357636 -0.055368293 0.16295624 0.02984832
-0.15929213 0.33033538 -0.119991474 0.0019094595 0.22210482 0.0264439 0.49854213 -0.15806074
0.5309675 -0.078001104 -0.049886245 -0.05385665 -0.172043 -0.17364985 0.09020642 -0.08081924
-0.18447268 -0.23715436 -0.027299963 0.060388282 -0.024033437 -0.08531815 -0.088237084 0.034786373
0.05570678 -0.12091234 -0.21947448 -0.25498632 -0.018260295 -0.22336294 0.03335319 0.09505638
-0.12307306 0.022430781 0.46076518 0.05266066 -0.02689738 -0.012243287 -0.04321477 0.046615783
-0.07968211 -0.0988148 -0.049627036 -0.109503016 0.19390616 -0.18817061 -0.072579555 -0.2678792
-0.17646836 0.09870103 -0.051881682 -0.115417495 -0.17347528 -0.2492828 -0.05494112 -0.06527347
-0.11137294 -0.027156813 0.21148796 0.16868785 0.004232433 -0.015627943 0.034173228 -0.022502366
-0.16830762 0.037208036 -0.1405831 -0.072655275 -0.13383459 -0.19917047 0.030789737 -0.026243178
0.014697471 -0.037672207 -0.14124784 -0.15814124 -0.07657833 -0.1309561 0.5947882 -0.055016622
-0.08527733 0.42906266 -0.009002593 -0.30784193 -0.1138032 0.14702263 0.08476059 -0.19460508
0.019280795 -0.072687894 0.36754683 0.6127555 0.054679465 0.541652 -0.07244582 -0.009001778
0.05297263 -0.18493105 0.027023278 -0.026101682 -0.055598564 -0.10060048 0.0059010615 -0.303883
0.093375385 0.21252888 -0.047287215 -0.02094203 -0.11234464 -0.14712405 -0.0060479427 -0.016093643
-0.009397911 -0.12849143 0.56091416 0.07424785 -0.0068460833 -0.07327361 -0.11782523 -0.07609559
0.39383656 0.0004961981 -0.08437811 -0.11783303 -0.04373302 -0.024390321 -0.05082665 0.1376799
0.32017136 -0.12651062 0.31601745 -0.06522338 -0.1324337 -0.040509537 -0.10721136 -0.03796801
-0.08030589 0.4917035 0.3885875 0.2594528 -0.009644165 -0.07642063 -0.12866083 -0.04291349
0.011782733 -0.13024421 -0.13543546 0.040600408 0.011134342 -0.0918769 -0.06496164 -0.21727027
-0.042758524 -0.09095967 -0.14294808 -0.03560229 -0.12615351 -0.10757323 -0.023009852 -0.09845285
-0.067124516 -0.08554268 -0.12911868 -0.17016532 -0.113425426 0.23365895 0.44496977 0.3596394

top_layer.bias f4 [10]
00000000: e240 31bb 883b d23b 9575 a63b 9dc3 87bb
00000010: 55e4 0bbc 96d6 ed3b 9834 dabc 5643 343d
00000020: 61d0 5dbc 3e04 ecbb
-0.002704673 0.006415788 0.005079935 -0.004143192 -0.008538325 0.0072582467 -0.026636407 0.04400953
-0.013538451 -0.007202654

momentum_buffer f4 [16, 1, 3, 3]
00000000: b255 b7bb a7ef 63bd 4e7f 3bbd 8c98 a8bc
00000010: ab83 04bd e8c5 fcbc 74a7 b63b ec6b a1bc
00000020: bc84 9bbb 80c5 53bd 65f2 1ebd 4e9f 323c
00000030: f0fc fdba e413 ea3b 5066 313d 236a cabc
00000040: 6af4 babc eadf d73c 6ab9 8d3b 200b 953b
00000050: e2c8 a93c fa9c c3bb 00b0 2a3a bad2 b13c
00000060: 4df9 20bb d073 2a3b 1864 053c e0fd b7bb
00000070: b937 b1bc 149a 75bd 2e1e 03bd 6a09 6dbd
00000080: f6ce b3bd 7e3e 54bd 4a90 74bd ada9 8abd
00000090: 8528 a43d f093 3d3d 5812 8dbc dd70 503d
000000a0: f01e 6d3d ba37 b33c 184e 5b3b 66aa 143c
000000b0: e83c c0ba d5cf b5bd c0bf 34bd aa30 38bd
000000c0: 86e5 8dbd 3232 7dbc 61ca 45bc efee 58bc
000000d0: ce64 0abc d0b8 e7bb 2fef 17be 1bbd ffbd
000000e0: 1653 b1bd b539 b6bd d6b5 4fbd 6821 cabc
000000f0: cb8a 6cbd 98b7 a6bc a8a2 e5bc 60ce c23b
00000100: 753f 4dbc 3c0b 0ebd 902b ffbb 7f5b 02bc
00000110: c6d7 91bc ca04 00bd 74dc cdbc e0e3 5abc
00000120: 3d16 363d cc5e 293d 1eed aa3c 4a31 7bbc
00000130: 07bd 22bc 0eaf 36bc c870 bebd 29af 73bd
00000140: 80c8 93bd ab42 f43b 9849 d73a 60b5 6a3a
00000150: 2a1d ca3b b88e 973c 6003 353d 8c68 483d
00000160: 1d94 993d 40b1 713d cc29 74bd ca4e cf3c
00000170: b94e 6c3d cb96 febc 2098 633d e455 6b3d
00000180: 4456 d23c 70c8 783d ff75 363d 4c66 193c
00000190: b923 163d c4e8 c33c bfd4 2e3d 09fe 883d
000001a0: 82ed 8b3d b8e4 403c a840 953c 1225 143c
000001b0: abbc 473d 0688 873d 2712 af3d 2157 dc3c
000001c0: d7a0 5a3c 5af0 243d a354 d43c 141b c13c
000001d0: ab80 4a3d 96e6 eabc 58dc b4bc b1f9 b5ba
000001e0: 9666 073d 527e 733c ffc0 923c 3352 d23c
000001f0: 5259 3cbb e80d 463c 724b 753c 9455 bd3c
00000200: 1919 883c 835b 5b3c fc8c 003d 4b0a b03b
00000210: a20a 363c ac3b 423c 1430 99bc cc89 f23c
00000220: 239e 813b 1984 52bc 0124 b23c a6a5 e3bc
00000230: 4ed7 6cbc b429 013c f61b fdbc d017 dcbb
-0.0055949325 -0.055648472 -0.045775704 -0.020580553 -0.03235213 -0.030856088 0.005574161 -0.019704781
-0.004746048 -0.051702023 -0.038805384 0.010902239 -0.0019377749 0.0071434844 0.043310463 -0.024708813
-0.022821624 0.026351888 0.0043250816 0.0045484453 0.020725671 -0.005969641 0.00065112114 0.021706928
-0.0024562657 0.002600897 0.00814154 -0.005614981 -0.021633016 -0.059961393 -0.032011203 -0.057870306
-0.08779709 -0.05181741 -0.059707917 -0.06770644 0.08015541 0.046283662 -0.017220661 0.050888885
0.057890832 0.021877158 0.0033463296 0.009073829 -0.0014666589 -0.088775314 -0.04412818 -0.044968285
-0.06928544 -0.015453862 -0.012072177 -0.01324056 -0.008446885 -0.007071592 -0.14837335 -0.12487241
-0.086584255 -0.088977255 -0.05071052 -0.024674132 -0.05774955 -0.020351216 -0.028031662 0.005945012
-0.012527336 -0.034678683 -0.0077871755 -0.007956385 -0.017803084 -0.031254567 -0.025129534 -0.013359994
0.0444548 0.04135017 0.02086502 -0.015331576 -0.009932763 -0.011150135 -0.09298855 -0.059493218
-0.07215977 0.0074542365 0.0016425131 0.00089534186 0.0061680274 0.01850067 0.04419267 0.04892783
0.074989535 0.05900693 -0.059610173 0.025306124 0.057692263 -0.031077763 0.055565 0.05745496
0.0256759 0.060738027 0.044546124 0.009362768 0.03665516 0.023914702 0.04268336 0.06689078
0.068324104 0.011773281 0.018219307 0.009042041 0.048763912 0.06617741 0.08548384 0.026897015
0.013344011 0.04026828 0.025919264 0.023572482 0.049439114 -0.028674405 -0.022077724 -0.0013883618
0.033056818 0.01486166 0.017914293 0.025673961 -0.0028739762 0.012088276 0.014971601 0.023112096
0.01661353 0.013388517 0.031384453 0.005372321 0.0111109335 0.011855047 -0.018699683 0.029606722
0.003955619 -0.012848877 0.021745684 -0.027788948 -0.0144556295 0.007883478 -0.030897122 -0.006716706

momentum_buffer f4 [16]
00000000: 1e67 beb6 5e54 e536 b4e9 8d37 c632 de37
00000010: 6f86 fa37 4582 dab7 7449 0a37 d690 6cb7
00000020: e79a 72b6 28c7 cdb7 f92c fa37 699f c9b7
00000030: 65c2 9237 3834 4037 acf2 3137 ab61 94b7
-5.6744457e-06 6.8345535e-06 1.6917336e-05 2.6488106e-05 2.9864923e-05 -2.6048287e-05 8.242543e-06 -1.4100418e-05
-3.6150975e-06 -2.4530644e-05 2.9823264e-05 -2.4035298e-05 1.7495078e-05 1.145625e-05 1.0606524e-05 -1.7688455e-05

momentum_buffer f4 [16]
00000000: ea04 f9bc 61e2 b0bd 1b3b 803d 11c2 44bd
00000010: e46b 8fbe 756b 45bd 5e96 e6bd d520 24be
00000020: 6642 bdbc fac2 0cbc 8d10 e9bd 95db ba3d
00000030: 37e9 923c b530 5b3d ea0a 6b3d 4283 bd3d
-0.030397851 -0.08636928 0.062612735 -0.04803664 -0.28012002 -0.048198182 -0.11259149 -0.1602815
-0.02310295 -0.008591408 -0.1138011 0.09123913 0.017933471 0.053513248 0.057383455 0.09253551

momentum_buffer f4 [16]
00000000: c2a2 01bd 4a19 4abd 3680 0c3e 2744 0bbd
00000010: 6524 bdbd 4c70 80bd 3b06 afbd b7bb 8bbd
00000020: d073 2dbd 7f79 42bd aab3 11bd a63c 233e
00000030: 1799 e4bc 5020 ae3d 5a83 8d3d 7862 593e
-0.03164936 -0.049340524 0.13720784 -0.034000542 -0.09235457 -0.06271419 -0.0854611 -0.06822913
-0.042346776 -0.04747915 -0.03557173 0.15941104 -0.02790503 0.08502257 0.06909819 0.21228969

momentum_buffer f4 [32, 16, 3, 3]
00000000: fcb9 9a39 628a 653a 3eff 1e3a 5021 fe38
00000010: 542a 4b3a bd76 983a 8c29 2bba b07d 1039
00000020: 9e54 293a aa51 d039 3036 7439 a88b 84b9
00000030: 1ba1 ae39 38b0 fd39 5060 53b8 cd7e 743a
00000040: 7e3f 3c3a 27d0 f73a 4075 56bb 50dd d3ba
00000050: b8bd 603b 006e 2739 8cc9 d03a ee48 ba3b
00000060: d2de 883b 0522 9d3b 1922 b53b d0d8 02bb
00000070: 9efa 5fba 25b4 293b e098 54bb a87a 0abb
00000080: 546b c0ba 58e9 80bb 3c6b 43bb 6ae3 7bbb
00000090: 0e07 283a b4c4 cf3a 08d7 e739 e0b4 6d38
000000a0: b567 ce3a b7ae 353a e1c7 f6b9 5872 8f3a
000000b0: 24bf 533a 6087 bf39 4bc8 daba 5481 c1ba
000000c0: 2058 a0ba 28e7 793a 2bdb 4f3b 8f86 e03a
000000d0: c656 523b ae63 a93a da96 a739 91a7 ea3a
000000e0: 1ab8 2a3a 5485 f439 b143 a03a c1bc 8039
000000f0: a061 913a faa7 513a d45a 473a e871 cbb9
00000100: 94fb 9b3a 96f5 6a3a e124 46bb 2405 e939
00000110: 766b f239 3446 dfba 5205 6139 7458 b8b8
00000120: c82b e93a d862 7e3a 3825 573a 0beb 043b
00000130: 20d8 c83a 00bb c536 78c8 09bb 8038 bdb7
00000140: 6093 e838 56b8 4ebb 56a8 0fbb 6f4a 04bb
00000150: 8be6 feba 420d 29bb 99f1 a53a fa6d efba
00000160: c015 d737 50e0 1ab8 9407 70bb b861 5b3b
00000170: c478 2fba 600c 2bb9 a051 ca39 3e71 853a
00000180: 9a3f ae3a 8ba7 8b3a e8fa d43a 41d5 75bc
00000190: 241e 3abc 8fdc c1bb b0e6 4abc 7609 02bc
000001a0: 6556 26bc 2046 2b3b 40e9 25b8 2b85 f83b
000001b0: 287b 9a3a 244c 8339 0852 cbba 8d00 8339
000001c0: 52d3 863a 1efe deba 30a9 193a 355b 2f3a
000001d0: 4914 623a d677 9bbb c0ff 0fba 7c63 853a
000001e0: e74d 363b cd19 d13b 67f2 b83b cdfd 683c
000001f0: 5c28 873c b4c6 963c bda1 04bc 8609 71bb
00000200: 4cda 543a 8043 56ba daa0 743b a9cd eb3b
00000210: 2519 e13b f76e 283c 666a 3e3c ed67 93bc
00000220: d00f ab3a f08a 5ebb 37e5 2cbc ff67 8e3a
00000230: 6625 d9ba 1fc5 9ebb c307 d13b 9880 0f3b
00000240: 76d7 1f3c 5e28 483c aa19 92bb 648c 523c
00000250: 6081 a73b 2415 e73a 5450 e03b 9c65 903b
00000260: be24 a53b 5be5 f33b 8377 893a 20d3 c63b
00000270: 845f b73b d3fb 9b3b df67 bd3b caad 183c
00000280: 824b d03b 6a05 e13b f4bc 99b9 1e78 f2bb
00000290: 335e 54bc 5099 3338 661e e2bb 6e7f 55bc
000002a0: 1496 2bba ef18 0dbb c60b e2bb 27ac d13b
000002b0: 45be a63b 0736 b03b ac72 bb3b 85ae ec3b
000002c0: 8565 5b3c 5cbd 9539 ac44 b43a 8add 2a3b
000002d0: bc58 013d b96f 6d3c 0ce7 9a3b 7ee4 e83c
000002e0: 34db b83c 2843 3e3c 5f63 6d3c 854a a03c
000002f0: 5cad 2b3c c8aa 2fba a811 15bb 371f 49bb
00000300: 9285 e83b 8ca7 123b 1c69 15ba 9c74 1fba
00000310: 954e e7bb 6674 d53a ce00 373a 64e0 ec3b
00000320: d027 a53b e143 cfb9 5a0b 11bc 45df 09bc
00000330: 8d94 70bb 7295 46bb ce75 9dbb d6bb cd3c
00000340: 095b da3c d212 403c 8269 b63c 3717 df3c
00000350: 182f fa3b 55f5 3c3c 5c37 323c 6e89 b63b
00000360: 957b 5d3b 3364 943c 455f a73c 1084 b43b
00000370: a113 683c 0e06 da3a 8a0e 3b3c d95c 36bc
00000380: 317f ef3b b865 4c3b 5cfe 693b d8a2 ebba
00000390: c947 733b 411b 153b f6e5 40bb 7d69 ba3b
000003a0: a2ec e83a c260 91bb 421e 35bd c8f4 3bbb
000003b0: c2d0 c33c 3a11 21bd 2c5d 19bc a7aa ad3c
000003c0: 3824 eebc dd90 4abc 72a5 013c e22f bdbb
000003d0: 7853 c6bb d4c2 4cbb b8cb 13bb 4723 59bc
000003e0: 51a0 52bc 908d 78b9 76aa c2bb 7c72 8abc
000003f0: d046 05bc a0d6 923a 18e7 973b 6b7a 4d3b
0.00029511738 0.00087562774 0.0006065256 0.00012117869 0.0007750143 0.0011632066 -0.0006529323 0.00013779732
0.00064594473 0.00039733696 0.0002328984 -0.00025281054 0.000333079 0.00048387214 -5.039602e-05 0.0009326756
0.0007181092 0.0018906639 -0.0032723695 -0.0016163979 0.0034292769 0.0001596734 0.0015929206 0.0056849634
0.004176953 0.004795315 0.0055277464 -0.0019965656 -0.000854412 0.0025894728 -0.0032439753 -0.0021130238
-0.0014680424 -0.0039340667 -0.0029818555 -0.003843511 0.00064097426 0.0015851469 0.00044219964 5.6673656e-05
0.001574746 0.00069306366 -0.00047069698 0.0010944111 0.00080774934 0.0003653122 -0.0016691772 -0.0014763274
-0.0012233295 0.0009533041 0.0031716328 0.0017129945 0.0032095178 0.0012923384 0.00031965115 0.0017902722
0.00065124186 0.00046638644 0.0012227205 0.00024554695 0.0011091717 0.0007997748 0.0007604782 -0.00038804044
0.0011900538 0.0008962987 -0.0030234384 0.00044445053 0.00046237902 -0.0017034472 0.00021459654 -8.7902794e-05
0.0017789537 0.000970406 0.0008207145 0.0020281698 0.0015323199 5.892827e-06 -0.002102403 -2.2556866e-05
0.00011090073 -0.0031542978 -0.0021920404 -0.0020185967 -0.0019447369 -0.0025795256 0.0012660503 -0.0018267028
2.5640125e-05 -3.692537e-05 -0.003662561 0.0033474993 -0.00066937157 -0.00016312441 0.00038589258 0.0010180844
0.0013294101 0.001065479 0.0016249092 -0.015004457 -0.011359725 -0.005916185 -0.012384102 -0.007936826
-0.010152434 0.0026134327 -3.9556297e-05 0.0075842342 0.0011785971 0.00025042996 -0.0015512118 0.00024986677
0.0010286367 -0.0017012989 0.0005861698 0.0006689311 0.00086242385 -0.00474451 -0.0005493127 0.0010176743
0.002781743 0.0063812495 0.005644131 0.014220667 0.016498737 0.018405296 -0.008095202 -0.0036779358
0.0008119687 -0.00081735104 0.003732732 0.0071961475 0.0068694525 0.010280362 0.011622047 -0.017993892
0.0013050977 -0.0033957325 -0.010552696 0.0010864733 -0.0016566932 -0.004845276 0.006379099 0.0021896716
0.00975596 0.012216656 -0.004458626 0.012850855 0.0051118582 0.0017630202 0.0068455134 0.004406644
0.0050397804 0.007443113 0.0010487888 0.0060676485 0.005596103 0.0047602444 0.0057802047 0.009318778
0.0063566575 0.0068671005 -0.00029323215 -0.007399573 -0.012961912 4.281971e-05 -0.0069005964 -0.01303087
-0.00065454957 -0.0021529754 -0.006898376 0.006398696 0.0050886 0.0053775343 0.005720457 0.007222953
0.013390903 0.00028560578 0.0013753376 0.002607199 0.031578764 0.014491969 0.00472725 0.028429266
0.022565462 0.011612691 0.014489024 0.019566784 0.010478344 -0.00067011686 -0.002274612 -0.0030688772
0.007096001 0.0022377698 -0.00056995614 -0.0006082745 -0.0070589283 0.00162853 0.0006981016 0.007228898
0.0050401464 -0.0003953269 -0.008852804 -0.008415048 -0.0036709637 -0.0030301479 -0.004805303 0.025113981
0.026654737 0.011723237 0.022267107 0.02723275 0.0076350085 0.011533101 0.0108774565 0.005570582
0.0033795584 0.018114185 0.02043117 0.005508907 0.014164836 0.0016633885 0.011417041 -0.011130535
0.0073088636 0.0031188559 0.0035704589 -0.0017977608 0.0037121645 0.002275184 -0.0029433942 0.0056888447
0.0017770717 -0.0044365833 -0.04421831 -0.0028679837 0.023903254 -0.03932307 -0.009360593 0.021199537
-0.029070005 -0.01236364 0.00791298 -0.0057735303 -0.0060524307 -0.0031244056 -0.0022551846 -0.01325304
-0.012855605 -0.00023703859 -0.0059407307 -0.016900294 -0.008134559 0.0011202879 0.004635703 0.0031353484

momentum_buffer f4 [32]
00000000: 1323 0b36 f961 8a36 04b5 fab6 9a7b bfb6
00000010: 0f01 04b7 0540 8036 0ab7 cd36 1608 04b7
00000020: a0ed 1136 7a29 dc35 db04 93b6 d6a2 f635
00000030: 9545 d336 1dbf 0637 0f52 7136 fc1f deb5
00000040: 00d3 9cb6 6ee3 4fb6 cdf4 bc33 bb92 14b5
00000050: 74e6 c736 8962 f8b6 eb38 4335 0d34 2eb6
00000060: 07e0 3a35 311d 0437 3788 8834 4f06 bdb5
00000070: f904 3ab6 cda2 08b7 88fa f9b6 737a 7036
2.073303e-06 4.124126e-06 -7.4716536e-06 -5.7066327e-06 -7.86806e-06 3.82215e-06 6.1307846e-06 -7.869696e-06
2.1745e-06 1.6403349e-06 -4.3815066e-06 1.837582e-06 6.2963904e-06 8.031519e-06 3.5959563e-06 -1.6549598e-06
-4.673726e-06 -3.0977785e-06 8.798961e-08 -5.534782e-07 5.9574904e-06 -7.402447e-06 7.272599e-07 -2.5958318e-06
6.96164e-07 7.87461e-06 2.5431083e-07 -1.4083433e-06 -2.7719054e-06 -8.144137e-06 -7.449944e-06 3.5834062e-06

momentum_buffer f4 [32]
00000000: e4b2 8a3c 5be0 583d db1b 22bd ecd1 5d3d
00000010: 5d98 323d 3be2 dbbd 27a9 c03d f386 d6bc
00000020: 0046 b9b9 9762 27bd 2d17 0b3d 8586 0f3e
00000030: 4aa0 f5bc c009 cbbb 415e 50bd c572 86bc
00000040: 2247 243c 02ae 4bbc 65b8 a3bd 9ca0 1a3d
00000050: 80ab 6bb9 d281 15bd 6cf5 d23c 9c9d d4bd
00000060: 83ab 863d 06a1 c13d a24b e93c 5a13 25bd
00000070: 366b fbbc e0dd a23d 4ea6 6b3d 5cb3 1c3c
0.016931005 0.052948337 -0.039577346 0.054155275 0.043602336 -0.107365094 0.09407263 -0.026187396
-0.00035338104 -0.040865507 0.03395765 0.14016159 -0.029983658 -0.0061962306 -0.050871138 -0.016412148
0.010026725 -0.012431623 -0.07994155 0.037750825 -0.00022475235 -0.03650076 0.025751792 -0.10381624
0.06575682 0.09454541 0.028478447 -0.04030166 -0.03069077 0.079524755 0.057531647 0.009564247

momentum_buffer f4 [32]
00000000: b42f c33c 2c43 e73c 8d48 17bd c27b 4b3d
00000010: e510 df3c 523b 51bd 496a 6a3d e780 99bc
00000020: 8026 2dba 1433 cbbb e6e7 163d 243d 9f3d
00000030: 6a2b cdbc 2400 2dbc 08a9 96bd b28c 9f3b
00000040: 0eac 353c 301e 14bb 649e 20bd 0d5b 543d
00000050: 1568 0abb b296 abbc 2e2b 2d3c 9417 55bd
00000060: e1e6 863d 95c0 823d ef7f c93c 7201 61bd
00000070: d6f6 aabc 4d1b 6e3d e43b 6e3d 0210 a03c
0.023826458 0.028230272 -0.036934424 0.04967857 0.027229736 -0.051081963 0.057230268 -0.018738223
-0.0006605163 -0.0062011573 0.03684225 0.077753335 -0.025045116 -0.010559116 -0.07356459 0.004869067
0.011088384 -0.0022601 -0.039213553 0.051844645 -0.0021119167 -0.02094588 0.010569377 -0.05202444
0.065870054 0.06384388 0.024597136 -0.05493302 -0.020869654 0.058131505 0.058162585 0.019538883
