deepcluster_implementation/experiments/run_label_fraction_variation/config_4/checkpoints/checkpoint_epoch_10.pth.tar (torch, 203741 bytes, 32 tensors)

features.module.0.weight f4 [16, 1, 3, 3]
000000 f2 82 8a 3f f3 ac 32 3d b6 90 0b bf fd 68 16 be
       1.0821211 0.04362197 -0.54517686 -0.14688487
000010 f0 f1 13 3f ad 50 80 be 93 f4 52 bf 8a c0 9a 3d
       0.5779104 -0.2506155 -0.8240444 0.07556255
000020 a5 a1 83 3f d6 cd 05 3f 4e b2 0e 3e 37 99 41 3f
       1.0283705 0.52267206 0.13935205 0.7562441
000030 c1 ef 69 bf 66 58 21 bf fc 6e 45 3e 72 77 2e 3e
       -0.9138146 -0.6302551 0.19280618 0.17037752
000040 6f 19 da 3e 59 7f 12 3f 01 1e 1d bf 5e 12 fd be
       0.4259753 0.5722557 -0.6137391 -0.49428076
000050 77 6e 1d bf 22 21 91 be bd 4b 04 3f 7c 0f 4b 3e
       -0.6149668 -0.2834559 0.5167807 0.19830126
000060 d4 a3 43 bf d2 1b 7b be 79 64 c3 3e 78 d5 8f bf
       -0.76421857 -0.24522331 0.38162592 -1.123702
000070 c9 80 6b be dd 16 52 bf 85 0f 80 bd 7b b1 e6 3d
       -0.22998346 -0.82066137 -0.0625296 0.112643205
000080 e6 ca 79 be 46 92 1f 3f 1f 54 01 3e e7 95 28 3f
       -0.24393806 0.6233257 0.12629746 0.6585373
000090 a8 25 36 3f 60 7f 34 3d 5a 54 36 3f fc 2d b2 3b
       0.7115121 0.044066787 0.7122246 0.0054376107
0000a0 59 3e 64 bf 76 38 2d be 37 48 45 3f ba cd 8d bc
       -0.89157635 -0.1691607 0.77063316 -0.017310012
0000b0 39 a3 4c 3f f7 4b 68 3e 5d 6f 33 3e 47 52 de 3d
       0.7993656 0.22685228 0.1752295 0.10855537
0000c0 fd c6 75 be 71 17 06 3f 25 6b 4b bf aa 21 58 bf
       -0.2400169 0.5237952 -0.79460365 -0.8442637
0000d0 f0 88 23 bf 12 f5 75 bf 70 31 be 3e bd 88 a5 3c
       -0.63880825 -0.9607707 0.37147093 0.020206803
0000e0 56 db e5 3e 74 0d d0 be 26 50 03 3f 59 4c bb 3e
       0.44893903 -0.40635264 0.5129417 0.36581686
0000f0 59 37 72 bf af e6 8f be 3b 3c 88 bf f1 ca d8 3e
       -0.94615704 -0.28105685 -1.0643381 0.42342332
000100 32 61 64 bb 93 09 5e bf 79 60 ef 3e 20 d9 91 be
       -0.0034847972 -0.8673336 0.4675329 -0.28485966
000110 52 c4 82 be 38 48 15 3f 7a 3e 8e 3e aa 3b 98 3f
       -0.25540406 0.5831332 0.2778204 1.1893208
000120 f5 ad 61 3f 4c 06 3a be 8e 00 8a bf f7 57 2d bf
       0.8815606 -0.18166465 -1.0781419 -0.6771235
000130 5d 83 d9 be a5 fc 84 be f1 1b 56 3e e0 fe 89 3d
       -0.42483035 -0.25974002 0.20909096 0.06738067
000140 ba ba c1 3d a0 b8 59 bf 16 ba f8 be c0 eb 4e be
       0.094594434 -0.8504734 -0.48579472 -0.20207119
000150 b8 97 a6 be e3 99 03 3e 91 25 c4 3c 84 bf 15 bf
       -0.32537627 0.12851672 0.023943694 -0.58495355
000160 14 3f 6a be 13 c2 5e 3f ad f0 40 be f5 50 49 bf
       -0.22875625 0.87014884 -0.1884181 -0.78639156
000170 59 e8 7b 3f 8e 29 a5 3d 06 33 4f bf 2d dc f2 3e
       0.9840141 0.080645666 -0.8093723 0.47433606
000180 02 db 8d 3f 29 04 4b bf 13 0d 99 be b6 af 4a bf
       1.1082461 -0.7930322 -0.29892787 -0.79174364
000190 8e d9 2a 3d 20 4d 01 3e 47 14 8b be e6 4f aa 3d
       0.041711383 0.12627077 -0.27163908 0.08316021
0001a0 b8 b6 9c 3e 11 2e b2 be 36 4f 9a be 6a 61 7a bf
       0.30608153 -0.3480077 -0.30138558 -0.9780489
0001b0 89 ef 89 bf 6b 48 fb 3e 9a 1b 1f 3f b4 51 b4 be
       -1.0776225 0.49078688 0.6215149 -0.35218585
0001c0 4e 62 8f bd 0d bf aa be 2d 15 f3 be c1 26 9b be
       -0.07001172 -0.33348885 -0.47477093 -0.30303004
0001d0 b3 ee ac 3e 32 64 67 be 34 ab 10 be 24 03 39 bf
       0.33775863 -0.22596815 -0.14127809 -0.7227042
0001e0 b3 94 b4 3e e3 e2 09 3e a8 61 82 3d 58 0b 94 be
       0.35269699 0.13465457 0.06366283 -0.28914905
0001f0 17 6e 43 bd 9c dc 5d bf f4 ca 65 bf e1 c2 e8 bd
       -0.04771241 -0.8666475 -0.89762807 -0.11365295
000200 27 4a 5e be 17 17 53 3d 1a 72 5d 3f e8 17 24 3f
       -0.21707974 0.051535692 0.8650223 0.6409898
000210 fe 76 93 bf c0 cb 41 bf da f6 a5 be 1d 46 06 bf
       -1.1520689 -0.7570152 -0.32414895 -0.52450734
000220 f5 0d 34 bf f2 c3 81 bf 38 1c 85 3e 35 87 f1 3e
       -0.70333797 -1.0137923 0.25998092 0.47173467
000230 a2 f4 23 bf b4 eb 1c 3f 89 25 b8 3e 6c 7f 31 bf
       -0.64045155 0.61297154 0.35966137 -0.69335055

features.module.0.bias f4 [16]
000000 31 d0 62 bd 03 2e 89 3d 72 86 29 3e 5d 8c 84 3e
       -0.055374328 0.06698229 0.16555193 0.2588834
000010 a0 92 95 3e c0 30 82 be bf 49 a5 3d 95 3e 0d be
       0.29213428 -0.25427818 0.080707066 -0.13793404
000020 d3 f1 0f bd 9d ca 75 be 58 8e 95 3e e5 04 71 be
       -0.03514273 -0.24003072 0.29210162 -0.23537023
000030 41 80 2f 3e ea cf e6 3d d1 6b d5 3d c0 8a 31 be
       0.17138769 0.11270125 0.10420955 -0.17338085

features.module.1.weight f4 [16]
000000 0a 43 4b 3f 9a a0 5a 3f 5c 03 dc 3f 97 82 30 3f
       0.7939917 0.8540131 1.7188525 0.68949264
000010 f0 c9 20 3f 26 f6 f0 3f f3 07 5c 3f ec 08 5d 3f
       0.6280813 1.8825119 0.8594963 0.8634174
000020 fd 78 bf 3f 83 34 83 3f e9 1c ed 3e a1 35 17 40
       1.4958798 1.02504 0.4631112 2.3626482
000030 20 b5 81 3f 0e 07 f5 3f 0d 43 95 3f 2d 29 af 3f
       1.01334 1.9142778 1.1661087 1.3684441

features.module.1.bias f4 [16]
000000 89 02 b4 bf 22 fd b3 bf d3 cd fc be a9 c6 1f be
       -1.4063274 -1.4061625 -0.4937578 -0.15603127
000010 5f 31 14 bf 4a 7b 37 bf c1 8d f8 be 9f 83 bc bf
       -0.57887834 -0.716725 -0.4854565 -1.4727668
000020 71 53 37 bf 96 38 9d be 3e c4 b6 bd 7f 91 7c bf
       -0.71611696 -0.30707234 -0.08924149 -0.9865951
000030 19 2d b8 be 56 fd db be 6f 11 67 be 44 fd dd be
       -0.35971907 -0.42966717 -0.22565244 -0.4335729

features.module.1.running_mean f4 [16]
000000 68 d4 19 bd e8 0f 01 3e 4c c0 d7 3d f4 86 6e 3e
       -0.037556082 0.12603724 0.105347246 0.23293668
000010 98 8c c2 3e 48 24 a4 be 58 09 28 3d f2 b0 b7 bd
       0.3799789 -0.3205893 0.041024536 -0.089692965
000020 de 26 48 bd 62 ee 8e be ea 41 a6 3e ca 68 99 be
       -0.04886519 -0.27916247 0.32472163 -0.2996276
000030 43 48 15 3e 25 94 54 3d 41 ea c7 3c d0 2e 6f be
       0.14578347 0.051899094 0.024403693 -0.23357701

features.module.1.running_var f4 [16]
000000 6a 8e ad 3f 7c 0d cd 3f 92 de 40 40 24 44 29 40
       1.3559086 1.601974 3.0135846 2.644784
000010 c2 ff 07 40 9a 1a a6 40 e0 00 05 40 e8 c8 2d 40
       2.1249852 5.1907473 2.0781784 2.7153873
000020 54 0c 20 40 91 b1 62 40 cc 21 58 3f 40 d6 3f 40
       2.5007524 3.5420878 0.8442657 2.9974518
000030 3f 3a f7 3f 86 1c 07 40 ee 03 38 40 af c0 80 40
       1.931465 2.111116 2.8752398 4.023521

features.module.4.weight f4 [32, 16, 3, 3]
000000 6d 8c e7 bd 83 dd c8 bd 98 b5 ed bd 6c 15 00 be
       -0.11306081 -0.09807875 -0.11606902 -0.12508172
000010 10 a1 24 bd 0c ac ed bd 80 68 09 be d3 62 82 bd
       -0.040192664 -0.11605081 -0.1341877 -0.063665055
000020 ea 45 04 be 4c 2d 14 be 9d 3e 0d be 9f 7d f1 bd
       -0.12917295 -0.14470404 -0.13793416 -0.117915384
000030 63 40 09 bd 1a 4a a2 bd 49 a9 c2 bd 4a df 81 bd
       -0.03350867 -0.0792429 -0.09504945 -0.06341417
000040 8c 28 18 be cd 32 da 3d 08 4f 33 bc ec 65 46 bd
       -0.14859217 0.10654221 -0.0109441355 -0.048437044
000050 6c e7 b9 3c 09 f0 39 bd bd 23 7c bc 00 6d 5e bc
       0.022693358 -0.04539493 -0.01538938 -0.013575792
000060 b7 15 79 3c 6a 08 06 bc 19 44 f0 bc 22 3f 08 3e
       0.015202931 -0.008180717 -0.029329346 0.13305333
000070 d4 b4 ba 3d a1 c9 bb 3d b0 07 a2 bd f1 90 3a bd
       0.091165215 0.09169317 -0.079116225 -0.045548383
000080 13 fd c7 3b de 2b 33 be 53 35 b8 bd 19 73 57 be
       0.006103167 -0.17497203 -0.08994546 -0.2104
000090 0e 80 f1 bd 14 58 2e be ea 87 1e be 3c 0e 05 3d
       -0.117920026 -0.17025787 -0.15481535 0.032484278
0000a0 b8 c3 d7 bd b6 bc fe bd 1d 7a 5f 3d 43 01 8b bd
       -0.10535377 -0.124383375 0.054559816 -0.0678735
0000b0 11 01 2e bd fe 80 f1 bb 7e 00 3d 3d 37 2f 1c bd
       -0.042481486 -0.0073701134 0.046143048 -0.038130965
0000c0 1d 9d b7 bd ca 06 8e bd 01 12 d3 bd 11 56 20 3a
       -0.08965514 -0.06934889 -0.10306168 0.00061163405
0000d0 31 4a 85 bd 40 55 06 3d 3e cf 0e be fb 17 9b bd
       -0.065082915 0.032796144 -0.13946244 -0.07572933
0000e0 ff f0 1f be db c0 17 be f4 0c 89 bd 2f c7 23 be
       -0.15619276 -0.14819662 -0.06691924 -0.15993951
0000f0 a3 d6 93 be 7e 17 d4 bd 18 0e 86 be a9 0d 59 3d
       -0.28874692 -0.10356043 -0.26182628 0.052991543
000100 11 b2 fb bd 4f 97 c3 bc c5 02 f9 3c 7e 48 67 bc
       -0.12289823 -0.02387586 0.030396828 -0.014116405
000110 4f 9f 04 be 30 fd f3 bd f0 e7 fa bd 77 17 9e bd
       -0.12951396 -0.11913526 -0.1225127 -0.07719319
000120 be 8b 99 be 3b 70 4e be 62 fb 25 be 04 90 db bd
       -0.29989427 -0.2016 -0.16209176 -0.10720828
000130 75 c9 be bd cf d6 e1 bd f9 b8 29 be e1 a1 f5 bd
       -0.09315769 -0.110272996 -0.16574468 -0.119937666
000140 d9 55 e5 bd 93 d4 81 bd 74 46 db 3c 45 14 59 3d
       -0.11198015 -0.063393734 0.026766993 0.052997846
000150 37 d4 25 bd 87 30 c0 3c d1 8d c3 3c 6e 7f 97 bd
       -0.040485587 0.02346064 0.023871334 -0.07397352
000160 11 10 6d bd 57 e2 74 bd fd 50 6f bd fc c3 cd 3a
       -0.05787665 -0.059786167 -0.058426846 0.0015698667
000170 ef 3e b2 bd a4 bc 11 bd 50 b3 cc 3c 9b 5b 35 3c
       -0.0870341 -0.035580292 0.024987847 0.011069204
000180 8e 53 5e be 4f 3d 09 bd d6 eb 1b bd 3b 27 04 bc
       -0.21711561 -0.033505734 -0.038066708 -0.008065994
000190 9e 24 00 bd 14 cd 9b bd cc 43 5c bc 7c 9b 9b bc
       -0.03128492 -0.07607475 -0.013443898 -0.01899504
0001a0 6f 7c 3e bd 97 a6 21 3c 99 53 e9 bc e0 ac c8 bc
       -0.046505388 0.009866378 -0.028482245 -0.024496496
0001b0 dc 6a 42 be 08 18 04 be 3f 74 28 be 05 f6 d3 bc
       -0.18986076 -0.12899792 -0.16450594 -0.025874147
0001c0 e4 80 c2 3d 37 d4 b5 3d 61 a9 85 bd 0e 4d 85 bc
       0.0949724 0.088783674 -0.06526447 -0.016272094
0001d0 f8 3d cc bc 9f 7d 9c 3b 1c ae 8b 3a 12 11 30 bb
       -0.024931893 0.0047757174 0.0010656747 -0.0026865643
0001e0 3c aa dc bc 6c 53 3e ba 73 e6 18 bd 5d 49 fa bb
       -0.026936643 -0.00072603556 -0.03732915 -0.00763814
0001f0 84 07 69 3c 7e 1d ba 3b 17 75 4e bc ba f8 06 bd
       0.014222983 0.0056797853 -0.012601159 -0.032952048
000200 c0 8b 10 bc 04 1e 98 bc da dc 8a bc da 12 97 bb
       -0.0088223815 -0.018569 -0.016951013 -0.0046104016
000210 e1 84 22 3c 60 6b 09 bd 22 43 20 3a ac bd 9d 3d
       0.009919376 -0.033549666 0.0006113519 0.07702193
000220 bb b9 a2 3c 0e a3 8e 3d 04 33 86 bd 0b 5e 02 bd
       0.019863954 0.06964694 -0.06552699 -0.031827968
000230 79 67 2c bd cb 9d e8 bd 16 fe 22 bd d2 4c 65 bd
       -0.042090867 -0.113582216 -0.039793096 -0.055981465
000240 b6 10 26 be a2 1c ba bc 2a f1 57 3d d4 27 6c 3d
       -0.16217312 -0.022718731 0.052720226 0.05765517
000250 44 3d b3 3b 3c cb 0a 3e 22 59 5c 3d ae 19 56 be
       0.00546995 0.1355409 0.05379594 -0.20908234
000260 71 6c dd bd 18 46 7c bd 61 2a 72 be fd d2 ee be
       -0.10811699 -0.061590284 -0.23648979 -0.46645346
000270 e5 61 6e 3b a2 2f a9 be 58 86 a7 be 5c be 04 3e
       0.0036374268 -0.33044153 -0.32719684 0.12963241
000280 d4 39 9c be c0 2e ab be 48 6f 9f bd 1c 45 20 3e
       -0.3051287 -0.33434105 -0.07784897 0.15651363
000290 16 13 85 bd ea 89 16 be 43 94 a3 3d cc b2 73 bd
       -0.06497781 -0.14701048 0.07987263 -0.059496686
0002a0 64 b5 8b be 7f 7c 99 3c 42 c2 be bd 74 7f 6b be
       -0.27286828 0.018736122 -0.093143955 -0.22997838
0002b0 90 b9 a8 be c5 bf 82 be a1 e9 a0 be 43 90 81 bd
       -0.32954073 -0.25536934 -0.31428245 -0.06326344
0002c0 db 12 a5 bd 8f 8f bf be 2f 24 1c be c3 56 91 be
       -0.08060237 -0.37414214 -0.15248178 -0.28386506
0002d0 cc 09 96 3d 5d 6a 60 3d 48 8a 74 3b 94 3e 01 3e
       0.07326087 0.054788936 0.0037313867 0.12621528
0002e0 81 9d 23 b9 dc fa 9a bd 85 e9 40 3e 26 76 c7 3c
       -0.00015603566 -0.07567379 0.1883908 0.02434833
0002f0 d7 9b 81 be 24 0a 28 be 4d c5 bb 3d 65 bb 03 3e
       -0.2531421 -0.16410118 0.091684915 0.12864454
000300 94 6a 43 be 2c 22 54 3d 2d 7e 85 3d b8 39 05 be
       -0.19083625 0.0517904 0.06518207 -0.13010299
000310 ef b5 1e 3d 42 2e ce 3c 88 d5 84 be 19 af fa bc
       0.038747724 0.025168542 -0.2594416 -0.030601071
000320 bf dd e1 bc 02 d2 66 be e3 e7 aa bc a1 af 43 bd
       -0.027571557 -0.22541049 -0.020862525 -0.047774915
000330 a9 60 26 be 31 54 cc bc 91 48 3a bd ba 4c 3f bd
       -0.1624781 -0.02494249 -0.04547936 -0.04670403
000340 a3 fb e3 bb 34 a3 64 be 4f 9a 8e 3d 2c 0d b7 3d
       -0.0069574877 -0.22327882 0.06963026 0.08938059
000350 d1 bc ea bd 22 22 d1 3d 16 c9 aa bd e7 59 9c be
       -0.11461795 0.102115884 -0.08339135 -0.3053734
000360 20 7b 6d 3e c3 bf 2e 3e 19 55 c8 3d 85 11 2f 3d
       0.231915 0.17065339 0.09781856 0.042741317
000370 7e c7 30 bc ca d7 a3 bb 87 ae 01 3c 97 01 80 bd
       -0.01078975 -0.0050000893 0.007915146 -0.06250303
000380 d4 11 89 3c 77 2c 01 be c8 a9 67 be 6d 99 cd bd
       0.016732134 -0.12614618 -0.2262336 -0.10039029
000390 3d 4c 06 be 5d 78 a3 bd 30 70 3e bd 8a 71 aa bd
       -0.1311502 -0.07981942 -0.04649371 -0.08322437
0003a0 26 39 5e bd c0 ea 73 be 91 28 a4 3d 75 d4 3c bd
       -0.05425372 -0.23820019 0.0801555 -0.046101052
0003b0 e4 32 e3 3d 00 c3 f6 3c 36 f0 75 3d 20 c7 1b 3d
       0.11093691 0.03012228 0.060043536 0.038031697
0003c0 74 82 c9 3d af af a5 3d f0 09 04 3c 42 80 e1 3c
       0.09839335 0.080901496 0.00805901 0.027526978
0003d0 d9 01 08 3e 49 6b 74 3d 37 5c 35 be c1 d4 8c 3d
       0.13281955 0.059672628 -0.17710958 0.06876517
0003e0 bc c0 02 be 19 8f 9e be 69 70 8a 3c 11 22 fd bc
       -0.12768835 -0.3096855 0.016899304 -0.030900033
0003f0 f5 4a f2 3d 50 d4 9e bd ec 3f 2a 3e 45 d1 cb bd
       0.11830703 -0.07755339 0.16625947 -0.09952024

features.module.4.bias f4 [32]
000000 80 a1 aa 3c 8c cc 24 3d 1c 1d 96 bd 8e 06 65 bd
       0.020828962 0.040234134 -0.07329771 -0.055914454
000010 8a 93 9d bd 25 4a 19 3d 1d 47 76 3d 3c c1 9d bd
       -0.076941565 0.037424225 0.060126413 -0.07702872
000020 9a be aa 3c 78 31 85 3c 0d 39 30 bd 61 e4 8d 3c
       0.020842839 0.01625894 -0.043023158 0.017320814
000030 a6 36 7d 3d 8c 0c a1 3d bd 01 0e 3d 41 3b 82 bc
       0.061819695 0.07863721 0.034669627 -0.015897395
000040 92 d7 3a bd 98 24 fa bc 09 54 2c 3a 46 f4 c0 bb
       -0.04561574 -0.030535027 0.00065738015 -0.0058884947
000050 e5 9b 6f 3d d0 61 94 bd 80 7d ea 3b de e1 d0 bc
       0.058498282 -0.07245219 0.007156074 -0.025498327
000060 12 14 db 3b 8b e4 9d 3d 19 b4 19 3b 46 ce 63 bc
       0.006685742 0.07709607 0.0023453294 -0.01390416
000070 57 9a de bc 3f da a3 bd 9b c1 94 bd cb 14 0f 3d
       -0.027173204 -0.080006115 -0.0726349 0.03493194

features.module.5.weight f4 [32]
000000 33 83 0e 3f 59 a6 1f 3f ad de d3 3e d2 8b 62 3f
       0.55668944 0.623632 0.41380826 0.884946
000010 f9 0b ad 3f 09 92 48 3f bb 56 20 3f d4 ed 22 3f
       1.3519279 0.7834783 0.6263234 0.63644147
000020 18 05 d9 3e c6 44 91 3f 69 8a 2c 3f 85 af 8e 3f
       0.423867 1.1349113 0.673987 1.1147314
000030 0c 5a 58 3f a7 13 99 3f 92 71 06 3f 9d 41 43 3f
       0.845124 1.1959122 0.52517045 0.7627199
000040 c3 c7 84 3f 63 be b6 3f e7 18 2d 3f 57 aa 52 3f
       1.0373462 1.4276851 0.6761612 0.8229117
000050 f3 ea 6e 3f e4 04 10 3f 57 38 14 3f ba aa 3c 3f
       0.93327254 0.5625746 0.5789847 0.7369801
000060 eb c9 6b 3f ad a3 22 3f 72 3e 09 3f b6 2e e2 3e
       0.9210498 0.63531 0.5361091 0.44176263
000070 8b 08 1d 3f 57 da 31 3f 02 5b 35 3f 3c e7 2c 3f
       0.6134116 0.69473785 0.7084199 0.67540336

features.module.5.bias f4 [32]
000000 da 32 30 be 55 f2 1c bf 48 ef bb be ad 6d 57 bf
       -0.17206898 -0.6130727 -0.36705995 -0.84151727
000010 c0 9f 37 c0 af 65 b4 bf 0d 37 84 bf ce bb 94 bf
       -2.8691254 -1.4093531 -1.03293 -1.1619813
000020 91 cf 47 be 27 4c 2c c0 3d 98 37 bf c3 36 15 c0
       -0.19512774 -2.692148 -0.7171667 -2.3314674
000030 78 74 58 bf ff a9 81 bf ed 44 8b be 72 b8 1e bf
       -0.8455272 -1.0130004 -0.27201024 -0.6200019
000040 43 4c 6c bf 9d 41 8d bf 84 99 89 bf 1f 4a fd be
       -0.92303866 -1.1035649 -1.0749974 -0.49470612
000050 f3 ff 22 bf d0 41 56 bf 8a 33 74 bf 87 2c 98 bf
       -0.636718 -0.8369417 -0.9539114 -1.1888589
000060 39 a1 41 bf 13 24 3d bf ae e9 0a bf c4 79 e0 be
       -0.7563663 -0.7388317 -0.54262817 -0.438429
000070 6d f0 1a bf be 64 88 bf f4 b4 58 bf f8 08 7d bf
       -0.6052311 -1.0655744 -0.8465111 -0.9884181

features.module.5.running_mean f4 [32]
000000 8a 51 2e bf 74 fb 86 bf 51 29 bf bf f2 09 00 bf
       -0.6809317 -1.0545487 -1.4934484 -0.50015175
000010 93 4e 39 c0 52 54 15 c0 18 d8 b9 bf 4a ee dc bf
       -2.8954208 -2.3332715 -1.4519072 -1.726022
000020 5f 29 89 be 92 f6 39 c0 92 62 4b bf f2 7d 15 c0
       -0.26789376 -2.9056745 -0.7944728 -2.335812
000030 6c dd 41 bf fd ad 80 bf 0a ce 23 bf f8 f9 35 bf
       -0.7572849 -1.0053097 -0.63986266 -0.7108455
000040 1c 62 92 bf 80 30 ab bf 75 76 98 bf ea 35 33 bf
       -1.1436191 -1.3374176 -1.191115 -0.7000414
000050 ae 27 2d bf 98 a8 ac bf fd ef bc bf 46 ae 02 c0
       -0.6763867 -1.3488951 -1.4760739 -2.0418868
000060 56 f8 86 bf bc 0f 2a bf de 99 c5 be 13 a6 5d bf
       -1.0544536 -0.6643026 -0.38593954 -0.86581534
000070 67 82 fc be 08 90 c7 bf 00 44 45 bf 2e bf c4 bf
       -0.4931824 -1.559083 -0.77056885 -1.5370843

features.module.5.running_var f4 [32]
000000 94 1e fe 3e b2 0e 5e 3f b7 df 3d 3f f4 f2 80 3f
       0.49632704 0.86741173 0.74169487 1.0074143
000010 00 8d b3 3f 10 a7 99 3f 2c aa 31 3f 08 27 45 3f
       1.4027405 1.2004108 0.69400287 0.7701268
000020 58 b4 59 3f b6 d5 a5 3f 09 0f 1a 3f 27 ee 79 3f
       0.8504081 1.2955844 0.6017919 0.97629017
000030 38 1a 18 3f 13 74 da 3f 7c 64 df 3e 42 ad 99 3f
       0.59415007 1.7066673 0.4363135 1.2005999
000040 7a 67 e3 3f 52 c3 2c 40 84 9c 27 3f e9 03 44 3f
       1.7765954 2.6994214 0.654732 0.76568466
000050 25 d6 b7 3f 36 e0 0b 3f ae 3f 18 3f 33 19 b8 3f
       1.4362227 0.54638994 0.5947217 1.438269
000060 23 6b ca 3f d9 38 45 3f c2 13 4d 3f 82 8b 49 3f
       1.5813946 0.7703987 0.80108273 0.787285
000070 5e 08 05 3f f7 21 59 3f fc e1 d8 3e b5 29 39 3f
       0.5196589 0.8481745 0.42359912 0.72329265

features.module.8.weight f4 [64, 32, 3, 3]
000000 8e bc ee ba 46 d7 a3 39 ac 49 50 3a 09 e1 f5 bb
       -0.0018214153 0.00031250174 0.0007945548 -0.007503633
000010 48 80 fb bb 55 80 03 bc c0 38 c9 bb 76 3b d2 bb
       -0.0076752044 -0.008026202 -0.0061407983 -0.0064157797
000020 e9 85 03 bc 7e 8d a8 ba c8 c9 51 bb d6 60 9a bb
       -0.008027532 -0.0012859551 -0.003201114 -0.004711251
000030 6f f8 49 3c 31 ef bc 3b fe 67 c7 3b 28 ca 24 bc
       0.012327298 0.0057658185 0.006085395 -0.010057963
000040 be 50 ea bb cc 19 59 bb 92 5d d2 ba c8 44 94 3b
       -0.0071507385 -0.0033126948 -0.0016049615 0.004524801
000050 22 09 f9 3b 42 f9 49 ba 6c d9 b8 3b a5 84 5b 3c
       0.0075999657 -0.0007704684 0.005641153 0.013398324
000060 c4 57 20 bc ab 8e f8 3a 39 82 45 3a d5 d7 9c bb
       -0.00978655 0.0018963417 0.00075343583 -0.0047864714
000070 6d f5 a4 bb b2 53 2b bc cd a8 64 bb 2f a8 b0 39
       -0.00503414 -0.010456966 -0.0034890652 0.00033694642
000080 92 a6 4f bb 13 54 72 bc 8e 14 ff bb 90 9a 37 bc
       -0.0031684977 -0.014790553 -0.0077844327 -0.011206284
000090 88 97 3d 3e a8 57 e4 3d fe cf 46 3e e0 cc 9f 3e
       0.18514836 0.111495316 0.1941528 0.31210995
0000a0 74 6a 3d 3e f9 2a a7 3e de 81 dd 3e 91 79 87 3e
       0.1849764 0.32649973 0.43263143 0.26459935
0000b0 3c 9d d6 3e 85 79 82 bb 10 7d 8b bb 24 e1 b6 bb
       0.41916835 -0.0039817714 -0.004256852 -0.005581038
0000c0 6a f8 f8 bb 85 10 1a bb 92 17 d3 ba 99 43 89 bc
       -0.0075979726 -0.0023508382 -0.0016105047 -0.016755866
0000d0 24 af bf bb d5 21 2a bb 20 b1 0e 3c 33 9f fc 3b
       -0.005849736 -0.0025960107 0.008709222 0.0077094077
0000e0 2b c6 45 3c 8d 80 20 3c 4f e7 bd 3b e4 97 15 3c
       0.012071173 0.009796274 0.0057953964 0.009130452
0000f0 6f d1 1c ba a9 87 36 39 c0 4d 52 bb 98 5b 09 bc
       -0.0005982136 0.0001740741 -0.00320898 -0.008383654
000100 27 d9 06 bb 26 1e b8 bb ff 40 eb bb ba 67 1d ba
       -0.002057621 -0.0056188283 -0.007179379 -0.0006004531
000110 2e 5e 06 3b df 8d 16 bc 6e f4 4c 39 38 57 96 3a
       0.0020502913 -0.009189098 0.00019546013 0.0011470085
000120 e5 4b ce ba 4b a1 c1 3a 3c a9 97 3b 66 f9 eb bb
       -0.0015739171 0.00147728 0.0046283286 -0.0072013615
000130 b7 92 30 bb 87 db c0 3a 2e 00 69 bb fb 9d a0 ba
       -0.0026942918 0.0014713862 -0.0035553086 -0.0012254113
000140 2e 7a 4c 3b b5 90 51 bd 8d fa 1d bd 40 47 30 bd
       0.0031200754 -0.051163394 -0.038569022 -0.0430367
000150 c9 cb 42 3d b1 d9 e7 3c 82 9e 56 3d 5b 78 dc bb
       0.047557626 0.028302046 0.05239726 -0.0067282147
000160 0d 84 a5 bc a3 2b 1a 3b 27 bb 80 3c 36 3a 28 3c
       -0.020204568 0.0023524545 0.015714241 0.010267785
000170 53 48 91 3c 79 ea bb 3c db cf 71 3c 79 d5 ed 3c
       0.017734682 0.022938954 0.014759029 0.029032456
000180 ca df 07 3d 0c 95 e1 3c 08 8f 28 3d ae 4a b3 bb
       0.033172406 0.027536891 0.04115203 -0.005471549
000190 5d 95 00 bc ed 7d 54 bc 46 8d a8 3b d3 73 19 bb
       -0.007848111 -0.012969476 0.005143794 -0.0023414984
0001a0 35 b9 22 bc 8e 29 65 3b 3a 19 0e 3b cd e0 98 bb
       -0.009931852 0.0034967395 0.0021682517 -0.00466547
0001b0 1a bc 4d 3c 83 d2 1c 3c de 70 3e 3c 9b da dd 3b
       0.012557054 0.009571674 0.011623589 0.0067704446
0001c0 94 b8 22 3b 69 25 2f 3b e1 7f c8 3b dd 48 6c 3b
       0.0024829255 0.002672518 0.00611876 0.0036054172
0001d0 6e 5b 60 bb cd 38 b3 bc 67 7e b2 bc 21 e6 d1 bc
       -0.0034234184 -0.02187767 -0.021788789 -0.02562243
0001e0 7a 9d 35 bc 01 88 30 bc e9 99 62 bc 99 dd a1 39
       -0.011084909 -0.010774613 -0.01383064 0.00030873416
0001f0 55 e1 8b 3b 3a 11 53 3b bd 78 3b bb 22 b0 03 3b
       0.004268805 0.0032206313 -0.0028605901 0.0020093997
000200 d2 69 35 b9 8e 87 a3 b9 32 b1 45 3a 80 2b 80 bb
       -0.00017300926 -0.0003119078 0.0007541358 -0.0039114356
000210 4d 30 cd 3a 2d ea 18 3b 60 2e b7 bb fd b7 a1 3c
       0.0015654654 0.002333294 -0.005590245 0.019741053
000220 99 9f 1d 3c 23 a4 1c 3c 6b 0e b9 3c e3 d0 45 3c
       0.009620571 0.009560618 0.022589883 0.012073728
000230 19 8d 4e 3c 1b a9 3d 3c fe d0 9d 3b 45 62 ad 39
       0.0126068825 0.011575962 0.0048161736 0.00033070348
000240 db 36 92 ba af 37 8d bb 17 49 c9 bb 38 27 45 ba
       -0.0011155264 -0.0043096165 -0.006142746 -0.00075207977
000250 5e c6 17 bb 2b 48 c9 bb d9 80 83 bc 3d 9c 8d bc
       -0.0023159008 -0.0061426363 -0.01605265 -0.017286414
000260 9e 8f c4 bc c8 e5 b2 bb 82 b6 c5 3a 86 b3 50 3b
       -0.023994263 -0.005459521 0.0015084299 0.0031845286
000270 00 b6 0c bb 91 82 96 3b fd b7 05 3b 76 9d 04 bb
       -0.0021470785 0.0045932014 0.0020403855 -0.0020235456
000280 d2 9e 90 b9 98 e3 a4 ba 94 9a 13 bc 27 21 86 bb
       -0.0002758415 -0.0012580035 -0.009009022 -0.0040933075
000290 18 4c 5b bb bd 31 83 bc 59 0b 23 bc 8a 76 5c bb
       -0.0033462103 -0.016014928 -0.009951436 -0.003363999
0002a0 6c 20 99 bc 78 26 81 bc 99 3e 0b bc f9 cf 6a bc
       -0.018692218 -0.015765414 -0.008498811 -0.014331811
0002b0 0f 56 aa 3a 38 6b a6 3c 9e cb ab bb 36 d2 22 bb
       0.0012995618 0.020314798 -0.005242779 -0.0024844534
0002c0 1f 31 0a 3c 47 8d c3 3c c0 76 9a 3c 3f 3e 23 3d
       0.008434563 0.023871077 0.018855453 0.039854284
0002d0 9c 4f be 3b b8 b4 2a 3c e4 b0 15 3d 54 30 50 bb
       0.00580783 0.010419063 0.03654565 -0.0031767087
0002e0 42 11 c8 38 12 13 9e 3c 0c 4b 07 3c 0b 46 18 3c
       9.539958e-05 0.019296203 0.008257639 0.009294043
0002f0 e7 c4 0c 3d f2 4a cc 3b 15 05 05 3c 5b 97 b4 3b
       0.03436747 0.00623452 0.008118887 0.005511207
000300 9e ab 28 3c c3 3b 8e 3b 4d 83 3f 3b d9 7f e2 39
       0.010294823 0.0043406202 0.0029222548 0.00043201333
000310 55 32 b6 bb 6d b5 a9 bb dd a2 9e 3d dc 63 41 3d
       -0.0055601993 -0.0051790983 0.077459075 0.047214374
000320 10 6b 6b 3d c8 88 2f 3d b0 97 bd 3c e6 32 2b 3d
       0.05747515 0.042855054 0.02314362 0.041796587
000330 44 89 51 3d 16 9f 01 3d b8 97 75 3d b6 20 d9 3b
       0.051156297 0.031645857 0.059959143 0.006626214
000340 c0 ca c8 3a aa b3 d6 3b c3 fa 38 3b 5a c8 2b bb
       0.0015319213 0.0065521793 0.0028225638 -0.0026211948
000350 41 08 68 3b 90 6f 97 ba 50 b8 10 bb ac e3 8e 3a
       0.003540531 -0.0011553634 -0.0022082515 0.0010901592
000360 04 32 b4 3c 58 52 32 3c 0b a2 bc 3c 49 2c 27 3d
       0.021996506 0.01088389 0.023026487 0.040813718
000370 96 54 a5 3c 33 90 cb 3c ef c1 48 3d 29 a0 b4 3c
       0.020181935 0.024849033 0.049013074 0.022049027
000380 a4 2f be 3c 90 4b 25 bb f0 42 c3 3a f2 fd db 3b
       0.023216076 -0.002522204 0.0014897268 0.0067136222
000390 b2 63 95 bb e4 9f 6c 39 65 a9 c2 39 3b 94 72 ba
       -0.0045590037 0.00022566278 0.00037128772 -0.00092536554
0003a0 82 f4 32 3b 2c 13 2e 3c df cb 28 3d 9e 8d ae 3c
       0.0027306383 0.010624688 0.04121005 0.021307763
0003b0 3b 46 30 3c 4c a5 d8 3c de e5 80 3c a7 87 45 3c
       0.010758932 0.026446007 0.01573461 0.012056268
0003c0 d7 ec 16 3d 1d 75 d6 3c cc 9c ef 3c 7c 14 29 bc
       0.03684696 0.02617889 0.029249571 -0.010319825
0003d0 c3 b8 4d bc 30 88 5a bc a5 40 e3 bb d2 e3 eb bb
       -0.012556258 -0.013338134 -0.0069351965 -0.007198789
0003e0 8f 52 c6 bb 52 e8 15 bc 94 ae f0 bb 33 e5 d7 bb
       -0.006052322 -0.009149628 -0.00734503 -0.006588602
0003f0 77 c5 46 3a 83 ad e0 bb 3c 91 a1 bc 41 23 b3 3b
       0.0007582525 -0.0068566217 -0.019722573 0.005466849

features.module.8.bias f4 [64]
000000 72 f4 d4 bc b8 fb 2a 3c 13 08 34 3c 2f a6 64 3d
       -0.025995467 0.010435991 0.010988253 0.055822548
000010 e1 70 54 3d 43 be 3f bd ca c1 e6 3c 82 27 3a bd
       0.051865462 -0.046812307 0.028168578 -0.045447834
000020 41 19 e3 bc 8c 49 b7 3c eb de 1e bd 29 27 47 3d
       -0.027722003 0.022373937 -0.03878681 0.04862133
000030 b0 df af 3c eb dc 9e 3b 93 19 02 3d 2f db 45 bd
       0.021468967 0.004848113 0.03176267 -0.048304733
000040 99 42 19 3c 3f 18 ad 3c e2 a6 d5 bc bf 65 90 bc
       0.009354257 0.021129726 -0.026080552 -0.017626641
000050 2b 71 bc 3c 91 b9 44 3d 3f 26 b5 bc 7b 3d 0c 3d
       0.023003181 0.048028532 -0.022112964 0.03423832
000060 02 35 02 3d 28 ed 07 bd 9a 9c 38 bd 6d e9 da bb
       0.031788833 -0.033185154 -0.045071222 -0.0066806586
000070 9e 22 10 3d 0e a5 41 bd 01 5e 21 bd 9a 44 29 3d
       0.035189264 -0.04727655 -0.03939629 0.04132519
000080 cd 32 05 bd a8 d6 25 bd 80 6f 1e bb 27 48 63 3d
       -0.03251915 -0.040487915 -0.0024175346 0.05548873
000090 f9 33 19 3d e3 a5 ef 3c 2d e9 ed 3b 76 bb e8 bc
       0.03740308 0.029253906 0.0072604627 -0.0284097
0000a0 fe f7 34 bd 56 cb f6 3c da ab 89 3c 30 c5 71 3c
       -0.044181816 0.030126255 0.016805578 0.014756486
0000b0 b8 af ab bc 4a 9d 62 bd c0 3b fe 3b c8 f8 1f bc
       -0.020957813 -0.055325784 0.0077585876 -0.009763904
0000c0 12 90 8c bb 34 65 b0 3b 01 c3 07 bd 34 aa 10 bd
       -0.0042896355 0.005383158 -0.033144955 -0.03531857
0000d0 e0 ba 86 bc 8d 4a b4 3c b9 6a 11 bd db 7c 58 3d
       -0.01644653 0.022008205 -0.03550217 0.052853446
0000e0 17 91 64 bd f2 26 10 bd 60 23 85 3c 3e e9 61 bd
       -0.05580243 -0.03519339 0.01625222 -0.055154078
0000f0 b2 ec 00 bd fe b0 ef 3c 8e 69 1d bd 30 c2 94 3c
       -0.03147573 0.029259201 -0.038430743 0.018159002

features.module.9.weight f4 [64]
000000 0a 70 ae 40 a4 78 ca 40 96 3c 9f 40 f0 75 ba 40
       5.4511766 6.3272266 4.9761457 5.8268967
000010 00 56 9b 40 db d2 ad 40 3a b3 8f 40 31 bb 98 40
       4.854248 5.431989 4.4906282 4.7728505
000020 8f be 90 40 99 f4 a6 40 73 5b b5 40 f4 6e bc 40
       4.5232615 5.217358 5.667413 5.888544
000030 55 99 55 40 71 e1 d6 40 4a 6d 93 40 d3 3e ab 40
       3.3374836 6.7150197 4.607091 5.351419
000040 4c 5f b8 40 46 17 9a 40 26 68 71 40 55 77 8c 40
       5.761633 4.815341 3.7719817 4.389567
000050 e5 14 c6 40 5c 73 be 40 cc 35 9b 40 01 cc 99 40
       6.1900506 5.951582 4.850317 4.806153
000060 68 8e c2 40 35 b6 90 40 f4 bb b0 40 9c 53 aa 40
       6.0798836 4.522242 5.5229435 5.322706
000070 63 8a e7 40 25 2b 9a 40 bd d4 e3 40 6e a6 9e 40
       7.235643 4.8177667 7.119719 4.957816
000080 8e 14 b6 40 35 6d c6 40 ac 8f c1 40 48 ea 93 40
       5.690009 6.200831 6.048788 4.622349
000090 a6 76 9b 40 95 99 f1 40 30 84 e2 40 d6 bf 92 40
       4.8582335 7.549998 7.078636 4.5859175
0000a0 a5 00 a9 40 ee f4 e7 40 ad 84 b8 40 0b f3 9f 40
       5.2813287 7.2486486 5.766196 4.9984183
0000b0 66 2e 9e 40 78 80 8f 40 c9 1a 9a 40 f2 bb c4 40
       4.943164 4.484432 4.8157697 6.1479425
0000c0 ef c6 8e 40 a5 31 c0 40 3c 82 b2 40 50 be dc 40
       4.461784 6.00606 5.5783978 6.8982315
0000d0 8b 37 b4 40 e5 d8 c7 40 0b e4 ac 40 60 97 aa 40
       5.63178 6.2452264 5.4028373 5.3309784
0000e0 cc df a4 40 0b 24 91 40 2f 61 c5 40 46 9f a8 40
       5.152319 4.53565 6.168113 5.2694426
0000f0 32 fd a2 40 e6 ba ae 40 1a 08 9f 40 cc c6 ab 40
       5.0934076 5.4603148 4.969739 5.368017

features.module.9.bias f4 [64]
000000 62 81 79 3f 37 b0 b1 3f 16 8c 99 3f ff 84 c5 3f
       0.9746305 1.3881902 1.1995876 1.5431212
000010 13 0e ae 3f aa 5e 8a 3f 75 71 a1 3f 11 ce 30 40
       1.3598045 1.0810139 1.2612749 2.7625773
000020 2d 15 25 40 61 72 a5 3f 78 47 97 3f 4f 7f b6 3f
       2.5794175 1.2925531 1.1818686 1.4257601
000030 2b e8 d5 3f 53 85 b2 3f 07 f8 74 3f cd 26 91 3f
       1.6711477 1.3946937 0.9569096 1.1339966
000040 b1 ea 8c 3f 29 aa 91 3f 3e d6 b2 3f 38 41 a3 3f
       1.1009122 1.1380054 1.3971632 1.2754278
000050 0a 02 b9 3f 30 4c c4 3f 4e 9c a0 3f 10 0a 97 3f
       1.4453747 1.533575 1.25477 1.1799946
000060 45 1b ac 3f ae 58 70 3f b0 f7 70 3f 69 25 79 3f
       1.3445822 0.93885314 0.9412794 0.9732271
000070 82 72 e4 3f ad bf 2c 40 ad af 11 40 b2 ff b9 3f
       1.7847445 2.699199 2.2763474 1.4531157
000080 c6 cb a7 3f f1 d3 e7 3f 11 82 a1 3f 34 63 77 3f
       1.3109062 1.8111554 1.2617818 0.96635747
000090 03 eb a5 3f 1c 39 c0 3f 08 36 3b 40 36 0f 84 3f
       1.2962345 1.5017428 2.9251728 1.0317142
0000a0 b0 f0 be 3f 10 89 17 40 5a 8f a8 3f 04 5c 39 40
       1.4917202 2.3677406 1.3168747 2.8962412
0000b0 ef 8f 97 3f 00 7b 94 3f e4 b7 b2 3f 73 c1 af 3f
       1.18408 1.1600037 1.3962369 1.3730911
0000c0 bd 81 95 3f a4 d3 96 3f a6 39 f8 3f 8e a5 25 40
       1.1680218 1.1783338 1.9392593 2.5882297
0000d0 5e 02 ac 3f fb 4f 16 40 2a d1 b2 3f 0d 6b bb 3f
       1.3438222 2.3486316 1.3970082 1.4642044
0000e0 09 08 c4 3f ac 6a 9b 3f 56 bd b3 3f 48 19 41 3f
       1.5314952 1.2141929 1.4042156 0.754292
0000f0 a0 2a 65 3f 20 76 65 3f ca b1 9c 3f ac 48 2b 40
       0.89518166 0.8963337 1.2241757 2.6763105

features.module.9.running_mean f4 [64]
000000 30 42 8f bc 29 f9 28 3d 3b eb bc 3b 13 82 fb 3c
       -0.017487615 0.041253243 0.0057653463 0.030701673
000010 68 63 68 3d f2 11 34 bd d6 73 d0 3c d2 f3 1f 3d
       0.056735426 -0.043962426 0.02544586 0.039050885
000020 98 cf 63 3d d9 73 4a 3d 88 12 0f bd fa 5f 5b 3d
       0.0556179 0.049426887 -0.034929782 0.053558327
000030 07 4c c4 3d 86 79 9b 3b 50 52 f5 3c 38 c4 49 bd
       0.095848136 0.0047447113 0.029946476 -0.049259394
000040 46 89 87 3c 3e 0e 3b 3d e0 5c df bc a4 5a fd bc
       0.01654495 0.04566788 -0.027265966 -0.03092701
000050 54 bf c5 3b e4 bb 68 3d d4 a7 db bc 0a 7b 82 3d
       0.006034771 0.05681981 -0.026813425 0.06371124
000060 1b d0 26 3d c1 b5 25 bd 43 9a 14 bd 3f fb be 3a
       0.04072581 -0.040456537 -0.036279928 0.0014570727
000070 a2 0e a9 3a 32 43 32 3c e1 88 44 bd 63 46 71 bb
       0.0012898038 0.010880278 -0.0479821 -0.0036815635
000080 22 85 1d bd 07 b4 45 bd 00 4b cd 3b fe 0c 6b 3d
       -0.038457043 -0.04826739 0.006265044 0.057385437
000090 91 de 24 3c 7e 11 2c 3d b0 3b cf bd 5b d3 92 bb
       0.01006283 0.04200887 -0.10118806 -0.004480762
0000a0 9a 7c 85 bd 16 0a 0f 3d 2e f8 38 3d 2e 80 c4 3d
       -0.065179065 0.034921728 0.045158558 0.09594761
0000b0 be ef 05 bd 26 9e e1 bc 24 07 47 bd ea 87 2b 39
       -0.03269934 -0.027541231 -0.048590794 0.00016358463
0000c0 f8 cd 8d bb 93 5c 8d 3c 6d 03 12 bd 13 55 9e bd
       -0.004327532 0.017256057 -0.0356478 -0.0773107
0000d0 35 b9 50 3c 4a 8d 39 bc 23 4c 46 bd 24 7f 82 3c
       0.012739469 -0.01132519 -0.048412453 0.015929766
0000e0 8c cb 04 be 26 71 0b bd da bc 0c 3c 6d cd 47 bd
       -0.12968272 -0.034043454 0.008589948 -0.048779894
0000f0 82 90 ce bc 66 79 10 3d 64 95 09 bd 9e 8d 7b 3d
       -0.025215391 0.035272025 -0.033589736 0.061414354

features.module.9.running_var f4 [64]
000000 d6 67 58 3b 39 d6 3c 3c e4 fb ef 3b e7 29 24 3c
       0.0033020875 0.011525684 0.007323729 0.010019756
000010 ae dc c2 3b 1c 5f c2 3b ee ea d7 3b 16 52 f6 3b
       0.005946717 0.005931748 0.006589285 0.0075171096
000020 53 2a f1 3b 32 8f 2a 3c 1d 01 a9 3b 33 b8 f6 3b
       0.007359782 0.010410117 0.0051576034 0.0075292825
000030 d8 9b b1 3b f7 12 06 3c 58 dc b0 3b f6 b3 da 3b
       0.0054201894 0.0081832325 0.005397361 0.006674285
000040 60 aa 96 3b 42 77 1d 3c 88 f8 54 3b 0c 98 ce 3b
       0.004597947 0.009610953 0.003249677 0.0063047465
000050 6e 53 1e 3c 5c be 68 3b 12 93 dc 3b 51 5f 1a 3c
       0.009663446 0.0035513854 0.0067313993 0.009422139
000060 5b 35 14 3c 3b c9 a5 3b b2 3e a5 3b c9 12 3f 3b
       0.009045924 0.005059389 0.0050428743 0.0029155484
000070 83 bc 62 3c 7d 8b 89 3b 3f 98 5c 3c 6c 32 16 3c
       0.01383889 0.0041975365 0.013464033 0.009167295
000080 ca b6 0a 3c 98 e5 d1 3b 64 79 b0 3b 9d 85 9c 3b
       0.008466432 0.0064055435 0.0053855646 0.00477667
000090 70 b7 fe 3b 1f 39 40 3c ce 18 62 3c f0 fd 19 3c
       0.0077733323 0.011732369 0.013799859 0.009398922
0000a0 3b 71 0c 3c 94 c1 8f 3c c8 fb 30 3c b5 86 00 3c
       0.008571918 0.01754836 0.010802217 0.007844617
0000b0 2c ad e1 3b 4d bf 0a 3c 8c 65 04 3c d1 ca 1a 3c
       0.006887099 0.008468461 0.008080851 0.009447769
0000c0 09 f3 db 3b 95 bb 13 3c 79 b3 e1 3b 8c 35 8f 3c
       0.0067123217 0.009016891 0.00688785 0.017481588
0000d0 3c f5 2f 3c 81 9d 82 3c aa d6 00 3c d6 9c 1b 3c
       0.010739621 0.015944244 0.00786368 0.009497842
0000e0 dc ee 1e 3c 16 db a8 3b b5 8e 21 3c 8e 5b 46 3b
       0.009700503 0.00515307 0.009860684 0.0030266973
0000f0 28 dd 32 3b 00 0a 28 3b 42 de 84 3b 08 29 9d 3b
       0.0027292464 0.0025640726 0.0040548155 0.004796151

top_layer.weight f4 [10, 64]
000000 c7 88 72 bd d4 a8 d7 3e 44 ed 9b 3b 36 47 e2 bd
       -0.059212472 0.42120993 0.004758509 -0.11048739
000010 c9 65 0b bd c1 33 51 bd ff 9a 32 bd f6 33 8e bd
       -0.034032617 -0.051074747 -0.043604847 -0.069435045
000020 39 4d b8 bc 19 8e cc 3e dc 5d d3 bc d4 c9 8f bd
       -0.02249776 0.39952162 -0.025801592 -0.070209175
000030 3f 62 1f bd e2 e1 7c bd 5f 01 cd bc bd 12 59 bd
       -0.038912054 -0.061738856 -0.025025068 -0.052996386
000040 b4 89 3c bd cc 61 bc 3e 3f 0e 8a bd b9 1f 69 bc
       -0.04602976 0.36793363 -0.067409985 -0.014228755
000050 9c de c9 bc 76 9d ef bc 3d f7 a5 3c c2 7d c2 3e
       -0.024642281 -0.029249888 0.020259494 0.3798657
000060 95 f9 5c bd ae ab eb bc a6 5b 56 bd 18 bc 9a ba
       -0.053948957 -0.028768387 -0.052333497 -0.0011805324
000070 90 9c 98 3c 1a 1c 7a bd bc 62 97 3d e2 b0 48 bd
       0.018629342 -0.061061956 0.07391879 -0.048996814
000080 e2 32 41 3b 50 8c a1 bd d1 c9 28 bc e3 ed 3c bd
       0.0029479791 -0.078880906 -0.010302023 -0.046125304
000090 d3 05 b9 bd d9 b6 c5 bd 11 5b fb bd 94 d5 c0 3e
       -0.09034314 -0.09654016 -0.12273229 0.37662947
0000a0 e6 9c d2 bd 85 57 ad bd 17 f9 ee 3e 23 ac 55 bd
       -0.10283832 -0.08463959 0.46674415 -0.052166115
0000b0 cb e4 63 bd 1d f2 b9 3e 67 b7 40 bd 6c 1b 85 bd
       -0.055638116 0.3631753 -0.047049906 -0.06499371
0000c0 86 99 77 3d dd b9 fc 3c a5 05 fd bd 07 20 54 bd
       0.060449146 0.030850345 -0.12354592 -0.051788356
0000d0 58 df dd 3e 7d 9f d3 bc b8 26 14 bd 92 be 98 3d
       0.4333446 -0.025832886 -0.036169738 0.074582234
0000e0 9c 03 d3 bd b5 d3 28 bd 68 85 06 bd 72 cd 46 3a
       -0.10303423 -0.041217525 -0.03284207 0.00075837143
0000f0 c6 04 77 bc c3 d6 04 bd 80 40 e7 bc 64 77 2b bd
       -0.015076822 -0.032431375 -0.028228998 -0.041861907
000100 85 b1 f5 bd 8f 53 03 be e3 d6 08 3e b0 d2 37 be
       -0.1199675 -0.12824844 0.13363223 -0.17951465
000110 4c 79 87 bd c1 74 2a 3d 48 03 43 be 40 1d 34 37
       -0.066149324 0.04161525 -0.1904422 1.0735646e-05
000120 b1 2a cb bb df 97 88 bd 2a 25 ea 3d 77 33 7a 3d
       -0.0062001576 -0.06669592 0.1143287 0.061084237
000130 2c a3 d0 39 fe 1b 2d 3b 82 3d b4 3e 4a fa 93 bd
       0.00039794424 0.002641439 0.35203177 -0.07225473
000140 38 6e 33 bc 73 80 8b bd 97 37 e7 bd 6e aa 15 3e
       -0.010951571 -0.06811609 -0.112899 0.14615795
000150 d4 a7 01 3f c0 bd 85 bd 48 d5 56 3e d4 1c a0 bd
       0.5064671 -0.065303326 0.20979798 -0.078179985
000160 60 d0 29 be a4 ad 9b 3e 6f 6a 4a bd 85 38 59 bd
       -0.16583395 0.30405915 -0.04941791 -0.053032417
000170 20 5b d1 3d 4f 4c 6c bb 94 35 cc 3e 5f 31 82 bd
       0.10222459 -0.0036056226 0.39884627 -0.06357073
000180 3a af dd 3e 63 78 ac bd ed 41 c6 3d 7e 7a af bd
       0.4329775 -0.084213994 0.09680543 -0.085682854
000190 e9 40 29 be 0f 58 d6 bd f1 ae b8 bd 24 b4 ce bd
       -0.16528668 -0.104660146 -0.090177424 -0.10092953
0001a0 a4 7a 3d be ba 5e 5d be 1a 3a 7c bd 95 30 71 bc
       -0.18503815 -0.21618167 -0.061578847 -0.0147210555
0001b0 43 1d fa bc 4b 3d 3d bd ad 39 e0 3c 98 fd 2f 3c
       -0.030531531 -0.04620103 0.027371252 0.010741614
0001c0 1b 5f 05 3e 89 c6 80 bd 93 af 10 be dd 44 4b be
       0.13024561 -0.062878676 -0.14129476 -0.19850488
0001d0 b1 82 82 bd 96 ce 5d be 62 97 f4 3d bc 09 03 3e
       -0.06372584 -0.21660838 0.119429365 0.12796682
0001e0 83 7c ee bd 1d e0 b6 3d 66 5b a5 3e 65 46 51 3d
       -0.116448425 0.08929465 0.32296294 0.051092524
0001f0 ff 5b 53 3d aa 0e 8c 3c 8c 73 a6 bd 8e cc 8b 3d
       0.051601406 0.017096836 -0.081275076 0.06826125
000200 23 bb 9e bd 0d eb 95 bd c5 27 a5 bc 79 74 dc bd
       -0.07750537 -0.07320223 -0.020160565 -0.10764403
000210 ac 4a 86 3d 2f 4b 0d be 3c ce a8 bd 7b 30 41 be
       0.06557211 -0.13798212 -0.08242461 -0.1886615
000220 1e 1d 26 be 93 b6 b7 bc ce 5b d2 bd 93 35 38 be
       -0.16222045 -0.022425925 -0.102714166 -0.17989187
000230 99 2d 14 be e4 fe 4d be 9e bb 7b bb 16 6f 8a bd
       -0.14470519 -0.20116764 -0.003841139 -0.06759469
000240 9f c8 d6 bd fe 4b be 3a be 5c 3b 3e 93 d3 07 3d
       -0.10487484 0.0014518497 0.18297097 0.033160757
000250 36 d6 a9 3d 45 cf aa bd 97 05 bf 3c 39 03 fe bc
       0.082928106 -0.08340315 0.023318095 -0.031007396
000260 4d 4e 20 be ad 42 90 3d 3e 09 12 be 9b 5e 17 bd
       -0.1565487 0.070439674 -0.14261338 -0.036955457
000270 d1 9a 9e bd 1a 15 4c be 79 55 1b bd 97 b4 95 bc
       -0.07744373 -0.19929925 -0.03792331 -0.018274589
000280 0b 60 9f 3d a5 be 0b bd 81 d5 ff bd f1 1b e9 bd
       0.077819906 -0.03411736 -0.124918945 -0.113822825
000290 cb 45 c3 bd 51 2b 22 be b2 57 f4 3e 15 e1 03 bd
       -0.09534796 -0.15836836 0.47723156 -0.032197077
0002a0 ed f1 dd bd 30 25 be 3e 9a a5 97 bc 35 65 47 be
       -0.10837159 0.37137747 -0.018511582 -0.19472201
0002b0 38 a3 9f bd a5 2e aa bc d6 71 99 3c c9 1b 31 be
       -0.077948034 -0.020774195 0.018731039 -0.17295755
0002c0 48 6a 89 3b 1c 5f d2 bd 67 9c 84 3e ac 90 0d 3f
       0.004193578 -0.10272047 0.25900576 0.55298877
0002d0 dc e2 c9 bc 94 33 03 3f cc 9d 1f bd 12 a0 6e 3c
       -0.024644308 0.51250577 -0.038968846 0.014564531
0002e0 18 48 80 3d 23 2f f9 bd 0a 1b 93 3d fd a3 d7 bc
       0.06263751 -0.12167194 0.07182892 -0.026323313
0002f0 69 88 f0 bb 48 b4 40 bd a1 6c 75 3d f7 f4 57 be
       -0.00734048 -0.04704693 0.05991805 -0.2108954
000300 e5 59 3c bc 42 3f 22 3e 78 21 88 bd 8e a7 1c bc
       -0.011496042 0.15844443 -0.06647009 -0.0095614325
000310 ec 36 52 bd ca 25 cd bd e2 1c a3 3c ad 78 5d bc
       -0.05132191 -0.10016973 0.019911233 -0.013517541
000320 61 c7 85 bc 49 d8 56 bd 50 20 d0 3e de ca af 3d
       -0.016330423 -0.05245236 0.40649652 0.08583616
000330 16 68 12 bc bd d9 e9 bd 0f 5c a3 bd 3f 28 7b bd
       -0.008935949 -0.114184834 -0.07976543 -0.06131768
000340 70 9c e3 3e 50 c1 67 bd 8b c0 d8 bc 4c cf b9 bd
       0.4445529 -0.05658084 -0.026459 -0.09072742
000350 44 97 f1 bd df a3 98 bd 98 f2 bd bd 30 79 26 3d
       -0.1179643 -0.07453131 -0.09274787 0.040642917
000360 9e c9 56 3e 09 67 ca bd 1b 75 9a 3e 0b 67 5b bd
       0.20975348 -0.09882934 0.3016747 -0.053565066
000370 d9 b3 aa bd 51 58 f2 bc d8 76 95 bd 6b ab 28 bd
       -0.083350845 -0.029583128 -0.07298058 -0.041179102
000380 55 87 d3 bd 87 56 e3 3e 5c b4 e6 3e cc f6 60 3e
       -0.10328547 0.44401953 0.45059478 0.21969146
000390 c2 ac 32 bc f1 0a 56 bd 99 c0 ad bd ae 4b 59 bd
       -0.0109054465 -0.05225653 -0.08484001 -0.05305069
0003a0 76 89 82 bb dd 54 bf bc 10 0b b6 bd 5c 69 c8 bc
       -0.003983672 -0.023355896 -0.08888829 -0.024464302
0003b0 c9 25 10 bd 1e 79 94 bd 88 64 90 bd 89 a7 a4 bd
       -0.035192285 -0.07249664 -0.07050425 -0.08039767
0003c0 9a 2f 91 bd 50 70 49 bd 2f 2f 9d bd 73 22 d3 bc
       -0.070891574 -0.049179375 -0.07675015 -0.025773263
0003d0 01 fc 8d bd 8a 3f 34 bd 67 f8 53 bd 58 30 ba bd
       -0.069328316 -0.044005908 -0.051750567 -0.09091252
0003e0 24 ba 86 bd 7d 4b 9d bd 68 00 d2 bd 25 86 89 bd
       -0.06578472 -0.07680414 -0.10253984 -0.06715039
0003f0 29 7e b7 bd ef 1d 65 bd 8f 83 c9 3e e6 b1 ad 3e
       -0.0895961 -0.05593675 0.39358184 0.33924788

top_layer.bias f4 [10]
000000 60 84 fc ba f3 f6 24 ba 0b 81 42 3b 86 54 d6 bb
       -0.0019265525 -0.0006292902 0.0029678966 -0.0065408377
000010 96 23 47 bb 82 d8 14 3c 91 83 9a bc 4e 92 dd 3c
       -0.00303862 0.009084823 -0.018861564 0.027047303
000020 1d d1 70 bb 21 1d 91 bb
       -0.0036745735 -0.0044285213

momentum_buffer f4 [16, 1, 3, 3]
000000 a8 31 d3 bc 02 4d dd 3a e8 d9 d2 3b d6 d0 04 bc
       -0.025780514 0.0016883912 0.006434668 -0.008106431
000010 25 5b 9f 3c 7a ee 8c 3b f0 65 87 ba f4 5c 18 3d
       0.01945264 0.0043008896 -0.0010330062 0.037198022
000020 27 45 66 3c f3 c5 61 3d 96 89 ce 3c e8 69 50 bb
       0.014054573 0.05512042 0.02521209 -0.0031801406
000030 58 06 da 3c 0c b5 06 3c 05 01 ae bc b4 b5 ea 3b
       0.026614353 0.008221876 -0.02124072 0.007162774
000040 64 e6 a8 3b fa e3 d6 bb a0 e0 7b bb 81 c2 26 bc
       0.005154418 -0.0065579386 -0.0038433447 -0.010178209
000050 9d c8 48 bc c0 14 70 ba 3f 65 5e bc c4 66 dc bc
       -0.012254861 -0.00091583654 -0.013573944 -0.026904471
000060 40 40 b4 b9 c0 9b b6 ba 1c e4 96 bc c3 3b 13 3b
       -0.00034380145 -0.0013931915 -0.018419318 0.002246604
000070 d2 34 0d bc 28 15 b7 bb 93 b2 8d 3c 9f d5 5d 3c
       -0.00861855 -0.005587239 0.017297065 0.013539701
000080 55 6b 93 3c 5a 16 86 3c 9b 54 f7 bb 9a c0 7c bc
       0.017995516 0.01636808 -0.0075479276 -0.015426779
000090 58 c7 d3 bb b2 58 0f bd 14 62 b6 bc 66 19 1d bc
       -0.0064629726 -0.034996696 -0.022263564 -0.009588575
0000a0 04 a1 1f bd e9 29 7f bc b7 02 02 bd c1 9b 2c bd
       -0.038971916 -0.015573957 -0.03174087 -0.042140726
0000b0 14 56 e6 3b c9 07 52 3d 63 cb 99 3c 3c 2f f4 3c
       0.0070293043 0.051276956 0.01877374 0.02980768
0000c0 3f 02 f7 3c b3 0e 1e 3c c1 01 4d 3b 6c 2f 30 3c
       0.030152438 0.009647059 0.0031281563 0.010753494
0000d0 28 55 76 3b 9e d8 ac 3b 78 42 a1 3d f0 4b 5b 3d
       0.0037587378 0.005274846 0.07874006 0.053539217
0000e0 86 26 c6 3c 48 9b 44 3d 1b af 2a 3d 5c 8a 85 3c
       0.024188291 0.04799965 0.0416709 0.016301326
0000f0 ac e4 17 3d 6e 21 a2 3c 1c 04 1e 3c 7e 61 d3 3c
       0.037083313 0.019791331 0.009644534 0.025803324
000100 00 f9 f0 ba 4c d9 9f bb 40 49 50 3b c5 d0 df bc
       -0.0018384755 -0.0048781987 0.0031781942 -0.027321229
000110 82 cf ca bc 5c 3b 9f 3b 62 e2 da bc ec 09 c3 bc
       -0.02475715 0.004859371 -0.026719276 -0.023808442
000120 2c ef a1 3b 16 88 7b bc e4 81 90 bb 55 d6 ac 3c
       0.0049418416 -0.01535227 -0.0044100154 0.021098295
000130 ad 67 1d 3b 69 c0 03 3c 05 3c 92 3c 1a 5a 82 3c
       0.0024018094 0.00804148 0.017850885 0.015912104
000140 76 65 b5 bc ce ae c4 bc 75 e9 9e bc f8 a6 46 bc
       -0.022143107 -0.024009135 -0.01939843 -0.012124769
000150 ec f5 8e bc 5d 6a 7b bc e8 6e 19 bd e5 4a c9 bc
       -0.017451249 -0.015345183 -0.037459284 -0.024571845
000160 21 3b 04 bd 0c 0d 88 bd 90 21 43 3c 60 2a e1 bb
       -0.032282952 -0.066431135 0.011909857 -0.0068715066
000170 45 db 71 bb ea af 91 3c ac 04 c7 3b 05 f8 80 3c
       -0.0036904376 0.017784078 0.006073555 0.015743265
000180 99 d0 2c 3c 7e 92 84 3c 06 b1 1d 3c 0c 21 4b 3c
       0.01054778 0.016183134 0.009624725 0.012398016
000190 cc 78 83 bc 4f 55 53 bd 7a 41 1e 3c 2a 50 cb 3b
       -0.016048811 -0.05159503 0.0096591655 0.0062046247
0001a0 f0 96 d3 ba 43 07 93 bc 6e 3e 5d bc 8b e7 0b bc
       -0.0016143005 -0.017947799 -0.013503654 -0.008539091
0001b0 80 60 c3 b9 46 db bb ba 00 78 68 ba c0 a4 78 bb
       -0.00037265196 -0.0014332316 -0.0008867979 -0.0037939996
0001c0 f0 4b f0 3a fa ea 79 bc ec e2 01 bc ec 8d 38 bc
       0.0018333178 -0.015253777 -0.007927638 -0.011264306
0001d0 d5 d5 2d bd 2b 5a 54 bd 8c 6a 26 bc 22 ed 02 3d
       -0.042440254 -0.051843803 -0.010157239 0.03196443
0001e0 a2 e6 c6 bd 2d f3 3d bd 1a 10 81 bc 84 83 a1 bd
       -0.097119585 -0.04637449 -0.015754748 -0.07886413
0001f0 e3 d7 16 bd f2 02 e0 bc 98 1b 93 3b e5 05 4a 3c
       -0.03682698 -0.027345154 0.0044893734 0.012330507
000200 f8 9c 81 bb a1 40 a4 bc 4d 45 e4 bc 7e 76 fb bc
       -0.0039554797 -0.020050349 -0.027865076 -0.03069615
000210 b8 1b 9c bc e2 83 c8 bc 26 80 b3 bc 74 bb df 3b
       -0.019056186 -0.02447695 -0.021911692 0.006827766
000220 b9 74 38 bc 4a 01 64 bc e0 ba 8c bc d2 ba b4 bc
       -0.011258298 -0.013916323 -0.017178953 -0.02206174
000230 40 77 92 bc ea 92 d7 bc 2d 25 df bb d6 d8 7e bb
       -0.017879128 -0.026315171 -0.0068098516 -0.0038886569

momentum_buffer f4 [16]
000000 08 f4 b9 b6 d8 d9 e0 36 d9 29 8b 37 40 da d8 37
       -5.5418386e-06 6.7010806e-06 1.6589578e-05 2.5850837e-05
000010 b2 16 f5 37 d9 5b d5 b7 78 9d 07 37 e7 82 67 b7
       2.9216844e-05 -2.5434349e-05 8.083291e-06 -1.3799151e-05
000020 da a7 6b b6 4b 38 c9 b7 22 13 f5 37 92 a6 c5 b7
       -3.5115431e-06 -2.398728e-05 2.9215185e-05 -2.3561795e-05
000030 0a d4 8f 37 44 7e 3c 37 56 eb 2e 37 ff 61 91 b7
       1.7145667e-05 1.1235072e-05 1.0426002e-05 -1.733098e-05

momentum_buffer f4 [16]
000000 72 d7 09 3e 90 99 df 3d 88 4a b7 3a 6c 97 87 bc
       0.13461092 0.109179616 0.0013984004 -0.016551696
000010 81 0b ed 3d 10 44 20 3d 75 f9 65 bc 46 2b 41 3d
       0.1157446 0.03912741 -0.014036526 0.04716041
000020 c3 37 c8 bc 3c 8f b5 bc 35 52 a2 bc 4f 08 d8 3c
       -0.024440652 -0.022163026 -0.01981459 0.02637115
000030 c9 47 e5 3c 2d b5 9c 3c 87 67 c8 bb d4 9e 49 bd
       0.027988331 0.01912936 -0.006115857 -0.049223736

momentum_buffer f4 [16]
000000 9b e6 5d 3d b9 e2 3d 3d 4a 78 8c 3c 5e 8b 25 3d
       0.054175 0.046358798 0.017147202 0.040416114
000010 84 9f ab 3d c4 53 a1 3d 80 99 ca 3c 80 91 bc 3c
       0.083800346 0.07877305 0.024731398 0.023018599
000020 d6 9e 0d bd de fb 9c 3c 30 35 ca 3a a0 fa 6a 3d
       -0.034575306 0.019163068 0.0015427228 0.05736792
000030 ac 02 81 3d d9 3c 9c 3d e1 83 e0 3c 74 64 a9 bd
       0.06299338 0.07628793 0.027406635 -0.08271113
