deepcluster_implementation/experiments/run_label_fraction_variation/config_4/checkpoints/checkpoint_epoch_14.pth.tar (torch, 203741 bytes, 32 tensors)

features.module.0.weight f4 [16, 1, 3, 3]
000000 e7 80 8a 3f 02 05 15 3d 5e 90 1e bf 48 7a 17 be
       1.0820588 0.03638173 -0.61939037 -0.1479274
000010 e7 9f 35 3f 2d 56 97 be a7 fd 5e bf 75 0e 0a 3d
       0.70947117 -0.29557934 -0.8710579 0.033705194
000020 96 75 8d 3f ef a4 1f 3f d9 f0 da 3d c1 21 48 3f
       1.1051509 0.62361044 0.10690469 0.78176504
000030 84 b9 82 bf 64 22 2b bf bf cf 07 3e af 67 46 3e
       -1.0212865 -0.6684935 0.13262843 0.1937549
000040 64 0b 09 3f bc fb 15 3f b1 5b 39 bf 4b 1d 07 bf
       0.53533006 0.5858724 -0.72405535 -0.5277907
000050 0d 55 17 bf 3b f4 8d be 4c a1 22 3f b3 9b 2b 3e
       -0.5911415 -0.27725396 0.6352737 0.16758613
000060 61 e5 59 bf 51 57 01 be fd f7 b3 3e 54 e6 9c bf
       -0.8511563 -0.12630965 0.35150138 -1.225779
000070 9e 0b 9e be 3a 3a 5a bf c3 af 93 3b 9e 96 14 3e
       -0.30868238 -0.85245097 0.0045070364 0.14510581
000080 05 7e 97 be 96 bf 26 3f 23 4a 23 3e c9 b0 21 3f
       -0.29588333 0.65136087 0.1594625 0.6316038
000090 63 06 42 3f 16 4d f0 3c ca 5f 59 3f bb d4 2d 3c
       0.75790995 0.029333632 0.8491179 0.010609801
0000a0 a2 f1 69 bf a3 6f 83 be f5 6b 51 3f b5 1b 85 bc
       -0.9138433 -0.2567111 0.81805354 -0.016248563
0000b0 19 fd 5c 3f b2 29 9f 3e 97 32 64 3e 58 0a 74 3d
       0.86323696 0.31086498 0.22284923 0.059580177
0000c0 50 41 7d be fe 1a 25 3f 42 30 48 bf 12 62 81 bf
       -0.24731946 0.6449431 -0.78198636 -1.0108054
0000d0 c2 0e 36 bf f7 ae 83 bf 2a cf e4 3e 14 58 a4 bc
       -0.7111627 -1.028777 0.44689304 -0.02006153
0000e0 05 e7 01 3f 06 72 f3 be 11 a4 05 3f 77 66 da 3e
       0.5074313 -0.4754793 0.5220347 0.426563
0000f0 79 2e 87 bf 29 46 71 be 0c 80 8e bf 73 82 e8 3e
       -1.0561057 -0.2356192 -1.1132827 0.45412025
000100 fa 29 70 bd 87 48 80 bf 4b 39 ea 3e 02 91 51 be
       -0.058633782 -1.0022134 0.45746836 -0.20465472
000110 19 5d 8b be e6 85 21 3f 01 8e 2f 3e 69 4c 9a 3f
       -0.27219465 0.6309494 0.17144014 1.2054569
000120 44 d4 81 3f e7 17 9b be f9 18 aa bf 3b 29 12 bf
       1.0142903 -0.30291674 -1.3288871 -0.5709416
000130 ad af 8f be 9d 9d 3f be 3a 8e 15 3e da 57 4a 3d
       -0.28063717 -0.18712468 0.14605036 0.049400188
000140 04 46 a7 3d 0e 74 56 bf 12 02 f8 be 7b 44 9c be
       0.08167651 -0.83770835 -0.4843908 -0.30520996
000150 59 b0 df be be 8e 0d 3e 96 17 01 bc 66 dd 0b bf
       -0.4368923 0.13823983 -0.0078791585 -0.546347
000160 3a b1 90 be 3e bc 73 3f b0 55 10 be 26 56 4b bf
       -0.28260213 0.9520911 -0.14095187 -0.7942833
000170 f7 49 82 3f 2e 0a 91 3d 66 33 6a bf d1 be 00 3f
       1.0178822 0.0708202 -0.9148468 0.5029116
000180 8d 27 93 3f 50 18 60 bf 87 f8 8f be 05 ed 68 bf
       1.1496445 -0.875371 -0.281193 -0.90986663
000190 cf 9f bb 3d f3 65 16 3e 12 89 88 be a9 30 07 3e
       0.091613404 0.14687328 -0.26667076 0.13202156
0001a0 5a 00 69 3e 5a a8 bf be b3 ec b4 be cf f4 86 bf
       0.2275404 -0.3743313 -0.35336837 -1.054346
0001b0 f5 e9 94 bf ff 70 05 3f df 6a 0d 3f 65 67 a3 be
       -1.1633898 0.52125543 0.552412 -0.3191482
0001c0 2c 7d 84 3c a1 64 b2 be 30 c4 05 bf 80 39 aa be
       0.016172968 -0.348424 -0.52252483 -0.33246994
0001d0 35 67 00 3f 87 75 a8 be 46 ea 59 be 78 cd 74 bf
       0.5015748 -0.32902166 -0.21280774 -0.9562602
0001e0 24 f0 12 3f ba 55 94 3e 4a e2 00 bd 66 5d ee be
       0.57397676 0.28971654 -0.031465806 -0.46555632
0001f0 4b d9 6a be 50 9c 3c bf cb d3 63 bf 80 ca 90 bd
       -0.22934453 -0.73676014 -0.88995045 -0.07069874
000200 65 33 4a be d1 3c 80 bb af 79 6e 3f 10 5f 2d 3f
       -0.19746168 -0.0039135 0.93154424 0.6772318
000210 38 2b 95 bf b3 b7 5f bf 3e 14 d1 be 28 e0 02 bf
       -1.1653814 -0.8738968 -0.40835756 -0.51123285
000220 3f 3c 54 bf 66 de 84 bf c2 86 52 3e c2 69 16 3f
       -0.8290443 -1.0380371 0.20559219 0.58755124
000230 8b f6 2d bf 55 94 18 3f b0 69 c8 3e 59 78 47 bf
       -0.6795432 0.59601337 0.39143133 -0.7791801

features.module.0.bias f4 [16]
000000 7b a4 5f bd 41 42 87 3d 8c 28 27 3e 51 b3 82 3e
       -0.05460022 0.06604434 0.16324061 0.25527433
000010 67 7a 93 3e f6 5f 80 be 27 f9 a2 3d 95 44 0b be
       0.28804323 -0.25073212 0.07957678 -0.1360038
000020 a2 ed 0d bd da 5a 72 be 4c 76 93 3e ee a5 6d be
       -0.034650452 -0.2366747 0.2880119 -0.23207828
000030 c2 0c 2d 3e 83 95 e3 3d f7 6f d2 3d 96 0e 2f be
       0.16899398 0.111125015 0.10275262 -0.17095408

features.module.1.weight f4 [16]
000000 3b e0 52 3f f5 4d 70 3f 71 c4 f6 3f e9 2d 55 3f
       0.823734 0.93868953 1.9278699 0.8327318
000010 55 ed 1e 3f e5 94 01 40 44 15 66 3f e0 d5 75 3f
       0.6208089 2.0247128 0.898762 0.9602947
000020 dd b4 be 3f a8 c0 8e 3f 35 63 00 3f dc 52 24 40
       1.4898945 1.1152544 0.5015138 2.5675573
000030 14 3b 80 3f ff 1c 00 40 74 44 a7 3f 62 13 c4 3f
       1.0018029 2.0017698 1.3067765 1.5318415

features.module.1.bias f4 [16]
000000 bf 67 c5 bf 83 85 bd bf e3 5a 08 bf 28 38 09 be
       -1.5422286 -1.480637 -0.5326368 -0.13400328
000010 6d 34 f5 be 38 b6 5c bf 03 f5 0b bf 33 ba ca bf
       -0.4789156 -0.86215544 -0.54670733 -1.5838073
000020 e2 6d 31 bf b7 f6 a7 be 8d e8 50 bd 5f b8 8e bf
       -0.6930829 -0.32805416 -0.051003028 -1.1150016
000030 f8 2d c2 be 14 d2 db be 2c 72 9e be 8b 18 06 bf
       -0.37925696 -0.42933714 -0.3094648 -0.523812

features.module.1.running_mean f4 [16]
000000 0a 9e 17 bd 2a e9 06 3e ea 49 c1 3d 8d 38 65 3e
       -0.037015952 0.13174883 0.09437926 0.22384854
000010 51 44 c6 3e 1c 22 a9 be 47 f6 18 3d 25 99 b6 bd
       0.38723996 -0.33033836 0.037344243 -0.08915929
000020 d2 0b 64 bd da 8a 8f be a7 60 a5 3e 23 54 9d be
       -0.055675335 -0.28035623 0.32300302 -0.30728254
000030 a0 fe 0f 3e dc 88 09 3d 80 b4 6c 3c fa d1 76 be
       0.14061975 0.033577785 0.014447331 -0.24103537

features.module.1.running_var f4 [16]
000000 e7 5d bd 3f 45 b8 e0 3f a2 88 4b 40 4f d4 44 40
       1.4794282 1.7556235 3.1802144 3.0754583
000010 36 a7 24 40 2e 34 c7 40 f8 4f 17 40 7d 3e 2e 40
       2.5727057 6.2251196 2.364256 2.722564
000020 b8 57 32 40 98 a3 7f 40 f4 ee 6f 3f 77 4a 67 40
       2.786604 3.99436 0.9372399 3.61392
000030 d6 6e fd 3f ca 36 43 40 eb 67 56 40 a5 06 92 40
       1.979945 3.050219 3.3500926 4.563311

features.module.4.weight f4 [32, 16, 3, 3]
000000 8a a9 d9 bd 1d 3a d4 bd f5 7a b1 bd 3e 26 af bd
       -0.1062804 -0.10362647 -0.0866603 -0.08552216
000010 65 ee 01 bd e5 40 f4 bd 8f 83 05 be aa de c9 bd
       -0.03172149 -0.1192644 -0.13038467 -0.09856923
000020 ef c9 22 be 76 77 24 be d2 b7 26 be d4 74 0d be
       -0.15897344 -0.16061196 -0.1628106 -0.13814098
000030 d7 22 23 bd 28 b2 cb bd 18 62 c1 bd 09 9d a2 bd
       -0.039828148 -0.0994609 -0.09442538 -0.07940108
000040 1b ea 0f be fb f0 fa 3d c6 09 a4 bc 01 73 22 bc
       -0.14054148 0.122529946 -0.020024192 -0.009915114
000050 31 05 40 3c 74 c8 4e bd 53 43 df 3b c5 51 fc bb
       0.011719988 -0.050484136 0.0068134456 -0.0077001774
000060 bd d1 0a 3d 7e dd c4 bc 0c 08 db bc 77 46 dc 3d
       0.03389143 -0.024031397 -0.026737235 0.107556276
000070 94 e1 95 3d 80 7b c5 3d 42 9d cc bd 65 d5 53 bd
       0.07318416 0.096426964 -0.09990932 -0.05171718
000080 2f 06 be 3c 05 48 53 be eb 12 ea bd ff a4 54 be
       0.023196308 -0.20632942 -0.114293896 -0.20766066
000090 75 f4 e7 bd 1e df 45 be db 55 3f be 70 c2 cd 3d
       -0.11325923 -0.19323394 -0.18685095 0.10046852
0000a0 53 89 81 bd 6f 67 0c be fd 6b b1 3d 93 48 9f bd
       -0.06325021 -0.13711332 0.08663175 -0.07777514
0000b0 34 5d 93 bd 6f c2 05 bd 27 47 a5 3c f2 fa 56 bd
       -0.071955115 -0.03265613 0.02017553 -0.052485414
0000c0 79 8f c6 bd 89 d3 81 bd 90 fe d3 bd 88 c3 17 3c
       -0.09695334 -0.06339175 -0.10351288 0.009262927
0000d0 af bb ad bd e6 87 cf 3c 8b 89 2f be da 6d d4 bd
       -0.084830634 0.025333356 -0.17142312 -0.10372515
0000e0 b5 9a 3e be a2 2a 21 be 8e 8d 8f bd 0d 23 3e be
       -0.18613704 -0.1573892 -0.07009421 -0.18568058
0000f0 ce 17 9a be a2 98 fc bd 42 3f a4 be 91 b5 e2 3d
       -0.30096287 -0.123338 -0.32079512 0.11069787
000100 75 70 a9 bd 9c b7 4c bd 77 fd f9 3c 4b bf c3 bb
       -0.082734026 -0.04997979 0.03051637 -0.0059737316
000110 cd c9 0a be 17 3c 08 be 8b 8d 19 be 8a da 07 be
       -0.13553543 -0.13304172 -0.149954 -0.1326696
000120 7f a0 a4 be ad b2 7e be 4d d9 51 be 43 e7 cc bd
       -0.321537 -0.24872847 -0.2049305 -0.10005047
000130 d5 df af bd 5f 28 dd bd db e0 23 be 3a a7 da bd
       -0.085876144 -0.10798716 -0.16003744 -0.10676427
000140 a1 39 c9 bd df c0 c1 bd fd 35 30 3c 29 69 4b 3d
       -0.09825445 -0.09460615 0.010755059 0.049660835
000150 e5 2b 73 bd ec 31 54 3d b5 c5 87 3c 43 50 4f bd
       -0.059368033 0.05180542 0.016573766 -0.050613653
000160 da b4 48 bd d4 95 73 bd 98 93 39 bd b1 fb 7a bb
       -0.0490006 -0.05946906 -0.045306772 -0.0038296992
000170 dd 63 d0 bd e3 64 03 bd cb bd 69 3d 40 39 c3 3c
       -0.101752974 -0.032078635 0.057065766 0.02383101
000180 13 0a 80 be a0 69 a7 bc f1 fa 22 bd bd d1 90 bc
       -0.25007686 -0.020436108 -0.039790098 -0.017678136
000190 b7 7b 9d bc e9 d7 ab bd f2 4d 2f bd 22 4d e0 bc
       -0.01922403 -0.08390791 -0.042798944 -0.02738053
0001a0 50 f3 69 bd 34 77 47 3c a5 af e2 bc 70 75 a7 bc
       -0.057116807 0.012174416 -0.027671644 -0.02044174
0001b0 b7 ef 80 be 70 3a 0c be b8 ca 4b be 32 3f 12 bd
       -0.25182888 -0.13694167 -0.1990155 -0.0357048
0001c0 07 15 ee 3d 9b 75 8b 3d c2 0c a9 bd a8 11 0b bd
       0.116251044 0.06809541 -0.082543865 -0.033952385
0001d0 b9 7f 04 3c 44 91 53 3a a7 a3 46 bc a4 81 a6 bb
       0.008087092 0.00080706575 -0.012123979 -0.0050813723
0001e0 80 4f 04 bc af 3b 6c bc 93 68 48 bd 99 b2 79 bc
       -0.008075595 -0.014418527 -0.048927855 -0.015240335
0001f0 f8 1b 89 3c f4 1d 48 bc 57 92 6d bc 0d ea 2c bd
       0.01673697 -0.012214173 -0.014500222 -0.042215396
000200 e3 6c ea bc 0d 20 39 bd b1 9f cf bc b4 bd ea bc
       -0.028616374 -0.04519658 -0.025344701 -0.02865491
000210 b8 4e a0 3c 46 b8 a4 bc c3 f2 f9 3b ba d4 81 3d
       0.019568786 -0.0201074 0.0076278164 0.063394025
000220 74 e9 5d 3c b8 61 8f 3d 4a 79 9a bd 3d 88 d8 bc
       0.013544429 0.0700106 -0.07542665 -0.026432151
000230 ca 83 80 bd 80 b3 f3 bd 12 71 20 3b 1f 7f 24 bd
       -0.06275137 -0.11899471 0.0024481458 -0.040160295
000240 19 e5 39 be ce 26 72 bc d9 2f a1 3d ea a1 f6 3c
       -0.181538 -0.01477976 0.07870454 0.030106504
000250 0e 8f 20 3c 3d 7a 1d 3e 06 44 fc 3c b8 cf 46 be
       0.009799732 0.15378661 0.030794155 -0.19415176
000260 04 23 5a be e3 56 5b bd 87 53 3f be 35 db 06 bf
       -0.2130242 -0.05354966 -0.18684207 -0.52678233
000270 7d 0d cb 3c 9b cb ab be 3e e8 c6 be 78 82 3d 3e
       0.024786705 -0.33553776 -0.38849062 0.18506801
000280 d1 58 ae be dd 79 c4 be 2c 4c 8a bd 26 26 23 3e
       -0.34052137 -0.38374224 -0.0675281 0.15932521
000290 b4 2b db bd c0 08 2d be 37 43 8e 3d 90 c1 c5 bd
       -0.10701695 -0.16897869 0.06946414 -0.0965606
0002a0 63 87 a3 be 3e a9 6f 3c 24 74 dc bd 99 36 7a be
       -0.3193923 0.014627753 -0.107643396 -0.2443489
0002b0 26 5f c1 be 00 21 97 be 84 30 9f be 25 fe c6 bd
       -0.37767905 -0.29517365 -0.31091702 -0.09716443
0002c0 b8 3a bd bd 74 19 cd be 89 37 58 be 95 f7 ac be
       -0.09239715 -0.40058482 -0.21114935 -0.3378264
0002d0 c2 a1 1d 3d 25 0e fc 3c ca d5 3c 3b e3 d7 9e 3d
       0.038484342 0.030768463 0.0028813952 0.07756021
0002e0 2c b3 8e bc a7 4c cd bd c0 2f 5e 3e 02 1a e4 3c
       -0.01741942 -0.10024386 0.21697903 0.027844433
0002f0 e3 2a 8c be c9 90 57 be dd 56 09 3e f2 f2 57 3e
       -0.2737647 -0.21051325 0.13412042 0.2108877
000300 8c 03 55 be 49 57 6d 3d 97 e5 b1 3d 79 b7 04 be
       -0.20802134 0.05794457 0.08686369 -0.12960614
000310 9c 1c 99 ba 33 59 64 3a 29 67 90 be 5d 72 97 bb
       -0.00116815 0.00087108015 -0.28203705 -0.0046217875
000320 a4 30 d0 bc 7d d4 72 be 0d a4 bf bc 25 d7 57 bd
       -0.025413819 -0.2371387 -0.023393655 -0.052695412
000330 2f da 3f be b4 27 0f bd 70 e1 b4 bc 59 64 85 bd
       -0.18735574 -0.034949973 -0.022080153 -0.065132804
000340 50 e0 02 bd 0a 9e 15 be 62 37 d9 3d 8f 22 ac 3d
       -0.031952202 -0.14611068 0.106062666 0.08405029
000350 f2 33 5d bd de 00 e2 3d 8b 89 0b bd cd 90 70 be
       -0.054004617 0.11035322 -0.034066718 -0.23492737
000360 3f 0f 77 3e 16 bb 32 3e 66 06 83 3d 5a 36 84 3c
       0.2412691 0.1745418 0.06397705 0.016139198
000370 f0 ab 52 bd 59 98 7c 3d 07 9c 58 3c 09 cc 74 bd
       -0.051433504 0.061668728 0.013220794 -0.059764896
000380 51 60 ec 3a 8b 9f e9 bd 36 78 62 be ce 33 c4 bd
       0.0018034076 -0.114073835 -0.2211617 -0.095801935
000390 44 bf 07 be 71 56 8d bd 04 8f 22 bd 1a 10 e8 bd
       -0.13256556 -0.06901253 -0.03968717 -0.11331196
0003a0 5e 6d 94 bd a4 10 84 be f2 fa 80 3d c1 86 a7 bc
       -0.07247423 -0.25793946 0.06297864 -0.020449998
0003b0 08 12 8a 3d e5 4e 2d 3d 46 6f d1 3c 23 7d 06 3d
       0.067417204 0.042311568 0.025565755 0.032834183
0003c0 d5 d5 bd 3c 21 dd 9d 3d 04 d4 47 3d 7f 80 9e 3c
       0.023173252 0.077081926 0.04878618 0.019348381
0003d0 cf 0e 1c 3e 1a 33 a2 bc 8d 87 51 be 32 71 6f 3d
       0.15240024 -0.019799758 -0.20461865 0.05845756
0003e0 ae 12 2d be 8c b5 bb be 5e ff 9b 3c fc e6 c6 bd
       -0.16901657 -0.36661947 0.019042667 -0.097120255
0003f0 b3 32 ce 3c 60 b5 eb bd 8a 3a 51 3e 03 79 fa bd
       0.02517066 -0.11509204 0.20432487 -0.122301124

features.module.4.bias f4 [32]
000000 30 3f a8 3c 4a 7e 22 3d 61 02 94 bd f0 d2 61 bd
       0.020537943 0.03967122 -0.07227016 -0.055132806
000010 83 60 9b bd d3 24 17 3d 13 d5 72 3d 27 8d 9b bd
       -0.075867675 0.036900353 0.059285235 -0.07595282
000020 4d 5a a8 3c 11 54 83 3c b3 c2 2d bd c3 e8 8b 3c
       0.020550871 0.016031297 -0.042422008 0.017078763
000030 33 ac 79 3d 36 cc 9e 3d 24 06 0c 3d 37 69 80 bc
       0.060955238 0.07753794 0.034185544 -0.01567517
000040 0c 3a 38 bd fe a4 f6 bc 97 e6 29 3a d6 42 be bb
       -0.044977233 -0.030107971 0.0006481199 -0.0058063073
000050 82 42 6c 3d b8 4f 92 bd 26 36 e7 3b 52 f6 cd bc
       0.057680614 -0.071441114 0.0070560155 -0.025141869
000060 4e 04 d8 3b d8 af 9b 3d fc 8f 17 3b 2b 9f 60 bc
       0.00659231 0.07601899 0.0023126593 -0.013709824
000070 50 7d db bc 3c 90 a1 bd c6 ad 92 bd 2e 14 0d 3d
       -0.026793152 -0.07888839 -0.07162051 0.034443073

features.module.5.weight f4 [32]
000000 1a 5b 05 3f 0e 78 20 3f 7e 6b ed 3e 2f 00 80 3f
       0.52092135 0.6268319 0.46371073 1.0000056
000010 5b 06 bd 3f 51 b1 53 3f 66 f6 26 3f 24 d9 36 3f
       1.4767565 0.8269244 0.65219724 0.7142508
000020 7b e0 e4 3e 14 5d a2 3f 6c 35 26 3f 69 12 8d 3f
       0.44702515 1.2684655 0.64925265 1.1021243
000030 e1 a0 68 3f df 3f ae 3f 9d ba 07 3f ed 86 4e 3f
       0.9087048 1.3613242 0.53019124 0.8067463
000040 21 36 91 3f e2 a5 bd 3f d2 cd 39 3f 73 78 5a 3f
       1.1344644 1.4816248 0.7257968 0.8534004
000050 3f 91 77 3f 02 a4 17 3f 10 20 2b 3f c7 61 4d 3f
       0.96706 0.5923463 0.668458 0.8022732
000060 96 bc 7a 3f d8 d1 2c 3f 04 43 0a 3f ea c2 f2 3e
       0.9794401 0.67507696 0.5400851 0.47414333
000070 ea 2f 1f 3f bc 68 4a 3f 1e 42 4b 3f ab 6b 43 3f
       0.62182486 0.7906606 0.7939776 0.76336163

features.module.5.bias f4 [32]
000000 f9 a0 16 be 82 ab 21 bf 73 67 c6 be 4a fe 62 bf
       -0.14709844 -0.63152325 -0.387508 -0.88669264
000010 ba bb 44 c0 13 1b c7 bf a2 ce 92 bf e2 29 9a bf
       -3.073958 -1.5555137 -1.1469309 -1.2044032
000020 94 32 3c be 11 ad 3e c0 e4 6a 4d bf 69 ac 20 c0
       -0.18378669 -2.9793131 -0.8024123 -2.510523
000030 89 57 72 bf 96 aa 91 bf 04 1e 8f be 62 2f 2b bf
       -0.9466482 -1.1380184 -0.27952588 -0.66869175
000040 9f 89 80 bf 67 c6 93 bf 52 65 90 bf 90 2f 0f bf
       -1.0041999 -1.1544923 -1.128092 -0.5593195
000050 59 f5 24 bf 88 b3 81 bf 47 d5 80 bf 23 30 ad bf
       -0.6443687 -1.0132914 -1.0065087 -1.3530315
000060 4a 02 4e bf 16 b4 4a bf e0 3a 11 bf 39 8c 03 bf
       -0.8047224 -0.7918104 -0.5673046 -0.5138584
000070 19 09 3a bf da bf ab bf 3e f4 7a bf ea 62 8b bf
       -0.7267013 -1.3417923 -0.98028934 -1.0889561

features.module.5.running_mean f4 [32]
000000 f9 cc 50 bf 12 f9 b6 bf ef 9a d8 bf 9a d2 39 bf
       -0.81562763 -1.429476 -1.6922282 -0.7258698
000010 e0 53 55 c0 1d a5 27 c0 86 5f f3 bf dc f1 03 c0
       -3.3332443 -2.6194527 -1.9013526 -2.061637
000020 f8 33 85 be 73 69 59 c0 cd 0a 56 bf 4a 3c 28 c0
       -0.26016212 -3.397061 -0.8361023 -2.6286798
000030 b9 6b 4f bf 0f 91 ae bf 44 99 3e bf 71 b8 73 bf
       -0.81023747 -1.3638018 -0.74452615 -0.9520331
000040 1f e8 91 bf 26 8c b1 bf 75 6a ab bf 9d 0c 5c bf
       -1.1398963 -1.3870895 -1.3391863 -0.85956746
000050 77 22 71 bf f2 0e b9 bf 96 a6 d9 bf 00 14 1d c0
       -0.94193214 -1.4457686 -1.7003963 -2.4543457
000060 a0 a4 96 bf da 94 43 bf 9b 63 f0 be 7a 5d 60 bf
       -1.176899 -0.76399004 -0.46950993 -0.87642634
000070 bb d5 72 bf 22 7d 03 c0 45 cb 98 bf c2 6f dc bf
       -0.94857377 -2.0545125 -1.1937033 -1.7221606

features.module.5.running_var f4 [32]
000000 81 b7 2e 3f 91 42 9e 3f 8d c8 8d 3f 3a d7 e0 3f
       0.68248755 1.2364064 1.1076828 1.7565682
000010 bd fd fc 3f c1 50 c1 3f ba 7a 7e 3f 10 7c 8a 3f
       1.9764935 1.5102769 0.99406016 1.0819111
000020 f1 06 90 3f 4c c9 e3 3f 38 3a 54 3f 41 ed 9f 3f
       1.1252118 1.7795806 0.82901335 1.2494279
000030 ef cc 7a 3f 27 cb 34 40 07 20 14 3f 5f f5 cc 3f
       0.97968954 2.8248994 0.5786137 1.6012381
000040 7b 65 24 40 c2 35 84 40 a7 9c 78 3f e2 aa 99 3f
       2.5686939 4.131562 0.9711403 1.2005274
000050 26 6f 04 40 a8 bf 20 3f 30 d7 5e 3f f6 91 09 40
       2.069284 0.62792444 0.870471 2.1495337
000060 ac ef 10 40 90 9b 8b 3f ce 96 87 3f c0 ae 8c 3f
       2.2646284 1.0906849 1.0592897 1.099083
000070 64 3c 56 3f e6 54 b1 3f ca c5 2c 3f 9a 29 77 3f
       0.836859 1.3854034 0.674893 0.96547854

features.module.8.weight f4 [64, 32, 3, 3]
000000 b0 e0 70 b9 3d 5b 8b bb 24 c0 38 bb 6f 00 d9 bb
       -0.00022971886 -0.00425282 -0.0028190697 -0.006622366
000010 28 fd 0b bc ee b8 11 bc aa 28 dc bb 79 19 f0 bb
       -0.008544244 -0.008894188 -0.0067187147 -0.0073272553
000020 2c 74 2d bc 81 76 25 bc ee b7 ab bb 9d 4c 0b bb
       -0.01058678 -0.010099054 -0.005240432 -0.0021255382
000030 e2 f4 84 bb 40 34 dc b6 7e ed df 3a 87 16 cd bc
       -0.0040575126 -6.5625936e-06 0.0017084328 -0.025035156
000040 be 03 78 bc f7 0a 0b bc 69 ad 99 3b 32 45 39 3b
       -0.015137611 -0.008486501 0.0046898616 0.0028270003
000050 70 58 54 3b e6 32 b9 3b 1f 53 1b 3b af 34 31 3c
       0.0032401346 0.0056518195 0.0023700667 0.010815783
000060 d4 40 c5 bb 6f 2f 8b 3b e2 05 df 3a 94 70 a6 bb
       -0.006019691 0.004247598 0.0017015303 -0.0050793383
000070 fc fe dc bb 61 99 fb bb c3 cd 0d bc 91 67 2a bb
       -0.0067442637 -0.0076781963 -0.008655014 -0.0026001672
000080 38 26 3a ba f4 f8 a5 bc c8 d7 45 bc 99 52 34 bc
       -0.0007101032 -0.020260312 -0.012075372 -0.011006021
000090 c3 66 4a 3e dc ce ea 3d 66 33 55 3e 05 fc b3 3e
       0.19765763 0.114652365 0.20820388 0.35153213
0000a0 46 96 47 3e 76 bb b7 3e b8 e4 f1 3e 5e ec 8c 3e
       0.19490919 0.3588521 0.4724481 0.27524084
0000b0 93 16 ea 3e e8 fa 01 3c 88 80 ee b9 75 82 39 bb
       0.45720348 0.007933356 -0.0004549066 -0.0028306518
0000c0 18 f5 03 3c 21 a3 f8 3a bc e5 fc 3a 33 82 12 bc
       0.00805404 0.0018969515 0.001929454 -0.008942175
0000d0 e2 b6 f6 ba 7a 5d 4e 3a fc e4 28 3b 7d 64 2c 3b
       -0.0018822814 0.00078722055 0.002577125 0.0026305013
0000e0 93 78 a1 3a c8 22 71 3c 8b f3 a8 3b 18 fb 39 3a
       0.0012319259 0.014717765 0.0051559857 0.0007094606
0000f0 45 ed c0 3a b4 57 b1 bb ae 6e 4a bc cf f7 f9 bb
       0.0014719149 -0.0054120664 -0.01235549 -0.007628418
000100 c3 03 fc ba d3 98 a4 3a d1 46 95 bb 33 55 2c 3b
       -0.0019227195 0.0012557752 -0.004555561 0.00262959
000110 ab 6f bf 3b 90 f9 3c bc 9c 8b 89 b9 18 ec bc 3b
       0.0058421693 -0.01153411 -0.00026234693 0.0057654493
000120 f7 0f d7 bb 75 a9 85 ba 32 0f 83 bb 43 52 28 bc
       -0.0065631825 -0.0010197597 -0.003999614 -0.010273519
000130 d0 08 b8 bb 9f d1 05 bc 83 e8 72 bb 3c 32 73 bb
       -0.005616285 -0.008167653 -0.0037064857 -0.00371088
000140 ee b8 71 bb cc 29 81 bd 46 f6 46 bd 41 e0 4f bd
       -0.0036883908 -0.063068 -0.04857471 -0.050750975
000150 97 21 ab 3c 3a 71 65 3c 6d 0e c6 3c c8 98 b2 bc
       0.02089004 0.014004046 0.0241768 -0.021801367
000160 7a ca e3 bc cd f8 80 bc 1f a4 c9 3c d1 1a 6c 3c
       -0.02780651 -0.015743637 0.024614392 0.01441069
000170 17 45 aa 3c c3 fb be 3c 2f 59 80 3c 8c 20 fd 3c
       0.020784898 0.023313409 0.015667526 0.030899309
000180 69 9d 1e 3d ff 5c e0 3c 50 8b 1f 3d d0 5a 0d 3d
       0.038724337 0.027388094 0.038951218 0.034510434
000190 14 d1 ef 3c 3d d9 c3 3c ba 58 1a 3d 1f 6a 0f 3d
       0.0292745 0.023907298 0.037682272 0.035013314
0001a0 81 43 e4 3c 07 9b da 3c 1c d3 d6 3c ae 51 a2 3c
       0.02786422 0.02668525 0.026223712 0.019814339
0001b0 ad f9 9b 3a 2c 9a 76 3b 1d 34 c1 3b 5c 75 16 bb
       0.0011899971 0.0037628515 0.005896105 -0.0022958135
0001c0 46 97 f5 39 d0 b0 82 3b ca 9b 36 bb b3 cd 4f 3a
       0.0004684275 0.003988363 -0.0027863854 0.0007927075
0001d0 58 47 f4 ba 61 6d db bc 8e 20 5d bc 5c 48 92 bc
       -0.0018636985 -0.026785554 -0.013496531 -0.01785677
0001e0 b0 b9 7d bc a7 89 f7 bb ea b2 eb bb 4d cb 46 bc
       -0.015486166 -0.0075542512 -0.007192959 -0.012133432
0001f0 f5 0a fa bb 99 81 e9 bb 75 d0 c0 3a 00 c7 bd ba
       -0.0076307007 -0.007126045 0.0014710563 -0.0014478862
000200 76 49 9c 3b 67 01 7a 3b c0 df 84 3b b6 51 f9 3b
       0.0047694994 0.0038147809 0.0040549934 0.0076086177
000210 c1 ff 3c bb 41 38 f8 ba 68 ad 8e 38 2d bc c8 3c
       -0.0028838965 -0.0018937663 6.803387e-05 0.024503792
000220 43 2b 62 3c 70 49 b0 3c f0 45 e4 3c 7f 4d a2 3c
       0.01380426 0.021519393 0.02786538 0.019812344
000230 62 5f ec 3c b4 b4 a5 3c bd 75 3d 3c c0 4f 6f 3c
       0.028854076 0.020227768 0.0115637155 0.014606416
000240 33 18 7c bb 0a 92 3b bb d3 20 82 bb a2 ba 6c bb
       -0.0038466572 -0.0028620982 -0.003971198 -0.0036121984
000250 b2 00 0b bb ab f6 65 bb b0 d1 1b bc 8b a2 e0 bb
       -0.0021210131 -0.0035089653 -0.009510443 -0.006855314
000260 64 4a 61 bc 92 9c 1c bc ef 15 78 3b 99 11 1d 3c
       -0.013750646 -0.009558814 0.003785487 0.009586715
000270 42 8b aa bb dc 9f cd 3b 7c 72 f9 3b 34 8e b5 bb
       -0.005204589 0.0062751602 0.0076125246 -0.0055406336
000280 6a fe 8f 39 5b 9e c9 ba 6f bf 87 bc 59 18 13 bc
       0.0002746464 -0.0015382277 -0.016570775 -0.008977973
000290 71 9d 08 bc cd 8e af bc 0c 39 8a bc 7b 08 1e bc
       -0.008338318 -0.021430397 -0.016872905 -0.009645577
0002a0 37 e1 b3 bc a6 21 8f bc 17 b4 69 bc 8e 5c b5 bc
       -0.021957977 -0.0174721 -0.014264128 -0.02213886
0002b0 7a 05 1f bc b3 56 65 3b 17 96 94 bb 94 b8 87 bb
       -0.009705896 0.0034994304 -0.0045344937 -0.0041418765
0002c0 ed 93 b7 bb 14 f9 1b 3c fd 37 d6 3b b6 ea 1f 3c
       -0.005602351 0.009519834 0.006537436 0.009760549
0002d0 d0 4c 56 bc be 21 29 bb 7b 60 1a 3c 64 a7 a6 bc
       -0.013079837 -0.0025807465 0.009422417 -0.02034349
0002e0 97 26 0e bc db 9d 0f 3b 46 2d 46 bc 30 ad ab bb
       -0.008676193 0.0021914158 -0.012095755 -0.0052391514
0002f0 dc ae fc 38 92 b3 57 3c d8 3b 0f 3c cf a0 ee 3b
       0.000120488665 0.0131653715 0.008742295 0.0072823535
000300 62 fd 56 3c c8 39 4a 3c 6d 50 47 3c 05 a8 17 3c
       0.013121935 0.012342878 0.012165171 0.009256368
000310 d6 50 88 3b 46 db 24 ba 84 5e 79 3d 4d d4 fb 3c
       0.004160027 -0.0006288778 0.060881153 0.030740881
000320 16 8d 13 3d 23 88 ec 3c 8f ff 20 3c 20 83 e0 3c
       0.036023222 0.028873509 0.009826555 0.027406275
000330 78 8d ca 3c 78 83 88 3c 67 13 09 3d 1f 85 d7 3b
       0.02472566 0.016664252 0.03346577 0.0065771486
000340 ec 1e c1 3b a3 42 00 3c 15 6d 6e 39 24 1a cd b9
       0.0058935788 0.007828387 0.00022738085 -0.00039120123
000350 bb d2 e5 3a fd f8 55 bb c0 f5 64 bb d1 63 ab 3b
       0.0017534116 -0.003264963 -0.0034936517 0.005230405
000360 2b 1a 27 bb bc 9b 7b bb 76 7d 24 3c 92 fb ac 3c
       -0.0025497775 -0.0038392385 0.010039678 0.021116052
000370 7b 65 a3 3c 1b 49 02 3d 8f 89 f7 3c 6f f7 7c 3c
       0.01994585 0.031808 0.03021696 0.015439852
000380 ad 63 aa 3c ab c4 9f bc 3d aa c3 bb 0a fe b4 3b
       0.020799482 -0.019502958 -0.0059712217 0.005523448
000390 8f 67 ec bb f2 43 81 bb af 8c 53 ba 45 ac 19 bb
       -0.0072144936 -0.0039448673 -0.0008069975 -0.0023448628
0003a0 f9 54 15 b9 2e 3a 68 3b b5 b5 16 3d b7 c4 b8 3c
       -0.00014241402 0.0035435068 0.036794383 0.022554738
0003b0 1d 23 b4 3c ac 43 a2 3c 49 0e 8d 3c 56 28 af 3c
       0.0219894 0.01980766 0.017218726 0.021381538
0003c0 96 ef e3 3c f7 56 ef 3c 39 17 14 3d 49 ef 18 bc
       0.027824204 0.029216273 0.03615496 -0.009334394
0003d0 58 32 2a bc 54 ab 4d bc 20 b8 76 bb cc fe 66 bb
       -0.010387979 -0.012553055 -0.0037646368 -0.0035247086
0003e0 53 96 a1 bb 2a c4 3f bc 7e 72 18 bc f9 22 d4 bb
       -0.00493125 -0.011704484 -0.009304641 -0.0064738956
0003f0 c4 4c 07 bc 0d 87 6c bc 04 a4 db bc 03 f6 13 bb
       -0.008258048 -0.0144364955 -0.026811607 -0.0022577054

features.module.8.bias f4 [64]
000000 ea f7 d1 bc 45 95 28 3c f3 82 31 3c 9f 73 61 3d
       -0.02563091 0.010289495 0.010834443 0.055041905
000010 ee 77 51 3d 28 0f 3d bd 80 87 e3 3c b6 8c 37 bd
       0.051139764 -0.046157032 0.027774572 -0.044811927
000020 04 ec df bc 10 b9 b4 3c 91 a5 1c bd ec 5d 44 3d
       -0.02733422 0.0220609 -0.038243834 0.047941133
000030 61 69 ad 3c a5 a8 9c 3b 57 47 00 3d 30 17 43 bd
       0.021168413 0.004780846 0.031318035 -0.047629535
000040 04 1a 17 3c ee ab aa 3c 1b a9 d2 bc 89 60 8e bc
       0.009222511 0.020833936 -0.025715401 -0.017380016
000050 ba cd b9 3c 20 f8 41 3d f6 9c b2 bc 23 47 0a 3d
       0.022681106 0.04735577 -0.02180336 0.033759248
000060 dd 62 00 3d 30 06 06 bd f1 06 36 bd 7c db d7 bb
       0.031344283 -0.032720745 -0.044440214 -0.006587444
000070 e6 1e 0e 3d ee ee 3e bd 7e 1b 1f bd 9e e6 26 3d
       0.034697436 -0.04661458 -0.038844578 0.040747277
000080 12 55 03 bd 83 84 23 bd 58 2d 1c bb 1a 1a 60 3d
       -0.03206355 -0.039921295 -0.0023830738 0.054712392
000090 d6 0f 17 3d d2 4c ec 3c 7b a2 ea 3b 14 7a e5 bc
       0.036880337 0.028845225 0.0071604825 -0.028012313
0000a0 2f 71 32 bd 2b 57 f3 3c 03 be 87 3c 8e 61 6e 3c
       -0.04356497 0.02970465 0.016570097 0.014549626
0000b0 15 48 a9 bc df 71 5f bd 4e ae fa 3b 30 bb 1d bc
       -0.020664254 -0.054551955 0.0076501733 -0.0096271485
0000c0 28 98 8a bb af ec ad 3b 5f dd 05 bd 1a a3 0e bd
       -0.004229564 0.005307756 -0.03268182 -0.034823515
0000d0 7a d8 84 bc 53 c6 b1 3c b7 61 0f bd 2a 77 55 3d
       -0.016216505 0.021701014 -0.035005298 0.052115597
0000e0 af 5e 61 bd 18 22 0e bd 8a 44 83 3c 3a bf 5e bd
       -0.055021938 -0.034700483 0.016023893 -0.054381587
0000f0 05 3f fe bc 10 54 ec 3c 6a 36 1b bd d4 ac 92 3c
       -0.03103591 0.028848678 -0.03789369 0.017904676

features.module.9.weight f4 [64]
000000 fa 09 c3 40 6e b9 dd 40 71 98 b0 40 ce 8f ce 40
       6.094968 6.9288855 5.5186086 6.4550543
000010 4f 24 ae 40 3e 4c c1 40 c6 12 a0 40 f8 57 a9 40
       5.441932 6.040557 5.0022917 5.2919884
000020 81 27 a0 40 ab e5 b7 40 79 c3 c9 40 58 dd d1 40
       5.0048223 5.7467856 6.3051114 6.5582695
000030 a2 b8 6b 40 ca f6 ef 40 e4 b5 a3 40 75 7b be 40
       3.683144 7.4988756 5.1159534 5.9525704
000040 ad 68 cd 40 02 c9 a8 40 59 ec 85 40 04 4b 9b 40
       6.419028 5.274537 4.185101 4.852907
000050 2b aa db 40 c6 d8 d4 40 a2 92 ab 40 20 87 a8 40
       6.8645225 6.6514616 5.3616495 5.2664948
000060 e1 db d6 40 69 d3 a0 40 07 05 c2 40 83 13 be 40
       6.7143407 5.025807 6.0631137 5.939882
000070 73 59 fe 40 21 83 aa 40 d5 48 fd 40 9a 58 af 40
       7.948419 5.328507 7.9151406 5.4795656
000080 c3 82 c9 40 71 7d dc 40 cd fb d7 40 da 7e a4 40
       6.297212 6.8903127 6.7494874 5.140485
000090 f2 ff ac 40 9f f3 05 41 1f 3d f9 40 60 33 a2 40
       5.4062433 8.371978 7.788711 5.0687714
0000a0 20 7a bb 40 71 8f 00 41 1a 7c ca 40 31 c7 b0 40
       5.858658 8.03502 6.327649 5.5243154
0000b0 47 de ae 40 2b 0e 9e 40 94 32 aa 40 a8 b4 da 40
       5.4646335 4.9392295 5.318674 6.834553
0000c0 c0 ae 9e 40 02 41 d5 40 da 99 c2 40 fc 65 f4 40
       4.958832 6.6641855 6.0812807 7.6374493
0000d0 cb 9f c6 40 a3 c0 de 40 a5 d6 be 40 5c fa bc 40
       6.207006 6.961015 5.9637017 5.9055614
0000e0 ae 29 b5 40 96 e9 a1 40 38 d6 da 40 0a 84 bc 40
       5.661338 5.059764 6.8386497 5.891118
0000f0 2a f5 b5 40 87 51 c3 40 38 15 b2 40 a2 89 bd 40
       5.6861773 6.103702 5.56509 5.923051

features.module.9.bias f4 [64]
000000 af 52 87 3f 29 e3 bf 3f 3a 10 a6 3f 6b 7d d9 3f
       1.0572108 1.4991199 1.2973702 1.69914
000010 48 cf b7 3f 82 e2 92 3f fc 12 b1 3f db 10 45 40
       1.4360132 1.1475375 1.3833919 3.0791538
000020 37 e3 37 40 a0 db af 3f 14 af 96 3f c2 f1 bb 3f
       2.873243 1.3738899 1.177218 1.4683154
000030 e4 8f f1 3f d1 bf be 3f b4 c4 81 3f bf 27 9f 3f
       1.8872037 1.4902288 1.0138154 1.2434005
000040 95 36 8e 3f 70 ba 99 3f fb f9 bb 3f 7d 74 ab 3f
       1.1110407 1.2010021 1.4685663 1.3394924
000050 54 ce c2 3f 2f 5c c8 3f 99 3a a9 3f 3d f0 a0 3f
       1.5219216 1.5653132 1.3221008 1.2573315
000060 d1 f5 bd 3f 21 fb 80 3f 34 91 77 3f b1 a8 82 3f
       1.4840642 1.0076638 0.9670594 1.020773
000070 8b 25 f4 3f 7d 08 3e 40 db ae 19 40 75 38 ce 3f
       1.9073957 2.969268 2.4012973 1.6110979
000080 02 06 b0 3f e6 5e ee 3f a2 24 a0 3f 3e 74 88 3f
       1.3751833 1.8622711 1.251118 1.0660474
000090 a5 81 b8 3f e8 7d d2 3f 96 35 4c 40 50 82 8d 3f
       1.4414564 1.6444674 3.1907706 1.1055393
0000a0 64 17 d0 3f a3 4d 27 40 b6 b9 b4 3f 00 93 4d 40
       1.6257138 2.6141136 1.4119174 3.2120972
0000b0 a6 8a a4 3f 76 a0 9c 3f 3f 95 c4 3f 14 0e b5 3f
       1.2854812 1.2236469 1.5358046 1.4144921
0000c0 d4 e2 9a 3f da ff a3 3f 5b 71 03 40 1d 10 36 40
       1.2100472 1.2812455 2.0537937 2.8447335
0000d0 e6 ec b6 3f a5 56 26 40 84 21 be 3f 96 83 ca 3f
       1.4291046 2.5990384 1.4853978 1.5821407
0000e0 59 2b d8 3f 61 94 9e 3f fa 4a ba 3f 02 48 4c 3f
       1.6888229 1.2389032 1.4554131 0.79797375
0000f0 91 d1 73 3f dd 30 71 3f c6 cd 9d 3f 11 a2 33 40
       0.9524165 0.94215184 1.2328422 2.8067667

features.module.9.running_mean f4 [64]
000000 27 a7 b3 bc 6f 5b 21 3d cf 0f b2 3b 2f 95 8c 3c
       -0.02193029 0.03939384 0.0054340134 0.01716098
000010 7b 5f 5a 3d 92 c9 5c bd 3e df db 3a 90 75 f1 3c
       0.053313714 -0.05390317 0.0016774905 0.029475003
000020 2c ef 2e 3d 66 5a 2c 3d 54 72 d8 bc a1 46 3f 3d
       0.04270856 0.0420784 -0.026421703 0.046698216
000030 4d 1b b4 3d 62 68 c4 bb 7e b1 17 3d b1 dd 65 bd
       0.0879427 -0.0059938887 0.037034504 -0.056119625
000040 a4 80 95 3c 9a ee 20 3d 6d 22 bb bc b5 b7 ae bc
       0.018249817 0.03929005 -0.022843564 -0.021327833
000050 42 d2 ee 3c 47 9d 68 3d 38 45 cf bc 08 09 64 3d
       0.029152993 0.056790616 -0.02530156 0.055672675
000060 94 19 28 3d 53 18 f0 bc c3 12 16 bd f0 43 eb 3a
       0.04104002 -0.029308474 -0.036638986 0.0017949324
000070 83 d7 16 3c ec 81 dc 3b e6 cc 95 bd 03 fc b8 bc
       0.009206655 0.006729355 -0.07314472 -0.022581106
000080 5a 9e d7 bc fd 9d e6 bc ca b0 00 3c 10 2a 6f 3d
       -0.026320625 -0.028151507 0.00785465 0.058389723
000090 9a 19 c0 3a 62 0f a5 bb 08 b6 dc bd 89 3c 47 bc
       0.0014656067 -0.005037234 -0.10776907 -0.012160429
0000a0 a6 2c 8e bd ec f3 33 3d 65 94 1a 3d d0 1d bc 3d
       -0.0694211 0.043933794 0.037739176 0.09185374
0000b0 2e cb ce bc a0 30 18 bd ba 49 6d bd bc 29 e7 bb
       -0.025243368 -0.037155747 -0.05793164 -0.0070545357
0000c0 22 49 dc ba a2 26 89 bb 99 67 3c bd f6 27 4b bd
       -0.0016806463 -0.0041855136 -0.045997236 -0.049598657
0000d0 55 70 04 3b f0 68 10 bb 0f 7d 10 bd 3b 94 f9 3c
       0.0020208557 -0.0022035204 -0.035275515 0.03046619
0000e0 05 59 fa bd bc 71 3f bd f4 f5 aa 3c 19 93 36 bd
       -0.122240104 -0.046739325 0.020869233 -0.044573877
0000f0 02 2c be bc e7 30 17 3d 35 5a c9 bc b2 dc 62 3d
       -0.023214344 0.03691187 -0.024579147 0.055386253

features.module.9.running_var f4 [64]
000000 a7 5f 51 3b 7c 1e e6 3b 48 6e d0 3b fa 24 27 3c
       0.0031947882 0.007022677 0.006360803 0.010201687
000010 a8 e9 b8 3b f8 08 b7 3b 18 d0 e3 3b aa 73 e5 3b
       0.0056430884 0.005585786 0.006952297 0.0070023136
000020 00 41 e7 3b aa 8a 03 3c 3b aa ac 3b 02 d7 e4 3b
       0.007057309 0.008028666 0.0052693165 0.0069836387
000030 bd 33 b2 3b ef 56 03 3c 1d 3d ad 3b 2b 6d c1 3b
       0.0054382966 0.008016332 0.0052868263 0.0059029064
000040 b4 35 b1 3b 54 63 f5 3b 1b 67 12 3b 5f 06 a7 3b
       0.0054080132 0.0074886475 0.0022339288 0.005097195
000050 63 0d 10 3c 7a e9 8a 3b be 93 bd 3b bb fa dc 3b
       0.008792254 0.0042392584 0.0057854345 0.0067437566
000060 b0 18 2c 3c 58 5d af 3b 04 6f 9f 3b b0 ce 4e 3b
       0.010503933 0.0053517036 0.004865529 0.00315563
000070 ea 2c 6f 3c 7d 33 76 3b 9c d3 6a 3c c3 4a 08 3c
       0.014598111 0.003756731 0.014332678 0.008318606
000080 16 0d fd 3b 0f a6 f5 3b 00 c2 bf 3b 06 af a8 3b
       0.007722507 0.0074966024 0.005851984 0.0051478175
000090 95 1e f8 3b fe 60 1d 3c 14 3f 54 3c 7a 8e e3 3b
       0.007572005 0.009605644 0.012954492 0.0069444748
0000a0 36 d2 0e 3c c5 7d 93 3c 61 29 0e 3c 6c bc 00 3c
       0.00871711 0.018004308 0.008676858 0.007857423
0000b0 79 67 db 3b f7 1e e1 3b 35 21 f3 3b 67 2f 0b 3c
       0.0066956845 0.0068701464 0.00741973 0.008495188
0000c0 f1 9a aa 3b b6 29 ed 3b 7d b9 cf 3b 18 eb 88 3c
       0.0052064587 0.0072376383 0.0063392506 0.016713664
0000d0 db 6a 06 3c a1 05 7e 3c a8 c7 e1 3b c7 23 07 3c
       0.008204187 0.015504272 0.006890256 0.008248276
0000e0 09 15 15 3c 25 0d 99 3b 08 30 09 3c b0 33 58 3b
       0.009099253 0.0046707564 0.008373268 0.0032989793
0000f0 1c 9e 3c 3b 2e 48 3e 3b e6 bf 8a 3b 6a 3e 9b 3b
       0.0028780764 0.0029034722 0.004234302 0.004737665

top_layer.weight f4 [10, 64]
000000 24 8e ed bc 69 5c a9 3e e0 31 25 bc 6a 76 06 be
       -0.028998442 0.33078316 -0.010082692 -0.13131109
000010 1b 6e 77 bd 02 60 70 bd bc 74 a6 bd 92 05 6e bd
       -0.06040774 -0.05868531 -0.08127734 -0.05811078
000020 dd 08 6d bd 22 36 be 3e 1e 54 e2 bb 81 2b 98 bd
       -0.05786978 0.37150675 -0.006907 -0.07430173
000030 3a 89 bf bb df bf b5 bd 58 b9 42 bd 9d f2 95 bc
       -0.005845216 -0.08874487 -0.04754004 -0.018304164
000040 10 35 6f bd b8 ba ac 3e 6c e2 21 bd 41 d4 6a 3c
       -0.058400214 0.33736205 -0.039522573 0.014332832
000050 31 cf b6 bc 7d 42 48 bd d1 94 d0 bc e5 27 a6 3e
       -0.022315593 -0.048891533 -0.025461586 0.32452312
000060 64 60 e5 bc 8a f4 34 bd ec e2 0e bd e6 b6 9b 39
       -0.028000064 -0.044178523 -0.03488438 0.00029700174
000070 2e 27 7b 3d e4 0c 7a bd 8e 07 d8 3d cb 61 8e bd
       0.06131666 -0.06104745 0.10548316 -0.06952246
000080 b0 55 18 bd 70 f7 14 bd b3 cd 11 bd 35 0b 02 bd
       -0.037191093 -0.036368787 -0.03559656 -0.03174897
000090 5e 8e c5 bd f0 27 04 be 29 1b d7 bd 67 14 ae 3e
       -0.09646295 -0.1290586 -0.10503227 0.3399994
0000a0 fc 3f bb bd 1a 72 9d bd f4 3f cf 3e 9f 1d 89 bd
       -0.091430634 -0.07687779 0.4047848 -0.06695103
0000b0 53 3a 4f bd 7a 73 9f 3e d6 98 d8 bc bd fc 59 bd
       -0.05059273 0.3114279 -0.026440065 -0.053219546
0000c0 5f 80 81 bc 63 74 66 bb 93 14 0d be ce 96 30 bc
       -0.015808282 -0.0035164587 -0.1377738 -0.010778142
0000d0 a1 5a cf 3e c8 f5 3c bd 27 60 8f bc 5b 09 87 3d
       0.40498832 -0.046132833 -0.017501904 0.06593581
0000e0 b1 68 8f bd 60 26 19 bd 12 39 d1 bb 3c 4f d0 3a
       -0.0700239 -0.037390113 -0.006384977 0.0015892754
0000f0 9a bb 1b 3b 32 90 c4 bb 5f d7 a1 bc 04 45 9b bd
       0.0023762942 -0.0059986347 -0.019756017 -0.07581523
000100 54 f7 ce bd 1f bb d5 bd 70 2a 19 3e 2a b8 20 be
       -0.10105768 -0.10436081 0.14957595 -0.15695253
000110 01 ed 34 bd 21 c6 d3 3c 18 4b 1a be 3e dc 21 3c
       -0.044171337 0.025851311 -0.15067708 0.00987917
000120 a0 bb 95 bc 1d 5f 72 bd ff 39 d1 3d 04 46 8e bc
       -0.018277943 -0.05917274 0.1021614 -0.01736737
000130 0e fa 1a 3c f9 ac af 3b c9 7d a3 3e 40 bd 54 bd
       0.009459032 0.005361196 0.31931904 -0.051938295
000140 d0 07 93 3c b4 b7 60 bd 99 d1 89 bd 08 89 27 3e
       0.017948061 -0.054862693 -0.06729431 0.16360867
000150 b8 63 eb 3e ee ac 68 bd f7 79 42 3e 3b cf ca bd
       0.45974517 -0.056805544 0.18991838 -0.09902807
000160 76 27 08 be 83 fb ab 3e 3e aa 9c bd 9d f1 8d bd
       -0.13296303 0.33590326 -0.076496586 -0.0693085
000170 65 ab 32 3e 2e 10 4e 3c c2 c1 90 3e 13 48 c6 bd
       0.17448194 0.0125771 0.28272825 -0.09681716
000180 3d a0 d3 3e f7 74 26 be 24 98 a8 3d 20 c7 c1 bd
       0.4133319 -0.16255556 0.082321435 -0.09461808
000190 65 bc 10 be 82 0f b7 bd d3 fe 9d bd 50 1f ac bd
       -0.14134367 -0.08938505 -0.077146195 -0.0840441
0001a0 5a f3 3f be c9 db 68 be 6d 45 b2 bd 6e 73 19 3d
       -0.18745175 -0.22740091 -0.08704648 0.037463598
0001b0 c3 82 97 3c c5 53 94 bd d8 9e 54 3d 64 9b db bc
       0.01849497 -0.0724254 0.051909298 -0.026807494
0001c0 cc 3f 22 3e f6 7d 7e bd 53 b4 03 be c8 db 50 be
       0.15844649 -0.062131844 -0.12861757 -0.2039634
0001d0 11 56 41 bd 33 78 3f be 8d 3f e4 3d a2 5c 48 3e
       -0.04720122 -0.18698196 0.11144934 0.19566587
0001e0 8b 73 e8 bd 79 69 68 3d b8 1e a7 3e 12 d3 43 3b
       -0.11350163 0.05674121 0.32640624 0.0029880446
0001f0 dd 65 c3 bc d8 f9 d6 3b 9d 85 4f 3c ad 04 81 3c
       -0.023852283 0.0065605454 0.012666133 0.0157493
000200 fc 1c 64 bd d9 b7 a3 bd 43 cb a7 bc 65 b3 bb bd
       -0.055691704 -0.079940505 -0.020482665 -0.09165076
000210 ac fc 29 3d 75 53 25 be bc 35 97 bd 50 62 5c be
       0.041500732 -0.16145118 -0.07383296 -0.21521878
000220 44 88 0f be 0a 6b 41 bc 8e 91 ba bd fa ec 15 be
       -0.14016825 -0.011805305 -0.091097936 -0.1464118
000230 92 2f 0a be 17 86 4a be d2 b7 e8 3b f0 f0 ae bd
       -0.13494709 -0.19777714 0.007101991 -0.08542049
000240 9b 12 96 bd 5a 8c 00 bd cb e0 0d 3e 4d d8 37 3d
       -0.073277675 -0.03138385 0.13855283 0.044884015
000250 fc 95 76 3d de e1 7e bd 97 e0 0a 3d 14 b8 a4 bc
       0.06020163 -0.062227122 0.03390559 -0.020107307
000260 6e 84 09 be 52 79 5c 3c 9b 8a e8 bd 5e 2d 49 bd
       -0.13429424 0.013456659 -0.11354562 -0.04911553
000270 84 e9 0e be 3f 69 39 be 2a f6 8f bc 82 85 a3 ba
       -0.13956267 -0.18106554 -0.017573435 -0.0012475702
000280 d7 87 87 3d 79 7c 3b bd c2 1e d7 bd 1b 45 d8 bd
       0.06617706 -0.045773003 -0.105039135 -0.10560056
000290 21 5f ad bd 39 3f 30 bd 50 3d ec 3e ee 66 02 bd
       -0.0846541 -0.043029044 0.46140528 -0.031836443
0002a0 42 18 d0 bd 77 de c9 3e 30 79 8e bb 5a f5 57 be
       -0.10160877 0.3942754 -0.004347943 -0.21089688
0002b0 1a 14 d2 bd 18 3f 6d bb eb ae 06 3d 44 f8 0e be
       -0.1025774 -0.0036200937 0.03288166 -0.13961893
0002c0 3b ec 37 bd c8 67 b3 bd 3e 6a 45 3e 30 32 0a 3f
       -0.04490302 -0.08760029 0.1927881 0.5398283
0002d0 63 0f 93 bc e7 80 03 3f 35 b7 44 bd 98 2d 87 bd
       -0.017951673 0.51368564 -0.048026282 -0.06600493
0002e0 de e6 a7 3c f5 11 17 be ac be 48 3d 1c 47 10 bd
       0.020495828 -0.14752944 0.049009964 -0.035224065
0002f0 23 1b 56 bd 9f 4c 1b bd 61 b5 57 bd 44 d6 0d be
       -0.052271973 -0.03791487 -0.05266321 -0.13851267
000300 da 12 fc bc e6 fb 81 3e 99 1f b9 bd c1 8a c5 bc
       -0.030770708 0.25387496 -0.0903923 -0.024114015
000310 12 25 3d bd b8 b2 99 bd 48 98 c5 bb ee a4 7b bc
       -0.04617793 -0.07504791 -0.006030116 -0.0153591465
000320 c4 29 b0 bc 4a a8 b8 bd b6 d2 c5 3e 80 3b 9d 3d
       -0.02150429 -0.090164736 0.38637322 0.07677364
000330 ec 82 ec 3b f4 a5 81 bd ca 39 9b bc f2 a4 73 bd
       0.0072177555 -0.06330481 -0.018948454 -0.059483476
000340 b9 9a c3 3e 3e 8b 1b bd 9b b2 00 bd b2 d0 b3 bd
       0.38203982 -0.03797459 -0.03142033 -0.0878004
000350 dc 49 7b bd ad 0a 40 bd 9c 3b c2 bd 29 90 48 3d
       -0.061349735 -0.04688518 -0.09484026 0.048965607
000360 91 a0 2a 3e c9 10 ab bd ff a2 65 3e cb de 1b bc
       0.16662814 -0.08352811 0.2242546 -0.009513567
000370 4d 62 b9 bd e3 9b 98 bc a5 e2 bc bd 9e 49 0b bd
       -0.090519525 -0.01862902 -0.092229165 -0.034005754
000380 5d df 4a bd 80 e9 de 3e 90 bf dc 3e 15 23 68 3e
       -0.049529422 0.4353752 0.431149 0.22669633
000390 84 35 7e bc 0b ec cd bd 28 3a 7e bd 5b 7e 8c bd
       -0.015515689 -0.10054787 -0.06206718 -0.06860038
0003a0 31 bc 50 bb 7e 8a d1 bc 04 dd 85 bd 76 32 73 3b
       -0.0031850452 -0.025578734 -0.06536296 0.0037108934
0003b0 c6 4a 80 bd bc ee 25 bd f6 ea 57 bd ec f6 b2 bd
       -0.06264262 -0.040510878 -0.05271431 -0.08738503
0003c0 b0 f7 aa bd 69 2e b6 bd a9 9c ac bd 7a 4b 49 bc
       -0.08348024 -0.08895571 -0.08428318 -0.012286061
0003d0 86 79 b8 bd 69 f4 bb bc 96 b9 0d bd 63 39 63 bd
       -0.09007554 -0.022943692 -0.034600817 -0.05547465
0003e0 b0 61 1d bd 0e 47 89 bd e8 69 9f bd d0 e4 28 3b
       -0.03842324 -0.06703006 -0.07783872 0.0025771149
0003f0 28 d1 86 bd 1a c1 bd bc e7 3f c1 3e b0 fa b4 3e
       -0.06582862 -0.023163367 0.37744066 0.3534751

top_layer.bias f4 [10]
000000 33 71 bf bb 34 87 1b bb 34 f6 1e 3b 28 e4 31 bb
       -0.005842352 -0.002373171 0.0024255635 -0.0027144048
000010 39 9f 84 bb 03 8d bb 3b ed b6 80 bc 9e 42 c3 3c
       -0.004047301 0.005723597 -0.015712226 0.023835476
000020 7c 89 30 3a fe 01 01 bb
       0.0006734354 -0.0019685025

momentum_buffer f4 [16, 1, 3, 3]
000000 c3 f3 dc bc 5f 07 e1 3c 70 8a 87 3d 29 9d 13 3c
       -0.026971703 0.027469335 0.06618202 0.009009638
000010 b7 d0 02 3d 3c 36 85 3d 67 ac b0 3c e0 0d 18 3d
       0.031937327 0.06504485 0.021566583 0.037122607
000020 92 27 9a 3d 6a 91 1f 3e 3e a9 ec 3d 4c d4 da 3d
       0.07527079 0.15582815 0.11555718 0.10685024
000030 e1 73 2e 3e 8a 1e 0c 3e df d4 1d 3e 42 b0 7b 3d
       0.17036392 0.13683525 0.15413235 0.06144739
000040 40 4a 35 3a 68 8f 59 3d ba c0 af 3c 56 36 ca 3c
       0.0006915666 0.05311528 0.021454204 0.024684113
000050 f2 c3 27 3d b0 44 93 3d f4 41 b6 3d 4a 0e c6 3d
       0.040958352 0.071908355 0.08899298 0.09670694
000060 72 d9 68 3d 44 7e cb 3d 58 2f 1d 3e fc a8 b9 3b
       0.056847997 0.09936193 0.15350091 0.0056658965
000070 00 9a 44 b9 72 1d b7 bc 20 46 02 3b 46 15 a3 bc
       -0.00018749386 -0.022352908 0.0019878224 -0.019907605
000080 92 8e aa bc 48 00 90 3b de b8 8a bc c8 2f f4 bc
       -0.020819936 0.004394565 -0.016933855 -0.02980794
000090 a9 6f a7 3d c2 3f 05 3e f0 df 8f 3d 40 1f e5 ba
       0.08175594 0.13012603 0.070251346 -0.0017480627
0000a0 45 49 e1 bc 2b 2b 79 bd 43 30 a9 bd 22 c4 ef bd
       -0.027500758 -0.060832184 -0.08261158 -0.11707331
0000b0 fa 2e fe bd db a8 17 be 2a 33 07 be 58 73 a0 bd
       -0.12411304 -0.14810507 -0.13203111 -0.078345
0000c0 8e cd 43 bd 4b 48 38 bd a4 48 7a bc b6 2f ca bc
       -0.047803454 -0.04499082 -0.015276108 -0.024680953
0000d0 6d 6d 17 bd e6 4f e9 bc fa 13 78 3d d6 09 02 3c
       -0.03696959 -0.028480481 0.060565926 0.007936915
0000e0 70 0a 6a bc 60 23 5c 3d 0c 1d 06 3c 30 99 f4 3b
       -0.014284715 0.053744674 0.008185636 0.0074645504
0000f0 af 3e 3f bc 4e ab 0b bd b3 fb af 3c 79 84 16 3d
       -0.01167266 -0.034098916 0.021482324 0.03674743
000100 3c ac 53 3c dc cc 59 bb 96 ea 05 3d fd c4 39 3c
       0.012919482 -0.0033233678 0.03269442 0.01133847
000110 8f 50 f9 3c 95 0b b7 3c 32 f6 94 bc 3a 1e fc bc
       0.030433921 0.02234439 -0.018183801 -0.030776132
000120 60 36 26 bd 03 32 92 bc d7 06 4d bc 60 fb 3d bd
       -0.0405792 -0.017846113 -0.012513838 -0.046382308
000130 f7 69 44 bd a0 3c 8d bb 3c ff 89 bd 38 21 f1 bd
       -0.04795262 -0.0043102056 -0.06738135 -0.11773914
000140 b3 03 1c be 78 33 0c ba 60 fe 12 3c 96 01 9f 3b
       -0.15235786 -0.00053482456 0.008971781 0.004852484
000150 0b b4 75 3c 91 c7 96 3c da 84 1c 3c 00 eb 69 b9
       0.014996539 0.018405708 0.009553159 -0.00022308156
000160 58 0f 2c bb f4 4d 06 3c da 25 e3 bc 03 69 b0 3b
       -0.0026254263 0.008197296 -0.02772801 0.005383612
000170 62 56 19 3c fb 03 bb bc 65 de 5f bb 9c e4 0e 3d
       0.009358974 -0.022829046 -0.0034159657 0.034885988
000180 c4 de 75 bc c7 7c fd 3b d2 7c 8a 3c 1c ed 33 3c
       -0.015006725 0.007735822 0.016905222 0.010981824
000190 bc ea 99 3c 74 e4 32 bd 3a aa 5f bb 12 6a 5b bc
       0.018788688 -0.0436749 -0.0034128563 -0.013391988
0001a0 77 8c ec bc 8b 1d 39 bc d8 00 6d bc 52 e4 2f bc
       -0.028875573 -0.0112985475 -0.014465533 -0.010735588
0001b0 2a fb c2 3c 67 23 0b 3d 1b 9c f7 3c 6c 49 2f 3c
       0.023801405 0.03396931 0.030225804 0.0106986575
0001c0 22 d8 80 3c b8 0e d4 3c 5a 2a e9 3c 50 97 54 3c
       0.01572806 0.025885925 0.028462578 0.012975529
0001d0 b2 9b 35 3d e6 e7 56 be 16 5d 0e be d2 07 c6 bd
       0.044337936 -0.209869 -0.13902697 -0.0966946
0001e0 c6 bf 6c be c0 53 ec bd 19 99 7e bd 87 28 92 bc
       -0.23120031 -0.115394115 -0.062157724 -0.01784159
0001f0 53 57 d8 3c 0f d2 5c 3d 0b ff 8f bb 94 97 23 bc
       0.026408827 0.053911265 -0.004394417 -0.0099848695
000200 ed 2d 9a 3c c8 cd ac 3c d9 2e 1b 3d ee 5d 3d 3d
       0.018820727 0.021094218 0.037886474 0.046232156
000210 fa d4 94 3c 49 95 0c 3d df 8a 2e 3d bc ed 60 3c
       0.018167961 0.034322057 0.042612907 0.013728555
000220 90 b0 00 3c a6 05 dd bb 12 f6 f6 3b 08 30 80 3d
       0.007854596 -0.006745058 0.007536658 0.06259161
000230 f1 72 1a 3d 80 ae bc b8 14 7a 76 3d c7 f7 29 3d
       0.037707273 -8.997042e-05 0.060175017 0.041496065

momentum_buffer f4 [16]
000000 da c4 b7 b6 30 aa dc 36 c5 d3 88 37 c4 99 d6 37
       -5.4767415e-06 6.5763234e-06 1.6311076e-05 2.558239e-05
000010 39 b0 f1 37 9a 76 d2 b7 96 45 05 37 b2 f8 63 b7
       2.8811499e-05 -2.5089179e-05 7.9436195e-06 -1.3588158e-05
000020 e8 f8 63 b6 ef d4 c6 b7 c7 1a f1 37 f0 1b c3 b7
       -3.3970518e-06 -2.3702594e-05 2.8741908e-05 -2.325882e-05
000030 77 f7 8d 37 ad 4a 3b 37 6b 66 2c 37 fd 29 8f b7
       1.6923745e-05 1.1163455e-05 1.0275845e-05 -1.706648e-05

momentum_buffer f4 [16]
000000 76 05 ee bd 56 47 07 be a2 7c ce 3c bf 29 06 3e
       -0.11622135 -0.13210806 0.025205914 0.13101862
000010 23 12 81 3e 9d d3 46 bd 70 f5 44 3c 5b 13 69 3e
       0.2520915 -0.048541654 0.0120214075 0.2276129
000020 90 1a 27 bd d8 fc c6 bc d0 8c 11 bd 0c 18 ae bd
       -0.040796816 -0.024290487 -0.03553468 -0.0850068
000030 7e 6e ea 3c 1c 0c 30 3c dc 37 a5 3b 24 72 8f bd
       0.02861714 0.010745075 0.0050420593 -0.070041925

momentum_buffer f4 [16]
000000 56 14 7c bc a6 b3 6a bd b2 a7 13 3d b7 69 8a 3e
       -0.015385708 -0.057300232 0.0360486 0.2703378
000010 69 3d d6 3d b6 0b ad bc 45 c9 bc 3c a0 7a c4 3d
       0.10460932 -0.021123748 0.023045192 0.09593701
000020 79 e4 6f bd 38 dc 84 bd 8e 99 ad bd b4 c2 0d be
       -0.058567498 -0.06487316 -0.08476554 -0.13843805
000030 15 32 f3 3c 49 0d 41 3d 41 70 a1 bd 69 b9 9f bd
       0.029686967 0.04713181 -0.07882739 -0.07799036
