deepcluster_implementation/experiments/run_label_fraction_variation/config_4/checkpoints/checkpoint_epoch_1.pth.tar (torch, 203702 bytes, 32 tensors)

features.module.0.weight f4 [16, 1, 3, 3]
000000 d9 ec 65 3f 00 c1 86 bc 4b 89 06 bf 6e cd 9e be
       0.89814526 -0.016449451 -0.5255324 -0.31016105
000010 6e 50 10 bc 95 90 d1 3d b9 01 00 bf 70 ee 1c 3e
       -0.008808238 0.10232655 -0.5000263 0.15325332
000020 c3 a9 16 3f 15 d9 d8 3c 09 f8 92 3e 9b f0 ec 3e
       0.58852786 0.0264707 0.2870486 0.46277317
000030 34 10 52 be 82 e8 b1 be 25 fc f1 3d 6d c2 8e bd
       -0.20513994 -0.34747702 0.11815671 -0.069706775
000040 16 41 8f 3e 6c 18 a6 3e ce 79 c7 be ab 3a 9b be
       0.27979344 0.32440507 -0.38960117 -0.30318198
000050 1c 9f b0 be 4b e3 6b be 50 20 54 3e c7 fc f0 3e
       -0.3449639 -0.23035924 0.20715451 0.47067854
000060 b9 0c ee be 15 06 84 be c2 89 42 bd a2 bf 64 bf
       -0.46494082 -0.2578589 -0.047494657 -0.8935491
000070 80 66 04 bd 98 96 06 bf b4 3a 06 3e 39 1c 18 3d
       -0.032324314 -0.5257354 0.13108331 0.03713629
000080 3a b4 bf 3d c3 53 d5 3d 20 61 2c be 46 cd 07 3f
       0.09360547 0.10416367 -0.16833925 0.530476
000090 dd 08 f6 3e 47 06 96 bd 84 e2 ba 3e 3f d2 3f be
       0.48053637 -0.07325416 0.36500943 -0.18732546
0000a0 60 89 bc be bb 24 02 be 5a ab f7 3e 57 0e da bc
       -0.3682356 -0.12709324 0.48372918 -0.026618166
0000b0 ea 22 dd 3e 04 f0 46 3e a0 ae ac 3e bd b1 90 3e
       0.431907 0.19427496 0.33726978 0.28260604
0000c0 0e 17 87 be 24 bf 15 3d 61 24 2c bf 36 41 df be
       -0.26384777 0.03655924 -0.6724301 -0.4360444
0000d0 dd 00 20 be 5a 0d 38 be 53 2a 3b 3e ab c7 8b 3d
       -0.1562533 -0.17973843 0.18277864 0.06825193
0000e0 cd aa 8d 3e 28 f5 2f be 6c f8 bd 3e a1 b0 a4 3e
       0.27669373 -0.17183363 0.37103593 0.32166007
0000f0 65 4b 15 bf 40 42 ca be 6e 60 16 bf af 2c d6 3d
       -0.5831817 -0.3950367 -0.5874089 0.104577415
000100 45 3f 85 be 4b 03 84 be fd ff a4 3e 6c ec 80 be
       -0.26024833 -0.25783762 0.32226554 -0.25180376
000110 ce 55 02 bf ab cf 04 3c 2f 90 84 3e e7 85 73 3f
       -0.5091218 0.0081061525 0.25891253 0.95126194
000120 54 eb c1 3e 77 0d f6 bd 80 ca 89 be fc f6 1d bf
       0.37874854 -0.12014287 -0.26912308 -0.61704993
000130 fe ef af be 1c 69 02 be 44 d5 b6 3e e0 91 b4 3d
       -0.34362787 -0.12735409 0.35709584 0.08816886
000140 30 d0 1c be aa ac 28 bf 70 92 69 be 85 ff a1 bd
       -0.15313792 -0.65888464 -0.22809768 -0.079100646
000150 2c 0b ba bd 5a 51 04 3e ba f3 50 bc 6f 11 24 bf
       -0.09084162 0.12921658 -0.012753421 -0.640891
000160 8a f6 39 3d d3 d7 d1 3e 7f 07 29 be 5c c8 13 bf
       0.045401134 0.40984973 -0.16506766 -0.577276
000170 59 33 31 3f 4b 9a 4f 3e 57 18 16 bf c8 c6 ba 3e
       0.69218975 0.20273702 -0.5863089 0.36479783
000180 86 3a 4e 3f 40 aa 09 bf 07 7f 78 be 54 f8 e7 be
       0.8055805 -0.53775406 -0.24267207 -0.45306647
000190 71 ce 9b 3d 54 3d c8 3d e3 94 d4 bd 8d 30 a9 3c
       0.07607735 0.097773224 -0.103799604 0.020653034
0001a0 b1 10 6a 3e e2 e0 86 be 8e 1f 57 be 0c c9 be be
       0.2285793 -0.26343447 -0.21008131 -0.37262762
0001b0 0c 8f 12 bf 87 ce 08 3e b5 ce f9 3e e3 4a e4 3b
       -0.5724952 0.13360034 0.48790517 0.006966935
0001c0 ea c4 9a be c1 23 d0 be 48 96 cc bd da 03 cb bd
       -0.30228359 -0.40652278 -0.099896014 -0.09912844
0001d0 48 02 58 3e e3 cf 9d be 22 bd 4c 3b 4c bb 84 be
       0.2109462 -0.30822667 0.0031240662 -0.25924146
0001e0 e6 be 26 3d 05 6a 71 3d 30 78 90 3d c2 4e 50 be
       0.0407094 0.058939 0.07054174 -0.20342544
0001f0 33 de cc bd d1 15 97 be 8e 89 1e bf 7e ab 8a be
       -0.10003319 -0.29508832 -0.6192864 -0.27083963
000200 4e 18 2f be 93 f8 ad 3e 24 22 20 3f 2d f9 bf 3e
       -0.17099115 0.3397871 0.62552094 0.37494794
000210 64 40 56 bf 40 82 89 be 0a 1a dc bd 94 14 10 bf
       -0.83692 -0.26857185 -0.10747154 -0.562814
000220 e7 6d ac be 9b c2 0c bf da c8 76 3e 50 c2 6b 3e
       -0.336776 -0.54984444 0.24100056 0.23023343
000230 ee 48 85 be 8b 85 86 3e 75 4f 83 3e 2a 04 f6 be
       -0.26032203 0.2627376 0.25646558 -0.48050052

features.module.0.bias f4 [16]
000000 18 1d 6a bd 4e 97 8d 3d 02 fc 2e 3e f2 d1 88 3e
       -0.057156652 0.06913625 0.17088321 0.26722676
000010 b5 61 9a 3e ca 62 86 be d6 9b aa 3d a3 ca 11 be
       0.3015267 -0.26247245 0.083305046 -0.14237456
000020 3b 93 14 bd 93 b4 7d be 52 5d 9a 3e 16 c6 78 be
       -0.036273222 -0.24775915 0.30149323 -0.24294314
000030 ee 26 35 3e 58 3e ee 3d 22 4a dc 3d a3 41 37 be
       0.17690632 0.11632985 0.10756327 -0.17896132

features.module.1.weight f4 [16]
000000 e9 a4 21 3f b7 8f 1a 3f bc 58 a4 3f d6 19 4c 3f
       0.6314226 0.6037554 1.283958 0.7972692
000010 86 5f e9 3e 4f 12 84 3f e1 d3 59 3f 6d 15 11 3f
       0.4558069 1.0318087 0.85088927 0.5667332
000020 0e f8 8c 3f 36 62 87 3f 87 2c cd 3e 1b 24 96 3f
       1.10132 1.0576847 0.40073034 1.1729769
000030 35 60 85 3f 37 9c 90 3f 53 d9 82 3f 24 61 9a 3f
       1.0419985 1.1297673 1.0222572 1.2060895

features.module.1.bias f4 [16]
000000 bd ac 6d bf bb 3b 74 bf bd a1 db be 9c 13 87 be
       -0.928417 -0.9540364 -0.42896834 -0.26382148
000010 56 a1 d0 be 21 75 b6 be bf 34 ad be b3 f9 35 bf
       -0.4074809 -0.35636237 -0.33829305 -0.71084136
000020 42 42 d3 be f3 95 de be 38 cb 25 be a4 83 bd be
       -0.41261488 -0.43473777 -0.16190803 -0.37014496
000030 f2 ff e3 be 79 17 a8 be 68 e6 8c be 78 09 b6 be
       -0.44531208 -0.32830408 -0.27519536 -0.355541

features.module.1.running_mean f4 [16]
000000 1d 17 33 bd 60 f6 c6 3d 65 12 09 3e 7a 69 7b 3e
       -0.043723214 0.09714961 0.13385923 0.24551955
000010 e9 ab b0 3e 27 6c 8d be b8 5a 78 3d e8 22 f9 bd
       0.34506157 -0.27621576 0.06063339 -0.12164861
000020 89 44 17 bd 37 8b 8d be 45 e9 a7 3e da d2 8a be
       -0.036930595 -0.27645275 0.32795158 -0.27113992
000030 b6 a9 30 3e a9 b4 b1 3d 44 76 7b 3d 98 2b 5f be
       0.1725224 0.08677036 0.061392084 -0.21793973

features.module.1.running_var f4 [16]
000000 69 22 0a 3f 1a 0b 2f 3f 49 88 9f 3f 6e 52 87 3f
       0.53958756 0.68376315 1.2463466 1.057203
000010 ff 95 fa 3e 9b b6 7a 3f 15 a1 5f 3f 24 da 2b 3f
       0.48942563 0.97934884 0.87355167 0.6712973
000020 d0 43 31 3f 52 7b a8 3f d0 bb cf 3e 2e cb 38 3f
       0.692441 1.3162634 0.40572977 0.7218503
000030 6f 16 05 3f 99 80 0b 3f bb 3f 50 3f 15 4f ae 3f
       0.51987356 0.544931 0.81347245 1.3617884

features.module.4.weight f4 [32, 16, 3, 3]
000000 bd e9 77 bd 8b 1c 6e bd a8 2d ab bd dc 0f 0a be
       -0.060525645 -0.05813269 -0.083583176 -0.13482612
000010 81 04 be bb 69 64 98 bd a4 95 a0 bc 0a a9 0c 3d
       -0.0057988768 -0.07441027 -0.019602604 0.034340896
000020 e3 3c 8e bd 1e 34 98 bd b7 5a bc bd 71 11 6e bd
       -0.06945207 -0.074318156 -0.0919699 -0.058122102
000030 b1 36 11 3d 8d a0 09 bd 81 a6 be bd b9 75 79 bd
       0.03545255 -0.03360038 -0.09309102 -0.060903285
000040 65 77 cf bd f2 91 f2 bc ea 83 84 3d b0 27 0d bd
       -0.101301946 -0.029610608 0.06470473 -0.034461677
000050 6d f5 e2 3c b1 c1 9f 3c 29 d6 ab bb 6f a2 73 bc
       0.027704919 0.019501539 -0.0052440357 -0.01487027
000060 bf e0 b9 3c 30 3c a3 3b d9 ed 9c bc 8b 96 a3 bd
       0.022690175 0.00498154 -0.019156383 -0.07987698
000070 95 cd a0 bd 66 05 11 bd 15 e1 59 bd 24 4c 67 bd
       -0.07851712 -0.03540554 -0.05319317 -0.056469098
000080 33 c3 f5 ba 09 86 c5 3c b7 eb 5c 3c 65 3f 91 bd
       -0.001875019 0.024111765 0.013483933 -0.0709217
000090 d5 00 03 bd 42 ec 49 bd 96 a1 80 bd 76 66 3b bd
       -0.031983215 -0.04929758 -0.0628082 -0.04575201
0000a0 12 e6 bd bd b4 c2 a3 bd 7b d5 8b bc 6e 95 26 bc
       -0.09272398 -0.07996121 -0.017069569 -0.010167463
0000b0 53 cf 14 bd ae 88 af bd 1b 33 6a bd d9 fa 79 bd
       -0.036330532 -0.085709915 -0.057177644 -0.061030243
0000c0 5a e3 1c bc 5a 28 88 3c 48 b3 36 3d ad 92 b7 bc
       -0.009575689 0.016620804 0.04460457 -0.022408808
0000d0 cb 23 04 be 52 45 b7 bd db c8 64 bb 20 49 9c 3d
       -0.12904279 -0.08948769 -0.0034909758 0.07631135
0000e0 8c b9 c8 bc 66 b0 93 bd 3f a7 a6 bc 55 42 0b bd
       -0.024502538 -0.0721138 -0.020343421 -0.033998806
0000f0 62 69 20 be b9 a9 8d bc 58 29 cb bd 59 16 7d bd
       -0.156652 -0.017292844 -0.09919995 -0.06178889
000100 ad bd 0c be 1d 19 7e 3c 3f 10 ff 3c cd 58 12 bc
       -0.1374423 0.015508917 0.031135676 -0.008932305
000110 4f 93 ba bd af f3 c4 bd ff 17 d1 bd 64 61 46 3d
       -0.09110128 -0.096167915 -0.10209655 0.048432723
000120 48 29 90 bd bc 61 94 3c d9 6c 15 bb 0d 5b 41 bc
       -0.07039124 0.01811301 -0.0022800474 -0.011801493
000130 55 68 0d bc 5a fb 38 bd 28 58 a2 bd 56 fd e8 bc
       -0.008630832 -0.045161583 -0.07926971 -0.028441112
000140 9c 68 2a bc ab a9 75 bd 68 e1 a7 bc 63 a2 fe bc
       -0.010400917 -0.05997626 -0.020493224 -0.031083291
000150 c2 09 2a bd 4f a5 84 bd fa 27 80 bd bd d1 9d bc
       -0.041513212 -0.064768426 -0.06257625 -0.01926505
000160 8e 6a 42 bd f3 14 c1 bd 4f a5 53 bd 5e b8 ac 3c
       -0.0474649 -0.09427824 -0.051671322 0.021084007
000170 14 73 55 bc 80 c2 9e bd 33 6d 11 bd 99 7a 3f bd
       -0.013027925 -0.07751942 -0.03550453 -0.046747778
000180 4d 74 f1 bd cc 17 a0 bd 0d 96 40 bd 76 14 8f 3d
       -0.11789761 -0.07817039 -0.0470181 0.069863245
000190 7d f3 53 3c 88 d3 4e bd b2 60 8e 3b 67 77 34 bd
       0.01293647 -0.0504947 0.004345023 -0.044059183
0001a0 e1 b5 2c 3c 4a f8 bf 3c 6c 38 14 bd f2 da a3 3a
       0.01054141 0.023433823 -0.03618662 0.0012501164
0001b0 fd c5 21 bb a6 08 3a bd 12 cd 65 3a e8 a2 11 3d
       -0.002468466 -0.045418404 0.00087662146 0.03555575
0001c0 a6 f2 88 3c c9 53 3f 3d 77 ae 2d 3d a1 6a 11 bd
       0.016717266 0.046710763 0.04240271 -0.03550208
0001d0 c7 3c 8b bd cd 83 27 3c de a5 54 ba c9 86 62 bd
       -0.06798702 0.010224295 -0.00081118743 -0.055304322
0001e0 d1 90 28 bd 95 e3 28 bd 37 ea 26 bd 25 a9 0f bd
       -0.041153733 -0.041232664 -0.04075071 -0.03507342
0001f0 03 cd 0d bd 8f f8 e3 bc 70 dd 32 3c 98 c5 39 3d
       -0.034619343 -0.027828483 0.010917053 0.045354456
000200 25 e6 7d 3d 2f c4 b6 3c f9 79 41 3c 0a 45 53 ba
       0.06198706 0.022310345 0.011808866 -0.0008059299
000210 0d 57 3d bc e0 dc 1a bd 1e 50 74 3c 2b 53 b2 bc
       -0.011556399 -0.0378083 0.01491168 -0.021768173
000220 64 01 bb bc e5 03 14 bd bd c9 82 bc fa 47 e7 bb
       -0.022827812 -0.036136527 -0.015965337 -0.007058141
000230 93 17 83 bc c0 54 72 bc a0 9f 7b 39 b3 a4 fe bc
       -0.016002452 -0.014790714 0.0002399669 -0.031084394
000240 39 c6 9d bd 5c 53 76 bd d2 db bb 3c 31 2f 1a 3d
       -0.077038236 -0.06013809 0.022931967 0.03764266
000250 12 22 ac bc 76 45 6c 3d 93 77 c5 bc b9 36 9a bd
       -0.02101234 0.05768343 -0.024104869 -0.07529969
000260 f7 d0 80 bc 77 c9 a5 bc 00 66 81 bc db ee 27 be
       -0.015724642 -0.020237667 -0.015795708 -0.1639971
000270 4a f1 bc 3c 88 fc 12 be fe 7f 31 be 97 3a 67 3d
       0.023064274 -0.14354146 -0.17333981 0.05645236
000280 fa 6b 43 be 6f 33 5e be 6d 52 70 bd 5e 3b ed 3c
       -0.19084159 -0.21699308 -0.058672357 0.028958973
000290 03 16 3d bd 45 a0 8a bd cf 03 6a 3c 03 47 78 bd
       -0.04616357 -0.0676885 0.014283135 -0.060614597
0002a0 0e 08 3c bd bc 79 21 bd 64 ed 8a bd d3 93 d0 bd
       -0.04590612 -0.039422736 -0.0678356 -0.10184445
0002b0 79 dd e8 bd 4b 96 d1 bd f5 3f 0f be 87 cf 5e bd
       -0.113703676 -0.10233744 -0.13989241 -0.054397132
0002c0 53 1c ef bc f5 82 18 be 6d d5 86 bd b2 b3 0e be
       -0.02918831 -0.14893706 -0.065836765 -0.13935736
0002d0 0b c7 4e 3d c7 68 ca 3c 67 b9 9a bd 8b c3 f3 3c
       0.05048279 0.024708165 -0.07554894 0.029756328
0002e0 76 51 93 3c d9 8b 92 bd ea 7a 82 3d 13 e4 c1 bb
       0.01798318 -0.0715558 0.063711 -0.005917081
0002f0 0d 10 13 be 1c e3 19 bd e5 47 56 bc 88 45 2c b9
       -0.14361592 -0.037570104 -0.013078664 -0.000164291
000300 ce 73 bf bd 96 8b 6d 3d e2 02 fd 3c 90 3a b1 bd
       -0.0934826 0.057994448 0.030885164 -0.08653748
000310 29 70 e5 bc 32 0c a9 3c 08 5e ed bd 4b 3a e2 bc
       -0.028007584 0.020635698 -0.11590201 -0.027615687
000320 b6 96 f0 bc c9 52 2b be 6a 73 a5 bd 90 65 06 bd
       -0.02936874 -0.16730799 -0.08078654 -0.0328117
000330 9f e2 03 be 04 15 10 be b8 d7 c6 bd af f2 59 be
       -0.12879418 -0.14070517 -0.09709114 -0.21283983
000340 a0 61 bb bd df e7 7f bd 54 d7 40 bd d0 22 93 3c
       -0.0914948 -0.06247699 -0.047080353 0.017960936
000350 27 0e 4c bd c8 c9 e6 bd 35 9b 2f be dd 6c 71 be
       -0.049818184 -0.112689555 -0.1714905 -0.23576684
000360 63 fa 2a 3d bd 5f c9 3c 1b 05 41 3c 88 db 06 3e
       0.041742694 0.024581784 0.011781002 0.13169682
000370 8a 62 79 3c 55 34 02 3d 0f 98 ce bc 94 c7 58 bd
       0.015221247 0.03178819 -0.025218992 -0.052924708
000380 41 86 6d bd 39 79 06 be 47 4c 1a be af 3b 98 bd
       -0.057989363 -0.1313218 -0.1506816 -0.07433259
000390 09 f9 a6 bd ee 09 75 bd 97 d2 55 bd d3 0f 07 bb
       -0.081529684 -0.059823923 -0.052202787 -0.0020608797
0003a0 98 51 6b 3b 38 99 10 be 1e b6 2d 3d 97 c7 85 3d
       0.0035906788 -0.14120948 0.04241001 0.06532209
0003b0 70 ee 83 3c fb d5 5f 3d bc 74 82 3d 47 30 5c 3d
       0.016104907 0.054647427 0.063699216 0.05375698
0003c0 62 34 3b 3d fc 01 88 3d 86 a6 ad 3c 46 69 5d 3d
       0.045704253 0.066410035 0.021197569 0.054055475
0003d0 62 0e 81 3d dc 66 c2 3c d8 4b 95 bd ba 1f d3 3b
       0.063015714 0.023730688 -0.07289857 0.006442991
0003e0 95 a6 92 bd 6b 80 27 bc cf 2e 5d bd 5a b0 80 bd
       -0.07160679 -0.010223488 -0.05399972 -0.062836364
0003f0 15 55 18 3c 6a 9e c6 3b 83 7d 27 bd 3f 5a 5d bd
       0.009297629 0.006061365 -0.04089118 -0.054041144

features.module.4.bias f4 [32]
000000 00 20 b0 3c 88 1a 2a 3d 50 f1 9a bd 67 65 6c bd
       0.021499634 0.04152921 -0.07565558 -0.057713892
000010 4b a6 a2 bd 03 39 1e 3d 83 34 7e 3d 1d d5 a2 bd
       -0.07941874 0.03862859 0.062061798 -0.079508044
000020 cc 3d b0 3c 66 7b 89 3c 2a e5 35 bd d0 76 92 3c
       0.021513842 0.016782474 -0.044408 0.01787892
000030 05 ae 82 3d 54 3b a6 3d 4b 93 12 3d 7a 6b 86 bc
       0.06380848 0.08116785 0.035785 -0.01640867
000040 b8 db 40 bd e9 17 01 bd 90 dc 31 3a 37 1f c7 bb
       -0.04708454 -0.031516943 0.00067848805 -0.006076719
000050 5e 53 77 3d 3f 29 99 bd 09 06 f2 3b 53 9b d7 bc
       0.06038224 -0.0747857 0.0073859734 -0.026319182
000060 f9 20 e2 3b 12 f9 a2 3d 55 a8 1e 3b af 22 6b bc
       0.0069009033 0.07957663 0.002420922 -0.014351531
000070 88 c4 e5 bc 3a 20 a9 bd bd 8b 99 bd 45 af 13 3d
       -0.028047815 -0.082581 -0.07497356 0.036055822

features.module.5.weight f4 [32]
000000 f1 75 3f 3f 5e bd 6e 3f 70 db 39 3f a2 5a 57 3f
       0.7478934 0.932577 0.7260046 0.8412267
000010 f9 cc 36 3f 12 26 3d 3f 63 7b 3f 3f 6d be 3f 3f
       0.71406513 0.73886216 0.7479765 0.7489994
000020 33 cf 54 3f a8 4f 3e 3f 30 61 5b 3f 9f 6a 35 3f
       0.8312866 0.74340296 0.8569517 0.70865816
000030 53 bd 51 3f 25 64 51 3f 60 9e 4b 3f 20 d3 3e 3f
       0.8192951 0.81793433 0.79538536 0.745409
000040 be 02 75 3f 17 12 8e 3f 05 33 54 3f 10 52 48 3f
       0.9570731 1.109927 0.8289035 0.7825022
000050 44 d9 7a 3f 01 dc 1e 3f 2f d2 3f 3f 8a c7 56 3f
       0.9798777 0.6205445 0.7493009 0.8389822
000060 e3 82 62 3f 83 de 3d 3f 4a 1e 5f 3f 97 e5 66 3f
       0.8848097 0.7416765 0.8715559 0.90194076
000070 eb a7 51 3f 78 2f 20 3f 61 e3 52 3f d0 12 52 3f
       0.8189685 0.6257243 0.823782 0.82059956

features.module.5.bias f4 [32]
000000 80 64 a0 be 6f 17 f3 be 1e 42 c5 be c9 2e 16 bf
       -0.31326675 -0.47478816 -0.38527006 -0.5866514
000010 ad 13 4f bf 79 01 95 bf fd 43 e3 be ee 84 73 bf
       -0.808894 -1.1641074 -0.44387808 -0.9512471
000020 ff 99 ba be ab 69 80 bf 97 11 0a bf 15 5e 7c bf
       -0.36445615 -1.0032247 -0.5393309 -0.9858106
000030 4a fb e6 be 1d da ea be cc d1 b6 be 8f cd 13 bf
       -0.45113593 -0.45869532 -0.35706937 -0.5773553
000040 fd 86 08 bf 4e c6 66 bf 38 65 ac be d3 a8 97 be
       -0.53330976 -0.9014634 -0.33670974 -0.2962099
000050 c8 5d 1f bf b1 40 f3 be 9f 22 eb be b6 9c 3f bf
       -0.62252474 -0.47510293 -0.4592485 -0.74848497
000060 5e 82 30 bf 0a 2d d3 be a0 ba 2b bf 01 1e f3 be
       -0.68948925 -0.412453 -0.6708164 -0.4748383
000070 97 98 0d bf 80 2a db be 85 a5 a0 be cb d3 1c bf
       -0.5531096 -0.42805862 -0.3137628 -0.6126067

features.module.5.running_mean f4 [32]
000000 f1 c6 9b be af 30 04 bf f4 28 95 be 5a 46 8a be
       -0.30425218 -0.51636785 -0.29132807 -0.270068
000010 7f 19 e3 be 46 b1 5c bf 5e e6 b5 be b7 cc 25 bf
       -0.4435539 -0.86208 -0.3552732 -0.64765495
000020 c8 72 54 be 7f 5f 21 bf 9a 27 94 be a1 6e 16 bf
       -0.2074691 -0.6303634 -0.28936464 -0.58762556
000030 5b ef c6 be 94 c1 bc bd 00 0b b4 be 74 b6 89 be
       -0.3885449 -0.092166096 -0.35164642 -0.26897013
000040 51 e7 09 bf af 81 8f be 84 46 5f be 8a 78 8b be
       -0.53868586 -0.28028628 -0.21804243 -0.27240402
000050 6c 93 4e be 8e fa c1 be 6f 6f 83 be b0 53 12 bf
       -0.20173424 -0.3788647 -0.25670955 -0.57158947
000060 6b fa b4 be a4 4f aa be 4b 43 09 be 7e fe 2e bf
       -0.35347304 -0.33263886 -0.13404576 -0.68357074
000070 c2 19 77 be ad 20 a2 be 79 d4 84 be 00 64 f4 be
       -0.2413092 -0.31665555 -0.25943354 -0.47732544

features.module.5.running_var f4 [32]
000000 4d c5 12 3e 74 4b 8b 3e 4a a5 76 3e 85 33 82 3e
       0.14333077 0.27206004 0.2408649 0.2542993
000010 51 65 02 3e d6 47 ad 3e ca 19 30 3e c2 a3 59 3e
       0.12733962 0.3384387 0.17197338 0.21253875
000020 8b 53 4e 3e 21 b2 27 3e 0c b3 53 3e a2 47 51 3e
       0.20149057 0.16376545 0.2067377 0.20437482
000030 d1 3d 02 3e c7 2f 16 3e b6 c5 02 3e 60 93 25 3e
       0.12718894 0.14666663 0.12770733 0.161695
000040 cb f2 c1 3e 69 31 ac 3e 32 56 17 3e 89 ac 3e 3e
       0.3788055 0.33631447 0.14778975 0.18620504
000050 49 0d 87 3e 2e c4 14 3e 07 df 4f 3e 84 7e 8e 3e
       0.26377323 0.14527962 0.20299922 0.278309
000060 f5 c5 6f 3e f3 bf 03 3e 66 88 b1 3e 23 83 dc 3e
       0.23415358 0.12866192 0.34674376 0.430688
000070 f3 29 1e 3e b4 ae fa 3d 5e 99 0f 3e 0e c1 93 3e
       0.1544569 0.12240353 0.14023349 0.28858227

features.module.8.weight f4 [64, 32, 3, 3]
000000 fc 73 87 bc 03 a8 c8 3c 47 20 3b bc 89 6e 38 3c
       -0.016534798 0.024494177 -0.01142127 0.011256822
000010 57 db d3 3c 4f 93 1d 3c 00 d9 bb bb 8e f1 7d 3c
       0.025861425 0.009617641 -0.0057326555 0.015499486
000020 9d 7d 83 bc 9b 2b 02 3c 55 cb a3 bc 0d bf d0 3c
       -0.016051108 0.007944967 -0.019994417 0.025481725
000030 bc 9f 60 3c d9 24 a1 3c 12 27 00 3d 1e c2 20 3c
       0.013709959 0.01967089 0.03128726 0.009811906
000040 d2 90 ca 3c 29 29 bf bb 59 77 02 bd 00 a2 89 3b
       0.024727259 -0.005833764 -0.0318521 0.00420022
000050 8e 2c ff bc a1 87 fb 3b 54 9c 35 3c 42 61 eb 3b
       -0.031149175 0.0076760803 0.011084635 0.007183225
000060 6a ae af bc 86 c8 96 bb 81 d9 97 bc 70 84 96 3c
       -0.021445472 -0.004601541 -0.018536331 0.018373698
000070 df 10 24 3c 9b 72 a2 bb aa 00 9f 3c f7 41 1c 3c
       0.010013788 -0.0049575097 0.019409496 0.009537212
000080 44 d7 4a 3b 2f 74 4d 3c b6 56 8a 3c 6c 4b 89 3c
       0.0030951062 0.012539907 0.01688705 0.016759597
000090 da f3 91 3d bd ec 80 3d 09 af f1 3c 44 c8 51 3d
       0.07126589 0.06295154 0.029502409 0.05121638
0000a0 f5 70 ab 3d ab a0 81 3d 86 08 c1 3d be 0b d5 3c
       0.08371154 0.06329473 0.09425454 0.026006576
0000b0 a3 e8 95 3d 94 f8 18 bd d1 77 63 bc 6c 97 1e 3c
       0.073197626 -0.037346438 -0.013883547 0.0096796565
0000c0 3b 8d 88 bd 49 5a 05 bd b5 61 ae bc 64 e2 a3 bd
       -0.066675626 -0.032556806 -0.021286825 -0.08002165
0000d0 b7 18 68 bd 1b 72 11 bd ef 94 43 3c 9a ec ee 3a
       -0.056664195 -0.03550921 0.011937364 0.0018228472
0000e0 f1 45 9a bc 84 c2 45 bc f3 6d f6 bc 3c 7e b0 bc
       -0.018832179 -0.012070302 -0.030081725 -0.021544568
0000f0 af 86 74 bc 6c 9d d6 bc b7 48 d9 bc f8 fa ba bc
       -0.014924689 -0.026198111 -0.026523931 -0.02282475
000100 34 14 7a bc 23 5c d1 bc d3 02 62 bc e1 49 84 bc
       -0.015263606 -0.02555663 -0.013794619 -0.01614851
000110 28 c4 c8 bc 41 a7 11 bd 60 bc d9 bc f5 6b a9 bc
       -0.024507597 -0.035559896 -0.026579082 -0.02068136
000120 c3 39 1b 3d 7e 96 b4 3c 50 a9 15 3b ae 5d f4 bb
       0.037896883 0.022044417 0.0022836514 -0.0074574566
000130 42 08 0d 3c 2c 92 0c 3c 09 d0 d4 3b d3 ce c6 3a
       0.008607926 0.008579772 0.0064945263 0.001516784
000140 c8 83 4f 3b 5f ef 97 3d c2 8a a8 3d 03 c7 9a 3d
       0.003166424 0.07418703 0.08229591 0.0755749
000150 bf 79 9d 3d 6e 66 91 3d d8 30 c4 3d a7 42 3d 3d
       0.07689237 0.07099615 0.09579629 0.046206143
000160 36 88 7f 3d 2f 90 c4 3d 77 1a d7 3b d9 42 a9 3a
       0.06238576 0.09597813 0.006564434 0.0012913599
000170 bc 2a 00 bc 93 0a 83 3c 48 92 7e 3c 1b e0 54 ba
       -0.007822689 0.015996253 0.015537806 -0.00081205525
000180 ce 66 d9 3c 77 fc d2 3c b2 0f 62 3c 0b ba 9a bd
       0.026538279 0.02575515 0.013797687 -0.07555016
000190 3b 38 bf bc 79 68 31 bc d8 5a 61 bd af 01 19 bc
       -0.023342242 -0.010828131 -0.055018276 -0.00933878
0001a0 03 b8 94 3b 80 a5 72 bd 02 09 99 bc 33 2b 08 bc
       0.0045385375 -0.059239864 -0.018681053 -0.008311081
0001b0 1d ad 82 3b 56 ab 89 bb db e7 55 bc ee e7 ee 3c
       0.003987922 -0.004201333 -0.013055767 0.029163327
0001c0 8c 6a c2 3c ff e8 88 bc c3 3e 61 b9 0e 9c d7 bb
       0.023732446 -0.016712664 -0.00021481053 -0.0065798825
0001d0 9e 98 33 bd 21 de 62 bc 5e ee bc 3c 1d 04 37 3b
       -0.04384672 -0.013846905 0.023062881 0.0027926036
0001e0 c2 d7 a8 3b 79 2d 16 bc 60 78 cd 3c 7c b8 5f 3d
       0.0051526735 -0.009166115 0.025081813 0.054619297
0001f0 0a 99 25 3d 1b cd 76 3d ec 77 08 bd c2 1e 22 bc
       0.040429153 0.060254198 -0.03331749 -0.009895029
000200 18 79 23 bc ed b5 ee bc c9 0f 1b bb 87 33 23 bd
       -0.0099776015 -0.029139483 -0.0023660532 -0.039844062
000210 a4 eb c4 bc 40 b5 bd 3c 19 19 01 bd f4 8c 8f 3d
       -0.024038143 0.023157716 -0.031518076 0.070093066
000220 e7 7b 4e 3d e9 41 7b 3d 31 ce 4f 3d 7c 32 26 3d
       0.05041113 0.061342154 0.05073375 0.04057549
000230 a3 a0 6f 3d f0 1c 58 3d 1a 67 05 3d 87 a1 7a 3d
       0.058502804 0.052761972 0.03256903 0.0611892
000240 f5 9a 40 bc e8 5b ec bc 5f e0 f9 bc 99 5f 9d bc
       -0.011755695 -0.028852418 -0.030502496 -0.019210624
000250 37 59 ae bc 35 f2 13 bd 44 88 f7 bc 2a 0d e7 bc
       -0.021282775 -0.03611966 -0.030216344 -0.02820452
000260 e0 aa 4d bd 9e a1 ad bb 59 76 d0 bb ef 86 ec bb
       -0.050211787 -0.0052988073 -0.0063617644 -0.007218234
000270 6b 6d 24 bb f6 36 8a 3b 36 52 56 bc 5e 40 a7 bc
       -0.0025089632 0.0042179776 -0.013081124 -0.020416435
000280 ca 16 fd b8 cc 20 3d bc 83 50 84 bc ae fc b3 ba
       -0.00012068225 -0.011543464 -0.016151672 -0.0013731921
000290 7b 92 a1 bb 9c 16 86 bc 22 37 a5 bc c8 f0 25 3c
       -0.004930792 -0.016368203 -0.020167891 0.0101282075
0002a0 d1 b4 0f bd 1b dc ec bc 19 79 ac bc 5b 46 80 bc
       -0.03508455 -0.028913548 -0.021053838 -0.015658548
0002b0 39 38 b7 bb 3a 75 ba 3b 8e b7 09 bd 34 ca cb 3b
       -0.005591419 0.005690244 -0.033622317 0.006219173
0002c0 69 c4 e1 3b 42 78 55 bb e1 b7 95 3b 37 e5 97 3c
       0.006889869 -0.00325729 0.004569039 0.018541915
0002d0 9f 3e 7e 3c 7c 22 16 3d a5 19 32 3d 13 64 3c 3c
       0.01551786 0.03665398 0.043481488 0.011498469
0002e0 fe 83 d3 3a 45 2b 80 3d 5b 61 9f 3d f1 38 3c 3d
       0.0016137359 0.06258253 0.07782241 0.04595274
0002f0 90 a3 cb 3d e8 c3 f7 bb 2b c6 10 bc 6c 80 26 3c
       0.099433064 -0.0075611956 -0.008836309 0.010162454
000300 63 0c 63 3b 40 5e b4 3b 02 05 5b 3b f4 57 04 bb
       0.0034644834 0.0055043995 0.0033419733 -0.0020194026
000310 8f 60 10 bd 38 ea 85 bc 0c 1d c3 3a 7e 7b 30 3c
       -0.035248335 -0.016347036 0.0014885976 0.01077163
000320 b2 65 1b 3d 60 cd fe 3b e1 50 de 3c 89 8b 5b 3c
       0.03793878 0.0077759475 0.027138175 0.013399967
000330 1d 7c 29 3d f6 6a 24 3c f8 8a 2a 3d ff 9c 37 3d
       0.04137813 0.010035267 0.041636437 0.044827458
000340 45 60 01 3d ae e9 97 3c 76 42 2c 3d 1c 62 1e 3c
       0.03158595 0.018544044 0.04205557 0.009666946
000350 a0 cc 8c 3c a1 fd 08 3d 89 8a 41 3b eb 26 fd 3b
       0.017187417 0.033445004 0.0029532036 0.0077255866
000360 c6 5f fc 3d 6d e5 4e 3d 27 32 b1 3d 53 a3 98 3d
       0.12322955 0.050511766 0.08652144 0.074530266
000370 6b 83 30 3d d2 63 86 3d 54 d5 ad 3d b2 9e 77 3d
       0.04309408 0.06562008 0.08487955 0.060454078
000380 4d 91 cd 3d 21 15 90 3c b7 8f 79 ba e1 2e 91 3b
       0.100374795 0.0175882 -0.00095200114 0.004430637
000390 9e 86 2a bc 1c 70 cd ba 22 e4 6a bb 84 e0 ba 3c
       -0.010408072 -0.001567367 -0.0035841544 0.022812136
0003a0 22 96 05 3d 6f 9c e2 3c fe a9 d8 3d d2 d4 d2 3d
       0.03261388 0.027662484 0.105792984 0.102944985
0003b0 02 66 b8 3d a5 eb bf 3d ca 18 1b 3d 66 a0 b7 3d
       0.090038314 0.093711175 0.037865438 0.089661404
0003c0 21 ca a4 3d fb 21 bf 3d 46 58 00 3e 2f 2d 55 b9
       0.080463655 0.09332653 0.12533674 -0.00020330095
0003d0 70 95 11 bc 96 46 3a bc 3a 2b 09 bc 49 53 e9 ba
       -0.008885726 -0.011369368 -0.008372122 -0.001780131
0003e0 ed 44 ad bb 92 82 4e bc 23 6c 29 bc 09 c8 fe 3a
       -0.0052877576 -0.012604373 -0.010340723 0.0019438277
0003f0 86 8e 85 3c b1 14 91 bc 24 f6 ac bc 6b 10 87 3c
       0.016303312 -0.017710062 -0.021113463 0.01648732

features.module.8.bias f4 [64]
000000 ab d3 db bc 4d 7e 30 3c 49 d5 39 3c 63 03 6c 3d
       -0.02683433 0.0107723 0.011342355 0.057620417
000010 62 48 5b 3d d9 ed 45 bd 57 2e ee 3c 2a 26 40 bd
       0.053535827 -0.048322532 0.029074831 -0.046911396
000020 ec 68 ea bc 13 31 bd 3c fd fe 23 bd bb 92 4d 3d
       -0.028614484 0.02309469 -0.040038098 0.05018876
000030 82 88 b5 3c f5 fd a3 3b 22 4c 06 3d 88 3c 4c bd
       0.022159819 0.0050046393 0.03278745 -0.049862415
000040 f0 36 1e 3c 7e ac b2 3c 69 8a dc bc 0b 0f 95 bc
       0.009656653 0.021810766 -0.026921468 -0.01819565
000050 4e 80 c2 3c 1c 16 4b 3d 61 fe ba bc b4 c1 10 3d
       0.023742821 0.049581632 -0.022826375 0.03534098
000060 f7 66 06 3d 38 4f 0c bd f6 90 3e bd 87 fb e1 bb
       0.03281304 -0.034255236 -0.046524964 -0.0068964395
000070 7e c6 14 3d 38 e1 47 bd c6 96 26 bd a6 b5 2e 3d
       0.03632211 -0.04879877 -0.040671133 0.042653702
000080 eb 7d 09 bd ab 2e 2b bd 82 75 23 bb e4 9b 6a 3d
       -0.03356735 -0.041792553 -0.0024941866 0.057277575
000090 de 22 1e 3d d2 61 f7 3c fa 63 f5 3b 8e 3b f0 bc
       0.03860747 0.030198012 0.007488725 -0.029325273
0000a0 00 cc 3a bd 05 bf fe 3c 1e 1e 8e 3c 59 90 79 3c
       -0.045604706 0.031096945 0.017348345 0.015232169
0000b0 00 37 b1 bc d6 e9 69 bd 19 2c 03 3c 4e 23 25 bc
       -0.021632671 -0.05710777 0.008006119 -0.010079218
0000c0 0e 1b 91 bb 49 12 b6 3b ee 23 0c bd 94 56 15 bd
       -0.004428274 0.005556379 -0.034213953 -0.03645952
0000d0 69 13 8b bc f4 17 ba 3c a0 1a 16 bd 88 75 5f 3d
       -0.016977029 0.0227165 -0.036646485 0.054555446
0000e0 85 ef 6b bd b5 cc 14 bd 6b 6e 89 3c 47 34 69 bd
       -0.05760147 -0.036328036 0.016776284 -0.05693462
0000f0 7d 17 05 bd 45 6f f7 3c 38 7c 22 bd 2e 91 99 3c
       -0.032493103 0.030204425 -0.039669245 0.018745985

features.module.9.weight f4 [64]
000000 30 cd 21 40 54 05 4d 40 19 15 1b 40 38 07 39 40
       2.5281487 3.2034502 2.4231627 2.8910656
000010 73 10 1e 40 22 99 1d 40 d7 87 12 40 06 30 1b 40
       2.469754 2.4624715 2.289541 2.424806
000020 68 3c 13 40 c3 d3 32 40 03 64 1b 40 5e 84 2f 40
       2.300562 2.794175 2.4279792 2.742454
000030 da a0 e0 3f aa eb 3c 40 cb 2e 16 40 87 2d 28 40
       1.7549088 2.9518838 2.346606 2.6277788
000040 48 a8 30 40 79 f8 1b 40 08 d7 f8 3f 60 e1 15 40
       2.760271 2.4370406 1.9440622 2.3418808
000050 fa 50 3b 40 67 76 21 40 35 bc 15 40 9e 74 19 40
       2.9268174 2.5228517 2.3396122 2.3977427
000060 b4 d6 38 40 c0 1a 10 40 4d 75 33 40 4c 72 20 40
       2.8881044 2.2516327 2.8040345 2.5069761
000070 bc be 60 40 63 70 1f 40 16 82 5d 40 3e 16 1d 40
       3.5116415 2.4912345 3.4610648 2.4544826
000080 41 f7 2f 40 c8 b3 36 40 ff b1 2e 40 d6 05 0b 40
       2.7494662 2.854723 2.729614 2.1722312
000090 11 a2 1a 40 bb 44 63 40 36 92 7b 40 05 fa 14 40
       2.4161417 3.55107 3.930799 2.32776
0000a0 9e 1b 27 40 cb aa 67 40 ab 50 37 40 48 02 28 40
       2.6110606 3.6197994 2.8642986 2.6251392
0000b0 2e 8b 18 40 c6 69 1b 40 aa b2 1f 40 3a c3 31 40
       2.3834949 2.428331 2.4952798 2.7775407
0000c0 54 94 0a 40 11 5e 3c 40 f2 d1 38 40 81 4f 50 40
       2.1653032 2.9432414 2.887814 3.2548525
0000d0 25 54 31 40 de 82 3c 40 1e 23 26 40 93 d9 2a 40
       2.7707608 2.9454875 2.5958934 2.6695297
0000e0 b2 53 27 40 30 28 fc 3f 01 d7 45 40 2d 2a 0f 40
       2.6144834 1.9699764 3.0912478 2.2369492
0000f0 b1 46 16 40 cd e1 21 40 11 48 0c 40 94 88 3a 40
       2.3480647 2.5294068 2.1918986 2.914586

features.module.9.bias f4 [64]
000000 5c 89 01 3f 00 f0 20 3f 45 c9 0d 3f 06 f8 30 3f
       0.5060022 0.6286621 0.5538524 0.69128454
000010 bc 44 4f 3f 0c bb 0b 3f 89 cd 1a 3f 52 f0 97 3f
       0.80964255 0.54582286 0.6046987 1.1870215
000020 02 70 8c 3f 53 cc 27 3f 02 74 7f 3f ba 42 7c 3f
       1.0971682 0.6554615 0.9978639 0.98539317
000030 ca f8 18 3f cc 5b 32 3f d2 80 ed 3e 42 ab 1b 3f
       0.5975462 0.6967132 0.46387345 0.60808194
000040 ac 53 17 3f 4c 4b 10 3f e8 e4 47 3f c7 0d 22 3f
       0.5911205 0.56364894 0.7808366 0.6330227
000050 12 fe 1d 3f 2a c3 9b 3f 80 20 16 3f bc 7f 10 3f
       0.61715806 1.2168934 0.5864334 0.5644491
000060 1f c5 22 3f a3 64 dc 3e 7c 49 15 3f 1d 03 10 3f
       0.6358203 0.4304553 0.58315253 0.5625475
000070 97 6d 80 3f 1f a2 9b 3f 8c ec a2 3f 4d 25 20 3f
       1.0033444 1.215885 1.2728438 0.62556916
000080 60 b5 1f 3f 14 6b b5 3f 32 4a 73 3f db c3 cc 3e
       0.6238613 1.4173303 0.9503509 0.39993176
000090 89 df 11 3f f6 01 48 3f ce e5 bb 3f 36 ac 07 3f
       0.5698171 0.7812799 1.4679506 0.5299715
0000a0 a0 b7 2c 3f c6 1f 96 3f e7 ab 2f 3f 6f b4 a5 3f
       0.6746769 1.1728446 0.6862168 1.2945689
0000b0 b4 4c 0c 3f 8d 1a 0e 3f 25 dc 14 3f 8d 4d 7f 3f
       0.5480454 0.55509263 0.58148414 0.9972771
0000c0 60 0a 01 3f fa 06 18 3f 06 66 8a 3f 60 09 94 3f
       0.50406456 0.59385645 1.0812385 1.1565361
0000d0 88 36 26 3f e9 62 85 3f 6d e6 32 3f 5d 3d 23 3f
       0.6492696 1.042081 0.6988285 0.6376551
0000e0 68 f3 29 3f 47 5b 53 3f 43 6f 35 3f bd b2 bd 3e
       0.66387033 0.82561153 0.70872897 0.3705043
0000f0 e0 1d 04 3f ee 40 0a 3f 91 8d 6b 3f 52 a5 bd 3f
       0.51608086 0.54005325 0.9201289 1.4816077

features.module.9.running_mean f4 [64]
000000 d1 b2 cc 3c 22 1a 68 3d 82 77 87 3c 0a cb c7 3d
       0.02498761 0.056665547 0.016536478 0.097555235
000010 ae b4 58 bd a1 08 83 bd d6 b1 4d 3d f6 ad b8 bb
       -0.052906685 -0.0639813 0.050218426 -0.005635972
000020 45 47 28 3d 72 fe 1c 3d 08 bd 78 3c 21 46 31 3d
       0.041083593 0.038328595 0.015181787 0.04327977
000030 b1 55 af 3d 33 d1 e0 3a 4d 87 92 3a 3f 8b 07 bd
       0.08561266 0.001715219 0.0011179239 -0.03309178
000040 f0 49 97 3d 6d 1a 22 3d 52 13 60 bd ad 75 80 bb
       0.07387149 0.039575983 -0.054705925 -0.003920278
000050 84 ce b8 bd a0 99 a5 3d 78 09 8c bd 69 91 96 3d
       -0.09023765 0.08085942 -0.068377435 0.073519535
000060 8e 9c be 3d c5 89 c2 bd 67 05 d2 bc 12 4a e6 bc
       0.09307204 -0.09498934 -0.025637342 -0.028111491
000070 8e 83 66 bd c8 5e 69 bb ba a8 7a be c3 fa ea 3c
       -0.056277804 -0.0035609473 -0.24478427 0.028684026
000080 b1 da a1 bd b6 43 a7 bc d2 c7 9d 3c 71 02 09 3e
       -0.0790304 -0.02041803 0.01926032 0.13379838
000090 04 11 63 3d 5f 19 89 3d 71 7c 4f be 90 a9 e1 bc
       0.05543615 0.06694292 -0.20262314 -0.027546674
0000a0 08 8e 04 bd aa 18 a2 bd 78 08 1f 3d 3e b2 7e 3d
       -0.032362014 -0.079148605 0.038826436 0.062181704
0000b0 dc f6 a4 3c 4e 66 1f bd fe 35 99 bc 89 9d 4f bd
       0.020137243 -0.038915925 -0.018702503 -0.050687347
0000c0 3f 68 3e 3d fc 75 d0 3c 2f 4e 2d be 3f 09 3d be
       0.046486136 0.025446884 -0.16924356 -0.18460558
0000d0 89 17 aa 3c 09 eb 02 be ce ce aa bc f4 2e cb 3c
       0.020763176 -0.12784971 -0.020850565 0.024802662
0000e0 8a 19 a0 bd 15 b2 36 3c ce 73 06 bd ad 5b 4e bd
       -0.07817371 0.0111508565 -0.032825284 -0.050380398
0000f0 17 08 9d bc 05 3b 86 3d 4e 28 93 bb 70 66 a3 3d
       -0.019168897 0.06554226 -0.0044908887 0.07978523

features.module.9.running_var f4 [64]
000000 c6 6b c7 3c ca c3 dd 3c f0 70 c6 3c 84 77 c3 3c
       0.024343383 0.027070899 0.024223775 0.0238607
000010 b9 bc af 3c fc 28 96 3c 92 ef 91 3c d8 e1 f7 3c
       0.021452295 0.01833009 0.017814431 0.030259058
000020 93 20 02 3d 98 0a 9c 3c 12 a7 ab 3c fb fe 92 3c
       0.031769346 0.01904802 0.020953689 0.01794385
000030 3a ff fc 3c b8 23 b3 3c 49 cf c9 3c 9f e3 a6 3c
       0.03088342 0.021867618 0.024634974 0.02037221
000040 74 37 f2 3c 17 fe c9 3c 66 7a 63 3c 71 50 8a 3c
       0.029567458 0.024657292 0.0138841625 0.01688406
000050 f2 c8 b1 3c 12 14 7c 3c 38 a9 8e 3c 9c ac d8 3c
       0.021702264 0.0153856445 0.017414674 0.026449494
000060 d3 ef bd 3c b8 93 be 3c 9e dc d2 3c ce 7c d1 3c
       0.023185646 0.023263797 0.025739964 0.025572207
000070 53 e8 aa 3c 36 e9 a9 3c e4 5a cb 3c 50 e0 97 3c
       0.020862734 0.020741086 0.024823613 0.018539578
000080 0c 1a b7 3c ce 24 95 3c 58 8b 63 3c 3d c5 cd 3c
       0.022351287 0.018206026 0.013888203 0.025118465
000090 06 2b bd 3c 52 12 cf 3c 8d 53 ef 3c 12 a5 ad 3c
       0.023091804 0.02527729 0.029214645 0.021196876
0000a0 58 04 ac 3c 7e 84 ba 3c f4 60 b5 3c 80 b4 d9 3c
       0.020998165 0.022768255 0.022140957 0.026575327
0000b0 ff f2 c9 3c d1 6e aa 3c 93 61 8b 3c fe c6 8e 3c
       0.024652002 0.020804795 0.0170143 0.017428871
0000c0 4d 18 ce 3c 8e e0 ba 3c 0b e3 c9 3c 8d f9 da 3c
       0.025158072 0.022812154 0.024644395 0.026730323
0000d0 2b d8 b8 3c c6 60 d4 3c 64 c3 a8 3c 78 00 84 3c
       0.022564014 0.025925051 0.020600982 0.016113505
0000e0 1a 84 8f 3c 22 b3 4b 3c b0 58 c3 3c fd cf c7 3c
       0.017519046 0.012432845 0.023846 0.024391169
0000f0 1b b5 c1 3c 96 85 c1 3c 83 07 91 3c 97 4f ca 3c
       0.023645928 0.023623269 0.017703777 0.024696155

top_layer.weight f4 [10, 64]
000000 6c be bc bd 22 81 f8 3e a1 fe a3 bd de 9e 17 be
       -0.092160076 0.4853602 -0.08007551 -0.14806697
000010 a2 44 81 be 03 e3 75 bd cc 48 85 bd 54 7b c2 bc
       -0.25247675 -0.06003095 -0.065080255 -0.023740448
000020 2f 55 5e bd b3 d1 a7 3e 00 ec e5 3c ff 31 6c be
       -0.054280456 0.32777175 0.028066635 -0.23065947
000030 07 da c4 bc 69 30 a5 bd 4c 1b 7c bd 6f b0 94 3e
       -0.024029745 -0.08065874 -0.06154947 0.29040858
000040 32 85 c8 3e ff 14 a9 3e d1 3a 45 be 39 21 51 3e
       0.3916412 0.3302383 -0.19260718 0.2042283
000050 ef ec 44 bd 6e 3c 21 bd 18 29 cb bc b1 1d ac 3e
       -0.04807752 -0.03936427 -0.024799868 0.33616403
000060 37 b9 e9 bd b7 a3 8f bd e2 09 ca 3e 79 56 83 bd
       -0.1141228 -0.07013648 0.39460665 -0.06412978
000070 b8 d5 11 3e ea 43 f3 bc fe f7 fe bd 28 9a c1 bd
       0.14241683 -0.02969547 -0.124496445 -0.09453231
000080 c8 40 6d bc 30 04 3b bd a7 5d 59 be 07 19 95 bd
       -0.014480777 -0.04565829 -0.21227132 -0.07280164
000090 31 ff c0 bd cd 5a fa 3e c9 20 67 be 34 54 a7 3e
       -0.09423674 0.488974 -0.225711 0.3268143
0000a0 17 d6 c7 bd 3c 91 9d be 34 1f cd 3e 49 61 ea bc
       -0.09757631 -0.30774868 0.4006287 -0.028610842
0000b0 aa 4a 92 bd ee d6 85 3e 72 b4 0e 3e 22 06 95 be
       -0.07143147 0.2614054 0.13936022 -0.2910624
0000c0 59 c4 33 3e 38 af d3 3e d4 9a 9e be 57 9b 9d be
       0.1755537 0.4134462 -0.309775 -0.30782577
0000d0 c9 39 d3 3e a4 ea 8e be 24 68 8d bd 7c 07 37 3e
       0.41255024 -0.27913392 -0.06904629 0.17873949
0000e0 ef 30 d3 bd 42 9d 01 be 41 08 57 bd 29 17 05 bd
       -0.10312068 -0.12657645 -0.052498106 -0.03249279
0000f0 75 ae 69 bd 3f 21 3b bd 15 4c 0d 3c e4 78 1b bc
       -0.05705114 -0.045686003 0.008624096 -0.009489272
000100 02 98 b6 bd cf 96 21 bd 24 ab 91 3e 6b f0 36 be
       -0.08915712 -0.039450463 0.28450882 -0.1786515
000110 78 25 b1 bd 14 3b ac 3e 74 3d b2 bd aa 9d 13 3d
       -0.08649725 0.33638823 -0.087031275 0.036039032
000120 40 95 80 bc 49 83 9f bd 95 28 ef bd 21 6e 76 be
       -0.015696168 -0.077887125 -0.11677662 -0.24065448
000130 9b f5 fa 3c d5 60 bb 3e e1 6e b2 3e c1 1d 44 bd
       0.030634692 0.36597314 0.3485022 -0.047879938
000140 48 c4 14 be 65 61 2a 3d 5a 44 d2 bd 10 86 85 3d
       -0.14528 0.04159679 -0.10266943 0.06519711
000150 0a bb 18 3f cc e3 10 be ef 3a 5a 3e 8a 04 9f bd
       0.596604 -0.14149398 0.21311544 -0.07764538
000160 50 60 16 be 23 6b af 3e 38 17 ab ba 7f a6 9b 3e
       -0.14685178 0.34261426 -0.0013053184 0.30400464
000170 1c 33 5f 3e 7a 6d 54 bd 68 c7 f3 3d eb 3d 65 bd
       0.2179684 -0.051862217 0.11903268 -0.055967253
000180 4b d4 e7 3e a0 27 06 be 79 76 4f be f2 b6 f5 bc
       0.45279154 -0.13101053 -0.20260037 -0.029994462
000190 cb 8a 4c bc 34 4c 69 bc 0d 87 7d 3d 0f 3d 9d 3d
       -0.012484263 -0.01423936 0.061896373 0.07677662
0001a0 cb df 07 be c2 bd bf bd dc 42 30 bc 4b ee f0 bc
       -0.13268964 -0.09362365 -0.010758128 -0.029410502
0001b0 da 7f fc 3d 8a a5 09 be c0 15 f5 bd d3 e1 04 bd
       0.12329073 -0.13442054 -0.11967039 -0.032441925
0001c0 5a 31 ca bd 96 bc f2 3c 22 c3 b3 bd c2 bc e2 bd
       -0.09872694 0.02963094 -0.08777453 -0.11071159
0001d0 be 03 27 bd 06 25 fe bd c4 d2 fe 3d ee 47 be bd
       -0.040775053 -0.124094054 0.12442544 -0.09291063
0001e0 96 11 05 be e4 55 7e bd 38 6d fb 3e 63 dc 30 3e
       -0.1299499 -0.06209363 0.49106765 0.17271571
0001f0 13 b3 01 3e 64 0f 9d 3d 3a 8a 36 bd 6c e9 a5 bd
       0.12665968 0.07668951 -0.044565417 -0.08101162
000200 9a 9a 20 bd 9d 40 b3 bd c7 f5 9f bd 64 44 88 3c
       -0.03920994 -0.087525584 -0.0781055 0.016634174
000210 b2 07 8b 3e 72 d1 2a be 63 17 b7 3d db a6 e0 be
       0.2715431 -0.1668146 0.089400075 -0.438773
000220 02 f4 b2 be 4b 28 02 3e 12 9b c8 be 1b 23 72 3e
       -0.34951788 0.12710683 -0.3918081 0.23646204
000230 3c a5 82 be 51 e9 66 be e8 41 07 be ef 93 35 3d
       -0.2551669 -0.2254994 -0.13208735 0.044330534
000240 fb ac 0a 3d 46 0b 3c 3d 4a 96 0f bd 2e 64 10 3e
       0.033856373 0.04590919 -0.035055436 0.14100716
000250 7f 4d c9 bd c0 f5 56 be a2 8b ec 3d 0c 20 99 3d
       -0.09829234 -0.20992184 0.1155007 0.074768156
000260 f1 db e6 bc 1b c2 8b bd 89 b6 5d bd e9 b7 76 bd
       -0.028181048 -0.06824132 -0.054129157 -0.060233984
000270 26 af f4 3d 8c fa ce be cf 12 e9 3e 2a 9c be 3d
       0.119474694 -0.40425527 0.45522162 0.0930713
000280 61 fd 01 be 49 54 ce be b8 f5 9d 3d 89 56 76 bd
       -0.12694313 -0.4029868 0.07712883 -0.06014112
000290 c9 19 b6 3c 5d 4c f5 bd 01 4e 15 3f 73 0c 54 bc
       0.022229092 -0.11977456 0.5832215 -0.012942421
0002a0 f6 11 e3 3d 5c 02 f2 3e 2d d5 97 3d 8e cf f7 be
       0.1108741 0.47267425 0.07413707 -0.4840054
0002b0 fe be 4e bd c0 1e e5 3d d0 4b 34 3e 47 22 43 3e
       -0.050475113 0.11187506 0.17607045 0.19056045
0002c0 98 b4 d3 3d 67 6b 96 bd f5 ba af 3e 75 83 ee 3e
       0.1033718 -0.07344704 0.34322324 0.4658467
0002d0 fc c4 ba 3d d7 a4 e7 3e 3b 0c 43 3d fc 39 09 3e
       0.09119603 0.4524295 0.047619086 0.13401026
0002e0 ca 45 14 3e 3f 3e 75 be 32 66 2c be 07 24 d7 bc
       0.14479747 -0.23949526 -0.1683586 -0.026262296
0002f0 2f 29 d6 bb a7 15 bf bc 54 fb a8 be 1d 3d 12 bf
       -0.006535671 -0.023325754 -0.33004248 -0.571245
000300 c7 f2 b6 3c 10 94 01 3e c4 65 00 be bd 38 c0 bd
       0.022332562 0.12654138 -0.1253882 -0.09385822
000310 98 04 1f be 77 1a a4 bd fe ec d9 bd 64 06 49 3e
       -0.15529096 -0.0801286 -0.10640906 0.19631344
000320 95 00 32 3e e4 25 24 bd 17 35 ad 3e 1f eb 98 3c
       0.17383035 -0.040075198 0.33829567 0.018666802
000330 4a d3 8f 3d e9 78 72 bd ca 87 38 3c 9c df 93 b9
       0.07022722 -0.05919734 0.011262843 -0.00028204627
000340 24 92 19 3e 7e c5 a7 3d 70 cf 40 3d fa 2f 00 be
       0.14997154 0.081919655 0.047072828 -0.12518302
000350 3f 26 06 bd 3d ef 97 3e c9 ec 59 bd 7a 3c e1 3d
       -0.032751318 0.29674712 -0.05320433 0.10997863
000360 31 e8 fc 3c 2a b2 c4 bc 3e b9 19 3e fa be 8d bb
       0.030872436 -0.024010736 0.1501207 -0.0043257447
000370 7c 25 11 bd 6b 98 89 3e 28 79 8f be d6 8f ef bd
       -0.03543614 0.26874098 -0.28022122 -0.116973564
000380 9f 32 ff bc 72 f6 de 3e 38 fc b0 3d e1 ff 50 bc
       -0.031152068 0.43547398 0.08641857 -0.012756319
000390 ae ae e1 bd 4e d0 10 3e 75 45 a3 be b6 6b 9e 3d
       -0.11019646 0.14141962 -0.3188893 0.07735388
0003a0 2f 7b df bd 12 ae 81 be c0 ab 65 3d 96 be 89 3e
       -0.10912167 -0.25328118 0.056071997 0.26903218
0003b0 87 3a 1a bd 10 c7 4b bc c0 0f 4f bd d9 ba 6d be
       -0.037653472 -0.012437597 -0.05055213 -0.23215808
0003c0 f8 f2 45 3d ec d0 ce 3d 28 ab 3f be ac f7 19 be
       0.048327416 0.100984424 -0.18717635 -0.15035886
0003d0 4c b6 07 3d 4e 73 20 be 94 7b fa bd 79 7f 4f bd
       0.033132836 -0.15668985 -0.12230602 -0.050658677
0003e0 be b8 fc bd 9c 70 e2 3b de 5c 52 bd 88 23 7a 3d
       -0.12339924 0.0069103967 -0.051358096 0.06106904
0003f0 08 66 7d 3c 31 6e 7d 3d 60 86 9f 3e 5a 5d a7 3e
       0.015466221 0.061872665 0.31157207 0.3268841

top_layer.bias f4 [10]
000000 0d 25 2a bd f8 78 30 3d 43 9d 01 bb 46 79 88 ba
       -0.04153924 0.043084115 -0.0019777573 -0.0010412119
000010 00 ed 22 37 ab c0 07 3d 68 da 44 bd 46 6d 9f 3d
       9.711133e-06 0.033142727 -0.04805985 0.07784514
000020 30 36 55 bc 4b 75 46 bd
       -0.013013408 -0.048451703

momentum_buffer f4 [16, 1, 3, 3]
000000 92 1a 39 3d e2 8f f6 3c 69 74 f6 bc 7f 90 2c bc
       0.045191355 0.030097906 -0.030084806 -0.010532497
000010 0d 46 a3 bd 0e 5c e6 bd 1b 3e 12 3d 02 3e 3a bd
       -0.079723455 -0.11248027 0.03570376 -0.04546929
000020 fd 7e 82 bd 6c f3 82 3c a0 47 8f 3b e7 cc c2 bc
       -0.06371877 0.015985213 0.004372552 -0.023779346
000030 13 57 14 bd af 5d 32 bd 82 66 81 bc b2 1a 51 bd
       -0.036215853 -0.043546375 -0.01579595 -0.05105085
000040 93 59 55 bd 8c 5f 67 bc bd 5c 21 3d 8b 93 a2 3d
       -0.052087378 -0.014121901 0.039395083 0.07938298
000050 72 ba 24 3e 17 f0 1d 3d e2 63 eb 3d 52 81 9b 3e
       0.16086748 0.038559046 0.114936605 0.303721
000060 12 5b 36 3d ee 5f 54 3e a8 b5 a9 3e 30 3f b9 b9
       0.044520445 0.2073972 0.33146405 -0.00035333028
000070 da d4 f5 bc 81 5b b6 bd 31 22 60 bc e5 5b 4e bd
       -0.030008722 -0.08904172 -0.013680027 -0.050380606
000080 5e 3a bf bd 1c 9e 05 3d bc 01 cd bc 2c 76 c7 bd
       -0.093373045 0.032621488 -0.025025241 -0.09739336
000090 c6 80 05 bd a0 ef 98 bd d8 ec c1 bd dc d2 8e bd
       -0.03259351 -0.0746758 -0.094690025 -0.06973812
0000a0 62 c6 f2 bd 53 25 00 be 92 6a 58 bd ef 3a 91 bd
       -0.11854245 -0.12514238 -0.05283601 -0.07091319
0000b0 9f 20 f5 bc bb e3 ed 3c 1d 66 b7 3c 32 f7 2a bd
       -0.029922782 0.029039254 0.022387559 -0.04173965
0000c0 8d 14 74 3d 1a f7 34 3d 70 3a 5f bc 94 20 ad 3b
       0.05958991 0.044180967 -0.013624772 0.0052834246
0000d0 9e 46 0d 3d 20 d7 7b bb b6 73 9e bc 67 88 87 bd
       0.034491174 -0.0038427785 -0.019342285 -0.066178136
0000e0 44 b7 ac bd 76 ec 67 bd 9b 11 e7 bc 12 cc a4 bc
       -0.08433393 -0.05662199 -0.028206637 -0.02011684
0000f0 85 c6 3d bd 70 de 86 3b 85 ee 77 bb 40 17 33 3c
       -0.0463319 0.004115872 -0.0037831378 0.010930836
000100 e7 e1 2b 3d 37 74 27 3d 7b db 2f 3d 7b 83 2a 3d
       0.041963484 0.040882315 0.042933922 0.041629296
000110 71 35 32 3c 79 c4 b8 3c 4a 93 ce 3c 92 0b 38 3c
       0.010876999 0.022554623 0.025216717 0.011233227
000120 53 46 60 bd 5d 29 49 bc 88 73 81 bc 3c 5f 04 bd
       -0.054754566 -0.012277928 -0.01580216 -0.032317385
000130 6c b4 05 bd e3 72 45 bd 0e 19 c5 bd dc a2 b6 bd
       -0.032642767 -0.048205268 -0.096239194 -0.08917782
000140 cf b1 c6 bd 73 45 4c 3d 8d e4 f7 3d 3e 8d f9 3d
       -0.09701883 0.04987092 0.121041395 0.12185143
000150 b4 58 76 3d a2 0d 12 3e 04 4f 28 3e c8 40 fa 3d
       0.060143188 0.14263013 0.16436392 0.12219387
000160 20 71 55 3e 09 b7 87 3e 69 f7 89 bd c8 49 9b 3d
       0.20843935 0.26506832 -0.06736643 0.07582432
000170 f7 92 05 3e 88 b0 d5 3c b0 52 4b 3e bc cd 60 3e
       0.13044344 0.026085153 0.19855762 0.21953481
000180 dc 52 f5 3d 85 b2 5f 3e e6 96 2b 3e d1 49 50 3c
       0.11978695 0.21845444 0.16756782 0.012712912
000190 fd 3e 0b 3d fc a0 b1 3d 74 f8 43 bc 14 3b 0e bc
       0.033995617 0.086732835 -0.011961091 -0.0086810775
0001a0 55 df d1 3c fc 6a 1d 3c a6 be c5 3b a9 59 04 3d
       0.025619188 0.009608027 0.00603469 0.03231207
0001b0 80 68 1d bd 20 80 5b bd 1c fb 82 bd 1f 24 04 bc
       -0.038429737 -0.053588986 -0.063955516 -0.008065253
0001c0 fb fc 90 3b f8 bf 1a 3b b6 20 22 3c 2e 60 7b 3c
       0.004424689 0.0023612957 0.009895494 0.015342755
0001d0 64 68 85 3d c8 ee 19 3c 3c ef 41 bc 6e 96 08 bb
       0.065140516 0.009395309 -0.011836823 -0.0020841616
0001e0 34 f6 36 3c 4e 7c 1d 3c 70 c5 88 3c 43 89 49 bb
       0.011167098 0.009612156 0.016695708 -0.003075198
0001f0 b6 1e 54 ba bc 82 45 3b d2 3f a1 3c 40 20 64 3d
       -0.00080917345 0.0030137738 0.019683752 0.05569482
000200 ca 47 5c 3e 18 3b de bc 17 3d 25 3d e9 62 a1 3e
       0.2151176 -0.027127787 0.040341463 0.31520775
000210 79 80 b0 3c 06 62 35 3e 59 bb b8 3e 33 fc b8 3d
       0.021545636 0.17713174 0.36080435 0.09032478
000220 2b 90 f3 3c 95 81 18 bd b1 2d b3 3d 16 02 d8 bc
       0.02973183 -0.037232954 0.08748949 -0.026368182
000230 b0 70 73 bd 33 90 f7 3c 86 10 8d bc 00 12 29 b8
       -0.05943364 0.030220127 -0.017219793 -4.0309504e-05

momentum_buffer f4 [16]
000000 41 26 c0 b6 e0 9c e8 36 54 79 8e 37 45 aa df 37
       -5.7264992e-06 6.9324014e-06 1.6984217e-05 2.666296e-05
000010 a4 3f fd 37 d7 9b db b7 ba 0f 0b 37 08 ec 6e b7
       3.0189585e-05 -2.6179403e-05 8.288707e-06 -1.4240861e-05
000020 70 11 7c b6 fe 02 d0 b7 f8 ac fd 37 d0 cc ca b7
       -3.7561076e-06 -2.4796926e-05 3.0240495e-05 -2.417565e-05
000030 60 a5 93 37 b9 c2 43 37 70 4f 33 37 5e 8c 95 b7
       1.7600774e-05 1.1668243e-05 1.0687727e-05 -1.7827548e-05

momentum_buffer f4 [16]
000000 7c 9d 10 3d d0 92 23 3e 32 7b 82 3c a1 ec 6a bd
       0.03530644 0.15973973 0.015927885 -0.057354573
000010 59 13 1d bd 78 15 2c 3d f9 a6 de bc c1 02 09 bc
       -0.03834853 0.04201266 -0.027179228 -0.008362473
000020 20 37 25 bd 6a 26 ed 3d b2 38 2a bd 5b 30 97 bd
       -0.040335774 0.115795925 -0.041557975 -0.0738227
000030 10 4f 8e 3c f2 5a 2c bd bc 83 be 3c 16 cd c9 bc
       0.017371684 -0.04207892 0.023256175 -0.024633925

momentum_buffer f4 [16]
000000 d0 39 2f 3d 1f 4e a8 3d 7e 4d 1a bc 09 67 d3 bd
       0.042779744 0.082180254 -0.00941789 -0.10322387
000010 45 ee b9 bb 6d 84 d8 3d 15 c5 e4 bc 9a 6d 77 bc
       -0.005674156 0.10572133 -0.027926007 -0.015101815
000020 48 ce e5 bc 35 5c e6 3d 35 14 15 3d 95 a5 f4 bd
       -0.028052464 0.11248056 0.036396224 -0.11945645
000030 5c bb 77 3c 50 b3 75 bd 0a 14 bf bc e7 dc 5f bd
       0.015120354 -0.05998546 -0.023324985 -0.05465403
