deepcluster_implementation/experiments/run_label_fraction_variation/config_3/checkpoints/checkpoint_epoch_9.pth.tar (torch, 203702 bytes, 32 tensors)

features.module.0.weight f4 [16, 1, 3, 3]
0	0x3f420948	0.7579541
1	0x3cc6d34a	0.024270672
2	0xbf722d80	-0.9460068
3	0xbf4da1e0	-0.80325127
4	0x3f65f256	0.898229
5	0xbdb8bb4b	-0.09020098
6	0xbf3237af	-0.69616216
7	0x3e192654	0.14956027
8	0x3e598397	0.21241604
9	0x3e02e378	0.12782085
10	0x3ed83d23	0.42234144
11	0x3f541954	0.8285115
12	0xbef74264	-0.4829284
13	0xbf4c1185	-0.7971423
14	0xbc76c6bc	-0.01506203
15	0xbdb265e6	-0.08710842
16	0x3f21cfd5	0.6320775
17	0x3f2512d3	0.6448185
18	0xbef2a5e6	-0.47392195
19	0xbee890ed	-0.4542307
20	0xbf0c0384	-0.54692864
21	0xbeaf1afb	-0.34200272
22	0x3eabe915	0.33576265
23	0x3e7319d3	0.2374032
24	0xbf7d2f33	-0.98900145
25	0xbe3b0546	-0.1826373
26	0x3ecb3b88	0.39693856
27	0xbf9c1ac6	-1.2195671
28	0xbe1f3fa6	-0.15551624
29	0xbf5c31ed	-0.8601368
30	0x3e16f0fd	0.14740367
31	0x3edf2e6a	0.435901
32	0x3b68ddc5	0.0035532576
33	0x3eec492a	0.4614957
34	0xbe38efb8	-0.18060195
35	0x3ef87538	0.4852693
36	0x3f7050e0	0.93873405
37	0x3e64023e	0.2226648
38	0x3f0d188b	0.55115575
39	0xbd5bc96d	-0.05365889
40	0xbf18b752	-0.59654725
41	0x3e81f78b	0.25384173
42	0xbd37ec95	-0.044903357
43	0xbf485602	-0.7825624
44	0x3f7da186	0.9907459
45	0x3e0bd037	0.13653646
46	0x3e44229c	0.19153827
47	0x3d91275b	0.070875846
48	0xbeb08d9b	-0.34483036
49	0x3f45770b	0.7713477
50	0xbf2ac0c7	-0.66700405
51	0xbf8d1b8e	-1.1024034
52	0xbedd380f	-0.43206832
53	0xbf60874b	-0.8770644
54	0x3edbed1d	0.4295434
55	0x3e1cad7b	0.15300553
56	0x3f02d879	0.5111156
57	0x3cbd63be	0.02311885
58	0x3e2058b4	0.15658838
59	0x3eaf72e8	0.34267354
60	0xbf728e7c	-0.94748664
61	0xbdd93d2b	-0.1060737
62	0xbf734433	-0.9502594
63	0x3f443782	0.766472
64	0xbe270fd1	-0.16314627
65	0xbf4f92fa	-0.81083643
66	0x3f084e40	0.532444
67	0xbe8220ee	-0.25415748
68	0xbe981ccb	-0.29709467
69	0x3e8985f5	0.26860014
70	0x3e9e171f	0.30877015
71	0x3f9f379f	1.2438849
72	0xbf5073bb	-0.8142659
73	0xbf1e3b41	-0.61809164
74	0xbf0c1b0d	-0.54728776
75	0x3d7b4e6c	0.061354086
76	0x3db29397	0.08719557
77	0xbf694e57	-0.9113516
78	0x3f3c3e75	0.735328
79	0x3e8033ef	0.25039622
80	0xbe8122e8	-0.25221944
81	0xbf264cec	-0.64961123
82	0xbabd863a	-0.0014459558
83	0x3ea26cd7	0.31723663
84	0xbf279835	-0.65466624
85	0x3ef1ea78	0.47249198
86	0x3f0a7b6d	0.5409458
87	0xbf296fbc	-0.6618612
88	0xbf44d5fd	-0.7688902
89	0x3d9b6afe	0.075887665
90	0x3d5ff399	0.054675672
91	0xbcc0ea32	-0.023549173
92	0xbf133cbb	-0.5751454
93	0x3bc4dc72	0.0060077244
94	0xbd994c07	-0.07485204
95	0xbe848374	-0.2588154
96	0x3f6032eb	0.87577695
97	0x3e66f1e8	0.22553217
98	0xbf8981a3	-1.0742687
99	0xbf53c92b	-0.8272883
100	0xbcec4b92	-0.028844628
101	0x3e1ceb6c	0.15324181
102	0xbd40db60	-0.047084212
103	0xbe314b2b	-0.1731383
104	0x3ecba4bc	0.3977412
105	0xbef9ad2e	-0.48764938
106	0xbe2db1bd	-0.16962333
107	0xbf675c24	-0.9037497
108	0xbf3f2bdc	-0.746763
109	0x3eb3de47	0.35130522
110	0x3f0d752c	0.55256915
111	0x3cac6097	0.021042151
112	0xbf0f2e47	-0.5592999
113	0xbf6ba91b	-0.9205491
114	0xbef94905	-0.48688522
115	0xbe27a3ee	-0.16371128
116	0x3f103dd4	0.5634434
117	0xbed092df	-0.40737054
118	0xbec6de75	-0.38841596
119	0xbf362a50	-0.71158314
120	0x3e2607d7	0.16213928
121	0x3ebb0cc0	0.36533165
122	0xbde2d89c	-0.11076471
123	0x3e83850a	0.25687438
124	0xbd8dd366	-0.06925087
125	0xbf924d7a	-1.1429894
126	0xbea7e017	-0.32788154
127	0xbea6c98d	-0.32575646
128	0xbe8389fa	-0.25691205
129	0x3f42ee7d	0.76145154
130	0x3f09e67b	0.5386731
131	0x3f65dd30	0.8979063
132	0xbf93cff4	-1.1547837
133	0xbe85f2bb	-0.2616175
134	0xbf39520f	-0.72390836
135	0xbf2bc0bf	-0.6709098
136	0xbf069a7e	-0.52579486
137	0xbec39f08	-0.3820727
138	0xbf07e186	-0.53078496
139	0x3ed17375	0.409084
140	0xbe1fdace	-0.15610811
141	0xbf16c095	-0.58887607
142	0x3f7d3d8d	0.98922044
143	0xbf20e718	-0.6285262

features.module.0.bias f4 [16]
0	0xbd639c48	-0.055568963
1	0x3d89a9d5	0.06721846
2	0x3e2a206f	0.16613935
3	0x3e85048b	0.2598003
4	0x3e961935	0.29316106
5	0xbe82a741	-0.2551823
6	0x3da5de3b	0.08099028
7	0xbe0dbd40	-0.13841724
8	0xbd107327	-0.035266068
9	0xbe76a941	-0.24088003
10	0x3e9614ff	0.29312894
11	0xbe71ddac	-0.23619717
12	0x3e301f7d	0.17199512
13	0x3de7a140	0.11310053
14	0x3dd62c25	0.10457639
15	0xbe322a79	-0.17399015

features.module.1.weight f4 [16]
0	0x3f0336fd	0.5125578
1	0x3f54d8e9	0.8314348
2	0x3fddf28b	1.7339643
3	0x3f190bf8	0.5978389
4	0x3f4fc315	0.81157047
5	0x3ff0594b	1.877725
6	0x3f182963	0.5943815
7	0x3f6e6654	0.9312489
8	0x3fa249d6	1.2678783
9	0x3f6df5c5	0.9295314
10	0x3f43282f	0.7623319
11	0x4004aa66	2.0729003
12	0x3fbd3b53	1.4783729
13	0x3fd4f7ef	1.6638163
14	0x3f033d2f	0.51265234
15	0x3ffb7b9c	1.9647098

features.module.1.bias f4 [16]
0	0xbe17b505	-0.14815147
1	0xbfd2c787	-1.6467141
2	0xbf0ef412	-0.5584117
3	0xbe033e8b	-0.12816827
4	0xbfc8de3a	-1.5692818
5	0xbf3e1f07	-0.74266094
6	0xbea64d56	-0.32480878
7	0xbfeea672	-1.8644545
8	0xbee83457	-0.45352432
9	0xbeba64db	-0.36405072
10	0xbe87a7d4	-0.2649523
11	0xbf439d60	-0.7641201
12	0xbf2e7fcd	-0.6816376
13	0xbef997e4	-0.48748696
14	0xbc96cf76	-0.018409472
15	0xbf330941	-0.69935995

features.module.1.running_mean f4 [16]
0	0xbdab68ac	-0.08369574
1	0x3decaf47	0.11556869
2	0x3debe033	0.11517372
3	0x3e684aae	0.22684738
4	0x3eb540ff	0.3540115
5	0xbea436ec	-0.32073152
6	0x3d70c4da	0.058781482
7	0xbdc2c0c2	-0.09509422
8	0xbd9502aa	-0.07275899
9	0xbe8dc998	-0.27692866
10	0x3e8c91dc	0.27455032
11	0xbe93515c	-0.2877301
12	0x3e248e31	0.16069867
13	0x3d604bf8	0.05475995
14	0x3d50c0a5	0.05096497
15	0xbe72e1b8	-0.23718917

features.module.1.running_var f4 [16]
0	0x3f25a5f2	0.6470634
1	0x3fcfd2cb	1.6236204
2	0x405783f2	3.3674283
3	0x3ff7bf8a	1.9355328
4	0x3fe8ea72	1.8196547
5	0x408ebccd	4.460547
6	0x3fcfb17b	1.6226038
7	0x402b131d	2.6730416
8	0x4082a382	4.0824594
9	0x40261ca1	2.5954974
10	0x3fec156d	1.8444039
11	0x40349c78	2.82205
12	0x4002e078	2.0449505
13	0x403fd84d	2.997577
14	0x3f804af9	1.002288
15	0x4040173e	3.0014186

features.module.4.weight f4 [32, 16, 3, 3]
0	0xbe452d64	-0.19255596
1	0xbe85273e	-0.26006502
2	0xbed69580	-0.41910934
3	0xbe662c8c	-0.22477931
4	0x3dcb12a1	0.099156626
5	0x3dcfe9c2	0.10152008
6	0x3e667cfb	0.22508614
7	0x3d1de027	0.038543846
8	0x3e8d7698	0.27629542
9	0xbb8692f9	-0.004106876
10	0xbdcfdef1	-0.101499446
11	0xbdb859ba	-0.09001489
12	0xbbbf6e54	-0.0058420096
13	0xbd902d6f	-0.07039916
14	0xbdd39fd2	-0.10333218
15	0xbc92015a	-0.01782291
16	0xbb3a8188	-0.0028458554
17	0xbd87361d	-0.06602118
18	0x3c98e308	0.018662944
19	0x3e619c83	0.2203236
20	0xbde66e49	-0.11251504
21	0xbda5be71	-0.080929644
22	0xbd8c8be2	-0.06862618
23	0xbe02c8e4	-0.12771946
24	0xbe128804	-0.14309698
25	0xbd9e9cc9	-0.07744748
26	0x3e541da3	0.2071443
27	0x3e0363e8	0.1283108
28	0xbd334f3b	-0.043776732
29	0xbf112b9b	-0.5670716
30	0xbda0ccd6	-0.07851569
31	0xbeadcd94	-0.33945906
32	0xbe2fd1d1	-0.17169882
33	0xbec6bb51	-0.38814786
34	0xbe77205c	-0.24133438
35	0x3d47b39a	0.048755266
36	0xbe33414e	-0.1750538
37	0xbd2888cf	-0.041146096
38	0x3d2d303b	0.042282324
39	0xbca0c492	-0.019624982
40	0x3d5a9065	0.05336036
41	0xbe913c19	-0.28366163
42	0x3e0f0e1b	0.13970225
43	0x3da413e9	0.0801161
44	0x3e3c2959	0.18375148
45	0xbe1bfeaf	-0.15233873
46	0x3afe45aa	0.0019399424
47	0x3e2517b5	0.16122325
48	0xbe531fcd	-0.206176
49	0xbb545d49	-0.0032404235
50	0x3c8d06d1	0.017215164
51	0xbe95e5ff	-0.29277036
52	0xbe625da0	-0.22106028
53	0xbeefd577	-0.46842548
54	0xbe74390e	-0.2384989
55	0xbdde8c09	-0.10866553
56	0x3e5c914b	0.215398
57	0xbe0f9fe8	-0.14025843
58	0xbcb516ff	-0.022105692
59	0xbde6b24d	-0.11264477
60	0xbdc14d71	-0.09438599
61	0xbd25c4d4	-0.040470913
62	0xbecb2185	-0.3967401
63	0x3df7622a	0.1207927
64	0xbe2ab066	-0.16668853
65	0xbeb6d9ae	-0.3571295
66	0x3d5c0573	0.053716134
67	0x3d39f623	0.04540075
68	0xbd8332e6	-0.064061925
69	0xbe5b9a98	-0.21445692
70	0xbd816f70	-0.06320083
71	0x3e9b824d	0.3037285
72	0xbe398520	-0.1811719
73	0xbeb60e32	-0.35557705
74	0xbeefa2b7	-0.4680383
75	0xbd42ab73	-0.047526788
76	0xbcf8873a	-0.030337919
77	0x3dde88b2	0.10865916
78	0xbde3031f	-0.1108458
79	0xbd9daa5f	-0.07698511
80	0x3e5990ee	0.21246693
81	0xbbdfd32d	-0.006830594
82	0xbcab0c66	-0.020879935
83	0x3d57725a	0.05259929
84	0xbcdef7c4	-0.027217753
85	0x3c751515	0.01495864
86	0x3c36a45d	0.011147586
87	0x3e2ba0b9	0.1676053
88	0x3db67a43	0.08910038
89	0x3e677f04	0.22607046
90	0x3ba7540c	0.0051064547
91	0xbdc3fb9c	-0.09569475
92	0xbe490107	-0.19629298
93	0xbe269376	-0.1626719
94	0xbc5fcfe1	-0.013660402
95	0xbcc14f56	-0.0235974
96	0x3e91f521	0.2850733
97	0x3d9a2ebb	0.075284444
98	0x3e32d64c	0.1746456
99	0xbd69afcd	-0.057052422
100	0xbe03a1ad	-0.12854643
101	0x3e2756b5	0.1634167
102	0x3d91df14	0.07122627
103	0xbda8632a	-0.08222039
104	0xbd30e7f2	-0.04318995
105	0x3e240027	0.16015683
106	0x3e01aba2	0.12663129
107	0xbe89c2e0	-0.2690649
108	0xbd703dba	-0.058652617
109	0xbe459901	-0.19296648
110	0x3d9b9dbb	0.07598444
111	0xbe4fb5d1	-0.20284201
112	0xbe3aebce	-0.18254015
113	0xbd4f1b56	-0.05056318
114	0xbddcc0f0	-0.107789874
115	0xbc26e401	-0.010186196
116	0xbc0e662c	-0.008691352
117	0xbda194a7	-0.07889681
118	0xbde994c9	-0.11405332
119	0xbee268eb	-0.4422067
120	0xbdf8e606	-0.121532485
121	0x3dd9aad4	0.10628286
122	0x3cd633bf	0.026147721
123	0xbd8b0000	-0.067871094
124	0xbde7c402	-0.113166824
125	0x3c89f5d9	0.016840862
126	0x3d6ccb74	0.057811216
127	0x3e01c8a0	0.12674189
128	0xbb57beac	-0.0032920046
129	0x3daa8875	0.08326808
130	0x3e0df077	0.13861261
131	0xbe4ac7ba	-0.19802752
132	0x3e3baa16	0.18326601
133	0x3ba737cd	0.0051030875
134	0xbe3f2742	-0.1866732
135	0x3c90824a	0.017640252
136	0x3cc3491e	0.023838576
137	0x3cdaaa0e	0.026692417
138	0x3b5da8d2	0.0033822549
139	0x3da5e34a	0.080999926
140	0xbdc9b26a	-0.09848483
141	0xbdf0db16	-0.11760537
142	0xbd131a4e	-0.035913758
143	0xbe121099	-0.14264144
144	0x3d3b9b8b	0.045802634
145	0x3e32a4a6	0.17445621
146	0x3e32c4c4	0.17457873
147	0xbda85652	-0.08219589
148	0xbd29bc9e	-0.041439645
149	0xbcc08e90	-0.02350548
150	0xbe8ac238	-0.27101302
151	0x3c5931f5	0.01325654
152	0x3c61b50b	0.013776074
153	0xbdeb84bb	-0.11499926
154	0xbe352271	-0.1768892
155	0xbe9f5685	-0.31120697
156	0x3caef693	0.02135781
157	0xbcdc52df	-0.026894985
158	0xbe4a3a61	-0.19748832
159	0x3d34fdb3	0.04418726
160	0xbd844f52	-0.06460442
161	0xbd1f8d30	-0.038953006
162	0x3e015132	0.1262863
163	0xbd3a93d5	-0.04555114
164	0xbddae1ff	-0.106876366
165	0x3dc17753	0.094465874
166	0xbd12bdf8	-0.0358257
167	0x3d3fa115	0.04678448
168	0xbdd9c06e	-0.10632406
169	0xbd8e2beb	-0.069419704
170	0x3dd0e36c	0.10199627
171	0x3e742b17	0.23844562
172	0x3defcba7	0.117087655
173	0xbcbd4784	-0.02310539
174	0x3ba389f6	0.0049908115
175	0xbdde4375	-0.1085271
176	0xbdd0bc57	-0.10192173
177	0xbd0a2fa5	-0.033736844
178	0xbd98f197	-0.074679546
179	0xbddc4cfe	-0.107568726
180	0xbe70600e	-0.23474142
181	0xbdea6088	-0.11444193
182	0xbe53cc00	-0.20683289
183	0xbe28eb7e	-0.16496083
184	0xbdeeb333	-0.11655273
185	0xbe193ed5	-0.14965375
186	0xbe644316	-0.22291216
187	0xbe1d6acd	-0.15372773
188	0xbe756ad0	-0.23966527
189	0xbc89db44	-0.016828187
190	0x3c4eab7e	0.012614129
191	0x3d7d9104	0.061905876
192	0xbe14d9a3	-0.14536147
193	0xbc7279ec	-0.014799576
194	0xbd021821	-0.031761292
195	0xbeb08498	-0.3447616
196	0x3d29f68e	0.0414949
197	0x3d2f8ca2	0.042858727
198	0xbd5c0371	-0.05371422
199	0x3dca33a7	0.09873133
200	0xbd8fd692	-0.07023348
201	0xbe371a6e	-0.17881176
202	0xbd246f21	-0.040145043
203	0xbe168f42	-0.14703086
204	0xbe84665d	-0.25859347
205	0xbcfd8410	-0.030946761
206	0xbde6bf7f	-0.11266994
207	0xbeb9dee8	-0.36302876
208	0xbe3ff5f2	-0.18746164
209	0xbe836559	-0.2566326
210	0xbe720c48	-0.23637497
211	0xbcbf90a0	-0.023384392
212	0xbe0a6d25	-0.13518198
213	0xbe6bcda3	-0.23027663
214	0xbe11322c	-0.14179295
215	0xbe88bbed	-0.26705876
216	0x3c9d185d	0.019176656
217	0x3da1fbf1	0.07909382
218	0x3dec2872	0.11531152
219	0x3cc6cce7	0.024267627
220	0x3cc91077	0.024543984
221	0xbdc9daf0	-0.09856212
222	0xbe0691cc	-0.13141555
223	0xbe15a5fb	-0.14614098
224	0xbd61da3c	-0.055139765
225	0xbd4ff62d	-0.05077188
226	0xbd7991fe	-0.060930245
227	0xbd97d4c0	-0.07413626
228	0xbc86f1a4	-0.016472645
229	0x3c803556	0.015650433
230	0xbd93b1d6	-0.07211654
231	0xbdb43a97	-0.088002376
232	0x3d3314d8	0.04372105
233	0x3afb67d3	0.0019180722
234	0xbb21a334	-0.0024663927
235	0xbaa142aa	-0.0012303193
236	0x3d815424	0.06314877
237	0x3c0ca3b5	0.008583953
238	0x3b1a6d8b	0.0023563828
239	0x3dda1194	0.10647884
240	0x3d90ecb4	0.070763975
241	0xbcb869b3	-0.022511339
242	0x3c11bc64	0.0088950135
243	0x3d21756a	0.039418615
244	0xbd67d36b	-0.05659811
245	0x3d2aa280	0.04165888
246	0x3c63e8c9	0.013910481
247	0xbca8212c	-0.02052363
248	0x3d063c37	0.03277227
249	0xbe59c3a8	-0.21266043
250	0xbdd3c91c	-0.10341093
251	0x3b1f17d8	0.0024275687
252	0x3dc03929	0.093859024
253	0x3dc3ce5d	0.09560845
254	0x3e3efa7f	0.18650244
255	0xbe2b239b	-0.16712801

features.module.4.bias f4 [32]
0	0x3cab3bb0	0.020902485
1	0x3d2560b7	0.040375438
2	0xbd96a3a0	-0.07355428
3	0xbd65d536	-0.056111537
4	0xbd9e223d	-0.07721374
5	0x3d19d3b3	0.037555408
6	0x3d7725b0	0.060338676
7	0xbd9e503e	-0.07730149
8	0x3cab59ef	0.020916907
9	0x3c85aa5c	0.016316585
10	0xbd30d778	-0.043174237
11	0x3c8e6551	0.017382296
12	0x3d7e1a64	0.062036887
13	0x3da19e74	0.07891551
14	0x3d0e8122	0.03479112
15	0xbc82b032	-0.015953157
16	0xbd3b8017	-0.045776453
17	0xbcfb057a	-0.03064226
18	0x3a2cbec1	0.0006589704
19	0xbbc19a17	-0.0059082615
20	0x3d7075c9	0.05870608
21	0xbd94e82a	-0.07270844
22	0x3beb53e9	0.0071816337
23	0xbcd19f5c	-0.025588684
24	0x3bdbe102	0.0067101726
25	0x3d9e73a6	0.07736902
26	0x3b1a44be	0.0023539509
27	0xbc64a249	-0.013954707
28	0xbcdf6274	-0.027268626
29	0xbda46e3d	-0.08028839
30	0xbd954797	-0.07289045
31	0x3d0f9623	0.03505529

features.module.5.weight f4 [32]
0	0x3f24a362	0.643118
1	0x3f51511d	0.81764394
2	0x3f388bf2	0.7208854
3	0x3f640364	0.89067674
4	0x3f7c9f0f	0.98680204
5	0x3f92037c	1.1407313
6	0x3f56cb9d	0.8390444
7	0x3f0eabe8	0.5573106
8	0x3f2121ea	0.62942374
9	0x3f6ba72b	0.92051953
10	0x3f30c166	0.690451
11	0x3f147321	0.5798817
12	0x3f2d18da	0.67616045
13	0x3eeb9768	0.4601395
14	0x3f0e0c0b	0.55487126
15	0x3f353f0a	0.70799315
16	0x3f3b31ec	0.7312305
17	0x3f0d0f5b	0.55101556
18	0x3f23d6c9	0.6399961
19	0x3f82235c	1.0167041
20	0x3f2501ae	0.6445569
21	0x3f816321	1.0108377
22	0x3f1e74ae	0.6189679
23	0x3f2b124d	0.668248
24	0x3ee0a772	0.4387775
25	0x3f4084cb	0.75202626
26	0x3eed4eec	0.46349275
27	0x3f031308	0.51200914
28	0x3f6b652c	0.9195125
29	0x3f9091b5	1.1294466
30	0x3f459846	0.77185476
31	0x3f8e3773	1.1110672

features.module.5.bias f4 [32]
0	0xbf54e954	-0.8316853
1	0xbf4064e6	-0.7515396
2	0xbec00802	-0.3750611
3	0xbf6fcd4c	-0.93672633
4	0xbf465eda	-0.7748848
5	0xc013f938	-2.312086
6	0xbfc2d27f	-1.5220488
7	0xbf125ad6	-0.57169855
8	0xbe95f33d	-0.2928714
9	0xbfff9aef	-1.9969157
10	0xbf2f5e0a	-0.6850287
11	0xbf50c4ae	-0.8155011
12	0xbf6a1efb	-0.9145352
13	0xbe75a2f6	-0.23987946
14	0xbf5231c9	-0.82107216
15	0xbf9dead5	-1.233729
16	0xbf28d839	-0.6595493
17	0xbef684c1	-0.48148158
18	0xbf83eb87	-1.0306252
19	0xbf36eed9	-0.714582
20	0xbed6f87a	-0.41986448
21	0xbf547098	-0.82984304
22	0xbeec55fc	-0.4615935
23	0xbf8c5738	-1.0964117
24	0xbecd6d67	-0.4012253
25	0xbf4f8198	-0.8105712
26	0xbed65ef6	-0.41869324
27	0xbf05a358	-0.5220237
28	0xbf5ec98c	-0.87026286
29	0xc0165453	-2.3488967
30	0xbf49bb6e	-0.7880162
31	0xc0125ecf	-2.2870367

features.module.5.running_mean f4 [32]
0	0xbf4440f3	-0.76661605
1	0xbecfce26	-0.40586966
2	0xbf333338	-0.7000003
3	0xbf1d85ec	-0.61532474
4	0xbf4b6356	-0.7944845
5	0xbfc83f61	-1.5644342
6	0xbfccc2ef	-1.5996989
7	0xbf341dfc	-0.7035825
8	0xbebe088e	-0.37115902
9	0xbfc84e31	-1.5648862
10	0xbfa83ec0	-1.314415
11	0xbf905e92	-1.127886
12	0xbf81a5e9	-1.0128757
13	0xbe2f1391	-0.17097308
14	0xbf54eca8	-0.8317361
15	0xbfb55a30	-1.4168148
16	0xbf88697f	-1.0657195
17	0xbf8bb802	-1.091553
18	0xbf905537	-1.1276006
19	0xbf5b96de	-0.8577708
20	0xbee5a9a8	-0.44856
21	0xbf1f4bcc	-0.6222503
22	0xbf1e314d	-0.6179398
23	0xbfbef17e	-1.4917448
24	0xbe42a4f1	-0.19008233
25	0xbf63899c	-0.8888185
26	0xbef6f46e	-0.4823336
27	0xbe423243	-0.18964486
28	0xbf12448a	-0.5713583
29	0xc00129c1	-2.0181735
30	0xbe7d3181	-0.24725915
31	0xbfda3bbc	-1.704948

features.module.5.running_var f4 [32]
0	0x3ecae434	0.3962723
1	0x3f02dc2f	0.51117224
2	0x3e9c39f5	0.30512968
3	0x3f036eb6	0.51340806
4	0x3f301ed9	0.6879707
5	0x3ef2ab96	0.47396535
6	0x3f55d09a	0.83521426
7	0x3eaefaee	0.3417582
8	0x3f17fd2e	0.59370697
9	0x3ef95a40	0.48701668
10	0x3f3a2830	0.7271757
11	0x3ec9052c	0.39261758
12	0x3f21ae03	0.63156146
13	0x3edc04c7	0.42972395
14	0x3ea0e660	0.31425762
15	0x3f1f2b00	0.6217499
16	0x3f631865	0.887091
17	0x3f4fc824	0.81164765
18	0x3eec8640	0.46196175
19	0x3f9b30a4	1.2124219
20	0x3f49e443	0.78863925
21	0x3f8415be	1.0319135
22	0x3f425aa1	0.7591954
23	0x3f262471	0.64899355
24	0x3efe729e	0.4969682
25	0x3f01a05a	0.506353
26	0x3ed2fda6	0.41209143
27	0x3ec9e558	0.39432788
28	0x3f525852	0.82166016
29	0x3f3ce966	0.7379364
30	0x3ead235b	0.33816037
31	0x3f3c56b8	0.7356982

features.module.8.weight f4 [64, 32, 3, 3]
0	0xbcd17d51	-0.02557245
1	0xbcd3a1ad	-0.025833929
2	0xbcbba1ba	-0.022904266
3	0xbc5681dd	-0.013092485
4	0xbc2cd450	-0.010548666
5	0xbc643f4e	-0.013931109
6	0xbc5c80bc	-0.013458427
7	0xbc7b5bdc	-0.015341725
8	0xbcdb2100	-0.026749134
9	0x3c675624	0.014119659
10	0x3b24903f	0.0025110391
11	0xbc0c79d3	-0.008573967
12	0x3c7db780	0.015485644
13	0xba2df673	-0.000663615
14	0xbc9edc30	-0.019392103
15	0x3cc694cf	0.02424088
16	0xbc395058	-0.011310659
17	0xbd4eccf4	-0.050488427
18	0xbc354b08	-0.011065252
19	0xbcd806e3	-0.026370471
20	0xbc113a9c	-0.008864071
21	0xbd09d4ef	-0.033650335
22	0xbd3280de	-0.04357993
23	0xbc94e44c	-0.018175267
24	0x3a9c1783	0.0011908863
25	0xbc87d878	-0.016582713
26	0x3b82f327	0.003996271
27	0xbd376803	-0.044776928
28	0xbd3ad95b	-0.045617443
29	0xbd743353	-0.05961926
30	0xbce2ebc4	-0.027700312
31	0xbc874dd6	-0.016516607
32	0xbcd08cbc	-0.025457732
33	0xbd1e63c4	-0.038669363
34	0xbceb1096	-0.028694432
35	0xbd36d430	-0.04463595
36	0xbc04df36	-0.008109858
37	0xbc1eef00	-0.009700537
38	0xbcced27b	-0.02524685
39	0xbcc56488	-0.024095789
40	0xbcf4830e	-0.029847648
41	0xbd68bbdb	-0.056819778
42	0xbca3365c	-0.019923382
43	0xbcc12173	-0.02357552
44	0xbd90a13c	-0.07062003
45	0xbd235e9a	-0.03988514
46	0xbd0829bf	-0.033242937
47	0xbd23c6ed	-0.039984632
48	0xbd0025df	-0.031286117
49	0xbd2192d1	-0.039446656
50	0xbd627873	-0.05529065
51	0xbd1b40c2	-0.037903555
52	0xbd400d0c	-0.046887442
53	0xbd6e809d	-0.058228124
54	0xbd04bbaf	-0.03240555
55	0xbc3ba478	-0.011452787
56	0xbbf37f6b	-0.007430961
57	0xbc2f34a7	-0.010693706
58	0x3c93243e	0.017961618
59	0x3c525de9	0.012839773
60	0xbaf7d8d7	-0.0018909228
61	0x3cf7c7b8	0.0302466
62	0x3cdb3944	0.026760705
63	0xbce2e764	-0.027698226
64	0xbcdce282	-0.026963476
65	0xbd5bf767	-0.053702738
66	0xbcf6eded	-0.030142749
67	0xbcad7da9	-0.021178083
68	0xbd1211c9	-0.035661492
69	0xbd59fb1c	-0.053217992
70	0xbd2e55a1	-0.04256213
71	0xbd60a4c8	-0.054844648
72	0xbcfeb8da	-0.031094003
73	0xbd67c72b	-0.056586426
74	0xbd3c4fb7	-0.04597446
75	0xbc608e1c	-0.0137057565
76	0xbd08c1e8	-0.03338805
77	0xbcbc73a4	-0.02300436
78	0xbcbfad66	-0.023398113
79	0xbd1f0166	-0.038819693
80	0xbca50255	-0.020142714
81	0x3cdb76d6	0.026790064
82	0x3d5ce0e3	0.053925406
83	0x3d951104	0.07278636
84	0x3b99d85a	0.0046949806
85	0x3c484d6b	0.012225489
86	0x3d07dfd1	0.033172432
87	0x3bc259fd	0.0059311376
88	0x3b1ecf2c	0.002423237
89	0x3c5d4f30	0.013507649
90	0xbd1057cf	-0.03523999
91	0xbcfa4431	-0.030550094
92	0xbd25843d	-0.040409315
93	0xbd0fa77e	-0.035071842
94	0xbcdeb40f	-0.027185468
95	0xbd14c7c0	-0.03632331
96	0xbd37e118	-0.0448924
97	0xbd00ce57	-0.03144678
98	0xbcbd60cf	-0.023117451
99	0xbd8171be	-0.06320523
100	0xbcd31d56	-0.025770824
101	0xbceada74	-0.02866862
102	0xbd05b1a0	-0.0326401
103	0xbc7270d8	-0.014797412
104	0xbcb28d96	-0.021796029
105	0xbd095fa2	-0.03353847
106	0xbcc04b88	-0.023473516
107	0xbcccc478	-0.024996027
108	0x3da21195	0.0791351
109	0x3d1ae3e5	0.037814993
110	0x3d8c34ef	0.06846034
111	0x3d6cbdc6	0.05779817
112	0x3cf10dfb	0.029425612
113	0x3d6718f7	0.056420293
114	0x3dad0f78	0.08450216
115	0x3d5abb59	0.053401325
116	0x3dac8e02	0.08425523
117	0x3cf78183	0.030213123
118	0x3cd386c5	0.025821099
119	0x3cc51001	0.024055483
120	0x3cb7b2ed	0.022424186
121	0x3c369710	0.011144415
122	0x3c7e4915	0.015520354
123	0x3ce99de1	0.028517665
124	0x3c642bfb	0.013926501
125	0x3cbf98f2	0.02338836
126	0x3bddbafa	0.006766674
127	0x3ac02bca	0.0014661488
128	0x3b651c99	0.0034959672
129	0xba07c128	-0.0005178624
130	0xbc17541a	-0.00923636
131	0xbc0cae1f	-0.008586436
132	0xbc17fe8d	-0.009276998
133	0xbc5fe33a	-0.013665015
134	0xbc372b36	-0.011179736
135	0xbcb7bdf6	-0.022429448
136	0xbc85e540	-0.016344666
137	0xbc0fa55e	-0.008767454
138	0xbcc3f570	-0.023920745
139	0xbca41d00	-0.02003336
140	0xbc5c706a	-0.013454536
141	0xbcd05039	-0.025428878
142	0xbccb7862	-0.024837676
143	0xbcf99186	-0.030464899
144	0x3d65539f	0.05598795
145	0x3d376314	0.044772223
146	0x3da42924	0.080156595
147	0x3d24c963	0.04023112
148	0x3cb8051b	0.022463372
149	0x3d644eb8	0.055739135
150	0x3d293d4c	0.041318223
151	0x3d053a04	0.03252603
152	0x3d83e979	0.06441016
153	0xbc1e6d49	-0.00966961
154	0xbbf5c9a9	-0.0075008464
155	0xbbca95d5	-0.006182412
156	0xbc5eae52	-0.013591366
157	0xbc5ace65	-0.013354872
158	0xbc3cfed7	-0.011535368
159	0xbcdf6bd6	-0.0272731
160	0xbce450ea	-0.027870614
161	0xbcde9f1b	-0.027175477
162	0x3ac82583	0.0015269968
163	0x3c44e413	0.012017268
164	0x3c5f4fd4	0.013629872
165	0x3b9fc8dc	0.004876239
166	0x3c3a4128	0.0113680735
167	0x3bd45797	0.006480168
168	0xbbcc69a9	-0.0062381816
169	0x3b6946c5	0.003559516
170	0x3a74ecb9	0.0009343136
171	0x3dd4a5ed	0.1038321
172	0x3d55f1cc	0.05223255
173	0x3dac9eb6	0.08428709
174	0x3d7b0354	0.06128247
175	0x3c971dcd	0.018446827
176	0x3d39d80d	0.045372058
177	0x3dc9766a	0.09837039
178	0x3d5153bb	0.051105242
179	0x3dbeb9b7	0.09312766
180	0xbbd07637	-0.0063617486
181	0x3b7c8c27	0.0038535686
182	0x3aa68848	0.001270541
183	0xbc107628	-0.008817233
184	0xbac3f947	-0.001495161
185	0xbbe7cfd2	-0.0070743347
186	0xbcbe40b1	-0.023224207
187	0xbcc092dd	-0.02350753
188	0xbcccca39	-0.024998771
189	0x3ce78689	0.028262394
190	0xba92a5ea	-0.0011188362
191	0x3cb513f3	0.02210424
192	0x3d4a8e48	0.049452096
193	0x3c9687e6	0.018375348
194	0x3d2992d7	0.041399803
195	0x3dc207cc	0.094741434
196	0x3d6587cf	0.05603772
197	0x3db80296	0.08984868
198	0xbc3e9c2c	-0.011633914
199	0xbbfdd46f	-0.0077462713
200	0xbc503eff	-0.012710332
201	0xbc1ad6b8	-0.009450607
202	0xbc0a4410	-0.008439079
203	0xbba8a5a2	-0.005146698
204	0xbc7c87a0	-0.015413195
205	0xbc385272	-0.011250125
206	0xbc3570cf	-0.011074259
207	0xbd544657	-0.051824894
208	0xbce7b682	-0.028285269
209	0xbcabeb95	-0.020986358
210	0xbd2ce04a	-0.042206086
211	0xbc8ad0ee	-0.016945329
212	0xbc93ef11	-0.018058332
213	0xbd46648e	-0.04843574
214	0xbcd8eb0e	-0.02647927
215	0xbcbb5389	-0.022866981
216	0xbc7f32b5	-0.015576054
217	0xbc89a024	-0.016799994
218	0xbcd692f0	-0.026193112
219	0xbc44b6e6	-0.012006497
220	0xbc8442a7	-0.016145064
221	0xbcd46bb5	-0.025930265
222	0xbc781d5a	-0.015143717
223	0xbc558b46	-0.013033694
224	0xbce92e45	-0.028464446
225	0x3ddb2f4a	0.10702379
226	0x3da665cb	0.08124884
227	0x3decf53c	0.11570212
228	0x3dbfada4	0.09359291
229	0x3d7c1473	0.06154294
230	0x3db6788d	0.08909712
231	0x3dea003f	0.11425828
232	0x3d92ba1a	0.07164402
233	0x3dc176e7	0.09446507
234	0xbb8e42ac	-0.004341444
235	0xbcaa46ab	-0.02078565
236	0xbd519c87	-0.051174667
237	0x38f98e38	0.000118997355
238	0xbbdc1e7b	-0.0067175007
239	0xbcc267b7	-0.023731096
240	0x3c299006	0.010349279
241	0x3c20a737	0.009805492
242	0xbbd58530	-0.0065161213
243	0x3dbd8411	0.09253705
244	0x3d6f2728	0.05838695
245	0x3db4ebf7	0.08834069
246	0x3d30d0ae	0.043167762
247	0x3cbb4806	0.022861492
248	0x3d46d1da	0.048539974
249	0x3d21d9bc	0.03951429
250	0x3c78a256	0.015175423
251	0x3d5f4b07	0.05451491
252	0x3de48d64	0.111597806
253	0x3d3c1e9a	0.04592762
254	0x3dc8345e	0.09775613
255	0x3dbce81a	0.09223957

features.module.8.bias f4 [64]
0	0xbcd5b75f	-0.026088415
1	0x3c2b95c7	0.010472721
2	0x3c34a5ad	0.011025828
3	0x3d657467	0.056019213
4	0x3d5531aa	0.052049316
5	0xbd406c66	-0.046978377
6	0x3ce78f9c	0.02826672
7	0xbd3ad04a	-0.045608796
8	0xbce3e34d	-0.027818346
9	0x3cb7edf8	0.02245234
10	0xbd1f6fef	-0.038925108
11	0x3d47dc92	0.048794337
12	0x3cb07cd9	0.021543907
13	0x3b9f7739	0.0048665074
14	0x3d0291a4	0.031877175
15	0xbd468c6f	-0.04847377
16	0x3c19d86e	0.00938998
17	0x3cadb8a3	0.021206206
18	0xbcd66918	-0.02617316
19	0xbc90ea9b	-0.017689994
20	0x3cbd184b	0.023082873
21	0x3d456fa8	0.048202187
22	0xbcb5cd2a	-0.022192556
23	0x3d0cbd48	0.0343602
24	0x3d02a88e	0.031899028
25	0xbd08689b	-0.033302885
26	0xbd394488	-0.045231372
27	0xbbdbb42e	-0.0067048287
28	0x3d10a2e8	0.03531161
29	0xbd4251a7	-0.04744115
30	0xbd21f603	-0.039541256
31	0x3d29db24	0.041468754
32	0xbd05ab71	-0.032634202
33	0xbd266c1d	-0.04063045
34	0xbb1edde7	-0.002424115
35	0x3d641628	0.055685192
36	0x3d19be15	0.037534792
37	0x3cf08067	0.029358102
38	0x3bee8e13	0.00728012
39	0xbce98f78	-0.028510794
40	0xbd359985	-0.04433586
41	0x3cf7a903	0.030231958
42	0x3c8a291b	0.016865304
43	0x3c72a292	0.014809268
44	0xbcac4a84	-0.021031626
45	0xbd6368e0	-0.05551994
46	0x3bff07f5	0.007782931
47	0xbc208be2	-0.009798976
48	0xbb8d0307	-0.0043033394
49	0x3bb107c4	0.005402537
50	0xbd083b75	-0.033259828
51	0xbd112ef3	-0.035445165
52	0xbc873722	-0.016505782
53	0x3cb4ecd3	0.022085583
54	0xbd11ef28	-0.035628468
55	0x3d593f5c	0.05303894
56	0xbd656023	-0.055999886
57	0xbd10a901	-0.035317425
58	0x3c859e87	0.016310943
59	0xbd62b812	-0.055351324
60	0xbd01641c	-0.031589612
61	0x3cf08e32	0.029364679
62	0xbd1df828	-0.03856674
63	0x3c954a9e	0.018224057

features.module.9.weight f4 [64]
0	0x408e9ac4	4.4563923
1	0x40b981d4	5.797098
2	0x40df9315	6.9867043
3	0x409f3a41	4.975861
4	0x40a43224	5.1311207
5	0x40a18ba1	5.0482945
6	0x40c3cf6d	6.1190705
7	0x40ba97c5	5.8310266
8	0x40a96570	5.2936325
9	0x4096a19c	4.7072277
10	0x40b96a63	5.7942367
11	0x409d9ec1	4.925629
12	0x409fb418	4.990734
13	0x40bda2b5	5.9261117
14	0x408e412c	4.4454556
15	0x40d1cada	6.556012
16	0x40d1dcb4	6.5581913
17	0x40a9543f	5.291534
18	0x40aaaefe	5.3338614
19	0x406ef73a	3.7338395
20	0x409d5a78	4.9172935
21	0x40c5f728	6.1864204
22	0x40a6cfce	5.212867
23	0x407c2488	3.9397297
24	0x40a4f4cb	5.154882
25	0x4077a649	3.8695242
26	0x40a9cb6e	5.3060827
27	0x40a708fa	5.219846
28	0x40b3d097	5.6192126
29	0x40a2c04f	5.085975
30	0x40c5fcf6	6.187129
31	0x4097f669	4.7488294
32	0x40bc7f17	5.890514
33	0x40b5552f	5.6666484
34	0x40a68db4	5.2047977
35	0x40c01d61	6.0035863
36	0x40a5f3f2	5.1860285
37	0x40cdf5ee	6.4362707
38	0x4093dcc5	4.6206994
39	0x40acd8f2	5.4014826
40	0x40b0f130	5.529442
41	0x40914a13	4.5402923
42	0x40dc0306	6.875369
43	0x408f984a	4.48734
44	0x4095d82c	4.682638
45	0x40a646f1	5.19616
46	0x40be950b	5.9556937
47	0x40b374ad	5.6079926
48	0x40a73e6c	5.22637
49	0x409f5090	4.9785843
50	0x40b6e1e4	5.7150745
51	0x40c516cf	6.1590343
52	0x40a3880f	5.1103587
53	0x40a3bd07	5.1168246
54	0x408f42eb	4.4769187
55	0x40a08196	5.0158186
56	0x40a0be64	5.023241
57	0x40a4c0bc	5.148527
58	0x40bbf0ae	5.87313
59	0x40aafdcd	5.3434815
60	0x40a3450c	5.1021786
61	0x409d55aa	4.916707
62	0x40b686a5	5.703936
63	0x40a1697d	5.044127

features.module.9.bias f4 [64]
0	0x3f7f3b71	0.99700075
1	0x3f574a75	0.8409799
2	0x3fc2d265	1.5220457
3	0x3fb9b00d	1.4506851
4	0x3fdd9fcf	1.7314395
5	0x3fd074a5	1.6285597
6	0x3fe4fca6	1.7889602
7	0x3f80456c	1.0021186
8	0x3fb486e0	1.410366
9	0x3f8dfab9	1.109214
10	0x3fcfd0c8	1.623559
11	0x3f8b5b31	1.0887204
12	0x3f88f5d2	1.0700018
13	0x3fd1212a	1.6338246
14	0x3f912317	1.1338834
15	0x3fde0d25	1.7347761
16	0x401d7982	2.4605412
17	0x3ffb82f1	1.9649335
18	0x4051eaf4	3.2799654
19	0x3ff3f0c5	1.9057852
20	0x3f550d34	0.8322327
21	0x3fb55bff	1.41687
22	0x3f315159	0.6926475
23	0x3f649e26	0.89303815
24	0x3f8df529	1.1090442
25	0x4004fcc5	2.0779278
26	0x3f96b447	1.1773766
27	0x3f926408	1.1436777
28	0x3f982443	1.1886066
29	0x3f8de750	1.1086216
30	0x3fcacaba	1.5843117
31	0x3f8e4d00	1.1117249
32	0x3f3f877f	0.74816126
33	0x3fe3d6c5	1.7799917
34	0x3feba6f9	1.8410331
35	0x3fa1e5c8	1.2648249
36	0x3fbe563f	1.487007
37	0x3fd636f2	1.6735518
38	0x3f93e897	1.1555356
39	0x3fa6bb26	1.3025863
40	0x3fe09c02	1.754761
41	0x402a1310	2.6574135
42	0x3fa8500b	1.3149427
43	0x3f801e27	1.0009202
44	0x3f83e6b6	1.0304782
45	0x3f8e7192	1.1128409
46	0x3fac71a5	1.3472182
47	0x3f7b2cdc	0.98115325
48	0x3fe21893	1.766375
49	0x3f89ca6d	1.07649
50	0x3fddf8b2	1.7341521
51	0x3fc0e129	1.5068713
52	0x400ca548	2.197588
53	0x3f9a757a	1.2067101
54	0x3fa8de93	1.3192924
55	0x40470d5a	3.11019
56	0x3f82c18e	1.0215318
57	0x3f89f3ef	1.0777568
58	0x3ff4a1f1	1.911192
59	0x3fb7a6c6	1.434777
60	0x3f8f57f1	1.1198713
61	0x3f93e16c	1.1553168
62	0x3fa0b9de	1.2556722
63	0x3f8df4dc	1.109035

features.module.9.running_mean f4 [64]
0	0xbd1fc331	-0.03900451
1	0x3c8b5686	0.017009031
2	0x3c72f154	0.014828045
3	0x3d9d5b11	0.07683385
4	0x3d50ad8e	0.050946765
5	0xbd16ef8a	-0.036849536
6	0x3cd7f34e	0.026361134
7	0xbd09000c	-0.03344731
8	0xbc45581d	-0.012044934
9	0x3d0e51db	0.034746032
10	0xbc2d8d19	-0.010592722
11	0x3d2917c5	0.041282434
12	0x3cd3c930	0.02585277
13	0x3ce4f897	0.027950568
14	0x3c902661	0.017596425
15	0xbd26bb62	-0.040706046
16	0x3c82a66f	0.015948502
17	0x3cb2478e	0.021762636
18	0xbae07670	-0.0017125141
19	0xbaa903e1	-0.0012894833
20	0x3cefda54	0.029278912
21	0x3d708e48	0.05872944
22	0xbc5e2bd4	-0.013560254
23	0x3d41ffca	0.04736308
24	0x3d2ecd21	0.042676095
25	0xbcc34405	-0.023836145
26	0xbceee52a	-0.029162008
27	0x3c345b8f	0.011008157
28	0x3d5d12db	0.05397306
29	0xbd18e921	-0.037331704
30	0xbc7ddea4	-0.015494976
31	0x3cf3adf2	0.02974603
32	0xbccbd3a2	-0.024881188
33	0xbd196c92	-0.037457056
34	0xbad05e57	-0.0015897256
35	0x3d4a64d0	0.04941255
36	0x3d42b783	0.04753829
37	0x3d54405a	0.051819183
38	0x3c4c4a33	0.012468862
39	0xbcd4f9e1	-0.025998058
40	0xbcd48382	-0.025941614
41	0x3d784f60	0.060622573
42	0x3c96cacb	0.018407246
43	0x3cfa6157	0.030563993
44	0xbb220fb6	-0.0024728603
45	0xbd0e19df	-0.03469264
46	0x3c13d38e	0.009022607
47	0xbc175a44	-0.00923783
48	0x3c5243b8	0.012833528
49	0xbbfebe55	-0.007774154
50	0xbd441e3c	-0.047880396
51	0xbd1d3e88	-0.038389713
52	0xbb0a376e	-0.0021090168
53	0x3bbb4821	0.0057153855
54	0xbcf238e4	-0.029568143
55	0x3d9fa3bd	0.077949025
56	0xbd7ade7d	-0.061247338
57	0xbd033999	-0.03203735
58	0x3d0f00ce	0.034912877
59	0xbd218874	-0.039436772
60	0xbd2ea3ee	-0.042636804
61	0x3d3d5e74	0.046232656
62	0xbd6d6c9d	-0.05796491
63	0x3ca33387	0.019922031

features.module.9.running_var f4 [64]
0	0x3c079445	0.008275096
1	0x3b8f2cfe	0.004369377
2	0x3c45c359	0.0120705
3	0x3c40c3b9	0.011765414
4	0x3c58303e	0.013195096
5	0x3c45e7d4	0.012079198
6	0x3c8d85f3	0.017275786
7	0x3b9067c1	0.0044068997
8	0x3b745cbe	0.0037286724
9	0x3b81d968	0.0039626844
10	0x3c196234	0.009361792
11	0x3bf6226a	0.0075114267
12	0x3b5c451e	0.0033610533
13	0x3c51f01f	0.012813597
14	0x3c01e3ce	0.007927848
15	0x3c522342	0.012825789
16	0x3c8c86e1	0.017154159
17	0x3c4d4d97	0.012530706
18	0x3c1f51e7	0.009724117
19	0x3b51b976	0.0032001412
20	0x3b7d7733	0.0038675785
21	0x3ba9f4a9	0.0051866365
22	0x3b6c26e4	0.0036033923
23	0x3bf6ab81	0.007527769
24	0x3b75ecf4	0.0037525268
25	0x3bb5c6e4	0.0055473913
26	0x3c285282	0.010273578
27	0x3c303baa	0.0107564125
28	0x3c36d063	0.011158082
29	0x3b71f11c	0.0036917394
30	0x3c5ec24d	0.01359613
31	0x3be6bf14	0.0070418213
32	0x3b8f8faf	0.004381142
33	0x3c58ba62	0.013228031
34	0x3c4b3513	0.012402791
35	0x3bf94bae	0.0076078987
36	0x3bc26015	0.005931864
37	0x3c00ddef	0.007865413
38	0x3c0277a5	0.007963096
39	0x3c02980f	0.007970824
40	0x3c8054d0	0.015665442
41	0x3bf5b5e2	0.0074984888
42	0x3c387d83	0.011260393
43	0x3c112de0	0.008861035
44	0x3c1153c3	0.008870068
45	0x3c18cd8a	0.009326348
46	0x3c18a396	0.009316346
47	0x3bf845ff	0.0075767036
48	0x3bebbc3a	0.007194069
49	0x3c00e379	0.007866734
50	0x3bf4bb70	0.0074686334
51	0x3c18458d	0.009293926
52	0x3b6905f4	0.0035556527
53	0x3c1a6848	0.009424277
54	0x3c207193	0.009792703
55	0x3c0e4fb8	0.008685999
56	0x3bd05a0f	0.006358392
57	0x3bf80147	0.0075685116
58	0x3c8cc2dd	0.017182762
59	0x3c2f4b2a	0.010699073
60	0x3c0189fc	0.007906433
61	0x3c130642	0.00897366
62	0x3c340542	0.010987582
63	0x3b97815e	0.004623576

top_layer.weight f4 [10, 64]
0	0xbd3f7ee4	-0.04675187
1	0x3eeea631	0.4661117
2	0xbd9a180e	-0.07524119
3	0xbb8c70b2	-0.0042858953
4	0xbd55d350	-0.052203476
5	0xbd10545b	-0.035236698
6	0xbd9dd1ff	-0.07706069
7	0x3efa793e	0.48920625
8	0xbd85b5ab	-0.06528791
9	0x3e83a2f3	0.25710258
10	0x3e980c5e	0.29696935
11	0xbd7726c9	-0.060339723
12	0x3eaa5c41	0.3327351
13	0x3cda6219	0.026658105
14	0xbd477945	-0.048699636
15	0xbd8b41b3	-0.067996405
16	0xbca44fb2	-0.020057533
17	0xbc733540	-0.014844239
18	0xb92662a0	-0.00015867734
19	0xbc3960a5	-0.011314546
20	0xbd96a88c	-0.073563665
21	0x3f031a8b	0.51212376
22	0xbc9daf7d	-0.019248718
23	0x3c57137c	0.013127204
24	0xbd9f1f2c	-0.077696174
25	0xbb94fda6	-0.004546839
26	0xbd725c64	-0.05917014
27	0xbd2e2673	-0.042517137
28	0xbd46136b	-0.048358362
29	0x3ed973b1	0.42471078
30	0xbd3e0ef6	-0.046400987
31	0xbd57150e	-0.052510314
32	0xbd01fa57	-0.031732883
33	0xbdc2fad4	-0.09520498
34	0xbcc13870	-0.023586482
35	0xbd6ee0c3	-0.05831982
36	0xbd4fb2f0	-0.050707757
37	0x3e9c9a77	0.30586597
38	0xbc7ce8ae	-0.015436335
39	0xbd2ee66b	-0.042700212
40	0xbc516154	-0.0127795525
41	0x3bb4ffca	0.0055236565
42	0xbda30458	-0.07959813
43	0xbd2813e5	-0.041034598
44	0x3e06cd91	0.13164355
45	0x3da4193b	0.08012625
46	0xbd820f05	-0.06350521
47	0xbd82a2e4	-0.06378725
48	0xbd699d74	-0.057034925
49	0xbd7051d1	-0.058671776
50	0xbd988eee	-0.07449137
51	0xbdc2968a	-0.09501369
52	0xbcb3796d	-0.021908486
53	0xbd92dbe2	-0.071708456
54	0xbd9e416f	-0.07727324
55	0x3cb558c2	0.02213705
56	0xbdea0c1d	-0.11428092
57	0xbd7d170c	-0.061789557
58	0xbd08635a	-0.033297874
59	0x3cf8e3ce	0.030382063
60	0xbdb03731	-0.08604277
61	0x3d705356	0.058673225
62	0xbdf2542a	-0.11832459
63	0x3e99551e	0.29947752
64	0xbb9425d0	-0.004521109
65	0xbd143042	-0.036178835
66	0xbda2803a	-0.079346135
67	0xbcbf4b92	-0.023351464
68	0xbd6e1642	-0.058126695
69	0xbde00a04	-0.1093941
70	0xbcf60986	-0.030033838
71	0xbd0fe396	-0.035129152
72	0xbd446adc	-0.04795347
73	0x3e7c1a34	0.2461937
74	0xbdc09131	-0.09402693
75	0xbc58e534	-0.01323824
76	0xb9fb26fc	-0.00047903496
77	0xbddd424b	-0.1080366
78	0x3c0cd7da	0.008596385
79	0x3d93fc80	0.07225895
80	0xbd862c2f	-0.06551396
81	0xbd8e090f	-0.069353215
82	0xbd7ccd53	-0.06171925
83	0xbd256137	-0.040375914
84	0xbc501e24	-0.012702499
85	0xbd5d5cab	-0.054043453
86	0x3d36adfe	0.044599526
87	0xbd010955	-0.03150304
88	0xbd772811	-0.060340945
89	0xbd78a00a	-0.0606995
90	0x3edc23a5	0.42995945
91	0x3ed7c512	0.4214254
92	0x3eeb8439	0.45999315
93	0xbd57b666	-0.052664183
94	0x3f02d1c3	0.5110132
95	0xbc9ddfcb	-0.019271752
96	0xbd0e67ec	-0.034767076
97	0xbd8a44a7	-0.06751376
98	0xbd717e23	-0.058958184
99	0xbe1316ce	-0.14364168
100	0xbdbda157	-0.09259289
101	0xbd71b721	-0.059012536
102	0xbcf80fb1	-0.03028092
103	0xbd8ff859	-0.070297904
104	0xbdd7f12c	-0.10544047
105	0xbd533b79	-0.05157039
106	0xbd7bbc94	-0.06145914
107	0x3ebfa641	0.3743153
108	0xbdbc2b62	-0.09187962
109	0x3ed75f7c	0.42065036
110	0xbd76e9de	-0.060281627
111	0xbd590478	-0.052982777
112	0xbd3aebed	-0.045635153
113	0xbcd522d9	-0.026017593
114	0xbe3ffcf8	-0.18748844
115	0xbcfab1b8	-0.030602321
116	0xbd28dcb5	-0.041226108
117	0xbc3e8272	-0.01162778
118	0x3da4dbe3	0.080497526
119	0xbd6d4aef	-0.05793279
120	0xbd287b1c	-0.04113303
121	0x3e6167cc	0.22012252
122	0xbdec7566	-0.115458295
123	0xbd883364	-0.06650427
124	0xbcd6aeae	-0.02620634
125	0xbd8799b8	-0.066211164
126	0xbcf14052	-0.029449616
127	0xbaf55063	-0.0018715974
128	0x3d14c19c	0.036317453
129	0x3d2bbf8b	0.041930716
130	0x3f1c4a06	0.6105045
131	0xbb61b379	-0.003443925
132	0x3cf9b270	0.030480593
133	0xbd828ec9	-0.0637489
134	0xbdae09b9	-0.08497948
135	0x3d47f7ad	0.048820186
136	0xbcd0836e	-0.025453296
137	0xbd0ffd7b	-0.035153847
138	0x3c96e826	0.018421244
139	0xbd8a6554	-0.06757608
140	0x3df3f4e2	0.11911942
141	0x3b92bf62	0.004478381
142	0xbd6eaeb1	-0.058272067
143	0xbd2d5881	-0.042320732
144	0xbd8ab665	-0.0677307
145	0xbd7cd017	-0.061721887
146	0xbe322ee1	-0.17400695
147	0xbdd6893a	-0.10475393
148	0xbcb61b05	-0.02222968
149	0x3c1ecaff	0.009691953
150	0xbca7d855	-0.020488897
151	0xbce4f15c	-0.02794712
152	0xbcb6fe5b	-0.022338083
153	0x3dac80fe	0.08423041
154	0xbd531ea7	-0.051542904
155	0xbd01daa6	-0.03170266
156	0xbd567d2c	-0.052365467
157	0xbc5fcddd	-0.0136599215
158	0xbd7aa032	-0.06118793
159	0xbda08166	-0.07837181
160	0xbca4498e	-0.020054605
161	0x3eb42b0e	0.35189098
162	0xbcc7e5ff	-0.024401663
163	0xbc404462	-0.011735054
164	0xbdc3a58a	-0.095530584
165	0xbb9e254d	-0.004826224
166	0xbd2ded40	-0.042462587
167	0x3ef5294a	0.47883064
168	0xbd6405c9	-0.05566958
169	0xbe2a25b2	-0.16615942
170	0x3d22f636	0.039785586
171	0xbd97e268	-0.074162304
172	0x3cd0deb1	0.025496813
173	0xbd3df31f	-0.046374436
174	0x3f0550e7	0.5207657
175	0x3db94605	0.09046558
176	0xbd92d4c0	-0.07169485
177	0xbd8e36e4	-0.06944063
178	0xbda1ce3f	-0.079006664
179	0x3f08dc02	0.53460705
180	0xbda573fc	-0.08078763
181	0xbc3ea460	-0.01163587
182	0xbd8633a5	-0.06552819
183	0xbe20954a	-0.1568195
184	0xbd8fe5bc	-0.0702624
185	0xbdb4ad94	-0.0882217
186	0xbda207a8	-0.079116166
187	0x3c0f38c4	0.008741561
188	0xbd8a4fcc	-0.06753501
189	0x3cb43ee6	0.022002649
190	0x3d5bdab9	0.053675387
191	0xbcc873d8	-0.024469301
192	0x3e0e9654	0.13924533
193	0x3d2d4de2	0.042310603
194	0xbd75cb8f	-0.06000858
195	0xbe1197eb	-0.14218108
196	0xbdeb1776	-0.11479084
197	0x3d8d03e8	0.06885511
198	0x3e4f9185	0.20270355
199	0xbd7589e8	-0.05994597
200	0xbd96cf24	-0.07363728
201	0xbd140dd6	-0.036146007
202	0xbe107d1c	-0.14110225
203	0x3edcf32d	0.43154278
204	0x3d908792	0.07057108
205	0xbe3b4147	-0.1828662
206	0x3e1eae5f	0.15496205
207	0x3eef535f	0.46743295
208	0xbe14c3d0	-0.14527822
209	0xbdebf24f	-0.11520826
210	0x3d456b98	0.048198313
211	0x3c9668e7	0.018360568
212	0x3e5e39db	0.21701758
213	0xbcca01a0	-0.024658978
214	0xbdb170cf	-0.08664095
215	0xbdd6b95a	-0.10484572
216	0x3c7c89e7	0.015413738
217	0x3cf9098b	0.030400058
218	0xbd40d284	-0.047075763
219	0xbda6e351	-0.08148826
220	0xbdcab5b6	-0.0989794
221	0x3cf35d32	0.029707525
222	0xbdd1a60f	-0.10236751
223	0x3ebcc8a3	0.36871824
224	0xbd7441ec	-0.05963318
225	0xbdfcdcfe	-0.123468384
226	0xbe0bd44e	-0.13655207
227	0xbd79750b	-0.060902636
228	0xbd002482	-0.031284817
229	0xbe008ec4	-0.12554461
230	0xbd586771	-0.052833024
231	0x3c47b640	0.012189448
232	0x3a6b5300	0.00089769065
233	0x3d1cdb3c	0.038295016
234	0xbdc83be2	-0.09777047
235	0xbd1ca0a4	-0.038239136
236	0xbe25bf07	-0.16186152
237	0xbd057dd8	-0.032590717
238	0xbc2371ad	-0.009975833
239	0xbd7aee3e	-0.06126236
240	0xbdd683fd	-0.104743935
241	0x3ebae84b	0.3650535
242	0xbd906cda	-0.07052012
243	0x3c6206b8	0.013795547
244	0x3c47bfde	0.012191741
245	0x3e2271a7	0.15863667
246	0x3e40b0fb	0.18817513
247	0x3cfed153	0.031105673
248	0x3ec9b5b6	0.39396447
249	0xbdb1b9d8	-0.08678025
250	0xbca28ade	-0.019841608
251	0xbe1ba2db	-0.15198843
252	0x3ed3029a	0.41212922
253	0xbe2aa2ce	-0.16663668
254	0x3e767e62	0.24071649
255	0x3d4f0fc7	0.050552156

top_layer.bias f4 [10]
0	0xbb3796c5	-0.002801345
1	0xbbddedbb	-0.0067727244
2	0xbca01566	-0.019541454
3	0x3c2cdf8c	0.010551345
4	0xbbc0f85c	-0.0058889817
5	0x3cf2259f	0.029558955
6	0x3c956d97	0.018240733
7	0xbb52920e	-0.0032130512
8	0xbb8f4afa	-0.0043729516
9	0xbc811c2d	-0.015760506

momentum_buffer f4 [16, 1, 3, 3]
0	0x3cb4fd33	0.022093391
1	0x3dea6f9b	0.11447068
2	0x3dcd8bab	0.10036405
3	0x3e01103c	0.12603849
4	0x3e41211c	0.18860286
5	0x3e11688e	0.1420004
6	0x3ddf0c5c	0.10891029
7	0x3e54cc4c	0.20781058
8	0x3e6a4e0c	0.22881335
9	0xbd1450d6	-0.036209904
10	0xbcbebb4a	-0.023282666
11	0xbc06ea36	-0.008234551
12	0xbd928678	-0.07154554
13	0xbd84c931	-0.06483687
14	0xbd21936e	-0.03944724
15	0xbdbce7e4	-0.09223917
16	0xbd8ab872	-0.067734614
17	0xbd524642	-0.051336534
18	0x3ca4d263	0.020119851
19	0xb9de0f5e	-0.0004235459
20	0x3c38694c	0.0112555735
21	0x3c893416	0.01674847
22	0x3c8fc7ce	0.017551329
23	0x3d5a92e0	0.053362727
24	0x3ce72ad0	0.028218657
25	0x3d2c0596	0.041997515
26	0x3db921f2	0.09039678
27	0xbd4fd968	-0.050744444
28	0xbdaea9f1	-0.085285075
29	0xbddab987	-0.10679918
30	0xbde9ffa6	-0.11425714
31	0xbe0a2ce0	-0.13493681
32	0xbdefb11b	-0.11703702
33	0xbe0ce95d	-0.13760896
34	0xbdbe8374	-0.093024164
35	0xbddea29b	-0.10870858
36	0x3ddad8c8	0.10685879
37	0x3cd86693	0.026416099
38	0xbdec7425	-0.1154559
39	0x3c685a30	0.014181659
40	0xbda50a8d	-0.08058653
41	0xbe2c1031	-0.16803052
42	0xbe314c5c	-0.17314285
43	0xbe374dee	-0.17900822
44	0xbe562e80	-0.20916176
45	0x3c62d188	0.013843901
46	0xbce7d98c	-0.028301977
47	0x3c150490	0.009095326
48	0xbbf4eaf0	-0.007474296
49	0x3bae35d8	0.0053164773
50	0x3cea5cc4	0.028608687
51	0xbb1e2a1e	-0.002413399
52	0xbc7bf4a2	-0.015378149
53	0x3b75a3a4	0.003748157
54	0xbd27066a	-0.0407776
55	0xbd23b535	-0.039967734
56	0xbd0c832a	-0.034304775
57	0xbc8b6f52	-0.017020855
58	0x3c881e0d	0.016615892
59	0xbba5f1a6	-0.005064207
60	0x383b8c00	4.471466e-05
61	0x3c252c12	0.010081308
62	0xbd250b3c	-0.040293917
63	0xbd6a698d	-0.057229567
64	0xbcc4148b	-0.023935577
65	0x3c2a0c1a	0.010378862
66	0xbca86d63	-0.020559972
67	0x3ceb88e8	0.028751805
68	0x3cd4b6f6	0.025966149
69	0xbc66500c	-0.014057171
70	0x3d84f8bc	0.06492755
71	0x3d37cd36	0.04487344
72	0xbcf018a4	-0.029308625
73	0xbc88db14	-0.016706027
74	0xbce2eff2	-0.027702305
75	0xbd370eb5	-0.04469176
76	0xbd0ca578	-0.03433749
77	0xbc829c4b	-0.015943667
78	0xbd9dc4f8	-0.077035844
79	0xbd547936	-0.05187341
80	0xbd0cceec	-0.034377024
81	0x3bc7941c	0.006090654
82	0x3c2b7f1b	0.010467316
83	0xbcaf7cec	-0.021421872
84	0xbc6e367e	-0.014539359
85	0xbcf10e96	-0.0294259
86	0xbd719bd0	-0.058986485
87	0xbc54d27e	-0.012989638
88	0xbd404d11	-0.046948496
89	0xbbc43993	-0.0059883087
90	0x3da843d1	0.0821606
91	0x3d053600	0.0325222
92	0x3be9ba28	0.0071327873
93	0x3d8c4af6	0.06850235
94	0x3d032895	0.032021124
95	0x3ba07609	0.0048968834
96	0x3cc85425	0.024454186
97	0x3bf8b952	0.0075904513
98	0x3cacdd36	0.021101575
99	0x3d035b82	0.03206969
100	0x3d5ce4ba	0.05392907
101	0x3dc008d0	0.09376681
102	0xbba3afe3	-0.0049953326
103	0xbd3341fb	-0.043764096
104	0xbc3aeec4	-0.011409465
105	0xbcc8fbe8	-0.02453418
106	0xbc9848b4	-0.018589355
107	0x3c0e54cc	0.008687209
108	0x3cd5edaa	0.026114304
109	0x3d3ae2d6	0.045626484
110	0x3d5af630	0.05345744
111	0x3cfec082	0.031097654
112	0x3ccec4cd	0.025240326
113	0x3d1d0a3c	0.03833984
114	0x3d4a5200	0.049394608
115	0x3d5fcdf7	0.054639783
116	0x3db4fff2	0.0883788
117	0xbdbf2dd3	-0.09334912
118	0xbb849756	-0.004046361
119	0x3c4fed8e	0.012690915
120	0xbc593707	-0.013257748
121	0x3d1edbf1	0.03878397
122	0x3cab1a5b	0.02088659
123	0x3c8da252	0.017289314
124	0x3d8e0299	0.06934089
125	0x3d156170	0.036469877
126	0x3b835dad	0.0040089698
127	0xbc8951d8	-0.016762659
128	0xbbff4c78	-0.007791098
129	0xbd309928	-0.04311481
130	0xbbb5adb8	-0.0055443905
131	0x3c683a27	0.014174021
132	0xbd079218	-0.03309831
133	0x3c653d75	0.013991703
134	0x3ce34bc7	0.027746094
135	0x3bc4318f	0.005987353
136	0x3bb53a76	0.0055306507
137	0x3d9a3a63	0.07530668
138	0x3d3ea20b	0.046541255
139	0x3e0b5939	0.13608254
140	0x3e3b1c6e	0.18272564
141	0x3e22f33c	0.15913099
142	0x3e539e62	0.20665887
143	0x3e0cf976	0.13767037

momentum_buffer f4 [16]
0	0xb6b92378	-5.5175587e-06
1	0x36e07134	6.688899e-06
2	0x378bb4ef	1.6654345e-05
3	0x37d9e27c	2.597388e-05
4	0x37f6a662	2.9402963e-05
5	0xb7d63b82	-2.5538498e-05
6	0x37086bec	8.131359e-06
7	0xb768542f	-1.3847878e-05
8	0xb66cc64d	-3.5282167e-06
9	0xb7c9c2a0	-2.4051697e-05
10	0x37f5fc86	2.9323866e-05
11	0xb7c65b27	-2.3645885e-05
12	0x37901b5f	1.7178883e-05
13	0x373e0569	1.1326142e-05
14	0x372f688e	1.0455156e-05
15	0xb791f2af	-1.7398355e-05

momentum_buffer f4 [16]
0	0x3ea20545	0.31644645
1	0x3e300824	0.17190605
2	0xbcf722bc	-0.03016793
3	0xbd44bea4	-0.04803337
4	0x3f05de90	0.5229273
5	0xbd360f86	-0.044448398
6	0xbd9944f0	-0.07483852
7	0x3c89c7a0	0.016818821
8	0xbd3d86e0	-0.046271205
9	0xbbc56ca6	-0.006024915
10	0x3d6c34f5	0.05766769
11	0xbe304af0	-0.17216086
12	0x3d7e084e	0.06201964
13	0xbe183882	-0.14865306
14	0xbe203044	-0.15643412
15	0xbe1110f5	-0.14166625

momentum_buffer f4 [16]
0	0x3dc65ecd	0.096860506
1	0x3d805dc4	0.062678844
2	0xbdc8758d	-0.09788046
3	0x3d852ac3	0.06502297
4	0x3e6d08c8	0.23147881
5	0xbdcb7f8b	-0.09936436
6	0xbe001ca4	-0.12510926
7	0x3c07b8da	0.008283818
8	0xbd9d5323	-0.07681873
9	0xbc314e58	-0.010821901
10	0x3c1dd97c	0.009634372
11	0xbe90984c	-0.28241193
12	0x3d4a73be	0.049426787
13	0xbeb53928	-0.3539517
14	0xbe8c396a	-0.27387553
15	0xbe9826e4	-0.2971717
