deepcluster_implementation/experiments/run_label_fraction_variation/config_3/checkpoints/checkpoint_epoch_7.pth.tar (torch, 203702 bytes, 32 tensors)

features.module.0.weight f4 [16, 1, 3, 3]
000000 77 1d 34 3f a0 58 da 3d aa 8c 69 bf 16 9e 48 bf
       0.7035746 0.10661435 -0.9123026 -0.7836622
000010 d3 9a 4e 3f 01 a2 cf bd e9 25 29 bf cc 0e f1 3d
       0.80704993 -0.10138322 -0.6607347 0.117704004
000020 d9 12 34 3e b3 5f dd 3d 19 62 bc 3e 71 ff 45 3f
       0.17585315 0.10809269 0.36793593 0.773429
000030 28 50 eb be ca 24 3b bf cf 48 d5 bb 28 1c 46 be
       -0.45959592 -0.7310301 -0.0065089236 -0.19346678
000040 7b 21 1b 3f bf c5 19 3f d5 f1 df be 87 fd ea be
       0.6059796 0.6006736 -0.4373919 -0.4589655
000050 ed ad 0a bf 03 68 a1 be 23 e7 9e 3e 35 65 5d 3e
       -0.5417164 -0.31524667 0.31035718 0.21620639
000060 97 a3 6c bf 5d 92 65 be 87 08 b5 3e 4f ec 93 bf
       -0.9243712 -0.22419114 0.35358068 -1.1556491
000070 a0 c8 39 be 18 9d 4c bf 37 6c c3 3d 40 ee c0 3e
       -0.18142939 -0.79927206 0.09542125 0.3768177
000080 27 da d6 bc 55 ea f3 3e c3 54 d5 bd 2a 4a f3 3e
       -0.02622707 0.4763972 -0.10416558 0.4751752
000090 6d f8 57 3f 5c 94 0b 3e 63 b3 ff 3e 50 c2 0f 3b
       0.8436344 0.13630813 0.4994155 0.0021935888
0000a0 1c b3 ea be 1a ba 4c 3e 01 ba 4e bd 40 e2 46 bf
       -0.45839775 0.19992867 -0.050470356 -0.7768898
0000b0 74 df 76 3f 02 d4 0c 3e 37 0c 31 3e df 58 d4 3d
       0.9643471 0.1375275 0.17289816 0.10368513
0000c0 c8 e8 cf be 31 e9 30 3f cf 7f 12 bf 62 37 79 bf
       -0.40607285 0.6910582 -0.5722627 -0.9735013
0000d0 93 e9 c6 be 32 b1 51 bf 87 92 c6 3e 44 8a dd 3d
       -0.38850078 -0.81911004 0.38783666 0.10817388
0000e0 c9 d3 f5 3e dd 02 c9 bb 8b 88 47 3e ed 9c a9 3e
       0.48013142 -0.0061343745 0.19485681 0.33127537
0000f0 82 82 60 bf 4f a3 95 bd 86 1a 6a bf 92 fc 36 3f
       -0.8769914 -0.07306539 -0.9144672 0.7147914
000100 52 f6 3a be a7 53 57 bf e5 fa 10 3f e5 20 9b be
       -0.18258026 -0.8411202 0.56632835 -0.30298534
000110 18 5f 79 be 28 33 ab 3e 94 17 92 3e 6d f0 8c 3f
       -0.24352682 0.33437467 0.28533614 1.1010872
000120 06 27 41 bf 46 4a 14 bf b8 8e 0d bf 83 e4 6a 3d
       -0.7545017 -0.5792583 -0.55295897 0.057346832
000130 2a b2 0b 3d 2e e2 4c bf c8 4f 40 3f e1 61 50 3e
       0.034105457 -0.8003262 0.75121737 0.20349838
000140 eb 09 87 be 88 ed 10 bf 19 3a 89 3d 1f 04 8d 3e
       -0.26374754 -0.56612444 0.067005344 0.27542207
000150 7d 89 2d bf b4 3f 04 3f 5f f2 02 3f 5a 13 1e bf
       -0.67787915 0.51659703 0.5115108 -0.6174828
000160 23 17 2a bf c8 5c 2e 3d 35 f5 fe 3c 2d 5c f5 bd
       -0.66441554 0.04256895 0.031122783 -0.11980472
000170 8a 77 09 bf fc 01 52 3d a5 20 32 bd 78 98 76 be
       -0.5369803 0.051271424 -0.043488164 -0.240816
000180 8f 26 43 3f fc bb 29 3e 5e b8 85 bf d4 85 3e bf
       0.7623071 0.16575617 -1.0446889 -0.74422956
000190 2f af 76 bd 62 02 14 3e e8 6d 83 bd 76 92 65 be
       -0.06022566 0.14454034 -0.06417447 -0.22419152
0001a0 25 fc cf 3e df e1 fc be db 7f 21 be 24 b4 4b bf
       0.4062206 -0.49391076 -0.15771429 -0.7957175
0001b0 61 1e 38 bf 8d 15 97 3e cf 24 04 3f 28 89 26 bd
       -0.71921355 0.2950863 0.51618665 -0.040658146
0001c0 cd 80 04 bf e7 6a 68 bf 73 67 fa be 11 e2 c8 bd
       -0.51759034 -0.9078812 -0.4890705 -0.09808744
0001d0 e5 3c 08 3f e1 f3 d0 be be d1 97 be de 8e 23 bf
       0.5321792 -0.40811065 -0.29652208 -0.63889873
0001e0 96 a6 17 3e 14 1b ae 3e 45 a1 e5 bb 6d 79 80 3e
       0.14809641 0.34005034 -0.00700775 0.2509264
0001f0 c8 27 32 bc 35 4a 87 bf dd 9c b1 be b2 29 aa be
       -0.010873742 -1.0569521 -0.3468999 -0.33234936
000200 37 c4 8a be ab 02 3f 3f c6 fc 13 3f a3 92 43 3f
       -0.27102825 0.74613446 0.57807577 0.76395625
000210 11 a9 93 bf d1 f9 8b be 92 92 1c bf ef d4 1e bf
       -1.153597 -0.27339032 -0.6116115 -0.6204366
000220 37 ac 0d bf cb 12 b6 be 8c 10 df be 90 8f c4 3e
       -0.55340904 -0.35561213 -0.43567312 0.3839078
000230 6e b3 10 be 8c 9c 18 bf bf 35 71 3f 29 f7 1d bf
       -0.14130947 -0.5961387 0.94222635 -0.6170526

features.module.0.bias f4 [16]
000000 a0 38 65 bd 5c a1 8a 3d 6f 54 2b 3e 8b f6 85 3e
       -0.055962205 0.06769058 0.16731428 0.2616466
000010 4d 27 97 3e c1 93 83 be 86 0a a7 3d f3 be 0e be
       0.29522172 -0.25698665 0.08156304 -0.13940029
000020 fb 77 11 bd cd 66 78 be ef 22 97 3e 30 93 73 be
       -0.035514813 -0.24257965 0.2951884 -0.23786616
000030 7f 5e 31 3e 64 43 e9 3d 1d af d7 3d 5f 6d 33 be
       0.17321204 0.11389807 0.10531447 -0.1752219

features.module.1.weight f4 [16]
000000 9a b8 e7 3e f8 e6 45 3f 2d a7 d2 3f 79 b9 12 3f
       0.45258027 0.77305555 1.6457268 0.5731426
000010 5f a5 3a 3f 81 86 dc 3f 2a ca 08 3f c9 ee 68 3f
       0.72908586 1.7228547 0.5343348 0.9098936
000020 77 c1 9e 3f a7 c5 53 3f 17 3d 37 3f b3 0f f9 3f
       1.2402791 0.8272347 0.7157759 1.9457916
000030 9b 48 b1 3f 68 8c c3 3f c7 57 f4 3e 7d c8 ef 3f
       1.3850282 1.5277224 0.4772322 1.8733059

features.module.1.bias f4 [16]
000000 b4 1b 42 be 9d c5 c4 bf 98 bb 0b bf be c5 f8 bd
       -0.1895588 -1.5372807 -0.5458312 -0.12147091
000010 5a b4 bb bf 2a 0f 29 bf 1c 17 b5 be c5 4b e2 bf
       -1.4664414 -0.66038764 -0.35369194 -1.7679373
000020 93 b4 d5 be 06 2f c4 be c5 4f 5e be d5 b4 43 bf
       -0.4173933 -0.38317126 -0.21710117 -0.764478
000030 41 da 29 bf 60 8a f7 be 05 f1 d4 3b 24 3f 46 bf
       -0.66348654 -0.4834776 0.0064984583 -0.77440095

features.module.1.running_mean f4 [16]
000000 01 66 ae bd e4 b8 e4 3d a8 5a e8 3d 01 e7 6b 3e
       -0.085155495 0.111680776 0.11345416 0.2303734
000010 7b 50 b4 3e 56 5c a2 be b6 25 78 3d ef f6 c5 bd
       0.35217652 -0.31711072 0.06058284 -0.096662395
000020 25 2a 97 bd 2f 47 8e be 58 63 8b 3e 30 ae 93 be
       -0.07381085 -0.27788684 0.2722423 -0.28843832
000030 bc e0 23 3e a5 25 6e 3d e9 1e 4d 3d e5 bd 74 be
       0.16003698 0.05814137 0.050078306 -0.23900564

features.module.1.running_var f4 [16]
000000 3a b9 28 3f a1 9d b1 3f 43 b5 53 40 dc ed f2 3f
       0.65907633 1.387623 3.3079383 1.8978839
000010 68 1b be 3f c4 24 62 40 34 7a af 3f 6d d1 1b 40
       1.4852114 3.533494 1.3709168 2.4346573
000020 6c 5d 70 40 61 af 04 40 d0 aa e2 3f 5a d3 24 40
       3.755702 2.0732043 1.7708378 2.5753999
000030 f4 75 f5 3f 26 ee 0f 40 87 c9 7a 3f d8 5c 2e 40
       1.9176621 2.2489104 0.97963756 2.7244167

features.module.4.weight f4 [32, 16, 3, 3]
000000 a5 f1 21 be 5c 7d 77 be 3d fd dc be cf c0 7b be
       -0.15814836 -0.24168915 -0.43161955 -0.2458527
000010 ac 76 38 3e cb 05 9d 3d 68 e6 cf 3d a3 cd f1 3d
       0.1801402 0.076671205 0.101513684 0.118068
000020 dc 2f 9a 3e 89 53 3a bd 86 41 90 bd 82 9f 82 bd
       0.3011464 -0.04548982 -0.070437476 -0.0637808
000030 e5 8f d6 bc 77 c4 80 bd b3 ad cf bd ee aa d9 3c
       -0.026191661 -0.06287473 -0.10140552 0.026570763
000040 da 7f 9a bc 77 e6 a4 bd 89 c2 50 3d 24 a5 6b 3e
       -0.018859793 -0.0805177 0.050966773 0.23012215
000050 86 c8 f5 bd 34 87 87 bc 55 88 a4 bd a7 f6 17 be
       -0.120011374 -0.016543962 -0.08033816 -0.14840184
000060 23 35 b8 bd c2 79 b3 bd 9e ad 27 3e 2d 7a c9 3d
       -0.0899451 -0.08763458 0.16374823 0.09837756
000070 91 e9 8f bd 8a b2 06 bf 06 a6 06 bd 1f 30 9b be
       -0.07026971 -0.5261618 -0.032873176 -0.3031015
000080 70 87 2f be d3 59 a6 be 81 bc 50 be 3f 12 4d 3d
       -0.17141509 -0.32490405 -0.20384409 0.05006623
000090 6e 85 07 be e7 04 65 bd 3b ea 1f 3d 2c c0 96 bb
       -0.13234493 -0.05591288 0.03904174 -0.0046005454
0000a0 fa a2 2f 3d e3 b5 a6 be 5c 58 f8 3d 6f 8a ae 3d
       0.042880036 -0.32560644 0.12126228 0.08522498
0000b0 f0 d0 fc 3d cc 2d 09 be 60 24 e5 bb 3c cb 22 3e
       0.12344539 -0.13396376 -0.0069928616 0.1589784
0000c0 7f 95 43 be 27 08 e7 ba 85 42 91 3c b3 10 90 be
       -0.19099997 -0.0017626331 0.017731914 -0.2813774
0000d0 c7 92 66 be 5a 69 e1 be 8e d9 6d be b7 96 1c be
       -0.22516929 -0.4402569 -0.23227522 -0.15291868
0000e0 16 69 25 3e 37 66 1e be 34 ce 1a bd 1e a5 02 be
       0.16153368 -0.1546868 -0.037794307 -0.127583
0000f0 71 e9 e4 bd 7e 04 0f bd ed 77 c3 be 14 0d c8 3d
       -0.11177338 -0.034916393 -0.38177434 0.097681195
000100 90 e5 f5 bd 3d 56 88 be 46 93 54 3c 97 07 30 3e
       -0.12006676 -0.26628295 0.012974566 0.17190395
000110 45 8d a3 bd 8e f0 b4 be a8 f4 35 be 7a 6d b5 3e
       -0.079859294 -0.3533978 -0.1776911 0.35435086
000120 22 d6 17 be 6e 60 93 be 1b c2 ce be f4 47 15 bc
       -0.14827779 -0.28784508 -0.40382466 -0.009111393
000130 4f c6 28 bd 7e b7 d7 3d da 70 c5 bd bd 33 8c bd
       -0.041204747 0.10533045 -0.09640665 -0.06845806
000140 6b a1 da 3d 61 88 b8 b9 93 aa c6 3b db 06 39 3d
       0.10675319 -0.00035196825 0.0060628145 0.045172554
000150 60 10 3e bd e0 37 38 bc 91 e1 17 3c b6 60 b2 3d
       -0.046402335 -0.01124379 0.009270088 0.087098524
000160 54 d4 48 3d b5 95 52 3e 15 a8 97 bd d3 26 ee bc
       0.049030617 0.20564921 -0.07405106 -0.029071247
000170 4b 1a 38 be 97 fc 41 be 23 85 e5 bd de b2 4e 3c
       -0.1797878 -0.18944012 -0.112070344 0.012615887
000180 93 69 8d 3e 2d 36 5e 3d 7d 22 26 3e ac 17 91 bc
       0.2761961 0.054250885 0.16224094 -0.017711483
000190 66 6e 02 be c1 ef 3a 3e 9c c4 47 3d da 90 a7 bd
       -0.12737426 0.18255521 0.048771486 -0.08181925
0001a0 4c 23 31 bc 3f ee 24 3e 56 98 0d 3e c3 10 87 be
       -0.010811638 0.16106509 0.13827643 -0.26379976
0001b0 84 f5 e1 bc 47 d6 4e be 60 bc 6c 3d 80 1f 17 be
       -0.027582891 -0.20198928 0.057796836 -0.1475811
0001c0 08 cc 18 be 44 70 84 bd bb e2 b0 bd b1 2d 76 bc
       -0.14921582 -0.064667255 -0.086369954 -0.015025542
0001d0 a5 f1 98 bc e1 e6 d6 bc 11 19 19 bd 10 f4 b3 be
       -0.018669913 -0.026233139 -0.03737742 -0.35147142
0001e0 e5 de e3 bd a6 54 73 3d 84 7a af 3c 10 a2 ce bd
       -0.11126498 0.0594069 0.021420725 -0.10089505
0001f0 da 19 1a be 1a f5 46 bd 4d f3 05 3c ff 1f ce 3d
       -0.15048924 -0.04857359 0.008175683 0.100646965
000200 9b 42 37 bd 73 1a a6 3d 27 e0 17 3e d2 91 2d be
       -0.044741254 0.081105135 0.14831601 -0.16950157
000210 5e 60 33 3e 39 2c 1d 3c d7 c0 13 be 73 53 bf 3c
       0.1751723 0.009593063 -0.14429031 0.023355221
000220 5a ec d6 3c 8a 17 63 3d 81 a0 73 3d 14 01 f8 3d
       0.026235748 0.05544237 0.05947924 0.12109581
000230 81 d6 8c bd 81 55 94 bd 50 a4 f3 3b a6 8d ff bd
       -0.06876851 -0.07242871 0.007435359 -0.12478189
000240 4f 7a f2 3c aa dc 3e 3e c9 cd 10 3e 14 99 4d bd
       0.029599337 0.18638864 0.14141001 -0.050194815
000250 8d 64 2c bd bc 39 c7 bc 45 20 6c be 71 70 ac bc
       -0.04208808 -0.024319522 -0.23059185 -0.02104971
000260 2e ef 60 3c 8d d5 cc bd 2c 09 24 be da a4 98 be
       0.0137289 -0.10001669 -0.16019124 -0.29813272
000270 46 f7 27 3c 71 83 46 bd bd 2c 1e be 3a a9 c1 3c
       0.010251826 -0.048465196 -0.15446754 0.023640264
000280 0f 43 bf bd 00 cb 7c 3c 55 48 e5 3d 32 f5 fe 3a
       -0.09338962 0.015429258 0.11195437 0.0019451736
000290 4f e0 34 bd 30 9a df 3d 8e d9 1b bd 5a e2 1d 3d
       -0.04415923 0.10918081 -0.038049273 0.038545944
0002a0 11 09 e7 bd b2 d8 b9 bd 53 43 8f 3d ae 4a 25 3e
       -0.11281026 -0.090745345 0.06995263 0.1614177
0002b0 5c fc dd 3d 25 2d b6 bc 47 cb 0d 3a 1f cc d0 bd
       0.10839149 -0.022238323 0.0005409014 -0.10195183
0002c0 8c e4 a8 bd 09 76 55 bd f0 5c 66 bd 8e 2f b1 bd
       -0.08246717 -0.05211452 -0.056240976 -0.086516485
0002d0 9d 41 6a be c2 4e 0d be 0d 22 47 be 0f 90 1f be
       -0.22876592 -0.13799575 -0.19446583 -0.15582298
0002e0 28 2c dc bd f9 5c f2 bd fc ac 34 be ec 07 09 be
       -0.1075061 -0.118341394 -0.17644113 -0.13381928
0002f0 71 6e 3a be f9 8a 0f 3d 2f af 51 3d 59 33 58 3d
       -0.18206193 0.035044644 0.05119246 0.052783344
000300 61 30 00 be b3 f4 9b bc 2b 67 19 bd 86 bd 92 be
       -0.12518455 -0.01903758 -0.037451904 -0.2866022
000310 19 3c 9a 3c 4f 64 f1 3c aa 5b 12 bd 78 bd 90 3d
       0.018827485 0.029466776 -0.03573195 0.07067388
000320 da b8 97 bd 26 32 18 be d1 84 6a bd 4d 0b f1 bd
       -0.074083045 -0.1486288 -0.05725557 -0.117697336
000330 54 49 4e be f2 86 0d bd 61 13 c4 bd e3 23 9f be
       -0.2014516 -0.034552522 -0.09574009 -0.31082067
000340 1a c6 34 be ac 29 55 be cc aa 4f be 84 50 42 bd
       -0.17653695 -0.20816678 -0.20279998 -0.047440067
000350 e6 be 13 be ea 4c 31 be 9a 30 1a be 0e 94 75 be
       -0.1442829 -0.17314497 -0.15057603 -0.2398226
000360 97 fa d3 3c 29 9b 4f 3d 35 3b d0 3d a0 3a 52 ba
       0.025876326 0.05068508 0.10167543 -0.00080196
000370 3b fd 0d 3c a8 38 c2 bc ad 66 ab bd c8 c9 c1 bd
       0.008666332 -0.023708656 -0.08369193 -0.09462315
000380 53 8a e2 bb 81 23 2f bd 95 1a 00 bd 92 31 8e bd
       -0.006913462 -0.04275847 -0.03127535 -0.069430485
000390 de 77 81 3c ab 33 f5 3c a4 c0 3b bd 61 1d a9 bc
       0.015804227 0.029931864 -0.045838013 -0.020643892
0003a0 d7 61 73 3d 4b d7 dd 3c 9f dd 2d 3c 90 c0 23 3c
       0.05941948 0.027080199 0.010611921 0.009994641
0003b0 89 b7 61 3d 29 28 0d 3d f2 47 92 3c 21 69 08 3e
       0.055106673 0.034462128 0.017856572 0.13321353
0003c0 af 02 71 3d 8d 16 d8 bc 1b b1 be 3b 62 8b 01 3d
       0.05884045 -0.02637794 0.0058194525 0.031627066
0003d0 d4 1c 06 bd 2a 77 1a 3d a3 a6 bd bc 31 e6 bb bc
       -0.032742336 0.0377113 -0.023150748 -0.022936912
0003e0 33 fc b1 3c fe b5 63 be 06 c2 ee bd 64 ab 05 bc
       0.021726703 -0.22237393 -0.11658101 -0.0081585385
0003f0 c7 be f0 3d 90 f7 fe 3d 49 4c 69 3e 25 6f 21 be
       0.11755138 0.124495625 0.22783007 -0.15765055

features.module.4.bias f4 [32]
000000 0d 71 ac 3c b4 8a 26 3d 40 b4 97 bd 2b 75 67 bd
       0.02105 0.04065962 -0.07407427 -0.056508224
000010 2d 40 9f bd 5c ea 1a 3d 51 e4 78 3d 3e 6e 9f bd
       -0.077759124 0.03782116 0.060764614 -0.07784699
000020 f3 8f ac 3c cc 9b 86 3c 07 17 32 bd 03 67 8f 3c
       0.021064734 0.016431712 -0.04347899 0.017505175
000030 50 e6 7f 3d fb c1 a2 3d 6c 83 0f 3d a8 9c 83 bc
       0.062475502 0.07947155 0.035037443 -0.01606591
000040 bb d3 3c bd 88 cb fc bc 5b ff 2d 3a d2 f7 c2 bb
       -0.04610036 -0.03085877 0.0006637477 -0.0059499526
000050 6b 28 72 3d aa f5 95 bd 41 fd ec 3b 6f 1a d3 bc
       0.059120577 -0.07322247 0.0072323387 -0.02576944
000060 eb 6f dd 3b a6 91 9f 3d 39 59 1b 3b c0 3f 66 bc
       0.0067577264 0.07791452 0.0023704304 -0.014053285
000070 95 f6 e0 bc 39 97 a5 bd 17 55 96 bd 4c 99 10 3d
       -0.02746133 -0.08085484 -0.07340448 0.035302445

features.module.5.weight f4 [32]
000000 61 78 32 3f a5 d2 50 3f 40 d0 3a 3f 3b 97 55 3f
       0.69714934 0.8157142 0.72974014 0.83433884
000010 9b 15 6e 3f 01 05 8d 3f 9e fc 52 3f 5a 6c 0d 3f
       0.9300172 1.1017152 0.82416713 0.55243456
000020 61 65 22 3f 4b 86 72 3f 49 6a 25 3f 1c b1 05 3f
       0.6343594 0.94736165 0.64615303 0.5222337
000030 f2 26 33 3f 48 22 ec 3e c3 be 11 3f e1 22 25 3f
       0.699813 0.46119905 0.56931704 0.64506346
000040 f2 1a 3b 3f 95 8d 0f 3f e4 1d 1d 3f fb 29 72 3f
       0.7308799 0.5607541 0.61373734 0.9459531
000050 19 8c 25 3f d2 3e 7c 3f da b4 1c 3f 80 0b 2f 3f
       0.646669 0.98533356 0.6121346 0.6837692
000060 36 3e e8 3e d2 50 4b 3f bf 0b f7 3e dd d4 09 3f
       0.45359963 0.79420197 0.4825115 0.5384043
000070 3c 39 64 3f b5 58 87 3f 7d 62 3e 3f 8b 77 8a 3f
       0.8914983 1.0573946 0.7436903 1.0817732

features.module.5.bias f4 [32]
000000 26 0f 41 bf a7 d2 2a bf 43 7c c4 be 5a 08 62 bf
       -0.7541374 -0.6672768 -0.38376054 -0.88293993
000010 81 03 2f bf e7 82 00 c0 e0 a1 ad bf bc a8 01 bf
       -0.6836472 -2.0079896 -1.3565025 -0.50648093
000020 62 9a a8 be 22 eb f2 bf 3f 5e 15 bf 3e 4e 35 bf
       -0.32930285 -1.8978007 -0.58346933 -0.70822513
000030 13 12 57 bf eb 0a 8b be d3 9d 3e bf a6 7f 97 bf
       -0.84011954 -0.27156767 -0.7445957 -1.183583
000040 05 35 1c bf 07 eb e0 be d3 54 55 bf 46 80 33 bf
       -0.610184 -0.43929312 -0.83332556 -0.70117605
000050 04 6b c8 be 60 fd 56 bf c3 b9 f8 be a6 6f 80 bf
       -0.39144146 -0.8398037 -0.48579225 -1.0034072
000060 1a 00 c6 be e5 2d 33 bf f0 31 c9 be e5 9b 0d bf
       -0.38671952 -0.69991904 -0.39295912 -0.55316
000070 72 cf 4e bf a8 5a 0d c0 91 2a 34 bf 2a 19 0c c0
       -0.80785286 -2.2086582 -0.7037745 -2.189036

features.module.5.running_mean f4 [32]
000000 a0 96 21 bf 80 09 9c be 80 c3 16 bf 81 ef 08 bf
       -0.6312046 -0.30475998 -0.5889206 -0.53490454
000010 f1 33 2f bf 48 eb 9e bf 01 13 bd bf 3c 35 2d bf
       -0.6843863 -1.2415552 -1.4771425 -0.67659354
000020 49 bd 94 be 3b 46 c4 bf 21 fa 93 bf a1 06 83 bf
       -0.29050663 -1.5333933 -1.1560708 -1.0236398
000030 67 d5 60 bf 7a bd 06 be 79 01 29 bf c4 18 94 bf
       -0.87825626 -0.13158217 -0.6601787 -1.1570058
000040 52 43 4e bf 39 c8 86 bf 41 e0 55 bf 4a 37 1a bf
       -0.8057147 -1.0529853 -0.8354531 -0.60240614
000050 2c fe a9 be a0 99 1d bf 07 3b 1a bf 1a b5 9c bf
       -0.3320173 -0.6156254 -0.6024632 -1.2242768
000060 c9 f9 14 be 7c bc 4c bf 9a 3f e7 be ee 57 39 be
       -0.1454841 -0.79975104 -0.45165712 -0.18099949
000070 01 b5 f8 be 45 cd dc bf b6 ca 67 be 36 67 b9 bf
       -0.48575595 -1.7250143 -0.22635922 -1.4484622

features.module.5.running_var f4 [32]
000000 a5 cc a9 3e 48 c6 b1 3e 50 06 56 3e bb b8 c1 3e
       0.33163944 0.3472159 0.20900846 0.3783625
000010 e4 17 f3 3e 06 87 c7 3e b9 39 29 3f ce 1e 9c 3e
       0.47479165 0.38970202 0.661037 0.30492252
000020 1f c5 e5 3e 84 0e d6 3e 59 74 0f 3f e9 33 a1 3e
       0.44876954 0.4180795 0.5603691 0.31484917
000030 2a 4b 08 3f f8 91 b9 3e c0 82 72 3e cf c6 d7 3e
       0.5323969 0.36244178 0.2368269 0.42143866
000040 61 99 1f 3f fa 74 2f 3f d0 36 b3 3e 50 7c 67 3f
       0.6234341 0.6853787 0.35002756 0.9042406
000050 ec 30 1e 3f 52 0b 3d 3f 6a b5 12 3f 58 49 fd 3e
       0.617934 0.738454 0.57308066 0.4947002
000060 4b 22 ba 3e 85 32 e0 3e 9e 4b 9c 3e 85 04 ab 3e
       0.36354288 0.43788543 0.3052644 0.33401886
000070 84 08 0f 3f 94 69 0a 3f 3e 5b 89 3e f2 ca 07 3f
       0.5587237 0.5406735 0.26827425 0.53044045

features.module.8.weight f4 [64, 32, 3, 3]
000000 73 5c ae bc 46 56 a5 bc 41 48 c6 bc 07 80 78 bc
       -0.021284318 -0.02018274 -0.024204375 -0.015167243
000010 54 4f 41 bc 39 3f 87 bc c0 fb 95 bc 10 82 a2 bc
       -0.011798698 -0.01650964 -0.01830852 -0.01983741
000020 de 83 f0 bc ca cd ee 3b 44 27 9a bb 92 7c a9 bc
       -0.029359754 0.0072877156 -0.004704388 -0.020689283
000030 ac 38 41 3c e2 fd a7 bb 83 65 e3 bc 5b 63 e4 3c
       0.011793297 -0.0051267007 -0.027758365 0.027879408
000040 fb 47 d0 bb 84 d9 44 bd ec b1 36 bc 73 e7 ce bc
       -0.006356237 -0.048059 -0.011150818 -0.025256848
000050 57 87 0a bc 27 96 0f bd e7 93 29 bd a9 8a 8a bc
       -0.008455119 -0.035055306 -0.041400816 -0.016911821
000060 84 22 97 bb 8c 38 7c bc 3f 96 0d 3b a8 13 35 bd
       -0.004612269 -0.015394341 0.0021604446 -0.0442082
000070 57 96 3f bd 20 71 7d bd 23 fa fd bc 25 d2 ab bc
       -0.046774235 -0.061875463 -0.031003064 -0.020974228
000080 73 73 f8 bc d9 37 16 bd 82 af 01 bd ab c4 46 bd
       -0.030328488 -0.036674354 -0.031661518 -0.0485274
000090 79 52 ff bb 93 80 28 bc 2a 49 b4 bc 46 44 64 bc
       -0.007791814 -0.010284561 -0.022007544 -0.013932293
0000a0 fb 32 da bc f6 2e 55 bd fd 36 94 bc b2 ce 06 bd
       -0.026635638 -0.05204674 -0.018092627 -0.032911964
0000b0 7e 83 9b bd 33 a1 20 bd 5f a4 06 bd 4c 68 21 bd
       -0.075934395 -0.03921623 -0.0328716 -0.039406106
0000c0 de 50 22 bd e2 7e 42 bd 77 f2 7a bd d0 2d 30 bd
       -0.039627902 -0.047484286 -0.06126639 -0.04301244
0000d0 10 f2 54 bd 4a ed 78 bd e0 b8 0a bd 01 35 23 bc
       -0.05198866 -0.06077317 -0.033867717 -0.009961368
0000e0 a8 e4 bd bb bb 86 8c bc a0 96 30 3c 4a 3b 33 3c
       -0.00579508 -0.017154088 0.010778099 0.010939429
0000f0 87 ed 07 bc 93 db a4 3c 14 9d 80 3c e2 44 e1 bc
       -0.008296377 0.020124232 0.0156999 -0.027498666
000100 36 9c c2 bc c5 07 40 bd b6 8f e5 bc 85 bb 82 bc
       -0.023756128 -0.04688241 -0.028022628 -0.015958557
000110 d1 8c 00 bd 28 11 37 bd 38 f3 15 bd 7a b3 4f bd
       -0.031384293 -0.044694096 -0.036608905 -0.05070827
000120 c3 0f 18 bd b6 5d 5d bd f5 dc 3b bd bc c1 a0 bc
       -0.037124407 -0.054044448 -0.045865018 -0.01962363
000130 df 50 00 bd 3f fa 96 bc 99 c8 ee bc 74 53 08 bd
       -0.031327125 -0.018429874 -0.029148387 -0.033282712
000140 25 58 89 bc d3 17 df 3c 54 d3 5f 3d d1 37 96 3d
       -0.016765663 0.02723304 0.054644898 0.07334865
000150 ef 1d a7 3c 13 ae 04 3d b5 8c 68 3d 28 4b af 3c
       0.020400016 0.032392573 0.056774814 0.021398142
000160 c6 b8 a1 3c 98 85 07 3d ba 46 da bc 14 9b ad bc
       0.019741427 0.03308639 -0.026645053 -0.021192111
000170 15 bf 01 bd 27 3d a5 bc 1e 5b 90 bc 9b 1e ed bc
       -0.03167637 -0.020170761 -0.017621573 -0.028945258
000180 b2 9c dd bc 88 8e c9 bc f9 60 d6 bc 67 be 8d bd
       -0.027052257 -0.024604097 -0.026169287 -0.06921082
000190 d4 5e ec bc a0 3d e9 bc e9 12 1d bd 4d db b2 bc
       -0.028853811 -0.028471768 -0.038348112 -0.021833086
0001a0 2c 2a c4 bc b3 34 26 bd ec ba ea bc 1f 69 dc bc
       -0.02394589 -0.0405776 -0.028653584 -0.026905594
0001b0 da 5a a1 3d 7d ef 19 3d 0b c1 8f 3d 4c 9b 71 3d
       0.07878657 0.03758191 0.07019242 0.058985993
0001c0 b0 48 94 3c f5 96 43 3d 3a d2 b9 3d 42 5e 50 3d
       0.018101066 0.047751386 0.09073301 0.05087114
0001d0 58 b7 98 3d b8 87 25 3c ad 55 54 3c f1 f8 6d 3c
       0.07456845 0.010103159 0.01295988 0.014524684
0001e0 f6 22 cb 3b 2f 90 20 3b be 74 c4 3b 1e 8e 72 3c
       0.006199236 0.0024500003 0.005995362 0.014804391
0001f0 7c d1 d2 3a 60 49 5d 3c 63 16 10 3c 92 e9 50 3b
       0.001608416 0.0135062635 0.0087944 0.00318775
000200 e2 dc eb b9 e3 c9 be ba 80 8f 8b bb 3b d2 b0 bb
       -0.00044987263 -0.0014556017 -0.00425905 -0.005396155
000210 60 51 e9 39 77 73 64 bb d9 c6 e2 bb 2f ff e6 bb
       0.00044501852 -0.0034858861 -0.006920677 -0.007049463
000220 ad c5 12 bc 80 38 59 bb 11 e3 af bc 43 84 73 bc
       -0.008958262 -0.003314525 -0.021470578 -0.014863077
000230 e6 3f 34 bc 7a dd b3 bc 31 dc 9c bc e3 e3 af bc
       -0.011001563 -0.021956194 -0.019147964 -0.02147097
000240 3c 51 6a 3d 61 49 3f 3d a2 ca 95 3d f2 46 5e 3d
       0.057206377 0.04670084 0.0731404 0.054266877
000250 a3 bc 03 3d f7 5b 75 3d 95 ef 66 3d 7f cd 0e 3d
       0.03216232 0.059902158 0.056380827 0.034863945
000260 03 cc 84 3d 01 f1 d4 bb d3 1d a9 bb 02 0c cc bb
       0.06484225 -0.0064984565 -0.005161026 -0.0062270174
000270 cb ff 5c bc 94 01 68 bc e7 26 30 bc b8 83 c5 bc
       -0.01348872 -0.0141605325 -0.010751463 -0.02411066
000280 1e f8 c7 bc 29 fa c9 bc 4f ad 6a 3b e1 b2 a0 3b
       -0.024410304 -0.024655418 0.0035808866 0.0049041365
000290 77 87 ca 3b d0 be 93 3b 34 ee 5c 3b 05 c4 7f ba
       0.0061806994 0.0045088306 0.0033711316 -0.0009756687
0002a0 a6 cd 27 bc c3 2d 7c bb b1 96 95 bb 3b 82 c4 3d
       -0.0102419015 -0.0038479425 -0.004565083 0.09595152
0002b0 f3 6b 39 3d 97 c5 97 3d a0 9d 72 3d 2f c1 b6 3b
       0.045268964 0.07410734 0.059232354 0.0055772285
0002c0 95 f8 07 3d 27 b6 a0 3d 8a 10 11 3d a4 6c 9a 3d
       0.03319605 0.07847243 0.035416164 0.07540253
0002d0 42 45 eb bb ba 6f 9a 3b 16 98 00 3a 69 23 c9 bb
       -0.007179887 0.004713026 0.0004905475 -0.0061382544
0002e0 47 83 44 3b ce 3f ba bb 37 dd 9c bc cd d9 c0 bc
       0.0029985474 -0.0056838756 -0.019148452 -0.023541356
0002f0 2e 76 ed bc 2b f6 ea 3c 29 35 b6 bb a9 7a 86 3c
       -0.028987017 0.028681835 -0.0055605364 0.01641591
000300 be 83 4c 3d 8d 35 56 3c e0 73 18 3d 90 2a b9 3d
       0.049930327 0.013074291 0.037219882 0.09041321
000310 63 c1 4f 3d 51 da af 3d a1 c8 ee bb 2b 70 aa bb
       0.050721537 0.085865624 -0.0072871004 -0.0052013597
000320 3b ec a0 bb 99 6f d2 bb df 7a 18 bc 04 ac a4 bb
       -0.0049109734 -0.006421995 -0.0093066385 -0.0050253887
000330 fc 73 88 bc 05 ea 3c bc 49 35 ae bc 51 a5 4e bd
       -0.016656868 -0.011530404 -0.021265643 -0.050450627
000340 ff 5e fc bc a4 9e a5 bc f0 7a 30 bd 6c e3 bf bc
       -0.030807016 -0.020217247 -0.043085992 -0.023423873
000350 40 ea 79 bc 9b 8a 4b bd e5 b0 be bc b9 ec a3 bc
       -0.015253603 -0.04969273 -0.02327771 -0.02001034
000360 42 bb 3c bc 78 bb 59 bc 74 83 b0 bc 8e b7 fb bb
       -0.011519255 -0.013289325 -0.021547057 -0.0076817935
000370 24 e5 9a bc 1c 81 e5 bc bb c0 dd bb b3 82 63 bc
       -0.01890809 -0.028015666 -0.00676736 -0.013886142
000380 ce 7e f6 bc 31 84 d3 3d 36 d5 a0 3d 70 68 e7 3d
       -0.030089762 0.10327948 0.07853167 0.11299217
000390 60 82 b0 3d 73 6d 6a 3d 3a f6 a5 3d a9 c5 d7 3d
       0.08618617 0.057233285 0.081036046 0.105357476
0003a0 5f 49 7d 3d ac 27 a9 3d 2a ee c1 bb 21 dd ae bc
       0.06183755 0.0825952 -0.005918284 -0.021345677
0003b0 2f 3d 4e bd b5 95 ea ba 1f 45 21 bc 22 0e c1 bc
       -0.050351318 -0.0017897399 -0.00984314 -0.02356631
0003c0 76 3d 89 3c ab 9f 32 3c 40 c2 d9 ba ae 33 af 3d
       0.01675294 0.010902326 -0.0016613677 0.08554779
0003d0 f4 97 5a 3d 13 87 c8 3d 5b fe 2e 3d 89 6b b7 3c
       0.05336757 0.09791388 0.04272304 0.022390144
0003e0 65 e7 6c 3d bc bc 02 3d a5 60 82 3c 13 4a 81 3d
       0.057837863 0.031918272 0.015915224 0.06312957
0003f0 30 c5 f6 3d 53 5e 5d 3d 3f 63 c4 3d b9 42 c4 3d
       0.12049329 0.054045033 0.09589242 0.09583039

features.module.8.bias f4 [64]
000000 5f 3a d7 bc 0f cc 2c 3c 12 ed 35 3c 43 13 67 3d
       -0.02627295 0.010546698 0.011103885 0.056414854
000010 30 b3 56 3d 0d c9 41 bd 62 33 e9 3c f9 20 3c bd
       0.05241698 -0.047310878 0.028466884 -0.045929883
000020 5c 7f e5 bc ca 3b b9 3c 70 90 20 bd d7 46 49 3d
       -0.028014831 0.022611517 -0.039200246 0.049139824
000030 c3 bb b1 3c 95 96 a0 3b cc 7d 03 3d 89 f4 47 bd
       0.021695977 0.0049007633 0.03210239 -0.04881719
000040 18 ec 1a 3c d6 f2 ae 3c de ec d7 bc 12 f1 91 bc
       0.009455703 0.021356028 -0.026358064 -0.017815147
000050 09 6f be 3c 49 d4 46 3d de 15 b7 bc 4b bb 0d 3d
       0.023246305 0.048542295 -0.022349294 0.034602445
000060 97 95 03 3d 96 5f 09 bd b2 93 3a bd 69 43 dd bb
       0.032125082 -0.033538423 -0.04555101 -0.0067524207
000070 e9 a8 11 3d 31 b2 43 bd d7 1a 23 bd ee 0e 2b 3d
       0.035561476 -0.04777736 -0.03982052 0.041762285
000080 73 9d 06 bd 7c 99 27 bd b6 f8 1f bb e1 b2 65 3d
       -0.032865 -0.04091786 -0.0024409718 0.056078795
000090 35 d4 1a 3d 73 33 f2 3c f1 40 f0 3b 71 35 eb bc
       0.037800033 0.029565549 0.0073319604 -0.028712006
0000a0 25 e2 36 bd 08 69 f9 3c 86 23 8b 3c 94 59 74 3c
       -0.044649262 0.03044559 0.016984712 0.014913935
0000b0 a8 81 ad bc 34 05 65 bd 24 6b 00 3c 0f af 21 bc
       -0.021179989 -0.055913165 0.007838044 -0.009868397
0000c0 78 04 8e bb af 49 b2 3b 1d 32 09 bd a1 35 12 bd
       -0.004334029 0.0054409127 -0.033495057 -0.035695676
0000d0 3e 2b 88 bc 5f 34 b6 3c 23 f7 12 bd bc c8 5a 3d
       -0.016622182 0.02224177 -0.03588022 0.05341409
0000e0 e5 ff 66 bd 6e af 11 bd d3 8f 86 3c 46 53 64 bd
       -0.056396384 -0.035567693 0.016426003 -0.05574348
0000f0 80 4e 02 bd c0 41 f2 3c c5 15 1f bd 44 59 96 3c
       -0.031813145 0.029572368 -0.03883912 0.018353112

features.module.9.weight f4 [64]
000000 2e db 83 40 74 4d ab 40 f3 ac ce 40 0a b5 93 40
       4.1205053 5.3532047 6.458612 4.6158495
000010 69 12 97 40 30 7c 96 40 6b c3 b5 40 36 45 ac 40
       4.7209973 4.7026596 5.6801047 5.3834486
000020 88 10 9b 40 6e 51 8b 40 c1 89 ac 40 6f 0b 91 40
       4.845768 4.35369 5.3918157 4.5326457
000030 98 37 94 40 d0 08 b0 40 0c f3 82 40 51 51 c2 40
       4.6317863 5.5010757 4.092169 6.0724263
000040 38 1c c0 40 05 20 9b 40 64 6c 9d 40 22 21 5c 40
       6.0034447 4.8476586 4.9194813 3.4395223
000050 0f 79 91 40 de 66 b7 40 1c 22 97 40 a7 4d 69 40
       4.5460277 5.731307 4.7229137 3.6453645
000060 96 15 96 40 2d 52 67 40 db fc 9c 40 8b d7 99 40
       4.690135 3.6143906 4.905866 4.8075614
000070 d4 3b a6 40 f3 bc 96 40 c5 bc b6 40 3c 2d 8c 40
       5.194803 4.710565 5.710543 4.380522
000080 ff e4 aa 40 c4 5c a7 40 e3 11 99 40 b0 e7 b1 40
       5.3404536 5.230074 4.7834334 5.559532
000090 05 5b 99 40 b3 88 bd 40 e9 1b 89 40 09 f5 9e 40
       4.792361 5.922937 4.284657 4.9674115
0000a0 28 ef a3 40 2a 9d 86 40 5e ec ca 40 f6 48 84 40
       5.122944 4.206685 6.3413534 4.1339064
0000b0 1b d7 8a 40 80 be 99 40 1a 1f b0 40 12 bc a5 40
       4.338758 4.8045044 5.5037966 5.179208
0000c0 27 8d 9a 40 d4 1c 93 40 c3 1a a9 40 b7 6b b5 40
       4.8297305 4.597269 5.284517 5.669399
0000d0 e0 ff 94 40 c6 52 97 40 e9 66 84 40 88 14 94 40
       4.6562347 4.728854 4.1375623 4.6275063
0000e0 24 84 94 40 2c 1d 99 40 b7 40 af 40 38 d5 9d 40
       4.6411304 4.784811 5.4766498 4.9322777
0000f0 39 91 96 40 c6 54 91 40 a1 c4 a7 40 10 2e 95 40
       4.7052274 4.5415983 5.2427526 4.661873

features.module.9.bias f4 [64]
000000 b9 b4 6a 3f 05 63 5d 3f ca 7d b8 3f 7d 7d aa 3f
       0.9168201 0.86479217 1.4413388 1.3319546
000010 32 9e cb 3f 9e d3 be 3f a7 53 d3 3f 91 ca 84 3f
       1.5907652 1.490833 1.6509904 1.0374318
000020 fe 2d b6 3f c5 c4 8c 3f 77 ff ce 3f 3b 13 81 3f
       1.4232786 1.0997549 1.6171712 1.0083994
000030 67 eb 87 3f 6b 04 c2 3f b3 7c 87 3f c3 2b cb 3f
       1.0618714 1.5157598 1.058493 1.587273
000040 e8 e2 10 40 96 d2 e6 3f 13 15 41 40 e8 f2 e6 3f
       2.2638493 1.8033016 3.0169113 1.8042879
000050 79 f8 4b 3f f5 5e b1 3f be 38 30 3f 52 db 50 3f
       0.79676014 1.3857104 0.6883658 0.81584656
000060 70 5d 94 3f 09 33 f6 3f 7e a9 90 3f 7c 76 8a 3f
       1.1591015 1.9234325 1.1301725 1.0817409
000070 48 77 90 3f 3b 5f 8a 3f a3 5b c5 3f 58 7d 85 3f
       1.1286402 1.0810312 1.541859 1.0428877
000080 b5 77 45 3f 3f de d7 3f 65 13 d9 3f e2 7a 99 3f
       0.77135783 1.6864699 1.6959044 1.1990626
000090 3e a7 a9 3f 88 0f e0 3f 92 30 89 3f c3 9c 9e 3f
       1.3254163 1.750474 1.0717947 1.239159
0000a0 07 82 cc 3f de b9 1d 40 37 04 a2 3f 6e f6 71 3f
       1.5977181 2.4644694 1.2657536 0.94516647
0000b0 5a 7f 70 3f df 37 87 3f 9a e0 a3 3f ce 7b 6f 3f
       0.93944323 1.0563926 1.2802918 0.93548286
0000c0 f0 76 d4 3f e3 8d 81 3f ca 27 d3 3f 62 e5 b7 3f
       1.6598797 1.0121425 1.6496518 1.4366877
0000d0 e5 f8 0d 40 a1 7f 90 3f cd 4b 9c 3f 96 34 37 40
       2.2183163 1.1288949 1.2210633 2.8625846
0000e0 e0 52 76 3f f4 e9 83 3f bc 10 e1 3f 1e d5 a9 3f
       0.9622021 1.0305772 1.7583232 1.3268163
0000f0 51 3a 85 3f d9 ea 86 3f 8d 2b 95 3f 21 2f 89 3f
       1.0408422 1.054042 1.1653916 1.0717508

features.module.9.running_mean f4 [64]
000000 1d e6 1a bd a5 bf 9a 3c a2 9f cb 3b 16 7f 89 3d
       -0.03781711 0.018890211 0.006214098 0.06713693
000010 ae b2 45 3d d4 ff 0b bd 4b 00 11 3d 90 e4 2f bd
       0.048266105 -0.034179524 0.03540067 -0.042942584
000020 2f 42 38 bc b3 7d 16 3d 43 10 af bc 6d 84 78 3d
       -0.011246248 0.03674097 -0.021370059 0.060673166
000030 df 4a fd 3c de 89 df 3b 3b dd 99 3c d2 8d 92 bc
       0.03091949 0.006821855 0.018782249 -0.01788989
000040 08 7f 0b 3c 40 e0 87 3c 44 91 d8 3b 93 95 94 3b
       0.008514173 0.016586423 0.006609114 0.004534432
000050 f5 9d 0f 3d 80 72 72 3d dd a9 7e bc c4 6d 05 3d
       0.03506275 0.059191227 -0.015543428 0.032575384
000060 83 6b 24 3d b6 a0 f3 bb 44 fb ac bc 71 0f 94 3c
       0.040141594 -0.0074349297 -0.021115907 0.01807377
000070 f0 89 78 3d 3e c4 1f bd c6 8c 04 bc 87 61 51 3d
       0.060678422 -0.03900551 -0.008090204 0.0511184
000080 1f bc dc bc 36 a1 39 bd 3e f6 98 bb 6b ee 34 3d
       -0.026945172 -0.04531976 -0.004668026 0.044172686
000090 46 d8 1f 3d 8d 6f 54 3d b6 b3 0a 39 68 73 e9 bc
       0.039024614 0.051864196 0.00013227653 -0.028497413
0000a0 07 f5 e5 bc 8f 91 8d 3d a9 fa 24 3c 87 94 21 3d
       -0.02807094 0.06912529 0.010069528 0.039448287
0000b0 15 04 86 bc 06 52 cf bc 6d 97 2e 3c ab 72 47 bc
       -0.016359368 -0.025307667 0.01065622 -0.012173335
0000c0 bc ff 67 3c f4 c9 cc 3b b0 3c 4b bd 01 99 04 bd
       0.014160093 0.0062496606 -0.049618423 -0.03237248
0000d0 13 85 82 3b 0b 57 0f 3c 83 6e b4 bc 30 da a9 3d
       0.003983149 0.00874878 -0.022025352 0.08293569
0000e0 d2 32 2e bd 64 47 04 bd 26 ef f3 3c f8 9a 5f bd
       -0.042528935 -0.032294646 0.02977712 -0.05459115
0000f0 70 70 cc bc 74 f9 f7 3c 64 3a 5c bd 7c 31 be 3c
       -0.024955958 0.030270316 -0.053766623 0.023216955

features.module.9.running_var f4 [64]
000000 1f 78 fa 3b 19 06 82 3b ce f0 14 3c 32 a3 2a 3c
       0.007643714 0.003968012 0.009090615 0.010414885
000010 a9 9c 44 3c 9c 20 2d 3c f8 ac 54 3c 53 4a 7f 3b
       0.012000241 0.010566857 0.012980692 0.0038954213
000020 6c 31 89 3b f6 e3 63 3b 73 2e db 3b b2 58 1f 3c
       0.0041867997 0.0034773326 0.006688887 0.009725736
000030 aa 8b 69 3b a3 5a 27 3c d1 48 f8 3b 71 36 53 3c
       0.0035636225 0.010214481 0.0075770398 0.012891398
000040 55 55 85 3c e1 ba 48 3c bd da 18 3c 0f 99 81 3b
       0.016276041 0.012251587 0.009329495 0.0039550136
000050 35 33 96 3b 94 20 92 3b 47 ab 84 3b 6a c7 da 3b
       0.004583741 0.00445945 0.004048738 0.006676604
000060 17 8c 8c 3b 8b 59 b1 3b 14 8f 33 3c 4e 64 34 3c
       0.004289161 0.0054122857 0.010959405 0.011010243
000070 4a bc 38 3c bf d6 53 3b ce 4b 5b 3c 7e e6 0e 3c
       0.01127536 0.0032324044 0.013384772 0.008721946
000080 21 bb a5 3b 91 37 2d 3c b2 d4 40 3c be 3d d1 3b
       0.005057708 0.01057233 0.0117694605 0.006385534
000090 d7 88 ad 3b 28 b9 e2 3b 64 ec ec 3b 4c 2c c5 3b
       0.0052958536 0.006919045 0.0072303284 0.0060172435
0000a0 da be 53 3c 99 ab fb 3b 93 f6 09 3c 00 d7 1b 3c
       0.0129239205 0.007680368 0.008420604 0.009511709
0000b0 66 1d c3 3b e2 e0 15 3c 32 37 ee 3b 89 c3 bc 3b
       0.0059544323 0.0091478545 0.0072697634 0.0057606143
0000c0 fe b7 d4 3b b7 15 17 3c 88 5f da 3b 60 e5 f6 3b
       0.00649166 0.009221486 0.0066642202 0.007534668
0000d0 a0 92 93 3b cc 1a 09 3c f8 d7 06 3c fc f2 00 3c
       0.004503563 0.008368205 0.008230202 0.007870432
0000e0 d2 af f5 3b 41 36 01 3c 9e 7f 5f 3c 59 ab 16 3c
       0.007497766 0.00788647 0.013641266 0.009196126
0000f0 17 10 20 3c 68 f2 ec 3b 42 ff 1c 3c 0d 86 6a 3b
       0.009769461 0.0072310455 0.009582343 0.0035785467

top_layer.weight f4 [10, 64]
000000 37 df 27 bd da 44 ff 3e 23 df 9d bd fd bb e8 bb
       -0.04098436 0.49857217 -0.077085756 -0.007102488
000010 22 ca 60 bd 1c 75 16 bd 05 15 cd bd 9e f5 f3 3e
       -0.05488027 -0.036732778 -0.10013775 0.4764833
000020 32 6c eb bd 68 33 8c 3e e0 e2 a9 3e 2a ce 8a bd
       -0.11495246 0.2738297 0.33180904 -0.06777604
000030 35 50 8d 3e 15 0e 91 bb 1b be ae bd 67 48 8a bd
       0.27600256 -0.0044267275 -0.085323535 -0.06752091
000040 5a 94 f2 bc 40 be 6c bd 0a 21 4d bc 00 a2 81 35
       -0.029611755 -0.057798624 -0.012520084 9.658397e-07
000050 10 2d 76 bd ab e0 0a 3f d4 e7 f7 bc 53 f8 2b bc
       -0.06010157 0.54249066 -0.030261911 -0.010496217
000060 cf 86 c5 bd 87 bb 4f 3c a8 ac 99 bd e6 58 17 bd
       -0.09644853 0.012678987 -0.07503635 -0.036950015
000070 cf 0b aa bd 9f 4d e5 3e 73 48 e9 bd 83 9e 6e bd
       -0.083030336 0.44785783 -0.11390772 -0.058256637
000080 1a 1a 5d bd 4d d1 e3 bd 34 35 34 bd 46 e0 8e bd
       -0.05397997 -0.11123905 -0.04399605 -0.069763705
000090 d1 6d 2e bd ca 8e ae 3e ce 55 2d bd 6d 2f 46 bd
       -0.042585198 0.34093314 -0.042318158 -0.048385072
0000a0 13 d0 f5 bc 9e 38 c1 ba ad 37 98 bd c3 f7 cd bd
       -0.030006444 -0.0014741605 -0.07432494 -0.100570224
0000b0 c1 49 53 3e b7 ee d8 3d 92 5d 4d bd 35 41 89 bd
       0.20633604 0.10592406 -0.050138064 -0.067018904
0000c0 22 d8 40 bd 2a c8 ac bd 0f 64 a5 bd d0 11 07 be
       -0.04708112 -0.08436616 -0.08075725 -0.13190389
0000d0 ae e7 98 bb 0a eb af bd 2c b8 54 bd f3 11 de 3c
       -0.0046662902 -0.08589752 -0.051933452 0.027108168
0000e0 b1 b6 bc bd 58 8e 3b bd eb 73 6c bd 9d 50 86 3c
       -0.09214533 -0.045790046 -0.057727735 0.016395861
0000f0 7c 04 cd bd 68 05 c7 3d 49 4a 05 be 75 f4 9d 3e
       -0.10010621 0.09717828 -0.13016619 0.30850568
000100 19 a3 87 bc d1 24 9d 3a 9a 12 74 bd 0c a7 bf bd
       -0.016557263 0.0011989122 -0.059588052 -0.093580335
000110 64 2c 8b bd 42 1a ba bd 4e d9 76 3c 47 f8 d4 bd
       -0.06795576 -0.090870395 0.015066458 -0.10398918
000120 b9 a7 24 bd 27 69 66 3e eb 80 2e bd 81 54 22 bd
       -0.040199015 0.2250105 -0.042603415 -0.03963137
000130 37 45 32 3e 44 bc f7 bd 17 69 14 3c 0c 13 63 3d
       0.17409216 -0.12096456 0.0090582585 0.055438086
000140 06 db 63 bd b9 a2 94 bd 94 6e b3 bd 43 34 96 bd
       -0.0556288 -0.072575994 -0.087613255 -0.07334187
000150 dc 7c 63 bd b5 59 b7 bd e8 0e f6 bb 5f df 24 bd
       -0.055538997 -0.08952657 -0.007509101 -0.040252086
000160 38 22 d4 bb 37 17 8d bd d0 ce f0 3e 86 17 db 3e
       -0.0064738058 -0.068891935 0.47032785 0.42791384
000170 7a 42 fc 3e c1 a1 99 bd cb 69 09 3f cc 1c 2a bd
       0.49269468 -0.07501555 0.5367705 -0.04153137
000180 4c 99 98 3b fe 1a 8b bd 07 c9 2c bd a0 3b 02 be
       0.0046569463 -0.06792258 -0.042183902 -0.12718058
000190 29 76 e1 bd d0 ea 7f bd 44 7c 05 bc ab 0a 6f bd
       -0.110088654 -0.062479794 -0.008147303 -0.058359783
0001a0 4d 3d 9a bd 7e 4d b9 bd 24 7a e2 bd 65 40 c1 3e
       -0.075312234 -0.090479836 -0.11058453 0.37744442
0001b0 67 7b ae bd ad 5b ce 3e f6 bb 49 bd c6 51 92 bd
       -0.08519631 0.40304318 -0.04925152 -0.07144503
0001c0 99 dd a4 bc 38 7e 39 bd 83 d7 24 be 66 b6 43 bd
       -0.020125197 -0.045286387 -0.16097836 -0.04778137
0001d0 c3 9e 55 bd 4e 68 25 3c e7 59 8d 3d c3 35 4b bd
       -0.05215336 0.010095669 0.06901913 -0.049611818
0001e0 b4 00 60 bd 20 6e 8a 3e 98 69 f5 bd 4e c5 5f bd
       -0.05468817 0.27037144 -0.11983031 -0.054631524
0001f0 11 4e 38 bd 90 4b d2 bd d2 74 70 bd a0 76 08 3e
       -0.044996325 -0.10268319 -0.05870516 0.13326502
000200 82 61 80 ba 4b 81 1a bc ec b5 21 3f 34 c0 71 bd
       -0.0009794685 -0.00943024 0.63168216 -0.05902119
000210 c4 f7 cf 3d 4e c0 7a bd bb b0 25 bd 02 6d 26 3d
       0.101546794 -0.061218552 -0.040451746 0.0406313
000220 dd 68 e3 bd 3d 3e 77 bc 80 f9 ed 3c 76 ea d3 bd
       -0.111039855 -0.015090522 0.029049635 -0.10347454
000230 95 88 15 3e e4 95 86 ba dc fc 96 bd 11 3d a6 bd
       0.14602883 -0.001026806 -0.07372448 -0.08117116
000240 77 a8 7f bd b9 85 19 bd 2d 72 49 be 4d a0 e2 bd
       -0.06241652 -0.037481043 -0.19672461 -0.11065731
000250 28 bc 2a bd 4a 07 f7 3c 5e ed d1 bb 91 40 b1 bc
       -0.041683346 0.030154843 -0.00640647 -0.021637233
000260 02 97 43 3d 6e f0 9c 3d 7b 42 35 bd 13 1f 6b bd
       0.047751434 0.07663046 -0.044252854 -0.05740268
000270 5f 73 8a bd ae f3 ca 3c 7a 44 81 bd 0d a5 c0 bd
       -0.067602865 0.024774399 -0.06311889 -0.09406481
000280 2b 9e 8c 3c 39 36 ae 3e b2 2f d2 3c 48 f0 44 bc
       0.017165264 0.34025744 0.025657509 -0.012020178
000290 33 f6 20 be bc 21 67 bc f2 ab e2 bc a8 94 f6 3e
       -0.15718918 -0.014107164 -0.02766988 0.4816029
0002a0 40 71 c6 bc a1 9c 19 be 7f 4c 1d 3d c0 91 87 bd
       -0.024223924 -0.15001155 0.03840303 -0.066195965
0002b0 04 67 5c 3d 28 28 59 bd 74 b1 07 3f 93 47 f3 3d
       0.05380918 -0.05301681 0.53005147 0.11878886
0002c0 4e 98 92 bd c8 80 b8 bd 1a 2d 7e bd 56 1e 07 3f
       -0.07157956 -0.09008938 -0.06205473 0.52780664
0002d0 65 77 da bd 3a 7a 99 bc 68 ec 40 bd b8 09 19 be
       -0.10667304 -0.01873504 -0.047100455 -0.14945114
0002e0 03 88 bc bd c7 92 7f bd fd f8 9f bd f1 0c bf 3c
       -0.0920563 -0.062395837 -0.078111626 0.0233216
0002f0 39 19 b4 bd 6c 31 d7 3c 05 40 0c bd 62 39 67 bd
       -0.08793873 0.026268683 -0.03424074 -0.05645121
000300 68 0a 0e 3e 48 69 1c 3d 3b 4e 80 bd 2d 9b 02 be
       0.13871157 0.03818634 -0.06264921 -0.12754507
000310 b7 a1 1d be 1a 08 81 3d f6 8f 2b 3e db f8 91 bd
       -0.1539372 0.063003734 0.16754135 -0.071275435
000320 4d ed 40 bd 9c 4e f3 3b 5d 60 2d be e6 1b df 3e
       -0.047101308 0.0074251425 -0.16931291 0.43575972
000330 fb 47 44 3d 1f 27 3b be bd 6d 00 3e 1e 8d e8 3e
       0.04792021 -0.18276642 0.12541862 0.45420164
000340 54 79 4b be 24 88 1d be d0 88 46 3c 37 47 81 3b
       -0.19870502 -0.15383965 0.01211758 0.003945257
000350 4a 13 72 3e 6a 2b 09 bd d7 68 c6 bd b8 11 e9 bd
       0.2364017 -0.03348867 -0.09687965 -0.11380333
000360 41 6d 35 bd 3b 4c 4c 3d 4a 40 5e bd 99 c4 31 bd
       -0.044293646 0.049877387 -0.05426053 -0.04340038
000370 6e 49 87 bd d9 5c 4f 3c 70 33 c7 bd 1a 31 cf 3e
       -0.066058025 0.012656414 -0.09726608 0.4046715
000380 b8 4c d1 bd 6b 26 0a be 17 9f 2b be e8 bc 39 bd
       -0.10219711 -0.13491218 -0.16759907 -0.04534617
000390 79 ea 37 bd 48 23 20 bd e8 25 b7 bd 48 b8 11 3c
       -0.044901345 -0.039096147 -0.08942777 0.008894034
0003a0 a2 c5 24 bd 39 d8 12 3d 9e 58 ed bd 5c fb 00 bd
       -0.04022754 0.035850737 -0.11589168 -0.031489715
0003b0 be d1 22 be 54 76 1c bd 3e b4 34 3d 50 0a e8 bd
       -0.15900323 -0.038198784 0.044117205 -0.11330092
0003c0 59 e6 23 be 98 d6 c5 3e e3 8e 98 bd c0 d7 e0 3d
       -0.1600584 0.38640285 -0.074491285 0.10978651
0003d0 f1 d3 ed 3c 52 99 42 3e 34 b2 05 3e 00 df 1d 3d
       0.029031726 0.190038 0.1305626 0.038542747
0003e0 ed f7 be 3e 90 a7 d5 bd a6 6b 5c bc cc ea 36 be
       0.37298527 -0.10432351 -0.0134534 -0.17863005
0003f0 2b 1c e3 3e a5 7c 4c be fd b0 6c 3e 15 10 ed bc
       0.44357428 -0.19969423 0.2311439 -0.028938333

top_layer.bias f4 [10]
000000 09 02 f6 bb ce a4 0d bc 2f 36 95 bc e2 b2 8a 3b
       -0.007507567 -0.0086452495 -0.018214313 0.0042327503
000010 28 05 dd bb 71 38 13 3d 49 10 9e 3c 8a 57 f9 3a
       -0.0067449994 0.0359425 0.019294875 0.0019023281
000020 5e 61 47 ba 3b be 9f bc
       -0.00076057564 -0.019499889

momentum_buffer f4 [16, 1, 3, 3]
000000 40 65 31 bd 66 a3 98 bc 8e af f5 3b 1a a7 38 bd
       -0.04330945 -0.018632602 0.0074977344 -0.045081235
000010 98 b7 a2 bc 8e 4b 8e 3c 36 d3 f5 3b aa e9 55 3d
       -0.019862935 0.017370012 0.007501985 0.052224793
000020 da dc b9 3d 69 48 5d bd a9 b9 a4 3b ee 1c 6d 3c
       0.09075327 -0.054024134 0.005027015 0.014472229
000030 15 9b 82 bc 49 6d 26 3d 6a 6c 1e 3d 65 c1 0b bd
       -0.01594309 0.040631566 0.03867761 -0.034119982
000040 e0 50 56 bb 71 42 66 3c f4 94 56 3b f6 79 b4 bb
       -0.0032702014 0.014053927 0.0032742592 -0.005507703
000050 4c ca 8b bc 54 fd 1c 3b 11 b2 15 bc d2 2a 19 bd
       -0.017064236 0.0023954706 -0.009136693 -0.037394352
000060 4e b3 64 bb 6c 98 23 bd 30 59 11 bd 83 cc a4 bb
       -0.0034896913 -0.039940283 -0.035485446 -0.0050292625
000070 e2 5f fd bc 63 3e 06 bd 1a fc fa bc 65 59 8c bd
       -0.03092951 -0.03277434 -0.03063779 -0.06852988
000080 09 27 34 bd 04 b2 cb bc 0d 9b d4 bb a0 1f 7b bb
       -0.04398254 -0.024865158 -0.00648821 -0.003831841
000090 1c 54 8e 3c 8e 96 81 3c e9 be 2b bc ce 1d a0 bc
       0.01737409 0.01581886 -0.010482528 -0.019545462
0000a0 b1 0f 01 bd c8 bb 84 bd ea 8f 61 bd 86 d3 65 bd
       -0.031509105 -0.06481129 -0.055068888 -0.056109928
0000b0 62 24 91 bd 00 9c 28 3e a9 02 e5 3d dc c1 cc 3d
       -0.070870176 0.1646576 0.11182148 0.09997913
0000c0 10 2b 72 3c f3 83 37 3d 26 67 9f 3d 4e c3 9a 3c
       0.014780775 0.04480357 0.07783346 0.018891957
0000d0 aa c0 85 3c fe e3 d1 3c 22 88 7a 3d 87 a1 30 3c
       0.016327221 0.02562141 0.061164983 0.010780699
0000e0 2f 27 c3 3b 02 85 ec 3c ca 47 1b 3d d8 af 3c 3d
       0.005955599 0.028872017 0.03791026 0.046066135
0000f0 9c 40 05 3d 74 13 e7 3c c2 42 c0 3c 4d 44 6d bc
       0.03253232 0.028207518 0.023469333 -0.014481616
000100 78 23 a8 3c 35 21 fa 3b a8 62 ea bb e9 c5 8e 3c
       0.020524725 0.007633353 -0.007152874 0.017428355
000110 c4 eb 96 3c 8b 40 91 bc 21 3e 33 3c f0 20 02 3d
       0.018422969 -0.017730972 0.010940106 0.031769693
000120 1c c5 ac bc 38 e1 13 bd 90 d2 e9 bc 76 4f 38 bd
       -0.021090083 -0.036103457 -0.028542787 -0.044997655
000130 b4 90 19 bd e2 f9 36 bd be 62 e2 bd ec df be bd
       -0.037491515 -0.0446719 -0.1105399 -0.093200535
000140 50 5f 59 bd 96 8f cd bc 7e 55 24 bd 0b d4 3b bd
       -0.053069413 -0.025092881 -0.040120594 -0.045856517
000150 fa d3 a5 bc c6 f7 28 bd a0 9a 51 bc d5 b6 46 bc
       -0.02024268 -0.04125192 -0.012793213 -0.0121285515
000160 65 9f 08 bc c0 f3 60 3c 8c 17 8b 3c 2e e7 05 3c
       -0.008338784 0.0137299895 0.016979001 0.008172793
000170 80 f8 14 bc bc 0c 27 bc c9 7c 71 bc d9 d5 91 bc
       -0.00909245 -0.010195907 -0.014739224 -0.017802166
000180 ca 3b 79 bc c0 c9 b0 bc 9e b0 83 bb 5c 22 d4 ba
       -0.015212009 -0.021580577 -0.004018857 -0.0016184556
000190 00 6b 41 bc 7c 40 5e bc b2 8c 3e 3c ef d9 b1 3c
       -0.011805296 -0.013565179 0.011630224 0.021710364
0001a0 2b 45 15 3c 24 c6 30 3b 0e ca 89 bb fa 28 db ba
       0.009110729 0.002697357 -0.004204995 -0.0016720586
0001b0 55 e8 20 bd a4 e8 69 bd a5 cd 64 bd a8 7e d5 ba
       -0.03928407 -0.05710663 -0.05586018 -0.0016288357
0001c0 30 a6 07 3b 6d 3b 09 3c c2 f8 ce 3c 3a 32 3f 3d
       0.002069842 0.008375985 0.025265101 0.04667876
0001d0 db 9a 9a 3d 49 d2 09 bd f6 f2 b2 bd f0 40 59 bd
       0.075490676 -0.03364781 -0.08737747 -0.053040445
0001e0 cf 5e c5 bd d4 a5 04 be b0 9c 9f bd 08 d7 33 be
       -0.09637224 -0.12953883 -0.07793558 -0.17562497
0001f0 af 80 c4 bd 96 b8 a2 bc 1d 7f 3c 3d ca 93 04 bc
       -0.09594857 -0.019863408 0.046019662 -0.008091876
000200 08 3e 30 bd 4f 70 85 bd ae 03 46 bd 55 24 84 bc
       -0.043027908 -0.06515562 -0.048343353 -0.016130606
000210 50 e8 93 bd 73 78 c4 bc 58 e2 5a 3b 18 f9 8c bb
       -0.072220445 -0.023983216 0.0033399072 -0.004302155
000220 48 57 d5 ba 94 44 1c bc 4a 21 dc 3b fb 71 27 bc
       -0.0016276622 -0.009537835 0.0067178356 -0.010220046
000230 14 49 fc bc ab 94 9e bc 06 db 89 bc de 16 38 3b
       -0.030796565 -0.019358 -0.016828071 0.0028089802

momentum_buffer f4 [16]
000000 82 d9 ba b6 70 61 e2 36 b8 78 8c 37 1a 54 db 37
       -5.568553e-06 6.746668e-06 1.6745515e-05 2.6145997e-05
000010 fb 97 f7 37 70 b0 d7 b7 b4 e4 08 37 05 cc 69 b7
       2.9515466e-05 -2.5712157e-05 8.159481e-06 -1.3935384e-05
000020 0a 11 6f b6 14 71 cb b7 86 86 f6 37 39 01 c8 b7
       -3.5623693e-06 -2.4252142e-05 2.9388128e-05 -2.3842427e-05
000030 74 43 91 37 49 b0 3e 37 f3 50 30 37 ce f5 92 b7
       1.7316757e-05 1.1365927e-05 1.0509265e-05 -1.7519018e-05

momentum_buffer f4 [16]
000000 e8 bb 0b 3e a5 5f 30 3d 00 0a 42 39 2e 0a 05 bc
       0.136459 0.043059964 0.00018505007 -0.008120103
000010 f3 19 19 3e b0 9b 31 3d 41 e7 bb 3d 1e f0 e9 3c
       0.14951305 0.043361366 0.091749676 0.02855688
000020 4c 01 48 bd 3e 59 8c 3c d1 63 03 be f6 0c 05 3d
       -0.04882936 0.017132398 -0.12831046 0.032483064
000030 fc 1b c2 bb 46 f6 70 bd e1 d7 61 bc 42 3f 01 bd
       -0.005923746 -0.058828615 -0.01378438 -0.031554468

momentum_buffer f4 [16]
000000 dc 2d c8 3d 4d 7e d4 3c 48 21 d9 bb f6 7f 34 bd
       0.09774372 0.025939131 -0.006626282 -0.044067346
000010 a9 4e 95 3d 70 42 28 3d 07 a0 00 3d 2f 49 b8 3c
       0.07290394 0.041078985 0.031402614 0.022495834
000020 ed c9 27 bd 94 d9 79 3c e8 91 fe bd 37 8f 6f 3d
       -0.040964056 0.015249629 -0.12430173 0.05848619
000030 d0 ff 83 bc 31 52 8a bd e3 c5 d3 3c ed 63 5c bd
       -0.016113192 -0.06753958 0.025851196 -0.053806234
