deepcluster_implementation/experiments/run_label_fraction_variation/config_3/checkpoints/checkpoint_epoch_13.pth.tar (torch, 203741 bytes, 32 tensors)

features.module.0.weight f4 [16, 1, 3, 3]
00000000: 03b5 3f3f 5c5e 31bd 6ccb 7ebf c131 4abf
00000010: 7ca5 8f3f 8ffe 09be 6a37 58bf 20b1 013e
00000020: 8ff7 7a3e 5315 e33d 9e35 003f df7e 643f
00000030: 9545 19bf 56d7 66bf d578 91bd 2b1e d53d
00000040: ddd3 343f c9be 273f 414e 18bf f9a4 fdbe
00000050: 4538 22bf 13a5 aebe 9939 b13e ac70 903e
00000060: 526b 85bf e810 22be d27f d03e 95e2 adbf
00000070: 6dce 11be 19a6 77bf 561c 083e 7752 d93e
00000080: a441 103d 4251 f13e f5c4 4cbe 629e f83e
00000090: 136b 893f 131a 693e 74db 503f 8eb9 0abe
000000a0: 815c 4cbf 8b5c 783e c0cc a9bd a3d0 3cbf
000000b0: 4730 873f 359b ed3d dd90 643e eb6c b5bd
000000c0: be4c c3be 235b 553f 3e3e 44bf 47bb 9cbf
000000d0: 454b 0fbf 120e 76bf d080 f43e c03d 223e
000000e0: 9016 173f 92a1 27bc 34dd ae3d a50c b13e
000000f0: 027f 7dbf d127 21bd 28ea 87bf 0eca 603f
00000100: 89e8 2bbe 4838 4fbf 95e5 083f 3052 37be
00000110: a655 b9be 196c b33e fc6b 973e 34d0 a93f
00000120: 8506 6bbf fde9 39bf a450 0ebf 7d43 d03d
00000130: 1408 3a3e 0b0e 80bf bc28 3a3f fc70 9b3e
00000140: 1a53 56be 2d3a 38bf b635 663d 972d cb3e
00000150: ac4a 4bbf 2c43 f33e c2fc 053f 5c50 3abf
00000160: 8fc6 4bbf 6acd 333e f660 3c3d bb31 6bbd
00000170: c2bb 2dbf 5195 bdbd eb5a 3dbc b5ed 86be
00000180: 394d 783f df7c 623e ecaf 99bf 4c61 68bf
00000190: 24b5 06bd 5ffa 3e3e c9d2 13bb 2fa5 87be
000001a0: 2b9d d23e e699 f9be 181d 45be 8d0b 7dbf
000001b0: 78b3 5bbf a495 ff3e 0e21 eb3e 0b23 823c
000001c0: 1131 41bf 3fa7 7abf 338b d1be cc52 f1bd
000001d0: 4db7 193f 7b53 e6be 1c37 dcbe 636b 4abf
000001e0: 910a 4f3e e84d bd3e 6b86 44be 1f2b ac3e
000001f0: 1c80 a53d 0139 a2bf 571e 9fbe 520f 9fbe
00000200: e041 b2be a0fd 353f b8c4 fd3e 8cf5 813f
00000210: bae3 a2bf 76be 8fbe b7c0 4bbf abdf 2cbf
00000220: 3796 17bf 6001 09bf a39c 16bf 6ffa fd3e
00000230: 446e 03be 9a74 2cbf 6ca9 863f f258 24bf
0.74885577 -0.04330288 -0.9952915 -0.7898217 1.1222377 -0.13476013 -0.84459555 0.12665224
0.24508499 0.11088052 0.50081813 0.8925609 -0.598718 -0.90172327 -0.07103125 0.10406145
0.7063578 0.6552549 -0.59494406 -0.49539927 -0.6336711 -0.34110317 0.34614256 0.28210962
-1.0423377 -0.15826762 0.4072252 -1.3584772 -0.14238901 -0.9673782 0.1329206 0.42445728
0.03521885 0.47132307 -0.19997008 0.48558336 1.0735801 0.22763853 0.8158486 -0.13547346
-0.7982865 0.24254052 -0.08291006 -0.73755854 1.0561608 0.11601869 0.22320886 -0.08858665
-0.38144487 0.8334219 -0.76657474 -1.2244653 -0.5597423 -0.9611522 0.47754526 0.15843868
0.590188 -0.010231392 0.08538285 0.3457996 -0.99021924 -0.039344613 -1.0618334 0.8780831
-0.16787924 -0.80945253 0.53475314 -0.17902446 -0.36198157 0.3504341 0.29574573 1.3266664
-0.91806823 -0.7262266 -0.555918 0.10169122 0.18167144 -1.0004286 0.72718406 0.30359638
-0.20930138 -0.7196377 0.056203566 0.3968322 -0.79410815 0.47512186 0.523388 -0.7277887
-0.7959985 0.17558828 0.045990907 -0.057420474 -0.6786462 -0.092569955 -0.011557321 -0.2635323
0.9699283 0.22117947 -1.2006812 -0.90773463 -0.032887593 0.18650196 -0.0022556058 -0.26493213
0.41135535 -0.48750228 -0.1924938 -0.9884575 -0.8582072 0.49918854 0.45923656 0.01588585
-0.75465494 -0.9791145 -0.40926513 -0.117833704 0.6004532 -0.44985566 -0.43010795 -0.7907011
0.20218875 0.369735 -0.19191901 0.3362665 0.080810755 -1.2673646 -0.31077835 -0.31066376
-0.34815884 0.71090126 0.49564147 1.015306 -1.2725747 -0.28074998 -0.79590935 -0.6752879
-0.59213585 -0.53517723 -0.5883276 0.49605128 -0.12835032 -0.6736542 1.0520453 -0.6419822

features.module.0.bias f4 [16]
00000000: c66d 60bd 69bb 873d 14c0 273e e129 833e
00000010: 6afe 933e a4d3 80be 358c a33d 40c3 0bbe
00000020: d66d 0ebd 1a36 73be 21fa 933e 247c 6ebe
00000030: 97a9 2d3e 3064 e43d 502d d33d 82ac 2fbe
-0.054792188 0.066275425 0.16381866 0.2561789 0.2890504 -0.2516147 0.07985727 -0.136487
-0.034772716 -0.23751107 0.2890177 -0.23289543 0.16959225 0.11151922 0.10311377 -0.1715565

features.module.1.weight f4 [16]
00000000: bf8d 163f 5e19 6e3f 9634 eb3f 9054 2f3f
00000010: eb9a 6c3f c53a 0940 78c9 193f 98d4 813f
00000020: a143 aa3f e0eb 743f d6a1 563f a233 1440
00000030: f753 cb3f 8625 fb3f a8ba 093f 1317 0940
0.5881004 0.9300746 1.8375423 0.6848841 0.92423886 2.144212 0.6007304 1.0143003
1.3301889 0.95672417 0.8384069 2.3156514 1.5884999 1.9620826 0.5380044 2.1420333

features.module.1.bias f4 [16]
00000000: 6b00 5abe b646 e0bf 5093 25bf a59e f0bd
00000010: 3058 c8bf 9aad 54bf 2b8c b6be 9896 00c0
00000020: 1ccc d9be 5143 d5be f9bc a4be e8c1 74bf
00000030: ae3e 40bf ca01 1ebf 071b 05bc 6e3d 3cbf
-0.21289222 -1.7521579 -0.64677906 -0.11749009 -1.5651913 -0.83077395 -0.35653815 -2.0091915
-0.42538536 -0.4165292 -0.32175425 -0.9560838 -0.7509564 -0.6172148 -0.00812412 -0.73531234

features.module.1.running_mean f4 [16]
00000000: 6440 c0bd 837a fe3d 55a5 ce3d b72d 5c3e
00000010: 89ed ba3e 313d aabe 48a1 6f3d 501f acbd
00000020: 1b3a a4bd 382d 8dbe 4a23 873e 842a 95be
00000030: 68c2 203e a8a7 383d aeaa 253d 4819 7cbe
-0.093872815 0.12425711 0.10090128 0.21501814 0.3650935 -0.3324981 0.05850342 -0.0840441
-0.08018895 -0.27573562 0.2639411 -0.29134 0.1569916 0.045081764 0.040445976 -0.24619019

features.module.1.running_var f4 [16]
00000000: fd63 653f b249 f43f 678b 8940 8e02 1b40
00000010: 4d61 1b40 3685 c340 aadf ea3f 8175 5140
00000020: efe8 9340 1894 4a40 e33f 1240 0718 5840
00000030: a8f8 1340 081d 6940 4e55 b33f 842e 6c40
0.89605695 1.908499 4.298267 2.422031 2.4278138 6.110011 1.8349507 3.2727969
4.6221843 3.165289 2.2851493 3.3764665 2.3120518 3.642397 1.4010408 3.690339

features.module.4.weight f4 [32, 16, 3, 3]
00000000: f619 86be bf8f 98be 91cd b7be 2df2 65be
00000010: 03de d83d f6cc 183d 6e92 5a3e 6d71 153e
00000020: 1751 a43e 8e47 07bd 41e0 5dbd a4ec 05bd
00000030: 771e aebd 843a 39bd 6fb9 c7bd f0b2 48bd
00000040: 67bb 95bc 0d96 71bd 83c1 423d 5118 573e
00000050: bf88 b8bd 8ab4 a9bd 1812 26bd ae34 d9bd
00000060: e082 04be 62a5 62bd 8d68 5e3e e6d2 3c3e
00000070: 7bdd 403d 09ea 14bf 0151 ebbd 03dc b1be
00000080: 1788 a5bd 73bd eebe 6881 6ebe 4fa1 c13d
00000090: 8c09 72be 5cbb a4bd 5b0e 1f3d ccf2 4e3b
000000a0: 5274 8e3d cbd6 4bbe c23c 173e 028d 7d3d
000000b0: 3220 4f3d bd92 42be 053f 4a3d 6943 063e
000000c0: cb0d 5ebe 5ac1 363c 38b0 09bd 7746 bcbe
000000d0: 0c98 75be 2535 03bf 256b 7abe 92db c8bd
000000e0: 17a1 343e f8c0 1ebe e479 d8bc 3582 a8bd
000000f0: fbb6 e3bd 240e 9ebd 9ee4 f0be efa6 353e
00000100: bf83 6dbe 4ba4 c9be b187 a83d d7c4 a7bc
00000110: ea75 8dbc 0541 83bd 5983 a9bd 219b 953e
00000120: ee0b 90be 42fa e4be d433 09bf a1be 0abe
00000130: c4e9 6abd 5485 d03d b10d 10be f907 30bd
00000140: 87c5 813e bc31 1cbd 5b29 9abc 3e41 a83d
00000150: 3f75 03bd 6ee2 46bd 2e4c 1e3d f909 453e
00000160: 3e63 edbc 01fc 823e 2d7b 12bd 82fc abbd
00000170: ac45 18be 0a6f 6ebd bf6f d2bc 6389 8cbc
00000180: 7b89 7f3e 86b0 673d a08a 093e 4d25 dbbd
00000190: 101b 1bbe 6868 223e 6368 273d c94a adbd
000001a0: f825 82bd 99bf 363e 9785 973d f08d 92be
000001b0: 1241 28be 8409 47be a2d9 1a3e ff87 85be
000001c0: ec00 77be bd03 2bbd 39ea 1abe 85cd 10bb
000001d0: ae36 96bc 02f9 32be 970e 83be 96f6 08bf
000001e0: 9861 bdbd 96ef d13d 2a87 46bc a15e 9cbc
000001f0: cf4a 88bd ce54 e33d 450b f73d 56ac 283e
00000200: 9166 b33c eed0 6a3d 5e0a 0b3e 2e60 89be
00000210: 324d 7f3e 80cb 1c3c c7c5 9cbe cc8b 0e3d
00000220: 832e 103d d495 9bbc cf9c 42bd 7812 2a3d
00000230: 8694 01be 931f 21be f385 c9bd c6ea 2dbe
00000240: 4257 2f3d 1ed0 533e a0c0 6d3e 6fb1 93bd
00000250: b34c 3dbd 5044 92bd c799 85be 6778 0b3d
00000260: 66cb 293d 6f65 d9bd 3df4 24be 4be3 b0be
00000270: a89c 9a3b d3ec 813c 267f 86be 35f3 773d
00000280: 4177 d2bd 2581 eebd 71b8 a03d 9cfb 23bc
00000290: c4bd 2fbe 583f 073e a83a f13a 9a45 363d
000002a0: 0f7c 84bd 99ce d4bd bc0d b73c 91a3 6b3e
000002b0: f760 923d 3b1d 05bd a8f4 fa3c 8ff4 bbbd
000002c0: 4e10 17be 4cd6 503c fc36 74bd dc19 16be
000002d0: 76ff 81be c0b7 aabd 63ab 5cbe 656f 3dbe
000002e0: 0e70 f4bd 47ff 58be 300b 90be 7a20 4cbe
000002f0: 45e1 a5be 6b90 d2bc 8ec9 853c ec96 543d
00000300: 6f25 1abe 1b40 7e3b b9b6 1b3c 507e d0be
00000310: 2b54 9e3d b513 bd3d 9abe 05bd ed77 0e3e
00000320: 7ee3 08bd 385c 71be 8c0d 0ebd 12b6 55be
00000330: 3e00 9bbe c939 c0bc fe71 19be 46f6 ccbe
00000340: 5535 61be ed02 acbe 2743 97be 5749 153c
00000350: 4df9 2ebe abdf 8dbe 0675 19be ed6f 87be
00000360: 927a ad3c acc9 a93d e10f be3d 069a 1b3d
00000370: a7cc fdbc 44ce 95bd 0d9d b8bd 05a9 b8bd
00000380: e61c e2bc 5419 dfbb 7f36 5dbd 5009 45bd
00000390: 4019 f1bc bf3c 69bc caba fcbd 9eca 8abd
000003a0: 32b6 68bb a1d4 38bd f754 0a3b 3fdd 263d
000003b0: ed65 053e 07e7 ff3c b25a 29bc 41c9 873d
000003c0: fdd8 113c 9478 d6bd 4d72 4a3d bd2d 4e3d
000003d0: fb77 55bd c269 ad3c fee6 d1bb a47f 77bd
000003e0: 06ec 4c3d 50ab 81be 3728 13be a494 92bc
000003f0: 2226 d53d 8dc9 b43d 1d73 5f3e 902d 38be
-0.26191682 -0.2979717 -0.35899022 -0.22455664 0.105892204 0.03730484 0.21344921 0.1459405
0.32093117 -0.033027224 -0.054168943 -0.03269638 -0.085019045 -0.04522182 -0.097521655 -0.048998773
-0.018277837 -0.05898099 0.04754783 0.2100537 -0.09010457 -0.08286388 -0.0405446 -0.10605751
-0.1294055 -0.055333503 0.2171957 0.18439826 0.04708622 -0.5816961 -0.1149006 -0.34738168
-0.08082598 -0.46628913 -0.23291552 0.09454595 -0.23636454 -0.080435485 0.03883205 0.0031577824
0.0695578 -0.19906156 0.14769271 0.061902054 0.050567813 -0.19001289 0.049376506 0.13111652
-0.21684949 0.011154497 -0.03361532 -0.3677251 -0.23983783 -0.5125297 -0.24454935 -0.09807505
0.17639576 -0.15503299 -0.02642531 -0.0822796 -0.11118885 -0.07717541 -0.4704942 0.17739461
-0.23194788 -0.39383158 0.08229006 -0.020479603 -0.01726814 -0.06408886 -0.08277006 0.29219916
-0.28134102 -0.44722182 -0.5359471 -0.13549282 -0.057351843 0.1018168 -0.14067723 -0.042976353
0.25346014 -0.038133368 -0.018818548 0.08215569 -0.032094236 -0.048555784 0.03864687 0.19242086
-0.028977986 0.2558289 -0.035762 -0.083977714 -0.14870328 -0.058211364 -0.02568805 -0.017155355
0.24954788 0.05656483 0.13431787 -0.10700474 -0.15147042 0.1586014 0.040871035 -0.0846153
-0.06354898 0.17846526 0.07398527 -0.28623915 -0.16431072 -0.19437224 0.15122083 -0.2608032
-0.24121445 -0.041751612 -0.15128411 -0.0022095155 -0.01833662 -0.17477801 -0.2559707 -0.5350126
-0.0924713 0.102507755 -0.012117187 -0.019088091 -0.066548936 0.111001596 0.12062696 0.16471991
0.021899493 0.057328157 0.13578174 -0.26831192 0.24931791 0.009570003 -0.30619642 0.03480129
0.035200607 -0.018992342 -0.047512826 0.04152152 -0.12654313 -0.15734701 -0.09840002 -0.1698409
0.042807825 0.20684859 0.23218012 -0.07211577 -0.046215724 -0.07141936 -0.26093885 0.03405037
0.04145374 -0.1061505 -0.16108795 -0.3454841 0.004718382 0.015859997 -0.26268882 0.060534675
-0.10276652 -0.11645726 0.078476794 -0.010008719 -0.17162234 0.13207757 0.0018404322 0.04449997
-0.06468975 -0.10390968 0.022345416 0.23011614 0.07147401 -0.03249858 0.03063424 -0.09177505
-0.14752313 0.012746405 -0.05962275 -0.14658302 -0.25390214 -0.08335829 -0.21549754 -0.18499525
-0.11935435 -0.2119113 -0.28133535 -0.19934264 -0.3239843 -0.02570363 0.01633146 0.051901743
-0.15053342 0.0038795534 0.009504014 -0.4072137 0.077308975 0.092322744 -0.032652475 0.13912936
-0.03342008 -0.23570335 -0.034680888 -0.20870236 -0.30273622 -0.023465054 -0.14984891 -0.40031642
-0.21993001 -0.33595982 -0.2954342 0.009111724 -0.17087288 -0.27709708 -0.14986047 -0.2645258
0.02117661 0.08290419 0.092803724 0.037988685 -0.030981375 -0.07314733 -0.0901433 -0.09016613
-0.02760167 -0.0068084393 -0.05400705 -0.048104584 -0.029430985 -0.014235674 -0.12340315 -0.067769274
-0.0035508987 -0.045124654 0.0021107772 0.04073834 0.13027163 0.031238092 -0.010336565 0.06630183
0.008901832 -0.10472217 0.049425412 0.05033659 -0.052116375 0.021168593 -0.0064057102 -0.060424462
0.050029777 -0.25326014 -0.1437081 -0.017893143 0.10407664 0.08827505 0.21821256 -0.1798613

features.module.4.bias f4 [32]
00000000: 3ed6 a83c 1c10 233d 8188 94bd a79e 62bd
00000010: 42ec 9bbd 75ad 173d 94b0 733d ce19 9cbd
00000020: 8cf4 a83c 9fcb 833c e05e 2ebd f767 8c3c
00000030: 0f8d 7a3d 665b 9f3d ae83 0c3d 19dc 80bc
00000040: 61e1 38bd 6383 f7bc f53c 2a3a 39e5 bebb
00000050: 2d19 6d3d bbd3 92bd 5107 e83b fbb0 cebc
00000060: 60ce d83b fd3b 9c3d ac1e 183b 0a70 61bc
00000070: 1543 dcbc a221 a2bd 0331 93bd c993 0d3d
0.020609971 0.039810285 -0.072525986 -0.055327084 -0.07613422 0.037030656 0.05949457 -0.07622109
0.020624422 0.016088305 -0.04257095 0.017139418 0.06116968 0.07781105 0.034305267 -0.01572995
-0.045136813 -0.030214017 0.00064940687 -0.0058256653 0.057885338 -0.07169291 0.0070809503 -0.025230875
0.0066163987 0.07628629 0.0023211641 -0.013759622 -0.026887456 -0.07916571 -0.071870826 0.034564767

features.module.5.weight f4 [32]
00000000: 92a2 223f 4137 5c3f 08b5 383f 1e10 7d3f
00000010: d6d7 8c3f 8f55 9b3f cd26 623f 3b17 113f
00000020: 4d6f 223f e6c8 7e3f 67bd 323f a37d 2c3f
00000030: 39aa 3a3f ff30 e63e 9d80 1c3f e98a 473f
00000040: cf21 3f3f 7587 143f 8e52 423f 4c7f 853f
00000050: bf41 173f 01ed 803f f3c0 1d3f c066 483f
00000060: 4123 dd3e ad1f 423f 6d0c 0b3f 252b 0d3f
00000070: bb25 7d3f d6f2 a33f b4e7 3e3f 7fe1 973f
0.6352931 0.8602181 0.7215123 0.9885272 1.1003368 1.2135485 0.88340455 0.5667607
0.6345108 0.99525297 0.69820255 0.67379206 0.7291599 0.44959256 0.6113375 0.77946335
0.7466096 0.5801919 0.7590722 1.0429473 0.59084696 1.0072328 0.6162254 0.78281784
0.4319096 0.75829583 0.54315835 0.5514396 0.988857 1.2808483 0.745723 1.1865691

features.module.5.bias f4 [32]
00000000: ff17 79bf f723 4cbf 7bcf c4be 2e65 85bf
00000010: 61a2 6abf 7715 2cc0 3a20 dfbf b047 29bf
00000020: 8e5a 8ebe 56a8 05c0 bd13 53bf 802a 84bf
00000030: e79f 85bf c2d0 8bbe 55db 6dbf b6e3 adbf
00000040: 382e 45bf 4f08 0bbf 210e b4bf da49 3cbf
00000050: ced7 cdbe e0d9 47bf 38b6 ecbe d87b 9ebf
00000060: d8c5 c3be a5de 73bf 9c2a d4be ad51 23bf
00000070: 5eb3 53bf 4fc6 2cc0 6798 61bf c755 1cc0
-0.9730224 -0.7974238 -0.38439545 -1.0421503 -0.9165402 -2.68881 -1.743171 -0.6612501
-0.27803463 -2.0883994 -0.82451993 -1.032547 -1.0439423 -0.27307707 -0.929128 -1.3585117
-0.7702365 -0.5430955 -1.4066812 -0.7355019 -0.40203708 -0.78066826 -0.46232772 -1.2381544
-0.3823688 -0.95261604 -0.41438758 -0.637965 -0.8269557 -2.6996038 -0.8812317 -2.4427354

features.module.5.running_mean f4 [32]
00000000: 6eb8 96bf 6d04 0dbf e43e 4cbf 460c 47bf
00000010: 5546 7abf 0468 07c0 7553 12c0 addc 76bf
00000020: 3a11 dfbe eeae f9bf 8f69 edbf 79b9 c2bf
00000030: 1189 a9bf 4aa9 adbe 86fb 9abf a435 d5bf
00000040: 924f a3bf 2b89 b2bf 66c2 c9bf b3a5 6bbf
00000050: b619 11bf 4fe5 31bf d6f6 4bbf 4260 ecbf
00000060: dde1 26be a6da 99bf 15c9 2fbf 3f3d bdbe
00000070: a32d 32bf f4d2 1dc0 094e b0be bf38 05c0
-1.1775033 -0.5508488 -0.79783463 -0.777531 -0.9776357 -2.1157236 -2.2863438 -0.96430475
-0.4356783 -1.9506509 -1.8547839 -1.5212852 -1.3244954 -0.3391822 -1.2108009 -1.6656995
-1.2758658 -1.394811 -1.5762451 -0.9204971 -0.56679857 -0.6949052 -0.79673517 -1.8466876
-0.16297098 -1.2019851 -0.686662 -0.3696079 -0.69600886 -2.4660006 -0.34434536 -2.0815885

features.module.5.running_var f4 [32]
00000000: a590 093f 0c7d 4f3f 0801 b33e 3e9d 463f
00000010: 151b 803f c149 2a3f 964f 963f 54fb f23e
00000020: 18b5 363f f75f 1d3f 9ad2 8a3f 90bb 1a3f
00000030: e0e3 553f 46d1 213f f74f e73e faed 533f
00000040: d3ad 893f 8056 803f 446b 323f 996b de3f
00000050: a6a3 7d3f 4f5c ca3f bd69 733f ec83 713f
00000060: 0ba3 083f 933f 2c3f e9ea 0d3f af0a 213f
00000070: b4aa a73f 1d86 933f 225a ed3e 3b96 853f
0.53736335 0.8105018 0.34961724 0.7758368 1.0008265 0.6651879 1.1743038 0.47457373
0.7137008 0.61474556 1.084552 0.6044245 0.83550835 0.6320995 0.45178196 0.82785
1.0756172 1.0026398 0.69694924 1.7376586 0.9907783 1.580942 0.9508322 0.9434192
0.53373784 0.67284507 0.5543657 0.62906927 1.309897 1.1525303 0.46357828 1.0436472

features.module.8.weight f4 [64, 32, 3, 3]
00000000: 3ca2 c6bc 13f2 cfbc 40aa f6bc 0a7c 6ebc
00000010: caf4 8abc 59b7 a0bc 7acb 52bc 359d abbc
00000020: fe8b 1dbd cc39 973c 2fa8 663c 99c6 583b
00000030: 1d37 ed3c 893a 433c c226 ffbb 5ec3 bc3c
00000040: 4fa3 42bc 15ad 4cbd fde5 2cbc 5c9e f3bc
00000050: 56ef b0bb 6cc0 fcbc 86ff 26bd 0dba 82bc
00000060: cfc9 0dba 4f8d 42bc c07e 103c b5ca 6dbd
00000070: c48f 6fbd 5ffd 9cbd f492 10bd c8b3 f1bc
00000080: d0c3 23bd 9520 2abd 0e37 17bd 2828 61bd
00000090: 5f49 e8bb e62d 2fbc 3b7d babc 1cad dbbc
000000a0: 34fd 06bd a2d2 68bd da1e d3bc 82a9 c6bc
000000b0: 50eb 88bd 312a 20bd ca7d 09bd 53c5 25bd
000000c0: a50d 8cbc 27a7 dcbc 0b0a 2ebd cb1f c6bc
000000d0: 17c1 03bd 6911 37bd 354c 2ebd c9a6 84bc
000000e0: ccf4 11bc dcd4 75bc 54e8 303c bd65 493c
000000f0: c461 aebb 0a5e f03c b8f6 093d 25ea eabc
00000100: 9e61 debc d1a3 5cbd 9af2 f2bc b397 b9bc
00000110: 5b13 10bd 0a1e 6fbd c4c5 44bd 4a33 6abd
00000120: 08b1 02bd 0b54 63bd 75a7 36bd f551 40bc
00000130: fa19 f3bc d33d bdbc 913f e2bc 3d72 31bd
00000140: 4635 ddbc 451c d73c ab11 593d 50c8 913d
00000150: 17bc fabc 2f32 04bd 1872 c4bc 7b82 7dbc
00000160: fc89 ccbc 0ea1 d6bc 95e9 26bd 19b4 0abd
00000170: 81a7 2dbd d31d 2bbd 9899 e7bc 3740 f8bc
00000180: 4a24 30bd 710e 07bd b4ac b4bc 0d9d 8abd
00000190: e003 b1bc 5c30 cbbc 6f5b 12bd b84b acbc
000001a0: 5e48 10bd 0947 14bd 5b71 0fbd 9e32 34bd
000001b0: 52eb c43d 4ffe 363d bb70 903d dfd2 963d
000001c0: 113e 083d f17a 853d fdad ca3d 8235 853d
000001d0: e8c2 cd3d 58fd 3b3d ad14 003d e9e8 e73c
000001e0: 95e2 0b3d 41b9 343c 44ea 573c 1e72 203d
000001f0: bfe7 573c 0ac2 913c fb61 d03c 9751 863c
00000200: 6abd 903c a4b5 1c3c fed5 4fbb 44e5 b4ba
00000210: 0e91 323c 7ff6 88ba 2981 e3bb 170e dfbc
00000220: b934 77bc 0f89 7dbb df8f 09bd cec0 7cbc
00000230: df8e 65bc 3862 19bd 9111 d3bc 496d d6bc
00000240: 9c8b 6c3d f5cc 313d 5d93 9b3d 3199 383d
00000250: 4e04 d73c 3b4d 7a3d f6fa 323d bb4f 023d
00000260: 675d 9a3d 15b4 00bc 3d8c 3abc e1d5 cebb
00000270: f633 8abc 700c 99bc ef3d a1bc 4bdd 03bd
00000280: 09df 14bd d43c 2ebd f5f6 7c3b 8566 a73c
00000290: e7bb ce3c 6032 7e3c 1c0a aa3c 7913 6f3c
000002a0: b78d ca3a 03e6 243c ed6b 023c a29e d83d
000002b0: 1cb5 643d 8a45 c33d 8b85 8d3d 4c31 d23c
000002c0: f625 6a3d d486 c03d aba6 593d 6818 de3d
000002d0: f52f 233a fbe3 163c 3922 603b ced4 dfba
000002e0: 5d06 ab3b fc22 87bb 80ff dcbc b137 b5bc
000002f0: 35cc cbbc 7df2 1f3d c935 933c 24b5 133d
00000300: d0dd 633d 662c c03c 9313 343d 15bf d53d
00000310: d2eb 853d 510d c23d 9990 2ebc a45d 20ba
00000320: 17b6 93ba f3ac 34bc 65e1 703b 938e 2cbb
00000330: 4a9a d0bc 61b8 4bbc b2ad 89bc ce85 45bd
00000340: 3601 d9bc 5085 cbbc 1856 04bd 7b2c 8ebc
00000350: a851 7abc f402 1dbd 97d9 bfbc df4a a3bc
00000360: c79b cdbc 0513 cbbc 6b91 bcbc d47d 3dbc
00000370: a271 56bc a5e0 9fbc b923 a1bc 165b 63bc
00000380: 1a21 9abc a9ff fd3d 417f bb3d 04da 043e
00000390: 9d5f db3d 4da3 8b3d 9b2d ca3d 2210 fe3d
000003a0: d777 9d3d d3e3 d13d beaa dfbc 00b6 e3bc
000003b0: 74d5 66bd e27b adbc acbd 53bc 4e1f 01bd
000003c0: 88c2 ddbc 95e9 56bc 057b d5bc 6317 c93d
000003d0: 6aee 7c3d 9218 bc3d f20f 423d 7137 c43c
000003e0: fa10 5a3d f203 313d bd51 e93c ddf7 533d
000003f0: aa36 cf3d f51c 163d 56c5 c63d de4e b43d
-0.024247281 -0.025383985 -0.030110478 -0.01455594 -0.016962428 -0.019618677 -0.012865895 -0.020948986
-0.038463585 0.018460177 0.014078184 0.0033077358 0.028956944 0.011915811 -0.0077866027 0.023042377
-0.011879756 -0.04996975 -0.01055288 -0.029738598 -0.005399625 -0.030853473 -0.04077103 -0.015957857
-0.0005408795 -0.011874511 0.008819282 -0.058054645 -0.058486715 -0.07665514 -0.035296395 -0.029504672
-0.039981663 -0.04153498 -0.03691774 -0.054969937 -0.0070888246 -0.010692095 -0.022764793 -0.026815943
-0.032956317 -0.0568415 -0.025771547 -0.02425075 -0.06685507 -0.039102737 -0.033567227 -0.040471386
-0.01709635 -0.026935173 -0.042490046 -0.024185082 -0.032166567 -0.044694338 -0.042553145 -0.01619281
-0.008908462 -0.015004363 0.010797579 0.012292323 -0.005321713 0.029341716 0.033682555 -0.028676102
-0.027146157 -0.053867165 -0.029656697 -0.022655344 -0.03517471 -0.058378257 -0.048040166 -0.05717782
-0.03190711 -0.05550007 -0.044593293 -0.01173829 -0.029675473 -0.02310077 -0.027618201 -0.043321837
-0.027002942 0.026258597 0.052995365 0.07118285 -0.030607266 -0.03227442 -0.023980185 -0.0154730035
-0.02496814 -0.026199844 -0.040750105 -0.03386316 -0.042396072 -0.04177649 -0.028271481 -0.030304058
-0.043003358 -0.032972757 -0.022055008 -0.06768236 -0.021608293 -0.024803333 -0.03573173 -0.0210322
-0.035225265 -0.036200557 -0.035020214 -0.043993585 0.09615196 0.04467612 0.07052752 0.07364439
0.033262316 0.0651759 0.09896467 0.065043464 0.10046941 0.045895904 0.031269718 0.028309302
0.034151632 0.011030496 0.013178412 0.03917133 0.013177811 0.01779272 0.025437346 0.016396327
0.017668445 0.009564791 -0.0031713243 -0.0013801237 0.010898842 -0.0010449438 -0.0069428873 -0.027228398
-0.015088254 -0.003868643 -0.03358447 -0.015426828 -0.014011114 -0.037447184 -0.025765212 -0.026175158
0.05775033 0.043408353 0.07596467 0.04506797 0.02624717 0.06110881 0.043696366 0.03181432
0.07537346 -0.007855435 -0.0113859745 -0.0063121174 -0.01687048 -0.018682688 -0.019682853 -0.032193463
-0.036345515 -0.04253848 0.0038599346 0.020434627 0.025236083 0.01551494 0.020756774 0.014592045
0.0015453611 0.010064605 0.007960302 0.10577132 0.05583678 0.09534748 0.06910237 0.025658272
0.05716511 0.094007164 0.053137463 0.10844499 0.00062251027 0.009209628 0.0034200086 -0.001707697
0.0052192644 -0.0041240435 -0.0269773 -0.022121282 -0.024877647 0.039049614 0.017969983 0.03606142
0.05563146 0.02345867 0.04396398 0.10436837 0.0653912 0.09475196 -0.010654592 -0.0006117469
-0.0011269477 -0.011027562 0.003675544 -0.0026330098 -0.025464196 -0.012434096 -0.016806457 -0.04822331
-0.026489835 -0.024843842 -0.032308668 -0.017355194 -0.015278257 -0.038332894 -0.023419185 -0.019933162
-0.025098694 -0.024789343 -0.02301856 -0.011565644 -0.013088616 -0.019516299 -0.019670354 -0.013876697
-0.018814612 0.12402279 0.09155131 0.12973791 0.10711596 0.068182565 0.0987198 0.12405421
0.07688873 0.10248532 -0.027303096 -0.027796745 -0.05635591 -0.021177236 -0.012923639 -0.031523995
-0.027070299 -0.013117214 -0.026059637 0.09818914 0.061750807 0.09184374 0.047378488 0.023952218
0.053238846 0.043216653 0.028481359 0.051750053 0.10117848 0.03664871 0.097056076 0.08804105

features.module.8.bias f4 [64]
00000000: 02ba d2bc c82b 293c 6420 323c 953e 623d
00000010: 7936 523d 49bb 3dbd c951 e43c 5b32 38bd
00000020: 93b4 e0bc d159 b53c 7e35 1dbd 0f11 453d
00000030: f405 ae3c e43c 9d3b 22be 003d bcc4 43bd
00000040: aeb2 173c 4d4b ab3c f069 d3bc d2e4 8ebc
00000050: c872 ba3c d1ab 423d 9742 b3bc 5dc4 0a3d
00000060: 3dd3 003d 1880 06bd 85ad 36bd cfa4 d8bb
00000070: 429d 0e3d aa98 3fbd 13b2 1fbd 237b 273d
00000080: 46cd 03bd a418 24bd ec98 1cbb 8de4 603d
00000090: 8697 173d 6120 ed3c 7f39 eb3b 1e4a e6bc
000000a0: 370f 33bd 0232 f43c e739 883c 7d3e 6f3c
000000b0: d5e1 a9bc 913a 60bd 6575 fb3b e14b 1ebc
000000c0: f508 8bbb b390 ae3b 6f52 06bd f926 0fbd
000000d0: 4153 85bc 8965 b23c e7e4 0fbd df35 563d
000000e0: 952a 62bd f9a2 0ebd 30c0 833c ac8c 5fbd
000000f0: 7f29 ffbc af2f ed3c fcc1 1bbd 4334 933c
-0.025723461 0.01032538 0.01087198 0.055235464 0.05132148 -0.046321187 0.02787103 -0.044969898
-0.027429854 0.022137554 -0.038381092 0.04811197 0.021243073 0.0047985185 0.031431325 -0.047795042
0.009258909 0.02090993 -0.02580735 -0.017443094 0.02275981 0.04752714 -0.021882338 0.033878673
0.031451453 -0.032837003 -0.044599075 -0.0066114436 0.03481794 -0.04677645 -0.038988184 0.040888917
-0.032178186 -0.04006256 -0.002389486 0.054905463 0.03700974 0.028946104 0.007178485 -0.028111514
-0.043715682 0.029809002 0.016629172 0.014602301 -0.020737568 -0.054743353 0.0076739066 -0.009661646
-0.004243011 0.005327308 -0.03279346 -0.034949277 -0.01627505 0.021776931 -0.035130408 0.05229747
-0.05521639 -0.03482339 0.016082853 -0.054577515 -0.031147717 0.028953401 -0.038026795 0.017969256

features.module.9.weight f4 [64]
00000000: 67bd 9f40 0934 d040 4978 fb40 72ac b040
00000010: c5fb b740 b941 b340 271c da40 48cd d040
00000020: 57be c040 8e44 a840 67b7 cd40 17bd b140
00000030: 6885 b340 5d3b d440 d6fa a040 490c ea40
00000040: bcf2 ec40 45ab be40 392b bf40 2638 8640
00000050: 5760 b040 196a de40 698e bd40 25c2 8c40
00000060: 54be bc40 9ce5 8840 971e bf40 baef ba40
00000070: 4205 ca40 e81d b640 5ae9 de40 f49a aa40
00000080: 3d0b d440 3e15 ca40 d1b2 bb40 7218 d940
00000090: 6e0f b940 dcd3 e640 50ff a440 e9f3 c240
000000a0: 2cd7 c340 fe02 a240 1781 f840 9974 a140
000000b0: ea57 a640 fcfb b940 1694 d740 cc85 cb40
000000c0: 9fa5 b840 8777 b340 538b cd40 efd7 dd40
000000d0: b3a7 b840 b094 b740 56f1 a140 c2dd b440
000000e0: 61d5 b440 47f4 b740 b13c d040 7e98 be40
000000f0: 0e69 b840 adbc ae40 323d ce40 b6cc b240
4.9918704 6.506352 7.8584332 5.5210505 5.7494836 5.601773 6.8159366 6.5250587
6.023235 5.2583685 6.428638 5.5543323 5.610035 6.6322465 5.0306196 7.3139997
7.4046307 5.958407 5.974026 4.194354 5.51176 6.9504514 5.923634 4.3986993
5.8982334 4.2780285 5.972484 5.8417635 6.313142 5.6911507 6.9659853 5.331415
6.626372 6.315093 5.865578 6.784234 5.7831335 7.2133617 5.156166 6.092274
6.120016 5.0628653 7.765758 5.045483 5.1982317 5.81201 6.736827 6.3600826
5.7702174 5.6083407 6.4232574 6.932609 5.770471 5.7369003 5.06071 5.65207
5.651047 5.748569 6.5074086 5.956115 5.762824 5.4605317 6.44497 5.587489

features.module.9.bias f4 [64]
00000000: 33ff 8b3f de5a 573f a7ec d63f 820f cb3f
00000010: cda9 f83f 8923 ea3f ce0d fe3f 8c2a 833f
00000020: b26e a53f 6f97 8f3f d621 d43f 495e 973f
00000030: 492d 8f3f 294e e93f 4f4d 9d3f 0c20 f93f
00000040: 9e8e 2f40 1515 0c40 dd23 6940 4b90 ff3f
00000050: 577f 563f 7344 b73f 3bf3 313f 65fc 813f
00000060: 357b 853f a6a0 1340 536f 9f3f 8313 9b3f
00000070: ca46 a23f 3914 943f 9144 d13f 86dc 983f
00000080: 8f4b 393f 4aa8 f93f 75ee 0340 db6b b53f
00000090: 907b e83f b667 cc3f d781 a23f 2ae9 b33f
000000a0: c555 fb3f f7d2 3a40 1e04 b73f e42a 893f
000000b0: b4dd 933f ed6b 993f 02e5 bc3f e201 883f
000000c0: 8da1 f63f 0228 963f 49a2 f03f 68b2 ce3f
000000d0: 84bf 0440 3e0c a83f 2b3a b73f f853 5f40
000000e0: f824 8b3f 8ff8 8f3f 26d8 0840 a3b3 c73f
000000f0: bd43 9b3f 4fed a33f 54ea ae3f bbd6 983f
1.0937256 0.8412303 1.679097 1.5864108 1.9426819 1.8292094 1.9847963 1.0247359
1.2924407 1.1218089 1.6572826 1.1825649 1.1185695 1.8226978 1.2289218 1.9462905
2.7430797 2.1887867 3.642814 1.996591 0.83788055 1.4317764 0.69511765 1.015515
1.0428225 2.3066802 1.2455848 1.211533 1.2677853 1.1568671 1.634905 1.1942298
0.7238092 1.9504483 2.0614293 1.417354 1.8162708 1.596915 1.2695874 1.4055531
1.963555 2.9191263 1.4298131 1.0716214 1.1552033 1.1986061 1.4757388 1.0625575
1.9268051 1.173096 1.8799525 1.6148195 2.0741892 1.3128736 1.4314626 3.4895
1.0870657 1.1247729 2.1381927 1.5601696 1.2130047 1.2806796 1.3665261 1.194053

features.module.9.running_mean f4 [64]
00000000: d588 1fbd dc3e 893c e432 88ba dcb5 843d
00000010: 86ef 383d b6b2 3abd 1e94 523c 6a28 07bd
00000020: 4a60 88bc d544 193d 6a25 59bc be81 333d
00000030: 057d fd3c dea6 103c 9fcb a43c fa8e 3bbd
00000040: 10fe 193c 161c 6e3c 8d72 363c 1e91 0f3c
00000050: 67dd fc3c d784 733d 3a49 6fbc cb62 273d
00000060: 888c 283d 3344 66bc 175a e6bc d426 373c
00000070: dcd4 563d f688 0ebd 9ecd a0bc 9c6f 163d
00000080: 08c6 d1bc 945b 55bd 710e 0dbc 103d 613d
00000090: 7a7a 863d bc77 493d 1de6 473c b7ed 0abd
000000a0: 7970 49bd 021e 9b3d e27f 693c 05aa f93c
000000b0: b9a0 43bc 0485 1bbd d82c 2c3a b34b ffbb
000000c0: 53e2 2c3c ed1b 83bb 6a79 51bd b535 2fbd
000000d0: 3e54 b83b 5737 9f3b d423 03bd c559 cc3d
000000e0: f9bc 53bd 680c b5bc 22b2 893c 819e 48bd
000000f0: e61b 19bd 434c 0f3d 4c39 69bd ad14 e03c
-0.038948853 0.016753606 -0.0010391143 0.064799994 0.045150302 -0.04558059 0.012852697 -0.032997526
-0.016647477 0.03741916 -0.013253549 0.043824904 0.030943403 0.008828847 0.020116625 -0.04579065
0.009398952 0.014533063 0.0111357095 0.008762626 0.030867292 0.059452858 -0.014604861 0.0408657
0.041149646 -0.014054346 -0.02811913 0.011178691 0.052449092 -0.034798585 -0.019629296 0.036727533
-0.025607124 -0.05208929 -0.0086094 0.054989874 0.06566329 0.049186453 0.012200859 -0.03391811
-0.049179528 0.07574083 0.014251681 0.03047658 -0.011940175 -0.03796865 0.00065679615 -0.0077910065
0.010552007 -0.0040011317 -0.05114118 -0.04277583 0.005625277 0.004858892 -0.03201659 0.0997806
-0.05169389 -0.022100642 0.016808573 -0.048979286 -0.03738012 0.03498484 -0.05693941 0.027353609

features.module.9.running_var f4 [64]
00000000: 055e 2b3c 6d28 bf3b e637 553c 73d9 3d3c
00000010: db53 5a3c 140a 6f3c d620 ae3c 6ef6 bf3b
00000020: 2c4b 7b3b 551c 9d3b 7a51 1e3c b46a 193c
00000030: f53a 8d3b d004 5f3c adab 233c e43a 903c
00000040: 36e5 9d3c 4f11 643c 660a 233c 3f78 353b
00000050: 2621 853b e710 de3b 96dc 783b 0cd6 ef3b
00000060: 18da 893b eec8 c03b 524c 3a3c be1c 353c
00000070: f6a8 463c f986 993b fafd 783c 4be8 143c
00000080: 4e04 aa3b 0a19 6f3c 3365 5a3c 9a32 2c3c
00000090: fcf6 2d3c 3a06 f13b 0797 173c 802a 123c
000000a0: 273e 973c d17d e43b 662b 653c 3842 153c
000000b0: 9f91 133c e0f1 1c3c 12ef 2a3c 1b75 143c
000000c0: f37c 143c adbd 2a3c cba1 1d3c 8af6 2c3c
000000d0: acc9 973b 576d 443c 8f6f 333c 32a7 1f3c
000000e0: 84e0 093c 8ade 143c e79d 993c 0ecf 373c
000000f0: e64a 303c f4a0 173c b2ab 6e3c e3b8 e53b
0.010459428 0.0058336766 0.0130138155 0.011587488 0.013325657 0.014589805 0.021255892 0.005858234
0.0038344366 0.004794637 0.00966298 0.009363819 0.0043100067 0.013611987 0.009989661 0.017606206
0.019274335 0.013920142 0.00995121 0.002769008 0.0040627895 0.0067769173 0.0037973276 0.0073192175
0.004206907 0.0058833277 0.011370735 0.011054216 0.012125244 0.0046852794 0.0151972715 0.009088586
0.0051885014 0.014593372 0.013329792 0.010510111 0.010617968 0.0073554786 0.009252316 0.008921266
0.018462254 0.0069730063 0.013987398 0.009110026 0.009006887 0.009579152 0.010432975 0.009061123
0.009062993 0.010421199 0.009621094 0.010556826 0.0046321955 0.011988959 0.010951891 0.009744452
0.008415345 0.009086261 0.018752052 0.011218799 0.010760045 0.009254683 0.014567303 0.0070105656

top_layer.weight f4 [10, 64]
00000000: fc52 84bd e227 f13e 4e6e 08bc ec8e 6a3a
00000010: 4e20 1ebc 5d27 2dbd ca5c 76bd 51b5 ed3e
00000020: 545d 82bd 5260 883e f338 9c3e 1a0a 56bd
00000030: f3b7 c43e 4a04 17bc f167 a2bd 77d7 39bd
00000040: be24 20bc 3bc8 1fbd 8003 c5bc 0af3 76bc
00000050: cc23 45bd 4b90 fb3e 356e f9bc 3acd 6bbc
00000060: ef3a 26bb 4e7e 5dbc ff2a 87bd d872 2ebd
00000070: adc5 8fbd d3dd cb3e 91d0 6bbd 43d6 62bd
00000080: 8d1a a9bd fb8e c9bc 3d59 eebc 851b 6abd
00000090: e53c 04bd 5671 943e f92e bcbc ee75 273c
000000a0: f101 24bd 30a9 8e3a 85d6 62bd a7b3 47bd
000000b0: 30dc 153d 1d1c 953d 8f70 90bc b61b 3fbd
000000c0: 182a 5ebd aee6 98bd e3d3 97bd a055 953b
000000d0: bea5 1fbc 4877 98bd 0537 3fbd 7ded 1f3c
000000e0: 699b dabd 242b 4fbd edc5 ecbc b294 64bc
000000f0: c332 8abd b864 30bc 833b bbbd c1f2 5f3e
00000100: fcab 733b fcc7 48bd 0c9f a9bd f520 a8bc
00000110: 954e 05bd 8b30 adbd c603 0a3c 4a0a f1bc
00000120: 30cd 9abb 1ee5 303e 7c9a f6bd 489c eebc
00000130: af8c c53b ff2f fbbd 0b47 2dbb e9fd 753d
00000140: cd32 0ebd 8d8b 17bd ea29 5bbd c1d9 40bd
00000150: aea8 c2bc 63f7 2bbd 8119 11bd 772c 3cbd
00000160: 32d2 113b f008 39bd a915 de3e d76d cb3e
00000170: b4bc e13e 14d7 1cbd 5426 013f a14a e8bc
00000180: 4815 8bbd eb32 a1bd 199b 08bd 4b64 cdbd
00000190: 0be3 cfbd 135d 5bbd 01e6 e2bb 0527 70bd
000001a0: 74bc 70bd 46c1 29bd ca96 e2bd a28f bb3e
000001b0: 131a 2ebd f5df c53e 361d 32bd 8dc4 77bd
000001c0: 277e 1bbc 6f59 bebc 0989 35be 8b06 59bd
000001d0: d1e5 1b3d 1bab 19bd 8e71 0e3e 799e 22bd
000001e0: 98ca a9bb ff77 503e 44ef b4bd f0a6 8dbd
000001f0: 596c b0bc 8289 4cbd e0f4 bc3a 26d1 3ebd
00000200: c01f b23c f6e3 88bc 3716 133f 2276 6c3c
00000210: 6c69 be3b 89d1 76bd 0a09 fabc cae9 183c
00000220: a4fd 4dbc b659 e9bb b07d f139 6e0c 86bd
00000230: b87a 58bd c8e4 cb3b a49f 85bd 6ec1 adbc
00000240: bdea 3ebd 01ec 36bd 8e08 f7bd cf2e 67bd
00000250: 1cb9 26bd 549f a7bd c205 943c b87e c93c
00000260: 15de a4bc 516c 5c3d c846 32bd 7626 46bd
00000270: b2de 1bbd 3235 18bd 364a 2abd 1eb0 69bd
00000280: e61b 7dbd f84c 963e 6a4a 00bd d630 1ebd
00000290: bb80 e8bd 52da 4fbc 8c6c 8dbc 0846 de3e
000002a0: c3e0 b9bd 4818 01be 7fee 703d ad44 0abd
000002b0: 05e2 4b3d abd0 11bd d503 013f 0e3d 3f3d
000002c0: 1313 3cbd e6b6 97bd 4735 ccbd ec74 fc3e
000002d0: 8187 74bd d198 c5bb 4fee bbbc 362c f9bd
000002e0: 1fad cabd 65b1 803b 7149 84bd 2536 283d
000002f0: 49d4 babd 0751 2c3d f2e9 f6bc 5770 60bd
00000300: abe7 c03d 61f1 4dbc b727 07bd 777f 40be
00000310: 7dec 1cbe a73d 183d 446c 373e c821 64bd
00000320: ddeb 37bd 53aa 1b3c a11b 05be 636d c53e
00000330: f816 353d 2c8e 31be 26f8 0e3e 1f66 cf3e
00000340: 57e2 4abe 21bd eebd 75a8 18bc e75a e93c
00000350: 4201 183e c09e f139 5196 5fbd 7849 0abe
00000360: 10f6 95bd 3a29 b73c 424d cabd 9a74 34bd
00000370: 69ec b7bd e688 9d3b 8525 d7bd 263d aa3e
00000380: e35f 8ebd 869f e8bd 9edf 08be f421 9dbd
00000390: c079 18bd 5364 b1bd 2cb7 7fbd b3a0 d6bc
000003a0: 17be 673d 4ee0 9c3c a7e3 61bd 7f46 6cbd
000003b0: 98f0 27be f33a 8dbd 5f78 ed3c fda4 99bd
000003c0: ec5d 22be fb89 af3e fbb1 68bd dec9 beba
000003d0: e457 c0bd 3d1d 193e 06e8 333e a660 193d
000003e0: 7b9f b33e 13ac c4bd c7a5 63bd 5b97 27be
000003f0: dab8 b33e 9e08 17be ab06 763e a4f8 373d
-0.064611405 0.4710074 -0.00832708 0.00089476886 -0.009651257 -0.042273868 -0.060147084 0.46427396
-0.06365457 0.26635987 0.305122 -0.052255727 0.38421592 -0.009217331 -0.079299815 -0.0453715
-0.009774385 -0.039009314 -0.02404952 -0.015072593 -0.04812984 0.49133524 -0.030448059 -0.014392192
-0.0025364717 -0.013518883 -0.06599998 -0.042589992 -0.070201255 0.39817676 -0.05757195 -0.055380117
-0.08257017 -0.024604311 -0.029095287 -0.05715515 -0.032284636 0.28992718 -0.022971617 0.010220988
-0.040040914 0.0010884162 -0.055380363 -0.048755314 0.03658694 0.07280753 -0.017631797 -0.046657287
-0.054239362 -0.07465874 -0.07413461 0.0045573264 -0.009744106 -0.07444626 -0.04668333 0.009761211
-0.106741734 -0.05057825 -0.028902972 -0.013951467 -0.06747963 -0.010766201 -0.0914221 0.21869947
0.0037181368 -0.049018845 -0.08282289 -0.020523528 -0.032545645 -0.084565245 0.008423751 -0.029423852
-0.0047241673 0.17274901 -0.12041184 -0.029127255 0.0060287337 -0.12265014 -0.002644005 0.0600566
-0.034716416 -0.03699832 -0.05350677 -0.047082666 -0.023762073 -0.041983973 -0.035424713 -0.045940842
0.002225053 -0.04517454 0.433759 0.3973224 0.44089282 -0.038291052 0.5044911 -0.028355898
-0.067911685 -0.0787104 -0.033351038 -0.10028895 -0.10150727 -0.05355556 -0.0069243913 -0.058630962
-0.058773473 -0.041444086 -0.11063917 0.3663302 -0.042505335 0.38647428 -0.04348489 -0.06049018
-0.009490526 -0.023236005 -0.17728056 -0.052984755 0.038060967 -0.037516695 0.13910505 -0.039701913
-0.0051816218 0.20358275 -0.08834699 -0.069166064 -0.02153604 -0.049935825 0.001441624 -0.04658618
0.021743655 -0.016710263 0.5745577 0.014432462 0.005810907 -0.060258422 -0.030521888 0.009333083
-0.01257268 -0.00712129 0.00046060747 -0.065453395 -0.05285141 0.006222341 -0.0652459 -0.021210399
-0.046610583 -0.044658665 -0.120621786 -0.056441125 -0.040703878 -0.08184686 0.018069152 0.024596557
-0.020125428 0.053814236 -0.043524534 -0.048376523 -0.038054176 -0.037160106 -0.04157468 -0.057052724
-0.061794184 0.29355597 -0.031320967 -0.038620792 -0.113526784 -0.012686329 -0.017263673 0.43412805
-0.09076073 -0.12606919 0.058821198 -0.0337569 0.049776096 -0.035599392 0.5039647 0.046689086
-0.045916628 -0.07407932 -0.09971099 0.49307954 -0.05969954 -0.00603018 -0.022940783 -0.12166636
-0.098963015 0.003927397 -0.0645932 0.04106726 -0.091225214 0.04206946 -0.03014085 -0.054794636
0.09419187 -0.012569756 -0.03299686 -0.18798624 -0.15324588 0.03716817 0.17912394 -0.05569628
-0.04490267 0.009501058 -0.12998821 0.38560018 0.044211358 -0.1733939 0.13961849 0.405076
-0.19812904 -0.11657167 -0.009317507 0.028485728 0.1484423 0.0004608538 -0.054586712 -0.13504589
-0.07322323 0.022358526 -0.09878017 -0.044056512 -0.089806385 0.0048075793 -0.10505203 0.33249778
-0.06951883 -0.11358552 -0.13366553 -0.07672492 -0.037225485 -0.086617135 -0.062430546 -0.026199674
0.05657777 0.019149926 -0.055148747 -0.057684418 -0.16400373 -0.06896009 0.028988061 -0.07502172
-0.15856141 0.34284958 -0.05681036 -0.0014556011 -0.09391764 0.1495256 0.17568979 0.037445687
0.3508261 -0.09603133 -0.05557802 -0.16366331 0.35101968 -0.14749381 0.24025981 0.044914857

top_layer.bias f4 [10]
00000000: 7268 7dbb 49b2 46bb fc2e 3ebc 7cf0 51ba
00000010: 1eb9 c6ba 753d d73c f0be 4b3c a5db 35bb
00000020: 6dd8 a9bb 7aaa 22bc
-0.003866699 -0.0030318669 -0.011607882 -0.0008008552 -0.001516137 0.026274422 0.01243566 -0.0027749327
-0.0051832707 -0.00992834

momentum_buffer f4 [16, 1, 3, 3]
00000000: 73a8 ecbc 2899 93bd 66a4 7bbd 5497 32bd
00000010: 360a d4bd f625 b3bd 88b0 32bd 997b 5ebd
00000020: 422d 3bbd f205 c1bc a4ed 3bbd d3f3 36bd
00000030: c49c edbb fba3 8b3c 064a 8c3c 2641 533d
00000040: 8e4e 883d 4095 0d3d d0c0 66bb 4077 3e3c
00000050: 2036 a43b c728 833b 937b 20bb 5efa 54bc
00000060: d8e3 a5bc 84d1 31bd 06c9 23bd 79bd a1bc
00000070: 6482 b0bc 42bc bebb feab 04bd 6a7a 8ebc
00000080: 28df ca3a 165d 49bd 602e b0bc a38c 7bbc
00000090: 12c1 4f3c ed45 01bd 7fde 02bd 900f 0dbb
000000a0: 0d51 4bbd 92f1 54bd 046b ad3c 0791 17bc
000000b0: de2f 67bc 5826 56bd 2250 a3bd 40e0 85bc
000000c0: 3d94 5cbc 32e5 5dbb 4851 aa3b 60e5 acbb
000000d0: e47e d2bb c263 23bc c474 0cbd 8ef6 42bd
000000e0: 0c9d 80bb 5af8 6abd 7e97 dfbc a6b3 1b3d
000000f0: c4e9 b1bc 53f0 e4bc 0561 133c 2b9f 6fbc
00000100: a089 52bc f58b c0bc 659b 67bb 98f0 3a3c
00000110: f8dd 573b fc7a fabc e480 85bc ed16 0d3c
00000120: 70ad c03c aa7c de3b 0eeb e03b 4806 4f3d
00000130: 9b91 893b a36f 44bc 88f9 fc3b 6804 efbc
00000140: 9964 68bd f823 a6bc 64f6 4bbd 12df 0ebd
00000150: 1927 1cbc b10a cebc 10e9 293b 46b4 48bb
00000160: ea08 e6bb eb05 eebc 1b77 91bd d0fd 173b
00000170: 64db 263d cde6 2bbd 5466 af3c 203a 103c
00000180: a2b3 c13c 14ea e5bb 36b3 70bb 34b9 233c
00000190: 6288 4b3c 91ee 413d 1068 bd3a d582 a63c
000001a0: 5c88 c13d ee54 8e3c bf74 8d3c 3ef8 ba3c
000001b0: 2e66 1fbd 5a09 91bd c6e4 8dbd 3e25 debc
000001c0: ca10 fcbc e2c6 16bd 70a9 7cbc 31e2 47bd
000001d0: 28d3 86bd 645f 4e3d 1f2e 363d 1666 d63c
000001e0: 14b6 af3d b209 513d cfa5 ac3c 8eed b83d
000001f0: 78d0 483d a440 e83b a755 74bc 0249 45bd
00000200: 1e49 54bd a0f8 02bb fe4b 94bd 68e0 95bd
00000210: 0d41 a0bc 1c44 31bd 24ed 29bd b626 413c
00000220: 5e7c ca3a 6fec d5bc cfe8 293b b7ca 61bc
00000230: 7a9e fdbc 660f 43bd b3e1 95bd a202 83bd
-0.028888917 -0.072069466 -0.06143608 -0.04360135 -0.1035351 -0.08747475 -0.043625385 -0.05431709
-0.045697458 -0.023562405 -0.04588093 -0.044666123 -0.007251354 0.017045965 0.01712514 0.051575802
0.06655608 0.034566164 -0.003521014 0.011625111 0.005011335 0.004002664 -0.0024487718 -0.012999145
-0.020250246 -0.0434127 -0.039986633 -0.019743668 -0.02154655 -0.005820782 -0.032390587 -0.017392356
0.0015477883 -0.04916104 -0.021506488 -0.015353355 0.012680309 -0.031560827 -0.03195047 -0.0021524169
-0.049637843 -0.051988192 0.021169193 -0.009250886 -0.0141105335 -0.05228266 -0.079742685 -0.016342282
-0.013463077 -0.0033858535 0.0051976778 -0.005276367 -0.006423818 -0.009972515 -0.034291044 -0.047598414
-0.0039249714 -0.057365753 -0.027293917 0.038013123 -0.021717913 -0.027946627 0.008995299 -0.014625351
-0.012850195 -0.023504237 -0.0035340425 0.011409901 0.00329387 -0.030576222 -0.016296811 0.008611423
0.023520201 0.0067897635 0.006863958 0.0505431 0.0041982657 -0.011989507 0.007720176 -0.029176906
-0.056736562 -0.020280823 -0.049795523 -0.034880705 -0.009530806 -0.025151582 0.002592627 -0.003062503
-0.0070201056 -0.029055556 -0.07102796 0.0023192056 0.04073657 -0.041968156 0.021411099 0.008802921
0.023645226 -0.0070164297 -0.0036727912 0.009992886 0.012422653 0.047346655 0.0014450569 0.020326057
0.094498366 0.017374482 0.017267583 0.02282345 -0.038915806 -0.07081862 -0.06928401 -0.027117368
-0.030769724 -0.036810763 -0.015421256 -0.048799697 -0.065832436 0.05038394 0.04447758 0.026171725
0.085796505 0.051034637 0.021075157 0.09029685 0.049026936 0.007087784 -0.014912999 -0.04816533
-0.051827542 -0.0019984618 -0.07241057 -0.07318193 -0.019562269 -0.043277845 -0.04148592 0.011789015
0.0015448441 -0.026113717 0.0025926118 -0.013781241 -0.030959357 -0.047622107 -0.07318439 -0.063969865

momentum_buffer f4 [16]
00000000: 2f4d b7b6 e0c2 de36 555b 8937 56d4 d637
00000010: c7c1 f237 d4f6 d2b7 0700 0637 41df 64b7
00000020: c2b7 68b6 b667 c7b7 f2bc f237 5e0a c3b7
00000030: 3743 8e37 6abf 3a37 0c14 2d37 1ad0 8fb7
-5.4628103e-06 6.638802e-06 1.6374202e-05 2.5609665e-05 2.8938883e-05 -2.514889e-05 7.987029e-06 -1.3641839e-05
-3.4677655e-06 -2.3770943e-05 2.8936633e-05 -2.3250639e-05 1.6959018e-05 1.1131031e-05 1.0316271e-05 -1.7143833e-05

momentum_buffer f4 [16]
00000000: 8ff5 64bd 8b7c f03d 6344 833d b7d8 0fbd
00000010: e372 2cbe deb8 993d a0bc f6bc dcd3 2f3c
00000020: 4cfa 8e3c 62c5 10bd 806d 03bd 9c1a 8b3d
00000030: 78f7 4ebd 529f 183d 9c9b 39bd 1c50 0e3c
-0.055898245 0.11742505 0.06409528 -0.035118785 -0.16840701 0.07505964 -0.03011924 0.010731664
0.017453335 -0.03534449 -0.03208685 0.06792185 -0.050528973 0.037261315 -0.045314416 0.008686092

momentum_buffer f4 [16]
00000000: 13fb 003d 9870 313d 0068 053e 9ad8 393d
00000010: 1323 3abd f605 2f3e 486a d1bb 80f1 af39
00000020: f503 953c 964a 6ebd 5ae5 41bd 6905 cd3d
00000030: fd90 10bd cb1a f23c c45a 1b3d 5c9b 923c
0.031489443 0.04332027 0.13027954 0.045372583 -0.045443606 0.17092118 -0.0063908435 0.00033558533
0.018190363 -0.0581766 -0.047337867 0.100107975 -0.03529452 0.029553792 0.037928358 0.017896347

momentum_buffer f4 [32, 16, 3, 3]
00000000: c6b3 30bb 3844 5f3a 92dc 85bb 1da6 30bc
00000010: 74ca 72bc 3887 3bbc b6c8 22bc 1daa 53bc
00000020: 5381 cbbc 8168 aa3c cc80 ce3c 2687 943c
00000030: 4ee8 c43c 92d4 f53c 7265 a83c 471d a33c
00000040: 470d 9f3c fa9a a73c 3bd4 093c 4639 56bb
00000050: 6796 45b9 2faf 52ba 615a e7bb 6e62 2ebb
00000060: 3bd6 74bb e21d d2bb 9bfb 89bb 23b7 cabb
00000070: 6200 9fbb f9f5 af3a 1079 9cba 806d f238
00000080: 8383 b5bb ffa1 60bb f892 37bc b232 63bc
00000090: b009 a73b ca79 463c 5c56 593c d845 c6bb
000000a0: ea65 aa3b 6a94 ac3c c83f 453c 8743 cdbb
000000b0: 36b5 0f3d 75b4 a7bb 62b4 23bc aaf8 91bc
000000c0: 4858 a6bb 2504 81bc d444 3dbc 42a4 62bb
000000d0: dc88 b3bb 0710 fbba fa52 c3bb b285 86bc
000000e0: 162b 3bbc e03b 31bc fa1a c5bb 845b 3e3a
000000f0: e909 25bc f832 a33a 087c 20b9 bcbc 9ebb
00000100: 683b 0a3a 96e9 333b 36d9 e23a e92f 40bb
00000110: c7c7 efbb 8a7f 7cbc 93a7 8ebc 7b47 46bc
00000120: 0c36 66bb a170 e7ba a3ef 08bb 311a 9ebb
00000130: cd63 e8bb 7b9c 1fbc 0d92 01bc 0612 a5bc
00000140: 446f b7bc f279 1c3c 3781 3e3c 2464 063c
00000150: 288e 303c b8ef 283c 0e29 673c 3674 643c
00000160: b079 bcba 4a0a b83c fbd2 873c f84e e53c
00000170: 0703 a83b 0405 cb3c 2745 a43c 0ede c93b
00000180: 4d22 123d 6f84 123c 2e89 c83b e200 90bb
00000190: 5fb9 debb 701b 28bc 45db 25bb f740 f0bb
000001a0: d701 d0bb 610b 44bc f813 11ba f8f8 71bb
000001b0: 7803 3d3b 21a7 13ba edd8 06bc 6d49 093b
000001c0: be77 1e3b 2701 373b acea 0f3a cc10 2aba
000001d0: fb70 a9bb 1e85 f7bb 77f0 18bb 8005 0ebb
000001e0: 9e79 94bb 9b2f 62bc 64fb 1fbc f49a e1bb
000001f0: 87f8 8cbc 2e36 99bc d814 1ebb b7d0 c9bb
00000200: 924f e4bb 0f63 04bc 696a 96bb baaf bd39
00000210: 70aa 4cbb 4ef2 16bb 3590 46bb 3808 7ebb
00000220: 9ef7 34bb c33d 27ba 2de1 0ebc 444a bdbb
00000230: c8df fbbb 6705 d6bb 5a21 e8bb 598b f0bb
00000240: 46c2 d73c f60f a93c 0d98 8b3c 9966 9a3c
00000250: fe48 b13c 424e ed3b 7092 4c3b 1c9d f43b
00000260: 40a0 153b 54ca 133c e79b 8a3b 3f61 653b
00000270: 2395 243c 7d59 c43b 91ac 103b 82b5 6d3c
00000280: 0608 ff3b 70ce c83a 53ff b93c f785 263c
00000290: 5a33 94bb be16 873c 700c 3e39 3613 9bbb
000002a0: ac2b bf3a 8e99 70bb 3b19 9bbb 72e9 40bc
000002b0: 1153 1d3c 0010 d538 21c8 d0bb 1249 303c
000002c0: 814e c83b c13d a3bb 6cda 84bb c6d6 80ba
000002d0: 488e dc3b e2df b03b f02b 953b 1b9d 9c3b
000002e0: e065 bc3b 72a4 a03b e8fd c4bb 119d 883b
000002f0: 960f 8c3b d6ec 99bb 6cfe 90ba 1ed9 33bb
00000300: 3339 ecba 426a 62bb 2221 68bb b141 f2ba
00000310: 4053 ad3a c573 88bb dc35 a53b f01c fdb7
00000320: 8aaa 34bb 347d 503b ae6e d73b ee18 bb3a
00000330: caf9 9cba e577 4e3b 71e9 143b 3728 2dbc
00000340: eff2 033a e2e3 4a3b efc9 31bb f264 983b
00000350: 701d 4a3b 09b9 ebba 8036 753c e206 073c
00000360: 9ec2 8ebc 235f 94bb 8e5a 333c 95ef d3bc
00000370: 99ef 153c 8096 fb3b 9ab8 36ba 7a1b 01bb
00000380: f509 0bbb 80c3 3e3c b477 26ba b1ba abbb
00000390: b66b c43c 5294 f03b 5034 e03a f0b8 d43c
000003a0: 03ea f13b b9b8 623a c13d 11bd ea15 1f3c
000003b0: 26dc 303c 99ce 5cbc f4d6 873c 10c2 943c
000003c0: 1557 833c feb5 e83c ccac b53c 5fe9 53bb
000003d0: 971c ffbb 58b4 a9bc fe6d ebba 4eab 3dbb
000003e0: f27a 88ba baef 07bb 68ef ecba 8831 5dba
000003f0: 6cd3 ab3c db8d edbb da52 8cbc 659d 533b
-0.0026962622 0.000851694 -0.004085132 -0.010781792 -0.014818776 -0.011445813 -0.0099355485 -0.012918976
-0.02484194 0.020801784 0.0252079 0.01813085 0.024036553 0.030008588 0.020556185 0.019911421
0.01941551 0.02045964 0.008412416 -0.0032687946 -0.00018843413 -0.00080369686 -0.0070603346 -0.0026608962
-0.0037359137 -0.0064122537 -0.004210902 -0.0061863824 -0.0048523406 0.0013424746 -0.0011937935 0.00011559855
-0.005539359 -0.0034276245 -0.011204474 -0.013867067 0.0050975904 0.012113998 0.013265219 -0.0060508065
0.0052001374 0.021066863 0.012039132 -0.0062641534 0.035084926 -0.0051179477 -0.009991737 -0.017818768
-0.005076442 -0.015749047 -0.011552054 -0.0034582769 -0.0054789614 -0.0019154557 -0.0059608193 -0.016421173
-0.011423847 -0.010817498 -0.0060151787 0.00072615617 -0.010073164 0.0012451103 -0.00015304994 -0.0048442762
0.00052731344 0.002745246 0.0017307166 -0.0029325432 -0.0073175165 -0.015411267 -0.01741389 -0.012102003
-0.003512743 -0.0017657467 -0.0020894788 -0.0048248996 -0.0070919753 -0.009741898 -0.007908356 -0.020150196
-0.022391923 0.009550558 0.011627487 0.008202586 0.01077608 0.01031106 0.014108909 0.0139437225
-0.0014379527 0.022465844 0.016580096 0.027991757 0.005127314 0.024782665 0.020052506 0.006160504
0.035677243 0.008942707 0.0061198687 -0.0043946365 -0.0067970003 -0.010260448 -0.0025307697 -0.007331963
-0.0063478756 -0.011965604 -0.00055342866 -0.0036922079 0.002884118 -0.0005632509 -0.00823043 0.0020948306
0.0024180259 0.002792427 0.0005489986 -0.0006487488 -0.005170939 -0.0075537106 -0.0023336688 -0.0021670759
-0.0045310995 -0.013805295 -0.009764526 -0.006884927 -0.01720835 -0.018702593 -0.002412131 -0.006158914
-0.0069674933 -0.008080258 -0.004590322 0.00036179816 -0.0031229518 -0.0023032608 -0.0030298356 -0.0038762223
-0.0027613412 -0.00063797476 -0.008720678 -0.0057766754 -0.007686589 -0.0065314057 -0.007084054 -0.0073408303
0.026337754 0.020637494 0.017040277 0.01884775 0.02164125 0.007241995 0.0031215213 0.007465018
0.0022831112 0.009020407 0.004230011 0.003500059 0.010045323 0.005992113 0.0022075514 0.014508607
0.007782939 0.0015320312 0.022704756 0.010163776 -0.004522723 0.016490337 0.00018124445 -0.0047325147
0.0014585159 -0.003671262 -0.0047332323 -0.011774408 0.009602324 0.00010159612 -0.0063715135 0.010759609
0.006112874 -0.004981727 -0.004054358 -0.0009829632 0.0067308284 0.0053977827 0.004552357 0.0047794706
0.005749449 0.004902416 -0.0060117133 0.0041691144 0.004274319 -0.0046974225 -0.0011062152 -0.0027442644
-0.0018022418 -0.0034548198 -0.003542014 -0.0018482712 0.0013223663 -0.0041641914 0.005041821 -3.0173425e-05
-0.002756747 0.0031812908 0.0065744733 0.0014274397 -0.0011976298 0.0031504568 0.002272215 -0.01056867
0.00050334533 0.0030958583 -0.0027128418 0.0046507055 0.00308403 -0.0017984222 0.014966607 0.008241387
-0.017426785 -0.0045279427 0.010946883 -0.025871078 0.009151363 0.007677853 -0.0006970257 -0.0019700215
-0.0021215652 0.0116432905 -0.00063502346 -0.005240761 0.023977142 0.0073419 0.0017105434 0.025967091
0.0073826327 0.00086487416 -0.035459284 0.009709815 0.010794675 -0.013476991 0.01658199 0.018158942
0.016032735 0.028407093 0.022177123 -0.0032335145 -0.0077853906 -0.020715877 -0.0017961857 -0.0028941217
-0.0010412617 -0.0020742253 -0.001807672 -0.00084378617 0.020974837 -0.0072495765 -0.01712935 0.003228986

momentum_buffer f4 [32]
00000000: a6e1 0a36 45cd 8536 af97 f3b6 be15 bab6
00000010: 2877 ffb6 180f 7a36 b369 c736 feba ffb6
00000020: bea2 0f36 982f da35 f686 8eb6 72f4 e535
00000030: 8a97 cd36 af98 0237 986f 6536 3a33 d3b5
00000040: 0307 98b6 0f73 4ab6 bdf9 8433 e660 1cb5
00000050: 752a c236 0447 f0b6 6124 3e35 a441 28b6
00000060: 05c8 2b35 387c ff36 fccd 8734 beb3 bab5
00000070: 036c 34b6 fd60 04b7 749d f1b6 9722 6936
2.0694947e-06 3.9876054e-06 -7.2596226e-06 -5.545763e-06 -7.613464e-06 3.7261689e-06 5.942967e-06 -7.621361e-06
2.140339e-06 1.6256117e-06 -4.2476413e-06 1.7132973e-06 6.1271176e-06 7.784153e-06 3.4188615e-06 -1.5735634e-06
-4.5307693e-06 -3.0167319e-06 6.192156e-08 -5.8255534e-07 5.786593e-06 -7.1608247e-06 7.0833454e-07 -2.5072159e-06
6.399353e-07 7.614053e-06 2.5295583e-07 -1.3910392e-06 -2.6884961e-06 -7.890395e-06 -7.2006897e-06 3.473984e-06

momentum_buffer f4 [32]
00000000: 98e2 a03c 87ff 003d 92e0 68bc f36e 8d3d
00000010: 7efb e7bc 4cbf ce3d 9e0f 843d 3a04 b13c
00000020: dc4e 2b3c 6230 f2bd 96f4 383d dc0c bbbd
00000030: 1553 06bd eb53 12bd 385f 9e3b 9c66 f7bc
00000040: 7dbf 78bd 17d9 5f3d e8ea ba3c bcf3 6e3c
00000050: 7a6e 07bd 38de 7c3d 0263 29bd 9b9a 043e
00000060: 9619 de3c 712e debc 2e0f 21bd d52e 043e
00000070: 5a51 873c e970 fe3d 2926 2a3d f83c c63c
0.019639298 0.03149369 -0.014213698 0.069059275 -0.028318163 0.10095081 0.06448291 0.02160846
0.010455813 -0.118256345 0.04515513 -0.09133312 -0.032794077 -0.03572456 0.0048331283 -0.030200295
-0.060729492 0.054650392 0.02281709 0.014584478 -0.033064343 0.06173536 -0.041354187 0.12949602
0.02711181 -0.027121754 -0.039321117 0.1290849 0.016518284 0.1242388 0.0415403 0.024198994

momentum_buffer f4 [32]
00000000: 4ee1 ee3c ce23 503c 6490 cdbc 5299 283d
00000010: 8332 03bd 7e51 223d 531c d43c bc63 823c
00000020: 9071 473c 5479 1cbd 9db4 183d 90fe 3bbd
00000030: aaa5 203b cd70 bebc a28f 1f3c 5ead 24bc
00000040: b870 44bc a6f4 763d 9884 c03b fa76 fc3c
00000050: f2a1 dfbc 4d13 653c 74e4 16bd 780d 5d3d
00000060: 04a6 9a3c 4cdb 94bc 00a8 ac3b c982 bd3d
00000070: 1062 263b 6eee 8e3d 5dab fd3c f4fb 943c
0.029160168 0.012703849 -0.025093265 0.041161843 -0.032030594 0.0396285 0.025892412 0.015916698
0.0121730715 -0.038201645 0.03728162 -0.045897067 0.0024512806 -0.023247147 0.009738835 -0.0100511
-0.011989765 0.06029191 0.0058751814 0.030818451 -0.027298901 0.013981652 -0.036838964 0.053967923
0.01887799 -0.018170975 0.0052690506 0.09253461 0.002538804 0.069790706 0.030965501 0.018186547
