deepcluster_implementation/experiments/run_label_fraction_variation/config_1/checkpoints/checkpoint_epoch_7.pth.tar (torch, 203702 bytes, 32 tensors)

features.module.0.weight f4 [16, 1, 3, 3]
00000000: 35df 753f 3535 f8bc f03e 7dbe f58c 56bd
00000010: d901 173e 6cb8 85be eb28 9cbc 7e28 56be
00000020: 625b a23f e309 0dbf ea30 fbbd 5d99 743f
00000030: 926b c2be 6c69 be3e 26e5 f4bd c296 903f
00000040: dfa1 07be 71e1 1abf 9b71 8ebf 37cb 913e
00000050: 6f3f 2e3f ca16 d4be b4d6 083f d541 493e
00000060: 526a 8dbf 1175 32be 45d8 d2be 86c4 3bbf
00000070: 5c31 1dbf eb31 61bf da58 10bf 5277 c43e
00000080: 8f96 96bd 15de c8be de48 2c3e 56be 533f
00000090: 6b04 e43e bfa1 023e 955e f43e 0f89 84bc
000000a0: bafa 3ebe 53e5 81bd 5d39 703f 60fa f23d
000000b0: fe4f 8e3f 3d9b a1bf 8cc0 9e3f 34cc 823e
000000c0: f820 83be 5c36 0c3d 4892 abbf 394b 843f
000000d0: c375 47bf 3c65 7a3d cd14 0c3f d6c9 703f
000000e0: 301d b03e 563a 20bf 4d32 fd3e 8f7f f4be
000000f0: 25c0 89bf 943a 79be bf48 88bf b16d b83c
00000100: 78c6 98bf 83dc 74bf 8fca 893e bf7f 643e
00000110: f9c5 cabe 3eb3 453f 4c24 853f 1b2d 783f
00000120: 58a7 403c b6ac 98bf 7f86 83bf 268e 92bd
00000130: e6f8 d1ba fa07 e0bd 9d72 c23f da89 2d3f
00000140: 20b3 bfbf cd91 12bf b222 2cbf 7b98 d2bb
00000150: e589 af3f ed6d 5e3f 649d 503f e63b c3be
00000160: cbb2 37bf 4022 70be 9f3d 843f 5b67 82be
00000170: 69dd c5bd c575 2b3e e81d c5be 1e65 debe
00000180: a1ba 393f ce4b ca3e 46dc cfbe babe 4dbf
00000190: 5eed d73d 740f 683f 9f1a e2be ff9c 64be
000001a0: d6e0 0b3e d274 d0be a9f4 0bbf e893 49bf
000001b0: d667 1c3f 4ea2 05bc 8103 7c3f fb90 bc3d
000001c0: ae6f b9be 7574 423b 7ec7 29bf ba10 b1be
000001d0: a1a5 3c3f f7dd e4be e1ca d63e 2592 5bbf
000001e0: 37b7 2ebe 86a4 e83e 3eb8 593e 67e8 2fbf
000001f0: a83f 4d3e d8ea a4be 1d09 f9be ccb7 19be
00000200: 1db6 4bbf 18be 5cbf 8982 2a40 1d76 eabe
00000210: e0fe 6abf 602a 8a3e 0004 93bf 66eb 88bf
00000220: 6384 29bf ddc4 54bf d5e7 5e3e c494 d13e
00000230: 750c 5ebf cfe7 133f f690 cf3e c9b1 56be
0.9604371 -0.030298809 -0.2473104 -0.05238052 0.14746799 -0.26117265 -0.01906248 -0.20913884
1.2684138 -0.5509321 -0.12265189 0.95546514 -0.37972695 0.37189806 -0.11957769 1.1296008
-0.13245343 -0.60500246 -1.112842 0.28475353 0.6806554 -0.41423637 0.5345261 0.19654019
-1.1048071 -0.1742747 -0.41180626 -0.73346746 -0.6140344 -0.87966794 -0.56385577 0.38372284
-0.073529355 -0.39231935 0.16824672 0.82712305 0.4453462 0.12757014 0.4772841 -0.016178636
-0.18650332 -0.06342568 0.9383753 0.118641615 1.1118162 -1.26255 1.2402511 0.2554642
-0.2561109 0.03423153 -1.3404016 1.0335456 -0.77914065 0.0611317 0.5471924 0.9405798
0.34397268 -0.62589014 0.4945244 -0.4775357 -1.0761763 -0.24338752 -1.06472 0.022513242
-1.1935568 -0.95648974 0.26912352 0.22314356 -0.39604166 0.77226627 1.0401702 0.96943825
0.011758648 -1.1927707 -1.027542 -0.07156019 -0.0016019612 -0.109390214 1.5191227 0.6778847
-1.497654 -0.57253724 -0.6724044 -0.0064268685 1.3713957 0.86886483 0.8149016 -0.38131636
-0.7175719 -0.23450565 1.0331305 -0.2546948 -0.09661371 0.16744144 -0.3849938 -0.4343652
0.725504 0.3951096 -0.40597743 -0.8036915 0.10543321 0.9064858 -0.44160935 -0.22325514
0.13659987 -0.40714127 -0.54670197 -0.7874131 0.6109594 -0.008156372 0.98442847 0.0920734
-0.36218017 0.0029671465 -0.66320026 -0.34583074 0.7369023 -0.44700596 0.4195166 -0.85769874
-0.17062078 0.4543802 0.21261689 -0.6871399 0.20043814 -0.32210422 -0.48639765 -0.15011519
-0.7957476 -0.8622756 2.6642172 -0.45793238 -0.9179516 0.26985455 -1.1485596 -1.0696838
-0.6621763 -0.8311289 0.21768124 0.40933812 -0.8673776 0.57775587 0.40540284 -0.20966257

features.module.0.bias f4 [16]
00000000: 4839 65bd 70a1 8a3d 7354 2b3e 40f6 853e
00000010: 4527 973e c493 83be f50a a73d c2be 0ebe
00000020: 5278 11bd ca66 78be 1d23 973e a192 73be
00000030: c85e 313e 7444 e93d 47b0 d73d cd6d 33be
-0.05596283 0.06769073 0.16731434 0.26164436 0.29522148 -0.25698674 0.08156387 -0.13939956
-0.035515137 -0.24257961 0.29518977 -0.23786403 0.17321312 0.113900095 0.10531669 -0.17522354

features.module.1.weight f4 [16]
00000000: db99 8e3f b1ed 553f aaed 943f d611 e33f
00000010: c1b7 6d3f 7adf 9b3f f715 7e3f ea3a 533f
00000020: 5073 9d3f 12a2 1b3f 06e8 2c3f ebe9 e53f
00000030: b066 423f 968b e23f 5263 c13f b2b1 ed3f
1.1140703 0.83565813 1.1635029 1.7739818 0.9285851 1.2177575 0.99252266 0.8251177
1.2300816 0.60794175 0.6754154 1.7962011 0.7593794 1.7698848 1.5108435 1.8569853

features.module.1.bias f4 [16]
00000000: d5b0 01c0 1460 d8bf 30b1 a6be 81a2 12bf
00000010: 29c9 b8bf 35f6 fcbe b941 87be 34d6 0abf
00000020: 7613 d0be 7425 3abf eab3 92bf 97cd 05bf
00000030: 75fa 7dbf 9d4e e3be ca74 20bf 517f d4be
-2.026418 -1.6904321 -0.32557058 -0.5727921 -1.4436389 -0.4940659 -0.2641733 -0.542331
-0.40639848 -0.727134 -1.1461155 -0.5226683 -0.9921029 -0.44395915 -0.62678206 -0.41503385

features.module.1.running_mean f4 [16]
00000000: d05b a7bb 04fc ae3d ec03 db3d 92c2 543e
00000010: fa12 c73e 3aee 8cbe f996 0b3d 8ae4 f6bd
00000020: 008e 9ebd 55a8 88be 0a3c a93e 278f 90be
00000030: bcd2 5f3e 34c3 553d 7d1b 66bc 0190 71be
-0.0051073804 0.08544162 0.106941074 0.20777348 0.38881665 -0.27525502 0.034079526 -0.12055309
-0.07741928 -0.26690927 0.3305362 -0.28234217 0.21857733 0.052188113 -0.01404464 -0.2359009

features.module.1.running_var f4 [16]
00000000: 4abc db3f 9e5c 8e3f 2c43 4a40 b780 9040
00000010: f4c2 aa40 34d6 e63f f668 8140 92cc 9240
00000020: 7b5b b940 3fcc 8e3f 3334 db3f 3bc2 7540
00000030: f7e5 c33f 2778 853f f4b3 2940 372a 8f40
1.7166836 1.1122015 3.1603498 4.5157123 5.336298 1.803412 4.0440626 4.587472
5.792417 1.1156081 1.7125305 3.83998 1.5304555 1.0427293 2.6516085 4.473903

features.module.4.weight f4 [32, 16, 3, 3]
00000000: f2c2 b9bd 6b6d 4fbd 2edd 05be dd9b abbc
00000010: dc02 0f3d 7570 ccbd 8c8c b9bd 31ad 2a3e
00000020: 7e08 983e 9ef8 2cbe b3ca 2c3e 18c1 ee3e
00000030: 1a7d 49be 1b2f b9bd 3b03 c23d a1a7 90bd
00000040: a880 103e 442a 0c3f 93b9 a53e 4d9e ebbd
00000050: 8f71 323e 4743 293d 0f82 37be 343e 393c
00000060: b33f 963d e226 51bd dad9 a3bb dd7f 06bf
00000070: e9a0 b9be 04b1 16bd 37f4 d7be 013c 42be
00000080: 1b09 30bd fe3f 7bbe 17ea 8cbd e704 b33e
00000090: 7c38 343c af51 5cbd 6d6c 1fbd fb3b fbbd
000000a0: 2180 87bd bb9f 8c3d 8e96 a8bd be9c 6b3c
000000b0: de2a 3b3e 1b61 8abe 8c8b 0cbd a8ea 7f3d
000000c0: 6b75 e5bd bfb3 96bd 2abc 553d 8c01 d3bd
000000d0: 8cf0 5cbd b484 23be cc71 4ebe 436c dbbd
000000e0: 9eca 2dbd 2dda 6bbe d417 4abe 38e8 78be
000000f0: bdf8 c3bd bd6b 34be 0d6b 93be b899 7dbe
00000100: b8a4 813e 7170 51bd 858b 37be 404f 3d3e
00000110: d681 3e3d 2b8f 8bbd 5424 333d 6d23 953e
00000120: 13c5 d53d c351 f9bd 08f8 76be dca5 913e
00000130: 3e3d 3fbd 502c 33bd b901 043e 60e3 09be
00000140: 6432 e5bd 3007 bfbe 8892 5dbe f5fe 283e
00000150: bd08 b4be 5f22 9abe 5a24 993d 2d2a c3be
00000160: 1ada 2bbe e16a f83d e536 943e 5a86 5a3e
00000170: 1a00 f0bc 1e86 82bd 9a4a 1f3d aa34 babc
00000180: 47e3 0cbd 832e 2b3e 4655 64be d275 4d3b
00000190: f112 98bc c4a5 1b3e 284c 1f3e 09cb 3abd
000001a0: d11e 53bd 1070 7e3d 2cd2 413e b108 adbe
000001b0: 18db 23bd 6835 65be 3916 253e 31db 9d3d
000001c0: ecc1 f8bc d2d9 c63d d995 f93d a216 aa3c
000001d0: f4e4 f63c 63ac a6be e1bd 1fbe 2652 d8be
000001e0: ccc7 55be a4e2 fabd 57ca 4dbe aff6 74be
000001f0: 9a7b 7abe a7fe f7be 5f8d 85be f175 ebbd
00000200: 1569 8ebe dd9d 25be 94ac aa3c e965 29be
00000210: f371 38be b04b f3bc d3df cbbe dbbe b8be
00000220: b135 14be df75 d3be fad1 a9bd fe09 c43d
00000230: fc48 a4bd 7960 b8bd ad2b e1bd 3ad8 39be
00000240: 2cf2 243c bb50 eebd d825 adbe b9b2 b53d
00000250: db14 4abd 560c 5abe c5a7 c7bd 84cd e3be
00000260: 6cf6 e9be ebc2 5f3c 21b5 263d c934 c6bd
00000270: e81f 49bd 1740 efbb d6b0 31be 04f6 9bbb
00000280: 0464 c33d eb60 4cbd 00c8 933d 51d1 d93c
00000290: 8c18 0e3e b80c e73c e986 3fbe cfe9 cebd
000002a0: c099 d13d 865b a2bd ff58 a8bd b7c4 9dbe
000002b0: 9e19 1cbe ad80 acbd 4b1d 67bc cbc7 0d3e
000002c0: 55a9 4fbc eb63 a2bc 6fe7 0ebd 6a3b e6be
000002d0: 5e60 8d3d 3cb3 2e3c 0737 2cbe 1230 76bc
000002e0: 8e6b d13d 6dbc 2ebe ef43 dc3d 1e81 193e
000002f0: e21b 8fbe 5332 8abc 852c a5bb e4fa 82bc
00000300: 9738 51bc 8eb9 d7bd 5977 863d 9765 073d
00000310: 46c9 c8bd c236 193e 4576 083d eb91 ed3c
00000320: 2a3a 11be 6991 a8be 4829 25be 216a 26be
00000330: b89e 84be 96de 3abd 6666 32be 1765 17bf
00000340: a439 ffbe 6e9d 15bf c534 93be 3dde 89bd
00000350: 9a76 5abe 66cc 09bf ff47 e6be 6ba2 18bf
00000360: 2b01 05bd 4a20 b8bd 5676 0ebd ef7c f23d
00000370: e85f fbbb b5cb 9f3d f21e 013d 54a1 94bd
00000380: ea12 51bd 34a4 233d 97a1 4ebe 52c2 c3be
00000390: b36e bfbd 8638 d1bc 36e8 2bbe d053 b3bd
000003a0: d8f6 873d f2a1 36bd ed72 323e 8883 9b3c
000003b0: e863 ccbc 4ea7 eb3d 8caf 1a3d 1188 34bd
000003c0: acb8 3a3a 96ac 923c b8a6 6ebd d994 153d
000003d0: 61d1 b4bc da00 683d f511 8cbe 335a edbc
000003e0: 5975 21bd 3644 bf3d f78b b03b de14 fdbc
000003f0: e5a7 1c3d 5df9 cfbd 2bdf 6fbe 92b8 b33c
-0.09070386 -0.05064146 -0.13072655 -0.020948345 0.034914836 -0.09982387 -0.0906001 0.1666763
0.2969398 -0.16891715 0.16874199 0.46631694 -0.19676629 -0.09042188 0.094732724 -0.07063223
0.14111578 0.5475199 0.32368144 -0.11504803 0.17426132 0.041323926 -0.17920707 0.011306334
0.073363684 -0.051062472 -0.005000335 -0.52538854 -0.36255577 -0.03678991 -0.4217851 -0.18968202
-0.042977434 -0.2453613 -0.068805866 0.34964678 0.010999795 -0.053788837 -0.038921762 -0.122673
-0.066162355 0.06866404 -0.08231841 0.014380632 0.18278071 -0.2702721 -0.03431277 0.062479645
-0.11204036 -0.073585026 0.0521814 -0.103030294 -0.05394034 -0.15968591 -0.20160598 -0.10714009
-0.04242956 -0.23032446 -0.19735652 -0.24307334 -0.095689274 -0.17619224 -0.2879261 -0.2476567
0.25320983 -0.051132623 -0.17924316 0.18487263 0.04651054 -0.068144165 0.043735817 0.2912859
0.104379795 -0.12173798 -0.24118054 0.28446853 -0.046689264 -0.04374343 0.12891282 -0.13465643
-0.11191252 -0.3731017 -0.21637928 0.16503508 -0.35162917 -0.30104348 0.07477637 -0.38118115
-0.16782418 0.121297605 0.2894813 0.21340314 -0.029296923 -0.06373237 0.038889505 -0.02273019
-0.034396436 0.16716962 -0.22298154 0.0031350744 -0.01856372 0.15199953 0.15556395 -0.045603786
-0.05154306 0.06211859 0.1892783 -0.33795694 -0.040003866 -0.22383654 0.16121759 0.07707823
-0.030365907 0.09709515 0.12186784 0.020762745 0.03013847 -0.32553396 -0.15599777 -0.42250174
-0.20876998 -0.122502595 -0.20096718 -0.23922227 -0.24461213 -0.48436472 -0.2608442 -0.11497105
-0.27814546 -0.16173501 0.020834245 -0.16542782 -0.18012218 -0.029699177 -0.39819202 -0.3608311
-0.14473607 -0.41300866 -0.08292003 0.09572218 -0.08021733 -0.09002776 -0.109946586 -0.1814889
0.010067504 -0.11636492 -0.33817935 0.08871979 -0.049336296 -0.21293768 -0.097487964 -0.44492733
-0.45695817 0.013657312 0.04070008 -0.09678037 -0.049102694 -0.0073013413 -0.17352614 -0.004759552
0.09540561 -0.049897116 0.07215881 0.026589068 0.13876551 0.028204307 -0.18703808 -0.10103189
0.102344036 -0.07927613 -0.082201 -0.30814144 -0.15244147 -0.084229805 -0.014106105 0.13845746
-0.012674649 -0.019823035 -0.03488868 -0.44967204 0.06903146 0.01066285 -0.16817866 -0.015026109
0.102255926 -0.17064066 0.10755145 0.1499066 -0.2795096 -0.0168697 -0.0050407075 -0.015988775
-0.01276984 -0.105334386 0.065657325 0.033055868 -0.09804015 0.14962295 0.033315916 0.029000243
-0.14182344 -0.3292344 -0.16129029 -0.16251422 -0.25902343 -0.04562243 -0.17421874 -0.59138626
-0.49848664 -0.58443344 -0.28751197 -0.06731842 -0.21334305 -0.5382751 -0.44976804 -0.5962283
-0.032471817 -0.08990534 -0.034780823 0.118402354 -0.007671345 0.07802526 0.031523652 -0.072573334
-0.05104343 0.03995152 -0.20178829 -0.38234192 -0.09347286 -0.025539648 -0.167878 -0.0875622
0.066388786 -0.044588037 0.17426653 0.018983617 -0.024949983 0.1150652 0.03776507 -0.044075076
0.0007122855 0.017904561 -0.058264464 0.036518905 -0.022072496 0.056641437 -0.2735745 -0.028973674
-0.039418552 0.09339182 0.005387779 -0.03089374 0.038246054 -0.10154984 -0.23424976 0.021938596

features.module.4.bias f4 [32]
00000000: 7971 ac3c b58b 263d e6b3 97bd cf74 67bd
00000010: c73f 9fbd 04eb 1a3d fee3 783d 066e 9fbd
00000020: cc8f ac3c bc9b 863c 9417 32bd da67 8f3c
00000030: 16e6 7f3d e0c1 a23d 6382 0f3d 0e9b 83bc
00000040: 44d4 3cbd 4fcb fcbc 6131 2e3a 0af6 c2bb
00000050: 0e28 723d bcf5 95bd b8fa ec3b 8c19 d3bc
00000060: 3f62 dd3b 7091 9f3d f057 1b3b a93c 66bc
00000070: 20f6 e0bc 4998 a5bd e655 96bd d399 103d
0.021050202 0.04066058 -0.0740736 -0.05650788 -0.077758364 0.037821785 0.060764305 -0.07784657
0.021064661 0.016431682 -0.043479517 0.017505575 0.062475286 0.07947135 0.035036456 -0.016065147
-0.04610087 -0.030858664 0.0006644931 -0.0059497403 0.05912023 -0.07322261 0.0072320364 -0.025769018
0.0067560966 0.07791412 0.0023703538 -0.014052548 -0.027461112 -0.08085687 -0.073406026 0.03530295

features.module.5.weight f4 [32]
00000000: d55c 223f f120 a13f dbb9 963f fe77 553f
00000010: cfb3 313f f79b 9d3f 2519 3d3f 3154 183f
00000020: abe1 3e3f 3c0f 703f 3d66 723f ba0c 923f
00000030: 60b7 203f d65d 373f d90b 9c3f b7ff 273f
00000040: 12a6 683f b50a a03f 354c 563f cb93 523f
00000050: ea4f 8c3f 23cb 7e3f d31e 2e3f e37b 4d3f
00000060: 6bfd 453f f0f5 373f f0d7 983f dcdb aa3f
00000070: 9d5c 473f 1f4a 133f 34ff 3f3f d6b3 3e3f
0.634229 1.2588178 1.1775469 0.8338622 0.6941499 1.2313222 0.7386649 0.59503466
0.7456309 0.93773246 0.94687253 1.1410134 0.6277981 0.7162756 1.2191116 0.65624565
0.90878403 1.2503268 0.8371003 0.82256764 1.0961888 0.9952871 0.68015784 0.8026716
0.7733981 0.71859646 1.1940899 1.3348346 0.7787569 0.57534975 0.74998784 0.7449316

features.module.5.bias f4 [32]
00000000: 7efe 83bf cecc 84bf db1c 4bbf 7d75 41bf
00000010: d79b 98be abec 70bf 46b8 0abf 3963 2abf
00000020: 3e58 dbbe d3f2 5ebf 8cd0 35bf 2983 8fbf
00000030: cb60 34bf d649 b8be f0ad 5ebf 94da 94bf
00000040: 1522 84bf a93f 83bf 1f26 91bf 927e 7abf
00000050: 5c0b 48bf 5ec5 15bf f87a 57bf 76e7 8cbf
00000060: 18a3 31bf 6a88 2fbf ef93 82bf 7af3 85bf
00000070: 63ad 83bf 95c1 b6be a4b1 07bf 5020 2cbf
-1.031204 -1.0375001 -0.79340905 -0.755699 -0.29806396 -0.94111127 -0.5418743 -0.6655765
-0.4284076 -0.8708927 -0.7102134 -1.1211902 -0.70460194 -0.35993832 -0.8698416 -1.1629205
-1.0322901 -1.0253803 -1.1339759 -0.9784938 -0.78142333 -0.58504283 -0.8417201 -1.1008136
-0.69389486 -0.68567526 -1.0201396 -1.0464928 -1.0287288 -0.35694566 -0.53005433 -0.67236805

features.module.5.running_mean f4 [32]
00000000: 9afc febf 3e48 0cc0 4f42 5bbf 9a2f 31bf
00000010: 8d9e f4be a3d6 9cbf 0896 bdbf dc50 a2bf
00000020: 2a12 69bf 2411 6ebf c02e bebf 068e f8bf
00000030: ff6f 74bf da73 2cbf b355 d7bf 5633 a8bf
00000040: e1d1 15c0 38b5 f7bf 8d3d d2bf 98d4 c5bf
00000050: a875 90bf 615c 61bf c798 5dbf 022e 08c0
00000060: db34 d5bf b595 4fbf 13b8 4dbf b06b a5bf
00000070: 98c1 e5bf 1804 5abf 4619 2bbf 1c9f 8dbf
-1.9920838 -2.1919093 -0.85648054 -0.6921326 -0.47777215 -1.2253002 -1.4811411 -1.2680926
-0.9104334 -0.92994905 -1.4858017 -1.9418342 -0.9548339 -0.67364275 -1.6823028 -1.3140666
-2.340935 -1.9352179 -1.6425034 -1.5455503 -1.1285906 -0.88031584 -0.86561245 -2.127808
-1.6656755 -0.8108781 -0.80359 -1.2923489 -1.7949705 -0.85162497 -0.6683544 -1.1064181

features.module.5.running_var f4 [32]
00000000: 6f41 a33f d8c0 6640 9ff1 8c40 4e18 1f3f
00000010: fa6c 353f a75e 0740 c44d bc3f c46e 613f
00000020: 8a14 573f f9b3 0340 057c f23f 9dab 2940
00000030: 802b 863f c50f 723f 7c25 4340 3750 803f
00000040: 9f05 2540 9570 3740 b30d a93f 78ad 0440
00000050: 5390 f43f 04fa c23f c48a 9b3f 54a1 e13f
00000060: 5e44 d23f 0e68 dc3f affc 0940 b73c 1a40
00000070: a521 ab3f d54f 263f 6876 873f 3c1a ba3f
1.2754344 3.6055202 4.404495 0.6214646 0.7086941 2.1151521 1.4711232 0.8805964
0.84015715 2.0578597 1.8944098 2.6510994 1.0482025 0.9455531 3.0491629 1.002448
2.578468 2.8662465 1.3207306 2.0730877 1.9106544 1.5232549 1.2151723 1.7627358
1.6427114 1.7219255 2.1560476 2.4099557 1.3369642 0.64965564 1.058301 1.4539256

features.module.8.weight f4 [64, 32, 3, 3]
00000000: 0cdd 273d 556a c33c 1e19 b6bc 60ea 323d
00000010: b15b db3c 352d 18bc b1d4 1e3d 669e 913c
00000020: 8dec 68bc 1771 023d d709 ae3c 0b8f 283b
00000030: 92aa 193c 2fff 4cbc 1e16 15bd 0284 5abc
00000040: 90b8 3fbd 23a7 abbd 4a64 e7bc e52b 63bc
00000050: 472b 2bbd 1676 46bd 0b22 57bc fe7b 45bd
00000060: 63a0 57bd 5735 bbbc 47ec 2bbd b961 91bc
00000070: 15d4 19bc d869 8b3b 500f 94bc 4838 16bc
00000080: 5f5d 073c 99ae a2bc 1036 20bc f2dc d23b
00000090: 4d5e 07bd 77e0 24bc ddb2 1bbd 5ac2 d8bc
000000a0: cfb9 dbbb 5c54 d8bc 06bb e6bc b74a e8bb
000000b0: a296 ccbc 3737 0cbb 35b1 b1bc 38d8 c9bc
000000c0: 4c6e 1abb 23da 5abb feae 8fbc 7a24 4d3b
000000d0: 3bff ed3b dc6d 96bc 6a12 61bb c275 b2bb
000000e0: 6d05 c1bb 89ac 96bc ad35 b1bc f42c 7ebc
000000f0: c8c0 aebc 2cc3 09bd c3cc f5bc 050e 623d
00000100: 1ad9 a23c 1052 083d 0c6a 743c c633 4c3c
00000110: f4a0 c73c 541d 55bb 4890 293c 005e 243d
00000120: dcd0 16bc 5799 06bd 7c69 9dbc fc9c cabc
00000130: 022d 07bd b2e1 41bc 37e1 17bd d18c 2ebd
00000140: 68f5 b9bc 8d87 f1bc 7131 c2bc cc07 16bd
00000150: d770 debc a2aa ccbc 2f43 e2bc 7569 24bd
00000160: 0774 f7bc 86dc e9bc 48c7 e03d 3796 243e
00000170: 5b97 683e 78d9 833d 6097 ed3d 2bdb 313e
00000180: d2c8 c43d ca5e 293e e5be 6c3e 0805 633e
00000190: d6cc 0f3e de2f 143e fac7 1d3e 3261 6f3d
000001a0: 3289 a13d 7445 773e c090 083e 1a28 0f3e
000001b0: e6c1 72bd 53e1 30bd fbd4 49bd 87bd 28bd
000001c0: 929c b3bc cd4f d0bc 1bd3 7fbd 2a24 62bd
000001d0: 9381 8fbd 1ffa bb3d b1d8 7e3d a691 9d3d
000001e0: 15dc 8a3d 5c1b 0f3d 1e55 243d 97a1 c53d
000001f0: 08d7 413d 3f3c 5a3d 4cc3 463b 46b7 75bc
00000200: 3988 02bd 95e7 313c 3124 76bc 8f4c 3bbd
00000210: bb4b 143d bbf2 f43b aee2 22bd 88d7 28bc
00000220: 1497 adbb 9836 6cbb ab14 99bc 67df 27bc
00000230: b152 3ebc 78e5 04bd 84f0 b4bc a21d 05bd
00000240: f4e0 893c 8565 b23c 9dae bb3c 6c02 973b
00000250: ad4e 983b 25d4 193c 9e32 d0b9 1787 783b
00000260: 2e82 1c3c f466 a2bb 1d34 c2bc 0559 96bb
00000270: 7b99 00bc c545 0cbd 5a51 5cbc 6034 09bc
00000280: 3dad 17bd 5d7f 313c cf91 12bd c7cf 3fbd
00000290: 02c5 46bd ecc9 ccbc fc05 f6bc 5f81 b8bc
000002a0: fb62 81bd 1d81 48bd 6783 4bbd 20a3 743c
000002b0: 7fe5 823c 15a4 8a3c c99f 5a3c 58aa 0a3c
000002c0: 3e75 643c 94b7 923c 8110 8a3c 5513 fe3c
000002d0: c8f3 13bd 69ed 34bc 130d 0b3c 8718 2ebd
000002e0: d758 79bc e14a 7c3c 90d0 90bd fd94 14bd
000002f0: 6385 90bb 9054 e6bc a792 07bd 691e 22bd
00000300: 8ae4 cdbb a25e 82bb 2df0 7bbc 0bd7 c0bb
00000310: e198 0dba 1550 f5bb cb6e 1dbd 455f d0bc
00000320: 8a58 e1bc 8e7a a3bc 7074 34bc 71a4 97bc
00000330: dd42 50bc 6e9e 1fbc 8632 6cbc 29a7 2ebd
00000340: add0 06bd c9f2 7bbd f27a d0bc 1641 85bc
00000350: 6b7a edbc 9270 18bd 9af9 f6bc fff3 3ebd
00000360: b23d 603d c417 303d 949d 7f3d 8f52 363d
00000370: b6b6 f63c 0973 6b3d caae 903d 03ed 7b3d
00000380: 4f6e b33d 22b0 e33d 653f ee3d 5424 ef3d
00000390: 6493 a33d 33bc 6f3d 1439 0d3d 4a95 e13d
000003a0: f458 863d e060 2a3d 93fd 30bc ace5 283a
000003b0: 540d 0bbc 9891 223c 47db c63c 41b6 9f3c
000003c0: 6009 0dbc 89b1 f73b fca0 e03b 23a3 21bd
000003d0: d831 26bd f8b4 68bd 6d2f c6bc b53a bdbc
000003e0: 5d7d 1bbd c655 27bd c0b1 b6bc af5d a4bc
000003f0: a632 963c d320 963c 9b50 c23c 5f83 de3b
0.04098229 0.023854414 -0.022228774 0.04368055 0.02677712 -0.009288122 0.038777057 0.017775726
-0.014216554 0.031846132 0.021244926 0.0025720026 0.009379046 -0.012512012 -0.036398046 -0.013337137
-0.046806872 -0.08381488 -0.028246064 -0.013865446 -0.04178932 -0.04845246 -0.013130675 -0.04821395
-0.05264319 -0.022852583 -0.04197338 -0.017746793 -0.009388943 0.004254561 -0.018073708 -0.009168692
0.0082620075 -0.019858645 -0.0097785145 0.00643503 -0.033048917 -0.010063282 -0.038012374 -0.026459862
-0.0067054997 -0.026407413 -0.028165352 -0.007088985 -0.024974171 -0.0021395215 -0.021690944 -0.024639234
-0.0023564277 -0.003339418 -0.017539497 0.003130226 0.007263092 -0.018362932 -0.003434325 -0.0054461667
-0.0058905394 -0.018392818 -0.02163204 -0.015513647 -0.02133216 -0.033633396 -0.030004865 0.05518915
0.019878913 0.033281386 0.014917862 0.012463516 0.02436874 -0.0032518702 0.010349341 0.040128708
-0.009205069 -0.03286108 -0.019215338 -0.02473306 -0.033001907 -0.011833595 -0.037080016 -0.04261476
-0.022700027 -0.029483581 -0.023705216 -0.03662853 -0.027153416 -0.024983708 -0.027619926 -0.040139634
-0.030206693 -0.028547537 0.1097551 0.16072927 0.22713988 0.06437963 0.11601138 0.17368762
0.09608616 0.16540065 0.23119695 0.22169888 0.14042982 0.14471385 0.15408316 0.058442302
0.07887496 0.24147588 0.13336468 0.13980141 -0.059266947 -0.043183636 -0.04927538 -0.041196372
-0.021925244 -0.025428677 -0.062457185 -0.05521027 -0.07007136 0.09178566 0.06221837 0.07693796
0.067802586 0.0349382 0.040120237 0.096499614 0.04732421 0.05328011 0.0030328808 -0.014997309
-0.031868193 0.010858436 -0.015023277 -0.04572731 0.036205035 0.007475225 -0.03976696 -0.010305293
-0.005297551 -0.0036043283 -0.018686613 -0.010246134 -0.011616395 -0.0324454 -0.022087343 -0.032498963
0.016830899 0.021776924 0.02291041 0.004608443 0.0046480508 0.009388958 -0.00039710564 0.0037922317
0.009552522 -0.0049561206 -0.02370649 -0.0045882487 -0.007849093 -0.034246225 -0.01344713 -0.008374304
-0.037030447 0.010833588 -0.035783585 -0.04682901 -0.048527725 -0.024998628 -0.03003215 -0.022522626
-0.06317707 -0.048951257 -0.049685862 0.01493147 0.015978573 0.016923944 0.01334376 0.008463465
0.013943968 0.017909802 0.016853573 0.031015078 -0.03612116 -0.011042931 0.008487004 -0.04250386
-0.015218935 0.015398712 -0.0707103 -0.0362749 -0.004410432 -0.028116494 -0.033098843 -0.039579783
-0.0062833475 -0.0039785663 -0.015377087 -0.00588501 -0.0005401504 -0.007486353 -0.03843574 -0.025436053
-0.027508039 -0.0199559 -0.011014089 -0.018511029 -0.012711254 -0.009742362 -0.014416343 -0.042639885
-0.032913852 -0.061510835 -0.02544925 -0.016266387 -0.028989037 -0.03721673 -0.030148316 -0.04661941
0.054746337 0.042991415 0.062406138 0.044512328 0.03011642 0.057482753 0.07064588 0.06150533
0.08761274 0.11117579 0.11633185 0.11676851 0.07987097 0.05852909 0.034478262 0.11014803
0.06559935 0.041596293 -0.010802644 0.0006442915 -0.008487064 0.009922408 0.024274481 0.019496085
-0.008608192 0.0075590056 0.0068551283 -0.03946222 -0.04057488 -0.05681321 -0.024192536 -0.023099283
-0.037961353 -0.040853284 -0.022301555 -0.020064203 0.018334698 0.018326199 0.023720076 0.006790563

features.module.8.bias f4 [64]
00000000: 5b3b d7bc 1bcc 2c3c 15f5 353c 5214 673d
00000010: cab1 563d c4c9 41bd dd33 e93c 7f22 3cbd
00000020: 0d82 e5bc e83b b93c 4e90 20bd 3647 493d
00000030: 5bbd b13c 6b97 a03b fc7c 033d 79f6 47bd
00000040: 55e8 1a3c d5f0 ae3c 29ee d7bc 31ef 91bc
00000050: 366e be3c cbd7 463d ac17 b7bc 1cbb 0d3d
00000060: 4196 033d bc5e 09bd 9495 3abd bc44 ddbb
00000070: 63a9 113d 31b3 43bd a21b 23bd 090d 2b3d
00000080: b09d 06bd f597 27bd 911d 20bb 8fb4 653d
00000090: 2ed4 1a3d 0635 f23c 663f f03b 2736 ebbc
000000a0: c1e3 36bd e969 f93c 9125 8b3c c958 743c
000000b0: e082 adbc 5e05 65bd 7a6e 003c 9cae 21bc
000000c0: ee15 8ebb b440 b23b 3a35 09bd 0837 12bd
000000d0: 2329 88bc 5534 b63c bcf6 12bd 57c8 5a3d
000000e0: d000 67bd b5af 11bd 788e 863c 2054 64bd
000000f0: 504f 02bd 9143 f23c fb16 1fbd 395c 963c
-0.02627342 0.010546709 0.011105795 0.056415863 0.052415647 -0.04731156 0.028467113 -0.045931336
-0.028016115 0.022611573 -0.03920012 0.049140178 0.021696737 0.004900863 0.032101616 -0.04881904
0.009454806 0.021355072 -0.02635868 -0.01781425 0.023245912 0.04854564 -0.022350155 0.03460227
0.032125715 -0.03353761 -0.045552805 -0.0067525785 0.03556193 -0.047778312 -0.039821275 0.04176048
-0.032865226 -0.040916402 -0.0024431685 0.056080397 0.037800007 0.0295663 0.0073317764 -0.028712345
-0.044650797 0.03044601 0.016985686 0.014913746 -0.02118057 -0.05591332 0.00783884 -0.00986829
-0.0043361103 0.005439842 -0.033498026 -0.035697013 -0.016621178 0.02224175 -0.035879835 0.053413715
-0.05639726 -0.035567958 0.016425356 -0.05574429 -0.03181392 0.029573234 -0.038840275 0.018354522

features.module.9.weight f4 [64]
00000000: 46bc b840 10b1 9b40 8d20 8c40 e56e 7540
00000010: 5db0 5340 cf78 8340 3c0b 7140 11a8 c840
00000020: e6ea 6840 00ec 9640 c16a 4f40 4f64 8040
00000030: f902 8f40 2d15 aa40 a65b 9740 f46c a840
00000040: 904b 7240 cbb2 8b40 7727 c740 932e 9c40
00000050: 0778 7e40 4f35 b340 9401 6540 18e5 9d40
00000060: df04 af40 f121 7140 29c1 8540 f20f 7640
00000070: 7e60 6140 0b9e 7040 f102 5c40 b934 b040
00000080: d29a 8d40 a2b7 be40 7973 b940 a58f 9440
00000090: c1ce 9e40 4e57 be40 03fc 9540 b54f 8240
000000a0: 0a19 ca40 62bf a840 cc8a 8340 5151 9940
000000b0: 3072 a040 33d7 c240 2c41 9740 9fa0 8d40
000000c0: d162 8e40 1143 8d40 978b c140 892b 6240
000000d0: c809 7f40 252a 8f40 7c5a a440 0a82 b940
000000e0: bb05 9940 5b06 9040 f622 8b40 7521 b340
000000f0: cfe3 8740 5356 7f40 b896 8a40 bfde 7740
5.7729826 4.865364 4.3789735 3.8348935 3.3076394 4.108497 3.7663107 6.270516
3.639337 4.7163086 3.2408907 4.0122447 4.469113 5.315085 4.7299376 5.2633
3.785862 4.3655753 6.2235675 4.8806853 3.976076 5.6002574 3.5782213 4.9342155
5.4693446 3.7676966 4.179829 3.8447232 3.5215144 3.7596462 3.4376795 5.506436
4.425149 5.959916 5.795346 4.6425347 4.9627385 5.9481573 4.687013 4.07223
6.3155565 5.273362 4.110693 4.7911763 5.013939 6.0887694 4.7267056 4.425857
4.4495625 4.414437 6.04829 3.5339072 3.984972 4.4738946 5.1360455 5.797124
4.7819495 4.500776 4.3480177 5.597834 4.2465587 3.9896438 4.3308983 3.8729703

features.module.9.bias f4 [64]
00000000: 9bd1 a03f 95d5 813f 792a 8d3f bcd5 503f
00000010: 2e25 193f df91 793f 20c4 653f f3e9 ef3f
00000020: 404a 673f c494 7b3f 9d51 503f 620d 893f
00000030: 0d35 6e3f c106 c23f 10ea a03f d0cf 9b3f
00000040: 34c9 323f 7bcb 903f 2bf6 e83f 02e2 883f
00000050: 2985 673f 4f39 5440 bd0a 6e3f b37c 753f
00000060: 287a ad3f 0a20 443f 15d9 393f d534 7b3f
00000070: 0b9e 473f 24c6 623f b907 483f 6219 e33f
00000080: 9777 a53f 2d5f 4d40 b31d 0540 15e2 5f3f
00000090: 31df ac3f 82e1 0840 920c 883f 5d48 7a3f
000000a0: ee92 9d3f 4555 f73f 5567 873f 5916 9d3f
000000b0: 54ba d63f 2758 813f 0783 813f 8e1b c43f
000000c0: aee8 883f 21f6 5d3f ca7d cf3f 5608 5d3f
000000d0: 64c7 863f 29b5 b43f 33df c63f b5bb 9f3f
000000e0: d668 9a3f 06da 893f 43bf a03f 5b9f b93f
000000f0: b6ee 8e3f 82b0 843f 19fa 8a3f ba0b 4e3f
1.2563967 1.0143305 1.1028587 0.8157613 0.59822357 0.97488207 0.8975239 1.8743271
0.9034767 0.98273873 0.8137453 1.0707209 0.930497 1.5158311 1.257143 1.2172794
0.6983826 1.1312097 1.8200125 1.0693972 0.9043756 3.3159978 0.92985135 0.958934
1.3552904 0.7661139 0.72596866 0.9812749 0.7797553 0.8858359 0.78136784 1.7742121
1.2927121 3.208934 2.0799377 0.8745435 1.3505613 2.138764 1.0628836 0.9776667
1.2310464 1.9322897 1.057841 1.2272445 1.6775613 1.0105027 1.0118111 1.5320909
1.0696008 0.8670369 1.6210263 0.86340845 1.0529599 1.4117786 1.5536865 1.2479159
1.2063243 1.076966 1.2558368 1.4501756 1.1166599 1.0366366 1.0857574 0.80486643

features.module.9.running_mean f4 [64]
00000000: 701a 3f3b e4e3 283d 6767 fe3c 51a3 8d3d
00000010: 153e 913d 8493 abbc 659f 3d3d 9205 f6bc
00000020: 6239 b0bc 8e08 1d3d 6d51 87bc 5e85 a33d
00000030: b5a0 3f3d 9fc6 273d 4f52 313d be67 6abc
00000040: ae4c 023d 4c93 063d 0366 c43b 163f 1f3c
00000050: fa3e 003d 4259 f43d 7c72 90bc d64d 2c3d
00000060: 8592 793d 8461 91bc 5194 9abc 9a30 82ba
00000070: 2512 3c3d 9b23 49bd 35a4 91bc 9205 a13d
00000080: 9a7b cabc e768 9f3c 3a3d f53c bde5 a43d
00000090: c8ca fc3c ace0 823d 0994 2d3d 5253 e2bc
000000a0: 60ca f7bc 6ac2 8f3d d7d2 b93c ed78 b93c
000000b0: fd15 be3c 2b97 a8bc 3969 a03c a83b b23c
000000c0: 8721 1e3c 809a f93c 5a8a 8abc 0685 b0bc
000000d0: 217a 623a 9ab2 bc3c 3fce 8fbc 8a70 a83d
000000e0: 284a 21bd 3600 3dbb 6d38 bc3c 04cd 38bd
000000f0: cbe1 cfbc f072 253d 44dd f8bc aca0 2a3d
0.0029160045 0.04123296 0.031055165 0.06915916 0.07091919 -0.020944364 0.04629459 -0.030031953
-0.021511737 0.038338237 -0.016518319 0.07984422 0.04678412 0.040960904 0.043291386 -0.014306961
0.03181141 0.032855317 0.005993606 0.009719631 0.03131006 0.11931087 -0.017632715 0.042066418
0.060930748 -0.017746694 -0.01886955 -0.0009932697 0.04591574 -0.04910622 -0.017778495 0.078623906
-0.024717141 0.019459201 0.029936422 0.080516316 0.030858412 0.06390509 0.042377505 -0.02762762
-0.030247867 0.070195034 0.022683544 0.02264067 0.023203844 -0.020579895 0.019581424 0.021756962
0.009651548 0.03046918 -0.016911674 -0.021547806 0.00086394144 0.023034383 -0.0175544 0.0822459
-0.03937736 -0.0028839237 0.022976125 -0.045117393 -0.025376221 0.040392816 -0.030378945 0.041657135

features.module.9.running_var f4 [64]
00000000: e1cb aa3c acc8 883c 6350 8e3c bda6 e43b
00000010: 5550 213c 9283 4a3c 3610 2e3c d49a 843c
00000020: 5d55 153c ae0c ed3b 83f9 3d3c da32 5c3c
00000030: 367f 4f3c fd08 b53c 4808 5b3c 6ed1 8f3c
00000040: bef8 413c ee1f 473c fc5b 8a3c 3c82 6a3c
00000050: 446d 043c ff23 823c e682 123c 2495 913c
00000060: c338 933c d04f b83b ca09 593c 697b 223c
00000070: 7ec6 183c 1448 013c f2b7 3f3c e40c 513c
00000080: f65e 543c 1a68 a13c 1699 883c 6dcc 5d3c
00000090: 5b98 473c c4b0 8d3c 9ace 8a3c c4ef 163c
000000a0: 65a5 db3c cd91 4d3c 479f 2a3c e86e 793c
000000b0: aab6 733c 14e7 9a3c 4634 193c 14d5 093c
000000c0: aeb7 1b3c e6b5 653c 8a65 463c cabf 223c
000000d0: 0d5a 043c 965b 2a3c 36e4 383c 5e0b 943c
000000e0: 1dd8 1f3c 4ccc 453c d315 493c 0a89 a33c
000000f0: 54dd 3d3c 1f3e 2c3c 3769 173c d429 453c
0.02084917 0.01669725 0.017372316 0.0069778846 0.009845813 0.01236047 0.010623982 0.016187109
0.0091145905 0.0072341776 0.011595133 0.013439858 0.012664607 0.022099013 0.013368674 0.017555919
0.01183909 0.012153609 0.016889565 0.014313277 0.008082692 0.015886305 0.008942341 0.017771311
0.017971402 0.0056247488 0.013246963 0.009917119 0.009324668 0.00789072 0.011701571 0.012759421
0.012962094 0.01970296 0.01667456 0.013537508 0.0121823205 0.017296202 0.016944218 0.009212438
0.026812265 0.012546969 0.010413951 0.015224196 0.0148750935 0.018909015 0.009350842 0.008412618
0.009504242 0.014020419 0.01210917 0.009933421 0.00807811 0.010397812 0.0112848785 0.018071827
0.009756115 0.012072634 0.01227327 0.019962806 0.011588413 0.010512858 0.009241394 0.012033898

top_layer.weight f4 [10, 64]
00000000: 5b24 d2bd ba93 c8bd 0ad3 78bd b0e9 94bd
00000010: 4647 d8bc 221d d0bd d2a6 af3c 716b 243f
00000020: c400 493d 529e a1bd 3c76 95bd 0bb6 88bd
00000030: c9c0 85bd df60 ffbc 1c24 3fbe 54ee c8bc
00000040: ae6b 46bd 69e1 32be f222 04be 2c1c 5bbd
00000050: 1694 c13c b4dc e13d 6053 0cba 4d32 bdbd
00000060: f3a4 23be 9709 1bbd a3e3 b1bd f2e7 34bc
00000070: 3d10 54bd 1b33 be3e abe4 abbd a40d 81bd
00000080: fe87 213c 7bb2 f9bd 437a d9bd e189 08bd
00000090: fba3 e43e a67d f6bd ef79 cabd d608 c23d
000000a0: 67ff b9bd 6114 0fbe 14ee 493d e6e0 e5bc
000000b0: 0110 77bd 6ecf 0abe 94c4 90bd 9d30 d23e
000000c0: 1ce8 47bd eca5 9ebd 2eca cebd 72e0 cfbd
000000d0: 3f05 833e 1bdd 903e abf1 0b3f 5e56 06be
000000e0: 6825 4ebd 18da 10bd 4199 22bd ed1c 42bc
000000f0: 95b6 dcbc 48e3 02be 7322 023c 0271 45bd
00000100: 5c30 c93e 4527 333d 389e 3c3c fab7 d63d
00000110: 4a67 7a3b 50fc 16bd 15bf 64bd bf83 86bd
00000120: f201 9bbd b75b 873d 2602 9f3e bcd1 a8bc
00000130: 19cd 4fbc 783f e5bd 13b1 16be 40d1 803e
00000140: b934 913c 6245 12be 6712 3f3e e3e3 a1bd
00000150: b00d 51bd 97d6 d1be bee8 493d e82d 3f3d
00000160: 1ee1 853d bf64 3f3d 7e1e d03c 1696 9cbd
00000170: 8d7b 9a3e 91b3 343d 7c9a 933a f74b 6cbe
00000180: b9ae a53d f8fa cdbe be30 973d 85bb b7bc
00000190: 5ef0 e83d 10c9 f53c 3111 0b3c 4bde c23d
000001a0: 4993 263c 60d3 cdbd a6f1 c3bc b0b9 e53e
000001b0: c84b 48be 2fff 073e 1b0d 803e 4014 58be
000001c0: e549 13be 6c60 093c f6c6 313e 0731 803e
000001d0: 5f1f dabd 90aa f93d 6c8a 49bd f697 093e
000001e0: 4d03 18be f8e0 4cbd 6861 f93d 3d74 113f
000001f0: f4d5 75bb 4b6f 13be d873 48bd 9aec cdbc
00000200: 34f0 2fbe 169a c8bd 2620 a6bd 98f2 853e
00000210: 2097 babd 5d9e 0cbd c72f b4bd 9f7e cfbd
00000220: 071b b4bd 0f49 e73e fb4c c6bd e878 4fbd
00000230: b311 d4bd d3bc 72bd edfa babc 7ded 1dbe
00000240: d68c 82bd b02c 9cbc 3818 a9bd e1d8 f0bd
00000250: 67d6 103c d44c d23d 02d5 4fbd 358a ddbd
00000260: f4c0 cbbd 81f0 b53e 8bef 49bd 6ece 46bd
00000270: 6b48 113e d059 99bd 592d abbd ee98 6a3d
00000280: 271b 5dbd 9c4f 7c3e b176 cdbc 0bc2 f1bd
00000290: fceb f2bd 455f 21bd a8e5 81bd fd49 93bd
000002a0: cdb7 cbbd 5a39 c33e c3d5 52bd a427 10be
000002b0: 669e 6fbd bb60 00be fe18 b73e f4a1 dbbb
000002c0: 3b5d 4b3c f1ac 8cbd c882 0a3f 01d7 213e
000002d0: e50e 99bd 431f 6ebd f39e 50bd e611 f3bd
000002e0: a66b fa3c 9780 bdbd 69dd d0bd a511 02be
000002f0: 2295 88bd dece 4cbc cdec a8bc 39a2 edbd
00000300: 64e8 4abd a9db e3bd 6697 5fbd 6735 88bd
00000310: 22f2 733b 8933 0abc a1a2 1ebe c718 02be
00000320: 65bc d4bd 3afe b4bd 05ca 3ebd 97e8 a8bd
00000330: ebe3 ecbc 09f0 5fbd 4329 463e b226 2fbd
00000340: 91c0 a9bd 18e8 173e bd67 08be 8fbb 32bd
00000350: 422f c93e 5a1e 4bbe d1a7 aebd d6b5 dbbc
00000360: e237 37bd 1fe6 b3bd ceec 86bd 2596 32bd
00000370: b427 1abd c190 933a 1df7 b0bd 3229 023f
00000380: ac00 e6bd 1d04 cc3e 8658 07be 9b12 a33b
00000390: 9acf 953d 23f6 e7bd 6294 eebd 84b1 a73e
000003a0: 3de2 26bd c2d4 dabd c32c f8bd 3e5c 183d
000003b0: 3cf9 2cbd cc79 c7bd 6e55 a4bd 1aa6 6dbe
000003c0: 09c6 d53e 438c 9abd 36c0 d3bd f983 82bd
000003d0: ac4d 6dbe 1953 833e ed4c c5bd f12b c4bd
000003e0: e643 e63e 9e65 03bd db33 abbd 3110 fc3b
000003f0: de4a 8abd d4d8 103e 20a9 d43e 5224 bcbd
-0.102608405 -0.097938016 -0.060748138 -0.07271135 -0.026401173 -0.10161807 0.02144185 0.6422644
0.049072996 -0.07891525 -0.07297942 -0.06675347 -0.065309115 -0.031174121 -0.18666118 -0.024527706
-0.048442535 -0.174688 -0.12903956 -0.053493664 0.023630183 0.11028424 -0.0005353 -0.0923811
-0.15980892 -0.037850942 -0.086859964 -0.011041628 -0.0517733 0.37148365 -0.08393224 -0.0630143
0.009859083 -0.121922456 -0.10619023 -0.033334617 0.44656357 -0.12035684 -0.09886538 0.094743416
-0.09081917 -0.13972618 0.049299315 -0.028061341 -0.060317997 -0.1355569 -0.07068744 0.41052714
-0.04880534 -0.07746491 -0.100971565 -0.101502314 0.2558994 0.2829369 0.5466563 -0.13118884
-0.050328642 -0.03536424 -0.039696936 -0.011847717 -0.02694253 -0.12782013 0.007942784 -0.048203476
0.39294708 0.043738622 0.011512332 0.104843095 0.0038208538 -0.036861718 -0.055846293 -0.06568097
-0.075687304 0.0660929 0.31056327 -0.020607822 -0.012683176 -0.11193746 -0.14715986 0.25159645
0.017725335 -0.1428428 0.18659364 -0.07904794 -0.051038444 -0.40984032 0.049294226 0.04667464
0.06537078 0.04672694 0.025405165 -0.07645814 0.30172387 0.04411656 0.001126125 -0.23075853
0.08089966 -0.40230536 0.07382344 -0.022428283 0.113739714 0.0300031 0.0084879855 0.09515055
0.010166951 -0.10050082 -0.023918938 0.4486823 -0.19560158 0.13280939 0.2501 -0.21101475
-0.14383657 0.008384805 0.17361054 0.25037405 -0.10650515 0.12190735 -0.049204275 0.13436875
-0.14845009 -0.050019234 0.12176782 0.5681799 -0.003751156 -0.14397924 -0.048938602 -0.025137234
-0.17181474 -0.097950146 -0.081116006 0.26161647 -0.09110856 -0.034330714 -0.08798175 -0.10131573
-0.087942176 0.45172927 -0.096826516 -0.050652415 -0.10354938 -0.059262108 -0.022824729 -0.15422626
-0.063745186 -0.019064277 -0.082565725 -0.11760116 0.00884018 0.1026856 -0.05074025 -0.108173765
-0.09948912 0.35535052 -0.04930071 -0.04853671 0.14187782 -0.074878335 -0.08358259 0.05727475
-0.053980973 0.24639744 -0.02508101 -0.11804589 -0.11861417 -0.039397497 -0.063426316 -0.071918465
-0.099471666 0.38129693 -0.05147339 -0.14077622 -0.05850067 -0.125369 0.35761255 -0.006702656
0.012412365 -0.068689235 0.54105806 0.15804674 -0.07473544 -0.058135282 -0.050932836 -0.11868648
0.030568909 -0.09253042 -0.10198481 -0.12702043 -0.0666907 -0.012500493 -0.020620728 -0.11603207
-0.04953803 -0.11125881 -0.054587744 -0.06650811 0.003722318 -0.0084351385 -0.15491726 -0.12704764
-0.10387496 -0.08837552 -0.04657938 -0.08247488 -0.028917274 -0.054672275 0.19351678 -0.042761512
-0.08288682 0.1483463 -0.13320823 -0.0436359 0.39293867 -0.19835797 -0.08528102 -0.026820105
-0.04473103 -0.087841265 -0.06588136 -0.04360022 -0.03763552 0.001125835 -0.08640883 0.5084411
-0.11230597 0.39846888 -0.13217363 0.004976583 0.073149875 -0.11326244 -0.116493955 0.3275262
-0.0407431 -0.106851116 -0.121179126 0.037197344 -0.042229876 -0.09740028 -0.08024107 -0.23207894
0.4175265 -0.07546284 -0.10339396 -0.06372828 -0.2317416 0.25649336 -0.09633813 -0.09578694
0.44973677 -0.03207933 -0.083595 0.00769236 -0.06752561 0.14145213 0.41535282 -0.09186615

top_layer.bias f4 [10]
00000000: 745d ea3b 9d8c a1bc 1ee3 153c 2556 c6bb
00000010: 7ac3 0c3c d0ba a13b acb3 a03b 9610 84bc
00000020: d3bb c13b c4d2 a33a
0.0071522538 -0.01972037 0.009148387 -0.0060527497 0.008591527 0.0049356 0.004904231 -0.01612119
0.005912283 0.0012498726

momentum_buffer f4 [16, 1, 3, 3]
00000000: 841c ce3a c4d8 003b 9632 43bc 0048 e238
00000010: 7802 bf3b a0f8 3b3c 4081 bb3c 05a0 0b3d
00000020: d80c 023b 1cdc c43d 1ba2 173e 3c18 d83d
00000030: f350 ba3d d56b 0b3e 4c9c c53d 00a1 243d
00000040: 95b3 093e 57d2 f43d 0c10 9fbd 43c5 c7bd
00000050: 765c 09be b153 a2bd be6f abbd 1f5a d5bd
00000060: fc7c 13bd 1cbf 00bd 88fc ecbc c831 f3bc
00000070: 19d5 42bd 59ee 44bb 8f52 aebd fe4f f9bd
00000080: c92a a6bd ba30 f7bd 0e9c 21be 2e75 e0bd
00000090: 78af 933d fbd7 c43d 7291 e8bc 085d 043d
000000a0: 58ac 233d af6c 19bd 6c97 e43b 1ea8 843c
000000b0: dde0 0cbd b06f c1bc 704e 973c a3e7 63bd
000000c0: 8058 dd39 d651 9c3d e6bd c93c 4cd7 cd3c
000000d0: 2d4f 923d 16cb 123d b2cd aabd 7a45 ebbd
000000e0: 2e7e 83bd 0b23 9cbd dbb4 e1bd da27 74bd
000000f0: 9ff3 55bd b64f acbd 3c4c 33bd 4c77 3ebe
00000100: 73d4 0cbe 0468 f2bc 7621 2bbe 9afa aebd
00000110: 224a 003c 2e43 12be 642a 1fbd bc47 8b3c
00000120: 8adb 62be 7e2b 2bbe 6041 00bc bbb5 29be
00000130: 140e 47bd 9c93 7c3d 8006 dbbd aa97 303d
00000140: fad6 8d3d 8b9e 73bd 902c c2ba e491 3d3c
00000150: 1067 cdbc 472c f2bb c4bf 0dbd b484 debb
00000160: a297 e3bc 6de5 b6bc 38d4 84bd 148d c8bd
00000170: f610 97bd ab18 cdbc e9b1 52bc 209e 703a
00000180: 34a7 dc3c 627f 803d c719 f93c 7cc7 4ebe
00000190: 7cd8 65be f70b 97be a4ee aabd 8be9 bebd
000001a0: 57ab 13be f327 32bc 7415 98bc 12be 90bd
000001b0: 36b7 8f3c 3907 e73c 328c 7abc d775 4c3c
000001c0: bd5d 03bd ca8b 8abc dc9b 183d d6d9 a83c
000001d0: dd29 c83c 4045 35bc 35d5 a4bd 7ae9 05bd
000001e0: 028b 14bd e6b0 b4bd 42d6 9bbd ec29 79bd
000001f0: fe46 1cbe b836 c5bd 6e2c a73c 41c9 083d
00000200: d25e ff3c 30f3 ae3d 94a0 603d d642 1c3d
00000210: 4002 213d f099 743c 7620 80bb 266d babd
00000220: 96a0 a33c c7ff 563c c399 c5bd 7b51 8e3c
00000230: 7377 7e3c 9a44 b6bd 5634 60bc 7d32 acbc
0.0015725051 0.0019660452 -0.011913916 0.00010789931 0.0058291517 0.011472851 0.02288878 0.034088153
0.0019844081 0.09612295 0.14807932 0.10551497 0.09097471 0.13615353 0.09648952 0.040192604
0.13447411 0.11954182 -0.077667326 -0.097544216 -0.13414177 -0.07926119 -0.083709225 -0.1041758
-0.036007866 -0.031432256 -0.02892901 -0.029686823 -0.047566507 -0.0030049293 -0.085118406 -0.121734604
-0.08113629 -0.12069841 -0.15782186 -0.1095985 0.072112024 0.096115075 -0.028389666 0.032315284
0.03995928 -0.037457164 0.0069760587 0.016193446 -0.034394134 -0.023612827 0.01847002 -0.055640828
0.00042218342 0.076327965 0.024626683 0.025127076 0.07144008 0.03583821 -0.083400145 -0.11487861
-0.06420551 -0.076238714 -0.110208236 -0.059608318 -0.05223429 -0.08413641 -0.043773875 -0.18600196
-0.13752918 -0.029590614 -0.16711983 -0.08543892 0.007830175 -0.1428344 -0.038858786 0.017001979
-0.2215406 -0.1671581 -0.007828087 -0.16573231 -0.04859741 0.06166421 -0.10694599 0.043113388
0.06925769 -0.05947737 -0.0014814306 0.011570428 -0.025073558 -0.007390532 -0.03460671 -0.006790722
-0.027782265 -0.022326196 -0.0648579 -0.097925335 -0.07376282 -0.025036177 -0.0128598 0.0009178836
0.026935197 0.06274296 0.0304078 -0.20193285 -0.22445863 -0.29501316 -0.08346298 -0.093218885
-0.1442083 -0.010873782 -0.018564917 -0.07067503 0.017543416 0.028201686 -0.015292214 0.012479267
-0.032071818 -0.01691236 0.037258014 0.020611685 0.024434024 -0.011063874 -0.080484785 -0.032693364
-0.03626538 -0.08822803 -0.07609226 -0.060830995 -0.15261456 -0.096295774 0.020406928 0.033395056
0.031173144 0.08542478 0.05484064 0.038149677 0.039308786 0.01492928 -0.0039101196 -0.0910285
0.019974034 0.0131225055 -0.09648468 0.017372837 0.015531409 -0.088998035 -0.013684353 -0.021020168

momentum_buffer f4 [16]
00000000: 3e0c bcb6 e944 e236 33f8 8b37 2780 db37
00000010: 7dc1 f737 76c8 d7b7 c358 0a37 7389 6ab7
00000020: c19b 6cb6 0a3a cbb7 0c56 f737 3b6e c7b7
00000030: f62c 9137 b67b 3e37 02de 3037 05ed 92b7
-5.604262e-06 6.743347e-06 1.6685668e-05 2.616651e-05 2.9534795e-05 -2.5723344e-05 8.246107e-06 -1.3979489e-05
-3.52574e-06 -2.4226512e-05 2.9484763e-05 -2.3773979e-05 1.7306284e-05 1.1353686e-05 1.0542108e-05 -1.7514927e-05

momentum_buffer f4 [16]
00000000: e672 e53d 58ed 9a3e d4cc 64bd 807b 06bd
00000010: f34f 2f3e 3df4 78bd 9c56 f93d 7472 8fbe
00000020: 5689 25bd 9894 8cbc 00f1 0e3c 5a4b b9bc
00000030: a0dd e33a 76db 433d 3081 933a ad91 dabc
0.11203556 0.30259204 -0.0558594 -0.032832623 0.17120342 -0.0607798 0.121747226 -0.28017008
-0.040414177 -0.017160699 0.008724451 -0.022618938 0.0017384775 0.047816716 0.0011253711 -0.026680792

momentum_buffer f4 [16]
00000000: 9c14 333d ee3b ff3d 44ea 21bd 20d0 b63b
00000010: af45 973d aeab 9bbd 1c9b 7b3e 5ac2 4fbe
00000020: c340 11be c09d f2bb 4dce c0bc b7ea e63c
00000030: aa79 573c b08e 9b3d 52af d9bc aacb 9cbc
0.043720827 0.124626026 -0.039530054 0.0055790097 0.07386338 -0.07601105 0.24570888 -0.20288983
-0.14184861 -0.007404059 -0.023535872 0.028188093 0.013151566 0.07595575 -0.026572857 -0.019140083

momentum_buffer f4 [32, 16, 3, 3]
00000000: 3482 d7bc 6781 00bd f0ad f1bc 022a eebc
00000010: 3651 d4bc 2ed5 19bd 02ca a0bc 4aa1 adbc
00000020: fa7b 40bd e81f a4bb 9c2b 2dbc f2aa 2c3b
00000030: e125 8cbb ca06 2bbb ae48 033c 7a29 15bb
00000040: 7465 48ba 6079 973c 68b8 00bc 8eb0 85bb
00000050: 1f34 733b d9d9 73bc 40b2 6eb9 ce3b 4cbb
00000060: db40 3cbc 969b 1abc 3c64 22bb fe26 2fbb
00000070: f281 863b 36f9 c23b 64e0 443b 887b 213c
00000080: 0e2a 31bb 385c 8a3b 4433 033b dbd5 293c
00000090: a3e9 1ebd 2071 29bd 5c03 3abd 0047 c3bc
000000a0: 44e4 0abd 9458 22bd f215 ddbc 22c8 d5bc
000000b0: d426 16bd b24b 19bb baaa 11bb 2863 e2bb
000000c0: b46c 4a3b acd7 b8bb cb5d 5dbb f8cf e1b9
000000d0: bf16 f2bb 2ee8 ef3a 5863 7cba 6046 db3a
000000e0: cb97 2ebb 993d 56bb d104 8fba 38b0 f3b9
000000f0: bf0d 57bb 2a7d 8fbb 60f6 ebb9 4af9 3ebc
00000100: e07e 4dba e016 18ba 2511 e0bb aa4b 19bc
00000110: 1855 4fba 365e 1b3b c8f4 ae3a 0631 9dbb
00000120: f8ae cfb8 f8b0 4539 dc18 9bbb 00cc 1f3a
00000130: 07c5 a6bb dbb5 e3bb 1ee6 bd3a c1da c73a
00000140: 2686 5e3b 591a 7fbb b855 edba 7acb adba
00000150: e65c a1bb 8c61 e2ba dfdf 8cbb 2baa 0abb
00000160: ce24 90bb 8ac2 3dbb ea83 b1bb a274 85ba
00000170: d849 2fbb 20e0 88ba 1064 02b9 c527 93bb
00000180: 668c 05bb 2a60 82ba d9e2 dd3a 7335 843b
00000190: e1c0 953b 4c1d 603b 003a 703b d4d8 763b
000001a0: 82db 423b 1edb 11bb 80e6 1d3b 09bf 7d3b
000001b0: b971 07bd 3bb7 ebbc 5c18 8bbc 1299 f2bc
000001c0: 72b0 a7bc 5508 c4bc 24d6 b4bc db06 b9bc
000001d0: 4eff e9bc 6a02 123c b2e0 e33b cc8a 873b
000001e0: 8fbe 2b3c 1841 173c 0a29 e33b 0102 043c
000001f0: 4fc8 9f3b 4a00 e33b 96ec 933b 9d33 b73b
00000200: 09f1 013b 0c54 bb3b 364c 423b d96e 953a
00000210: a09e c639 7824 2d39 62e5 103b 7314 753b
00000220: f265 33bb d221 82bb f0a4 9a3b 5aa2 11bb
00000230: 65eb dcbb b68c 6d3b b01b 77ba 60c1 d1ba
00000240: c085 d73c 7082 ca39 9e2d 273b 6a37 6b3c
00000250: 0070 1239 bc11 613b 80cb ac3a 0860 803b
00000260: 3070 b83b e488 9e3b 623d bb3b 8194 8abb
00000270: 562e ca3b 0050 2eb9 0102 21bc f23a 5a3b
00000280: 20a2 e5bb fa0d 77ba a3cb 0c3c 0c05 333c
00000290: e01d a4b9 f5ba 103c 3abe e5bb d0cc e0ba
000002a0: 2e17 09bb 3963 e3bb 4d86 14bb ee08 233c
000002b0: a43f 923b 95f5 003b 7853 433c 4f20 f53b
000002c0: c11a ad3b b794 033b 7042 24bc 1c6b f2bb
000002d0: 84b5 413c 5a19 81bc edea edbb 26c6 04bc
000002e0: 22d6 e8bb b8d2 a839 8942 1abc 5cf0 bd3b
000002f0: 3ec3 a93b 122c 6b3c 10cd 1a3d 2c18 bf3c
00000300: 2048 bcba 8fdf de3c a07d c93a 279a 083c
00000310: 8e08 d83c e0fc 81bc 4c3a 3bbc dcab debc
00000320: 44f1 54bc c5ac 07bc 18ed 36bc 8034 a8bb
00000330: 302c 0ebc a4da 60bb 4766 e6bb 450f 883c
00000340: 3757 3b3c a2e6 893c 64a1 523c 60c4 5c3c
00000350: 37a7 313c b0a3 563c 7088 8c3b dc1d 493c
00000360: 4083 103d 166e a63c a62c 253d fbb8 463d
00000370: b350 c83c fd5a 863c a0bb 483c 48ce 273c
00000380: c28e 553b 14fd 84bb 7613 1ebb ad95 ab3a
00000390: 00f5 363b a005 8d3b c8ef 823b e26c 47bb
000003a0: 804b 02ba b0f8 9339 650f ac3c cc5a 2a3c
000003b0: ee9b b83c 64d5 733c fb58 083c 466f 833b
000003c0: 12e3 3b3d e9a2 163c a093 1b3c 26d4 203c
000003d0: 4e2c 1b3c c457 f83b 69fa 18bc 20fa 22bc
000003e0: e42a 09bc 4679 54bc fd27 27bc f256 20bc
000003f0: 4981 f33b 20a1 1c3a aaf3 beba e804 853c
-0.026307203 -0.031373408 -0.029501885 -0.029072765 -0.02591763 -0.03755682 -0.019627575 -0.021195073
-0.046993233 -0.0050086863 -0.010569479 0.0026347009 -0.0042769765 -0.0026096576 0.008012934 -0.0022760318
-0.0007644512 0.018490493 -0.007856466 -0.004079885 0.0037109924 -0.014883482 -0.00022763852 -0.0031163576
-0.011490072 -0.009436509 -0.0024778983 -0.0026726122 0.004104846 0.0059501184 0.0030040974 0.009856112
-0.0027033123 0.004222419 0.002001957 0.0103659285 -0.038797032 -0.04136765 -0.04541336 -0.023837566
-0.033909097 -0.039635256 -0.026988003 -0.026096407 -0.036658123 -0.0023391065 -0.0022227005 -0.006908793
0.0030887546 -0.0056409445 -0.0033777829 -0.00043070293 -0.0073879655 0.0018303448 -0.00096278405 0.0016729347
-0.0026640769 -0.0032690524 -0.001091147 -0.00046479865 -0.003281459 -0.0043789344 -0.00045006257 -0.011656115
-0.0007839035 -0.00058017485 -0.0068379813 -0.009356419 -0.00079091033 0.0023707277 0.0013348097 -0.004797104
-9.90312e-05 0.0001885331 -0.004733188 0.0006095767 -0.0050894055 -0.006949169 0.0014488136 0.0015247689
0.003395447 -0.0038925617 -0.0018107211 -0.0013259493 -0.0049244044 -0.0017271503 -0.0042991485 -0.0021158557
-0.0043989187 -0.0028955066 -0.0054173367 -0.0010181854 -0.0026746895 -0.0010442771 -0.00012435042 -0.004490825
-0.0020377873 -0.0009946872 0.0016928568 0.004034692 0.004570112 0.003419715 0.0036655664 0.003766586
0.0029732888 -0.0022255848 0.0024093688 0.0038718602 -0.03306744 -0.028773895 -0.016979389 -0.029614005
-0.020469878 -0.023929754 -0.022074766 -0.022586277 -0.028564122 0.008911708 0.006954276 0.004136419
0.010482444 0.009231828 0.0069323825 0.008057118 0.0048761736 0.0069275247 0.004514287 0.0055908696
0.0019827506 0.0057168063 0.0029647476 0.0011400833 0.00037883688 0.00016512151 0.002210938 0.0037396222
-0.0027373997 -0.003971317 0.004719369 -0.0022222013 -0.0067419284 0.00362472 -0.0009426428 -0.0016003065
0.026308894 0.00038625626 0.0025509368 0.014356473 0.00013965368 0.0034342846 0.0013183206 0.003917698
0.005628608 0.004838096 0.0057141045 -0.004229129 0.0061700745 -0.00016623735 -0.009827138 0.0033299294
-0.007007852 -0.0009424385 0.008593473 0.010926496 -0.00031302776 0.0088336365 -0.007011202 -0.0017150883
-0.0020918357 -0.0069393185 -0.0022663057 0.0099508595 0.004463153 0.0019677628 0.011921756 0.007480658
0.0052827303 0.0020077655 -0.010025606 -0.0073980223 0.011823062 -0.015759159 -0.0072606714 -0.008103883
-0.0071056047 0.00032200455 -0.009415277 0.0057964753 0.0051807454 0.014353769 0.03779322 0.023326956
-0.0014364757 0.02720621 0.0015372522 0.008337534 0.026371267 -0.01586765 -0.011427473 -0.027181558
-0.012996975 -0.008280938 -0.011164926 -0.0051332116 -0.008677527 -0.0034310007 -0.0070312354 0.016608844
0.011434368 0.016833607 0.012855861 0.013474554 0.01084309 0.01310055 0.0042887256 0.012275185
0.03528142 0.020316165 0.040325783 0.048516255 0.024452543 0.016400808 0.012251765 0.010242052
0.003258631 -0.0040584896 -0.0024120486 0.0013090872 0.0027917027 0.004303649 0.0039958693 -0.003042989
-0.0004970357 0.00028223312 0.021003434 0.010397624 0.02253529 0.014882419 0.008321996 0.0040110676
0.045870848 0.009194114 0.009495646 0.009816205 0.009471012 0.007578822 -0.009337046 -0.00994733
-0.008372042 -0.012968367 -0.010202405 -0.009786354 0.0074311835 0.0005974937 -0.0014568467 0.016237691

momentum_buffer f4 [32]
00000000: a3b4 0c36 0a2b 8836 0a5f f8b6 08bd bdb6
00000010: 7b5e 02b7 b66e 7c36 70d1 ca36 02e8 02b7
00000020: 0aec 0c36 1bd9 dd35 4174 91b6 10f0 e935
00000030: 44a9 d136 ea96 0537 a911 6b36 2977 d7b5
00000040: ac86 9ab6 8309 50b6 95b1 6d33 60a1 1eb5
00000050: 7ddc c536 d604 f6b6 dbbe 4235 efec 2cb6
00000060: 1e0b 3935 18c3 0237 b0cb 7634 c7a5 b6b5
00000070: bcd0 38b6 04ba 07b7 6cdb f6b6 b5eb 6c36
2.096677e-06 4.0581263e-06 -7.40204e-06 -5.654645e-06 -7.770602e-06 3.7615368e-06 6.044451e-06 -7.802622e-06
2.0999018e-06 1.6528969e-06 -4.3348705e-06 1.742972e-06 6.2483905e-06 7.962555e-06 3.5028008e-06 -1.6053428e-06
-4.6052355e-06 -3.0999952e-06 5.5342372e-08 -5.909442e-07 5.8967257e-06 -7.3319343e-06 7.2548363e-07 -2.576791e-06
6.893405e-07 7.794028e-06 2.2984636e-07 -1.3608304e-06 -2.7539636e-06 -8.089937e-06 -7.3569154e-06 3.530394e-06

momentum_buffer f4 [32]
00000000: 24a6 79bd 7dd2 a73d 5670 45bc eb3f 76bc
00000010: ef96 bfbd 3142 0ebd ae9b 1b3e b8bd 65be
00000020: 54ee 17bc c287 1f3d a0ab 72bc 6aee 303d
00000030: b0f1 03bc 96fc cdbd 6f94 983c ebbd ce3d
00000040: b246 c03d 6012 223d fc83 87bd 3617 dc3d
00000050: 4835 333b 76f7 e3bc b0d7 9c3d 1815 7c3c
00000060: a42f 38be 6685 253e e1af c1bd 74c1 123d
00000070: cc01 373d 2034 053c d250 02be 420d 9dbd
-0.06094946 0.08194444 -0.012050709 -0.015029888 -0.0935496 -0.034731094 0.15196106 -0.22435653
-0.00927313 0.038947828 -0.014811426 0.04319612 -0.008053228 -0.100579426 0.018625466 0.10094818
0.09388484 0.039568305 -0.06616971 0.10746615 0.002734499 -0.02782796 0.076583266 0.0153858885
-0.17986923 0.16164169 -0.09457374 0.035829023 0.044679448 0.008130103 -0.12726143 -0.07668544

momentum_buffer f4 [32]
00000000: 8f81 12bd 36e5 af3d b82f 23bd 735f 6cbb
00000010: 401e d8bd a86d 47bd 20de 103e 9cf0 f7bd
00000020: 24e6 7abc 6b3f 213d b195 19bd 68c3 803c
00000030: 7853 c93b 4b8b 15be 285e dd3c d635 523d
00000040: d3eb 9b3d facf 0f3d c0ab f9bc 5882 373d
00000050: dc94 0a3d 5c78 c53b d41d 113d 98a9 be3c
00000060: dadd 0bbe e64c b03d 18a8 7bbd f6ee 893d
00000070: 40d1 afba e0e8 09bb 8cd2 c8bd ba61 8ebd
-0.035768088 0.085886404 -0.03984043 -0.0036067634 -0.10552645 -0.04868856 0.14147234 -0.121064395
-0.015313659 0.03936712 -0.037496272 0.015718177 0.0061439835 -0.14603917 0.027022436 0.051320873
0.07613339 0.03511045 -0.030477405 0.04480204 0.03383337 0.006026311 0.035428837 0.023274228
-0.13658848 0.08608417 -0.061439604 0.06735031 -0.0013413802 -0.0021043345 -0.09805784 -0.069522336
