deepcluster_implementation/experiments/run_label_fraction_variation/config_1/checkpoints/checkpoint_epoch_2.pth.tar (torch, 203702 bytes, 32 tensors)

features.module.0.weight f4 [16, 1, 3, 3]
0	0x3f3ee7bf	0.74572366
1	0x3d03d3f0	0.03218454
2	0x3dc06e88	0.09396082
3	0xbdbd2a09	-0.09236533
4	0xbe773663	-0.2414184
5	0xbdf7b63b	-0.120953046
6	0x3d3fc402	0.046817787
7	0xbd28ef8b	-0.04124407
8	0x3f4d582a	0.8021265
9	0xbf07376b	-0.52818936
10	0xbd8368f7	-0.06416505
11	0x3f26c07a	0.65137446
12	0xbb992c6f	-0.0046744864
13	0x3e8d8ec7	0.27647993
14	0xbe3f4676	-0.18679222
15	0x3f1c509a	0.6106049
16	0xbc783496	-0.015149256
17	0xbeeec283	-0.46632776
18	0xbf42b103	-0.7605135
19	0x3ed1b105	0.40955368
20	0x3ea2809c	0.31738746
21	0xbeaca84f	-0.3372216
22	0x3e8a6376	0.27029008
23	0x3eaab515	0.3334128
24	0xbf266ac5	-0.6500667
25	0xbe8f91fb	-0.28041062
26	0xbe80a987	-0.2512934
27	0xbf237712	-0.6385356
28	0xbe84f7f6	-0.2597043
29	0xbf32b236	-0.6980318
30	0xbebc4df3	-0.3677822
31	0x3e0cc4b7	0.13746916
32	0x3dd4e61f	0.103954546
33	0xbe985453	-0.29751834
34	0x3e324890	0.17410493
35	0x3ef8ae44	0.48570454
36	0x3ed127c8	0.40850663
37	0x3e113d0f	0.14183448
38	0x3ec87919	0.3915489
39	0xbe977d3d	-0.29587737
40	0xbe1f7174	-0.15570623
41	0xbe2739e7	-0.16330682
42	0x3f1c1a72	0.6097785
43	0x3c8299ac	0.015942417
44	0x3f0e89d6	0.5567907
45	0xbf947eef	-1.1601237
46	0x3f25d3aa	0.647761
47	0x3e4282e5	0.18995245
48	0x3e961359	0.29311636
49	0x3e569636	0.20955738
50	0xbf8b430a	-1.0879834
51	0x3ef3f3b4	0.47646868
52	0xbf155524	-0.5833304
53	0x3e790715	0.24319108
54	0x3f0051eb	0.50124997
55	0x3eb224c9	0.3479369
56	0x3ee53fda	0.44775277
57	0xbec4af5e	-0.38415045
58	0x3e981903	0.29706582
59	0xbe762d1c	-0.24040645
60	0xbf11c53d	-0.56941587
61	0xbe9b07a6	-0.30279273
62	0xbf2b734a	-0.6697279
63	0x3ca6b580	0.020350218
64	0xbf495101	-0.7863923
65	0xbededde6	-0.4352867
66	0x3edd6c76	0.43246812
67	0x3dfbbeae	0.12292229
68	0xbedcfc5e	-0.4316129
69	0x3e915253	0.2838312
70	0x3f0897b3	0.53356475
71	0x3f21c7b8	0.6319537
72	0xbca3f73f	-0.020015357
73	0xbf26d205	-0.65164214
74	0xbf07b545	-0.5301097
75	0xbdd6b71e	-0.104841456
76	0xbdbae845	-0.09126333
77	0xbe6792f3	-0.2261465
78	0x3f7ba2fe	0.9829558
79	0x3eb38c99	0.35068205
80	0xbf3dd0e8	-0.7414689
81	0xbf068816	-0.525514
82	0xbf014346	-0.50493276
83	0xbe2bca2c	-0.16776341
84	0x3f698b56	0.91228235
85	0x3f46ef2d	0.77708703
86	0x3f2825dc	0.6568277
87	0xbec04552	-0.37552887
88	0xbf1a6b5f	-0.60320085
89	0xbeaed7bb	-0.34148964
90	0x3f2ce7c2	0.67541134
91	0xbedc4728	-0.43023038
92	0xbdba517e	-0.09097575
93	0x3e67d212	0.22638729
94	0xbe70c60d	-0.2351305
95	0xbee1bb04	-0.44087994
96	0x3f0fd482	0.56183636
97	0x3e9cf218	0.30653453
98	0xbe9c353e	-0.3050937
99	0xbf21e356	-0.6323751
100	0x3d3407ca	0.04395274
101	0x3f100b9e	0.56267726
102	0xbe085e4a	-0.13317218
103	0xbe636def	-0.22209905
104	0x3db62b8a	0.08895023
105	0xbea8a6bf	-0.32939717
106	0xbebc2141	-0.3674412
107	0xbed7653e	-0.4206943
108	0x3e0be984	0.13663298
109	0xbd994569	-0.07483942
110	0x3f3f30fd	0.74684125
111	0xbd6f0415	-0.058353502
112	0xbe5fa43c	-0.21839994
113	0xbc3cdbdb	-0.011527027
114	0xbf19089c	-0.5977876
115	0xbe306e47	-0.17229567
116	0x3f19b580	0.6004257
117	0xbea035f1	-0.31291154
118	0x3dd39b0b	0.103323065
119	0xbe69f4be	-0.22847268
120	0x3d1d87db	0.03845964
121	0x3d4f3bed	0.05059426
122	0x3d74c6a0	0.059759736
123	0xbe73d852	-0.23812988
124	0xbdad2403	-0.08454134
125	0xbe957a8e	-0.29195064
126	0xbeb1eda4	-0.34751618
127	0xbe2a1bb9	-0.16612138
128	0xbf189493	-0.59601706
129	0xbebd1544	-0.36930287
130	0x3fea2cb0	1.8294888
131	0xbe8ed108	-0.27893853
132	0xbf5029e6	-0.8131393
133	0x3e8e6f89	0.2781947
134	0xbf485770	-0.7825842
135	0xbf2c8b15	-0.6739972
136	0xbebadcf8	-0.3649671
137	0xbf2fd090	-0.68677616
138	0x3e2c6b6d	0.16837855
139	0x3e7e58a7	0.24838506
140	0xbecea389	-0.40359142
141	0x3e8dd48f	0.27701232
142	0x3e8d2fa8	0.2757542
143	0xbe0c12ca	-0.13679042

features.module.0.bias f4 [16]
0	0xbd694a8a	-0.05695585
1	0x3d8d1852	0.06889404
2	0x3e2e5f50	0.17028546
3	0x3e885638	0.2662828
4	0x3e99d6c5	0.3004667
5	0xbe85e9cb	-0.26154932
6	0x3daa01f6	0.08301155
7	0xbe1146a4	-0.14187104
8	0xbd140d8d	-0.036145736
9	0xbe7cd06f	-0.24688886
10	0x3e99d296	0.30043477
11	0xbe77e630	-0.24208903
12	0x3e34850d	0.1762888
13	0x3ded68b5	0.11592237
14	0x3ddb848d	0.107186414
15	0xbe369d63	-0.17833476

features.module.1.weight f4 [16]
0	0x3f3b2b0c	0.7311256
1	0x3f19dccd	0.6010254
2	0x3f8080f0	1.0039349
3	0x3fa62241	1.2979203
4	0x3f208260	0.62698936
5	0x3f830616	1.0236232
6	0x3f3e7c56	0.7440847
7	0x3f2d3312	0.6765605
8	0x3f8746ea	1.0568516
9	0x3f301039	0.68774754
10	0x3f0017de	0.5003642
11	0x3facfddb	1.351497
12	0x3f1aaa00	0.6041565
13	0x3f8c7cfe	1.0975645
14	0x3faf38aa	1.3689167
15	0x3fb0f210	1.3823872

features.module.1.bias f4 [16]
0	0xbf991396	-1.1959102
1	0xbf85f6f9	-1.0465995
2	0xbe9129d7	-0.28352234
3	0xbef25f33	-0.47338256
4	0xbf6f3201	-0.93435675
5	0xbeec694e	-0.4617409
6	0xbdfe4265	-0.124150075
7	0xbefafed4	-0.49022543
8	0xbeb08dba	-0.3448313
9	0xbed5c751	-0.4175363
10	0xbef5790d	-0.47943917
11	0xbee6ec50	-0.45102167
12	0xbf370055	-0.7148488
13	0xbe8c0607	-0.27348348
14	0xbf0dd340	-0.55400467
15	0xbeb428fa	-0.35187513

features.module.1.running_mean f4 [16]
0	0xbc38b1e8	-0.011272885
1	0x3d954ea8	0.07290393
2	0x3e047b71	0.12937714
3	0x3e6741ce	0.22583696
4	0x3eb5fe67	0.35545656
5	0xbe907a83	-0.2821847
6	0x3d855271	0.06509865
7	0xbe075dff	-0.1321945
8	0xbd5dd43d	-0.054157484
9	0xbe9097a2	-0.28240687
10	0x3ea3cdbe	0.31992906
11	0xbe8b2292	-0.27174813
12	0x3e4b48ac	0.19851941
13	0x3daf16f2	0.08549298
14	0x3cbcb6a2	0.023036305
15	0xbe610f48	-0.21978486

features.module.1.running_var f4 [16]
0	0x3f527ccc	0.82221675
1	0x3ef938a5	0.4867603
2	0x3fc523dc	1.5401568
3	0x40116775	2.2719395
4	0x3fac9864	1.3484006
5	0x3f5eba0a	0.87002623
6	0x3fc5ffc3	1.5468677
7	0x3fafe316	1.3741176
8	0x3ff9190a	1.9460766
9	0x3f0c569e	0.5481967
10	0x3f78b1f6	0.97146547
11	0x3fd1f989	1.6404277
12	0x3f454ad4	0.77067304
13	0x3eea8ccf	0.45810553
14	0x3f9aad52	1.2084143
15	0x3fe0d71e	1.7565649

features.module.4.weight f4 [32, 16, 3, 3]
0	0x3cdc3e53	0.026885187
1	0xbcf2ff7d	-0.029662842
2	0xbd3799dc	-0.044824466
3	0xbbc86ff4	-0.0061168615
4	0xbc2f4bd2	-0.010699229
5	0x3ca7b819	0.020473527
6	0xbbc218b1	-0.0059233536
7	0x3e1235c1	0.14278318
8	0x3e967950	0.2938943
9	0xbe58cbfe	-0.21171567
10	0xbd88f340	-0.06687021
11	0x3e940027	0.28906366
12	0xbe3351f6	-0.17511734
13	0xbdbecefc	-0.09316823
14	0x3e2b5c97	0.16734539
15	0xbd88a77b	-0.06672569
16	0x3dff07a7	0.124526314
17	0x3ee506e6	0.44731826
18	0x3e80aa39	0.2512987
19	0x3dd778f1	0.105211146
20	0x3dcce17a	0.10003944
21	0x3df2558f	0.11832725
22	0xbc2f2a7f	-0.010691284
23	0xbc49b1cc	-0.0123104565
24	0x3dc33839	0.09532208
25	0xbd1c5d88	-0.038175136
26	0x3b0015c9	0.0019544235
27	0xbeeb5972	-0.4596668
28	0xbe546cb9	-0.207446
29	0x3d3b21e6	0.045686625
30	0xbec10ded	-0.37705937
31	0xbe1e094d	-0.15433235
32	0x3d05fd5f	0.032712337
33	0xbe351c5e	-0.17686602
34	0x3d31cd85	0.04340889
35	0x3e589b8f	0.21153091
36	0x3d8f03a4	0.06983116
37	0xbc99c1ef	-0.018769233
38	0xbd281bab	-0.04104201
39	0xbd39081c	-0.04517375
40	0x3c785d73	0.015158999
41	0x3c626500	0.013818026
42	0xbc07a384	-0.008278731
43	0x3c08830c	0.008332025
44	0x3e3bd9b6	0.18344769
45	0xbde64cad	-0.112450935
46	0xbca12573	-0.019671177
47	0x3d9813b4	0.07425633
48	0xbd6b910d	-0.057511378
49	0xbc9d70f3	-0.019218897
50	0x3d6590fa	0.056046464
51	0xbba02e30	-0.0048883185
52	0x3bb928b5	0.0056506046
53	0xbcdc717b	-0.02690958
54	0xbdf7efbf	-0.12106275
55	0xbca14712	-0.01968721
56	0x3cbbeda7	0.02294047
57	0xbd363d83	-0.044492256
58	0xbdaad542	-0.08341457
59	0xbe07e589	-0.13271154
60	0x3c1439c7	0.009046978
61	0xbd6fd129	-0.05854908
62	0xbdbf02ac	-0.093266815
63	0xbe022121	-0.1270795
64	0x3e4d061a	0.20021859
65	0x3d2969c4	0.04136063
66	0xbd62ee75	-0.05540319
67	0x3d92566f	0.07145392
68	0x3cc5baea	0.02413698
69	0x3d0c4cce	0.034252934
70	0x3c2fa9d6	0.010721644
71	0x3e1a909f	0.15094231
72	0x3de189cd	0.110126115
73	0xbca243d8	-0.019807741
74	0xbdd3f4a1	-0.10349394
75	0x3e497e7b	0.19677155
76	0x3ce63a02	0.028103832
77	0xbd45f8e0	-0.04833305
78	0x3d9051c5	0.07046846
79	0xbd8ed6dd	-0.06974576
80	0xbe0c9920	-0.13730288
81	0xbea19e41	-0.3156605
82	0xbe5242f4	-0.20533353
83	0xbd1a154c	-0.037617967
84	0xbe6219a2	-0.2208009
85	0xbe34e644	-0.17665964
86	0xbd804048	-0.06262261
87	0xbe6054b5	-0.21907313
88	0xbe118c48	-0.1421367
89	0xbdc0366e	-0.09385382
90	0x3e877edb	0.2646397
91	0x3e2ad0b1	0.16681172
92	0xbc1cdbe8	-0.009573914
93	0x3d7b1c91	0.06130654
94	0x3d14c417	0.03631982
95	0x3a82c99d	0.0009978298
96	0x3b778d88	0.0037773568
97	0x3d7cafbb	0.061691027
98	0xbdfded97	-0.12398832
99	0x3db0e94c	0.08638248
100	0x3d41ea2e	0.04734247
101	0x3d68c7f1	0.056831304
102	0x3da30589	0.0796004
103	0x3c1fdd73	0.009757387
104	0x3c5b4946	0.013384169
105	0x3e1114e8	0.14168131
106	0x3df65a9d	0.12029002
107	0xbde77e89	-0.113034315
108	0xbc334fa5	-0.010944282
109	0xbe0a0e98	-0.1348213
110	0x3d855ef3	0.06512251
111	0xbce26f80	-0.027641058
112	0x38e2bc01	0.00010811538
113	0x3d785d38	0.060635775
114	0x3d15554a	0.03645829
115	0xbd1a9a03	-0.037744533
116	0x3d564c66	0.052318953
117	0xbe2a98b2	-0.16659811
118	0xbcd073e3	-0.025445884
119	0xbe809244	-0.25111592
120	0xbe053aaf	-0.13010667
121	0xbd2d4c32	-0.042308994
122	0xbdf68e05	-0.12038807
123	0xbdbe1fed	-0.09283433
124	0xbd905f76	-0.07049458
125	0xbe800fef	-0.25012156
126	0xbe0486cb	-0.12942044
127	0xbdbacbbf	-0.09120893
128	0xbe4db2d5	-0.2008775
129	0xbd4134bc	-0.047169432
130	0xbd066d31	-0.032818977
131	0xbe2bdc9d	-0.16783376
132	0xbd99a370	-0.07501876
133	0xbde7b54a	-0.11313875
134	0xbea1fd33	-0.31638488
135	0xbe889af5	-0.26680723
136	0xbd8517de	-0.06498693
137	0xbe7a980d	-0.24472065
138	0xbd53cbd1	-0.051708046
139	0x3d4e8a42	0.05042482
140	0xbe0c8f4c	-0.13726538
141	0xbd1a6cb3	-0.03770132
142	0xbda6a53e	-0.08136986
143	0xbe91165f	-0.2833738
144	0xbddc2d3f	-0.107508175
145	0xbcdab4b8	-0.026697502
146	0xbe3886a6	-0.18020114
147	0x3bb6ba6a	0.0055764215
148	0x3d9ba834	0.076004416
149	0xbe3dcab9	-0.18534364
150	0xbb89dab9	-0.004206982
151	0xbd4aca5c	-0.04950939
152	0xbea2f8c5	-0.3183042
153	0x3d7bb684	0.061453357
154	0x3d1a8ac1	0.037729982
155	0x3d2860a2	0.04110778
156	0xbb903c8c	-0.004401749
157	0x3d70c269	0.058779154
158	0x3c92908d	0.017891193
159	0x3cf0e633	0.029406643
160	0x3dbc471e	0.09193252
161	0xbd0ac899	-0.03388271
162	0x3d9de975	0.07710544
163	0x3d7fe9b3	0.062478732
164	0xbd974435	-0.07386056
165	0x3caae5f8	0.02086161
166	0xbda59e48	-0.080868304
167	0xbddc196f	-0.107470386
168	0x3d8926b9	0.06696839
169	0xbd544fe9	-0.05183402
170	0xbd54dad6	-0.05196651
171	0xbde56eff	-0.112028114
172	0xbd4baf7f	-0.049727913
173	0xbd2668c5	-0.04062726
174	0x3cea10e9	0.028572517
175	0x3c3ac2ce	0.011398984
176	0xbb9a3543	-0.0047060563
177	0x3d49adae	0.0492379
178	0xbb8e4e9b	-0.0043428666
179	0xbe6ff429	-0.23432983
180	0x3c728c77	0.014803997
181	0x3d681276	0.05665823
182	0xbdba19f1	-0.09086979
183	0x3cc63da0	0.024199307
184	0x3d9d2f2c	0.07675013
185	0xbe1b9b04	-0.15195853
186	0x3dea90b8	0.11453384
187	0x3d3e2b6f	0.04642814
188	0xbe85e6a4	-0.26152527
189	0xbdb6b43e	-0.08921097
190	0xbcf17b8f	-0.029477863
191	0xbc4504cb	-0.0120250685
192	0xbcd7f82a	-0.026363451
193	0xbc8e98d1	-0.017406853
194	0x3d2c933f	0.042132612
195	0xbbdcef8e	-0.0067424243
196	0xbd6a98f3	-0.05727477
197	0x3da66d79	0.08126349
198	0xbcb0c9f2	-0.02158067
199	0xbbf62387	-0.0075115594
200	0xbe1c51fa	-0.15265647
201	0xbd0d15be	-0.034444563
202	0xbcf0ee90	-0.02941063
203	0xbda03ce1	-0.07824112
204	0xbc9484cc	-0.018129729
205	0x3cd137c9	0.025539296
206	0xbd0291cb	-0.03187732
207	0xbe824bfc	-0.25448596
208	0xbe631a0f	-0.2217791
209	0xbe8a71b0	-0.27039862
210	0xbe368455	-0.17823918
211	0xbdb3af49	-0.08773667
212	0xbe4224c9	-0.18959345
213	0xbe80a0ab	-0.2512258
214	0xbe890431	-0.2676101
215	0xbeca2cd3	-0.39487323
216	0xbd4b472e	-0.04962843
217	0xbd6e950d	-0.058247615
218	0xbda93fbf	-0.08264112
219	0x3d4c0ef6	0.049818955
220	0x3c2ef256	0.010677895
221	0x3cbe2682	0.023211721
222	0x3cc126a3	0.023577994
223	0xbda70794	-0.08155742
224	0xbd6fa55c	-0.05850731
225	0xbe274d81	-0.16338159
226	0xbe48edbe	-0.19621941
227	0xbe7ac68e	-0.24489805
228	0xbd8cd53f	-0.06876611
229	0xbd8a74c1	-0.0676055
230	0xbdea8944	-0.114519626
231	0xbd05800c	-0.03259282
232	0xbcc22d9c	-0.023703389
233	0xbdb27c37	-0.08715098
234	0x3e000c65	0.12504728
235	0x3d0237c8	0.03179148
236	0x3d0cbf04	0.034361854
237	0x3d964b2f	0.07338559
238	0x3c6b027c	0.014343854
239	0x3cea724c	0.028618954
240	0x3dbb7188	0.09152514
241	0x3c8473c4	0.016168483
242	0x3cb8f350	0.022576958
243	0xbc4832e6	-0.012219166
244	0x3c6dab75	0.014506211
245	0xbdaa5572	-0.08317079
246	0xbdb783f0	-0.08960712
247	0xbbc256f0	-0.005930774
248	0xbd577d1c	-0.052609548
249	0x3dea5453	0.11441865
250	0xbd3cfc6b	-0.046139162
251	0xbce8f1a3	-0.028435534
252	0x3c60eb10	0.013727918
253	0xbd01db58	-0.031703323
254	0xbe1cd2af	-0.15314744
255	0xbc339ef3	-0.010963189

features.module.4.bias f4 [32]
0	0x3caf8190	0.021424085
1	0x3d29811e	0.0413829
2	0xbd9a650a	-0.07538803
3	0xbd6b90e8	-0.05751124
4	0xbda213eb	-0.07913955
5	0x3d1dab5e	0.038493507
6	0x3d7d4ff9	0.061843846
7	0xbda242e7	-0.07922917
8	0x3caf9e14	0.021437682
9	0x3c88ff9c	0.016723447
10	0xbd354158	-0.04425177
11	0x3c91f3b9	0.017816411
12	0x3d8237c9	0.063582964
13	0x3da5a62e	0.08088337
14	0x3d120f01	0.03565884
15	0xbc85f218	-0.01635079
16	0xbd402ea7	-0.04691949
17	0xbd00a420	-0.03140652
18	0x3a315225	0.00067642546
19	0xbbc66ed1	-0.006055691
20	0x3d767554	0.060170487
21	0xbd989f3f	-0.07452249
22	0x3bf12daa	0.00736018
23	0xbcd6d95c	-0.026226692
24	0x3be15305	0.006876352
25	0x3da266b6	0.07929747
26	0x3b1e1d92	0.0024126512
27	0xbc6a52cb	-0.014301966
28	0xbce4f4c1	-0.027948739
29	0xbda888db	-0.08229228
30	0xbd99016a	-0.07470973
31	0x3d132ba4	0.03593029

features.module.5.weight f4 [32]
0	0x3f186665	0.5953124
1	0x3f83a929	1.0285999
2	0x3f708294	0.93949246
3	0x3f52db54	0.8236592
4	0x3f3dd212	0.74148667
5	0x3f83bcb7	1.0291966
6	0x3f5378e2	0.8260633
7	0x3f076c5b	0.5289971
8	0x3f4d8e56	0.8029531
9	0x3f529e96	0.8227323
10	0x3f7705c1	0.96493155
11	0x3f8a09e9	1.0784274
12	0x3f5006ee	0.81260574
13	0x3f53c95a	0.82729113
14	0x3f70d46e	0.9407414
15	0x3f0d3aad	0.5516766
16	0x3f6ef862	0.9334775
17	0x3f727bf8	0.9472041
18	0x3f472fd9	0.77807385
19	0x3f585812	0.84509385
20	0x3f67c979	0.905418
21	0x3f6cb0ec	0.9245746
22	0x3f3d6da2	0.7399541
23	0x3f29d604	0.66342187
24	0x3f590e86	0.84787786
25	0x3f475901	0.77870184
26	0x3f80d22d	1.006414
27	0x3f5dea0f	0.8668527
28	0x3f531cbb	0.82465714
29	0x3f37e3ab	0.7183177
30	0x3f4bf744	0.7967417
31	0x3f315836	0.69275224

features.module.5.bias f4 [32]
0	0xbf5cd740	-0.86265945
1	0xbf307cab	-0.6894023
2	0xbf3b2fcf	-0.73119825
3	0xbf236f22	-0.6384145
4	0xbea8f741	-0.3300114
5	0xbf25812f	-0.64650244
6	0xbf02be6c	-0.5107181
7	0xbee719f1	-0.4513698
8	0xbe8955df	-0.26823327
9	0xbf19eb2c	-0.6012447
10	0xbf0bcba3	-0.546076
11	0xbf506527	-0.81404346
12	0xbf044f41	-0.5168343
13	0xbec1e057	-0.3786647
14	0xbecde8e6	-0.4021675
15	0xbf6dbb88	-0.92864275
16	0xbf42af26	-0.76048505
17	0xbf308ba4	-0.68963075
18	0xbf638125	-0.88868934
19	0xbf0a305c	-0.5398004
20	0xbf225dcd	-0.6342438
21	0xbf00dd52	-0.5033771
22	0xbf2504c7	-0.64460415
23	0xbf586572	-0.84529793
24	0xbef38ee4	-0.47569954
25	0xbee4c255	-0.44679514
26	0xbf3e592a	-0.74354804
27	0xbf07ccfc	-0.53047156
28	0xbf383898	-0.71961355
29	0xbec9b431	-0.39395288
30	0xbec99a38	-0.39375472
31	0xbf1cc162	-0.6123258

features.module.5.running_mean f4 [32]
0	0xbf2bba97	-0.6708159
1	0xbf458976	-0.77162874
2	0xbe8b243e	-0.27176088
3	0xbe8b2668	-0.2717774
4	0xbe793206	-0.24335489
5	0xbedf7c08	-0.43649316
6	0xbf553903	-0.8329012
7	0xbf1a60b7	-0.60303825
8	0xbee15938	-0.4401338
9	0xbf06f3f9	-0.5271602
10	0xbf1fae39	-0.6237522
11	0xbf28bff6	-0.6591791
12	0xbec97915	-0.3935019
13	0xbeac24e6	-0.336219
14	0xbf32f5e8	-0.69906473
15	0xbeadd0c5	-0.3394834
16	0xbf530806	-0.8243412
17	0xbf60eae3	-0.8785841
18	0xbf031ab3	-0.51212615
19	0xbf0ac1cf	-0.5420198
20	0xbefbe8d4	-0.4920107
21	0xbf00d941	-0.50331503
22	0xbeeb0cf2	-0.45908314
23	0xbf583086	-0.8444904
24	0xbf3f2014	-0.7465832
25	0xbea1a472	-0.31570774
26	0xbed28762	-0.41118914
27	0xbed41384	-0.4142114
28	0xbf677fce	-0.9042939
29	0xbf1f015a	-0.6211144
30	0xbede6cbf	-0.43442342
31	0xbeeea77f	-0.46612164

features.module.5.running_var f4 [32]
0	0x3ed5634f	0.4167733
1	0x3f3638e8	0.7118058
2	0x3f4d5846	0.8021282
3	0x3e9ab2ba	0.30214483
4	0x3e3fc5a2	0.18727735
5	0x3efb2ceb	0.49057707
6	0x3f52c14e	0.8232621
7	0x3e8bbc47	0.27292082
8	0x3e89c548	0.26908326
9	0x3f09d8f3	0.53846663
10	0x3f50b6f2	0.8152915
11	0x3f161b1d	0.5863512
12	0x3ead93ed	0.3390192
13	0x3e9d8f09	0.3077319
14	0x3f005288	0.5012593
15	0x3eb0f79a	0.34563905
16	0x3f20a985	0.62758666
17	0x3f3269f5	0.6969293
18	0x3e8e9930	0.27851248
19	0x3f5487ed	0.83019906
20	0x3f235bf1	0.63812166
21	0x3edf1053	0.43567142
22	0x3ea48c1c	0.32138145
23	0x3f02d2db	0.5110299
24	0x3f11383c	0.5672643
25	0x3f36ae78	0.7135997
26	0x3f253bee	0.6454457
27	0x3ea0f9fd	0.31440726
28	0x3eb92b96	0.36166066
29	0x3e992293	0.2990919
30	0x3e9286e7	0.28618547
31	0x3ed677d5	0.418883

features.module.8.weight f4 [64, 32, 3, 3]
0	0x3d492398	0.04910621
1	0x3cfc53db	0.030801704
2	0x3c71a0f5	0.014747848
3	0x3cd69c11	0.026197465
4	0x3b1ba545	0.0023749631
5	0xbc723800	-0.014783859
6	0x3d07c973	0.0331511
7	0x3b8783a0	0.004135564
8	0xbcc68ae0	-0.024236143
9	0x3d82f920	0.06395173
10	0x3c886786	0.016650926
11	0x3cee792d	0.029110515
12	0x3cb83ce0	0.022489965
13	0xbbb6c232	-0.005577349
14	0x3b6fc888	0.0036588032
15	0xbca7b0ea	-0.020470101
16	0xbd0747c4	-0.033027425
17	0xbd0995b7	-0.033590045
18	0xbbfc5798	-0.0077008717
19	0xbc02c43e	-0.007981358
20	0xbc5ca655	-0.013467391
21	0xbc8367bc	-0.016040675
22	0xbbaeedb0	-0.005338393
23	0xbc29ab76	-0.010355821
24	0xbd065577	-0.03279635
25	0xbc459050	-0.012058333
26	0xbc462e01	-0.012095929
27	0xbd3544d4	-0.044255093
28	0xbc4a2082	-0.012336852
29	0xbbf75a7f	-0.00754863
30	0xbd46f71a	-0.0485755
31	0xbc74d6c4	-0.014943782
32	0xbc35b5de	-0.011090724
33	0xbd95f644	-0.07322362
34	0xbd093828	-0.03350082
35	0xbd294cc7	-0.041332986
36	0xbc322b26	-0.010874545
37	0xbb24e235	-0.0025159244
38	0xbd15c4f0	-0.036564767
39	0xbd2d734c	-0.042346284
40	0xbc10e773	-0.008844244
41	0xbd2f6cfc	-0.042828545
42	0xbc9bef6f	-0.01903507
43	0xbd006cec	-0.031353876
44	0xbd1e338d	-0.03862338
45	0x3ce8cef5	0.028418997
46	0xbbd4f449	-0.0064988476
47	0xbb8c655c	-0.004284544
48	0x3b9e5660	0.004832074
49	0xbc51ad76	-0.012797704
50	0xbd011f96	-0.031524263
51	0x3bf06d73	0.007337266
52	0xbcae4631	-0.021273704
53	0xbd11e878	-0.03562209
54	0xbbd1c377	-0.006401475
55	0xbb7d3ea0	-0.0038642064
56	0x3b0d9c73	0.0021608144
57	0xbbb2ece8	-0.0054603703
58	0xbc159993	-0.009130853
59	0xbb22ab1b	-0.0024821225
60	0x3bb96507	0.0056577954
61	0xbba1770e	-0.0049275225
62	0x3b41c44c	0.0029566465
63	0x3d39fb2f	0.045405563
64	0x3c8288a7	0.015934302
65	0x3cb91a0b	0.022595426
66	0x3c99dfca	0.018783469
67	0xbabb0a44	-0.0014270027
68	0x3c3c3b4d	0.011488748
69	0x3c750c79	0.014956587
70	0x3ab38449	0.001369604
71	0x3cdb8f32	0.02680168
72	0xba51c0b3	-0.00080014317
73	0xbb3048e5	-0.0026898917
74	0x3be5d4ca	0.007013892
75	0xbc9dacda	-0.019247461
76	0xbc07c21f	-0.008286028
77	0x3c72363e	0.01478344
78	0xbcd98b04	-0.026555546
79	0xbcde1dba	-0.027113784
80	0xb8a1c5ea	-7.7139426e-05
81	0x3beca508	0.0072218217
82	0x3c255097	0.010090015
83	0x3cfff097	0.031242652
84	0x3bf8eda5	0.007596689
85	0x3be1f9fc	0.0068962555
86	0x3cca8157	0.024719877
87	0x3c87b3ba	0.016565192
88	0x3c9dec9e	0.019277867
89	0x3d1fccb4	0.03901358
90	0x3dab75a5	0.08372048
91	0x3dd112bf	0.10208654
92	0x3e361e67	0.17785035
93	0x3d4d2bb4	0.050090507
94	0x3d6d320b	0.057909053
95	0x3df26494	0.1183559
96	0x3da52585	0.08063797
97	0x3dc0cd96	0.094142124
98	0x3e1f6ae6	0.15568122
99	0x3e3e61c9	0.1859199
100	0x3de3aabe	0.11116551
101	0x3de9cf1c	0.11416456
102	0x3e161608	0.14656842
103	0x3db03b72	0.08605088
104	0x3dd27403	0.10276034
105	0x3e50ac88	0.20378315
106	0x3e0f4c7f	0.13994025
107	0x3e08b910	0.13351846
108	0xbd33a52b	-0.04385869
109	0xbd1e4ef4	-0.038649514
110	0xbd01520a	-0.03157238
111	0xbceb9916	-0.02875952
112	0xbb765651	-0.003758807
113	0xbc15181a	-0.009099985
114	0xbd5bd562	-0.053670295
115	0xbd2ba281	-0.041903023
116	0xbd56be31	-0.052427474
117	0x3d54a098	0.051910967
118	0x3d37c7f1	0.044868413
119	0x3d165f3e	0.036711924
120	0x3d28e588	0.041234523
121	0xbb63c12a	-0.0034752586
122	0x3bde70b9	0.00678834
123	0x3d299dc9	0.04141024
124	0x3b9db0c2	0.004812331
125	0xbb7013e3	-0.0036632947
126	0x3b200cf0	0.0024421774
127	0xbccdd6ae	-0.025126781
128	0xbb05b604	-0.002040268
129	0xbca35723	-0.019939011
130	0xbd42e246	-0.047579072
131	0xbd1fe6d7	-0.039038505
132	0x3ccef541	0.02526343
133	0xbbc2067e	-0.005921184
134	0xbbc6c500	-0.0060659647
135	0xbd1a70b4	-0.03770514
136	0xbc4091e1	-0.01175353
137	0xbc7e251e	-0.015511779
138	0xbcd405e8	-0.025881723
139	0xbc3186e3	-0.010835382
140	0xbc9c10bf	-0.019050954
141	0xbcef9283	-0.029244667
142	0xbc84d170	-0.016213149
143	0xbcf21750	-0.029552132
144	0xbc2b7893	-0.010465759
145	0x3c037d20	0.008025438
146	0x3c4bb67d	0.012433645
147	0xb9be169c	-0.0003625647
148	0x3c7e588b	0.01552404
149	0x3c0cb018	0.008586906
150	0x3ca5770e	0.020198371
151	0x3cd5cbec	0.026098214
152	0x3c568247	0.013092584
153	0x3d15076c	0.03638403
154	0x3d2d589a	0.042320825
155	0x3db03818	0.08604449
156	0x3d228d6a	0.039685644
157	0x3d0739cd	0.033014107
158	0x3d8461db	0.06463977
159	0x3d33f5a4	0.043935433
160	0x3d386025	0.045013566
161	0x3ddda63b	0.108227216
162	0xbd3b0f32	-0.04566879
163	0xbd49efb9	-0.049300883
164	0xbd5a3601	-0.05327416
165	0xbcd9f9d2	-0.026608381
166	0xbce7ff94	-0.028320111
167	0xbcb19488	-0.02167727
168	0xbd1b0c61	-0.037853602
169	0xbd1aca33	-0.03779049
170	0xbd024d71	-0.031812135
171	0x3a8a2f08	0.0010542581
172	0x3bf91cd9	0.007602316
173	0x3c9af3d3	0.018915093
174	0x3b27786f	0.0025553962
175	0x3c25051f	0.010072022
176	0x3c90ad8f	0.017660884
177	0x3ca15c2b	0.01969727
178	0x3ca99002	0.020698551
179	0x3cdd2a70	0.026997775
180	0xbbfbd8ae	-0.0076857423
181	0x3be23ed8	0.006904464
182	0xbb814697	-0.0039451825
183	0xbc128c98	-0.008944653
184	0x3b25df84	0.0025310228
185	0x3c7311b4	0.014835764
186	0xbcac86a9	-0.021060305
187	0xbcb1cf31	-0.021705242
188	0xbc0aa287	-0.008461601
189	0xbd19fd3e	-0.037595026
190	0xbd070372	-0.03296227
191	0xbd46f57d	-0.04857396
192	0xbc83f811	-0.016109498
193	0xbb1e330c	-0.0024139313
194	0xbcf42862	-0.029804412
195	0xbd1db41b	-0.03850184
196	0xbd010176	-0.031495534
197	0xbd3c67ac	-0.045997307
198	0xbd1fa3b7	-0.03897449
199	0xbc8691ca	-0.01642694
200	0xbbf4e29c	-0.007473303
201	0xbcc12742	-0.02357829
202	0x3a88fa67	0.0010450602
203	0xbc4942c1	-0.012283982
204	0xbbf36541	-0.007427842
205	0xbbdea7e4	-0.0067949165
206	0xbc5537dd	-0.013013807
207	0xbd3828f9	-0.04496095
208	0xbd240df4	-0.04005237
209	0xbd8982cf	-0.06714403
210	0xbc87234e	-0.016496327
211	0xbc8f8950	-0.01752153
212	0xbd30cf36	-0.04316636
213	0xbd0feec4	-0.035139814
214	0xbd26c3a8	-0.040713936
215	0xbd89479a	-0.0670311
216	0x3d164004	0.036682144
217	0x3c91247e	0.017717596
218	0x3cd63af8	0.026151165
219	0x3cb5f878	0.022213206
220	0x3b80a6d5	0.003926138
221	0x3c7df61e	0.015500573
222	0x3d3a302b	0.045456093
223	0x3cb8f76e	0.022578921
224	0x3d2681f0	0.04065126
225	0x3dec4328	0.115362465
226	0x3d951d6d	0.07281003
227	0x3da1f0ee	0.07907282
228	0x3d85da6e	0.06535803
229	0x3c9df4af	0.019281713
230	0x3cd18b90	0.025579244
231	0x3dd3173b	0.10307165
232	0x3d38418d	0.04498439
233	0x3d3d2858	0.046181053
234	0xbd1473d1	-0.036243264
235	0xbc404067	-0.011734105
236	0xbc958b0e	-0.018254783
237	0xbbe9214f	-0.0071145664
238	0x3bd7cc96	0.006585668
239	0x3c2b0191	0.010437385
240	0xbd0dc425	-0.034610886
241	0xbc291cf8	-0.010321848
242	0xbc05b6ad	-0.008161229
243	0xbc1b7740	-0.009488881
244	0xbcfd296d	-0.030903542
245	0xbd5837e7	-0.052787688
246	0x3bbf1331	0.005831145
247	0xbc8a11e1	-0.016854228
248	0xbd1e0562	-0.038579352
249	0x3b102dab	0.0021999876
250	0xbc76b526	-0.015057838
251	0xbd15b093	-0.036545347
252	0x3c982fb5	0.018577436
253	0x3cabe165	0.0209815
254	0x3c238cfb	0.009982343
255	0x3c90a8a6	0.017658543

features.module.8.bias f4 [64]
0	0xbcdb0d36	-0.026739698
1	0x3c2fe097	0.010734699
2	0x3c392e6b	0.011302571
3	0x3d6b2fe2	0.05741871
4	0x3d5a825e	0.053346984
5	0xbd453b45	-0.048152227
6	0x3ced5856	0.028972786
7	0xbd3f791d	-0.046746362
8	0xbce995af	-0.028513758
9	0x3cbc86b1	0.023013445
10	0xbd236a81	-0.039896492
11	0x3d4cdae1	0.050013427
12	0x3cb4e5be	0.022082206
13	0x3ba36af6	0.004987116
14	0x3d05d33e	0.03267216
15	0xbd4b8482	-0.049686916
16	0x3c1da8c0	0.009622753
17	0x3cb20c3c	0.02173435
18	0xbcdbc45b	-0.026827028
19	0xbc94885c	-0.018131427
20	0x3cc1d0ba	0.023659099
21	0x3d4a6018	0.04940805
22	0xbcba56a6	-0.022746395
23	0x3d103f8a	0.035216846
24	0x3d05edc5	0.032697458
25	0xbd0bd0bf	-0.034134623
26	0xbd3de5c5	-0.046361703
27	0xbbe1303c	-0.006872205
28	0x3d143f7c	0.036193356
29	0xbd472ce8	-0.04862681
30	0xbd2600a3	-0.04052795
31	0x3d2e17a1	0.042503003
32	0xbd09023c	-0.033449396
33	0xbd2a944d	-0.041645337
34	0xbb22e240	-0.0024854094
35	0x3d69c8b3	0.057076167
36	0x3d1d946f	0.038471635
37	0x3cf683e7	0.030092193
38	0x3bf485db	0.007462246
39	0xbcef6369	-0.029222207
40	0xbd3a23be	-0.045444243
41	0x3cfdd8bb	0.030987134
42	0x3c8d9ddb	0.017287185
43	0x3c78afbc	0.015178617
44	0xbcb096a4	-0.021556206
45	0xbd69178a	-0.056907214
46	0x3c02b699	0.007978105
47	0xbc249003	-0.010044101
48	0xbb90981c	-0.004412664
49	0x3bb56d3e	0.0055367043
50	0xbd0ba5fe	-0.03409385
51	0xbd14cfe6	-0.03633108
52	0xbc8a9595	-0.01691703
53	0x3cb97026	0.022636484
54	0xbd159383	-0.03651763
55	0x3d5eabec	0.054363176
56	0xbd6b1bb1	-0.057399455
57	0xbd144664	-0.036199942
58	0x3c88f2f8	0.016717419
59	0xbd6862f7	-0.056735005
60	0xbd04a02f	-0.032379325
61	0x3cf6908d	0.030098224
62	0xbd21ea7e	-0.03953027
63	0x3c99080c	0.018680595

features.module.9.weight f4 [64]
0	0x40809df0	4.0192795
1	0x405de7af	3.4672658
2	0x40433d5a	3.0506196
3	0x402d25f4	2.7054415
4	0x400f56f5	2.2396824
5	0x403a1ff8	2.9082012
6	0x4025fedc	2.5936804
7	0x407a41f2	3.910275
8	0x4018d5b9	2.3880446
9	0x40443142	3.0655065
10	0x400cbc95	2.1990101
11	0x4035f94a	2.8433404
12	0x4040bc8e	3.0115085
13	0x406bc2eb	3.6837718
14	0x404152f0	3.020687
15	0x40716272	3.7716336
16	0x40252b0d	2.5807526
17	0x40358447	2.8361986
18	0x40832aa1	4.0989537
19	0x4052cde5	3.2938168
20	0x40275f19	2.6151793
21	0x406e1b0e	3.7204013
22	0x401aed02	2.4207158
23	0x40547677	3.3197305
24	0x4073a7fb	3.8071277
25	0x40218a96	2.5240836
26	0x403a18c8	2.9077625
27	0x401f57a4	2.4897242
28	0x40178abb	2.3678424
29	0x40252ca3	2.5808494
30	0x401ca41f	2.4475172
31	0x406b5c44	3.6775064
32	0x4036c641	2.8558505
33	0x4080357c	4.006529
34	0x40698f4e	3.6493716
35	0x404c83cb	3.195544
36	0x4050785c	3.2573462
37	0x40688f82	3.633759
38	0x40531e5a	3.2987275
39	0x402f17d1	2.7358286
40	0x40875914	4.229624
41	0x406cad55	3.6980793
42	0x4028264b	2.6273372
43	0x40581480	3.3762512
44	0x405e80ad	3.4766037
45	0x4084a2b8	4.144863
46	0x40497df9	3.1483138
47	0x403e13dc	2.9699621
48	0x403c6864	2.9438715
49	0x40439056	3.0556846
50	0x4081e6d4	4.0594273
51	0x401a518c	2.4112272
52	0x4027bf78	2.6210613
53	0x40428ca0	3.039833
54	0x404f3d56	3.2381186
55	0x40816b4c	4.044348
56	0x4048a893	3.135289
57	0x4040bcf0	3.0115318
58	0x403a18c2	2.907761
59	0x406edeb7	3.7323434
60	0x402d8f6b	2.7118785
61	0x40282d02	2.627747
62	0x403ba783	2.932099
63	0x40289028	2.6337986

features.module.9.bias f4 [64]
0	0x3f52a3d3	0.82281226
1	0x3f4de601	0.80429083
2	0x3f5218df	0.820692
3	0x3f0fa8c9	0.5611692
4	0x3ebed76c	0.3727373
5	0x3f39e5f0	0.7261648
6	0x3f12236f	0.5708532
7	0x3fa2d1dd	1.2720295
8	0x3f11b36c	0.569144
9	0x3f2d0635	0.67587596
10	0x3eed7976	0.4638173
11	0x3f5f5a05	0.87246734
12	0x3f214c1b	0.6300675
13	0x3f84d57d	1.0377651
14	0x3f5be31a	0.85893404
15	0x3f474c51	0.77850825
16	0x3f09308f	0.5358972
17	0x3f44bcb0	0.76850414
18	0x3fd4f888	1.6638346
19	0x3f3b6c7d	0.73212415
20	0x3f170fd5	0.5900853
21	0x40106857	2.2563684
22	0x3f19af3d	0.6003302
23	0x3f381766	0.71910703
24	0x3f9865e8	1.1906099
25	0x3f0432ce	0.5164002
26	0x3f0a9690	0.5413599
27	0x3f2c0f0f	0.6721048
28	0x3eeb496c	0.45954454
29	0x3f229004	0.63501
30	0x3f02fea4	0.511698
31	0x3f8c302b	1.09522
32	0x3f615fbf	0.8803672
33	0x40091a2a	2.142222
34	0x3fdccd0f	1.7250079
35	0x3f1142d4	0.56742597
36	0x3f770a02	0.96499646
37	0x3fe9c191	1.8262197
38	0x3f4aacb1	0.79169756
39	0x3f27395f	0.65321916
40	0x3f700820	0.937624
41	0x3fc6178a	1.5475934
42	0x3f2fc732	0.6866332
43	0x3f362a9e	0.7115878
44	0x3f7dbdda	0.99117815
45	0x3f46ea6a	0.7770144
46	0x3f31634c	0.6929214
47	0x3f487bf5	0.78314143
48	0x3f36ae12	0.7135936
49	0x3f2997e8	0.66247416
50	0x3fa7ae17	1.3100003
51	0x3f03b025	0.5144065
52	0x3f2207d1	0.63293177
53	0x3f770455	0.96490985
54	0x3f855687	1.0417031
55	0x3f8398ee	1.0281045
56	0x3f501003	0.8127443
57	0x3f29b614	0.66293454
58	0x3f4d009c	0.80079055
59	0x3f4a7baa	0.79094946
60	0x3f390107	0.7226719
61	0x3f36fb80	0.7147751
62	0x3f427b80	0.75969696
63	0x3f0b06fb	0.54307526

features.module.9.running_mean f4 [64]
0	0x3c1fb00f	0.0097465655
1	0xbd18928a	-0.037249126
2	0x3c74a782	0.014932515
3	0x3c967ed1	0.018371018
4	0x3c7d145c	0.015446749
5	0xbd16c4c2	-0.036808737
6	0x3c9c6d60	0.019095123
7	0xbd43d381	-0.047809128
8	0xbd06f1c1	-0.0329454
9	0xb79acd30	-1.8453778e-05
10	0x3ba9f7ae	0.0051869964
11	0x3cdebe9f	0.027190505
12	0xbb07a8d7	-0.0020700002
13	0x3bb4ef4b	0.00552169
14	0x3d6595b0	0.056050956
15	0xbd39cdbd	-0.045362223
16	0x3c06ebd7	0.00823494
17	0x3d44cdbc	0.048047766
18	0xbcae2725	-0.0212589
19	0xbd4c1ab5	-0.049830157
20	0x3cbc9df4	0.023024537
21	0x3da9fb73	0.08299913
22	0xbc51d0a9	-0.012806096
23	0x3d7782a0	0.060427308
24	0x3d90c8de	0.070695624
25	0xbd5c8849	-0.05384091
26	0xbd9c86ed	-0.076429226
27	0x3c714a3f	0.014727174
28	0x3d174ab2	0.03693647
29	0xbd9c9f11	-0.07647527
30	0xbd4f0a11	-0.05054671
31	0x3d8aff78	0.06787008
32	0xbca8e9e5	-0.020619342
33	0xbbf642a7	-0.00751527
34	0x3cd207a3	0.025638407
35	0x3d268dca	0.040662564
36	0x3d1894a0	0.037251115
37	0x3d486bc2	0.04893089
38	0xbd089201	-0.033342365
39	0xbd08d247	-0.03340366
40	0xbd16c2e0	-0.03680694
41	0x3d161103	0.036637317
42	0x3ce3018f	0.027710704
43	0x3c83bf91	0.016082557
44	0xbd87aaa2	-0.066243425
45	0xbc9215a8	-0.017832592
46	0xbbe59d33	-0.007007265
47	0xbd541015	-0.05177315
48	0x3c03ec9d	0.0080520185
49	0xbcc1311f	-0.023582993
50	0xbd3d73d6	-0.046253048
51	0xbca34fd9	-0.019935535
52	0xbd1e79db	-0.03869043
53	0x3cebe280	0.028794527
54	0xbd1a8d35	-0.03773232
55	0x3dd5f4c4	0.10447076
56	0xbd51e6e8	-0.0512456
57	0xbd830677	-0.063977174
58	0x3cab86da	0.020938326
59	0xbd121391	-0.03566319
60	0xbc3ef53c	-0.011655148
61	0x3d7b894c	0.061410233
62	0xbcc1d536	-0.023661237
63	0x3bb61666	0.0055568693

features.module.9.running_var f4 [64]
0	0x3cf16180	0.029465437
1	0x3cbb198d	0.022839332
2	0x3cd44020	0.025909483
3	0x3c8ea113	0.01741079
4	0x3c8d087d	0.017215962
5	0x3cb3953a	0.021921743
6	0x3c87d0be	0.016579028
7	0x3cc6f9bd	0.024289006
8	0x3c7b420b	0.01533557
9	0x3c927f9b	0.017883113
10	0x3c8d0714	0.01721529
11	0x3cc02534	0.02345524
12	0x3c8b21f0	0.016983956
13	0x3d0374a1	0.032093648
14	0x3c8d0450	0.01721397
15	0x3cd495d2	0.025950346
16	0x3caa47af	0.020786135
17	0x3c87ff04	0.016601093
18	0x3cef4cc8	0.029211417
19	0x3ca0d5c3	0.01963318
20	0x3c69b6ce	0.014264775
21	0x3ca108b2	0.019657467
22	0x3c89075a	0.016727138
23	0x3cdc7ae1	0.026914062
24	0x3caec8f2	0.021336053
25	0x3c8e00f0	0.017334431
26	0x3cb12429	0.021623688
27	0x3c7ca2f0	0.015419707
28	0x3c8aa971	0.0169265
29	0x3c9de565	0.019274423
30	0x3c975f28	0.018477991
31	0x3c999992	0.018749986
32	0x3c8d9f3f	0.017287849
33	0x3cc9a599	0.024615096
34	0x3caed446	0.021341454
35	0x3ca2209d	0.019790942
36	0x3c998c7c	0.018743746
37	0x3c93594b	0.017986914
38	0x3cb2e19f	0.0218361
39	0x3c798410	0.01522924
40	0x3d11f2e2	0.03563202
41	0x3cd81919	0.026379155
42	0x3c7bb67c	0.015363332
43	0x3cbd70f1	0.023125144
44	0x3ca32d06	0.01991893
45	0x3cc5b19b	0.02413254
46	0x3cb6f564	0.022333808
47	0x3cb56ec9	0.022147553
48	0x3c89b5a2	0.016810242
49	0x3cb564bb	0.022142759
50	0x3cf94204	0.030426987
51	0x3c91b7be	0.01778781
52	0x3c83973a	0.016063321
53	0x3c7ddd47	0.015494651
54	0x3c94fc52	0.018186722
55	0x3cca0152	0.024658833
56	0x3c766d34	0.0150406845
57	0x3c91d7a3	0.017803019
58	0x3c873ec7	0.016509427
59	0x3cc86347	0.024461402
60	0x3c86cca5	0.016455004
61	0x3c73f19e	0.014889149
62	0x3c7a3926	0.015272414
63	0x3c99c7d0	0.018772036

top_layer.weight f4 [10, 64]
0	0xbdc5d696	-0.0966007
1	0xbdfe88b9	-0.124284215
2	0x3e1cbbd2	0.15306023
3	0xbdfaad5f	-0.12240099
4	0xbda75aa7	-0.081715874
5	0xbdeb5b2f	-0.11492001
6	0x3d8bb921	0.0682242
7	0x3f4b687c	0.79456306
8	0x3deca467	0.11554795
9	0xbdde3623	-0.108501695
10	0x3c98a45a	0.018633056
11	0x3da8a892	0.08235277
12	0x3cad8924	0.021183558
13	0x3da8e134	0.08246079
14	0xbdd13e46	-0.10216956
15	0xbd9d4f22	-0.07681109
16	0xbdcb68e1	-0.099321134
17	0xbe1837b2	-0.14864996
18	0xbe306e9a	-0.17229691
19	0x3d81b026	0.06332426
20	0x3dcfdffb	0.10150143
21	0xbdba3f9e	-0.09094165
22	0xbcb8c84c	-0.022556446
23	0xbe0eb0dc	-0.13934654
24	0xbe80e3cb	-0.25173792
25	0xbdd6e163	-0.10492208
26	0xbe15c730	-0.14626765
27	0x3d82b17f	0.06381511
28	0xbd79b044	-0.060959116
29	0x3e823a16	0.2543494
30	0x3d6859fd	0.056726445
31	0xbdca5bb9	-0.09880776
32	0x3e020d01	0.12700273
33	0xbe5b3714	-0.2140773
34	0xbe194182	-0.14966395
35	0xbd10ba6f	-0.035334047
36	0x3efb807a	0.49121457
37	0xbdeb544f	-0.1149069
38	0xbda12b0a	-0.07869537
39	0x3e5bfcf0	0.21483207
40	0xbdc57012	-0.09640516
41	0xbe39ace3	-0.18132357
42	0x3d948bae	0.07253204
43	0xbce0057e	-0.027346369
44	0x3cc95346	0.02457584
45	0xbdefd388	-0.11710268
46	0xbdbbe5b7	-0.09174674
47	0x3e2b8a1b	0.16751902
48	0xbdc1fd08	-0.0947209
49	0xbde05f5c	-0.10955688
50	0xbe4158a9	-0.18881477
51	0xbd7f0a21	-0.06226552
52	0x3e8f099a	0.27937013
53	0x3eb4bc93	0.3530012
54	0x3f22ea74	0.63639
55	0xbe71c647	-0.23610793
56	0xbd4dda21	-0.050256852
57	0x3d03af87	0.032149818
58	0x3e2071c5	0.156684
59	0xbd736079	-0.059418175
60	0x3d6c4dcd	0.057691384
61	0xbd4dc073	-0.050232362
62	0xbcebbf61	-0.02877778
63	0x3dadcb00	0.08485985
64	0x3efefd5a	0.49802667
65	0x3e00c7ea	0.12576261
66	0xbde3105b	-0.11087104
67	0x3dc6e433	0.09711494
68	0x3d00e326	0.031466626
69	0xbdbe9d1c	-0.0930731
70	0xbdc3d5e5	-0.095622815
71	0xbd850a04	-0.06496051
72	0xbdc7bfbb	-0.097533666
73	0x3e70924a	0.23493305
74	0x3e909bb1	0.28243783
75	0xbda07cd2	-0.078363076
76	0xbde74b74	-0.112936884
77	0xbe1a2f7f	-0.15057181
78	0xbe1362d8	-0.14393175
79	0x3e9c9193	0.30579814
80	0xbd3e8939	-0.046517584
81	0xbdb833cb	-0.08994254
82	0x3e53f1d2	0.20697716
83	0xbdd85157	-0.10562389
84	0xbd12eae1	-0.03586853
85	0xbf0daebc	-0.5534475
86	0x3dacce5a	0.08437796
87	0x3d77ce82	0.060499676
88	0xbc12c9ea	-0.008959273
89	0x3e2e17c9	0.17001261
90	0xbd4d3258	-0.05009684
91	0x3cd92c71	0.02651045
92	0x3e724592	0.23659351
93	0x3d002c7a	0.031292416
94	0xbd6930ad	-0.056931186
95	0xbec20275	-0.378925
96	0x3e028d97	0.12749325
97	0xbede2d74	-0.43394053
98	0xbe4bb1b0	-0.19892001
99	0x3e239450	0.15974545
100	0xbdd4e70b	-0.103956304
101	0xbe623826	-0.22091731
102	0xbd596b6b	-0.053080957
103	0x3c16e3ea	0.009209612
104	0x3d87efe7	0.066375546
105	0x3e273824	0.1633001
106	0x3a878518	0.0010339348
107	0x3ed31e98	0.4123428
108	0xbe797b79	-0.24363507
109	0x3ed42aa0	0.4143877
110	0x3e9c39f3	0.30512962
111	0xbdfccdb8	-0.12343925
112	0xbe128f45	-0.14312465
113	0xbd1a827f	-0.037722107
114	0x3eac9aad	0.33711758
115	0x3e6b8497	0.22999798
116	0xbd58e7c1	-0.052955393
117	0xbe25013e	-0.16113755
118	0xbd94a6d7	-0.07258385
119	0x3e44b902	0.192112
120	0xbe0d9aa7	-0.13828526
121	0xbdcb526b	-0.09927829
122	0x3e659e5e	0.22423694
123	0x3f129b4f	0.5726823
124	0x3d17af73	0.037032556
125	0xbd29ed26	-0.041485928
126	0x3dc3954e	0.09549962
127	0xbc80a34c	-0.015702866
128	0xbe5c75d0	-0.21529317
129	0x3e1c70b3	0.15277366
130	0xbd77dcef	-0.060513433
131	0x3e4f509c	0.20245594
132	0x3d0cc621	0.034368638
133	0xbd81cc8e	-0.06337844
134	0xbdd7fc59	-0.10546178
135	0xbdf056d6	-0.11735313
136	0xbe00414f	-0.12524913
137	0x3ec51f8b	0.38500628
138	0xbe1a3893	-0.15060644
139	0xbdc4a76f	-0.09602248
140	0xbdf9a969	-0.121905155
141	0xbdde1580	-0.108439445
142	0xbd04bcc5	-0.032406587
143	0xbe91b3b0	-0.28457403
144	0xbd908dcc	-0.070582956
145	0x3d227181	0.039659027
146	0x3f1262e5	0.5718215
147	0xbe1e12a3	-0.15436797
148	0xbd37db75	-0.044887025
149	0xbcbaa1c4	-0.022782214
150	0x3dea5d7c	0.11443612
151	0xbddb3a8a	-0.10704525
152	0xbe437496	-0.19087443
153	0x3e859bc3	0.260954
154	0xbd9a29c8	-0.075275004
155	0xbd614df4	-0.055005983
156	0x3e836544	0.25663197
157	0xbdef66d8	-0.11689538
158	0xbdb7faae	-0.0898336
159	0x3db5f8a8	0.08885318
160	0xbdafb584	-0.08579543
161	0x3ea6d5fc	0.32585132
162	0xbde79556	-0.113077804
163	0xbe59b8b6	-0.21261868
164	0xbd7b6bab	-0.061381977
165	0xbdf70641	-0.1206174
166	0xbdcd2e35	-0.10018579
167	0xbd32ece8	-0.043682963
168	0xbe0de12e	-0.1385543
169	0x3f1012f5	0.56278926
170	0xbd30bd91	-0.043149535
171	0xbe79551f	-0.24348877
172	0xbe1f3266	-0.15546569
173	0xbe651371	-0.22370698
174	0x3ec1f956	0.3788554
175	0xbde68df6	-0.11257546
176	0x3d226ef0	0.03965658
177	0xbdc8c545	-0.09803251
178	0x3efbe3ea	0.49197322
179	0x3e6c6d41	0.23088552
180	0xbe155460	-0.14582968
181	0xbca2204c	-0.019790791
182	0xbdc3a697	-0.09553259
183	0xbe9bffc7	-0.3046858
184	0x3c9f5737	0.019450767
185	0xbe1c5f7f	-0.15270804
186	0xbe064f7b	-0.13116257
187	0xbce63e36	-0.028105836
188	0xbd9b5c2c	-0.0758594
189	0xbc680a7d	-0.014162657
190	0x3ba19710	0.004931338
191	0xbe26e464	-0.16298062
192	0xbda51b30	-0.08061826
193	0xbe171206	-0.14752969
194	0xbe0e231d	-0.13880582
195	0xbe0098f6	-0.1255835
196	0xbdcfc2ae	-0.10144554
197	0x3d0894b5	0.033344943
198	0xbe3bf9bb	-0.18356983
199	0xbd975591	-0.07389367
200	0xbe08c621	-0.1335683
201	0xbdff86d8	-0.12476891
202	0xbaf994ac	-0.00190415
203	0xbd9a37e2	-0.0753019
204	0xbe111c77	-0.14171015
205	0xbe430fa7	-0.1904894
206	0x3ec48cde	0.38388723
207	0xbdbf170f	-0.0933057
208	0x3ceded62	0.029043857
209	0x3e9f9672	0.31169468
210	0xbd971793	-0.07377543
211	0xbe186752	-0.14883164
212	0x3ed8f7f0	0.4237666
213	0xbe14440a	-0.1447908
214	0xbe224ee8	-0.15850413
215	0xbd4eb31f	-0.050463792
216	0xbdc85f59	-0.09783811
217	0xbe0c6c8f	-0.13713287
218	0xbdc6bbd2	-0.09703793
219	0xbda4ec95	-0.08052937
220	0xbdca3d0b	-0.09874924
221	0xbd056ee8	-0.03257647
222	0xbe158781	-0.14602472
223	0x3f200327	0.6250481
224	0xbd57f2d9	-0.052721832
225	0x3e8e5346	0.27797908
226	0xbe2f3e68	-0.1711365
227	0xbdbe741e	-0.09299491
228	0x3e9353ba	0.28774816
229	0xbe25802f	-0.1616218
230	0xbbd7c979	-0.0065852967
231	0x3ec19456	0.37808484
232	0xbdd05742	-0.10172893
233	0xbde1be4e	-0.11022626
234	0xbe12a410	-0.14320397
235	0xbac08914	-0.001468929
236	0xbe0286b9	-0.12746705
237	0xbda2041c	-0.0791094
238	0xbe1cb783	-0.15304379
239	0xbe472e71	-0.1945131
240	0x3ef7bf96	0.48388356
241	0xbd92c9ff	-0.07167434
242	0xbe4ab1f6	-0.19794449
243	0xbd9b43c2	-0.07581283
244	0xbe4c2cd5	-0.19938977
245	0x3eb963a3	0.3620883
246	0x3cdddc73	0.027082657
247	0xbe21e93e	-0.15811631
248	0x3f0f76b2	0.5604049
249	0xbe1ed54e	-0.15511057
250	0xbdcfbe21	-0.10143686
251	0xbcba11b2	-0.022713516
252	0xbdb286aa	-0.087170914
253	0x3e8ff8ab	0.28119406
254	0x3ed32a79	0.41243342
255	0xbe21b1b1	-0.1579044

top_layer.bias f4 [10]
0	0x3d1b0aa9	0.037851963
1	0xbdae767e	-0.08518694
2	0x3caf3893	0.021389281
3	0xbc3184a2	-0.010834845
4	0x3c7a7acc	0.015288066
5	0xbc1370b2	-0.008999037
6	0xbaedf2b5	-0.0018153997
7	0x3c11e803	0.008905414
8	0x3c43fd8b	0.011962305
9	0x3c3b6876	0.01143848

momentum_buffer f4 [16, 1, 3, 3]
0	0x3cab8b3c	0.020940416
1	0xbb31df00	-0.0027140975
2	0xbcb9aa2d	-0.022664154
3	0xbc860d60	-0.0163638
4	0xbc94aee8	-0.018149808
5	0xbd316a98	-0.043314546
6	0xbca9caba	-0.02072655
7	0xbcce7eea	-0.025207002
8	0xbd3756c2	-0.044760473
9	0xbcc8e238	-0.024521932
10	0xbd644ffa	-0.055740334
11	0xbdd42f62	-0.103606
12	0xbc40c850	-0.011766508
13	0xbd992150	-0.07477057
14	0xbdade628	-0.084911644
15	0x3ca5b5fa	0.020228375
16	0xbd582b85	-0.05277588
17	0xbda3d86a	-0.08000262
18	0xbd7e0b7c	-0.06202267
19	0xbdc02836	-0.0938267
20	0xbe0c19e3	-0.1368175
21	0xbd150e9e	-0.036390893
22	0xbdd7a34c	-0.10529193
23	0xbde91d50	-0.11382544
24	0xbd4230cb	-0.047409814
25	0xbdbd3ece	-0.09240495
26	0xbdae3ba7	-0.085074715
27	0xbb2ff2de	-0.002684764
28	0xbcc5af6f	-0.024131505
29	0x3cce80ee	0.025207963
30	0xbb6cdf60	-0.0036143884
31	0xbcaad5ee	-0.020853963
32	0x3b64d6e0	0.0034918115
33	0x3ca70b74	0.020391203
34	0x3b8dde2c	0.0043294635
35	0x3c8ad422	0.016946856
36	0xbde80099	-0.11328239
37	0x3d9d121e	0.07669471
38	0x3dce195d	0.100634314
39	0x3c8543de	0.016267713
40	0x3e1a110d	0.15045567
41	0x3d518279	0.05114982
42	0x3e0836c8	0.13302147
43	0x3de9a6ac	0.11408743
44	0xbddbd580	-0.10734081
45	0xbe0ce30c	-0.13758487
46	0xbe91199c	-0.2833985
47	0xbe7408e6	-0.2383152
48	0xbe686c00	-0.22697449
49	0xbe867cd3	-0.26267108
50	0xbe1aeb10	-0.15128732
51	0xbe81460b	-0.2524875
52	0xbe529ada	-0.20566884
53	0xbdbac9ec	-0.09120545
54	0x3e08c0e6	0.13354835
55	0x3da4aa55	0.08040301
56	0x3de721a3	0.112857126
57	0x3dc1a0d5	0.094545044
58	0x3d8383aa	0.06421597
59	0x3dc4d9fe	0.09611891
60	0x3dc293ba	0.09500833
61	0x3d5781d0	0.052614033
62	0x3d9ec3c0	0.0775218
63	0xbcaac960	-0.020847976
64	0x392ea200	0.00016654283
65	0x3d16b55c	0.03679405
66	0xbccb0a2c	-0.024785124
67	0xbb7d9ba0	-0.0038697496
68	0x3d870487	0.065926604
69	0xbd009d34	-0.03139992
70	0x3c6ab448	0.014325209
71	0x3d9dd972	0.0770749
72	0xbc1e0150	-0.009643868
73	0xbcde0826	-0.027103495
74	0x3ce5b502	0.028040413
75	0x3c375cf8	0.011191599
76	0x3d1849bb	0.03717969
77	0x3d7737e8	0.06035605
78	0x3d230137	0.03979608
79	0x3d9ddab1	0.07707728
80	0x3da95eb8	0.08270019
81	0xbcbe6860	-0.02324313
82	0xbd8a252f	-0.067453735
83	0xbcdc07f0	-0.026859254
84	0xbdad531c	-0.084631175
85	0xbd8d0460	-0.068856
86	0x3bb699c8	0.0055725314
87	0xbe017f8c	-0.12646312
88	0xbd6f3154	-0.058396652
89	0x3d485be4	0.04891576
90	0x3c06a572	0.008218156
91	0x3c8275d2	0.015925322
92	0xbb71a16a	-0.0036869892
93	0x3cc12685	0.023577938
94	0xbc58ff9c	-0.013244536
95	0xbc52e32f	-0.012871548
96	0xbc45a078	-0.0120621845
97	0xbd27922f	-0.040910896
98	0xbc6f5caf	-0.0146095
99	0xbbe59072	-0.0070057446
100	0x3c9f249f	0.019426642
101	0x3d83f56e	0.064432964
102	0x3cb52fd4	0.022117533
103	0x3d1fdba7	0.039027836
104	0x3da964ea	0.08271201
105	0x3caa0976	0.020756464
106	0x3d04d767	0.032431986
107	0x3d60cb7a	0.05488155
108	0x3cbcd1c6	0.023049247
109	0x3cd3264a	0.025775094
110	0xbb949b30	-0.0045351014
111	0x3c5fa5fc	0.013650414
112	0xbcd62642	-0.02614129
113	0xbd0d868c	-0.034552142
114	0xbc0e8cd2	-0.008700566
115	0xbd5688e0	-0.052376628
116	0xbd11dec6	-0.035612844
117	0x3c1028b8	0.008798771
118	0xba19ed78	-0.00058718724
119	0xbc2a9d15	-0.010413428
120	0x3a29705b	0.00064635806
121	0x3c0c3d39	0.0085595185
122	0xbbd285b6	-0.006424631
123	0x39a4d8c0	0.0003144201
124	0x3c291eb8	0.010322265
125	0xbb72968d	-0.0037016005
126	0xbd4bb9bb	-0.049737673
127	0xbe034fc4	-0.12823397
128	0xbe296462	-0.16542199
129	0xbd60cd30	-0.054883182
130	0xbe5928a0	-0.21206903
131	0xbe69b3e3	-0.22822528
132	0xbd83d9cc	-0.06438026
133	0xbe5315d0	-0.2061379
134	0xbe1d7481	-0.15376474
135	0x3d557c6b	0.052120607
136	0x3a3ec8db	0.00072778546
137	0x3cf8fccc	0.03039398
138	0x3da483a1	0.08032919
139	0x3d0e5156	0.034745537
140	0x3d47e314	0.048800543
141	0x3de8da94	0.113698155
142	0x3da24d3d	0.07924888
143	0x3d82c165	0.06384543

momentum_buffer f4 [16]
0	0xb6bf670b	-5.7042394e-06
1	0x36e6e15c	6.8807694e-06
2	0x378f1f0b	1.7061384e-05
3	0x37df86c6	2.664643e-05
4	0x37fc110d	3.004868e-05
5	0xb7da923d	-2.6055723e-05
6	0x370cd9d6	8.395369e-06
7	0xb76ddb3c	-1.4177345e-05
8	0xb6759301	-3.6593412e-06
9	0xb7cf467c	-2.4709145e-05
10	0x37fc0aac	3.004571e-05
11	0xb7ca9808	-2.4151072e-05
12	0x3793e019	1.762812e-05
13	0x3740c8e5	1.1490866e-05
14	0x37328f44	1.0642983e-05
15	0xb7953cbf	-1.7790471e-05

momentum_buffer f4 [16]
0	0xbea101dc	-0.3144673
1	0xbc8a0644	-0.01684869
2	0xbcf5254d	-0.029925013
3	0xbce18cf8	-0.02753304
4	0x3ea6e542	0.32596785
5	0xbe11b347	-0.14228545
6	0x3d59ae35	0.053144652
7	0x3de60650	0.11231673
8	0x3d8d0f64	0.06887701
9	0xbcfa3aac	-0.030545555
10	0x3dddceca	0.108304575
11	0xbd9ab1f7	-0.07553475
12	0xbdb99a18	-0.09062594
13	0x3d488353	0.048953366
14	0x3b12d0e4	0.002240234
15	0xbd8f2156	-0.0698878

momentum_buffer f4 [16]
0	0xbdd7a788	-0.10530001
1	0xbb67fb68	-0.0035397653
2	0xbd854f5f	-0.065092795
3	0xbd590913	-0.05298717
4	0x3e6df84f	0.23239253
5	0xbdd02eac	-0.10165152
6	0xbe86d227	-0.2633221
7	0x3d9fd2e8	0.07803899
8	0xbbb6c2c5	-0.0055774176
9	0xbcb00313	-0.02148584
10	0x3d696e31	0.056989852
11	0xbe3271e9	-0.17426266
12	0xbceb716d	-0.028740609
13	0x3daab43d	0.08335159
14	0x3b9aee50	0.004728116
15	0xbe3f1957	-0.1866201
