deepcluster_implementation/experiments/run_label_fraction_variation/config_1/checkpoints/checkpoint_epoch_12.pth.tar (torch, 203741 bytes, 32 tensors)

features.module.0.weight f4 [16, 1, 3, 3]
1.1616726 -0.031201066 -0.47937375 -0.124654315 0.22974 -0.33483395 -0.14518555 -0.1977125
1.3882171 -0.53391916 -0.033097394 1.1121943 -0.53793603 0.41606474 -0.15410693 1.4439992
-0.043807242 -0.6886359 -1.1196592 0.17821302 0.9048343 -0.4442477 0.6702219 0.13481499
-1.3279446 -0.17192309 -0.49815682 -0.9674517 -0.9094918 -0.93017274 -0.5314166 0.48092946
-0.10899301 -0.58947855 0.24933533 0.90836596 0.50259113 0.11148278 0.23708905 0.10853549
-0.05996605 0.18894425 1.1075768 0.19763882 1.3919117 -1.320193 1.3553745 0.20250228
-0.61709875 -0.24021202 -1.5549719 1.4636792 -0.8600952 0.03644446 0.6641928 1.1746147
0.3076438 -0.8017696 0.6694948 -0.7668407 -1.3564727 -0.30851692 -1.205433 0.05832882
-1.3898114 -1.2397565 0.19059223 0.12302669 -0.42564005 0.9219429 1.2484441 1.039196
-0.0030831054 -1.5001096 -1.2924378 0.00053208205 -0.047740087 -0.16132097 1.8259476 0.9864197
-1.9281716 -0.7046433 -0.6826816 0.021317627 1.6110545 0.7499141 0.91960555 -0.39983866
-0.6811603 -0.30748084 1.1177598 -0.022721494 -0.14581957 0.09738394 -0.46243703 -0.49121064
0.9591951 0.35492268 -0.31112045 -1.0058442 0.21237658 1.0453761 -0.46635503 -0.09108295
0.10919593 -0.37239817 -0.8120886 -0.9339938 0.7091695 0.0044817813 1.1430651 0.049201515
-0.2856701 -0.015342277 -0.67498875 -0.73872346 0.94084597 -0.5822834 0.6093569 -1.2500558
-0.4601881 0.7989306 0.14354557 -0.8628121 0.1569207 -0.26512763 -0.6463351 -0.035793915
-0.8891633 -1.2297277 3.0457265 -0.65359324 -1.0587676 0.35106725 -1.3783355 -1.2730433
-0.92035216 -0.92502505 0.32615143 0.61454993 -0.97698027 0.7637296 0.48516816 -0.30400836
00000000: b0b1 943f 6199 ffbc 7a70 f5be c34a ffbd
00000010: f640 6b3e 5b6f abbe 85ab 14be 2575 4abe
00000020: 19b1 b13f edae 08bf 2291 07bd 625c 8e3f
00000030: 2db6 09bf 7006 d53e 35ce 1dbe f7d4 b83f
00000040: 396f 33bd 714a 30bf fe50 8fbf 797d 363e
00000050: 38a3 673f 6f74 e3be aa93 2b3f f10c 0a3e
00000060: 17fa a9bf 9b0c 30be 690e ffbe eaaa 77bf
00000070: 74d4 68bf cd1f 6ebf eb0a 08bf 633c f63e
00000080: ba37 dfbd 11e8 16bf c351 7f3e ac8a 683f
00000090: d0a9 003f 1551 e43d 79c7 723e db47 de3d
000000a0: f69e 75bd 9a7a 413e 14c5 8d3f d561 4a3e
000000b0: 2a2a b23f 16fc a8bf e97c ad3f c25c 4f3e
000000c0: 2ffa 1dbf 24fa 75be 5209 c7bf d759 bb3f
000000d0: 332f 5cbf c946 153d 8a08 2a3f c659 963f
000000e0: 7d83 9d3e c640 4dbf 0364 2b3f ac4f 44bf
000000f0: e6a0 adbf eef5 9dbe a14b 9abf 33ea 6e3d
00000100: 57e5 b1bf 57b0 9ebf 9c2a 433e 6bf5 fb3d
00000110: 7eed d9be 7304 6c3f 04cd 9f3f 6004 853f
00000120: ed0d 4abb 9703 c0bf 9a6e a5bf 6c7b 0b3a
00000130: 1c8b 43bd 5331 25be a7b8 e93f 0086 7c3f
00000140: 54ce f6bf 8163 34bf 39c4 2ebf 4ea2 ae3c
00000150: 0937 ce3f 5ffa 3f3f 456b 6b3f a7b7 ccbe
00000160: 8560 2ebf 216e 9dbe c112 8f3f 6d22 babc
00000170: ba51 15be 3b71 c73d 8cc4 ecbe f67f fbbe
00000180: cf8d 753f 6db8 b53e 2e4b 9fbe 81bf 80bf
00000190: 3f79 593e e2ce 853f 16c6 eebe b389 babd
000001a0: 1ea2 df3d f9aa bebe 0ae5 4fbf 381a 6fbf
000001b0: 228c 353f e8db 923b f54f 923f 8787 493d
000001c0: 5a43 92be 2c5e 7bbc 10cc 2cbf fb1c 3dbf
000001d0: 48db 703f 8610 15bf d0fe 1b3f d401 a0bf
000001e0: c69d ebbe b786 4c3f 9cfd 123e 41e1 5cbf
000001f0: d2af 203e cfbe 87be 3876 25bf a49c 12bd
00000200: 35a0 63bf b867 9dbf 2fed 4240 e351 27bf
00000210: b285 87bf 16bf b33e 4c6d b0bf 15f3 a2bf
00000220: 339c 6bbf 71ce 6cbf 52fd a63e 2553 1d3f
00000230: 611b 7abf c883 433f f667 f83e fca6 9bbe

features.module.0.bias f4 [16]
-0.054986373 0.06651014 0.16439494 0.25708044 0.2900771 -0.25249523 0.08014147 -0.13696937
-0.034895703 -0.23835081 0.29004565 -0.2337109 0.17019142 0.11191405 0.103478946 -0.17216624
00000000: 6439 61bd 7836 883d 2657 283e 0ca0 833e
00000010: fc84 943e 0e47 81be 3621 a43d b341 0cbe
00000020: ccee 0ebd 3c12 74be dd80 943e e951 6fbe
00000030: a946 2e3e 3233 e53d c5ec d33d 594c 30be

features.module.1.weight f4 [16]
1.2646772 0.98180425 1.1845304 2.0303702 1.1584402 1.2750199 1.2328762 0.94632196
1.3850889 0.7923072 0.9088695 2.1085205 0.89940506 2.1486936 1.7673185 2.1617677
00000000: f1e0 a13f 8657 7b3f b19e 973f 96f1 0140
00000010: c547 943f da33 a33f e3ce 9d3f 2842 723f
00000020: 984a b13f a5d4 4a3f acab 683f 00f2 0640
00000030: 693f 663f 3284 0940 7e37 e23f 675a 0a40

features.module.1.bias f4 [16]
-2.5862963 -1.942559 -0.3295499 -0.7142899 -1.8819469 -0.50721526 -0.42493343 -0.57716006
-0.4565412 -1.0309027 -1.5993006 -0.5915349 -1.2774892 -0.7088635 -0.6432944 -0.5206395
00000000: e185 25c0 c6a5 f8bf c4ba a8be b4db 36bf
00000010: a3e3 f0bf dcd8 01bf e090 d9be c3c0 13bf
00000020: c5bf e9be 9ff4 83bf e2b5 ccbf d56e 17bf
00000030: c484 a3bf 1478 35bf f1ae 24bf a148 05bf

features.module.1.running_mean f4 [16]
-0.008291988 0.09382297 0.101394415 0.19338767 0.3932365 -0.2649492 0.02278751 -0.12000228
-0.085611284 -0.26137632 0.33612815 -0.2839637 0.22219828 0.029498447 -0.03750535 -0.24023771
00000000: 1edb 07bc 4226 c03d e0a7 cf3d 6b07 463e
00000010: 4b56 c93e 6ca7 87be dfac ba3c c1c3 f5bd
00000020: f854 afbd 1ed3 85be fd18 ac3e b163 91be
00000030: f287 633e baa6 f13c 369f 19bd e000 76be

features.module.1.running_var f4 [16]
1.8642392 1.8391508 3.8138366 6.6646147 8.966402 2.95872 6.1166916 6.2216277
9.045158 1.4520767 2.3223958 4.9344153 2.1807415 2.1306572 4.348728 6.203381
00000000: 649f ee3f 4b69 eb3f e615 7440 8644 d540
00000010: 6276 0f41 ab5b 3d40 f0bb c340 9317 c740
00000020: f8b8 1041 a6dd b93f 22a2 1440 bbe6 9d40
00000030: 4591 0b40 b05c 0840 c828 8b40 1982 c640

features.module.4.weight f4 [32, 16, 3, 3]
-0.115870655 0.025534626 -0.20685616 0.03185272 0.09944878 -0.21870057 -0.099418074 0.13161641
0.29430896 -0.029926524 0.21380858 0.43580526 -0.15925103 -0.09088582 0.01148983 -0.07361341
0.16192746 0.48526388 0.32422563 -0.1631983 0.14966057 0.069318645 -0.25768995 -0.016116207
0.106350385 -0.034041345 -0.034634605 -0.53399014 -0.40942612 0.04513561 -0.5118241 -0.1449023
-0.0074785016 -0.36536965 -0.13519518 0.4557498 -0.025421673 -0.092700385 -0.09047229 -0.04887631
-0.042790305 0.025177797 -0.06551798 -0.047359314 0.162445 -0.18510054 -0.006069796 0.13874166
-0.03147031 -0.020441564 0.049908664 -0.16086945 -0.021569297 -0.14677338 -0.17680688 -0.098192096
0.015321165 -0.2596589 -0.18977825 -0.24363291 -0.07631823 -0.19261843 -0.3806959 -0.23583244
0.29931822 -0.023063043 -0.19614734 0.19081965 0.12816061 -0.08332182 0.054678503 0.20731384
0.08099355 -0.11623136 -0.2941235 0.27426887 -0.042400498 -0.10983825 0.19861509 -0.108966246
-0.102070816 -0.37384796 -0.16328809 0.34269965 -0.37267038 -0.30063233 0.26210967 -0.42694
-0.16844723 0.26872548 0.32637483 0.120737165 -0.03332714 -0.0995643 -0.00053787907 -0.04814593
-0.046032958 0.22087727 -0.25604543 -0.16168866 -0.09643078 0.1075805 0.10639282 -0.15229349
-0.07592335 0.09416041 0.118950106 -0.45799643 -0.09491859 -0.39128518 0.19688429 0.14032233
-0.21179125 0.044287555 0.1451977 -0.06376913 0.07623854 -0.40880743 -0.23303828 -0.4966455
-0.20920949 -0.109513514 -0.23874927 -0.24956644 -0.18096772 -0.5382418 -0.27963504 -0.12243467
-0.38838008 -0.18217742 0.021197207 -0.19201885 -0.22281511 -0.032417238 -0.5058661 -0.4542207
-0.13887799 -0.45140445 -0.040796977 0.065417744 -0.14669158 -0.037562516 -0.0805053 -0.18376262
0.019871624 -0.11600605 -0.42663667 0.11982773 0.025988165 -0.22975877 -0.01910388 -0.5590462
-0.53188634 0.04091499 0.013875044 0.0065625436 -0.09869959 -0.010868815 -0.21235693 0.025332967
0.11825555 -0.097008005 0.051975768 0.023582468 0.24247365 -0.026898937 -0.23264693 -0.12973635
0.06792038 -0.09808256 -0.10724247 -0.2777436 -0.18945011 -0.10124254 0.026985148 0.1949502
-0.0944425 -0.066612214 -0.054231428 -0.57237923 0.13751414 -0.018991947 -0.19279484 0.034788884
0.13601512 -0.13523807 0.14922082 0.14725801 -0.31365368 0.07555237 0.033129223 -0.010776392
0.060919277 -0.09105906 0.10053689 0.064577475 -0.09308661 0.13605005 0.040167786 0.058222253
-0.09153247 -0.3689572 -0.15350889 -0.10725225 -0.34200323 -0.09986876 -0.18432377 -0.6729715
-0.6197395 -0.70650846 -0.2971333 -0.08561966 -0.20530602 -0.68113625 -0.5796556 -0.7078398
-0.1234192 -0.05612952 -0.06138394 0.18449636 0.06664808 0.1135518 -0.01704883 -0.12796976
-0.13988324 0.097927354 -0.1461315 -0.46522403 -0.030950906 0.073355466 -0.21091972 -0.12790559
0.06959436 -0.044832777 0.30492443 0.0018613981 -0.024045639 0.06719074 -0.029719573 -0.029382119
-0.034283176 0.022249265 -0.07292177 0.028771196 -0.009149413 0.06862693 -0.3614942 0.0680815
-0.042002175 -0.063664734 0.062469292 -0.045524713 0.013465938 -0.10211288 -0.32827663 -0.04732828
00000000: 984d edbd fe2d d13c 1ad2 53be ff77 023d
00000010: cdab cb3d 0bf3 5fbe b49b cbbd 74c6 063e
00000020: aaaf 963e 7828 f5bc a3f0 5a3e de21 df3e
00000030: b412 23be 5822 babd d73f 3c3c a1c2 96bd
00000040: 50d0 253e 8274 f83e e700 a63e 751d 27be
00000050: 9f40 193e eff6 8d3d f0ef 83be 2306 84bc
00000060: 3bce d93d f06e 0bbd 04dd 0dbd 94b3 08bf
00000070: 4da0 d1be 1ee0 383d e706 03bf 4561 14be
00000080: 380e f5bb bb11 bbbe 9b70 0abe 0a58 e93e
00000090: 1d41 d0bc b3d9 bdbd 8949 b9bd 8732 48bd
000000a0: e344 2fbd ab41 ce3c 4a2e 86bd d7fb 41bd
000000b0: fb57 263e ff8a 3dbe 24e5 c6bb 4b12 0e3e
000000c0: 03e7 00bd 1175 a7bc 076d 4c3d f6ba 24be
000000d0: 18b2 b0bc c34b 16be dd0c 35be f018 c9bd
000000e0: a005 7b3c 03f2 84be 3b55 42be e87a 79be
000000f0: bb4c 9cbd c43d 45be 93ea c2be 0f7e 71be
00000100: 3d40 993e b5ee bcbc d9da 48be 3a66 433e
00000110: 893c 033e a1a4 aabd 91f6 5f3d 144a 543e
00000120: f2df a53d b50a eebd 5b97 96be f86c 8c3e
00000130: 25ac 2dbd e0f2 e0bd c161 4b3e b229 dfbd
00000140: 810a d1bd 0069 bfbe fe34 27be 5476 af3e
00000150: a7ce bebe 7bec 99be 3d33 863e e197 dabe
00000160: 6e7d 2cbe 6396 893e 9a1a a73e 0c45 f73d
00000170: 0a82 08bd 5ee8 cbbd 7400 0dba ab34 45bd
00000180: 0e8d 3cbd a72d 623e 6318 83be b691 25be
00000190: 807d c5bd 2a53 dc3d 7be4 d93d d3f2 1bbe
000001a0: b47d 9bbd 2cd7 c03d 1d9c f33d 827e eabe
000001b0: ad64 c2bd 8856 c8be 099c 493e a8b0 0f3e
000001c0: cedf 58be de66 353d b5ae 143e 6499 82bd
000001d0: f422 9c3d 354f d1be 96a1 6ebe 5248 febe
000001e0: 033b 56be 9f48 e0bd b07a 74be 588e 7fbe
000001f0: 9a4f 39be 37ca 09bf 532c 8fbe 07bf fabd
00000200: c1d9 c6be b88c 3abe c4a5 ad3c 97a0 44be
00000210: a529 64be f0c7 04bd 7180 01bf 9e8f e8be
00000220: 0836 0ebe 7c1e e7be bb1a 27bd bdf9 853d
00000230: 5136 16be 27db 19bd f6df a4bd 452c 3cbe
00000240: d1c9 a23c 9494 edbd 1f70 dabe 3e68 f53d
00000250: 22e5 d43c e245 6bbe bd7f 9cbc a71d 0fbf
00000260: b429 08bf 7a96 273d 2754 633c 9b0a d73b
00000270: 0323 cabd 1d13 32bc 1874 59be 1587 cf3c
00000280: f72f f23d 22ac c6bd 8be4 543d 0530 c13c
00000290: 034b 783e 295b dcbc ff3a 6ebe 9bd9 04be
000002a0: d719 8b3d 82df c8bd f1a1 dbbd 6934 8ebe
000002b0: 36ff 41be 4058 cfbd f50f dd3c 06a1 473e
000002c0: 126b c1bd fc6b 88bd c621 5ebd 7287 12bf
000002d0: 82d0 0c3e 0095 9bbc 036c 45be ca7e 0e3d
000002e0: 8c47 0b3e d97b 0abe 58cd 183e ceca 163e
000002f0: 3797 a0be 33bb 9a3d 82b2 073d 778f 30bc
00000300: 7e86 793d 2c7d babd 49e6 cd3d 3241 843d
00000310: 31a4 bebd b450 0b3e fa86 243d 757a 6e3d
00000320: 6075 bbbd f5e7 bcbe 6f31 1dbe 11a7 dbbd
00000330: 0c1b afbe fe87 ccbd 5fbf 3cbe dc47 2cbf
00000340: 3fa7 1ebf bddd 34bf db21 98be 5c59 afbd
00000350: be3b 52be f25e 2ebf 4f64 14bf fd34 35bf
00000360: 35c3 fcbd 11e8 65bd ba6d 7bbd 9dec 3c3e
00000370: ca7e 883d d98d e83d fda9 8bbc 810a 03be
00000380: 8d3d 0fbe 238e c83d 7fa3 15be d831 eebe
00000390: c18c fdbc 643b 963d 57fb 57be aff9 02be
000003a0: 7d87 8e3d 93a2 37bd 0e1f 9c3e 28fa f33a
000003b0: 5cfb c4bc 4c9b 893d 7676 f3bc c5b2 f0bc
000003c0: 846c 0cbd 1744 b63c 0258 95bd 92b1 eb3c
000003d0: 6be7 15bc 478c 8c3d c515 b9be 506e 8b3d
000003e0: 790a 2cbd a862 82bd cddf 7f3d 1f78 3abd
000003f0: 3da0 5c3c 8f20 d1bd e013 a8be 4cdb 41bd

features.module.4.bias f4 [32]
0.020682806 0.039951045 -0.07278211 -0.05552102 -0.07640111 0.037162274 0.05970443 -0.07648782
0.020697387 0.01614471 -0.04272114 0.017199943 0.061384566 0.078084305 0.034424663 -0.015784739
-0.045296665 -0.030320194 0.00065301626 -0.0058458936 0.05808943 -0.07194392 0.007106158 -0.02531913
0.0066381143 0.07655372 0.002329002 -0.0138075 -0.026982225 -0.07944622 -0.0721233 0.034686983
00000000: fd6e a93c b5a3 233d c90e 95bd 026a 63bd
00000010: 2f78 9cbd 7837 183d a28c 743d a5a5 9cbd
00000020: 918d a93c e941 843c 5dfc 2ebd e5e6 8c3c
00000030: 626e 7b3d aaea 9f3d e000 0d3d ff4e 81bc
00000040: ff88 39bd 0e62 f8bc 2e2f 2b3a e98e bfbb
00000050: 2fef 6d3d 5557 93bd c6da e83b 106a cfbc
00000060: 8a84 d93b 32c8 9c3d 2ba2 183b da38 62bc
00000070: d409 ddbc b3b4 a2bd 61b5 93bd f013 0e3d

features.module.5.weight f4 [32]
0.6606688 1.3948853 1.3638735 0.8014022 0.6602492 1.4046881 0.8295052 0.6821138
0.77967614 0.9647294 0.97476286 1.3955523 0.685072 0.6854734 1.4298798 0.7524494
1.2256962 1.2650197 0.98363125 0.9289739 1.2032562 1.0593584 0.80043525 0.9849028
0.8196446 0.8672871 1.2837999 1.5871631 0.79477996 0.6184806 1.0305394 0.8921981
00000000: 9721 293f 9a8b b23f 6893 ae3f b228 4d3f
00000010: 1706 293f d2cc b33f 745a 543f 039f 2e3f
00000020: db98 473f 82f8 763f 0f8a 793f 75a1 b23f
00000030: e160 2f3f 2f7b 2f3f 4d06 b73f 86a0 403f
00000040: 9de3 9c3f 2aec a13f 42cf 7b3f 3cd1 6d3f
00000050: 4d04 9a3f 0e99 873f 53e9 4c3f 9722 7c3f
00000060: 3ad4 513f 8706 5e3f 8e53 a43f 2928 cb3f
00000070: b376 4b3f bf54 1e3f b7e8 833f 1867 643f

features.module.5.bias f4 [32]
-1.1222676 -1.1322085 -0.8865774 -0.9312755 -0.33562723 -1.1026219 -0.8494822 -0.834042
-0.50351024 -0.9707201 -0.7607541 -1.3120146 -0.82015896 -0.47693688 -1.091296 -1.2933142
-1.1392769 -1.1860812 -1.064973 -1.2836444 -0.9036151 -0.70976293 -0.94494236 -1.333831
-0.87385416 -0.834543 -1.1424596 -1.2002523 -1.1495707 -0.45053005 -0.82855296 -0.79783946
00000000: 77a6 8fbf 35ec 90bf bdf6 62bf 1268 6ebf
00000010: 55d7 abbe b722 8dbf aa77 59bf c783 55bf
00000020: 0ce6 00bf 1d81 78bf c8c0 42bf 18f0 a7bf
00000030: f0f5 51bf 1231 f4be 96af 8bbf 528b a5bf
00000040: d3d3 91bf 82d1 97bf 0951 88bf 764e a4bf
00000050: 5253 67bf 06b3 35bf bee7 71bf f9ba aabf
00000060: e8b4 5fbf 9ca4 55bf 1e3c 92bf dea1 99bf
00000070: 2225 93bf e0ab e6be 0c1c 54bf 353f 4cbf

features.module.5.running_mean f4 [32]
-2.433942 -2.6674743 -1.2979 -1.1951941 -0.6343838 -1.8863112 -1.9018085 -1.9596449
-1.2308352 -1.5080024 -1.8299196 -2.5166605 -1.6151468 -0.9367142 -2.6232278 -1.9139016
-2.9361897 -2.7825277 -1.9013941 -2.2493808 -1.5586708 -1.2069317 -1.4559586 -2.799287
-2.0892625 -1.5691581 -1.3251414 -1.6959406 -2.381524 -1.0620351 -1.2372602 -1.669494
00000000: b5c5 1bc0 e6b7 2ac0 9621 a6bf 1ffc 98bf
00000010: fa66 22bf a572 f1bf 766e f3bf a5d5 fabf
00000020: 028c 9dbf 3906 c1bf ce3a eabf f710 21c0
00000030: 21bd cebf 80cc 6fbf f7e2 27c0 bafa f4bf
00000040: 88ea 3bc0 ef14 32c0 e260 f3bf dbf5 0fc0
00000050: 8682 c7bf bd7c 9abf da5c babf 8527 33c0
00000060: 7ab6 05c0 2cda c8bf 3c9e a9bf 9514 d9bf
00000070: e46a 18c0 c4f0 87bf 8b5e 9ebf fbb1 d5bf

features.module.5.running_var f4 [32]
1.8921053 6.808719 8.896673 1.1420963 1.2506009 4.506974 2.8179293 2.0533493
1.6259203 3.8346398 3.408033 5.273521 2.3181942 1.7563819 6.1651845 1.7914116
7.78516 5.315367 2.5110226 4.062706 3.7664638 2.6500385 2.6458597 3.8162432
2.8473783 3.6888976 3.8902574 4.870882 2.227117 1.1013466 2.6896167 2.8367789
00000000: 8230 f23f 07e1 d940 c658 0e41 3630 923f
00000010: b113 a03f 2239 9040 f458 3440 136a 0340
00000020: 281e d03f bd6a 7540 361d 5a40 afc0 a840
00000030: 4b5d 1440 1fd1 e03f 3149 c540 fa4c e53f
00000040: 0820 f940 7d17 aa40 98b4 2040 b001 8240
00000050: be0d 7140 3b9a 2940 c455 2940 543d 7440
00000060: 723b 3640 e616 6c40 faf9 7840 44de 9b40
00000070: 1689 0e40 edf8 8c3f ae22 2c40 c98d 3540

features.module.8.weight f4 [64, 32, 3, 3]
0.036643244 0.023096021 -0.019949518 0.047015555 0.022806173 -0.0039179246 0.04424787 0.020053864
-0.010456134 0.014459273 0.00589285 5.417458e-05 -0.0119256135 -0.0235096 -0.037832636 -0.02547708
-0.046983678 -0.08915702 0.00021567498 0.017802559 -0.023876391 -0.02200416 0.010354359 -0.0348891
-0.045282982 -0.0019076759 -0.04144772 -0.016584527 -0.019909551 0.0045794337 -0.017913444 -0.022848103
0.0042454326 -0.03211993 -0.026391767 -0.006353732 -0.049022645 -0.008451762 -0.019845698 -0.040616162
-0.0045323693 -0.011472842 -0.023461094 0.0013470765 -0.0041474495 -0.008759751 -0.031608116 -0.022642657
0.00039535062 -0.010399223 -0.02275278 0.024390204 0.016561614 -0.019768702 -0.018464124 -0.016972793
-0.009051839 -0.037055746 -0.03403622 -0.017353985 -0.049398266 -0.0537761 -0.032694507 0.07330656
0.033033613 0.049623646 0.029592728 0.00750152 0.027344577 0.017627034 0.012758815 0.044699926
-0.013821473 -0.039669048 -0.028547855 -0.024250152 -0.04146865 -0.0108501995 -0.057008296 -0.060586777
-0.02913255 -0.030610926 -0.015362065 -0.022050552 -0.029080046 -0.018002246 -0.023417333 -0.043583367
-0.03707643 -0.033085648 0.1479374 0.19157113 0.2382217 0.09258099 0.14123125 0.18638556
0.13581677 0.2148171 0.26954567 0.22513917 0.11951125 0.11960236 0.1548836 0.054313898
0.06096834 0.24666022 0.12102702 0.1217407 -0.05132046 -0.037316848 -0.03932405 -0.033156805
-0.019961653 -0.029573828 -0.056982126 -0.051481694 -0.07115021 0.136279 0.104980744 0.14622729
0.08425241 0.06010838 0.099190876 0.12066742 0.09254783 0.12671722 0.011612054 0.0055974876
-0.011407045 0.014531474 -0.0005589645 -0.033631735 0.02939558 0.012243066 -0.035480466 -0.005784279
-0.002266591 0.0034168828 -0.00507843 -0.0040709334 -0.0012114077 -0.0250005 -0.023798399 -0.019910626
0.027084501 0.029087238 0.026072718 0.015063751 0.015533189 0.015218328 0.015791062 0.016118629
0.013873226 0.0015305473 -0.007278385 0.0028022302 0.0014350261 -0.017160982 -0.013168274 -0.019145034
-0.047506087 -0.033775665 -0.008481346 -0.030791886 -0.027502509 -0.009116404 -0.01456992 -0.008409531
-0.049140614 -0.046164405 -0.035486702 0.036888305 0.026178172 0.03324544 0.030478999 0.017227802
0.02196443 0.037007608 0.030654129 0.038614765 -0.04026937 -0.013168595 0.0018652073 -0.04997728
-0.016355999 0.016311359 -0.07472275 -0.030449526 0.0014938762 -0.014332824 -0.036117498 -0.055421006
-0.0019364704 -0.01403793 -0.030109162 8.0175596e-05 -0.0007493032 -0.011274928 -0.040697023 -0.025537472
-0.025892291 -0.021067657 -0.012657102 -0.015838679 -0.022891328 -0.014639908 -0.008909305 -0.03216549
-0.036555246 -0.05857446 -0.011955305 -0.025397548 -0.040383846 -0.035426524 -0.04544201 -0.05938572
0.035622716 0.028305564 0.06742721 0.030597083 0.016110856 0.05564801 0.06578485 0.047239956
0.088470295 0.13318585 0.11505509 0.11490111 0.09287239 0.046151094 0.03499085 0.13254456
0.057438232 0.045903947 -0.017312871 -0.0006357392 -0.016368758 -0.0052843466 0.02058972 0.018012125
-0.026098281 -0.0018286924 0.0032148596 -0.06136604 -0.042603742 -0.05186957 -0.03595562 -0.01592341
-0.030991632 -0.052533258 -0.02727444 -0.029262902 -0.011469377 -0.009618885 -0.018887153 -0.0053853546
00000000: 3a17 163d de33 bd3c 2c6d a3bc 6293 403d
00000010: 03d4 ba3c ef61 80bb 413d 353d 0048 a43c
00000020: 3450 2bbc 96e6 6c3c cf18 c13b 8339 6338
00000030: a663 43bc 3497 c0bc 65f6 1abd 4fb5 d0bc
00000040: f571 40bd f597 b6bd d026 6239 acd6 913c
00000050: 6c98 c3bc 1142 b4bc 54a5 293c dfe7 0ebd
00000060: a67a 39bd fb0a faba 16c5 29bd 46dc 87bc
00000070: 5b19 a3bc 130f 963b 37bf 92bc f22b bbbc
00000080: 451d 8b3b 3090 03bd 8c33 d8bc f832 d0bb
00000090: f8cb 48bd 4279 0abc 7293 a2bc 225d 26bd
000000a0: 4584 94bb 96f8 3bbc 7b31 c0bc 6390 b03a
000000b0: 54e7 87bb 0f85 0fbc 8377 01bd 187d b9bc
000000c0: 1047 cf39 8161 2abc 0a64 babc f7cd c73c
000000d0: 39ac 873c f9f1 a1bc 1342 97bc 870a 8bbc
000000e0: 2a4e 14bc c4c7 17bd 9069 0bbd f229 8ebc
000000f0: d655 4abd 5444 5cbd adea 05bd c021 963d
00000100: 414e 073d 2a42 4b3d 736c f23c 50cf f53b
00000110: bc01 e03c 9266 903c 590a 513c 4517 373d
00000120: 7673 62bc 037c 22bd 31dd e9bc 41a8 c6bc
00000130: 08db 29bd 09c5 31bc 8881 69bd d729 78bd
00000140: 63a7 eebc c4c3 fabc 2cb1 7bbc 5ca3 b4bc
00000150: 4739 eebc 7279 93bc b5d5 bfbc 7984 32bd
00000160: 74dd 17bd d184 07bd e77c 173e 392b 443e
00000170: 64f0 733e 1a9b bd3d ed9e 103e dbdb 3e3e
00000180: 8d13 0b3e 04f9 5b3e e401 8a3e e28a 663e
00000190: 50c2 f43d 15f2 f43d ce99 1e3e 4078 5e3d
000001a0: f0b9 793d 7f94 7c3e 04dd f73d 3053 f93d
000001b0: 6735 52bd 8dd9 18bd 4112 21bd 6ecf 07bd
000001c0: 9f86 a3bc d044 f2bc 1766 69bd 78de 52bd
000001d0: 34b7 91bd b98c 0b3e 2500 d73d 9bbc 153e
000001e0: 878c ac3d 3434 763d 9624 cb3d 7b20 f73d
000001f0: b789 bd3d 29c2 013e 7c40 3e3c 216b b73b
00000200: 9de4 3abc 6b15 6e3c 7987 12ba 6ec1 09bd
00000210: 00cf f03c 2497 483c f753 11bd 0d8a bdbb
00000220: 168b 14bb c8ed 5f3b f568 a6bb 7765 85bb
00000230: 19c8 9eba d9cd ccbc dcf4 c2bc 9c1b a3bc
00000240: 51e0 dd3c 5c48 ee3c 7496 d53c f3cd 763c
00000250: eb7e 7e3c 4b56 793c 425c 813c 370b 843c
00000260: 874c 633c a59c c83a 857f eebb 9fa5 373b
00000270: 7c17 bc3a 3095 8cbc bfbf 57bc 0cd6 9cbc
00000280: be95 42bd 5a58 0abd 58f5 0abc 443f fcbc
00000290: f14c e1bc f85c 15bc acb6 6ebc 21c8 09bc
000002a0: ab47 49bd e316 3dbd 815a 11bd 3118 173d
000002b0: 9b73 d63c 5f2c 083d 18af f93c 5221 8d3c
000002c0: c0ee b33c 4a95 173d 5e1e fb3c 842a 1e3d
000002d0: 7ff1 24bd 17c1 57bc f979 f43a fab4 4cbd
000002e0: 04fd 85bc 669f 853c 3e08 99bd 4971 f9bc
000002f0: 2bce c33a 39d4 6abc f1ef 13bd 2301 63bd
00000300: 2ad1 fdba 59ff 65bc 7da7 f6bc f223 a838
00000310: e36c 44ba 7aba 38bc ecb1 26bd f633 d1bc
00000320: 121c d4bc 1496 acbc bc5f 4fbc 1ec0 81bc
00000330: 9886 bbbc 3adc 6fbc 55f8 11bc f6bf 03bd
00000340: f4ba 15bd c6eb 6fbd 2fe0 43bc 850e d0bc
00000350: 8869 25bd 671b 11bd 6721 3abd 713e 73bd
00000360: 20e9 113d 12e1 e73c 4717 8a3d bca6 fa3c
00000370: eafa 833c 2bef 633d 35ba 863d af7e 413d
00000380: ea2f b53d df61 083e 01a2 eb3d 4651 eb3d
00000390: e133 be3d ee08 3d3d 9152 0f3d c3b9 073e
000003a0: 5a44 6b3d c705 3c3d b9d3 8dbc bca7 26ba
000003b0: c617 86bc 5028 adbb c6ab a83c 2a8e 933c
000003c0: 10cc d5bc bcb0 efba 65b0 523b f55a 7bbd
000003d0: 4381 2ebd 3075 54bd 3346 13bd d071 82bc
000003e0: 2ae2 fdbc 1d2d 57bd a56e dfbc c1b8 efbc
000003f0: 0eea 3bbc 8798 1dbc 3bb9 9abc a177 b0bb

features.module.8.bias f4 [64]
-0.025814865 0.010361882 0.010912075 0.055431258 0.05150109 -0.04648634 0.027969994 -0.04512951
-0.027526816 0.022217741 -0.038515728 0.04828253 0.02131744 0.0048163873 0.03154072 -0.047967583
0.00928946 0.020982837 -0.025899436 -0.017503833 0.022840327 0.047697693 -0.021959761 0.033998728
0.03156456 -0.032951888 -0.044757593 -0.006635451 0.034941744 -0.046944182 -0.03912676 0.041030828
-0.032291554 -0.04020202 -0.0024010073 0.05510195 0.037140187 0.029049747 0.00720451 -0.028211137
-0.04387241 0.029915169 0.016689986 0.014654017 -0.02081145 -0.054936957 0.007702179 -0.00969672
-0.0042605046 0.005344797 -0.032911852 -0.03507377 -0.01633101 0.021853732 -0.035254415 0.052480184
-0.055412084 -0.034947086 0.016138753 -0.05477023 -0.03125914 0.029056642 -0.038161557 0.018034339
00000000: b279 d3bc e2c4 293c 8fc8 323c e30b 633d
00000010: cff2 523d 7668 3ebd 5421 e53c b9d9 38bd
00000020: eb7f e1bc fb01 b63c abc2 1dbd e7c3 453d
00000030: e9a1 ae3c c9d2 9d3b d830 013d a879 44bd
00000040: d232 183c 33e4 ab3c 0e2b d4bc 3364 8fbc
00000050: a31b bb3c a85e 433d f5e4 b3bc 4042 0b3d
00000060: d749 013d 8ff8 06bd bd53 37bd 336e d9bb
00000070: 131f 0f3d 8b48 40bd 6243 20bd f10f 283d
00000080: 2644 04bd e0aa 24bd 385a 1dbb 95b2 613d
00000090: 4f20 183d bcf9 ed3c cf13 ec3b 0b1b e7bc
000000a0: 8eb3 33bd a810 f53c 70b9 883c 6717 703c
000000b0: c67c aabc 9305 61bd 8f62 fc3b fede 1ebc
000000c0: b49b 8bbb 6823 af3b 94ce 06bd 83a9 0fbd
000000d0: 9cc8 85bc 9906 b33c ef66 10bd 76f5 563d
000000e0: c8f7 62bd ad24 0fbd 6b35 843c c056 60bd
000000f0: 9609 00bd 3208 ee3c 4b4f 1cbd c0bc 933c

features.module.9.weight f4 [64]
6.722254 5.699461 5.186329 4.599981 3.902096 4.808415 4.4806733 7.4375315
4.4129553 5.6235113 3.828007 4.7702055 5.251009 6.24365 5.71813 6.1038804
4.4453626 5.239786 7.4212985 5.786493 4.67918 6.5802464 4.283951 5.813208
6.412122 4.4952416 4.9285283 4.6200695 4.1447544 4.47475 4.035888 6.5042353
5.351218 7.0508423 6.9143577 5.4761505 5.902792 7.0935006 5.4438486 4.7951565
7.4188323 6.060972 4.960625 5.6608953 5.9247026 7.15504 5.5943584 5.3126874
5.328664 5.165114 7.1970544 4.179066 4.795465 5.286189 6.073924 6.769238
5.6677155 5.2893844 5.1669726 6.6355934 5.1051483 4.793243 5.1581764 4.534211
00000000: b41c d740 fc61 b640 68f6 a540 0b33 9340
00000010: f1bb 7940 89de 9940 ad61 8f40 4200 ee40
00000020: ee36 8d40 cef3 b340 11fe 7440 86a5 9840
00000030: 4408 a840 fbcb c740 ecfa b640 fd52 c340
00000040: 6940 8e40 54ac a740 477b ed40 f32a b940
00000050: d8bb 9540 6191 d240 2016 8940 cd05 ba40
00000060: 1a30 cd40 05d9 8f40 81b6 9d40 9cd7 9340
00000070: d4a1 8440 2731 8f40 ff25 8140 b222 d040
00000080: 2e3d ab40 80a0 e140 6b42 dd40 a03c af40
00000090: ace3 bc40 f5fd e240 0234 ae40 ec71 9940
000000a0: 1367 ed40 7cf3 c140 71bd 9e40 0e26 b540
000000b0: 2a97 bd40 16f6 e440 fc04 b340 8901 aa40
000000c0: 6a84 aa40 9d48 a540 454e e640 e9ba 8540
000000d0: 7374 9940 7628 a940 965d c240 999d d840
000000e0: ed5d b540 a342 a940 d757 a540 c856 d440
000000f0: 605d a340 3f62 9940 c80f a540 4218 9140

features.module.9.bias f4 [64]
1.4550099 1.1043063 1.2243007 0.9502342 0.7206216 1.0691346 1.0113786 2.1618092
1.0007921 1.1048021 0.9873381 1.1537952 1.0786963 1.7189782 1.3530741 1.4706829
0.7699508 1.2264903 1.914776 1.2487377 1.0808543 3.6305773 1.0426003 1.0703045
1.3382852 0.89173687 0.80363685 1.0479472 0.968149 1.0001755 0.890293 1.9760687
1.3784531 3.4794447 2.3252435 1.0533215 1.4865421 2.3921309 1.1992565 1.1419562
1.3942847 2.2789538 1.1311915 1.4856108 2.0019677 1.073589 1.1502646 1.8118947
1.2306497 0.9502528 1.7662287 1.031403 1.1923255 1.5334826 1.7459075 1.2761815
1.4017584 1.2805997 1.3822733 1.732458 1.2099142 1.1132554 1.2742567 0.9290756
00000000: c43d ba3f e959 8d3f e3b5 9c3f 8c42 733f
00000010: a87a 383f 67d9 883f db74 813f 155b 0a40
00000020: f519 803f 286a 8d3f 31c2 7c3f 90af 933f
00000030: b812 8a3f 7a07 dc3f 8831 ad3f 563f bc3f
00000040: 7f1b 453f a2fd 9c3f 6117 f53f a3d6 9f3f
00000050: 6f59 8a3f 615b 6840 ed73 853f bdff 883f
00000060: ee4c ab3f de48 643f 25bb 4d3f 2223 863f
00000070: 9dd8 773f c005 803f 3eea 633f d2ef fc3f
00000080: 2771 b03f 39af 5e40 cad0 1440 3dd3 863f
00000090: 0347 be3f ac18 1940 3d81 993f 9f2b 923f
000000a0: ec77 b23f 61da 1140 e2ca 903f 7f28 be3f
000000b0: 3d20 0040 5d6b 893f df3b 933f 2aec e73f
000000c0: ee85 9d3f c443 733f c813 e23f 0305 843f
000000d0: 1f9e 983f 2849 c43f e679 df3f ea59 a33f
000000e0: d26c b33f b1ea a33f 55ee b03f 2fc1 dd3f
000000f0: 78de 9a3f 277f 8e3f d81a a33f e6d7 6d3f

features.module.9.running_mean f4 [64]
-0.009041855 0.025917076 0.028686779 0.065934435 0.08326707 -0.029818298 0.044770423 -0.016437601
-0.02050653 0.033987906 -0.028805107 0.06388646 0.058169242 0.03700826 0.048500735 -0.009653621
0.017698053 0.03323312 0.00017244735 0.023398416 0.035618313 0.1216288 -0.019486707 0.03591726
0.046497412 -0.022532022 -0.0328881 -0.0052511552 0.038203232 -0.046311602 -0.011265979 0.073759824
-0.03193642 0.035061207 0.018928647 0.0938283 0.03733478 0.05640062 0.022714136 -0.021242175
-0.03566787 0.07913525 0.019126207 0.018117571 0.050368104 -0.03635598 0.017582158 0.021202302
0.016309543 0.017498964 -0.014514228 -0.028904196 -0.010844538 0.02151448 -0.032302264 0.07186235
-0.0278487 0.01447171 0.015656788 -0.052989867 -0.026836691 0.040978715 -0.01496143 0.05112126
00000000: 4a24 14bc 0c50 d43c 8900 eb3c a208 873d
00000010: ed87 aa3d 8145 f4bc 3161 373d 26a8 86bc
00000020: 4ffd a7bc e736 0b3d b0f8 ebbc e8d6 823d
00000030: df42 6e3d f995 173d b5a8 463d 392a 1ebc
00000040: 82fb 903c 741f 083d fcd2 3439 09ae bf3c
00000050: 82e4 113d 8518 f93d 96a2 9fbc fa1d 133d
00000060: 1274 3e3d 1395 b8bc acb5 06bd e211 acbb
00000070: fe7a 1c3d 3cb1 3dbd f194 38bc 640f 973d
00000080: c3cf 02bd 579c 0f3d 4010 9b3c 0d29 c03d
00000090: 5bec 183d 5604 673d ff12 ba3c 1204 aebc
000000a0: 7918 12bd a911 a23d 90ae 9c3c 4d6b 943c
000000b0: c94e 4e3d 02ea 14bd 7508 903c 73b0 ad3c
000000c0: 979b 853c fd59 8f3c 16cd 6dbc 7ec8 ecbc
000000d0: 4aad 31bc 223f b03c 614f 04bd 912c 933d
000000e0: f522 e4bc c01a 6d3c aa42 803c e70b 59bd
000000f0: 9fd8 dbbc 4cd9 273d c920 75bc 8764 513d

features.module.9.running_var f4 [64]
0.015676731 0.0074392348 0.017868273 0.006146898 0.010924881 0.0057092207 0.0088384785 0.018258745
0.0073638023 0.006947084 0.008864019 0.005677916 0.014404134 0.024141463 0.013108646 0.019096032
0.0050915936 0.010669915 0.014712178 0.017475734 0.009504567 0.013760841 0.007101437 0.017742554
0.01048511 0.0051611196 0.005554988 0.007795988 0.007800511 0.008870537 0.01019717 0.017153455
0.010320038 0.022914102 0.015725007 0.015959859 0.0149182575 0.016662767 0.0069030435 0.010204986
0.027685922 0.010298651 0.008723972 0.013264275 0.017668782 0.011225563 0.007374809 0.008531655
0.011513318 0.005971664 0.011294257 0.00893275 0.008059252 0.012246766 0.014160144 0.01095312
0.012508492 0.014682781 0.009662806 0.017360581 0.009292235 0.009461988 0.011545719 0.01215804
00000000: 7d6c 803c d3c4 f33b 7c60 923c eb6b c93b
00000010: 46fe 323c 6a14 bb3b 44cf 103c 5d93 953c
00000020: 0d4c f13b 5da4 e33b 643a 113c d00d ba3b
00000030: 51ff 6b3c 51c4 c53c a5c5 563c 486f 9c3c
00000040: 62d7 a63b ded0 2e3c 590b 713c 4529 8f3c
00000050: 0bb9 1b3c 2775 613c 2cb3 e83b d558 913c
00000060: bdc9 2b3c 9c1e a93b 9e06 b63b 7d75 ff3b
00000070: 6e9b ff3b bb55 113c 0812 273c 6785 8c3c
00000080: 6015 293c 5bb6 bb3c bbd1 803c 40be 823c
00000090: b56b 743c 5b80 883c ed32 e23b d032 273c
000000a0: 96cd e23c acbb 283c feee 0e3c 6752 593c
000000b0: 1fbe 903c 6ceb 373c 62a8 f13b 5bc8 0b3c
000000c0: 5ba2 3c3c f3ad c33b 8c0b 393c ab5a 123c
000000d0: f40a 043c a9a6 483c f3ff 673c b774 333c
000000e0: 6bf0 4c3c 0c90 703c bf50 1e3c c737 8e3c
000000f0: 753e 183c 7406 1b3c 412a 3d3c 8432 473c

top_layer.weight f4 [10, 64]
-0.12909552 -0.08724874 -0.06966227 -0.082668066 -0.04178205 -0.06582763 0.04119348 0.5876738
0.012774058 -0.063205704 -0.036057442 -0.063155875 -0.042589866 -0.07043205 -0.1726131 0.004904359
-0.041987427 -0.15691172 -0.16203898 -0.05010149 0.06071289 0.20890626 0.010190018 -0.07884635
-0.11820882 -0.08098515 -0.061544094 0.010118387 -0.01301007 0.3174623 -0.040720895 -0.013809414
0.0025598477 -0.10701177 -0.1191845 -0.036030278 0.38525978 -0.122861244 -0.09451443 0.15855627
-0.113115564 -0.07239918 0.053993758 -0.053683262 -0.045305196 -0.13193618 -0.080264024 0.38208953
-0.07474408 -0.07352357 -0.10718465 -0.022387728 0.19362208 0.29962814 0.46793038 -0.11667428
-0.04209793 -0.064617 -0.012111067 -0.056559358 -0.041475758 -0.1367484 -0.018954642 -0.076292865
0.3186083 -0.032336675 0.0006213294 0.17322904 -0.04627419 -0.028176883 -0.059833743 -0.08175505
-0.054256134 0.061675895 0.2537495 -0.017491018 -0.07694073 -0.10749914 -0.15563886 0.1958315
0.016210102 -0.12921202 0.18307483 -0.049263 -0.03800483 -0.3536557 0.077492006 0.026321301
0.04451649 0.07036666 -0.008845408 -0.046983726 0.3018453 0.05011729 -0.059877828 -0.16394818
-0.026825529 -0.3748149 0.016390843 -0.027172806 0.10152876 0.004493216 -0.016175099 0.10215881
0.0026300736 -0.12679109 -0.066278026 0.40608317 -0.1672798 0.03384408 0.17071134 -0.19259301
-0.15065746 -0.01420218 0.08546451 0.2944817 -0.09434457 0.1187108 0.0083821975 0.020274345
-0.11665274 -0.0707998 0.09754865 0.49463817 -0.00882377 -0.11296023 -0.07047382 -0.03459037
-0.14395781 -0.044416044 -0.027150236 0.27727926 -0.07472249 -0.029543355 -0.07142573 -0.07263663
-0.06354036 0.41819456 -0.08928972 -0.026574688 -0.10050487 -0.04971466 0.013991314 -0.14163098
-0.065528065 -0.014588262 -0.07635553 -0.10429193 -0.03855473 0.039411318 -0.047758717 -0.0611307
-0.07774854 0.3242867 -0.049339764 -0.049105454 0.053130507 -0.06507678 -0.068514556 0.01997162
-0.06420492 0.19580308 -0.048276033 -0.112387896 -0.10036551 -0.016985172 -0.014191181 -0.07972882
-0.08094222 0.3681186 -0.0318211 -0.11345668 -0.051264897 -0.10721613 0.36724088 -0.003751521
0.025018524 -0.03652095 0.51243526 -0.014511824 -0.062882476 -0.061411176 -0.08167509 -0.11102202
0.022333948 -0.09342687 -0.065427795 -0.12745091 -0.047363345 0.010020209 -0.02377959 -0.06740511
-0.076797396 -0.069047526 -0.041904714 -0.09554126 -0.007176037 -0.059863266 -0.15605913 -0.12220199
-0.116592765 -0.096222505 -0.011907384 -0.058994282 0.004405482 -0.06586273 0.21740532 -0.009766879
-0.102041565 0.16026498 -0.11356343 -0.017210854 0.3352841 -0.24788404 -0.1173008 -0.0371152
-0.057729788 -0.0749024 -0.07831518 -0.052775905 -0.01260271 0.031394884 -0.0585356 0.48198482
-0.09904394 0.39446586 -0.12528883 0.013252841 0.054642558 -0.110542126 -0.08977875 0.24277037
-0.028685499 -0.096835524 -0.13788141 -0.012935287 -0.0031190966 -0.06032147 -0.09208563 -0.19141543
0.39454988 -0.051410675 -0.13225828 -0.017832078 -0.21962655 0.14440309 -0.024445891 -0.067750454
0.43341717 -0.04647319 -0.088393144 0.020430354 -0.046840467 0.16069245 0.40120196 -0.04240075
00000000: 9e31 04be 78af b2bd 18ab 8ebd e04d a9bd
00000010: a823 2bbd a3d0 86bd 7fba 283d ca71 163f
00000020: 484a 513c fe71 81bd f8b0 13bd de57 81bd
00000030: b672 2ebd ae3e 90bd 7dc1 30be bfb4 a03b
00000040: 02fb 2bbd 77ad 20be 8ced 25be 3837 4dbd
00000050: 14ae 783d 86eb 553e 09f4 263c 327a a1bd
00000060: 7717 f2bd 8bdb a5bd a915 7cbd 97c7 253c
00000070: 3028 55bc 6b8a a23e f4ca 26bd e140 62bc
00000080: 1ec3 273b fd28 dbbd 0117 f4bd 7c94 13bd
00000090: c540 c53e ad9e fbbd c890 c1bd 935c 223e
000000a0: 22a9 e7bd 0546 94bd 8f28 5d3d fbe2 5bbd
000000b0: f191 39bd 471a 07be 7761 a4bd 3da1 c33e
000000c0: 6d13 99bd 8793 96bd a083 dbbd 7866 b7bc
000000d0: de44 463e dc68 993e 9294 ef3e edf2 eebd
000000e0: e16e 2cbd eb55 84bd 7f6d 46bc c9aa 67bd
000000f0: 7ce2 29bd c607 0cbe c446 9bbc 6f3f 9cbd
00000100: a120 a33e 7673 04bd b6e0 223a f462 313e
00000110: 018a 3dbd 35d3 e6bc 3a14 75bd 316f a7bd
00000120: ae3b 5ebd dd9f 7c3d 74eb 813e 5349 8fbc
00000130: 1a93 9dbd 8228 dcbd cb5f 1fbe 0e88 483e
00000140: 0ccb 843c 2850 04be f877 3b3e 00c8 49bd
00000150: f4aa 1bbd 5c12 b5be 21b4 9e3d c59f d73c
00000160: ec56 363d 651c 903d 55ec 10bc 0272 40bd
00000170: 788b 9a3e ca47 4d3d 7442 75bd 08e2 27be
00000180: 36c1 dbbc bde7 bfbe 1746 863c 8199 debc
00000190: 4fee cf3d d43b 933b a481 84bc a338 d13d
000001a0: 505d 2c3b 86d5 01be c6bc 87bd 22ea cf3e
000001b0: 654b 2bbe 17a0 0a3d f4ce 2e3e 1a37 45be
000001c0: f345 1abe 43b0 68bc 0408 af3d 4ec6 963e
000001d0: ba37 c1bd a61e f33d 7c55 093c 6216 a63c
000001e0: a2e7 eebd 7cff 90bd 96c7 c73d 3741 fd3e
000001f0: 9391 10bc b157 e7bd 9454 90bd a2ae 0dbd
00000200: ad69 13be 99ed 35bd 2c6a debc 8cf7 8d3e
00000210: 1b08 99bd e804 f2bc a747 92bd 83c2 94bd
00000220: 7321 82bd 991d d63e 87dd b6bd 29b3 d9bc
00000230: 7fd5 cdbd 99a1 4bbd d33b 653c b607 11be
00000240: 9433 86bd 9b03 6fbc 4a60 9cbd 0297 d5bd
00000250: 91eb 1dbd c36d 213d a59e 43bd 2f64 7abd
00000260: a03a 9fbd e808 a63e 7e18 4abd cd22 49bd
00000270: 609f 593d fa46 85bd 5c51 8cbd 869b a33c
00000280: de7d 83bd 9a80 483e 17bd 45bd a02b e6bd
00000290: 6f8c cdbd 7d24 8bbc 2182 68bc dd48 a3bd
000002a0: 09c5 a5bd 0b7a bc3e d756 02bd fa5b e8bd
000002b0: 24fb 51bd 2194 dbbd ff06 bc3e 14dc 75bb
000002c0: a6f3 cc3c fe96 15bd f52e 033f 00c3 6dbc
000002d0: 87c8 80bd 498a 7bbd 4545 a7bd 835f e3bd
000002e0: aff5 b63c 9656 bfbd 02ff 85bd 7e82 02be
000002f0: 1100 42bd cd2b 243c 6acd c2bc b10b 8abd
00000300: f447 9dbd ca68 8dbd 47a4 2bbd 23ab c3bd
00000310: f624 ebbb 2f33 75bd f7cd 1fbe 0945 fabd
00000320: 30c8 eebd 4e10 c5bd 3017 43bc fda3 71bd
00000330: dd5b 903b 0ae3 86bd 809f 5e3e 4205 20bc
00000340: 2bfb d0bd 811c 243e f293 e8bd c7fd 8cbc
00000350: 5caa ab3e 50d5 7dbe 673b f0bd 1c06 18bd
00000360: 1276 6cbd 6e66 99bd b663 a0bd 8c2b 58bd
00000370: 997b 4ebc ec97 003d 06c3 6fbd b7c6 f63e
00000380: 8dd7 cabd 6ef7 c93e b74b 00be 7222 593c
00000390: e0d0 5f3d e963 e2bd ecdd b7bd cc98 783e
000003a0: dafd eabc b451 c6bd c930 0dbe 87ee 53bc
000003b0: c269 4cbb a513 77bd 6497 bcbd 6802 44be
000003c0: 7102 ca3e 0094 52bd b76e 07be 9414 92bc
000003d0: c8e5 60be 67de 133e c042 c8bc c0c0 8abd
000003e0: dbe8 dd3e ac5a 3ebd 7707 b5bd 8f5d a73c
000003f0: cadb 3fbd 908c 243e 586a cd3e 69ac 2dbd

top_layer.bias f4 [10]
0.0051497854 -0.018083032 0.005074697 -0.005446304 0.014192358 0.0056239096 0.0061890176 -0.012065953
0.0013837194 -0.0020182445
00000000: 88bf a83b de22 94bc a549 a63b e976 b2bb
00000010: 1087 683c c648 b83b 3ecd ca3b 46b0 45bc
00000020: eb5d b53a 8644 04bb

momentum_buffer f4 [16, 1, 3, 3]
0.043083534 0.04195346 -0.00013775658 0.03675171 0.008609955 -0.023476943 0.027463086 0.031612422
-0.03351985 0.086554594 0.037927225 0.0023255097 0.06177221 0.014127251 -0.009432186 0.04335593
-0.007698816 -0.005631502 0.030670127 0.025277603 0.034263488 0.011855723 0.019419834 0.02561736
0.009653483 0.003214454 0.0052649486 0.011888394 0.013889023 0.04129078 -0.008752371 0.0029677507
0.050928853 -0.015212212 0.009723758 0.047531635 0.027048193 0.034644485 -0.021162063 0.0025078286
0.020843437 0.00031271833 -0.02224148 0.0077678827 0.0073278137 -0.032638825 -0.038717218 0.0026639113
-0.044432033 -0.020561796 0.011744034 -0.019144587 -0.01978225 0.018671568 -0.04555818 -0.08507042
-0.07964867 -0.044931352 -0.08547428 -0.044238567 -0.04960083 -0.07907225 -0.036786243 0.04827959
0.03456296 0.01765927 0.041267566 0.03197656 0.009184321 0.042760123 0.02004618 -0.0091765905
-0.07651867 -0.045593627 0.00041596335 -0.07796554 -0.034592494 0.003803282 -0.03769113 -0.001643653
0.0036952998 0.037562896 0.06673734 0.058650244 0.04231196 0.052145515 0.017380325 0.058137275
0.04455029 0.015847785 0.022658143 0.0039121206 0.0074046915 0.034558017 0.029634502 0.03297761
-0.00096854474 0.020763703 0.018163353 0.038511686 0.032546327 0.075824685 -0.011156166 -0.006611014
0.07394206 -0.007907747 -0.0039606355 0.07628876 0.05150541 0.035463333 -0.02646424 0.046775743
-0.0116896015 -0.03967571 0.0251502 -0.037966087 -0.033091437 -0.054601107 -0.059456214 -0.018118741
-0.019950178 -0.06392246 -0.040416736 -0.008112472 -0.05006046 -0.07649647 -0.061158188 -0.09914772
-0.042561337 -0.06609166 -0.09633579 -0.03640023 -0.05323896 -0.093990125 -0.04886014 0.066762805
0.0014919853 -0.008865071 0.059496444 -0.014560865 -0.024773441 0.04156116 -0.0156108085 -0.040986083
00000000: 5c78 303d 64d7 2b3d c072 10b9 f688 163d
00000010: c510 0d3c b852 c0bc 44fa e03c 077c 013d
00000020: 1c4c 09bd 8943 b13d 9459 1b3d 9467 183b
00000030: db04 7d3d fc75 673c 7589 1abc fd95 313d
00000040: 5946 fcbb 7688 b8bb eb3f fb3c fa12 cf3c
00000050: df57 0c3d 823e 423c 5816 9f3c 7fdb d13c
00000060: a429 1e3c 97a9 523b 9785 ac3b 8ac7 423c
00000070: c98e 633c 8520 293d 1b66 0fbc 987e 423b
00000080: c69a 503d a43c 79bc 6650 1f3c 88b0 423d
00000090: 2c94 dd3c 60e7 0d3d 105c adbc 625a 243b
000000a0: dbbf aa3c 58f4 a339 c433 b6bc b989 fe3b
000000b0: 281e f03b 4ab0 05bd f295 1ebd 0495 2e3b
000000c0: 5dfe 35bd 3671 a8bc 0c6a 403c 1cd5 9cbc
000000d0: 630e a2bc 1ef5 983c 379b 3abd 6639 aebd
000000e0: d81e a3bd f009 38bd 240d afbd 8033 35bd
000000f0: 3d2a 4bbd a2f0 a1bd 2cad 16bd d2c0 453d
00000100: e491 0d3d 2caa 903c 2e08 293d daf9 023d
00000110: d679 163c 3d25 2f3d e337 a43c 6959 16bc
00000120: d2b5 9cbd 62c0 3abd a815 da39 66ac 9fbd
00000130: dcb0 0dbd 7c40 793b 0462 1abd d86f d7ba
00000140: d82c 723b 8ddb 193d 96ad 883d 3d3b 703d
00000150: 4e4f 2d3d 8996 553d 2f61 8e3c 5a21 6e3d
00000160: 5d7a 363d 37d3 813c 929d b93c 3f31 803b
00000170: 0ea3 f23b b58c 0d3d 0ec4 f23c 8813 073d
00000180: f0e5 7dba a418 aa3c 50cb 943c 6ebe 1d3d
00000190: 4c4f 053d f949 9b3d 5ac8 36bc 34a1 d8bb
000001a0: ef6e 973d 7f8f 01bc 38c8 81bb 483d 9c3d
000001b0: 56f7 523d 0042 113d 89cb d8bc ec97 3f3d
000001c0: be85 3fbc ff82 22bd cb07 ce3c 5482 1bbd
000001d0: e38a 07bd 69a5 5fbd 5c88 73bd c16d 94bc
000001e0: 8e6e a3bc c7e9 82bd 058c 25bd 2cea 04bc
000001f0: 320c 4dbd 2eaa 9cbd 0281 7abd f60d cbbd
00000200: cc54 2ebd 105b 87bd b34b c5bd 6818 15bd
00000210: 1911 5abd e57d c0bd 9221 48bd f0ba 883d
00000220: b88e c33a ce3e 11bc 8bb2 733d b290 6ebc
00000230: acf1 cabc 093c 2a3d 7ac4 7fbc 06e1 27bd

momentum_buffer f4 [16]
-5.5003957e-06 6.6771786e-06 1.6445325e-05 2.5710995e-05 2.9018336e-05 -2.5235806e-05 7.9783595e-06 -1.3695975e-05
-3.4871161e-06 -2.379796e-05 2.8982837e-05 -2.337931e-05 1.702212e-05 1.1203677e-05 1.0359795e-05 -1.7221486e-05
00000000: 0a90 b8b6 870c e036 11f4 8937 f1ad d737
00000010: 676c f337 7bb1 d3b7 cbda 0537 c4c7 65b7
00000020: 3304 6ab6 bba1 c7b7 2b20 f337 b01e c4b7
00000030: b9ca 8e37 6df7 3b37 fbce 2d37 dc76 90b7

momentum_buffer f4 [16]
0.14099565 -0.06622582 -0.030661328 -0.055498093 0.1246949 0.021825092 -0.08427843 0.12532508
-0.009266353 0.05094187 0.20339449 -0.013924031 0.048420534 0.002081524 -0.08782042 -0.038927283
00000000: 2a61 103e 67a1 87bd 772d fbbc f851 63bd
00000010: 0a60 ff3d 89ca b23c 2b9a acbd 3855 003e
00000020: e7d1 17bc 6ca8 503d a546 503e 9e21 64bc
00000030: 9c54 463d 2e6a 083b 31db b3bd 3772 1fbd

momentum_buffer f4 [16]
0.049812105 -0.0058156988 -0.068704434 -0.1356413 0.07042249 0.017461266 -0.08205081 0.075087056
-0.049729306 0.034543116 0.080890924 -0.045139693 0.011292003 0.01753429 -0.122688636 -0.035442527
00000000: c707 4c3d 9e91 bebb e9b4 8cbd 8ee5 0abe
00000010: ab39 903d ee0a 8f3c 410a a8bd 3ec7 993d
00000020: f5b0 4bbd 157d 0d3d 24aa a53d 66e4 38bd
00000030: 1802 393c 12a4 8f3c 2e44 fbbd 2f2c 11bd

momentum_buffer f4 [32, 16, 3, 3]
0.0067327144 0.005572455 -0.0028374486 0.0060341824 0.009915337 0.0010899561 0.017115697 0.003453029
-0.0009706998 0.0017275354 0.002414934 -0.0037163973 0.00023391249 0.005793526 0.0011376418 -0.0008367048
-0.004147231 -0.003746314 -0.002457906 0.0045905793 0.0023930897 -0.006306403 0.009102536 -0.00078851514
-0.0025354892 0.0049250745 0.0021270928 -9.343552e-05 0.0045740297 0.0064088125 0.002632165 0.0065561137
0.006586704 0.0042897286 -0.00074286567 -0.0072163707 0.0051556835 -0.0109500475 -0.010334989 0.0024898709
-0.0056723864 -0.00011511706 -0.0077951895 -0.008160238 0.004880484 -0.0023517432 0.009002268 0.0066177505
-0.0028034258 0.0057904245 0.0024366784 -0.0013519628 0.002389768 0.005893575 -0.0003542771 0.0032442305
0.007266106 0.0023537008 0.003195792 0.0021387718 0.0038974495 0.0031284664 0.005552315 0.010083302
0.014766441 0.00810408 0.0055994773 0.010241848 0.016769145 0.00056639203 0.012477872 0.008906664
0.0064520296 0.0038692062 -0.0025645439 -0.0010712915 0.0064078784 -0.0020814454 -0.0071153007 0.0036147912
-0.0022776714 -0.0016970288 0.0064900713 0.0016942825 0.0045375274 0.0061216983 0.00967757 0.00024889456
-0.004477875 0.0030682678 0.008828072 0.011948032 -8.697319e-05 0.00871703 0.015455908 0.0023061857
0.011349656 0.009576961 -0.00016491537 0.0013087364 0.0029115686 0.0012448677 0.0067788735 -0.001295076
-0.0040477896 0.0044998904 0.0036451635 0.0009514219 0.00054205104 -0.00041514199 -0.0033024799 0.016008057
0.0036156257 -0.0040753605 0.021468885 0.010534499 0.0012253624 0.00095522427 -0.00030625804 -0.0027456528
0.0020434465 -0.00056499155 -0.004452263 -0.0032578998 -0.0018587672 -0.0009243402 -0.0016479047 -0.0009905518
-0.0010550376 -0.001732754 0.00076412346 -0.0005695402 -0.0033116045 -0.0016401378 0.0004620572 0.005572978
0.01091506 0.0030971644 0.0027807252 0.0075068297 -7.252541e-05 -0.0055233845 0.0017823891 -0.00037461217
-0.0028932863 0.008238388 -0.0019875153 0.0008283239 0.006905467 -0.0002624269 0.006021751 0.00016187543
-0.0012683286 -0.023564223 -0.023439065 -0.015164236 -0.041263 -0.023397189 -0.0014158268 -0.033653572
-0.011209862 0.0050178287 -0.025744537 0.0045799213 -0.00046072685 -0.01592601 0.0017259232 -0.0006207205
-0.008627618 0.002440053 0.004993077 -0.006052508 -5.5266253e-05 0.003288481 0.0031263593 0.0015397682
0.0039361045 -0.00012656406 0.003257413 0.00250153 0.02089524 -0.010784794 0.0041507166 0.0071776574
-0.0050878352 -0.0017744276 0.008074176 -0.0014899122 -0.0010978627 0.010313968 -0.0100717135 -0.008234827
-0.01299433 -0.0023833169 -0.013936566 -0.006444715 -0.008091016 -0.011208534 0.016352518 0.03175867
0.010804846 -0.002911371 0.0009819691 -0.0033577525 -0.007572315 -0.0074300403 -0.0060916217 -0.00079543714
-0.0043669026 -0.007232171 0.0013275889 -0.0015593199 -0.005006972 0.0007116365 -0.0026442988 -0.0039572595
0.012039622 0.017359085 -0.0021482583 0.018039076 0.022312872 0.003431486 0.028168624 0.027307875
-0.0049343416 0.0011324855 -0.004375035 -0.0018250002 -0.0047065015 -0.009113878 -0.001190025 -0.0003531035
0.005405791 0.0050706426 0.0044115325 -7.318135e-05 -0.030220281 0.018463613 0.004210161 -0.020662434
0.015528388 -0.0013025808 -0.028903645 0.019589458 0.010168766 0.0037060701 0.007720032 0.0076342467
0.012808486 0.006385342 0.012085836 0.012517918 -0.004546538 0.007192731 0.007267054 -0.0020738556
00000000: 1a9e dc3b 2499 b63b 7df4 39bb 64ba c53b
00000010: f073 223c dcdc 8e3a 3836 8c3c 374c 623b
00000020: 9076 7eba 786e e23a df43 1e3b cd8e 73bb
00000030: 6846 7539 9ed7 bd3b ed1c 953a 4f56 5bba
00000040: 7fe5 87bb b884 75bb d214 21bb 926c 963b
00000050: 62d5 1c3b f1a5 cebb ce22 153c 5bb4 4eba
00000060: 732a 26bb 8562 a13b b266 0b3b d0f2 c3b8
00000070: bee1 953b 0401 d23b 6780 2c3b abd4 d63b
00000080: 47d5 d73b da90 8c3b dfbc 42ba 4e77 ecbb
00000090: 02f1 a83b d467 33bc 1654 29bc 1a2d 233b
000000a0: 6ddf b9bb 006b f1b8 ca6e ffbb 85b2 05bc
000000b0: 78ec 9f3b b41f 1abb 407e 133c b7d9 d83b
000000c0: aeb9 37bb 9abd bd3b aeb0 1f3b 5834 b1ba
000000d0: a79d 1c3b e41e c13b 44be b9b9 289d 543b
000000e0: 8418 ee3b 8c40 1a3b 7e70 513b a32a 0c3b
000000f0: 5a6c 7f3b f506 4d3b 32f0 b53b 6f34 253c
00000100: f1ee 713c fac6 043c d27b b73b 6dcd 273c
00000110: 725f 893c ed79 143a fd6f 4c3c 42ed 113c
00000120: 8c6b d33b 8292 7d3b e811 28bb 946a 8cba
00000130: 2ef9 d13b dc68 08bb 7827 e9bb 22e6 6c3b
00000140: fc44 15bb d66e deba aaaa d43b b012 de3a
00000150: 8aaf 943b 8798 c83b ac8e 1e3c 107e 8239
00000160: 23bb 92bb fe14 493b 9ea3 103c aec1 433c
00000170: 6065 b6b8 e0d1 0e3c c73a 7d3c 6023 173b
00000180: e8f3 393c b0e8 1c3c 22ed 2cb9 e889 ab3a
00000190: 04d0 3e3b d42a a33a 5021 de3b 8abf a9ba
000001a0: 52a3 84bb d173 933b b2e3 6e3b d868 793a
000001b0: 6e18 0e3a 6aa7 d9b9 6b6e 58bb 5423 833c
000001c0: 22f4 6c3b 9a8a 85bb 84df af3c e498 2c3c
000001d0: 579c a03a 0468 7a3a 4291 a0b9 69f0 33bb
000001e0: 58eb 053b f11b 14ba 4ae4 91bb 7d82 55bb
000001f0: e1a1 f3ba 6c4f 72ba 82fe d7ba 67d5 81ba
00000200: 3049 8aba 941d e3ba 754f 483a 324d 15ba
00000210: 8107 59bb e4f9 d6ba 4540 f239 879d b63b
00000220: 14d5 323c ccf9 4a3b d43c 363b dafb f53b
00000230: c818 98b8 82fd b4bb 0e9f e93a 9867 c4b9
00000240: 4a9d 3dbb 4efa 063c f940 02bb e023 593a
00000250: 4147 e23b 5896 89b9 1c52 c53b 1bbd 2939
00000260: 0c3e a6ba c209 c1bc 4803 c0bc 6a73 78bc
00000270: 6403 29bd 76ab bfbc 4493 b9ba 54d8 09bd
00000280: 92a9 37bc 996c a43b 35e6 d2bc 2a13 963b
00000290: b68d f1b9 4477 82bc 5f38 e23a d9b7 22ba
000002a0: da5a 0dbc 4ce9 1f3b f79c a33b 1e54 c6bb
000002b0: b0cd 67b8 8e83 573b 9be3 4c3b 0cd2 c93a
000002c0: 70fa 803b 48b6 04b9 527a 553b b6f0 233b
000002d0: 7f2c ab3c b4b2 30bc bc02 883b 8e32 eb3b
000002e0: dbb7 a6bb e993 e8ba 8c49 043c 2849 c3ba
000002f0: 29e6 8fba ebfb 283c d403 25bc 5eeb 06bc
00000300: 2ce6 54bc 6c31 1cbb 3256 64bc 302e d3bb
00000310: 2e90 04bc 00a4 37bc b7f5 853c 6115 023d
00000320: cf06 313c b3cc 3ebb 6ab5 803a bd0d 5cbb
00000330: 2f21 f8bb b277 f3bb 3a9c c7bb e284 50ba
00000340: 3c18 8fbb d9fb ecbb 7e02 ae3a 1862 ccba
00000350: 8611 a4bb 1e8d 3a3a f94b 2dbb e6ab 81bb
00000360: d641 453c a434 8e3c cbc9 0cbb afc6 933c
00000370: 7cc9 b63c c8e2 603b e3c1 e63c c4b4 df3c
00000380: 42b0 a1bb e86f 943a 745c 8fbb d834 efba
00000390: ff38 9abb 6052 15bc 9dfa 9bba c020 b9b9
000003a0: 1023 b13b a227 a63b 9e8e 903b f078 99b8
000003b0: 8690 f7bc 0141 973c 64f5 893b 4444 a9bc
000003c0: c86a 7e3c 5cbb aaba 56c7 ecbc 127a a03c
000003d0: e59a 263c 8ae1 723b 52f8 fc3b b428 fa3b
000003e0: afda 513c 223c d13b ac03 463c f417 4d3c
000003f0: 20fb 94bb 00b1 eb3b 7820 ee3b 86e9 07bb

momentum_buffer f4 [32]
2.0710734e-06 3.982369e-06 -7.291722e-06 -5.5474147e-06 -7.662797e-06 3.7258694e-06 5.9740073e-06 -7.665725e-06
2.07495e-06 1.6098029e-06 -4.2689726e-06 1.7211717e-06 6.1423275e-06 7.81439e-06 3.4447535e-06 -1.5851558e-06
-4.530617e-06 -3.042652e-06 6.4438225e-08 -5.8702875e-07 5.811399e-06 -7.189188e-06 7.234672e-07 -2.5415477e-06
6.54303e-07 7.652244e-06 2.3366349e-07 -1.3861011e-06 -2.7021865e-06 -7.972873e-06 -7.2114703e-06 3.468212e-06
00000000: c5fc 0a36 4aa0 8536 6aab f4b6 ee23 bab6
00000010: 768f 00b7 f309 7a36 5574 c836 0a9c 00b7
00000020: 5f3f 0b36 6810 d835 323e 8fb6 0203 e735
00000030: 311a ce36 8d1a 0337 6a2c 6736 8ac1 d4b5
00000040: b405 98b6 5d30 4cb6 4a61 8a33 4f94 1db5
00000050: 8aff c236 a83a f1b6 4a34 4235 758f 2ab6
00000060: 5ca3 2f35 2362 0037 eee4 7a34 120a bab5
00000070: 3657 35b6 3bc3 05b7 0ffa f1b6 6ebf 6836

momentum_buffer f4 [32]
0.033427045 -0.03636737 -0.03702486 0.020882757 0.0034852317 -0.07401903 0.04888082 -0.00349316
-0.053251255 -0.02629564 -0.009657486 0.028570686 0.05868064 0.02839933 -0.012518097 0.044376466
0.031730123 -0.104198344 0.04222294 -0.021882996 -0.022496335 0.015358439 -0.025861723 0.10910082
-0.056628313 0.06787893 0.06070084 0.006925825 -0.11415574 -0.022033665 -0.06473704 0.050854508
00000000: ccea 083d f4f5 14bd 61a7 17bd 5112 ab3c
00000010: 7c68 643b 4a97 97bd 4137 483d 80ed 64bb
00000020: fd1d 5abd f469 d7bc 6f3a 1ebc 120d ea3c
00000030: 1c5b 703d b6a5 e83c b418 4dbc 19c4 353d
00000040: 72f7 013d f165 d5bd f6f1 2c3d f843 b3bc
00000050: 3c4a b8bc f6a1 7b3c f7db d3bc 4070 df3d
00000060: 17f3 67bd 1c04 8b3d 72a1 783d 08f2 e23b
00000070: 7cca e9bd f27f b4bc da94 84bd d14c 503d

momentum_buffer f4 [32]
0.011083143 -0.03792218 -0.055277914 0.015997853 -0.0014019962 -0.077488795 0.042902287 0.002188326
-0.056763336 -0.02396226 0.008011954 0.028138282 0.03146724 0.013112126 -0.00451757 0.015356012
0.040048454 -0.09504954 0.03380377 -0.008625971 -0.015136309 0.026731227 -0.020553838 0.061086394
-0.0380535 0.04425992 0.037918013 0.005420645 -0.05310709 -0.006783654 -0.053061232 0.055422597
00000000: 1296 353c 4a54 1bbd 186b 62bd ee0d 833c
00000010: 30c3 b7ba 72b2 9ebd 4fba 2f3d 056a 0f3b
00000020: ac80 68bd 804c c4bc 9244 033c 4182 e63c
00000030: cbe3 003d 3ed4 563c 2008 94bb c897 7b3c
00000040: d909 243d 55a9 c2bd d275 0a3d f253 0dbc
00000050: 48fe 77bc 72fb da3c 8660 a8bc ba35 7a3d
00000060: fddd 1bbd e449 353d eb4f 1b3d aa9f b13b
00000070: d286 59bd 6a49 debb bc56 59bd ce02 633d
