deepcluster_implementation/experiments/run_label_fraction_variation/config_1/checkpoints/checkpoint_epoch_3.pth.tar (torch, 203702 bytes, 32 tensors)

features.module.0.weight f4 [16, 1, 3, 3]
0.8457397 0.0119507555 0.054485217 -0.07512344 -0.17626163 -0.13701688 0.004027698 -0.15201737
0.9785351 -0.5162107 -0.103011414 0.7600274 -0.1291517 0.36784184 -0.1964067 0.7243667
-0.03632012 -0.5267377 -0.9272793 0.3339418 0.3728181 -0.4179649 0.36512625 0.32365504
-0.7157114 -0.22743678 -0.37307602 -0.63167745 -0.40705544 -0.73811525 -0.4209127 0.22439513
-0.008478182 -0.299268 0.18546218 0.575856 0.4179423 0.11879578 0.5036799 -0.26378515
-0.14927109 -0.18933785 0.73252773 -0.020714784 0.6583806 -1.260544 0.78132296 0.21914107
0.23909518 0.21623717 -1.2267488 0.4981607 -0.63600373 0.209003 0.54394954 0.52886707
0.38433802 -0.43898275 0.32285103 -0.3189191 -0.6944925 -0.29356456 -0.7890365 0.061215267
-0.9939004 -0.6123814 0.33984214 0.08728667 -0.43529254 0.45009252 0.70996016 0.7157751
0.066220984 -0.7824485 -0.65801066 -0.09993992 -0.031515088 -0.09013939 1.0831766 0.3934694
-0.92872345 -0.5464224 -0.5323457 -0.11888221 1.0564666 0.8366098 0.6121967 -0.4276686
-0.6784541 -0.39394313 0.78991556 -0.45520166 -0.039847367 0.16329886 -0.24030916 -0.42931598
0.6056447 0.29904482 -0.37656125 -0.6867646 0.04271632 0.6737521 -0.22045495 -0.24715486
0.07720921 -0.30651814 -0.44484532 -0.4948959 0.37339547 -0.09968755 0.7705087 0.0026940699
-0.22658184 -0.057136662 -0.6547776 -0.12852857 0.6178739 -0.33631814 0.21453199 -0.3304389
0.0008867963 0.115793906 0.06814477 -0.3281 0.094201446 -0.29901063 -0.43314746 -0.1812396
-0.682891 -0.47957113 2.0477564 -0.30463982 -0.865523 0.23682562 -0.9029005 -0.7681423
-0.50122064 -0.70787346 0.17284629 0.24774848 -0.56756335 0.3867785 0.28119162 -0.20698959
00000000: 6682 583f 1acd 433c e42b 5f3d 51da 99bd
00000010: ee7d 34be 274e 0cbe c8fa 833b 71aa 1bbe
00000020: 4781 7a3f 6226 04bf a6f7 d2bd 2891 423f
00000030: 5840 04be c455 bc3e d71e 49be 1970 393f
00000040: 68c4 14bd 48d8 06bf 2d62 6dbf 6bfa aa3e
00000050: 04e2 be3e 7fff d5be d4f1 ba3e 1db6 a53e
00000060: dd38 37bf 30e5 68be d203 bfbe 9db5 21bf
00000070: 9269 d0be 1ff5 3cbf df81 d7be d6c7 653e
00000080: 13e8 0abc a839 99be cce9 3d3e 4c6b 133f
00000090: 88fc d53e 344b f33d 2af1 003f d90e 87be
000000a0: 85da 18be c8e1 41be f086 3b3f 0db2 a9bc
000000b0: a28b 283f 8159 a1bf c804 483f 8466 603e
000000c0: 5ed5 743e 476d 5d3e 1b06 9dbf eb0e ff3e
000000d0: 24d1 22bf e204 563e 4740 0b3f d563 073f
000000e0: f4c7 c43e 59c2 e0be bb4c a53e 5d49 a3be
000000f0: 43ca 31bf 184e 96be 4cfe 49bf dcbc 7a3d
00000100: 4270 7ebf 07c5 1cbf caff ad3e 5bc3 b23d
00000110: aade debe 8772 e63e f3bf 353f 093d 373f
00000120: de9e 873d 8b4e 48bf 6373 28bf 4dad ccbd
00000130: f715 01bd 009b b8bd 88a5 8a3f d274 c93e
00000140: d2c0 6dbf 57e2 0bbf cf47 08bf 8478 f3bd
00000150: 4c3a 873f 0f2c 563f ecb8 1c3f 61f7 dabe
00000160: 2baf 2dbf eab2 c9be e837 4a3f 3110 e9be
00000170: fe36 23bd d137 273e 9b13 76be 4ecf dbbe
00000180: 880b 1b3f 671c 993e a3cc c0be cecf 2fbf
00000190: 4ff7 2e3d 057b 2c3f f1be 61be 2a16 7dbe
000001a0: dd1f 9e3d f2ef 9cbe c4c2 e3be ff62 fdbe
000001b0: b12d bf3e fc28 ccbd 0f40 453f fe8e 303b
000001c0: 1205 68be 2208 6abd 819f 27bf fe9c 03be
000001d0: fc2c 1e3f e431 acbe 46ae 5b3e 4a2f a9be
000001e0: e477 683a 5b25 ed3d 7c8f 8b3d b9fc a7be
000001f0: b0ec c03d ec17 99be 81c5 ddbe e096 39be
00000200: f2d1 2ebf 598a f5be 710e 0340 c0f9 9bbe
00000210: ea92 5dbf 6a82 723e 7d24 67bf f9a4 44bf
00000220: ff4f 00bf 3237 35bf 9efe 303e c7b1 7d3e
00000230: d54b 11bf d507 c63e 59f8 8f3e 14f5 53be

features.module.0.bias f4 [16]
-0.056755897 0.068652764 0.16968751 0.26534152 0.29941764 -0.26062617 0.08271917 -0.14137177
-0.0360186 -0.24601817 0.29938573 -0.24123931 0.17566986 0.11551527 0.106809326 -0.17770576
00000000: df78 68bd d299 8c3d 90c2 2d3e d8da 873e
00000010: 454d 993e cb70 85be ab68 a93d c3c3 10be
00000020: 3d88 13bd 30ec 7bbe 1649 993e 7007 77be
00000030: cde2 333e 4593 ec3d d9be da3d 80f8 35be

features.module.1.weight f4 [16]
0.8018828 0.6512417 1.0031596 1.4336897 0.71067667 1.0104527 0.7659333 0.71126866
1.0914958 0.6072691 0.51328987 1.4469261 0.61280876 1.2759818 1.411805 1.4980503
00000000: 3148 4d3f c7b7 263f 8967 803f 2583 b73f
00000010: e8ee 353f 8456 813f 3414 443f b415 363f
00000020: 22b6 8b3f fd75 1b3f f766 033f e034 b93f
00000030: 09e1 1c3f 5f53 a33f 07b6 b43f 1dc0 bf3f

features.module.1.bias f4 [16]
-1.4661125 -1.2013592 -0.23749685 -0.4601219 -1.072162 -0.4335873 -0.24980421 -0.54810387
-0.4543151 -0.5090071 -0.6309677 -0.4836836 -0.7867808 -0.3017418 -0.5484241 -0.35955086
00000000: 93a9 bbbf 23c6 99bf 6032 73be 1995 ebbe
00000010: 9b3c 89bf 28ff ddbe adcc 7fbe 8950 0cbf
00000020: fd9b e8be 4a4e 02bf 1987 21bf 60a5 f7be
00000030: 776a 49bf e77d 9abe 8665 0cbf 0d17 b8be

features.module.1.running_mean f4 [16]
-0.0045961696 0.07454187 0.12105724 0.22129998 0.36400086 -0.2831188 0.05781744 -0.12722044
-0.058245283 -0.28232414 0.32358932 -0.27538407 0.20294817 0.08182946 0.011013672 -0.22489482
00000000: 779b 96bb 68a9 983d dcec f73d 769c 623e
00000010: 525e ba3e f3f4 90be fbd1 6c3d 1346 02be
00000020: 9b92 6ebd ca8c 90be 80ad a53e 24ff 8cbe
00000030: a5d1 4f3e 3496 a73d b072 343c d44a 66be

features.module.1.running_var f4 [16]
1.1593915 0.5919137 1.9102924 2.7717702 1.7421772 1.017049 2.123691 2.22232
2.3921332 0.6689415 1.0742526 2.2555575 0.8131129 0.37644798 1.5691786 2.535884
00000000: f166 943f a887 173f 7684 f43f af64 3140
00000010: aaff de3f a92e 823f 8eea 0740 7e3a 0e40
00000020: b618 1940 c03f 2b3f 1c81 893f 0e5b 1040
00000030: 2b28 503f cabd c03e d8da c83f ec4b 2240

features.module.4.weight f4 [32, 16, 3, 3]
-0.050188947 -0.08075113 -0.030246904 -0.058649667 -0.0061187376 0.050248384 -0.063220814 0.1452728
0.33731127 -0.264304 -0.04187418 0.34075162 -0.22518207 -0.13351403 0.13115391 -0.10991796
0.15298185 0.4428846 0.2718064 0.03142374 0.10242907 0.10077234 -0.06199541 -0.010814414
0.0844393 -0.07545638 0.014065873 -0.47139892 -0.24237496 -0.010765598 -0.38466763 -0.18047915
-0.043819133 -0.15528426 0.015388246 0.24274595 0.07234696 -0.011859542 -0.018841002 -0.07677753
0.04405054 0.07651853 -0.04641117 0.026718741 0.20295128 -0.18062036 -0.020453325 0.04380183
-0.07714137 -0.02768208 0.058144037 0.00051787484 -0.0017786995 -0.07120916 -0.12818114 -0.04706332
-0.018735696 -0.099685214 -0.10761758 -0.1553271 -0.035947964 -0.096964054 -0.13409793 -0.15376288
0.20814723 -0.017634744 -0.1095282 0.069438614 0.02997345 0.0016860553 0.042990748 0.2730542
0.1344655 -0.0040169526 -0.14767767 0.23243102 0.026133124 -0.052828286 0.05910398 -0.10726136
-0.16422871 -0.34874266 -0.22712414 0.01948554 -0.27878815 -0.22026561 -0.015638862 -0.27790433
-0.14927517 -0.051868636 0.29865566 0.17092624 -0.013950541 -0.010181415 0.07691292 0.03751783
-0.037695754 0.11712802 -0.098338485 0.06628669 0.029294183 0.10173285 0.12970738 0.0334304
-0.015955726 0.111239284 0.22525571 -0.18749525 -0.04288391 -0.18657535 0.077180274 -0.038776033
-0.0043650656 0.08731136 0.04885226 -0.061231054 0.03493468 -0.23872572 -0.10182144 -0.3028317
-0.18494749 -0.083398834 -0.1420482 -0.15367195 -0.13973142 -0.33166194 -0.18775067 -0.1243335
-0.21128595 -0.08631938 -0.032122444 -0.1678333 -0.11458958 -0.084436305 -0.35348386 -0.29143998
-0.10175966 -0.31656808 -0.037291273 0.074002646 -0.09953115 -0.01673491 -0.0733602 -0.2359924
-0.12176516 -0.084066704 -0.20979725 -0.014986843 0.016506363 -0.17722265 -0.041476425 -0.118499644
-0.34144628 0.049986333 0.031315897 0.05364459 -0.023402257 0.012621001 -0.005397323 -0.018515723
0.08320168 -0.04270629 0.113683484 0.053622045 -0.024063207 0.041655358 -0.14240173 -0.11112106
0.050028607 -0.06563132 -0.04312995 -0.208478 -0.08506527 -0.04343169 0.021352362 0.053193513
0.009761868 0.028765727 -0.010468594 -0.27274337 0.033954177 0.059256487 -0.07216297 0.03524132
0.106039666 -0.18308969 0.09378752 0.0964744 -0.25499642 -0.048409715 -0.015969137 0.0465226
-0.013514989 -0.023633398 0.04688714 0.0017634097 -0.0006386009 0.11418531 -0.004203911 0.018728845
-0.09079613 -0.1616189 -0.07404375 -0.12278627 -0.031208206 0.022509675 -0.062751636 -0.32170713
-0.26989686 -0.39089006 -0.2109001 -0.09064674 -0.23092437 -0.33298028 -0.34167525 -0.47276428
-0.036095332 -0.06439125 -0.046719726 0.04234556 0.024184387 0.083170444 -0.03853811 -0.089436114
-0.039034676 -0.10815888 -0.22759092 -0.29718354 -0.0774217 -0.06715262 -0.13849506 -0.050670244
-0.026820939 -0.07228325 0.109479174 0.03831131 0.047986154 0.075373486 0.06660348 0.030388853
0.044004023 0.029781353 -0.0030524423 -0.02031576 0.04399192 0.024035774 -0.15788575 -0.06165167
-0.058378775 0.124001145 -0.062165845 -0.028065924 0.0333993 -0.027677884 -0.14590548 0.006601706
00000000: ed92 4dbd d960 a5bd 5bc8 f7bc a23a 70bd
00000010: b17f c8bb 40d1 4d3d ea79 81bd 65c2 143e
00000020: 10b4 ac3e db52 87be 4384 2bbd ff76 ae3e
00000030: 2196 66be e7b7 08be 364d 063e ab1c e1bd
00000040: 46a7 1c3e c5c1 e23e 352a 8b3e 2eb6 003d
00000050: 55c6 d13d bb61 ce3d e6ee 7dbd f12e 31bc
00000060: 83ee ac3d e088 9abd 8c74 663c 335b f1be
00000070: 2431 78be 3162 30bc 28f3 c4be 87cf 38be
00000080: b17b 33bd d602 1fbe fb1e 7c3c 6592 783e
00000090: a52a 943d 864e 42bc 7258 9abc 8a3d 9dbd
000000a0: 576e 343d bfb5 9c3d a419 3ebd 43e1 da3c
000000b0: 76d2 4f3e 8bf4 38be bb8d a7bc 8c69 333d
000000c0: 4bfc 9dbd 88c5 e2bc 7128 6e3d fec1 073a
000000d0: 4023 e9ba 1cd6 91bd eb41 03be 78c5 40bd
000000e0: 9a7b 99bc c327 ccbd 9b66 dcbd 110e 1fbe
000000f0: 2c3e 13bd 1795 c6bd f850 09be 0474 1dbe
00000100: 8c24 553e bd76 90bc 5250 e0bd d535 8e3d
00000110: e18a f53c a1fe dc3a 1117 303d c3cd 8b3e
00000120: 53b1 093e a4a0 83bb d138 17be 6602 6e3e
00000130: 2215 d63c 7962 58bd 0417 723d d8ab dbbd
00000140: 922b 28be 668e b2be 3b93 68be 24a0 9f3c
00000150: 52bd 8ebe 4f8d 61be 121d 80bc 7a49 8ebe
00000160: 97db 18be 3574 54bd 65e9 983e 4a07 2f3e
00000170: cf90 64bc f3cf 26bc 8584 9d3d 4cac 193d
00000180: dd66 1abd d1e0 ef3d b065 c9bd 51c1 873d
00000190: 5bfa ef3c 5059 d03d 03d2 043e 51ee 083d
000001a0: 95b5 82bc 6cd1 e33d 6fa9 663e c1fe 3fbe
000001b0: 0aa7 2fbd 9c0d 3fbe b110 9e3d 9ed3 1ebd
000001c0: d308 8fbb 4cd0 b23d 4f19 483d 6acd 7abd
000001d0: ab17 0f3d 8474 74be c287 d0bd c20c 9bbe
000001e0: e062 3dbe 02cd aabd 1575 11be 2e5c 1dbe
000001f0: c115 0fbe 98cf a9be b641 40be 90a2 febd
00000200: 585b 58be 37c8 b0bd d392 03bd 7edc 2bbe
00000210: f1ad eabd f1ec acbd d6fb b4be 9f37 95be
00000220: 5e67 d0bd 3615 a2be bcbe 18bd b38e 973d
00000230: fdd6 cbbd a617 89bc df3d 96bd fea7 71be
00000240: 0360 f9bd 2a2b acbd 17d5 56be 608b 75bc
00000250: 5a38 873c db79 35be 2fe3 29bd f1af f2bd
00000260: 0cd2 aebe 78be 4c3d 1945 003d 6eba 5b3d
00000270: 17b6 bfbc 51c8 4e3c 07dc b0bb 49ae 97bc
00000280: a465 aa3d caec 2ebd e3d2 e83d caa2 5b3d
00000290: 3420 c5bc cf9e 2a3d c2d1 11be 7093 e3bd
000002a0: ccea 4c3d b769 86bd 08a9 30bd 427b 55be
000002b0: b336 aebd 6ee5 31bd 26eb ae3c 71e1 593d
000002c0: 3ef0 1f3c 1aa6 eb3c 7784 2bbc 05a5 8bbe
000002d0: 8913 0b3d eeb6 723d 2eca 93bd 3459 103d
000002e0: 532b d93d dd7b 3bbe ac13 c03d 5f94 c53d
000002f0: e48e 82be 4449 46bd b5d1 82bc 7b8e 3e3d
00000300: f96d 5dbc d49a c1bc bb0c 403d 3622 e73a
00000310: c867 27ba fdd9 e93d f6c0 89bb 3c6d 993c
00000320: 52f3 b9bd 6d7f 25be 40a4 97bd 5e77 fbbd
00000330: 5aa8 ffbc 3666 b83c ee83 80bd ccb6 a4be
00000340: ec2f 8abe be22 c8be 32f6 57be ffa4 b9bd
00000350: 7077 6cbe 647c aabe 0ff0 aebe 290e f2be
00000360: b3d8 13bd 8fdf 83bd 2f5d 3fbd 8a72 2d3d
00000370: 561e c63c 4455 aa3d 23da 1dbd 482a b7bd
00000380: d3e2 1fbd 6782 ddbd 980d 69be 7128 98be
00000390: 458f 9ebd 5087 89bd a6d1 0dbe 9a8b 4fbd
000003a0: 96b7 dbbc 3e09 94bd 9e36 e03d 52ec 1c3d
000003b0: 218d 443d 6a5d 9a3d 6867 883d 0bf2 f83c
000003c0: 903d 343d 06f8 f33c 7c0b 48bb 3d6d a6bc
000003d0: df30 343d ace6 c43c cdac 21be 7686 7cbd
000003e0: 951e 6fbd 50f4 fd3d 9da1 7ebd 82ea e5bc
000003f0: b4cd 083d bbbc e2bc 3f68 15be 2053 d83b

features.module.4.bias f4 [32]
0.021348905 0.04123735 -0.07512276 -0.0573093 -0.078861624 0.038358152 0.06162627 -0.07895117
0.021362886 0.01666473 -0.044096578 0.01775375 0.063357726 0.08059982 0.035533387 -0.016293304
-0.046754636 -0.031296164 0.0006739185 -0.0060343547 0.059958473 -0.07426036 0.007334405 -0.026134621
0.006852094 0.07901947 0.0024041045 -0.014251734 -0.027850525 -0.082003795 -0.07444739 0.035804357
00000000: e6e3 ae3c 7fe8 283d f6d9 99bd 28bd 6abd
00000010: 3482 a1bd 701d 1d3d d46b 7c3d 27b1 a1bd
00000020: 3801 af3c 7984 883c 9d9e 34bd 5070 913c
00000030: b2c1 813d 8511 a53d 758b 113d 8979 85bc
00000040: ca81 3fbd 6830 00bd e8a9 303a d6bb c5bb
00000050: 0497 753d d115 98bd 7355 f03b 4618 d6bc
00000060: 8887 e03b f6d4 a13d 2e8e 1d3b 1b80 69bc
00000070: c926 e4bc 9bf1 a7bd e077 98bd 97a7 123d

features.module.5.weight f4 [32]
0.57998663 1.0938793 1.0466528 0.803411 0.6945773 1.1201371 0.7104112 0.50918776
0.7520902 0.85899 0.89582187 1.1191819 0.77099335 0.75568146 1.0166769 0.53880125
0.8093917 0.99572283 0.7610098 0.80329597 0.89997804 0.9156585 0.71128726 0.67058045
0.8074218 0.7504953 1.0758909 1.0195647 0.8063991 0.6597667 0.7573566 0.5874248
00000000: 017a 143f 3d04 8c3f b8f8 853f 58ac 4d3f
00000010: d1cf 313f a760 8f3f 82dd 353f 215a 023f
00000020: fc88 403f c5e6 5b3f 9554 653f 5a41 8f3f
00000030: d25f 453f 5774 413f 7822 823f e1ee 093f
00000040: 4b34 4f3f b1e7 7e3f 8ad1 423f cea4 4d3f
00000050: f664 663f 9868 6a3f ec16 363f 29ab 2b3f
00000060: 32b3 4e3f 7620 403f cbb6 893f 1981 823f
00000070: 2c70 4e3f 78e6 283f 1fe2 413f 7961 163f

features.module.5.bias f4 [32]
-0.92260617 -0.8153319 -0.6960169 -0.66833854 -0.38516933 -0.73244923 -0.44223368 -0.49412456
-0.291209 -0.7360333 -0.6247171 -0.9064523 -0.5769892 -0.37966198 -0.59790313 -1.0240536
-0.8902427 -0.75428426 -1.0129708 -0.57860005 -0.6848344 -0.5403424 -0.67224455 -0.8161943
-0.5764517 -0.4722515 -0.754568 -0.7828561 -0.79013526 -0.38137475 -0.42580825 -0.6068575
00000000: eb2f 6cbf 97b9 50bf 2a2e 32bf 3c18 2bbf
00000010: ea34 c5be cb81 3bbf 746c e2be e5fd fcbe
00000020: 5919 95be ae6c 3cbf 76ed 1fbf 420d 68bf
00000030: 90b5 13bf 0e63 c2be 2e10 19bf 3014 83bf
00000040: f2e6 63bf c618 41bf 07a9 81bf 221f 14bf
00000050: 4f51 2fbf e153 0abf 3818 2cbf 1cf2 50bf
00000060: 5792 13bf f3ca f1be 5e2b 41bf 4269 48bf
00000070: 4e46 4abf 8d43 c3be 8a03 dabe 035b 1bbf

features.module.5.running_mean f4 [32]
-1.0199975 -1.092614 -0.3112151 -0.39040852 -0.1918349 -0.5993533 -0.97349405 -0.77257174
-0.427167 -0.4410739 -0.77969456 -0.8897468 -0.45247158 -0.39864722 -0.8644164 -0.5840334
-1.1490357 -1.0478656 -0.81763047 -0.7165259 -0.55000573 -0.5715383 -0.5172814 -1.1154065
-0.9237069 -0.3205069 -0.57475394 -0.51876324 -1.0316995 -0.657783 -0.45485833 -0.6005538
00000000: 478f 82bf c7da 8bbf 9657 9fbe a0e3 c7be
00000010: 5e70 44be 386f 19bf e836 79bf 43c7 45bf
00000020: a2b5 dabe 70d4 e1be 109a 47bf 72c6 63bf
00000030: 5baa e7be 7d1b ccbe 654a 5dbf 3783 15bf
00000040: 9a13 93bf 7620 86bf 3b50 51bf 3e6e 37bf
00000050: 2dcd 0cbf 5650 12bf 8e6c 04bf a4c5 8ebf
00000060: 0e78 6cbf 7b19 a4be 1323 13bf abcd 04bf
00000070: bb0e 84bf 7764 28bf 31e3 e8be e5bd 19bf

features.module.5.running_var f4 [32]
0.583396 1.1334021 1.269006 0.3549931 0.26222026 0.766529 0.9073001 0.35485604
0.3251021 0.6709448 0.9089689 0.9174033 0.3872245 0.36688048 0.79580677 0.43654296
0.6992201 1.0635306 0.39751008 0.99639463 0.79424727 0.5832032 0.43894884 0.69076055
0.7614881 0.80286646 0.819213 0.5258415 0.4845062 0.3046359 0.3875156 0.48308954
00000000: 7159 153f 5213 913f ca6e a23f a8c1 b53e
00000010: bc41 863e 3f3b 443f d244 683f b1af b53e
00000020: c873 a63e 0ac3 2b3f 30b2 683f f1da 6a3f
00000030: 4a42 c63e c2d7 bb3e feb9 4b3f 8f82 df3e
00000040: 1700 333f c521 883f 7186 cb3e b813 7f3f
00000050: ca53 4b3f ce4c 153f e7bd e03e afd5 303f
00000060: e2f0 423f a888 4d3f f1b7 513f 8c9d 063f
00000070: 3211 f83e 3df9 9b3e 7268 c63e 8357 f73e

features.module.8.weight f4 [64, 32, 3, 3]
0.048615266 0.027559368 -0.0045577604 0.026712071 0.00523142 -0.02802686 0.02368728 -0.00595586
-0.051420793 0.041988015 0.008422807 0.024551459 0.010223662 -0.010769706 -0.0044156746 -0.030239498
-0.047090165 -0.04647268 -0.0157815 -0.012622736 -0.02380088 -0.027311886 -0.015073655 -0.020795742
-0.042069584 -0.02065319 -0.019618459 -0.03758189 -0.0044941683 0.0007481136 -0.0401051 -0.008134235
-0.0069337483 -0.05186795 -0.015653558 -0.027660811 -0.011519586 -0.006433946 -0.03651938 -0.018395552
0.00379413 -0.027466059 -0.011759868 -0.009870129 -0.028892362 0.006861251 -0.017259864 -0.020718032
-0.00068280444 -0.007424757 -0.02445526 0.0021488343 -0.006680613 -0.023746448 0.008170075 0.007901931
0.0062364335 0.0034556298 -0.002987558 -0.00871508 0.00035178143 -0.017482096 -0.02113714 0.04497156
0.026586823 0.02176693 0.02042275 0.0069192383 0.013243388 0.0028838015 0.0019378562 0.030695124
-0.000103076934 -0.0015296824 0.017964443 -0.02021247 -0.005986906 0.022199033 -0.027541675 -0.019300971
0.009200958 -0.0114059225 -0.004535384 -0.0038820514 -0.005859204 -0.00078695687 0.00651745 -0.0037508989
0.007807778 0.016421326 0.09549997 0.1253766 0.1899624 0.06141976 0.08744466 0.13774137
0.08633678 0.1189034 0.18206245 0.20623185 0.13510382 0.14718889 0.1519736 0.09182259
0.114184275 0.2183085 0.1474899 0.14929613 -0.053251266 -0.05015653 -0.04155231 -0.03926892
-0.019102147 -0.015088391 -0.06453266 -0.051373005 -0.059119508 0.073241085 0.043603927 0.040636707
0.051755164 -0.00061235717 -0.0017354599 0.04919553 0.0048077414 0.0016095208 -0.007964271 -0.02758814
-0.011341916 -0.009459743 -0.036051538 -0.03573409 0.031839676 0.00049704727 -0.009909298 -0.03348827
-0.011937865 -0.011223024 -0.020715294 -0.0060641463 -0.012234932 -0.019647699 -0.0056299176 -0.031318903
0.024740346 0.018180931 0.018876044 0.016036687 0.011673042 0.013391536 0.013640588 0.011713476
0.013720933 0.036340483 0.031197496 0.06328922 0.03317661 0.020772014 0.0518967 0.04056307
0.032492127 0.10231074 -0.04179727 -0.045742694 -0.053321004 -0.020527352 -0.026095225 -0.027953941
-0.04970374 -0.040809076 -0.03838303 0.022895651 0.022880917 0.034500185 0.01518945 0.015401226
0.027089516 0.023839697 0.02136463 0.037837967 -0.008385348 0.0017200687 0.003407505 -0.012165189
-0.0039267773 0.011097986 -0.03974421 -0.03423627 -0.015354022 -0.03481932 -0.03409713 -0.04376468
-0.016735807 -0.012729284 -0.029551206 -0.032417417 -0.028763434 -0.038936175 -0.035378166 -0.018070944
-0.018582378 -0.016967269 0.00075072027 -0.006959617 0.0027519392 0.0021661422 -0.0061397045 -0.03651207
-0.02922388 -0.068710566 -0.015215838 -0.015324288 -0.043253183 -0.03565331 -0.03392556 -0.064561866
0.04500273 0.032689944 0.038654555 0.035775475 0.012104014 0.026555816 0.060379717 0.039413985
0.053418204 0.10579599 0.076835 0.084026314 0.06358595 0.020557653 0.021102378 0.094573595
0.0392128 0.031969983 -0.030779656 -0.010093621 -0.014109335 -0.00030815677 0.018325375 0.018958177
-0.02362579 0.0063180462 0.007287868 -0.01987371 -0.03544838 -0.05672327 0.0029584637 -0.011606678
-0.036491092 -0.0073721353 -0.013731981 -0.026375134 0.021631368 0.023863759 0.020426422 0.022199366
00000000: cd20 473d 2fc4 e13c 4459 95bb 46d3 da3c
00000010: 556c ab3b 9698 e5bc d40b c23c 6029 c3bb
00000020: 9c9e 52bd a0fb 2b3d d0ff 093c 2420 c93c
00000030: 2581 273c 6c73 30bc 5db1 90bb d3b8 f7bc
00000040: 9ee1 40bd 235a 3ebd 3448 81bc 98cf 4ebc
00000050: 10fa c2bc 2dbd dfbc 7ef7 76bc d55b aabc
00000060: 2851 2cbd e130 a9bc e4b6 a0bc 78ef 19bd
00000070: d143 93bb 0e1d 443a 3f45 24bd 7445 05bc
00000080: 7f34 e3bb 7d73 54bd e43b 80bc ed98 e2bc
00000090: a5bc 3cbc dad3 d2bb 5895 15bd 45b2 96bc
000000a0: f0a6 783b 8000 e1bc 76ac 40bc 52b6 21bc
000000b0: adaf ecbc 58d4 e03b 8f64 8dbc ddb8 a9bc
000000c0: 3bfe 32ba 604b f3bb 6656 c8bc 75d3 0c3b
000000d0: 0be9 dabb e987 c2bc c7db 053c 1a77 013c
000000e0: ff5a cc3b d977 623b e8ca 43bb b2c9 0ebc
000000f0: 4e6f b839 9d36 8fbc cc27 adbc 1934 383d
00000100: 9ccc d93c 9050 b23c 9c4d a73c c7ba e23b
00000110: ccfa 583c 29fe 3c3b aaff fd3a 5774 fb3c
00000120: 022b d8b8 a07f c8ba 2b2a 933c 9f94 a5bc
00000130: cf2d c4bb bfda b53c 149f e1bc 121d 9ebc
00000140: 9dbf 163c e8df 3abc 8f9d 94bb 046a 7ebb
00000150: 91fe bfbb c84b 4eba 5590 d53b a4d1 75bb
00000160: 64d8 ff3b 0486 863c 7d95 c33d b962 003e
00000170: 8185 423e 4993 7b3d 3016 b33d 130c 0d3e
00000180: 56d1 b03d a083 f33d 946e 3a3e 712e 533e
00000190: a858 0a3e afb8 163e f89e 1b3e 7b0d bc3d
000001a0: 72d9 e93d 438c 5f3e 9807 173e 16e1 183e
000001b0: 001e 5abd ef70 4dbd c132 2abd 72d8 20bd
000001c0: 1b7c 9cbc 4c35 77bc b329 84bd 806c 52bd
000001d0: 4c27 72bd 6cff 953d 089a 323d ad72 263d
000001e0: 39fd 533d 9886 20ba 5f78 e3ba 4181 493d
000001f0: 428a 9d3b 8ef6 d23a 937c 02bc 8600 e2bc
00000200: 72d3 39bc 0afd 1abc c7aa 13bd e95d 12bd
00000210: 526a 023d 474c 023a 9c5a 22bc ff2a 09bd
00000220: 0997 43bc c6e0 37bc 1fb3 a9bc bfb5 c6bb
00000230: 0675 48bc 36f4 a0bc 2c7b b8bb 4048 00bd
00000240: 44ac ca3c 2df0 943c efa1 9a3c 5f5f 833c
00000250: 4940 3f3c 2c68 5b3c c67c 5f3c e1e9 3f3c
00000260: c4cd 603c c2d9 143d e491 ff3c c79d 813d
00000270: 32e4 073d 122a aa3c a291 543d 7625 263d
00000280: 7716 053d 4b88 d13d 9d33 2bbd b15c 3bbd
00000290: 2067 5abd fa28 a8bc a7c5 d5bc aaff e4bc
000002a0: 2696 4bbd 6b27 27bd 8637 1dbd a98f bb3c
000002b0: c370 bb3c 1150 0d3d 2cdd 783c 6c55 7c3c
000002c0: d5ea dd3c 784b c33c e004 af3c fcfb 1a3d
000002d0: b362 09bc ee73 e13a 7350 5f3b 8050 47bc
000002e0: 32ac 80bb 54d4 353c d3ca 22bd 553b 0cbd
000002f0: 708f 7bbc b49e 0ebd 6fa9 0bbd 9842 33bd
00000300: 8819 89bc 7d8e 50bc 5f15 f2bc 20c8 04bd
00000310: 4ba1 ebbc 8a7b 1fbd b2e8 10bd 8409 94bc
00000320: 123a 98bc f1fe 8abc fccb 443a 800d e4bb
00000330: e159 343b d6f5 0d3b 932f c9bb ae8d 15bd
00000340: eb66 efbc 20b8 8cbd da4b 79bc b912 7bbc
00000350: 402a 31bd 3509 12bd 87f5 0abd 0339 84bd
00000360: c854 383d e4e5 053d 3d54 1e3d 4e89 123d
00000370: ea4f 463c 958b d93c b950 773d 8f70 213d
00000380: 0ccd 5a3d 91ab d83d ab5b 9d3d fd15 ac3d
00000390: 5a39 823d 8668 a83c e5de ac3c cdaf c13d
000003a0: 9a9d 203d f5f2 023d 9e25 fcbc b75f 25bc
000003b0: d72a 67bc 1a90 a1b9 191f 963c 2e4e 9b3c
000003c0: df8a c1bc 9d07 cf3b 11cf ee3b 31ce a2bc
000003d0: 5232 11bd a956 68bd c9e2 413b f029 3ebc
000003e0: af77 15bd f491 f1bb 1afc 60bc aa10 d8bc
000003f0: 4434 b13c ee7d c33c 5055 a73c 72db b53c

features.module.8.bias f4 [64]
-0.026645675 0.010696921 0.011262991 0.057216804 0.053159304 -0.047982946 0.028871063 -0.0465816
-0.028413447 0.022932652 -0.039755926 0.049837805 0.022004792 0.004969454 0.032557353 -0.049511943
0.009588983 0.021657916 -0.026732607 -0.018067617 0.023575976 0.049234595 -0.022666423 0.03509303
0.03258211 -0.034014184 -0.046198916 -0.0068481285 0.036065932 -0.048456285 -0.040385902 0.042353276
-0.033331636 -0.041498803 -0.0024771632 0.05687532 0.038336772 0.029986456 0.007436084 -0.0291193
-0.045284458 0.030878056 0.017226676 0.015125178 -0.021480177 -0.056707084 0.007949886 -0.010008713
-0.0043971646 0.005517469 -0.033974115 -0.036202997 -0.016857248 0.022556894 -0.036389276 0.054171607
-0.057197716 -0.036072586 0.0166587 -0.056535434 -0.03226534 0.029992433 -0.039391268 0.01861502
00000000: 0848 dabc 2342 2f3c 6988 383c 2b5c 6a3d
00000010: 92bd 593d c489 44bd 0283 ec3c 59cc 3ebd
00000020: 51c3 e8bc 42dd bb3c 1cd7 22bd ba22 4c3d
00000030: 6543 b43c cdd6 a23b dc5a 053d 09cd 4abd
00000040: 1c1b 1d3c f16b b13c 57fe dabc 8a02 94bc
00000050: 6822 c13c 37aa 493d efae b9bc b6bd 0f3d
00000060: d274 053d 7552 0bbd 133b 3dbd 4466 e0bb
00000070: dfb9 133d 197a 46bd b06b 25bd a17a 2d3d
00000080: c186 08bd a6fa 29bd e757 22bb 18f6 683d
00000090: 0507 1d3d 28a6 f53c 65aa f33b 998b eebc
000000a0: 327c 39bd faf3 fc3c f51e 8d3c 98cf 773c
000000b0: 32f7 afbc b045 68bd 3d40 023c 96fb 23bc
000000c0: 1716 90bb e2cb b43b 7128 0bbd 9849 14bd
000000d0: 3618 8abc 3cc9 b83c ec0c 15bd 0ce3 5d3d
000000e0: 2748 6abd d9c0 13bd d377 883c b391 67bd
000000f0: a928 04bd b1b2 f53c bd58 21bd 877e 983c

features.module.9.weight f4 [64]
4.5389705 3.8630226 3.4074478 3.0205977 2.5289137 3.2237508 2.8977911 4.592664
2.7096336 3.5355957 2.4798362 3.1491106 3.4319937 4.1404977 3.5085742 4.2161098
2.9168317 3.257162 4.701006 3.7269728 2.9983563 4.235051 2.7115192 3.7360039
4.2789183 2.8725052 3.304478 2.8360734 2.6715307 2.8368413 2.7158186 4.206185
3.290788 4.563739 4.2596226 3.5798376 3.7100072 4.3766375 3.6866386 3.1029093
4.8305106 4.242588 3.009666 3.7351835 3.8641992 4.7251606 3.6110585 3.2487354
3.3421137 3.4690084 4.5926747 2.7248113 3.0104172 3.4311552 3.789857 4.574822
3.6247187 3.452908 3.309753 4.241274 3.1432123 2.9750712 3.2897098 2.9452696
00000000: 3f3f 9140 c33b 7740 a013 5a40 7951 4140
00000010: b9d9 2140 ef51 4e40 6975 3940 1af7 9240
00000020: a36a 2d40 3347 6240 a3b5 1e40 078b 4940
00000030: c9a5 5b40 f57e 8440 7b8c 6040 5fea 8640
00000040: 5fad 3a40 5875 5040 a46e 9640 b986 6e40
00000050: 12e5 3f40 8a85 8740 8889 2d40 b01a 6f40
00000060: e6ec 8840 20d7 3740 917c 5340 3a82 3540
00000070: 5cfa 2a40 cf8e 3540 f9cf 2d40 1199 8640
00000080: 459c 5240 260a 9240 d44e 8840 0f1c 6540
00000090: c270 6d40 6a0d 8c40 e3f1 6b40 1196 4640
000000a0: 8b93 9a40 48c3 8740 5e9e 4040 3f0d 6f40
000000b0: 0a4f 7740 8434 9740 951b 6740 48eb 4f40
000000c0: 31e5 5540 3c04 5e40 31f7 9240 4f63 2e40
000000d0: adaa 4040 0c98 5b40 048d 7240 f164 9240
000000e0: 64fb 6740 72fc 5c40 fed2 5340 84b8 8740
000000f0: 642a 4940 9167 3e40 9b8a 5240 4c7f 3c40

features.module.9.bias f4 [64]
0.96351814 0.88727903 0.9261153 0.63368154 0.43097776 0.820597 0.6747423 1.4854124
0.6969356 0.7537787 0.56529063 0.9370503 0.7082955 1.1685408 1.0044652 0.89367074
0.59123147 0.89689255 1.7134159 0.8158071 0.67802936 2.5972111 0.70474714 0.77472204
1.2698637 0.57243305 0.6158301 0.7799415 0.5394292 0.7036469 0.5957746 1.3073378
1.0276327 2.4633873 1.8685511 0.64600337 1.1044978 1.9160562 0.90519893 0.73677784
1.0084211 1.6104096 0.81434435 0.8383723 1.228937 0.85492396 0.777484 0.9498363
0.8192615 0.76197803 1.4004488 0.62366885 0.7689705 1.1326715 1.2223928 1.106788
0.93224573 0.76874685 0.9565345 0.97736573 0.8663016 0.81823856 0.8501149 0.61539125
00000000: 20a9 763f b824 633f e415 6d3f f438 223f
00000010: 1ea9 dc3e a512 523f e9bb 2c3f fe21 be3f
00000020: 5f6a 323f a4f7 403f e3b6 103f 87e2 6f3f
00000030: db52 353f bf92 953f 5192 803f 9bc7 643f
00000040: f25a 173f c09a 653f 3651 db3f bcd8 503f
00000050: 5593 2d3f b538 2640 4f6a 343f 2f54 463f
00000060: e58a a23f f98a 123f 0ba7 1d3f 3faa 473f
00000070: 0818 0a3f 3422 343f af84 183f d856 a73f
00000080: 7889 833f 23a8 1d40 af2c ef3f 7a60 253f
00000090: 2f60 8d3f 5441 f53f 1ebb 673f 799d 3c3f
000000a0: f113 813f e721 ce3f df78 503f 919f 563f
000000b0: cf4d 9d3f 4cdc 5a3f 3109 473f 7928 733f
000000c0: 1fbb 513f fe10 433f e841 b33f c3a8 1f3f
000000d0: 40db 443f 61fb 903f 5e77 9c3f 3bab 8d3f
000000e0: a8a7 6e3f 98cc 443f 72df 743f a434 7a3f
000000f0: f1c5 5d3f 1578 513f 21a1 593f 488a 1d3f

features.module.9.running_mean f4 [64]
0.007399187 0.020912439 0.031388447 0.05595638 0.050815966 -0.01801667 0.026271382 -0.011618758
-0.03348619 0.025095178 -0.019532042 0.07589863 0.023758389 0.021808933 0.033772506 -0.017891787
0.02124799 0.021060029 -0.0110577885 -0.012681944 0.03901363 0.08632227 -0.025413534 0.042893697
0.05197059 -0.034761947 -0.03680418 -0.0114241615 0.038239427 -0.037929792 -0.038238965 0.08402528
-0.03749337 0.0078767445 0.011981386 0.069832295 0.06677138 0.034883298 0.02507859 -0.012035078
-0.04446857 0.04456625 0.01437699 0.038365997 -0.005951903 -0.029161073 0.009878651 0.0012373381
0.009407552 0.017309729 -0.018677428 -0.04004313 -0.022108696 0.060508456 -0.007127291 0.09202433
-0.03752156 -0.028303161 0.013433236 -0.047583304 -0.037782717 0.031829692 -0.026525408 0.022565383
00000000: e174 f23b 9050 ab3c 2c91 003d 8432 653d
00000010: 6724 503d b297 93bc 1537 d73c 9a5c 3ebc
00000020: d128 09bd 6794 cd3c a901 a0bc be70 9b3d
00000030: f4a0 c23c a6a8 b23c 0a55 0a3d cc91 92bc
00000040: 4410 ae3c 1586 ac3c ba2b 35bc eec7 4fbc
00000050: c2cc 1f3d bbc9 b03d 0b30 d0bc 4db1 2f3d
00000060: 1ddf 543d 8b62 0ebd fbbf 16bd 682c 3bbc
00000070: f2a0 1c3d 455c 1bbd 76a0 1cbd 7215 ac3d
00000080: a692 19bd 760d 013c 934d 443c 3c04 8f3d
00000090: 6fbf 883d cae1 0e3d 9d71 cd3c c72e 45bc
000000a0: ad24 36bd 1a8b 363d 778d 6b3c aa25 1d3d
000000b0: 2e08 c3bb 34e3 eebc 11da 213c 2d2e a23a
000000c0: 2222 1a3c 22cd 8d3c 6801 99bc 4404 24bd
000000d0: 4c1d b5bc b7d7 773d 0d8c e9bb 4077 bc3d
000000e0: 35b0 19bd 08dc e7bc 1317 5c3c b6e6 42bd
000000f0: 0dc2 1abd da5f 023d d04b d9bc 0adb b83c

features.module.9.running_var f4 [64]
0.019302286 0.02330725 0.02389668 0.012497466 0.012544636 0.019110925 0.012837306 0.022187466
0.011833233 0.012973776 0.011537854 0.023308882 0.013891341 0.029466767 0.014741048 0.019331053
0.0196228 0.013833806 0.01896873 0.015626468 0.01148979 0.01531107 0.012493986 0.022559915
0.017263513 0.011063677 0.021433352 0.012280811 0.011611201 0.015481462 0.014414744 0.01564242
0.014174896 0.021970306 0.012106452 0.015367856 0.01700189 0.01197914 0.023577154 0.011880609
0.030217178 0.01752061 0.0125788115 0.016071608 0.0154342335 0.015779013 0.013153315 0.015444619
0.013394896 0.02162916 0.01798899 0.012712351 0.012989474 0.012425767 0.01607591 0.01713647
0.012700575 0.0138695 0.01357818 0.018583292 0.013704295 0.012307513 0.011897138 0.014268258
00000000: d41f 9e3c d9ee be3c f8c2 c33c 2cc2 4c3c
00000010: 0488 4d3c 848e 9c3c 9053 523c 7dc2 b53c
00000020: 2de0 413c f68f 543c 4409 3d3c 45f2 be3c
00000030: 8298 633c 4a64 f13c 7084 713c 285c 9e3c
00000040: ffbf a03c 30a7 623c 4f64 9b3c 1403 803c
00000050: ac3f 3c3c 48db 7a3c 93b3 4c3c 92cf b83c
00000060: 366c 8d3c 6d44 353c ff94 af3c 7435 493c
00000070: e83c 3e3c f5a5 7d3c d22b 6c3c 8824 803c
00000080: d33d 683c 12fb b33c 245a 463c 76c9 7b3c
00000090: 8c47 8b3c 2844 443c e024 c13c e3a6 423c
000000a0: 048a f73c 6287 8f3c 5c17 4e3c 9ba8 833c
000000b0: dedf 7c3c fd42 813c 0081 573c 6d0b 7d3c
000000c0: 4476 5b3c a32f b13c a55d 933c 7747 503c
000000d0: ced1 543c 7295 4b3c a0b1 833c c861 8c3c
000000e0: 1316 503c e63c 633c 0477 5e3c fd3b 983c
000000f0: fb87 603c 73a5 493c 37ec 423c 69c5 693c

top_layer.weight f4 [10, 64]
-0.09010742 -0.18812998 0.12069698 -0.09655632 -0.06813473 -0.12175059 0.08188829 0.77668345
0.13432017 -0.08384235 -0.024239575 -0.036693495 0.002737759 0.101574086 -0.18630973 -0.10291967
-0.096076466 -0.16340563 -0.15406808 -0.07510077 0.084047265 -0.010299573 -0.020277958 -0.080613695
-0.23079522 -0.089719504 -0.15561001 0.026706414 -0.030033555 0.21191767 0.026454363 -0.08621915
0.086220674 -0.14727627 -0.09698486 -0.043501448 0.51523876 -0.124686986 -0.14008659 0.20510484
-0.10585747 -0.1432213 0.081721865 -0.035872508 -0.009616868 -0.1300256 -0.04339166 0.22405368
-0.0670591 -0.1426678 -0.13662261 -0.045640238 0.3302601 0.31741965 0.638161 -0.17706865
-0.06680224 -0.04476361 0.1395183 0.01584554 0.046729982 -0.13446167 0.0053183464 0.05219839
0.42874783 0.08558674 -0.102310315 0.1196299 0.01686636 -0.052593846 -0.11193638 -0.044880245
-0.14260581 0.20996591 0.28885633 -0.02265507 -0.04479268 -0.13703114 -0.22860342 0.26031163
0.018008646 -0.17690106 0.20438519 -0.07499724 0.011979437 -0.54358053 0.06803949 0.05057612
0.042768005 0.14529447 0.019969594 -0.055121172 0.20614845 0.08836352 -0.033749048 -0.34813657
0.044744942 -0.5542337 -0.09318543 0.12184799 0.0130350385 -0.040146757 -0.042624112 0.04658888
0.066914394 0.15953727 -0.08639276 0.35050592 -0.29135916 0.21445712 0.26850107 -0.18687187
-0.20012334 -0.0018250834 0.2827722 0.19112456 -0.08461951 -0.11045327 -0.058294933 0.20935103
-0.19733271 -0.0887174 0.14731085 0.5672487 -0.042234465 -0.11822673 0.040352177 0.006606388
-0.2598006 0.038482007 -0.0396125 0.20883892 -0.0069186087 -0.060366806 -0.099957876 -0.08657673
-0.07605005 0.4437998 -0.1319383 -0.083898775 -0.12546562 -0.07208782 -0.0004627316 -0.2546464
-0.07165378 -0.0072214864 0.3894882 -0.12887846 -0.040250435 0.08457012 0.0750659 -0.112689465
-0.1546895 0.35262722 -0.07620526 -0.08809872 0.25250468 -0.115859136 -0.08882764 0.06696405
-0.13245568 0.27979025 -0.11331959 -0.19831985 -0.055669025 -0.16141334 -0.07311505 -0.030439243
-0.15620382 0.47816634 -0.0627665 -0.25491711 -0.032631636 -0.19739379 0.4358296 -0.047750756
0.033970084 -0.061398745 0.53301316 0.16077663 -0.12550291 -0.0007745126 -0.055998504 -0.22304508
0.094030865 -0.13781606 -0.13557564 0.03747297 -0.084907904 -0.009630848 0.0069617154 -0.12833638
-0.06076039 -0.10650338 -0.08567559 -0.11273092 -0.056507587 0.0086931875 -0.1354275 -0.12771152
-0.13310525 -0.111570805 -0.032043323 -0.095966056 -0.075918294 -0.13824242 0.29481304 -0.098617695
-0.033290777 0.24764477 -0.12972015 -0.07055336 0.4242983 -0.14344405 -0.09801882 -0.022800513
-0.0657893 -0.08902959 -0.055017624 -0.06319094 -0.06701476 -0.021324737 -0.13272743 0.5939727
-0.09022215 0.40086403 -0.16497603 -0.058447417 0.1637553 -0.17122982 -0.045236956 0.358485
-0.03053601 -0.13874763 -0.099130705 -0.00640283 -0.07941523 -0.077451184 -0.11707704 -0.1749603
0.47021732 -0.07789544 -0.18470563 -0.04341279 -0.19523819 0.32663056 -0.06860637 -0.1268172
0.550247 -0.037390616 -0.103298575 -0.026644537 -0.049621172 0.25701916 0.45381382 -0.12006212
00000000: 3d8a b8bd 25a5 40be fa2f f73d 52bf c5bd
00000010: 398a 8bbd 6058 f9bd 0cb5 a73d bad4 463f
00000020: 3a8b 093e 8ab5 abbd 1392 c6bc eb4b 16bd
00000030: f96b 333b 1306 d03d fac7 3ebe 8cc7 d2bd
00000040: bdc3 c4bd ce53 27be 06c4 1dbe 6fce 99bd
00000050: f920 ac3d 8abf 28bc f61d a6bc cb18 a5bd
00000060: 9555 6cbe dcbe b7bd 3b58 1fbe 69c7 da3c
00000070: ee08 f6bc f200 593e d2b6 d83c aa93 b0bd
00000080: 7794 b03d 97cf 16be 00a0 c6bd 932e 32bd
00000090: b0e6 033f e45b ffbd dc72 0fbe 0107 523e
000000a0: cdcb d8bd 9ba8 12be cb5d a73d 0def 12bd
000000b0: 1190 1dbc 6e25 05be 74bb 31bd 546e 653e
000000c0: 4856 89bd 8217 12be cce6 0bbe 42f1 3abd
000000d0: da17 a93e d484 a23e 855e 233f 7c51 35be
000000e0: 9dcf 88bd 0c5a 37bd e3dd 0e3e 82ce 813c
000000f0: f067 3f3d 52b0 09be 8645 ae3b fbcd 553d
00000100: d684 db3e 1a48 af3d 1288 d1bd 8500 f53d
00000110: 522b 8a3c a56c 57bd e73e e5bd 59d4 37bd
00000120: 4207 12be 4e01 573e fae4 933e 2097 b9bc
00000130: 8778 37bd e451 0cbe 0417 6abe 9147 853e
00000140: de86 933c 8d25 35be 5a4a 513e 2798 99bd
00000150: 6745 443c 1828 0bbf 4a58 8b3d e828 4f3d
00000160: 812d 2f3d 13c8 143e 4697 a33c bdc6 61bd
00000170: 9418 533e eff7 b43d 713c 0abd f53e b2be
00000180: 7946 373d 42e2 0dbf 01d8 bebd 708b f93d
00000190: ea90 553c ed70 24bd 9f96 2ebd fbd3 3e3d
000001a0: 6a0a 893d bd5d 233e b0ee b0bd 8375 b33e
000001b0: 072d 95be a69a 5b3e f978 893e 575b 3fbe
000001c0: 22ed 4cbe a337 efba 85c7 903e 28b6 433e
000001d0: fe4c adbd 5335 e2bd abc6 6ebd 1e60 563e
000001e0: 9611 4abe 78b1 b5bd a8d8 163e 3637 113f
000001f0: 0cfe 2cbd db20 f2bd 5348 253d 667a d83b
00000200: 9604 85be 4f9f 1d3d b840 22bd dfd9 553e
00000210: 7fb5 e2bb 2f43 77bd b7b6 ccbd 244f b1bd
00000220: 21c0 9bbd ba39 e33e d51a 07be 1fd3 abbd
00000230: 0f7a 00be c7a2 93bd c99a f2b9 0361 82be
00000240: 38bf 92bd 38a2 ecbb ff6a c73e b7f8 03be
00000250: a4dd 24bd 1933 ad3d 27bc 993d bcc9 e6bd
00000260: ed66 1ebe 8e8b b43e 8111 9cbd 1a6d b4bd
00000270: 4b48 813e 8e47 edbd 44eb b5bd 7324 893d
00000280: 76a2 07be ab40 8f3e 1a14 e8bd 5c14 4bbe
00000290: 3405 64bd 8a49 25be 58bd 95bd b85b f9bc
000002a0: e5f3 1fbe 38d2 f43e b98b 80bd 7f84 82be
000002b0: c0a8 05bd 9921 4abe 0f25 df3e 4c96 43bd
000002c0: 3724 0b3d 407d 7bbd 8d73 083f a1a2 243e
000002d0: d683 00be a908 4bba b05e 65bd ee65 64be
000002e0: 4193 c03d a71f 0dbe 57d4 0abe 427d 193d
000002f0: 32e4 adbd b4ca 1dbc 1a1f e43b 9d6a 03be
00000300: e3df 78bd 721e dabd af76 afbd 78df e6bd
00000310: 8074 67bd df6d 0e3c 82ad 0abe cfc6 02be
00000320: be4c 08be 3c7f e4bd dc3f 03bd da89 c4bd
00000330: 0d7b 9bbd 6c8f 0dbe bcf1 963e 13f8 c9bd
00000340: e95b 08bd 9796 7d3e 5cd5 04be 487e 90bd
00000350: a03d d93e ffe2 12be 17be c8bd 24c8 babc
00000360: 8abc 86bd 2555 b6bd 295a 61bd 406a 81bd
00000370: 093f 89bd 37b1 aebc b3e9 07be 980e 183f
00000380: 64c6 b8bd 0d3e cd3e 7aef 28be 8f66 6fbd
00000390: 78af 273e df56 2fbe 634a 39bd 598b b73e
000003a0: a826 fabc dc13 0ebe 0a05 cbbd d5ce d1bb
000003b0: 74a4 a2bd ba9e 9ebd 16c6 efbd cb28 33be
000003c0: 53c0 f03e a587 9fbd 7923 3dbe 9cd1 31bd
000003d0: 85ec 47be 1f3c a73e 7f81 8cbd 5edc 01be
000003e0: fddc 0c3f e726 19bd 348e d3bd a545 dabc
000003f0: 923f 4bbd 0498 833e 495a e83e 21e3 f5bd

top_layer.bias f4 [10]
0.02777579 -0.057278674 0.01933561 -0.005557907 -0.001112843 0.0031214934 -0.0069052316 -0.0039498624
0.012862884 0.011708242
00000000: 0e8a e33c 0b9d 6abd b765 9e3c 1a1f b6bb
00000010: d1dc 91ba f891 4c3b 4845 e2bb d96d 81bb
00000020: d9be 523c edd3 3f3c

momentum_buffer f4 [16, 1, 3, 3]
-0.030724574 0.024206193 0.05088299 -0.070428066 -0.081695065 -0.05504883 -0.059379216 -0.052774504
-0.017977169 -0.10854145 -0.105251074 -0.09122512 -0.0490696 -0.06552699 0.010632023 0.03453652
0.017079521 0.033058632 -0.050469927 -0.035064634 0.039411798 -0.031501234 0.026421562 0.095388874
0.067890376 0.10604696 0.11225375 0.003479789 0.008722709 0.052705836 0.011566283 0.026133364
0.05276477 0.030871868 0.087313354 0.051691726 0.057880044 0.025752071 -0.0342581 -0.039409257
-0.091048196 -0.06565503 -0.09879711 -0.09517595 0.024796113 0.07879909 0.05601786 -0.009171784
0.087073825 0.05316861 0.011750996 0.06768045 0.03523233 0.003705902 0.013767786 0.06258019
0.103258535 0.02743784 0.0979834 0.09185277 0.0059798826 0.08396362 0.06385784 0.051732495
0.020622514 -0.04730714 0.047889993 -0.024666253 -0.0656883 0.021871785 -0.06162581 -0.05737847
0.057163443 0.07567001 0.010391289 0.06793465 0.05843227 0.006181566 0.07417274 0.067217685
0.052104954 0.05874853 0.075034864 -0.0013931347 0.094095804 0.11050687 -0.0038876173 0.12238552
0.09294662 0.042930327 0.056531183 0.09483475 0.11103941 0.057178486 0.069269046 0.05254838
0.021672662 0.023542255 -0.00184491 -0.053029254 -0.05136536 -0.002351244 0.0020163637 0.019586463
0.056521825 0.0069754156 0.0144241685 0.05712205 -0.05774126 -0.02702893 0.028309528 -0.030666117
0.055883273 0.11912869 0.06243312 0.13034952 0.10574542 -0.035286598 -0.011412984 0.0084037315
-0.04331203 -0.01806595 -0.011102973 0.019001141 0.016159883 0.012036675 0.186623 0.2994098
0.22250995 0.19233783 0.3117705 0.10778989 0.310798 0.4161806 0.12137449 0.092885196
0.08364048 0.011475842 0.1358021 0.13099766 0.070396625 0.15849473 0.12796986 0.04862217
00000000: 1ab2 fbbc 114c c63c af6a 503d 973c 90bd
00000010: be4f a7bd e27a 61bd 9f37 73bd 142a 58bd
00000020: db44 93bc fb4a debd e08d d7bd 3cd4 babd
00000030: 34fd 48bd 0433 86bd f031 2e3c 2a76 0d3d
00000040: 5aea 8b3c 7d68 073d 8eb9 4ebd ef9f 0fbd
00000050: 446e 213d 7007 01bd 0872 d83c 3e5b c33d
00000060: 1c0a 8b3d 262f d93d 4be5 e53d 2c0d 643b
00000070: b1e9 0e3c 13e2 573d 8280 3d3c a315 d63c
00000080: df1f 583d 00e7 fc3c 58d1 b23d b4ba 533d
00000090: a013 6d3d 02f6 d23c 3952 0cbd 9a6b 21bd
000000a0: 7a77 babd 2576 86bd 2456 cabd 9ceb c2bd
000000b0: 3821 cb3c 6b61 a13d fc72 653d 4045 16bc
000000c0: c353 b23d 54c7 593d 4087 403c 0c9c 8a3d
000000d0: c74f 103d b8de 723b 4892 613c 0b2a 803d
000000e0: 3679 d33d 52c5 e03c 85ab c83d 4e1d bc3d
000000f0: e4f2 c33b 1ef5 ab3d e6c7 823d 74e5 533d
00000100: 8cf0 a83c 22c5 41bd 4c28 443d e210 cabc
00000110: 9687 86bd 752c b33c 586b 7cbd b005 6bbd
00000120: 3724 6a3d e1f8 9a3d 3a40 2a3c 5221 8b3d
00000130: ad56 6f3d bc8e ca3b e1e7 973d 6da9 893d
00000140: 016c 553d 4ca2 703d e1ab 993d d899 b6ba
00000150: 4db5 c03d 6d51 e23d 65c7 7ebb 42a5 fa3d
00000160: cc5a be3d b6d7 2f3d 3e8d 673d b938 c23d
00000170: a168 e33d fd33 6a3d eedc 8d3d f83c 573d
00000180: de8a b13c b0db c03c e8d0 f1ba 3435 59bd
00000190: 7c64 52bd 5417 1abb f824 043b ca73 a03c
000001a0: 6e83 673d 0792 e43b 5953 6c3c d0f8 693d
000001b0: 1982 6cbd c66b ddbc 62e9 e73c 8237 fbbc
000001c0: dce5 643d bef9 f33d dfb9 7f3d 587a 053e
000001d0: 0e91 d83d ae88 10bd 86fd 3abc ceaf 093c
000001e0: f567 31bd 0bff 93bc 3ee9 35bc 48a8 9b3c
000001f0: bb61 843c 7935 453c 1a1a 3f3e 3e4c 993e
00000200: a6d9 633e 35f4 443e 62a0 9f3e f2c0 dc3d
00000210: ea20 9f3e a015 d53e 3093 f83d 983a be3d
00000220: b34b ab3d 2c05 3c3c b50f 0b3e 4024 063e
00000230: 1b2c 903d 714c 223e 880a 033e 0a28 473d

momentum_buffer f4 [16]
-5.6383233e-06 6.8874288e-06 1.691304e-05 2.652925e-05 2.99666e-05 -2.6022575e-05 8.221027e-06 -1.4118198e-05
-3.5342648e-06 -2.4577997e-05 2.9864055e-05 -2.4177942e-05 1.7604829e-05 1.1687328e-05 1.0699658e-05 -1.7773822e-05
00000000: d430 bdb6 901a e736 7ae0 8d37 218b de37
00000010: c960 fb37 0e4b dab7 0bed 0937 33dd 6cb7
00000020: 352e 6db6 d92c ceb7 9284 fa37 bcd1 cab7
00000030: 15ae 9337 b114 4437 ae82 3337 fe18 95b7

momentum_buffer f4 [16]
-0.33508262 -0.19098441 0.084958754 -0.060342193 -0.31187752 0.023590226 0.096084066 -0.01841899
-0.050362296 0.12364371 -0.04220575 0.026356466 -0.08171994 0.04183583 0.023832 -0.061063167
00000000: f38f abbe 6b91 43be dbfe ad3d 6029 77bd
00000010: 69ae 9fbe 4a40 c13c b9c7 c43d 6ce3 96bc
00000020: b248 4ebd ea38 fd3d f0df 2cbd 84e9 d73c
00000030: c95c a7bd 0c5c 2b3d 543b c33c 5f1d 7abd

momentum_buffer f4 [16]
-0.11391004 -0.08244621 0.056217227 -0.14697604 -0.1336113 0.04070718 -0.023045728 -0.024391152
-0.04936783 0.074851334 0.039613456 0.031899713 -0.025790883 0.07833993 -0.029406004 -0.11179543
00000000: ab49 e9bd 8fd9 a8bd 0944 663d e380 16be
00000010: 67d1 08be 92bc 263d 65ca bcbc f4cf c7bc
00000020: ec35 4abd a84b 993d b841 223d 46a9 023d
00000030: 6747 d3bc af70 a03d dce4 f0bc 01f5 e4bd

momentum_buffer f4 [32, 16, 3, 3]
-0.05547449 -0.058607828 -0.06472555 -0.043595217 -0.07250425 -0.08285377 -0.041924044 -0.05043748
-0.057994097 0.0059142145 0.0060400604 0.00436402 0.0013346556 0.010945097 0.013894165 0.003915522
0.008557 0.0053687934 -0.0040262584 0.039460286 0.032385208 -0.009661049 0.016689906 0.023025056
0.0011680555 0.026488502 0.023055412 8.790195e-05 0.004977058 0.0104660615 -0.0034600417 0.0049005104
0.017447364 0.005404261 -0.0011925334 0.0017446536 -0.068476394 -0.06441352 -0.06886207 -0.056109726
-0.055775627 -0.06069942 -0.04709697 -0.05174326 -0.046756677 -0.0041977377 0.0076902756 -0.0029236558
-0.010387888 0.0069459933 0.011204741 0.0015693478 0.0004803748 0.020538528 -0.0068482785 -0.0014914501
-0.0037086639 -0.017440032 -0.0096187405 0.00011075521 -0.01314905 -0.008424493 0.0008922508 0.009809045
0.004542661 -0.023275886 0.023522593 0.0066522285 -0.0038879416 0.03627301 0.022780867 0.010206403
0.028291851 0.039540853 0.00272473 0.027288737 0.040738672 0.009210354 0.007413652 0.03353469
0.016929545 -0.010067206 -0.0101557085 -0.0012796614 -0.008676069 -0.005779584 -0.0061312704 -0.007470798
0.00572863 0.012974942 0.023749277 0.010025098 -0.005505035 0.030637609 0.012254592 -0.011044341
0.015195188 0.021114673 -0.007838874 0.015034046 0.044119917 0.019524716 -0.0050390074 0.0231914
0.02235351 -0.0099168345 0.014045172 -0.0043223216 -0.033981547 -0.006621897 0.005799478 -0.025570534
-0.0035432074 -0.0038470244 -0.03391207 0.00022870116 -0.0037001078 0.012750322 0.001176857 0.005122433
0.009999718 0.002033636 0.0066539026 0.013179871 0.004609657 0.0065842927 -0.0044828895 0.005455773
-0.0033642177 0.004351478 -0.0038683936 -0.0017932246 0.020449426 0.0016112558 -0.005211976 0.017806238
0.025834262 0.0059924554 0.020610496 0.028230265 0.0116801625 0.019734949 0.028519372 0.02024683
-0.0102614965 0.010622611 -0.00085838494 0.0044243457 0.0047080596 -0.002959784 0.019690339 0.0076053
-0.0013030753 -0.03243448 -0.039145954 -0.03132855 -0.039493546 -0.040781185 -0.028436966 -0.044502415
-0.044172637 -0.0070634205 -0.013748884 0.009066504 0.004055838 -0.018973041 0.0071421186 0.0107939765
-0.019203551 0.0062680827 0.0071197655 -0.018495072 -0.0025111139 0.00491661 -0.011922291 -0.0028758748
0.0055473745 -0.00096998713 0.008191618 0.006401861 0.007951524 0.0026721712 -0.0024461043 0.020952938
0.0032436308 -0.00726876 0.020566152 0.0051774196 0.0020699534 -0.050682172 -0.028509475 -0.021347567
-0.040771883 -0.030861447 -0.04187044 -0.034175158 -0.031769425 -0.04916007 -0.008624041 -0.01693987
-0.009379433 -0.01115262 -0.0085561685 -0.02397137 -0.017071957 -0.009212624 0.001515232 -0.01248404
-0.0066668573 -0.0025868127 5.5925688e-05 -0.0036392014 -0.0050558737 0.0019340108 0.0030335719 0.0011953302
0.009815197 0.0058590807 0.009857552 0.018454209 0.025655564 0.010562465 0.022598054 0.02454918
0.01619607 -0.013228411 -0.004714045 -0.012086818 -0.009284262 -0.008381775 -0.0007113647 -0.008881479
-0.006757969 -0.009824927 -0.012042043 -0.021147318 -0.022844393 -0.015652439 -0.013592324 -0.02208879
0.0006264569 -0.009837268 -0.023532012 0.003845415 -0.0010986105 -0.0006600146 0.009030387 0.008910171
0.010233318 0.015247873 0.009597371 0.009574547 -0.05772137 -0.0061036516 -0.0045256685 -0.031670034
00000000: 3839 63bd c30e 70bd d48e 84bd e690 32bd
00000010: 1c7d 94bd 3daf a9bd 8cb8 2bbd 8897 4ebd
00000020: 388b 6dbd 07cc c13b b3eb c53b 0e00 8f3b
00000030: 9cef ae3a 1053 333c 5aa4 633c c74d 803b
00000040: a932 0c3c b4ec af3b b4ee 83bb 1ca1 213d
00000050: 5aa6 043d 6049 1ebc 45b9 883c 0b9f bc3c
00000060: 7019 993a 6afe d83c b4de bc3c 0058 b838
00000070: 9716 a33b d879 2b3c dec1 62bb 7694 a03b
00000080: c6ed 8e3c 3a16 b13b c84e 9cba dcac e43a
00000090: 5a3d 8cbd 3ceb 83bd 8f07 8dbd 50d3 65bd
000000a0: fc74 64bd f49f 78bd c1e8 40bd bef0 53bd
000000b0: ee83 3fbd 2d8d 89bb b5fe fb3b ce9a 3fbb
000000c0: f631 2abc 379b e33b 1794 373c 93b2 cd3a
000000d0: d0da fb39 6a40 a83c 8667 e0bb c37c c3ba
000000e0: 0e0d 73bb 66de 8ebc ec97 1dbc 4045 e838
000000f0: 1d6f 57bc e206 0abc f0e5 693a 1eb6 203c
00000100: 9ada 943b 12ad bebc 74b2 c03c f0fa d93b
00000110: d6cc 7ebb 0293 143d f19e ba3c c238 273c
00000120: 50c4 e73c 97f5 213d 6291 323b a18c df3c
00000130: 98dd 263d 06e7 163c 38ee f23b ac5b 093d
00000140: d4af 8a3c ecf0 24bc 2164 26bc 50ba a7ba
00000150: 1226 0ebc aa62 bdbb d3e8 c8bb 99cd f4bb
00000160: 3bb7 bb3b da94 543c d88d c23c 4f40 243c
00000170: 9563 b4bb b9fb fa3c 7cc7 483c 53f3 34bc
00000180: 3df5 783c aef8 ac3c 9f6e 00bc 5c51 763c
00000190: 16b7 343d 4cf2 9f3c 421e a5bb e4fb bd3c
000001a0: b51e b73c 387a 22bc b91d 663c 43a2 8dbb
000001b0: 3c30 0bbd 80fc d8bb 8c09 be3b 4c79 d1bc
000001c0: 2835 68bb 5c1e 7cbb 62e7 0abd 80cf 6f39
000001d0: 827d 72bb bae6 503c c540 9a3a 15da a73b
000001e0: dbd5 233c c046 053b fb08 da3b 63f0 573c
000001f0: 9b0c 973b 0dc1 d73b 34e5 92bb 57c6 b23b
00000200: 357a 5cbb d896 8e3b e084 7dbb a20a ebba
00000210: 8e85 a73c c630 d33a 39c9 aabb 63de 913c
00000220: 60a2 d33c 5c5c c43b 58d7 a83c 2843 e73c
00000230: 275e 3f3c 30ab a13c 75a1 e93c aedc a53c
00000240: d61f 28bc 760a 2e3c 3d05 61ba 1afa 903b
00000250: 1146 9a3b eff8 41bb a24d a13c e135 f93b
00000260: f4cb aaba 04da 04bd 8257 20bd 5e52 00bd
00000270: fcc3 21bd 2c0a 27bd a4f4 e8bc 2a48 36bd
00000280: 5eee 34bd 4474 e7bb 0043 61bc ad8b 143c
00000290: d6e6 843b 5a6d 9bbc 6f08 ea3b 38d9 303c
000002a0: c450 9dbc 7d64 cd3b ec4c e93b fa82 97bc
000002b0: 8091 24bb 841b a13b b655 43bc 2c79 3cbb
000002c0: c0c6 b53b bc46 7eba 2336 063c b4c6 d13b
000002d0: 1c47 023c 981f 2f3b d24e 20bb 7fa5 ab3c
000002e0: 1893 543b c72e eebb 597a a83c 58a7 a93b
000002f0: 0ea8 073b 1c98 4fbd b48c e9bc 18e1 aebc
00000300: 6b00 27bd 25d1 fcbc 5780 2bbd 40fb 0bbd
00000310: a820 02bd 125c 49bd da4b 0dbc 7bc5 8abc
00000320: 31ac 19bc 7bb9 36bc 2c2f 0cbc 9b5f c4bc
00000330: 7dda 8bbc 8cf0 16bc c09a c63a dc89 4cbc
00000340: a775 dabb 8487 29bb c091 6a38 ab7f 6ebb
00000350: beab a5bb a27e fd3a e4ce 463b a0ac 9c3a
00000360: eccf 203c 88fd bf3b 9281 213c 482d 973c
00000370: 9e2b d23c 300e 2d3c 8e1f b93c 5d1b c93c
00000380: 9fad 843c fabb 58bc 4778 9abb ca07 46bc
00000390: 041d 18bc b653 09bc e07a 3aba 9f83 11bc
000003a0: f471 ddbb bbf8 20bc fd4b 45bc 243d adbc
000003b0: 2a24 bbbc 8b39 80bc 57b2 5ebc 8df3 b4bc
000003c0: d038 243a 7e2c 21bc 35c6 c0bc 5c03 7c3b
000003d0: 40ff 8fba d404 2dba 30f4 133c f7fb 113c
000003e0: a6a9 273c 37d2 793c 4b3e 1d3c 90de 1c3c
000003f0: 3e6d 6cbd 2401 c8bb 0f4c 94bb 70b8 01bd

momentum_buffer f4 [32]
2.1382168e-06 4.1456997e-06 -7.5108514e-06 -5.7216844e-06 -7.84915e-06 3.8258117e-06 6.1782143e-06 -7.878786e-06
2.1473843e-06 1.6664403e-06 -4.40375e-06 1.7417567e-06 6.3609796e-06 8.014547e-06 3.5662958e-06 -1.6301258e-06
-4.692438e-06 -3.1412908e-06 9.014798e-08 -6.095754e-07 5.971544e-06 -7.4325253e-06 7.328653e-07 -2.5972895e-06
6.8361965e-07 7.912571e-06 2.4695495e-07 -1.4351593e-06 -2.7580145e-06 -8.219938e-06 -7.4275617e-06 3.5766152e-06
00000000: 497e 0f36 4a1b 8b36 b905 fcb6 e5fc bfb6
00000010: d8af 03b7 795f 8036 754e cf36 212f 04b7
00000020: c81b 1036 74aa df35 edc3 93b6 4ec6 e935
00000030: 6670 d536 3876 0637 7f54 6f36 b2ca dab5
00000040: bc73 9db6 f7ce 52b6 6097 c133 b4a1 23b5
00000050: 2c5f c836 e864 f9b6 1fba 4435 184d 2eb6
00000060: fc81 3735 3cc0 0437 3b95 8434 b39f c0b5
00000070: 5416 39b6 5de8 09b7 453a f9b6 c805 7036

momentum_buffer f4 [32]
-0.14343199 -0.047535926 0.009914346 0.008238042 0.15946546 -0.096215375 0.09334035 0.2781517
0.021651112 -0.024693199 0.043075595 -0.16306454 -0.029903894 -0.010877354 -0.005281523 -0.14074339
-0.016011108 -0.053525485 0.043787766 0.03309093 0.11708267 0.00756641 -0.04636661 -0.15975179
-0.050978206 -0.03125992 0.0094421925 0.097559124 0.03908513 0.0528691 -0.025475524 0.120003596
00000000: d6df 12be 08b5 42bd c86f 223c daf8 063c
00000010: ea4a 233e 910c c5bd 3a29 bf3d e669 8e3e
00000020: ac5d b13c 6449 cabc 0970 303d 64fa 26be
00000030: 03f9 f4bc ee36 32bc a010 adbb 091f 10be
00000040: ba29 83bc 8a3d 5bbd cd5a 333d 5b8a 073d
00000050: 0ac9 ef3d a6ef f73b eaea 3dbd f995 23be
00000060: 86ce 50bd 670a 00bd 6db3 1a3c 14cd c73d
00000070: bb17 203d 458d 583d 0cb2 d0bc 72c4 f53d

momentum_buffer f4 [32]
-0.051713098 -0.04841677 0.007070165 -0.009920641 0.19771388 -0.048857775 0.11069189 0.17172937
0.04539916 -0.018991692 0.07827874 -0.11375542 -0.045022853 0.008925732 0.027360037 -0.052698825
0.0155262295 -0.0382726 0.011031655 0.02579368 0.07283681 -0.0057446007 -0.027153946 -0.08524596
-0.015427986 -0.006559275 -0.010635002 0.055786796 0.0155082755 0.047981635 -0.025117496 0.07660253
00000000: 1dd1 53bd aa50 46bd d8ac e73b 2f8a 22bc
00000010: 8275 4a3e 171f 48bd 6eb2 e23d d3d9 2f3e
00000020: 78f4 393d 7794 9bbc 9b50 a03d 9af8 e8bd
00000030: e269 38bd 3c3d 123c 2822 e03c b9da 57bd
00000040: ba61 7e3c bbc3 1cbd 1dbe 343c 454d d33c
00000050: 772b 953d 343d bcbb f471 debc 6f95 aebd
00000060: aac5 7cbc 30ef d6bb 6e3e 2ebc b280 643d
00000070: 6c16 7e3c 6488 443d 35c3 cdbc cae1 9c3d
