deepcluster_implementation/experiments/run_label_fraction_variation/config_1/checkpoints/checkpoint_epoch_0.pth.tar (torch, 203702 bytes, 32 tensors)

features.module.0.weight f4 [16, 1, 3, 3]
0.4070409 0.22161089 0.10653319 0.10850878 -0.21835636 0.07103619 -0.122394174 0.09440143
0.33440107 -0.42247176 0.15249543 0.19512954 0.23699507 -0.02360327 0.11355303 0.057783883
0.11073174 -0.12832078 -0.29652718 0.24701291 0.14788526 -0.1995902 -0.019094484 0.31237242
-0.2624506 -0.17810808 -0.17386293 -0.41348082 0.0011467696 -0.52103055 0.07211148 -0.1907306
0.342002 -0.031500217 -0.0029574116 0.27717423 0.124837875 0.15500711 0.09293997 -0.10784303
-0.20348006 -0.15311903 0.3283539 0.079071805 0.33001187 -0.6565421 0.4621038 0.2543669
0.39765254 0.0067319684 -0.6065662 0.12328153 -0.33747497 0.17305966 0.36480805 -0.06121267
0.39138916 -0.1530993 0.15866324 -0.15323561 -0.2741308 -0.25957808 -0.25019452 -0.25835678
-0.18115705 -0.21331234 0.29881063 -0.08587408 -0.2644647 -0.062325522 0.3163876 0.41636842
0.13152497 -0.29554623 -0.09054141 -0.2634688 -0.29059297 0.00954499 0.5493715 0.32728535
-0.26647672 -0.44616324 -0.18758494 -0.36383358 0.4359947 0.46423036 0.47915038 -0.23868158
-0.45846477 -0.053035144 0.18427832 -0.18607216 -0.030579835 0.29276597 -0.2092609 -0.25046375
0.4286959 0.14150214 -0.34321314 -0.34897107 0.034504756 0.34861365 -0.034644246 -0.11961694
0.107735455 -0.14735986 -0.20204878 -0.2796767 -0.29770848 0.024814669 0.60769576 -0.075994484
-0.036640104 -0.14238314 -0.3045841 -0.15835705 0.28744665 -0.26631853 -0.11270634 -0.23480661
0.036848977 -0.10857256 -0.025808834 -0.22293973 -0.23812036 -0.20772597 -0.071382865 -0.0023888606
-0.49212632 -0.18325242 0.9832907 -0.24872404 -0.77866715 0.33960795 -0.31996405 -0.34489736
-0.21589862 -0.3782472 0.1284862 0.07087302 0.13607554 -0.099116854 0.22518939 -0.2553526
00000000: aa67 d03e f7ed 623e 132e da3d da39 de3d
00000010: cf98 5fbe 6c7b 913d cca9 fabd 8955 c13d
00000020: 9e36 ab3e 384e d8be c327 1c3e 0ad0 473e
00000030: d6ae 723e a55b c1bc 7e8e e83d cbae 6c3d
00000040: 53c7 e23d 8666 03be 69d2 97be f4f0 7c3e
00000050: 3c6f 173e 6061 4cbe 096c 9cbc 47ef 9f3e
00000060: ed5f 86be f761 36be 2009 32be c2b3 d3be
00000070: 344f 963a 4262 05bf 2faf 933d e24e 43be
00000080: e31a af3e 5f06 01bd 22d1 41bb c8e9 8d3e
00000090: 00ab ff3d 2fba 1e3e 5057 be3d cedc dcbd
000000a0: 145d 50be 3ccb 1cbe 011e a83e 66f0 a13d
000000b0: 51f7 a83e 2513 28bf df98 ec3e 613c 823e
000000c0: 1d99 cb3e d897 dc3b ec47 1bbf 077b fc3d
000000d0: 85c9 acbe 8d36 313e 1fc8 ba3e 23ba 7abd
000000e0: 2964 c83e 10c6 1cbe 9e78 223e cce9 1cbe
000000f0: df5a 8cbe 6be7 84be 7f19 80be 5747 84be
00000100: 3c81 39be 8d6e 5abe b5fd 983e c0de afbd
00000110: eb67 87be 0c49 7fbd 8efd a13e 3e2e d53e
00000120: 7bae 063e d651 97be c66d b9bd 62e5 86be
00000130: 9ac8 94be 9762 1c3c 9ca3 0c3f f291 a73e
00000140: a36f 88be 826f e4be 4416 40be 6548 babe
00000150: b33a df3e 9aaf ed3e 3353 f53e f268 74be
00000160: e5bb eabe 613b 59bd 75b3 3c3e b389 3ebe
00000170: 9082 fabc 6ce5 953e 7d48 56be c93c 80be
00000180: 077e db3e f0e5 103e a2b9 afbe 56ac b2be
00000190: dc54 0d3d 7d7d b23e 20e7 0dbd baf9 f4bd
000001a0: 68a4 dc3d 81e5 16be e0e5 4ebe c931 8fbe
000001b0: 3f6d 98be 2248 cb3c f391 1b3f ffa2 9bbd
000001c0: ef13 16bd e3cc 11be 72f2 9bbe 5a28 22be
000001d0: 352c 933e e75a 88be 95d2 e6bd 2571 70be
000001e0: f4ee 163d 4a5b debd 0c6d d3bc 504a 64be
000001f0: d3d5 73be 1eb6 54be 2e31 92bd 6e8e 1cbb
00000200: fbf7 fbbe 86a6 3bbe f0b8 7b3f 84b1 7ebe
00000210: bb56 47bf 18e1 ad3e 54d2 a3be 6396 b0be
00000220: 8714 5dbe 9ea9 c1be e391 033e e025 913d
00000230: 6357 0b3e c7fd cabd 0c98 663e 93bd 82be

features.module.0.bias f4 [16]
-0.05735834 0.06938024 0.1714859 0.26817104 0.30259672 -0.26339564 0.08359873 -0.14287809
-0.036401484 -0.24863105 0.30256322 -0.24380085 0.17753029 0.116740175 0.10794325 -0.17959361
00000000: 94f0 6abd 3a17 8e3d 009a 2f3e b74d 893e
00000010: f5ed 9a3e cbdb 86be d035 ab3d a24e 12be
00000020: b919 15bd 2399 7ebe 91e9 9a3e eea6 79be
00000030: 80ca 353e 7915 ef3d 5a11 dd3d 63e7 37be

features.module.1.weight f4 [16]
0.68086046 0.5690284 1.0342458 1.0589948 0.6387202 0.9309352 1.063666 0.92366487
0.9425119 1.0550085 0.89270335 1.0575281 0.8869361 0.9010379 1.202983 0.9839995
00000000: df4c 2e3f d8ab 113f 2b62 843f 248d 873f
00000010: 2b83 233f c551 6e3f 3526 883f 4d75 6c3f
00000020: 7648 713f 850a 873f 3588 643f 155d 873f
00000030: 3f0e 633f 6baa 663f 59fb 993f 64e7 7b3f

features.module.1.bias f4 [16]
-0.58001584 -0.46205327 -0.14775473 -0.20182228 -0.54145736 -0.38652945 -0.2135532 -0.20162243
-0.22111444 -0.43912223 -0.29946086 -0.19648899 -0.24283436 -0.22222161 -0.5792023 -0.2796791
00000000: eb7b 14bf 3f92 ecbe 044d 17be 80aa 4ebe
00000010: f39c 0abf 30e7 c5be b1ad 5abe 1c76 4ebe
00000020: d36b 62be a1d4 e0be ef52 99be 6934 49be
00000030: 92a9 78be 108e 63be 9a46 14bf 1932 8fbe

features.module.1.running_mean f4 [16]
-0.030908927 0.07056999 0.1576437 0.25537652 0.32665998 -0.26691523 0.08135468 -0.14418112
-0.029831916 -0.27584398 0.30871093 -0.25710845 0.18156935 0.08690754 0.058763787 -0.20610683
00000000: b834 fdbc 0087 903d 5a6d 213e b6c0 823e
00000010: fa3f a73e 1da9 88be 489d a63d 37a4 13be
00000020: 1062 f4bc 6c3b 8dbe 5c0f 9e3e b8a3 83be
00000030: 51ed 393e 95fc b13d 4cb2 703d ab0d 53be

features.module.1.running_var f4 [16]
0.61794174 0.20314664 0.3562975 0.43755582 0.26153988 0.1785258 0.40495852 0.31575072
0.29340082 0.24733995 0.4311145 0.4541633 0.36758462 1.1949009 0.50308853 0.42840886
00000000: 6e31 1e3f ac05 503e a06c b63e 5107 e03e
00000010: 8ee8 853e 78cf 363e b956 cf3e 14aa a13e
00000020: a238 963e af46 7d3e 0abb dc3e 1888 e83e
00000030: 0d34 bc3e 83f2 983f 69ca 003f 6858 db3e

features.module.4.weight f4 [32, 16, 3, 3]
0.12837549 0.056595042 -0.0065841856 0.084223524 0.031026136 0.00028821768 0.06855489 0.037674412
0.12588447 0.011236409 -0.114999026 -0.04604068 -0.055106364 -0.10995455 0.03311881 -0.1199424
-0.057643674 0.12862465 0.048482217 -0.0331501 -0.06201013 0.052687824 0.025005877 -0.002848372
0.120968185 0.045066647 0.04062413 -0.2262157 0.03898653 0.06752119 -0.05523326 -0.020527767
0.007898443 -0.023205359 -0.042113375 0.018033111 0.00551397 0.0005496483 0.018572567 0.016850065
0.012986239 0.05881046 -0.014052041 0.026562901 0.12754406 -0.006290662 -0.007675734 -0.040661763
0.024016555 0.070496984 -0.030635567 -0.0021253023 -0.024958726 0.045635156 -0.036432143 0.028210992
-0.054495808 0.016052315 -0.00026218814 -0.02816095 -0.022909753 -0.00081326475 -0.025917243 -0.08439524
0.02640001 0.057061017 0.023358483 0.061653998 0.032518223 -0.076461844 0.01540523 0.09758093
-0.0229396 0.046900578 0.0116686225 0.008189138 0.05801128 0.010480498 -0.04007085 0.029696502
0.080371596 -0.17286414 -0.13265194 -0.12263679 -0.16566993 -0.14743587 -0.070629366 -0.13799778
-0.09870245 -0.040200755 0.110893436 0.07516163 -0.03125394 0.053494137 0.032750297 -0.10940273
-0.015392268 -0.05868355 -0.08116987 0.07725791 0.07068221 -0.06678227 0.10120331 0.019656522
0.053702388 0.16488115 0.06661154 0.045577876 0.00091841375 -0.11561085 -0.015235722 -0.05384216
0.025953598 -0.008921625 0.09300016 0.022637112 0.028229995 0.020075105 0.060124684 -0.060822316
-0.0016078968 -0.010740146 0.0015834135 0.012624708 0.015796673 -0.020078924 -0.13614857 -0.10731138
-0.16305375 -0.06280506 -0.049225993 -0.17198458 -0.097206265 -0.14323512 -0.16039059 -0.05609832
-0.025555512 -0.0012837751 -0.025421351 0.0065296246 0.0039932407 -0.0022762532 -0.0061761304 -0.022580463
0.07986984 0.07974165 -0.09157351 0.077464946 -0.0024892008 -0.06801708 0.046742227 0.008997116
-0.13296488 0.017044837 0.022406114 -0.030839149 0.018999267 0.052424356 -0.046772428 0.010422648
-0.054037753 -0.054527525 0.08497706 0.044568647 -0.034768112 -0.025872275 -0.04672427 -0.076630846
0.014773005 -0.019868823 0.023937328 -0.04414436 -0.072101176 -0.052239645 0.014424653 -0.06461386
-0.015662357 0.022905042 -0.048790783 -0.073901676 0.08207651 0.030750146 -0.07391685 0.009197477
-0.018094104 -0.07440972 0.09994248 -0.04880567 -0.1235132 -0.02065038 0.010463915 0.03625177
0.039225627 0.04012897 -0.005785753 0.0077027963 0.016701562 0.012966568 -0.0801274 -0.014776131
-0.07253316 -0.02924422 -0.08021958 -0.049011547 0.005580864 -0.02197155 -0.0308745 -0.12673196
-0.09148087 -0.026621575 0.0077075437 0.026917093 -0.06316759 -0.06474065 -0.107620955 -0.12991662
-0.0721975 -0.007601103 0.032592803 -0.05815537 0.0005731 -0.055060644 -0.03209585 -0.03851543
-0.068950035 0.0061369184 -0.10630165 -0.04940147 0.009003293 -0.052355178 -0.04208224 -0.03042838
0.011829327 -0.034408752 0.12132602 0.01121605 0.021304427 0.0557232 -0.0021758408 0.03969434
0.020768404 -0.00020184403 0.05416633 0.03332622 0.011888435 -0.030419208 -0.04015871 -0.020073155
-0.021243922 0.045146607 -0.022303892 -0.0074454523 0.106368855 0.013394521 0.022637952 0.010473051
00000000: dd74 033e 34d0 673d 27c0 d7bb 627d ac3d
00000010: 862a fe3c ec1b 9739 8266 8c3d 7c50 1a3d
00000020: dce7 003e ea18 383c 9c84 ebbd 2795 3cbd
00000030: 36b7 61bd da2f e1bd 97a7 073d 5ca4 f5bd
00000040: c61b 6cbd 2eb6 033e 4a95 463d 66c8 07bd
00000050: 56fe 7dbd 30cf 573d 20d9 cc3c c1ab 3abb
00000060: 2bbe f73d ce97 383d 7d65 263d 17a5 67be
00000070: 57b0 1f3d 8d48 8a3d 453c 62bd d929 a8bc
00000080: 7968 013c 2a19 bebc 137f 2cbd 2dba 933c
00000090: 88ae b43b 4616 103a 7f25 983c 2609 8a3c
000000a0: 3cc4 543c 3de3 703d 883a 66bc 719a d93c
000000b0: e99a 023e e621 cebb b984 fbbb f38c 26bd
000000c0: 5ebe c43c b960 903d 71f7 fabc a848 0bbb
000000d0: 3e76 ccbc eeeb 3a3d df39 15bd bd1a e73c
000000e0: ff36 5fbd 2580 833c 4c76 89b9 cbb1 e6bc
000000f0: 3cad bbbc 4631 55ba 6650 d4bc 69d7 acbd
00000100: d544 d83c d0b8 693d 4a5a bf3c e788 7c3d
00000110: d431 053d 0798 9cbd 3866 7c3c 83d8 c73d
00000120: d4eb bbbc d21a 403d c02d 3f3c bc2b 063c
00000130: 3c9d 6d3d 65b6 2b3c 5521 24bd 1446 f33c
00000140: dd99 a43d 4c03 31be e9d5 07be ff28 fbbd
00000150: 61a5 29be 6ef9 16be 21a6 90bd 4a4f 0dbe
00000160: 8324 cabd 8ca9 24bd 191c e33d 57ee 993d
00000170: 2204 00bd ab1c 5b3d 2d25 063d 8a0e e0bd
00000180: da2f 7cbc 2a5e 70bd 643c a6bd 6539 9e3d
00000190: d6c1 903d 25c5 88bd ae43 cf3d b706 a13c
000001a0: 09f7 5b3d 9bd6 283e a26b 883d deaf 3a3d
000001b0: b4c1 703a 62c5 ecbd 409f 79bc 9989 5cbd
000001c0: a49c d43c 022c 12bc de76 be3d 7771 b93c
000001d0: 9742 e73c 8c74 a43c 4d45 763d d220 79bd
000001e0: 10c0 d2ba 70f7 2fbc 8a8a cf3a ddd7 4e3c
000001f0: 0668 813c 8e7c a4bc 886a 0bbe 12c6 dbbd
00000200: 90f7 26be f09f 80bd 32a1 49bd ba1c 30be
00000210: 1414 c7bd 3aac 12be 6e3d 24be 5ac7 65bd
00000220: cb59 d1bc 5844 a8ba 7040 d0bc 76f6 d53b
00000230: bbd9 823b 312d 15bb 2361 cabb aafa b8bc
00000240: cc92 a33d 974f a33d e48a bbbd f1a5 9e3d
00000250: dc21 23bb 8a4c 8bbd c774 3f3d a468 133c
00000260: f227 08be 9da1 8b3c 078d b73c 62a2 fcbc
00000270: 5aa4 9b3c ecba 563d 7294 3fbd c1c3 2a3c
00000280: b156 5dbd 4158 5fbd 7408 ae3d 9d8d 363d
00000290: 0269 0ebd 18f2 d3bc f361 3fbd a2f0 9cbd
000002a0: 790a 723c f1c3 a2bc 3718 c43c b7d0 34bd
000002b0: c8a9 93bd 3df9 55bd 6155 6c3c 4554 84bd
000002c0: 584e 80bc 5ba3 bb3c d8d8 47bd c359 97bd
000002d0: bb17 a83d bbe7 fb3c b861 97bd 04b1 163c
000002e0: 163a 94bc 2064 98bd a5ae cc3d 74e8 47bd
000002f0: 7df4 fcbd fc2a a9bc d770 2b3c bc7c 143d
00000300: 0dab 203d 465e 243d 6a96 bdbb bd67 fc3b
00000310: b7d1 883c ba71 543c d619 a4bd 9617 72bc
00000320: 448c 94bd 9391 efbc 2a4a a4bd 55c0 48bd
00000330: aedf b63b aefd b3bc 85ec fcbc 06c6 01be
00000340: 535a bbbd 7d15 dabc 908f fc3b 3c81 dc3c
00000350: 025e 81bd bf96 84bd 6068 dcbd dd08 05be
00000360: 48dc 93bd ac12 f9bb 0880 053d 5334 6ebd
00000370: 173c 163a 4587 61bd f076 03bd 5bc2 1dbd
00000380: ad35 8dbd 3418 c93b aeb4 d9bd 3259 4abd
00000390: 8c82 133c 6272 56bd 6d5e 2cbd f044 f9bc
000003a0: cbcf 413c 31f0 0cbd c779 f83d 86c3 373c
000003b0: 9f86 ae3c 033e 643d 8d98 0ebb 8896 223d
000003c0: 8022 aa3c 18a6 53b9 83dd 5d3d 1381 083d
000003d0: b6c7 423c b431 f9bc 767d 24bd 7570 a4bc
000003e0: bc07 aebc a6eb 383d a7b6 b6bc fbf8 f3bb
000003f0: ead7 d93d b174 5b3c 3a73 b93c 2997 2b3c

features.module.4.bias f4 [32]
0.02157549 0.041674916 -0.07592251 -0.057917323 -0.07969776 0.038765088 0.062280767 -0.0797877
0.021588288 0.016841946 -0.044564158 0.017942093 0.0640337 0.081454664 0.035911 -0.016466428
-0.04725031 -0.031628076 0.0006810839 -0.006098295 0.060595587 -0.0750485 0.007412217 -0.026412206
0.0069251875 0.07985756 0.0024294453 -0.01440301 -0.02814665 -0.08287232 -0.075237274 0.03618363
00000000: 15bf b03c 51b3 2a3d 437d 9bbd b73a 6dbd
00000010: 9438 a3bd 24c8 1e3d 1e1a 7f3d bc67 a3bd
00000020: ecd9 b03c 1ff8 893c e888 36bd 4cfb 923c
00000030: 1a24 833d b4d1 a63d 6a17 133d 9ae4 86bc
00000040: 8b89 41bd 718c 01bd c48a 323a 35d4 c7bb
00000050: 1433 783d 07b3 99bd 2fe2 f23b 695e d8bc
00000060: afec e23b 5c8c a33d 5437 1f3b 9afa 6bbc
00000070: ce93 e6bc f7b8 a9bd 0016 9abd 4935 143d

features.module.5.weight f4 [32]
0.91081095 1.0160764 1.0092599 0.982521 0.86808205 0.92758995 1.0475906 0.8501241
0.8812882 0.93347937 1.0695438 0.9914037 0.97325873 0.9695042 0.941758 0.9584059
1.0626343 1.0446746 1.0086213 1.0067393 1.0187759 0.9967267 0.9813956 0.93522334
0.92460173 0.953005 1.0606098 0.9383424 0.9416965 0.9296523 0.9018679 1.0073225
00000000: e82a 693f cb0e 823f 6e2f 813f 7f86 7b3f
00000010: a03a 5e3f 8976 6d3f 7317 863f bca1 593f
00000020: 1a9c 613f 81f8 6e3f d0e6 883f a2cc 7d3f
00000030: 7c27 793f 6d31 783f 0d17 713f 175a 753f
00000040: 6704 883f e6b7 853f 811a 813f d5dc 803f
00000050: 4067 823f 7b29 7f3f be3c 7b3f cc6a 6f3f
00000060: b3b2 6c3f 23f8 733f 10c2 873f 3537 703f
00000070: 0613 713f b1fd 6d3f d1e0 663f f2ef 803f

features.module.5.bias f4 [32]
-0.33429992 -0.1523908 -0.29408967 -0.2244855 -0.17918772 -0.17201282 -0.29373524 -0.15440927
-0.17793463 -0.20578663 -0.30371186 -0.37890518 -0.18139991 -0.14600262 -0.14098503 -0.22471665
-0.4595099 -0.24143702 -0.16693825 -0.21718246 -0.24241498 -0.21360259 -0.13352752 -0.22338367
-0.17491199 -0.22118564 -0.3518229 -0.09712291 -0.17355007 -0.21763484 -0.13874577 -0.12882641
00000000: 5c29 abbe 550c 1cbe ec92 96be 87df 65be
00000010: fc7c 37be 2124 30be 7764 96be 771d 1ebe
00000020: 7f34 36be bbb9 52be 1f80 9bbe dcff c1be
00000030: e6c0 39be b681 15be 615e 10be 1f1c 66be
00000040: e244 ebbe 443b 77be dcf1 2abe 1465 5ebe
00000050: a23b 78be a3ba 5abe 70bb 08be b0be 64be
00000060: 211c 33be 7d7e 62be 2222 b4be 60e8 c6bd
00000070: 1cb7 31be abdb 5ebe 5f13 0ebe 12eb 03be

features.module.5.running_mean f4 [32]
0.06235191 -0.24488552 -0.23759893 -0.07929946 -0.16439912 -0.17890626 -0.31778246 -0.052757874
-0.15482876 -0.17168155 -0.08303955 -0.12688108 -0.16683188 -0.17724945 -0.47098136 -0.24412082
-0.53283495 -0.4518634 -0.13100089 -0.07554785 -0.18914124 -0.16743447 -0.24020682 0.020921146
-0.09453375 -0.18107218 -0.065164626 -0.25167936 -0.21977468 -0.5181931 -0.31844127 -0.28507835
00000000: b764 7f3d 45c3 7abe 224d 73be c167 a2bd
00000010: 3e58 28be 3433 37be 62b4 a2be a418 58bd
00000020: 6e8b 1ebe 4acd 2fbe a410 aabd 1ded 01be
00000030: fad5 2abe e180 35be 7824 f1be cffa 79be
00000040: df67 08bf a45a e7be 1925 06be d5b8 9abd
00000050: 3eae 41be f173 2bbe c7f8 75be d362 ab3c
00000060: e99a c1bd fc6a 39be 0875 85bd 1edc 80be
00000070: 9d0c 61be 4ea8 04bf bc0a a3be caf5 91be

features.module.5.running_var f4 [32]
0.19977808 0.25458056 0.22638236 0.21245795 0.1878718 0.18781327 0.2298545 0.14729497
0.15407725 0.17648247 0.2885143 0.28801924 0.14014527 0.20931005 0.18625261 0.18360001
0.27903345 0.43309325 0.28446323 0.25692388 0.22301467 0.2537331 0.2519388 0.1779085
0.24498554 0.22360848 0.2695025 0.15580237 0.20756923 0.20275423 0.17962381 0.18397182
00000000: a092 4c3e 6258 823e c7d0 673e 948e 593e
00000010: 7761 403e 1f52 403e fa5e 6b3e 7ed4 163e
00000020: 6dc6 1d3e d2b7 343e 25b8 933e 4277 933e
00000030: 3e82 0f3e 6055 563e 01b9 3e3e a401 3c3e
00000040: 79dd 8e3e 66be dd3e 2aa5 913e 878b 833e
00000050: f55d 643e 4ee9 813e 1ffe 803e a52d 363e
00000060: 7ddd 7a3e 9ff9 643e 3bfc 893e a88a 1f3e
00000070: 078d 543e ce9e 4f3e 4eef 373e 1c63 3c3e

features.module.8.weight f4 [64, 32, 3, 3]
0.06494778 0.043792546 0.044158142 0.060300183 0.009816802 0.026601791 0.06970692 0.030124249
0.045842506 0.029053206 -0.039929528 0.033260096 -0.015498832 -0.010908847 0.013371613 -0.013073069
0.008392669 -0.040683303 0.0042171115 0.0154627 0.008259975 -0.0046638986 -0.011073919 0.026220683
-0.030680781 -0.013097799 -0.0032340966 -0.038846396 -0.0050529437 -0.027962614 -0.0055607306 0.003170511
-0.02912551 -0.025343569 0.014124296 -0.033218566 0.03107978 0.041774843 -0.014439395 -0.059734304
0.02896503 -0.027141556 0.032112837 -0.039085332 0.0020206047 0.0089752 -0.021525342 0.010427445
-0.050867923 -0.034666296 -0.035844862 0.009627507 -0.0136042 -0.0075966767 -0.0277914 -0.017789282
-0.036717888 -0.022442624 -0.021012044 -0.0037465158 -0.030117292 -0.015985893 -0.0073339557 -0.0010228725
-0.004496329 0.0055133305 0.006538444 -0.035658386 -0.023378678 0.0097772265 -0.013037452 0.01809275
0.005212161 -0.004485336 -0.03967618 -0.04334776 0.013823003 0.03503155 -0.00838954 -0.016391777
0.016103923 -0.033977777 0.0028241589 -0.036327615 -0.036981255 -0.011764237 -0.015367886 -0.010212069
0.012899047 -0.02104763 0.08142268 0.080038205 0.12060071 0.06432303 0.062001817 0.07532482
0.118980594 0.107648686 0.13474025 0.10450843 0.025678938 0.04645399 0.09049544 0.053587012
0.08427081 0.12633692 0.107023776 0.08879027 -0.005926559 -0.02773741 0.0048284456 0.011189392
0.013883537 0.009370404 -0.039073452 -0.03310237 -0.020562101 0.0044251485 0.05773131 0.03277401
0.020918274 -0.033844814 0.009790931 0.05903633 0.0070392215 -0.0006801758 0.022861939 0.034054548
0.019131744 -0.026051933 0.015610961 -0.029860947 -0.04030805 0.03498085 -0.038428854 -0.0494723
-0.0041769547 0.027900469 -0.0440961 -0.03273305 -0.0063317483 0.025232187 0.017824832 0.037894223
-0.010694659 -0.015597791 -0.017672919 -0.0072049685 0.0114458455 -0.011026585 -0.011537672 0.0056890287
-0.01599676 0.008715308 -0.0036150187 0.051880233 0.012880372 0.024141956 0.028597007 -0.004793161
0.027917022 0.048198696 -0.026259378 0.00091116555 -0.013580543 -0.03873024 -0.041205257 0.02118099
-0.031846635 -0.021081232 -0.015487368 0.058508 0.038206574 0.0196017 0.0068844385 0.052735105
0.042888068 0.04938672 0.010469145 0.05391258 -0.0324941 0.0035649524 -0.046720732 -0.0031943498
-0.01250968 0.027351882 0.050057955 -0.009010171 0.02310289 -0.0637207 -0.07402704 -0.025749637
0.004229976 0.002392726 -0.0311412 0.0031340409 -0.06864557 -0.04121469 -0.03178811 -0.005764277
0.014744628 -0.03685344 0.019255528 -0.020644287 0.017373338 0.0045614303 0.014014076 0.049835216
0.0072316173 0.011669455 0.031425837 -0.0125777405 0.021395214 0.022221655 -0.006548209 0.028469887
0.02689032 -0.01030927 0.0100353295 0.020897908 0.033170637 0.026587514 -0.0053412267 0.010982731
0.03229271 0.067314215 0.059185605 0.056372 0.03094146 0.03469122 0.015004666 0.076983385
0.06992569 0.02974794 -0.04643924 -0.01022181 -0.03144873 -0.0044653383 -0.04142756 -0.0140158925
-0.040928736 -0.007837931 -0.016347507 0.043335315 0.024038408 0.0502192 0.032957178 0.036095705
0.040889844 -0.013194213 -0.014673323 0.005543277 0.03368065 -0.008548054 -0.027620751 -0.013500737
00000000: 5703 853d d05f 333d 2bdf 343d 53fd 763d
00000010: a7d6 203c 00ec d93c 80c2 8e3d 21c7 f63c
00000020: 5ac5 3b3d fd00 ee3c 258d 23bd bd3b 083d
00000030: d0ee 7dbc 05bb 32bc 9c14 5b3c 6d30 56bc
00000040: 6881 093c 89a3 26bd b22f 8a3b 4457 7d3c
00000050: d954 073c 9ed3 98bb 626f 35bc c2cc d63c
00000060: 4356 fbbc 2798 56bc 23f3 53bb 661d 1fbd
00000070: 2a93 a5bb da11 e5bc ca36 b6bb 59c8 4f3b
00000080: 9f98 eebc 519d cfbc 9769 673c 3110 08bd
00000090: 069b fe3c 191c 2b3d 3693 6cbc f5ab 74bd
000000a0: 1248 ed3c f857 debc c088 033d f117 20bd
000000b0: 1f6c 043b b80c 133c ea55 b0bc e0d7 2a3c
000000c0: e25a 50bd 3ffe 0dbd 10d2 12bd b1bc 1d3c
000000d0: 27e4 5ebc 8bed f8bb caaa e3bc d4ba 91bc
000000e0: 7f65 16bd 98d9 b7bc 7321 acbc 1b88 75bb
000000f0: 8ab8 f6bc d9f4 82bc ae51 f0bb e811 86ba
00000100: f155 93bb 2ba9 b43b 7240 d63b 870e 12bd
00000110: a484 bfbc a930 203c 099b 55bc 3f37 943c
00000120: c7ca aa3b baf9 92bb 7d83 22bd 6c8d 31bd
00000130: e079 623c 3e7d 0f3d 4874 09bc 0c48 86bc
00000140: 60ec 833c 482c 0bbd 8615 393b 44cc 14bd
00000150: a879 17bd c9be 40bc 96c9 7bbc 8650 27bc
00000160: 8656 533c 146c acbc efc0 a63d 12eb a33d
00000170: 81fd f63d cbbb 833d 9ef5 7d3d e643 9a3d
00000180: 19ac f33d ea76 dc3d 59f9 093e 8408 d63d
00000190: a35c d23c 8a46 3e3d ac55 b93d 0e7e 5b3d
000001a0: 2d96 ac3d 775e 013e 482f db3d acd7 b53d
000001b0: 9533 c2bb 9139 e3bc f037 9e3b b653 373c
000001c0: c677 633c 5386 193c 7c0b 20bd 5a96 07bd
000001d0: da71 a8bc d600 913b ab77 6c3d 0a3e 063d
000001e0: cd5c ab3c dca0 0abd 246a 203c 14d0 713d
000001f0: 45a9 e63b d34d 32ba f648 bb3c c87c 0b3d
00000200: 2dba 9c3c dd6a d5bc 1ec5 7f3c f29e f4bc
00000210: 0e1a 25bd 1448 0f3d 9367 1dbd 77a3 4abd
00000220: d6de 88bb 868f e43c 1d9e 34bd 1713 06bd
00000230: 8e7a cfbb bbb3 ce3c 6205 923c f936 1b3d
00000240: a738 2fbc e18d 7fbc ccc6 90bc a817 ecbb
00000250: 5b87 3b3c d9a8 34bc 8108 3dbc 086b ba3b
00000260: a30b 83bc a7ca 0e3c f3e9 6cbb 5e80 543d
00000270: 3208 533c 5ac5 c53c 4544 ea3c f30f 9dbb
00000280: 3db2 e43c ff6b 453d e81d d7bc 49db 6e3a
00000290: ed80 5ebc 9aa3 1ebd d8c6 28bd c183 ad3c
000002a0: 9e71 02bd 8cb2 acbc bbbe 7dbc 16a6 6f3d
000002b0: 7f7e 1c3d bf93 a03c db96 e13b c400 583d
000002c0: 66ab 2f3d bb49 4a3d c786 2b3c 70d3 5c3d
000002d0: 8918 05bd faa1 693b 3d5e 3fbd 4c58 51bb
000002e0: 67f5 4cbc 0e11 e03c 9209 4d3d 659f 13bc
000002f0: 4642 bd3c 0080 82bd 7d9b 97bd e7f0 d2bc
00000300: 9c9b 8a3b 48cf 1c3b d41b ffbc 7b64 4d3b
00000310: 0c96 8cbd bcd0 28bd 4034 02bd 43e2 bcbb
00000320: 7493 713c a2f3 16bd c5bd 9d3c 351e a9bc
00000330: 8852 8e3c 0d78 953b 4c9b 653c 0320 4c3d
00000340: 34f7 ec3b 3e31 3f3c 61b8 003d de12 4ebc
00000350: 0445 af3c 300a b63c 5c92 d6bb ae39 e93c
00000360: 1749 dc3c 36e8 28bc 396b 243c 1732 ab3c
00000370: efdd 073d 0fce d93c 7505 afbb eaf0 333c
00000380: 5c45 043d 09dc 893d 9b6c 723d 54e6 663d
00000390: f278 fd3c 6118 0e3d 21d6 753c 77a9 9d3d
000003a0: 3335 8f3d f4b1 f33c 1337 3ebd 6179 27bc
000003b0: 62d0 00bd f951 92bb f2af 29bd eaa2 65bc
000003c0: e4a4 27bd aa6a 00bc 35eb 85bc 5f80 313d
000003d0: 32ec c43c a6b2 4d3d 1bfe 063d 17d9 133d
000003e0: 1c7c 273d 8a2c 58bc 6168 70bc 61a4 b53b
000003f0: b9f4 093d 230d 0cbc ea44 e2bc 3232 5dbc

features.module.8.bias f4 [64]
-0.026928836 0.010810404 0.011382381 0.05782404 0.05372451 -0.048492942 0.029177258 -0.04707665
-0.028715419 0.023175994 -0.040179536 0.050366197 0.02223815 0.0050223297 0.032902848 -0.05003813
0.009690721 0.021887954 -0.027016746 -0.018259909 0.023826577 0.04975683 -0.022906892 0.035465945
0.032928508 -0.034375876 -0.04668971 -0.0069207256 0.036449946 -0.04897117 -0.040815048 0.042803206
-0.033685483 -0.04193952 -0.0025028985 0.057479516 0.03874384 0.030304572 0.0075148176 -0.029428849
-0.04576492 0.031206213 0.017409569 0.0152858505 -0.021708725 -0.057309616 0.008034342 -0.010115296
-0.004444012 0.0055759354 -0.034334794 -0.036588002 -0.017037082 0.022796266 -0.03677517 0.054747302
-0.05780502 -0.036456503 0.016835386 -0.057135828 -0.032608397 0.030310716 -0.03980857 0.018812088
00000000: dd99 dcbc 1f1e 313c 2b7d 3a3c e7d8 6c3d
00000010: 3b0e 5c3d 89a0 46bd 2505 ef3c 72d3 40bd
00000020: 993c ebbc 95db bd3c 4c93 24bd c94c 4e3d
00000030: c82c b63c 5b92 a43b 23c5 063d c8f4 4cbd
00000040: d4c5 1e3c 5e4e b33c 3952 ddbc ce95 95bc
00000050: f42f c33c d1cd 4b3d 3ca7 bbbc bd44 113d
00000060: 0be0 063d b8cd 0cbd b63d 3fbd 41c7 e2bb
00000070: 8a4c 153d fe95 48bd ae2d 27bd 6a52 2f3d
00000080: caf9 09bd c6c8 2bbd ab07 24bb a46f 6b3d
00000090: dcb1 1e3d 4b41 f83c dc3e f63b c514 f1bc
000000a0: ff73 3bbd 2ca4 ff3c 839e 8e3c 8171 7a3c
000000b0: 7fd6 b1bc 7dbd 6abd 79a2 033c a0ba 25bc
000000c0: 139f 91bb 56b6 b63b a4a2 0cbd 4ddd 15bd
000000d0: 5a91 8bbc 3cbf ba3c 90a1 16bd b53e 603d
000000e0: f5c4 6cbd 6a53 15bd 5dea 893c 4207 6abd
000000f0: 6290 05bd 2e4e f83c 500e 23bd cf1b 9a3c

features.module.9.weight f4 [64]
2.218923 2.112359 1.867927 1.6800057 1.3922901 1.8587284 1.6254135 2.106706
1.4094155 1.8633001 1.4060253 1.9280212 1.6874882 2.252965 1.8011485 2.1091595
1.6020514 1.6632267 2.0888226 1.7618011 1.6268711 2.0029612 1.5204366 1.8714696
2.133128 1.5686328 1.7094707 1.4739358 1.4524796 1.6886642 1.4677271 2.0928416
1.6392231 2.1860962 2.008508 1.7560557 1.9049511 1.8883911 2.0285943 1.578519
2.3218617 2.0034728 1.5079396 1.8918504 2.0210085 2.2543328 1.8527988 1.8664807
1.7607026 1.8738114 2.2173998 1.3897308 1.4836648 1.7868787 1.8048894 2.170011
1.7902861 1.6756886 1.7019508 2.0566323 1.4861127 1.6341573 1.7454919 1.5030059
00000000: d602 0e40 e430 0740 3b18 ef3f 6d0a d73f
00000010: 9036 b23f d0ea ed3f 8d0d d03f 45d4 0640
00000020: ba67 b43f 9e80 ee3f a3f8 b33f 66c9 f63f
00000030: 9dff d73f 9430 1040 098c e63f 78fc 0640
00000040: 0510 cd3f 9de4 d43f 45af 0540 b382 e13f
00000050: 503d d03f 8430 0040 ab9d c23f 518c ef3f
00000060: 2b85 0840 f6c8 c83f f0cf da3f eea9 bc3f
00000070: daea b93f 2626 d83f 7bde bb3f 1ef1 0540
00000080: 10d2 d13f 00e9 0b40 658b 0040 6fc6 e03f
00000090: 70d5 f33f cdb6 f13f 7dd4 0140 e90c ca3f
000000a0: 6299 1440 e638 0040 2a04 c13f 2728 f23f
000000b0: 3458 0140 fd46 1040 8328 ed3f d7e8 ee3f
000000c0: b45e e13f 0dd9 ef3f e1e9 0d40 b3e2 b13f
000000d0: bae8 bd3f 71b8 e43f 9e06 e73f 76e1 0a40
000000e0: 1828 e53f f77c d63f 86d9 d93f dd9f 0340
000000f0: f138 be3f 112c d13f 476c df3f 7f62 c03f

features.module.9.bias f4 [64]
0.32258987 0.48154497 0.37689164 0.27513528 0.16184133 0.38344875 0.2601546 0.517823
0.18488032 0.37182143 0.16623871 0.46196008 0.27999502 0.49415147 0.38529137 0.33840966
0.30552962 0.30455846 1.1007514 0.2984648 0.28505328 0.9873722 0.24014726 0.45543912
0.8160215 0.24973232 0.30063522 0.22975665 0.19580315 0.32737255 0.2081183 0.4334855
0.30817798 1.1437154 0.94977593 0.23690286 0.36941332 0.8871698 0.46782172 0.25975078
0.59716004 1.055192 0.24059148 0.26672176 0.45866662 0.34764102 0.3524828 0.32777014
0.3033983 0.41277325 0.98146874 0.17720069 0.20040727 0.38734156 0.37918305 0.7399783
0.36441034 0.27509293 0.29076305 0.30991158 0.21399705 0.2872817 0.29986757 0.21067213
00000000: 802a a53e 108d f63e f1f7 c03e 88de 8c3e
00000010: bcb9 253e 6553 c43e fc32 853e 0c90 043f
00000020: 4451 3d3e 615f be3e 7b3a 2a3e 0886 ec3e
00000030: 825b 8f3e 6c01 fd3e e944 c53e 0844 ad3e
00000040: 616e 9c3e 16ef 9b3e 6ce5 8c3f 61d0 983e
00000050: 81f2 913e 6dc4 7c3f 2ae9 753e 512f e93e
00000060: c9e6 503f d4b9 7f3e dcec 993e 5445 6b3e
00000070: 9f80 483e 609d a73e f71c 553e d0f1 dd3e
00000080: 81c9 9d3e 4465 923f 8424 733f aa96 723e
00000090: be23 bd3e 8f1d 633f 5486 ef3e 0efe 843e
000000a0: 7bdf 183f 8810 873f 9d5d 763e c18f 883e
000000b0: 5ad6 ea3e 01fe b13e a078 b43e 7dd1 a73e
000000c0: 0657 9b3e 0457 d33e 8941 7b3f 1974 353e
000000d0: 9037 4d3e a251 c63e 4824 c23e 386f 3d3f
000000e0: fe93 ba3e fbd8 8c3e e5de 943e bbac 9e3e
000000f0: 0b22 5b3e 9616 933e 3e88 993e 6fba 573e

features.module.9.running_mean f4 [64]
0.32404417 -0.035766266 0.31719112 -0.09091161 -0.04193662 0.22625773 0.0053186575 0.34275723
0.12936835 -0.11360283 0.39278793 0.35376602 0.052944012 0.10291984 0.47482756 0.15384679
0.3378019 0.3950834 -0.112768225 -0.18746755 0.38850814 0.31504235 0.039610963 0.25789958
0.23218256 -0.02217452 0.08336481 0.17605446 0.06987124 0.18571632 0.040918335 0.55722517
0.4162207 -0.002954044 0.30551004 0.23815978 0.5356327 0.20419616 0.22114594 0.44289258
0.19524254 0.034782004 0.09820356 0.21926327 0.050101552 0.22311817 -0.06748547 0.013445178
0.41235393 0.21565126 -0.16565613 0.022731304 0.22623965 0.42261916 0.3256883 0.41401047
0.33975798 -0.16527694 0.40846112 0.39739487 0.36282337 0.47706598 0.5390363 0.15988353
00000000: 1ee9 a53e a67f 12bd e066 a23e de2f babd
00000010: bcc5 2bbd 1bb0 673e 2248 ae3b e07d af3e
00000020: 2379 043e 9aa8 e8bd 801b c93e d220 b53e
00000030: d2db 583d a3c7 d23d 991c f33e 038a 1d3e
00000040: 5ff4 ac3e 5f48 ca3e 07f3 e6bd 7ef7 3fbe
00000050: 8aea c63e 3b4d a13e 1b3f 223d 6a0b 843e
00000060: 44c1 6d3e 57a7 b5bc 2bbb aa3d 9f47 343e
00000070: a718 8f3d 6b2c 3e3e fc99 273d 4fa6 0e3f
00000080: e11a d53e a298 41bb d06b 9c3e 28e0 733e
00000090: 3a1f 093f cc18 513e 1574 623e d1c2 e23e
000000a0: a9ed 473e 9377 0e3d f31e c93d 8d86 603e
000000b0: 4937 4d3d 1779 643e d235 8abd 2a49 5c3c
000000c0: 0e20 d33e afd3 5c3e c3a1 29be 0037 ba3c
000000d0: 5eab 673e 8a61 d83e 9ec0 a63e 2ef9 d33e
000000e0: c2f4 ad3e 5c3e 29be d121 d13e 5777 cb3e
000000f0: fcc3 b93e fe41 f43e 48fe 093f 82b8 233e

features.module.9.running_var f4 [64]
0.2628286 0.28412485 0.21076183 0.26753443 0.2608544 0.21049634 0.2229028 0.20922819
0.21058744 0.28662673 0.16438359 0.24105191 0.21552633 0.21685022 0.22413076 0.25888297
0.2253062 0.20176724 0.18881242 0.27156278 0.21949044 0.15194105 0.21743895 0.2858549
0.28703803 0.28576428 0.25920695 0.2204223 0.25496644 0.20923537 0.2888225 0.21492372
0.19537638 0.16057073 0.18247734 0.24051614 0.2195338 0.14420584 0.25572616 0.15222183
0.34410352 0.1710282 0.19998439 0.25459242 0.23976646 0.2691651 0.27790445 0.24215542
0.21693599 0.22002211 0.37375206 0.1961373 0.18205556 0.18182668 0.19587632 0.27109087
0.17391649 0.22192672 0.14461297 0.24721345 0.13897982 0.1865156 0.13317317 0.19570607
00000000: 7891 863e d078 913e f3d1 573e 46fa 883e
00000010: b58e 853e 5a8c 573e a240 643e ea3f 563e
00000020: 3ca4 573e bdc0 923e 2c54 283e 50d6 763e
00000030: efb2 5c3e fc0d 5e3e 8982 653e 4f8c 843e
00000040: abb6 663e 129c 4e3e 0b58 413e 470a 8b3e
00000050: 1ac2 603e 6f96 1b3e 51a8 5e3e 935b 923e
00000060: a6f6 923e b24f 923e c6b6 843e 62b6 613e
00000070: f68a 823e cc41 563e 8be0 933e f714 5c3e
00000080: bf10 483e a76c 243e 57db 3a3e dd49 763e
00000090: 78cd 603e b2aa 133e 8aee 823e 0ae0 1b3e
000000a0: 562e b03e 0422 2f3e b5c8 4c3e f059 823e
000000b0: 5785 753e 02d0 893e 7e49 8e3e 97f7 773e
000000c0: 7824 5e3e 7a4d 613e 6e5c bf3e 37d8 483e
000000d0: c66c 3a3e c630 3a3e cd93 483e 6ccc 8a3e
000000e0: 2a17 323e c240 633e 6c15 143e 8625 7d3e
000000f0: ba50 0e3e f2fd 3e3e 8c5e 083e 2c67 483e

top_layer.weight f4 [10, 64]
-0.09156187 0.014246902 0.1658481 -0.094222106 -0.08914594 0.09793049 -0.029613206 0.27481097
0.05377741 -0.019710237 0.054019827 0.19102763 -0.027044961 0.06973278 0.22406358 -0.10172414
0.14902008 0.22647609 -0.20874262 -0.097934894 0.13039884 -0.13304265 0.05044676 -0.14444408
-0.19088869 -0.03319905 0.062161975 0.12069061 -0.046971742 0.11961149 0.008797526 0.33670074
0.18084165 -0.17747422 -0.1868039 -0.085763 0.27396587 -0.192643 0.12307879 0.20147139
-0.17439157 -0.1734239 0.07290033 -0.056644283 0.13226603 -0.1364654 -0.137738 0.06064144
0.25648448 0.12792507 -0.3096921 0.0549672 0.0397163 0.18384324 0.28982583 -0.18014231
0.22521313 -0.04121079 0.09301183 -0.051028997 0.08164944 0.19178724 0.15957938 -0.011564298
0.44051254 -0.063502036 -0.10059113 0.11688244 0.13987401 -0.11770414 0.20929141 -0.08800722
0.09687656 -0.010704727 0.20589581 -0.14318645 0.2572374 -0.07854263 -0.10855594 0.42700067
-0.09489527 -0.056132324 -0.3025549 0.2678142 -0.1133516 -0.18461964 0.1138136 -0.023540659
-0.072232574 0.11305298 -0.13624223 0.056402117 0.12169609 -0.10448747 0.07402261 -0.05776439
0.08272599 -0.24756783 -0.13141024 0.34850186 -0.03264746 -0.15726648 -0.16796942 0.030308472
-0.011097264 -0.2782668 0.06474815 0.3841697 -0.14906852 0.42611274 0.23102298 -0.10473595
-0.05025051 -0.11913037 -0.27191064 -0.008488865 0.21826491 -0.12166694 -0.050361354 -0.015822282
-0.0640302 0.19657308 0.25068748 0.4183507 0.16454826 0.032624334 0.14615963 0.19041757
-0.06157006 -0.12323901 -0.24282862 0.057258993 0.012027233 -0.28095707 -0.010425113 -0.3122785
-0.09083313 -0.090817474 -0.09098607 -0.27887744 -0.010404649 -0.2695424 -0.26522988 -0.03845142
-0.23501606 -0.21538965 0.40383193 0.012712611 -0.20552546 0.3233421 -0.07413303 0.04144699
0.17119677 0.0013298538 -0.19904894 -0.12654482 0.009527484 -0.23165052 -0.06210747 -0.23441297
-0.20859215 0.47523156 0.27065206 -0.058105834 -0.24958505 0.29894727 -0.2879408 -0.19190863
-0.017926618 0.4356755 -0.11513893 -0.101649 -0.30719757 -0.060479406 0.08604608 -0.23115352
-0.20098203 -0.27846742 0.2995361 -0.059592087 -0.052037463 -0.2570152 -0.2438891 0.09256145
-0.24089679 -0.07351479 -0.17037526 -0.1482339 -0.13229606 -0.20976533 -0.22435623 -0.09503898
-0.027742911 0.0032100102 0.14014608 -0.13567266 -0.06920333 0.18039492 -0.0041246703 0.26671645
0.06791616 -0.048901215 0.11176087 0.18524824 -0.024955858 0.12516034 0.21254614 -0.10777375
0.13724765 0.19923308 -0.30417803 -0.09154761 0.14763324 -0.25998306 0.06693057 -0.20529401
-0.31296054 -0.024702646 0.049569715 0.073640704 -0.033635665 0.15973592 0.011754397 0.27757403
0.20435321 -0.23953763 -0.2510188 -0.04306723 0.26297897 -0.22360642 0.1698071 0.23826857
-0.21434812 -0.2393136 0.053255312 0.011868428 0.119720794 -0.085649334 -0.15591279 0.028310183
0.21118088 0.18185566 -0.3471846 0.027299898 0.07373473 0.22102354 0.23829556 -0.2502891
0.25534862 -0.04363973 0.16301386 0.08863571 0.14710808 0.22120951 0.2862897 0.059010085
00000000: ca84 bbbd d76b 693c 16d4 293e 85f7 c0bd
00000010: 2692 b6bd c88f c83d 6597 f2bc 06b4 8c3e
00000020: b445 5c3d 5d77 a1bc e543 5d3d bf9c 433e
00000030: 658d ddbc 0fd0 8e3d ec70 653e bf54 d0bd
00000040: b898 183e 59e9 673e a0c0 55be 1792 c8bd
00000050: 4687 053e 553c 08be 43a1 4e3d 26e9 13be
00000060: 5378 43be bafb 07bd 8e9d 7e3d a32c f73d
00000070: 7165 40bd def6 f43d 8023 103c 0a64 ac3e
00000080: 8e2e 393e cdbb 35be 8649 3fbe 83a4 afbd
00000090: 4145 8c3e 3544 45be bc10 fc3d 844e 4e3e
000000a0: b493 32be 0996 31be c54c 953d d603 68bd
000000b0: bf70 073e 96bd 0bbe 310b 0dbe 2963 783d
000000c0: ef51 833e cafe 023e f78f 9ebe 4925 613d
000000d0: 8fad 223d 6741 3c3e 0d64 943e 3a77 38be
000000e0: 459e 663e a5cc 28bd fc7c be3d c803 51bd
000000f0: d237 a73d e063 443e c768 233e 2e78 3dbc
00000100: dc8a e13e 5b0d 82bd b902 cebd 1060 ef3d
00000110: 223b 0f3e de0e f1bd 7d50 563e 213d b4bd
00000120: 3867 c63d e162 2fbc 5ad6 523e 789f 12be
00000130: 9fb4 833e f5da a0bd 9452 debd d59f da3e
00000140: 7458 c2bd 02eb 65bd 7ae8 9abe f11e 893e
00000150: e224 e8bd ee0c 3dbe 1b17 e93d 57d8 c0bc
00000160: acee 93bd 5288 e73d 1583 0bbe e805 673d
00000170: cd3b f93d 87fd d5bd 2b99 973d 5a9a 6cbd
00000180: 3e6c a93d 6c82 7dbe 6890 06be d66e b23e
00000190: 58b9 05bd 770a 21be 2d00 2cbe 7949 f83c
000001a0: 4cd1 35bc fc78 8ebe ae9a 843d e4b1 c43e
000001b0: 6ba5 18be 732b da3e 4a91 6c3e cd7f d6bd
000001c0: 7bd3 4dbd a0fa f3bd df37 8bbe e114 0bbc
000001d0: d680 5f3e 842c f9bd b547 4ebd bb9d 81bc
000001e0: 4422 83bd 744a 493e 1c5a 803e 1032 d63e
000001f0: 577f 283e 18a1 053d dfaa 153e d3fc 423e
00000200: e330 7cbd bc64 fcbd 11a8 78be 6888 6a3d
00000210: df0d 453c 9bd9 8fbe 18ce 2abc f8e2 9fbe
00000220: b806 babd 83fe b9bd e856 babd 06c9 8ebe
00000230: 4378 2abc 7601 8abe 36cc 87be 3c7f 1dbd
00000240: 0da8 70be 1b8f 5cbe 0fc3 ce3e 8e48 503c
00000250: 4475 52be 198d a53e 0fd3 97bd 52c4 293d
00000260: 354e 2f3e 7d4e ae3a 7cd3 4bbe f794 01be
00000270: 2a19 1c3c cb35 6dbe 6764 7ebd f409 70be
00000280: 2e99 55be 8d51 f33e e892 8a3e 6200 6ebd
00000290: 3993 7fbe 9e0f 993e fa6c 93be b283 44be
000002a0: d8da 92bc dc10 df3e f6cd ebbd 5a2d d0bd
000002b0: 0049 9dbe 41b9 77bd ed38 b03d 82b3 6cbe
000002c0: 3cce 4dbe 4893 8ebe cc5c 993e d516 74bd
000002d0: 3c25 55bd 7f97 83be 10be 79be dc90 bd3d
000002e0: a6ad 76be ec8e 96bd da76 2ebe a1ca 17be
000002f0: 9e78 07be b9cc 56be a4bd 65be cca3 c2bd
00000300: 1a45 e3bc 095f 523b 7482 0f3e c6ed 0abe
00000310: 7aba 8dbd 72b9 383e 3e28 87bb 0f8f 883e
00000320: a117 8b3d a44c 48bd e2e2 e43d b7b1 3d3e
00000330: 3a70 ccbc 082a 003e b2a5 593e 7cb8 dcbd
00000340: a68a 0c3e c203 4c3e 39bd 9bbe 507d bbbd
00000350: 2b2d 173e 801c 85be e512 893d 9838 52be
00000360: 5d3c a0be 345d cabc 9d09 4b3d f0d0 963d
00000370: 8dc5 09bd d091 233e 8495 403c 2f1e 8e3e
00000380: f841 513e 5a49 75be 8985 80be 4467 30bd
00000390: 2ea5 863e 15f9 64be eae1 2d3e adfc 733e
000003a0: 137e 5bbe a00e 75be 3e22 5a3d cc73 423c
000003b0: 2d30 f53d eb68 afbd 9aa7 1fbe c2ea e73c
000003c0: cd3f 583e 5f38 3a3e 2ec2 b1be 09a4 df3c
000003d0: 3c02 973d ff53 623e c003 743e e525 80be
000003e0: 0ebd 823e 93bf 32bd 1bed 263e a486 b53d
000003f0: 80a3 163e bf84 623e 9094 923e 8fb4 713d

top_layer.bias f4 [10]
-0.13526349 -0.272525 0.18193059 -0.12437831 0.12657996 0.012005631 0.024687463 0.040563144
0.06199152 0.084406234
00000000: 8382 0abe 6688 8bbe 034c 3a3e 0eba febd
00000010: 2d9e 013e 44b3 443c 5d3d ca3c 8a25 263d
00000020: d2ea 7d3d 2ddd ac3d

momentum_buffer f4 [16, 1, 3, 3]
-0.004103156 0.006741486 0.0015532128 -0.020948749 -0.0010144699 0.010866584 -0.047711357 -0.03058503
-0.0090321 0.09284788 0.08941908 0.05945956 0.04292775 0.05028166 0.053882025 -0.02029157
0.041962624 0.06793173 -0.024485499 -0.06011167 -0.09956791 -0.03635664 -0.07560676 -0.08037107
-0.056807432 -0.07023962 -0.03146853 -0.010927768 -0.007286953 0.0007143859 -0.0031082984 -0.035341304
-0.019388558 -0.080048114 -0.07313904 -0.044544697 0.019685687 -0.019079363 -0.040384192 -0.016043423
-0.024357982 -0.008845906 -0.057456158 -0.015721882 0.037176847 0.15134053 0.1857372 0.19572012
0.15906513 0.20870852 0.18835527 0.07082593 0.117697634 0.09466852 0.0129538085 0.01568177
0.036419272 0.03833097 0.020527216 0.044218563 0.014850594 0.0062968954 0.026178036 -0.008459937
0.016541258 0.024286844 -0.012668282 0.00042053312 0.032729052 -0.036606334 -0.012145683 0.030319996
-0.088460684 -0.021584947 0.09243086 -0.035667285 0.089341775 0.18648537 0.037959144 0.1596147
0.21471277 0.027896302 -0.009231696 -0.032624595 0.018522514 -0.01365685 -0.039313763 -0.017056849
-0.012778653 0.0013541915 -0.060617276 -0.06619921 -0.031020576 -0.06955924 -0.08161153 -0.052740067
-0.054824285 -0.053251833 -0.042104684 -0.05712539 -0.10079433 -0.1016601 -0.05115743 -0.060565956
-0.064057976 -0.02459938 -0.023587614 -0.0177378 0.0034351961 -0.011454167 -0.030874088 -0.020872198
-0.06362525 -0.10097315 -0.057310324 -0.111679465 -0.13949086 -0.001556683 0.0013380082 0.00017956621
-0.0010942448 0.0017150783 0.001277334 -0.0030601625 0.0018122208 0.00095842197 -0.11898816 -0.13084222
-0.055382907 -0.13567501 -0.173671 -0.0835477 -0.078131504 -0.14621052 -0.08074738 -0.0015957989
0.00044078217 -0.0045517394 -0.040665288 -0.047489733 -0.037513614 -0.08145399 -0.08208996 -0.0773398
00000000: c473 86bb afe7 dc3b 2c95 cb3a b69c abbc
00000010: f6f7 84ba c209 323c fc6c 43bd 758d fabc
00000020: 60fb 13bc 0827 be3d 5a21 b73d de8b 733d
00000030: 02d5 2f3d 24f4 4d3d 66b3 5c3d 823a a6bc
00000040: 00e1 2b3d ca1f 8b3d d095 c8bc a837 76bd
00000050: 43ea cbbd b3ea 14bd b8d7 9abd 9699 a4bd
00000060: e9ae 68bd cad9 8fbd 25e5 00bd 620a 33bc
00000070: 64c7 eebb a045 3b3a 98b4 4bbb 0bc2 10bd
00000080: c1d4 9ebc 44f0 a3bd ecc9 95bd 8074 36bd
00000090: e143 a13c 534c 9cbc e569 25bd 7f6d 83bc
000000a0: 648a c7bc 6bee 10bc 2657 6bbd 2dcb 80bc
000000b0: c046 183d 03f9 1a3e e431 3e3e db6a 483e
000000c0: f8e1 223e b0b7 553e 34e0 403e 2f0d 913d
000000d0: 750b f13d 92e1 c13d 363c 543c 0e77 803c
000000e0: 602c 153d ef00 1d3d b128 a83c 861e 353d
000000f0: e84f 733c 3056 ce3b 5273 d63c 8c9b 0abc
00000100: 8881 873c 34f5 c63c a08e 4fbc 007b dc39
00000110: e60e 063d 86f0 15bd b0fe 46bc a461 f83c
00000120: e02a b5bd ead2 b0bc 644c bd3d dc17 12bd
00000130: d2f8 b63d 05f6 3e3e 0c7b 1b3d 0972 233e
00000140: aadd 5b3e c986 e43c 8a40 17bc 5ea1 05bd
00000150: 87bc 973c fbc0 5fbc 7807 21bd ceba 8bbc
00000160: 8e5d 51bc 207f b13a d249 78bd 7493 87bd
00000170: dd1e febc 1375 8ebd f223 a7bd f805 58bd
00000180: 6e8f 60bd 981e 5abd f675 2cbd 50fc 69bd
00000190: 426d cebd 2c33 d0bd 748a 51bd 0214 78bd
000001a0: d430 83bd a484 c9bc d03a c1bc dd4e 91bc
000001b0: 0721 613b 42aa 3bbc a8eb fcbc 2cfc aabc
000001c0: f44d 82bd 03cb cebd 3bbe 6abd 34b8 e4bd
000001d0: b1d6 0ebe 9d09 ccba 1b60 af3a f049 3c39
000001e0: c36c 8fba 7acc e03a 386c a73a 028d 48bb
000001f0: 0a88 ed3a 9c3e 7b3a 10b0 f3bd 81fb 05be
00000200: 30d9 62bd 64ee 0abe d0d6 31be 0e1b abbd
00000210: 6903 a0bd 36b8 15be e25e a5bd 202a d1ba
00000220: c818 e739 c226 95bb a590 26bd 9884 42bd
00000230: e0a7 19bd 59d1 a6bd c81e a8bd 5464 9ebd

momentum_buffer f4 [16]
-5.7366724e-06 6.9581715e-06 1.7038528e-05 2.6785718e-05 3.037745e-05 -2.6326834e-05 8.353889e-06 -1.43440075e-05
-3.64714e-06 -2.4803245e-05 3.0243109e-05 -2.4389017e-05 1.7806002e-05 1.1697156e-05 1.08686545e-05 -1.7984046e-05
00000000: a47d c0b6 3d7a e936 f6ed 8e37 e4b1 e037
00000010: 14d3 fe37 72d8 dcb7 ae27 0c37 0ba7 70b7
00000020: 63c1 74b6 9010 d0b7 95b2 fd37 0497 ccb7
00000030: 195e 9537 e73e 4437 8458 3637 72dc 96b7

momentum_buffer f4 [16]
0.07391488 0.057784367 -0.027302114 -0.016622387 -0.0053847134 0.08160536 0.0021178646 0.01929862
0.04038015 -0.01792853 -0.021029938 -0.029414024 -0.050634652 0.016083322 -0.04647801 0.01182556
00000000: af60 973d 4daf 6c3d afa8 dfbc ac2b 88bc
00000010: 4072 b0bb b620 a73d dfcb 0a3b 2418 9e3c
00000020: a865 253d dade 92bc fa46 acbc aef5 f0bc
00000030: 4866 4fbd 2cc1 833c ba5f 3ebd febf 413c

momentum_buffer f4 [16]
0.03342471 0.045516863 0.018594822 0.0067255516 0.008512557 0.0340507 -0.013633044 0.016957188
0.022775445 -0.009770509 0.0018200744 -0.010380871 -0.014370348 0.029311132 -0.06782255 0.027872887
00000000: 59e8 083d e46f 3a3d 2b54 983c 0462 dc3b
00000010: 4078 0b3c bf78 0b3d 225d 5fbc cde9 8a3c
00000020: 9293 ba3c 7c14 20bc 908f ee3a 8714 2abc
00000030: 9c71 6bbc e61d f03c 8de6 8abd ae55 e43c

momentum_buffer f4 [32, 16, 3, 3]
-0.005924152 0.0023789993 0.00712369 -0.014751273 -0.0006889375 0.00969145 -0.0137437275 -0.004018602
-0.005425079 -0.0016744137 0.0049201064 -0.0036121076 0.010885287 0.0018745018 0.0025898963 0.014685944
0.010940902 0.004343588 0.022218779 0.010821598 0.0070316815 0.01120064 0.018929413 0.0028148259
0.005902487 0.008654781 0.0076614176 -0.0016232496 0.0007837035 -0.002206779 0.002294396 0.0018264267
-0.019898117 0.0029689977 -0.016325887 -0.029259793 -0.004181084 0.0059044883 0.006168469 -0.0021391236
0.0011824176 1.0854099e-05 0.005268178 0.0041901884 0.00085638376 0.0060107615 0.0026352226 0.0006504981
-0.006749615 0.0053804074 0.008206895 0.004122099 -0.0022805827 -0.0065568085 -0.0093309935 -0.007201357
-0.009717462 -0.016006544 -0.0114223715 -0.019771686 -0.023768142 -0.027314004 -0.02432147 -0.0064422153
-0.003007914 0.0017411532 -0.005332557 -0.009382534 -0.022851279 -0.0013033287 -0.028428447 -0.03539294
0.016655667 0.013735904 0.024384955 0.008769167 0.0150913615 0.017200656 0.012122587 0.012240559
0.014042571 -0.0050381795 -0.003261312 -0.010885427 -0.004382856 -0.0051191263 -0.01533854 -0.002244982
-0.012991186 -0.016717575 0.0035480512 -0.006454393 0.018674422 -0.017416896 0.008558814 0.022809712
-0.0029964112 0.013349392 0.027801791 0.010569147 0.0066910526 0.0010670624 0.0039974907 0.0037638382
0.0021901175 0.00460463 0.00037298328 -0.0020292313 0.04203567 0.026067939 0.0050589293 0.03604254
0.030031547 0.023189519 0.026000518 0.02878559 0.014412915 0.0034709484 0.00243437 0.001744532
0.0012877183 -0.0014783563 -0.0004473566 -0.001421202 -0.0040054745 -0.0023885737 0.0065114745 0.013535865
0.009202001 0.0052934024 0.0055019925 0.0061678686 0.004349688 0.0055734664 0.0027271872 0.0024113106
0.00039538648 0.0025010626 -0.00072329794 -0.0017138065 -0.0019324163 0.0003969334 0.00018461049 -0.00052588107
-0.008324039 -0.008320666 -0.010242493 -0.010582491 -0.017578214 -0.008652159 -0.0130065335 -0.011336993
-0.00039277202 -0.016011154 -0.020436022 -0.0041689263 -0.016217954 -0.006405301 -0.0037676992 -0.0062971087
-0.0033339988 -0.003922656 0.001555793 0.0070183557 -0.00050900615 -0.005985261 0.0059411833 0.00396019
-0.007097242 0.0027543735 0.005846698 0.0018309399 -0.0032307936 -0.0041324496 -0.0016925376 -0.0016426988
-0.0009582357 3.018626e-05 -0.002218915 0.00108582 -0.020283243 -0.019440308 -0.012999396 -0.018742641
-0.01969717 -0.004742455 -0.01907999 -0.012198532 -0.002143762 -0.009322481 -0.032346915 -0.019219428
-0.024549283 -0.028919833 -0.016851733 -0.031840913 -0.002733742 -0.008933782 0.0055647306 -0.003665999
-0.010998739 -0.001749661 -0.00613568 -0.006445259 -0.00235308 -0.011970191 -0.0033456627 -0.011090743
-0.0065672034 -0.0049129156 -0.0072038113 -0.013934239 -0.0062524606 -0.010922134 -0.009689337 -0.0046150154
-0.012904918 -0.0017979611 0.0011132383 -0.0125774415 -0.009649323 -0.0061964234 -0.006154417 -0.012025756
-0.0049691387 0.0041995775 -0.0025794124 -0.0010603731 -0.0064733443 -0.002687527 -0.0023001991 -0.002463806
-0.001852874 0.0033182935 -0.025021557 -0.011402757 -0.007975077 -0.018269293 -0.018031722 -0.017999552
-0.02830451 -0.02492239 -0.013959913 0.0047372277 0.00066020014 -0.005022797 0.0005290909 0.0048257383
0.0043076384 -0.00096596964 0.007117766 0.0016828347 -0.00042097294 -0.0013732859 -0.012897138 0.0021932705
00000000: 641f c2bb fce8 1b3b d86d e93b 53af 71bc
00000010: d099 34ba e3c8 1e3c 5f2d 61bc 7aae 83bb
00000020: dcc4 b1bb 0078 dbba d838 a13b 1cb9 6cbb
00000030: 3458 323c d8b1 f53a 40bb 293b 509d 703c
00000040: 7841 333c a854 8e3b 2804 b63c 124d 313c
00000050: 056a e63b e482 373c db11 9b3c f178 383b
00000060: a669 c13b c8cc 0d3c a10c fb3b 38c3 d4ba
00000070: 7471 4d3a 9c9f 10bb 945d 163b b664 ef3a
00000080: 6001 a3bc 8493 423b debd 85bc 3cb2 efbc
00000090: 7a01 89bb 707a c13b de20 ca3b 8a30 0cbb
000000a0: 5afb 9a3a 001a 3637 aea0 ac3b d94d 893b
000000b0: f17e 603a ecf5 c43b b3b3 2c3b 3086 2a3a
000000c0: e02b ddbb 214e b03b 3676 063c ac12 873b
000000d0: d475 15bb 7fda d6bb 06e1 18bc 5cf9 ebbb
000000e0: fd35 1fbc 2820 83bc e624 3bbc 3bf8 a1bc
000000f0: 68b5 c2bc 9ec1 dfbc d23d c7bc 3819 d3bb
00000100: 6c20 45bb 6837 e43a bbbc aebb 33b9 19bc
00000110: 9b32 bbbc 74d4 aaba c6e2 e8bc 30f8 10bd
00000120: 7771 883c 8f0c 613c f5c2 c73c 8dac 0f3c
00000130: c241 773c 64e8 8c3c d19d 463c a08c 483c
00000140: d012 663c 5017 a5bb bcbb 55bb ca58 32bc
00000150: 109e 8fbb 58be a7bb 804e 7bbc 8c20 13bb
00000160: fcd8 54bc 4cf3 88bc 6c86 683b 5f7f d3bb
00000170: 1afb 983c e1ad 8ebc 453a 0c3c 6fdb ba3c
00000180: 705f 44bb 69b7 5a3c 95c0 e33c 372a 2d3c
00000190: 9e40 db3b acdc 8b3a 62fd 823b baaa 763b
000001a0: 1388 0f3b 70e2 963b f88c c339 dafc 04bb
000001b0: 982d 2c3d 6e8c d53c 60c5 a53b 58a1 133d
000001c0: b804 f63c f2f7 bd3c 0aff d43c c2cf eb3c
000001d0: 2624 6c3c da78 633b f489 1f3b c8a8 e43a
000001e0: a8c8 a83a 68c5 c1ba 308b eab9 a047 baba
000001f0: 5b40 83bb 9e89 1cbb 355e d53b 88c5 5d3c
00000200: fdc3 163c 4774 ad3b 0f4a b43b d51b ca3b
00000210: d487 8e3b a0a1 b63b 9cba 323b 1407 1e3b
00000220: e04b cf39 dee8 233b b49b 3dba cea1 e0ba
00000230: 2249 fdba 801b d039 0094 4139 48db 09ba
00000240: 8d61 08bc 6753 08bc 21d0 27bc 2f62 2dbc
00000250: 3000 90bc c9c1 0dbc 5b19 55bc ccbe 39bc
00000260: f8ec cdb9 d329 83bc 7269 a7bc 7d9b 88bb
00000270: 84db 84bc 8fe3 d1bb 81eb 76bb fa57 cebb
00000280: 387f 5abb a089 80bb c0eb cb3a 3cfa e53b
00000290: d36e 05ba 0220 c4bb 42ae c23b 7bc4 813b
000002a0: fb8f e8bb b882 343b a895 bf3b 26fc ef3a
000002b0: b9bb 53bb 8069 87bb 23d8 ddba d34f d7ba
000002c0: 1c32 7bba 8038 fd37 376b 11bb 1352 8e3a
000002d0: 0b29 a6bc 4841 9fbc 6bfb 54bc 2b8a 99bc
000002e0: f65b a1bc 9966 9bbb a44d 9cbc 5adc 47bc
000002f0: 5c7e 0cbb 52bd 18bc 337e 04bd 1072 9dbc
00000300: 941b c9bc 49e9 ecbc a50c 8abc 9e6b 02bd
00000310: 9428 33bb ff5e 12bc 5858 b63b 4241 70bb
00000320: 0e34 34bc e254 e5ba d00d c9bb c032 d3bb
00000330: 2236 1abb 9f1e 44bc e842 5bbb f3b5 35bc
00000340: b231 d7bb 86fc a0bb f30d ecbb 6f4c 64bc
00000350: 71e1 ccbb c0f2 32bc 06c0 1ebc 8e39 97bb
00000360: 266f 53bc 90a9 ebba 14ea 913a 9d11 4ebc
00000370: 3218 1ebc 5e0b cbbb feaa c9bb ad07 45bc
00000380: 28d4 a2bb 9c9c 893b 5c0b 29bb 38fc 8aba
00000390: 591e d4bb 3921 30bb f0be 16bb ce77 21bb
000003a0: 22dc f2ba ba77 593b 02fa ccbc a1d2 3abc
000003b0: e6a9 02bc 7ca9 95bc 43b7 93bc cc73 93bc
000003c0: dcde e7bc 0a2a ccbc 1eb8 64bc bf3a 9b3b
000003d0: 4811 2d3a 4696 a4bb b0b2 0a3a 3a21 9e3b
000003e0: 1727 8d3b 2039 7dba 263c e93b 9092 dc3a
000003f0: 08b6 dcb9 d4ff b3ba 844e 53bc f9bc 0f3b

momentum_buffer f4 [32]
2.1512521e-06 4.138002e-06 -7.5884423e-06 -5.740421e-06 -7.952114e-06 3.834949e-06 6.2095082e-06 -7.976851e-06
2.1646447e-06 1.7015077e-06 -4.427868e-06 1.830442e-06 6.3994107e-06 8.0837435e-06 3.591285e-06 -1.593699e-06
-4.688799e-06 -3.1686222e-06 3.691814e-08 -5.8579246e-07 6.0918005e-06 -7.4525187e-06 7.1789356e-07 -2.6505754e-06
6.898576e-07 7.981073e-06 2.8139763e-07 -1.450363e-06 -2.8168351e-06 -8.248805e-06 -7.515844e-06 3.60731e-06
00000000: 3b5e 1036 2bd9 8a36 39a0 feb6 d79d c0b6
00000010: 126a 05b7 f6ad 8036 455b d036 50d4 05b7
00000020: 5044 1136 5c5f e435 1993 94b6 82ad f535
00000030: 85ba d636 6a9f 0737 ce01 7136 15e7 d5b5
00000040: 7a54 9db6 84a4 54b6 ed8f 1e33 5a3f 1db5
00000050: 2b68 cc36 a610 fab6 45b5 4035 8ae0 31b6
00000060: a72e 3935 73e6 0537 ff12 9734 18aa c2b5
00000070: dc08 3db6 5964 0ab7 9c30 fcb6 1d15 7236

momentum_buffer f4 [32]
-0.00057652406 -0.004458064 -0.0028856173 0.020964054 0.008359736 0.0028538436 0.036063872 0.02057215
0.00780504 0.0058004963 0.0028473346 -0.006493403 -0.0029441942 -0.006943223 -0.006234191 -0.0032500462
0.019139508 -0.012773191 -0.011339664 0.0070593446 -0.0015261611 2.3813918e-06 -0.0026626843 -0.0097958995
0.014135543 0.0038576997 -0.04064039 -0.003112508 0.002524742 0.019840037 0.0031379014 0.02818477
00000000: e021 17ba f414 92bb a01c 3dbb cfbc ab3c
00000010: 46f7 083c 8d07 3b3b b6b7 133d ed86 a83c
00000020: 6cc1 ff3b 1712 be3b 599a 3a3b 9dc6 d4bb
00000030: 62f3 40bb fa83 e3bb 2f48 ccbb bafe 54bb
00000040: 75ca 9c3c a546 51bc 00ca 39bc 1352 e73b
00000050: 7809 c8ba 00d0 1f36 6e80 2ebb fb7e 20bc
00000060: c498 673c 76d1 7c3b 8a76 26bd 38fb 4bbb
00000070: 2476 253b 9387 a23c 40a5 4d3b bfe3 e63c

momentum_buffer f4 [32]
0.010227799 0.021588236 0.010819767 0.04335584 0.014192983 0.018919567 0.036464293 0.02023643
0.012727514 0.013561172 -0.007824998 0.015573272 0.0033465475 -0.005769506 -0.013378436 0.017011313
0.0074744374 0.005190257 0.0108123375 -0.004858339 0.017334603 0.027374156 0.007289367 0.0067785913
0.014203772 0.022374729 -0.0015240554 -0.007658763 0.014448281 0.017848168 0.0031759674 0.020137653
00000000: 8092 273c d0d9 b03c 6445 313c e595 313d
00000010: af89 683c 35fd 9a3c 955b 153d dfc6 a53c
00000020: 1087 503c ae2f 5e3c 6c34 00bc 0927 7f3c
00000030: c051 5b3b 200e bdbb 3a31 5bbc 4f5b 8b3c
00000040: 20ec f43b 0813 aa3b 3b26 313c b432 9fbb
00000050: 4c01 8e3c c43f e03c a4db ee3b f21e de3b
00000060: f0b6 683c 354b b73c d0c2 c7ba 5cf6 fabb
00000070: 7cb8 6c3c 5236 923c e423 503b b8f7 a43c
