deepcluster_implementation/experiments/run_label_fraction_variation/config_1/checkpoints/checkpoint_epoch_11.pth.tar (torch, 203741 bytes, 32 tensors)

features.module.0.weight f4 [16, 1, 3, 3]
00000000: 79e5 8f3f 780a 10bd 0cf8 dfbe 840e edbd
00000010: 299c 863e cb4b afbe d832 85bd f693 06be
00000020: 2223 b03f f008 0bbf f407 3abd 5c3c 8a3f
00000030: 1e28 12bf 5a63 c93e 9818 27be 392b b03f
00000040: f29c 07bd 62c4 2abf c857 90bf 16be 3c3e
00000050: 510f 673f e0d9 d9be cb0b 253f 13dd 1d3e
00000060: a7db a2bf e32e 3dbe 5120 e3be 3900 76bf
00000070: d706 5bbf 29a4 67bf 8552 0dbf cbe3 f03e
00000080: 34f1 a9bd 747b 10bf 0ddd 6a3e 4575 643f
00000090: 57e5 e63e 9378 153e d3e5 aa3e 506d 853d
000000a0: a5ac 1abd 7e24 153e b315 8b3f 3ec9 513e
000000b0: b733 ad3f 1461 a8bf 7a12 ad3f 2659 303e
000000c0: fc9f 0cbf da3f 06be 341e c2bf 727e b53f
000000d0: a4a2 51bf 64f1 fb3c 65be 1e3f 758d 993f
000000e0: ab47 943e 67af 45bf 1f93 193f 218d 32bf
000000f0: 8fd4 a6bf 32c9 a1be 12ca 94bf 580d 513a
00000100: c3dc b2bf a8bf 93bf 0716 443e 705f 273e
00000110: 5797 dbbe a7ac 683f 25c8 9d3f ab3c 7f3f
00000120: 4776 833c 59d6 c0bf 75ab 9cbf 2047 213d
00000130: d88d 19bd 7559 bebd 17f3 e13f 9d02 743f
00000140: dcb5 ebbf 5fa4 36bf 93b0 29bf 6f82 813d
00000150: d4e6 c43f 518f 493f 903f 643f 2773 c4be
00000160: a395 37bf 1be8 a6be 4a10 8d3f b872 7dbd
00000170: 96d4 1dbe fbd8 193d 865b 03bf 69f3 eabe
00000180: ad78 693f c51f b83e 6faa a5be b339 72bf
00000190: e0a4 663e 192f 823f 9c4e 00bf a743 e8bd
000001a0: db3d 523e 2e1a c6be 2654 34bf 606e 6ebf
000001b0: fd22 303f 5cb2 1c3d c27d 903f c23b be3d
000001c0: bd19 a4be 236a 1abc 51f6 28bf 46a4 2abf
000001d0: 8115 673f 8bbe 1dbf 4618 043f 5d43 9bbf
000001e0: f68a f6be faaf 353f ce89 313e 877f 56bf
000001f0: dde6 b33d 8964 95be f2de 0dbf f302 d7bd
00000200: eb77 5ebf 6480 91bf 2f6a 4040 9d61 17bf
00000210: 7778 82bf f00b 933e 6166 adbf c3f7 9ebf
00000220: 2bdb 62bf e5b1 6cbf 9869 a43e b8c5 133f
00000230: eab5 6fbf de84 3e3f b80f dd3e de8e 9cbe
1.1241904 -0.035166234 -0.43743932 -0.11575034 0.26291016 -0.34237513 -0.06503838 -0.1314238
1.3760722 -0.5431051 -0.04541774 1.079967 -0.57092464 0.39333612 -0.16317976 1.376319
-0.03310866 -0.66705906 -1.1276789 0.18431887 0.90257746 -0.42549038 0.6447112 0.15416364
-1.2723283 -0.18474917 -0.44360593 -0.9609409 -0.8555731 -0.90484864 -0.5520404 0.47048792
-0.08297959 -0.56438375 0.22935887 0.8924144 0.45096847 0.14596777 0.33378467 0.0651499
-0.037762303 0.14564702 1.0865997 0.20486924 1.3531407 -1.3154626 1.3521264 0.17221507
-0.54931617 -0.13110295 -1.5165467 1.4179213 -0.81888795 0.030754752 0.6200927 1.1996294
0.28960928 -0.7722077 0.59990114 -0.69746596 -1.3033618 -0.31598812 -1.1624167 0.00079747057
-1.3973621 -1.1542864 0.19149028 0.16345 -0.428889 0.90888447 1.2326704 0.99701947
0.01604761 -1.5065414 -1.2239825 0.03937447 -0.03748879 -0.09294406 1.765231 0.9531649
-1.8414874 -0.7134456 -0.66285056 0.06323706 1.5382943 0.7873431 0.8915949 -0.38369104
-0.717127 -0.32598957 1.1020596 -0.061876982 -0.15413126 0.037560444 -0.5131153 -0.45888832
0.9119976 0.35961738 -0.32356593 -0.9461929 0.22523832 1.0170623 -0.5011995 -0.11341029
0.20531408 -0.3869185 -0.704409 -0.9313717 0.6880339 0.038256034 1.1288378 0.09288742
-0.32050887 -0.009424719 -0.6600085 -0.6665691 0.9026719 -0.6161887 0.5159954 -1.2129933
-0.48152894 0.70971644 0.17337725 -0.8378834 0.08784268 -0.29178265 -0.5541831 -0.104986094
-0.8690173 -1.1367307 3.006481 -0.5913332 -1.0193013 0.28720045 -1.3546869 -1.2419361
-0.88615674 -0.92458946 0.32111812 0.5772357 -0.93636954 0.7442149 0.43176055 -0.3057775

features.module.0.bias f4 [16]
00000000: e704 62bd 38b2 883d 66ee 283e 4c16 843e
00000010: bc0b 953e dbba 81be b0b5 a43d 33c0 0cbe
00000020: 0a70 0fbd 3cee 74be 9d07 953e 832a 70be
00000030: 69e3 2e3e 8001 e63d 80ac d43d d9eb 30be
-0.055180456 0.066746175 0.16497192 0.2579826 0.29110515 -0.25337872 0.08042467 -0.13745193
-0.03501896 -0.23919004 0.2910737 -0.23453717 0.17078938 0.11230755 0.10384464 -0.17277469

features.module.1.weight f4 [16]
00000000: a186 a23f b9cf 783f 8640 973f 5ac5 fa3f
00000010: f458 8f3f 4285 9e3f 2952 983f 8e15 633f
00000020: 883e ad3f a5d4 453f c220 593f 242b 0540
00000030: b785 5e3f 523d 0540 8de4 dd3f 6d4a 0840
1.2697335 0.9719196 1.1816566 1.9591477 1.1199021 1.2384417 1.1900073 0.88704765
1.3534708 0.77277595 0.8481561 2.080758 0.8692278 2.0818677 1.7335373 2.1295426

features.module.1.bias f4 [16]
00000000: 7b5a 1ec0 ff90 f3bf 147b a4be 6ca7 2cbf
00000010: afac eabf 0b69 07bf 08d7 a4be 65cc 11bf
00000020: 6519 f9be c119 6ebf 4e6b c5bf dd5f 0dbf
00000030: 0316 9ebf 9c73 27bf 70ce 1cbf 1a4f febe
-2.4742725 -1.9028624 -0.3212515 -0.67442966 -1.8333949 -0.5289466 -0.32195306 -0.56952506
-0.48652187 -0.9300805 -1.5423372 -0.552244 -1.2350467 -0.6541078 -0.612525 -0.49669725

features.module.1.running_mean f4 [16]
00000000: fe81 27bc fd38 b43d 75f6 db3d 0ae4 4b3e
00000010: bbd7 c43e 3816 87be e809 ef3c 4df5 f6bd
00000020: b17e 9fbd 0223 87be 22ad a93e 67e0 8ebe
00000030: 5372 613e be03 0c3d bcec dfbc d2cb 70be
-0.010223864 0.08799932 0.10740367 0.19911209 0.3844584 -0.2638414 0.029179528 -0.12058506
-0.07787836 -0.26393896 0.33139902 -0.2790558 0.22016267 0.034183256 -0.027334563 -0.23515251

features.module.1.running_var f4 [16]
00000000: 4fba 0040 3c6d c43f 7b3d 7040 7895 d140
00000010: 047b 0d41 d676 2840 ef85 b740 6ba7 bc40
00000020: f3ab 0241 b5b0 b33f d508 fa3f 5ac5 9540
00000030: f077 0740 0b18 1940 c6f8 8240 2ab8 bd40
2.0113714 1.5345836 3.7537525 6.5494957 8.842533 2.6322532 5.7350993 5.895437
8.16698 1.4038302 1.9533945 4.680341 2.1166954 2.3920925 4.092868 5.928731

features.module.4.weight f4 [32, 16, 3, 3]
00000000: 7563 e9bd 74be f23c ca40 40be 88a4 243d
00000010: 2f18 353d 22e0 45be f9dd 07be c103 df3d
00000020: b1f4 933e d8ae 93bd 6418 863e 3386 d73e
00000030: b0bd 28be 0a85 bebd c349 4c3c a9c6 52bd
00000040: a3fd fe3d 0040 f13e aa18 b33e f21a 3dbe
00000050: f907 1a3e 061f 623d f0d5 85be b8b2 413c
00000060: 048a b83d 93c5 a6bc 1977 78bc e32a 08bf
00000070: a103 cabe 40c3 303d 090f fbbe 9bca 24be
00000080: 692e 11bc 9572 afbe a3c5 efbd 8afc e43e
00000090: bebb 90bc 1273 80bd 14cb 6ebd 9dd1 16bd
000000a0: fbb5 79bd 8cba 193d abba 48bd 6d1f 77bd
000000b0: 198c 183e 937b 4dbe 5d84 a3bc 9c93 1e3e
000000c0: 8476 8bbd 4d0e f6bc fc64 ba3d 40d3 23be
000000d0: ef90 58bc 64db 21be 19c8 3ebe e6e0 b3bd
000000e0: 379f 143c 22de 7bbe 11e5 34be 1c66 7dbe
000000f0: 1605 97bd 52a8 2abe 45ea babe cdbb 76be
00000100: da7e a23e 260f 0dbd 2453 5fbe e2ab 523e
00000110: 0678 ce3d b99c efbd 5664 533d d5d4 613e
00000120: 34c7 083e cf2d 08be 6756 84be 95af 973e
00000130: b523 5dbd ad5b 82bd 3e20 613e f970 dcbd
00000140: 9e68 ddbd aa2f ccbe bea7 4cbe 40fd 943e
00000150: 6fb5 bebe 47fc 9bbe 8e13 823e 719f d0be
00000160: c7f9 26be a450 793e 794d be3e 5f4c e43d
00000170: 688c 26bc 2541 c5bd 09f1 d2bc ed83 27bd
00000180: 8243 7cbd 49bd 3d3e 1eb1 84be 9b5a 01be
00000190: 8aed 39bd f1bf e53d 9a89 123e 754c 07be
000001a0: aeaa 58bd c031 193e b9b5 093e 761f ddbe
000001b0: d0cf cdbd 2a69 c3be 5350 4c3e bf77 d63d
000001c0: 340b 51be 01da 193d ba02 fa3d f5d4 41bd
000001d0: 1c51 af3d 7a9a c5be ef98 5cbe e8ff fabe
000001e0: 43fe 4dbe 0779 d2bd d76c 6ebe 4497 76be
000001f0: d090 3bbe 6d28 07bf bd39 90be d619 1bbe
00000200: 42b7 c0be beb1 39be 00d3 493c d43f 3ebe
00000210: 2239 59be 0825 1bbd 4ca3 f9be ce5e e0be
00000220: 3bbe dbbd afce cbbe dd90 20bd b98c 083e
00000230: b76b 9dbd 9d31 c5bc 38bb 5fbd 4e6c 21be
00000240: 2e43 2fbc 9320 0cbe 669e d7be 2241 d13d
00000250: 9faa 283c 770d 66be aad5 6fbd a6d8 0bbf
00000260: 096c 04bf 3861 293d 3588 e4bc a738 6b3b
00000270: e307 b7bd 8c30 d9bc 4e44 5dbe a052 d63c
00000280: 32e1 e43d a40c cebd cf04 073d 712f 873c
00000290: 5b08 733e bdba 9cbc 23d2 5cbe feb2 fbbd
000002a0: a8a6 ac3d 67bb cebd 9288 cfbd 42d8 a4be
000002b0: 6220 41be 24d5 d9bd 3492 543c 54f6 3e3e
000002c0: 69eb 97bd a468 68bd fcb8 69bd 3b84 0ebf
000002d0: f25c 333e bf18 c1bc e280 1ebe d894 4e3d
000002e0: b8c8 e03d a601 00be 35b6 b43d e23c 023e
000002f0: f562 9fbe 192a 8c3d b0f0 073d 185f 8fb9
00000300: 928f 283d d338 bfbd 0847 cc3d a66f 703d
00000310: 8647 90bd 89b0 033e 83d6 2d3d 1e20 7a3d
00000320: 78fd cbbd 59f3 c9be 381e 2ebe 97cb f5bd
00000330: 1cc8 a7be 1d40 b8bd 09c5 41be db8b 24bf
00000340: 5668 1abf 686b 32bf b694 95be 0160 a3bd
00000350: 032e 65be 92d9 25bf c328 0fbf 79fe 2fbf
00000360: 539a b2bd 4009 54bd 474c 7dbd 7110 043e
00000370: 91d9 7e3d 778c d93d 2e71 47bb 97dd b9bd
00000380: 7063 c0bd 941b f13d 5542 1abe d5f9 e9be
00000390: ec7b 62bc 602f 693d 10e7 4dbe 8e7f f0bd
000003a0: 71d1 b53d 3bb2 cbbc a6f5 943e 1ba8 123d
000003b0: f1ae 80bc 302c 8d3d 7a18 88ba 5d64 59bd
000003c0: d57a 49bd 6725 b43d 6a01 81bd 0325 4a3d
000003d0: c166 babc 2237 9c3d b46a b2be e292 003d
000003e0: 8323 94bd aa18 40bd 5624 0f3d eafc f2bc
000003f0: 000f b83c bb6d 8cbd 083b 9abe ff8e af3b
-0.11395923 0.02963183 -0.18774715 0.04019597 0.044212516 -0.19323781 -0.1326827 0.10889388
0.28897622 -0.07211083 0.26190484 0.42094573 -0.1647861 -0.09302719 0.012468758 -0.05145899
0.12450721 0.4711914 0.34979755 -0.1846731 0.15042104 0.055205368 -0.26139784 0.011822395
0.090106994 -0.020357883 -0.015165114 -0.5319044 -0.39455894 0.043154955 -0.49034908 -0.16092913
-0.008861163 -0.34267107 -0.11707618 0.44723922 -0.017667647 -0.06271948 -0.05829914 -0.036820997
-0.060964566 0.03753142 -0.049006145 -0.060332704 0.14897193 -0.20066671 -0.019960577 0.15485996
-0.068097144 -0.030036116 0.091012925 -0.15998554 -0.013218149 -0.15806347 -0.18631019 -0.0878313
0.009071163 -0.24596456 -0.17665507 -0.24745983 -0.07374017 -0.16665772 -0.36506858 -0.24095078
0.31737405 -0.034438275 -0.2180906 0.2057338 0.100814864 -0.11699814 0.05160936 0.22053845
0.1335724 -0.13298725 -0.2584717 0.29626146 -0.05398913 -0.06365142 0.21984956 -0.10763735
-0.1081097 -0.39880115 -0.19985864 0.29099464 -0.37247798 -0.3046591 0.25405544 -0.40746644
-0.1630622 0.24347168 0.37168482 0.11147379 -0.010165311 -0.09631566 -0.0257497 -0.0408973
-0.061587818 0.18529238 -0.2591638 -0.1263222 -0.04539255 0.112182505 0.14310303 -0.1321276
-0.052897148 0.14960384 0.13448228 -0.43188065 -0.10049403 -0.3816617 0.19952516 0.104720585
-0.2041443 0.03756142 0.12207551 -0.047322232 0.08560392 -0.3859442 -0.21542715 -0.49023366
-0.20116524 -0.102769904 -0.23283707 -0.24081141 -0.1831696 -0.5279606 -0.2816905 -0.15146574
-0.37639815 -0.1813421 0.012318373 -0.18579036 -0.212132 -0.037877113 -0.48757398 -0.4382233
-0.10729643 -0.39806125 -0.039200652 0.13334931 -0.076865606 -0.024071509 -0.054621905 -0.15763971
-0.010697169 -0.13684301 -0.42113036 0.10217501 0.0102945855 -0.22466074 -0.058553375 -0.54627454
-0.5172735 0.04135248 -0.02789698 0.0035891922 -0.08937051 -0.026512407 -0.21608087 0.026162446
0.11175765 -0.10061005 0.03296357 0.016502114 0.23733656 -0.019132013 -0.21564536 -0.122899994
0.08430225 -0.10094338 -0.101334706 -0.32196242 -0.1886001 -0.106363565 0.012974311 0.18648654
-0.07417948 -0.056740418 -0.05706118 -0.5567052 0.17515925 -0.02357137 -0.15478852 0.050434917
0.10975784 -0.12500629 0.08823816 0.12718537 -0.31130186 0.06843967 0.03318852 -0.00027345936
0.041152544 -0.0933701 0.09974486 0.058700226 -0.07044892 0.12860312 0.042440902 0.061065786
-0.09960455 -0.39443472 -0.17003715 -0.12001722 -0.3276986 -0.08996604 -0.18922819 -0.642759
-0.60315454 -0.6969514 -0.2921502 -0.07977296 -0.22380833 -0.6478511 -0.5592157 -0.6874767
-0.08720841 -0.051766634 -0.061840322 0.12896897 0.062219206 0.10622495 -0.003043245 -0.09075468
-0.09393966 0.11772838 -0.15064366 -0.4569842 -0.013823491 0.056929946 -0.20107675 -0.11743079
0.088778384 -0.02486526 0.29093665 0.03580485 -0.015708419 0.06893194 -0.0010383271 -0.05307423
-0.049189407 0.087961964 -0.06299098 0.049351703 -0.022754075 0.07627703 -0.34847033 0.03139008
-0.07233336 -0.04689852 0.034946762 -0.029661614 0.02246809 -0.06856867 -0.30123162 0.0053576226

features.module.4.bias f4 [32]
00000000: 6008 aa3c ee37 243d 8995 95bd 2638 64bd
00000010: 4e05 9dbd f7c0 183d 0b69 753d 6032 9dbd
00000020: b626 aa3c 04b9 843c ae99 2fbd 0c66 8d3c
00000030: ac51 7c3d f57a a03d c27f 0d3d 5bc3 81bc
00000040: bc30 3abd 6542 f9bc 33c8 2b3a 7a3b c0bb
00000050: afc5 6e3d 61db 93bd 8eac e93b 3d25 d0bc
00000060: 6f48 da3b 8155 9d3d d12b 193b 0d05 63bc
00000070: 4ad1 ddbc d546 a3bd fe3a 94bd b794 0e3d
0.020755947 0.0400924 -0.07303912 -0.05571761 -0.076670274 0.0372934 0.05991463 -0.07675624
0.020770412 0.016201504 -0.04287117 0.017260574 0.061601326 0.07835952 0.034545667 -0.015840223
-0.045456633 -0.030427167 0.00065529643 -0.005866465 0.058293995 -0.072195776 0.007131166 -0.025408382
0.006661467 0.07682324 0.0023372064 -0.013856185 -0.027077336 -0.079724945 -0.07237814 0.034809794

features.module.5.weight f4 [32]
00000000: b6df 213f 00b2 af3f 6a31 b13f 5017 4a3f
00000010: 0b36 2d3f 492d ab3f 83e7 513f fb06 243f
00000020: 84ff 453f 60dc 803f 1596 713f b6ba ac3f
00000030: d274 293f 92e3 303f 7d4c b13f c713 3a3f
00000040: 00ae 913f c8bf aa3f 5888 683f 9679 6e3f
00000050: b693 933f 28d3 843f 1954 493f 1929 713f
00000060: 6466 4c3f a6bc 583f f859 9e3f 8ff9 be3f
00000070: 1a39 593f 8eaf 203f 77de 763f 5e8c 5c3f
0.6323198 1.3726196 1.3843205 0.7894182 0.6766059 1.3373195 0.81993884 0.6407315
0.7734301 1.0067253 0.9436963 1.349448 0.6619388 0.69097245 1.3851467 0.7268643
1.1381226 1.3339777 0.90833044 0.93154275 1.1529453 1.037694 0.7864395 0.94203335
0.79843736 0.84662855 1.2371206 1.4919909 0.84852755 0.62767875 0.96433204 0.86151683

features.module.5.bias f4 [32]
00000000: 66ca 90bf 2f77 90bf 4f14 5fbf 956c 6cbf
00000010: 5def 92be da96 8abf a357 40bf 90eb 52bf
00000020: 7196 00bf 0d78 71bf 9283 3dbf a04a a5bf
00000030: c7dc 48bf fb48 c8be 4701 8abf 8eda a1bf
00000040: c879 90bf b1ee 93bf f4be 8dbf 200f 9ebf
00000050: 4bde 68bf 81bc 2ebf de91 6bbf d783 a7bf
00000060: 9163 59bf 7be8 4fbf 7bee 8cbf 2b9c 9cbf
00000070: ae8d 8dbf 8859 d2be aada 41bf 66ae 45bf
-1.1311767 -1.1286372 -0.87140363 -0.92353183 -0.28698245 -1.0827286 -0.75133723 -0.8239069
-0.50229555 -0.9432381 -0.74028885 -1.2913399 -0.7846188 -0.3911818 -1.078164 -1.2644823
-1.1287165 -1.1557218 -1.1073899 -1.2348366 -0.9096419 -0.68256384 -0.9201945 -1.3087109
-0.8491755 -0.8121411 -1.1010278 -1.2235159 -1.1058862 -0.41083932 -0.7572428 -0.77219236

features.module.5.running_mean f4 [32]
00000000: a7f8 16c0 4fe2 30c0 a22c abbf 72a0 8ebf
00000010: 36d3 2dbf 55f2 f1bf 079f f1bf f04d 02c0
00000020: fe6e a3bf 26b5 ccbf a4db 02c0 0f44 27c0
00000030: a471 c8bf a2b4 63bf 13bb 1dc0 fac5 edbf
00000040: 469a 3ac0 ff23 32c0 fc37 f7bf fb1a 0ec0
00000050: ed25 cbbf ae0b 92bf 0170 c1bf e80f 30c0
00000060: d87a 04c0 0c05 e4bf b557 a5bf 0ab1 c9bf
00000070: 4a17 19c0 1c36 8bbf f67c 94bf 985b b9bf
-2.3589265 -2.7638128 -1.3372996 -1.1142714 -0.6790041 -1.8902079 -1.8876656 -2.036007
-1.2768247 -1.5992782 -2.0446558 -2.613529 -1.565968 -0.889475 -2.464543 -1.8576043
-2.915666 -2.783447 -1.931396 -2.2203968 -1.5870949 -1.1409814 -1.5112306 -2.7509708
-2.0699978 -1.781404 -1.2917391 -1.5757153 -2.3920465 -1.0875888 -1.1600635 -1.4481077

features.module.5.running_var f4 [32]
00000000: a66d d23f c04a c040 53ba 0c41 bb4c 7d3f
00000010: c359 943f 1ed3 7840 941a 1b40 e027 ee3f
00000020: 0d1a bc3f 5976 5d40 97e4 4840 48e4 9840
00000030: 3395 e63f 1c13 ca3f 9bf9 a040 93ba c73f
00000040: 8bfb c640 79a7 9840 1f3d 0f40 5674 6a40
00000050: 9a35 5340 fe5b 1740 a732 1640 a31b 4a40
00000060: 4726 2140 f0a1 5240 94a9 6040 899b 8440
00000070: 53e7 0440 0ca4 7b3f c60f 0840 bf75 1f40
1.6439712 6.0091248 8.795489 0.98945206 1.1589893 3.8878856 2.4234972 1.8605919
1.469545 3.4603484 3.138952 4.7778664 1.8014282 1.5787082 5.0304694 1.5603813
6.218206 4.7704434 2.2381055 3.6633506 3.3001466 2.3649898 2.3468416 3.1579368
2.5179613 3.2911339 3.5103502 4.143986 2.076619 0.9829719 2.1259627 2.4915617

features.module.8.weight f4 [64, 32, 3, 3]
00000000: 8a5b fa3c 8c32 c23c b88e 9fbc 6404 363d
00000010: b45f 953c ddc5 12bc af7a 183d 25b6 513c
00000020: 671f a9bc 831f 753c c328 363c 3ab1 3e3a
00000030: dfc1 1dbc 94f3 95bc 3c8a 11bd 6ab7 8dbc
00000040: d2b5 3bbd 3dc7 b2bd 3df7 afbc e1ab 7bb9
00000050: 74cb 32bd 8f6e 35bd 9bd1 abbb cbcc 60bd
00000060: f746 88bd e670 80bc be72 6ebd 5f86 2dbc
00000070: e160 8bbc d077 de3b c171 6fbc 1b7d 9dbc
00000080: 436b 213c 4fc4 b9bc e3d5 bebc 45e0 2b3a
00000090: 7a1a 76bd 0b57 70bc 75ce babc d7e9 4cbd
000000a0: 6088 56bc 5b30 acbc 7d79 1dbd eb09 26bc
000000b0: a1f6 83bc 11a6 64bc 926c fabc ea52 c7bc
000000c0: 9dd8 57bb 6fce 35bc c3f4 c9bc f43d 9e3c
000000d0: ee0b 483c 1e2b babc f44d 37bc e7d0 35bc
000000e0: 9f95 09bb a891 09bd cab2 07bd 2841 8ebc
000000f0: b8e9 38bd 9970 56bd 259f fcbc 3d3e b83d
00000100: 02e1 2e3d 656e 5b3d d54c 2b3d dc15 793c
00000110: 95c0 0e3d f6db 9f3c e872 5c3c ffc5 463d
00000120: da19 07bc 0919 21bd f438 f7bc d563 84bc
00000130: 7843 0fbd e84f 33bc cfac 35bd 3ad6 5abd
00000140: 973d c3bc 0743 22bd fb78 d6bc 87bd 1dbd
00000150: 89e3 1dbd 5384 02bd d938 17bd 49a1 6ebd
00000160: 8177 5abd 049f 55bd 6bbe 133e 9255 3e3e
00000170: b379 6f3e b33a b53d a3c7 083e 3168 333e
00000180: 81d9 003e 038e 523e 3ccd 853e 6222 493e
00000190: 0604 c43d 91b7 bc3d a26c fd3d a602 f13c
000001a0: 6960 113d ea06 613e c469 bf3d 8cf0 c93d
000001b0: fbb3 82bd 4ac2 4fbd 128e 5bbd 042e 20bd
000001c0: 7b80 03bd ff78 22bd 8576 73bd c60d 7dbd
000001d0: 7d56 a2bd 8e06 0b3e bf14 d13d 0265 133e
000001e0: 51b2 ac3d 4a37 773d 1cb7 ce3d 8c7c f13d
000001f0: 3ce4 b43d 2f85 fe3d ce80 503a 01d2 dbbb
00000200: dbeb e5bc d5a5 a43b 9d70 5dbc 9a03 4abd
00000210: f0a7 b63c 27f0 ebb9 af41 5bbd 561a b6bc
00000220: c31d a6bc 232f b5bb f8b1 99bc 3254 36bc
00000230: d80c 88bb 5c03 f9bc 1e2f acbc 45ef 9bbc
00000240: 160d d73c de60 f83c d9fc ce3c aa87 753c
00000250: b17a 803c a0e4 433c a2f5 4d3c 73a1 593c
00000260: 0866 313c cf58 173c 98d3 c9bb bac8 173c
00000270: 6ba0 a43b 78bf 99bc 0475 cfbb 2834 4abc
00000280: 47d2 2fbd 1e9c b0bc 429a 3abc 7f23 0dbd
00000290: 64dc 0dbd 2240 31bc 0b2a bebc f3a9 2ebc
000002a0: bd77 32bd 38dd 2dbd 5f83 05bd 0197 c73c
000002b0: d365 823c c0c3 b33c 098f 953c 7049 463c
000002c0: 127b 6a3c 87c0 153d 64b9 d23c ac00 123d
000002d0: de0a 27bd f444 5bbc 25f5 773b a71f 4dbd
000002e0: a265 7ebc 8399 883c 5f3b 95bd c04e f3bc
000002f0: 958f 883b 33a4 72bc 4d4d 16bd d0c6 55bd
00000300: c879 84bb e275 5bbc 197e d1bc bd68 85bb
00000310: a3d3 19ba 0c70 3fbc 2cb5 35bd 0942 c6bc
00000320: fd78 bbbc ac45 bebc a9f0 2dbc 34ef 6fbc
00000330: e675 b9bc 0f3d 37bc e9d6 18bc 06fe 3bbd
00000340: acc4 2dbd 98fd 77bd 785a aebc 4316 fbbc
00000350: 0bc5 23bd 7bf4 2ebd 0f13 44bd 2a30 84bd
00000360: 4b6b 483d bf88 0d3d 0a14 8b3d f6d6 0d3d
00000370: 5b75 d03c 8232 6b3d 9dcf 893d 06a7 513d
00000380: 1159 ba3d 8a91 103e 7ae5 023e 7ac6 fe3d
00000390: 1ab2 d13d 6ce2 833d 6010 2d3d d35a 153e
000003a0: 1afd 9f3d 1924 793d 6bb1 a9bc e223 28bc
000003b0: 9f80 a0bc 7ed7 06bc e29f 483c a191 443c
000003c0: e079 e3bc 0723 44bb 6844 6b3b 10ce 80bd
000003d0: 774f 42bd 395f 6ebd 9981 1ebd 4f44 9fbc
000003e0: 1f7b 0dbd ed70 6bbd a60c dfbc 6d26 eebc
000003f0: b1ab 8cba 89bd bdba 993d 6ebc e7f0 1ebb
0.030561227 0.023705743 -0.019477233 0.04443778 0.018234111 -0.008958307 0.037226375 0.012799774
-0.020644857 0.014961126 0.011118117 0.00072743336 -0.009628742 -0.018304624 -0.03553222 -0.017299373
-0.045827694 -0.08729408 -0.021480197 -0.00024001255 -0.04365106 -0.04429489 -0.005243493 -0.054882806
-0.066541605 -0.015678834 -0.058214895 -0.010591119 -0.017013969 0.006789185 -0.014614523 -0.019224694
0.009852233 -0.022676615 -0.023295349 0.0006556551 -0.060083844 -0.01466919 -0.022803525 -0.050027695
-0.013094038 -0.021019151 -0.03844594 -0.010134201 -0.016108813 -0.013955609 -0.030569348 -0.024331529
-0.0032935508 -0.011096581 -0.024652844 0.01931665 0.0122098755 -0.022725638 -0.011188019 -0.0110971695
-0.0020993722 -0.033586174 -0.03312949 -0.017365053 -0.045144767 -0.052353475 -0.030837605 0.08996246
0.042695053 0.053572077 0.04182132 0.015202966 0.03485163 0.019514065 0.01345513 0.048528668
-0.00824591 -0.039330516 -0.030178525 -0.016160885 -0.034976453 -0.010944344 -0.044354256 -0.05342696
-0.02383308 -0.039614704 -0.026180735 -0.038510825 -0.038547073 -0.031864475 -0.03691945 -0.058259282
-0.053336624 -0.052153602 0.14428107 0.1858733 0.23386268 0.088490866 0.13357405 0.17520215
0.12582971 0.20561986 0.26133144 0.19642022 0.0957108 0.092147 0.12374236 0.029420208
0.035492335 0.21975294 0.09346345 0.09860334 -0.06381985 -0.050722398 -0.053602286 -0.039106384
-0.03210495 -0.039666172 -0.0594392 -0.061780713 -0.079266526 0.13576719 0.10209035 0.14394
0.08432449 0.060355462 0.10093519 0.117913336 0.08832595 0.124277465 0.00079537637 -0.006708384
-0.028066566 0.0050246515 -0.013515619 -0.04931984 0.022296876 -0.0004500162 -0.053529438 -0.022229355
-0.020277863 -0.005529301 -0.01876162 -0.011128472 -0.0041519217 -0.03039711 -0.021018561 -0.019034991
0.026251357 0.030319627 0.025267052 0.014985958 0.015683504 0.011956364 0.01257077 0.013283121
0.010827549 0.009237482 -0.006159257 0.009264166 0.005024006 -0.018768057 -0.006331088 -0.012341537
-0.042925145 -0.021558817 -0.011389317 -0.03445768 -0.03463401 -0.010818513 -0.023213407 -0.010660636
-0.043571223 -0.0424473 -0.03259599 0.024363996 0.015917694 0.021943927 0.018256681 0.01210247
0.014311569 0.03656056 0.025723167 0.035645172 -0.040781848 -0.013383139 0.0037835327 -0.050079014
-0.015527161 0.016674763 -0.07286715 -0.029700637 0.004167507 -0.014809656 -0.036694814 -0.052191556
-0.004042838 -0.013394805 -0.025572823 -0.0040713237 -0.0005868023 -0.011684429 -0.044362232 -0.02420141
-0.02288484 -0.023226582 -0.01061646 -0.014644433 -0.022639226 -0.011183991 -0.009328582 -0.045896553
-0.04242389 -0.06054458 -0.021283373 -0.030650264 -0.039982837 -0.042713623 -0.04786974 -0.06454499
0.048930448 0.03455424 0.067909315 0.03462883 0.025446584 0.057421215 0.06729052 0.051184677
0.09099019 0.14118019 0.12782851 0.124402 0.10239048 0.06439671 0.042251945 0.14585428
0.07811947 0.06082544 -0.020714482 -0.010262461 -0.019592581 -0.008230088 0.01224515 0.011997611
-0.027768075 -0.0029928104 0.0035898928 -0.06289303 -0.047439065 -0.05819628 -0.038697813 -0.019441752
-0.034541246 -0.05748074 -0.027227711 -0.029071057 -0.001073232 -0.0014476042 -0.014541053 -0.0024252476

features.module.8.bias f4 [64]
00000000: 8a38 d4bc ca5e 2a3c e669 333c e3d8 633d
00000010: e3b0 533d 6a14 3fbd e4f0 e53c 9880 39bd
00000020: df4b e2bc 73a5 b63c 9051 1ebd 3b76 463d
00000030: 2940 af3c bc5c 9e3b f8a5 013d ef2a 45bd
00000040: 3abc 183c 947f ac3c 1aea d4bc 52e5 8fbc
00000050: b8c4 bb3c 170f 443d 3d87 b4bc dabf 0b3d
00000060: 95be 013d 5172 07bd a1f9 37bd 1431 dabb
00000070: 44a0 0f3d 13f6 40bd 44d4 20bd b0a7 283d
00000080: 73bb 04bd b83f 25bd 77dc 1dbb 497e 623d
00000090: 9ea9 183d 43d0 ee3c 1be6 ec3b 67eb e7bc
000000a0: 9f55 34bd 05ee f53c fd34 893c 9bef 703c
000000b0: dd15 abbc e5d0 61bd ac46 fd3b 796d 1fbc
000000c0: 051a 8cbb 9ec1 af3b b548 07bd eb2a 10bd
000000d0: f440 86bc c5a8 b33c 47e9 10bd c9b7 573d
000000e0: 17c5 63bd faa5 0fbd 16ad 843c 8f21 61bd
000000f0: 367d 00bd 68df ee3c 7edc 1cbd f941 943c
-0.025905866 0.010398576 0.010950541 0.05562676 0.051682364 -0.046650328 0.028068967 -0.045288652
-0.027624069 0.02229569 -0.038652003 0.048452597 0.021392899 0.004832832 0.03165242 -0.048136648
0.00932222 0.021056928 -0.025990535 -0.017565403 0.022920951 0.047865953 -0.022037143 0.03411851
0.031675894 -0.033068005 -0.0449158 -0.0066586826 0.03506495 -0.047109675 -0.039264932 0.041175544
-0.032405328 -0.04034397 -0.0024087706 0.055296216 0.037271135 0.029152041 0.007229579 -0.02831049
-0.044026967 0.030020723 0.0167489 0.014705564 -0.020884449 -0.055130858 0.007729372 -0.00973069
-0.0042755627 0.005363657 -0.033028323 -0.03519718 -0.016388394 0.021931062 -0.03537872 0.052665506
-0.05560788 -0.035070397 0.016195815 -0.054963645 -0.03136941 0.029159263 -0.038296215 0.018097864

features.module.9.weight f4 [64]
00000000: 49e3 d140 07d0 b140 133e a140 50d2 8e40
00000010: 51d6 7340 8ec0 9540 05e6 8b40 ae76 e740
00000020: cb78 8940 7d7b ae40 cc7f 6f40 5a69 9440
00000030: 72d0 a340 04fb c240 8265 b140 21ec be40
00000040: 9ab0 8a40 c9ab a240 b218 e740 8765 b440
00000050: 99db 9140 03f4 cc40 a86e 8540 112b b540
00000060: 0534 c840 b78b 8b40 5c60 9940 534f 8f40
00000070: 79e4 8040 3029 8b40 8c48 7c40 87c9 ca40
00000080: d370 a640 9c83 db40 1c98 d740 d57c aa40
00000090: c933 b840 0607 dd40 1fd5 a940 b299 9540
000000a0: 028f e740 b99b bd40 4344 9a40 94c3 b040
000000b0: 5ae9 b840 f2e6 de40 deb0 ad40 abfa a440
000000c0: bb65 a540 f6d2 a040 29d6 df40 d5a5 8240
000000d0: 4031 9440 7905 a540 12f7 bc40 0b38 d340
000000e0: b747 b040 a345 a540 72f3 a040 19e6 ce40
000000f0: 74e6 9e40 26fa 9440 026a a040 e68a 8d40
6.558995 5.556644 5.0388274 4.463173 3.8099558 4.679755 4.3718286 7.2332373
4.295995 5.4525743 3.742175 4.6378603 5.119195 6.0931416 5.543641 5.9663243
4.334058 5.08347 7.2217646 5.6373935 4.5580564 6.4047866 4.169758 5.661507
6.25635 4.360805 4.7930126 4.478433 4.0278897 4.348778 3.941928 6.3371005
5.2012725 6.8598156 6.737318 5.3277383 5.7563214 6.9071074 5.3072658 4.6750116
7.236207 5.925259 4.8208327 5.5238743 5.7784853 6.9656916 5.42784 5.155599
5.1686683 5.025752 6.9948926 4.082743 4.631012 5.156918 5.90516 6.600591
5.5087543 5.1647506 5.0297174 6.465588 4.9656315 4.6555357 5.0129404 4.4232054

features.module.9.bias f4 [64]
00000000: 070e b73f 45bd 8c3f 6f75 983f 6a79 6d3f
00000010: c0dd 333f b826 883f 25f3 7d3f 6976 0840
00000020: c3c1 7c3f 6062 8a3f fc1f 773f 8c07 943f
00000030: ed71 873f 91c3 d43f 63c0 ab3f f3a1 b73f
00000040: 1583 433f 7e51 9b3f cd70 f33f 80af 9c3f
00000050: 95b8 863f 9239 6440 76b0 833f 29ae 853f
00000060: 8251 ac3f f436 603f 7058 4c3f 4d8d 843f
00000070: 4d6c 6f3f 4a2f 7d3f d420 613f d526 f93f
00000080: f38e af3f 300c 5b40 7936 1240 ecba 823f
00000090: feba bd3f 37ee 1540 6362 993f 8c49 903f
000000a0: 09bf ad3f 3086 0d40 c35a 903f caae b93f
000000b0: 07ed f93f f21e 893f fe34 903f a8b9 e13f
000000c0: c6e9 993f 3e9f 713f 6eff de3f 13c7 803f
000000d0: ce93 963f c3f4 c33f c575 df3f b79b a33f
000000e0: 9e2c af3f 33b8 9f3f 7957 af3f ccc4 d83f
000000f0: ee07 993f 1368 8d3f 0021 9f3f ea4f 683f
1.4301156 1.099526 1.1910838 0.9276339 0.7026024 1.0636816 0.99199134 2.1322272
0.98733157 1.0811272 0.9653318 1.1564803 1.0581642 1.6622182 1.3418087 1.4346298
0.7637189 1.2134244 1.9018799 1.2241058 1.052508 3.5660138 1.0288227 1.0443774
1.3462374 0.8758385 0.79822445 1.0355622 0.9352463 0.9890028 0.87940717 1.9464976
1.37155 3.4226189 2.2845747 1.0213294 1.482269 2.3426645 1.198315 1.1272445
1.3573924 2.2113152 1.1277698 1.4506466 1.952546 1.0712569 1.1266172 1.7634783
1.2024467 0.9438361 1.7421701 1.0060753 1.1763856 1.530907 1.7457815 1.2781895
1.3685491 1.2478088 1.369857 1.6935058 1.1955545 1.1047386 1.2431946 0.9074694

features.module.9.running_mean f4 [64]
00000000: 3f03 6ebc 652e 1c3d ac02 d63c 12b8 7e3d
00000010: 69d2 af3d 7f91 d5bc 0ede 433d 178a 59bc
00000020: 8f86 6abc 7edf e53c c053 12bd 388b 8b3d
00000030: 5145 7b3d 2416 113d 10cb 453d 22e3 1ebc
00000040: 29db c63c 48f0 113d 4c03 143c 89a2 e53c
00000050: 938b 143d 80b6 e43d 6553 82bc 376d 1a3d
00000060: aa5e 393d 7c8f c0bc 6417 eabc a121 2e3b
00000070: ea01 0f3d b7d3 63bd dc32 19bc b68f 923d
00000080: 76d5 adbc 7891 cd3c b100 f93c 5954 c83d
00000090: 2a4c d13c 2c7c 8e3d 582b 053d 9fd2 c0bc
000000a0: ff1c 04bd 3d10 8a3d 39fd d33c 10b2 1a3c
000000b0: d7c3 803d 26a2 01bd d82c 3f3c f58f 8d3c
000000c0: f0c7 6f3c 1480 d53c a7e8 aabc 82fb 17bd
000000d0: f6c6 88bb e689 753c 17f8 66bc e897 8c3d
000000e0: 180c ecbc 134b aa3c c30b ad3c fcf6 6abd
000000f0: e064 b1bc b642 2f3d c5fb adbc 47d8 653d
-0.014527141 0.038130183 0.02612432 0.062187262 0.085850544 -0.026070355 0.04781919 -0.013277552
-0.014314308 0.028060671 -0.0357244 0.06813663 0.061345402 0.035421506 0.04828936 -0.009697707
0.024274426 0.03562954 0.009033989 0.028031604 0.03626592 0.111676216 -0.015908906 0.03770181
0.045256294 -0.023505919 -0.028575607 0.0026570337 0.034913935 -0.05562183 -0.009350505 0.07156317
-0.02121995 0.025093779 0.030395838 0.09781713 0.025549013 0.06957278 0.03251204 -0.023537932
-0.032254215 0.067413785 0.025877582 0.0094418675 0.062873535 -0.031648777 0.011668406 0.017280558
0.014635071 0.026062049 -0.02086289 -0.03710509 -0.0041741086 0.014986491 -0.014097235 0.06864911
-0.02881436 0.020787751 0.021123772 -0.05736445 -0.021654546 0.04278823 -0.021238217 0.05611446

features.module.9.running_var f4 [64]
00000000: 5a2f 973c 0ce0 193c b68e 653c f006 e73b
00000010: 5b07 483c 1f5a ed3b 5fba 1f3c c70c ac3c
00000020: 443d 163c 5c95 083c d6cb 143c 4c3d f03b
00000030: 8666 843c 8be0 973c f567 4f3c 32f7 a73c
00000040: a1cb d43b 5231 343c 0403 a43c f0b8 9b3c
00000050: 738c 163c a9bc 643c 732c 0b3c b7d8 6a3c
00000060: 2a3d 2e3c 441a bf3b 8795 e53b aa2a 173c
00000070: 87bf 053c 38c2 203c 4d4c 343c 8a6f 803c
00000080: 5b68 493c d32a b93c 8554 aa3c adfe 913c
00000090: 722d 833c c903 b33c d2ab 0f3c 4754 273c
000000a0: 8b10 b53c 65cf 433c 9e88 2c3c 018b 5e3c
000000b0: bffc 9e3c 89ee 423c 4315 0b3c f6b6 1e3c
000000c0: dd48 2b3c 374e f73b 5dd1 583c c0d9 143c
000000d0: 5e58 163c 191c 533c ea90 7c3c 3ba1 343c
000000e0: 14a0 3f3c aa82 833c 24ab 383c 41d7 8e3c
000000f0: d4e9 383c 0a70 203c 0b69 2c3c e95b 593c
0.018455196 0.009391796 0.014011076 0.0070503876 0.012208785 0.0072434093 0.009749024 0.021002186
0.00916988 0.008336391 0.009081801 0.007331526 0.016162168 0.018539688 0.012659063 0.020503614
0.006494001 0.010998087 0.02002097 0.019009084 0.009188759 0.013960996 0.008494484 0.014333895
0.0106347 0.0058319885 0.0070063504 0.0092264805 0.008163339 0.00981193 0.01100452 0.015678186
0.012292947 0.022603428 0.020792255 0.017821634 0.016012881 0.02185239 0.0087689925 0.010212964
0.022102615 0.011951302 0.010530619 0.013582946 0.019407628 0.0118976915 0.008488956 0.009687176
0.010454384 0.0075471657 0.01323351 0.009085119 0.009176342 0.012885117 0.01541541 0.011024768
0.01169588 0.016053516 0.011271272 0.017436625 0.011286218 0.009792337 0.010523091 0.013266542

top_layer.weight f4 [10, 64]
00000000: 903f f7bd 270c bdbd b329 91bd 5c3e abbd
00000010: 9e4d 32bd 2639 4dbd ae79 8c3d 8119 183f
00000020: 2ece 353d 5a10 96bd 1716 49bd 94e7 8bbd
00000030: 4ce3 29bd faee 97bd 31cc 2cbe cbfe e3bc
00000040: ce37 73bd abb9 22be f9e3 40be 6b79 b5bd
00000050: 74aa cf3c 5122 313e 35a9 063d 927d a2bd
00000060: 5b78 01be 6f92 34bd 281a 8bbd 3d59 91bc
00000070: 91b0 01bd c91f 9b3e 967f 80bd 4164 eebc
00000080: e993 a3bc fd3c 18be ded9 c1bd eda8 4dbd
00000090: e22c d23e 29b7 eabd d441 c2bd 71f4 fd3d
000000a0: 7d3b 01be 15a6 c1bd fa61 7d3d c047 3ebd
000000b0: 4b8c 7cbd 1af9 02be 0ae7 89bd 7c19 c13e
000000c0: 02d0 7abd fdce 9abd 4579 9dbd 78c6 88bc
000000d0: e058 463e 3eec 913e bef0 f13e 14b3 febd
000000e0: b1d8 23bd 8f86 50bd 1f36 60bc c09f 15bd
000000f0: 730a 80bc 36c1 11be 6a2c 203b f136 60bd
00000100: c2ac ba3e f31d e9bc 340a fcbb f409 373e
00000110: 4d52 5abd 24f6 f7bc 8522 b0bd 97b8 dbbd
00000120: ca4e 9ebd 68f0 ae3d 54f8 953e c04b 04bd
00000130: 81a1 89bd 97c5 d9bd a64d 0fbe 3ed6 4f3e
00000140: 8e7b 8c3b 4ee5 e5bd dc60 313e 3940 b5bd
00000150: 76ac f8bc 62fd 9cbe 75e2 613d fa9d 693d
00000160: 0110 0a3d d68f fb3c b0c7 813b 9d86 8fbd
00000170: 9553 a13e 09ce 8c3d c9be 1bbd e710 23be
00000180: 84a8 c63b c173 a5be 446d 513a 0d6b 38bd
00000190: 3c91 f83d bccd 20bd 71f0 e2bc 404d 853d
000001a0: 408a 013d c2b6 c4bd 9fa2 1ebd ce25 e63e
000001b0: c583 44be b90d 8d3d 57d2 2e3e b9ae 0fbe
000001c0: b5fc ffbd 5995 78bc 846e 8e3d f8c5 a93e
000001d0: f146 aebd 5f4a f53d 40f3 44bd 0049 6e39
000001e0: b94b 09be f9c9 e5bd 4615 d33d f043 053f
000001f0: dd74 c5bc 0152 e6bd 2d2c 8abd 8b2d 58bd
00000200: 61b4 1cbe 9905 11bd 2f60 8cbd 63d4 973e
00000210: c7a2 82bd 0e1f b3bc 994b adbd a922 76bd
00000220: 011e 69bd 9b9d d93e 3cb9 a5bd bf06 86bc
00000230: ba7e e1bd ecc2 74bd 8cbb a63a 41ab ebbd
00000240: a772 85bd 8224 39bc 1a0a bcbd e750 babd
00000250: 16e3 5dbc 9825 823d 10d3 46bd 4167 81bd
00000260: 5fa4 b9bd 5623 a73e 58b7 1abd 6c5c 64bd
00000270: dcac a13d e4f7 2fbd fe76 97bd 2915 853c
00000280: 2646 84bd 674a 713e 4d55 64bc a65e e3bd
00000290: 43b9 a2bd 61dd 263c 48d1 65bc eb58 93bd
000002a0: e929 a7bd 4b88 ce3e 4c2c 3dbd d54a acbd
000002b0: 3dc5 87bd 266d d9bd 723a c03e f436 35bc
000002c0: 174f 1e3d ac4f fabc 8201 0f3f 395f 563b
000002d0: 1cf0 bebd 58cd 97bd d146 15bd 0ca7 82bd
000002e0: 6031 853d ae9f adbd c5e3 86bd a0a9 01be
000002f0: e34a 3cbd 56f8 af3c a202 42bc 1af2 82bd
00000300: 3b18 8abd 5db6 93bd 20af 86bd d437 a9bd
00000310: 9c9b abbc 7b01 9abd f052 2bbe 9be3 f1bd
00000320: 4201 fdbd 5d4d b5bd cd06 74bc ef86 33bd
00000330: 97b6 d83b 59f9 7bbd 4a22 553e 75d8 34bd
00000340: ed71 91bd 4066 153e d5fb fcbd 5ec6 93bc
00000350: 31e8 a93e e7f2 78be 8662 e8bd 2cf7 d8bc
00000360: 245a 8fbd 6590 cebd f400 87bd 83d2 3bbd
00000370: efde 2dbd 5619 153d f27f 9cbd 3633 fb3e
00000380: 6351 a6bd edd8 cf3e cc26 f7bd 6cce 9c3c
00000390: 4388 993d 5aea fbbd 9e8a 66bd 87f2 8e3e
000003a0: 704f aebc d2cb 0cbe a213 17be 2534 15bb
000003b0: 3807 32bd 8c27 89bd da5c c3bd 9d8f 77be
000003c0: e556 c63e 0054 85bd 72b1 11be 0ddd 3abd
000003d0: f734 55be d800 243e 7ddf 8abd af58 91bd
000003e0: a8f6 d83e b093 f03a 76df a6bd a5f3 c2bc
000003f0: f8d3 afbd 9cdb 2c3e eb10 ca3e 5ae2 1cbd
-0.120726705 -0.092308335 -0.070880316 -0.083615035 -0.043531053 -0.05010333 0.06859146 0.59413916
0.04438608 -0.073273376 -0.049093332 -0.068312794 -0.041476533 -0.07418628 -0.16874768 -0.027831456
-0.05937939 -0.15891139 -0.18836965 -0.08861049 0.025349833 0.17298247 0.032876212 -0.07934107
-0.12643568 -0.044084962 -0.06792098 -0.017742747 -0.031662527 0.30297688 -0.06274335 -0.02910054
-0.01996799 -0.14867015 -0.09465383 -0.05020993 0.41049868 -0.11460716 -0.09485212 0.12400139
-0.12620349 -0.09455506 0.061861016 -0.046455145 -0.06165723 -0.12790337 -0.0673352 0.37714756
-0.061233528 -0.07559011 -0.07689146 -0.0166962 0.1936984 0.2850055 0.47253984 -0.124365
-0.040001575 -0.050909575 -0.0136847785 -0.036529303 -0.015629983 -0.1423386 0.0024440535 -0.054739896
0.3645993 -0.028456664 -0.007691646 0.1787489 -0.053301144 -0.030268736 -0.08600334 -0.10728567
-0.077298716 0.085419476 0.29291022 -0.032298803 -0.067202576 -0.106333904 -0.13994464 0.2029657
0.00428719 -0.11225377 0.17322105 -0.0885014 -0.030355673 -0.30662066 0.055147607 0.057035424
0.03370667 0.030708235 0.003960572 -0.07008097 0.3150908 0.068752356 -0.038023744 -0.15924416
0.006062569 -0.32314876 0.0007988999 -0.045023967 0.12137076 -0.039258704 -0.027702542 0.06508875
0.031625986 -0.09605171 -0.038729306 0.44950718 -0.19190891 0.06887383 0.17072426 -0.14031495
-0.12499372 -0.015172326 0.06954673 0.3315885 -0.08509625 0.11977076 -0.048083544 0.00022724643
-0.13407792 -0.11220164 0.10306792 0.5205679 -0.024103576 -0.1124611 -0.06746707 -0.05277781
-0.15303184 -0.03540573 -0.06854283 0.29654226 -0.063787036 -0.021865394 -0.08461685 -0.06009165
-0.05691338 0.42503056 -0.08091971 -0.016360639 -0.11010499 -0.059756204 0.0012720688 -0.115072735
-0.06516009 -0.011300208 -0.09181614 -0.09097462 -0.013542911 0.06354827 -0.04854113 -0.06318522
-0.090645544 0.32644147 -0.037772506 -0.055752203 0.078942984 -0.042961016 -0.07395743 0.016245442
-0.06458692 0.23563538 -0.013936353 -0.11102037 -0.07945492 0.010184617 -0.014026947 -0.07194694
-0.081622906 0.40338358 -0.046184823 -0.084127106 -0.06629417 -0.106165215 0.3754459 -0.011060465
0.038649645 -0.030555569 0.55861676 0.0032710566 -0.09323141 -0.07412213 -0.03644449 -0.06379518
0.06503558 -0.08477722 -0.06586412 -0.12662363 -0.045969855 0.02148072 -0.011841448 -0.063938335
-0.06742903 -0.072125174 -0.06576371 -0.082626015 -0.020948224 -0.075198136 -0.16730857 -0.118109904
-0.123537555 -0.088526465 -0.0148942 -0.043829855 0.0066135633 -0.061517093 0.20813861 -0.044151742
-0.07101808 0.14589787 -0.12352721 -0.018038925 0.3318496 -0.2431141 -0.11346917 -0.026485048
-0.06999615 -0.10086135 -0.06591979 -0.045855056 -0.042448934 0.036401115 -0.07641591 0.49062508
-0.08120992 0.4059519 -0.12067947 0.019141398 0.07496693 -0.123005584 -0.05628454 0.2791941
-0.021278113 -0.13749626 -0.14753583 -0.0022766676 -0.043463916 -0.06696996 -0.095391944 -0.24175878
0.3873817 -0.06510162 -0.14227846 -0.045620967 -0.20820986 0.16015947 -0.06780908 -0.07096993
0.42375684 0.0018354561 -0.081480905 -0.02379782 -0.08585352 0.1688065 0.39466032 -0.038301803

top_layer.bias f4 [10]
00000000: 9b43 8c3b 2af2 62bc 4865 433c cecd 0bbc
00000010: ef2b 1f3c 7cfa 393b 22f4 113c 7ea5 46bc
00000020: fcc8 afba 503c eeba
0.00428052 -0.013851682 0.011926003 -0.008532954 0.009715064 0.002837806 0.008908303 -0.012124417
-0.0013411338 -0.0018175934

momentum_buffer f4 [16, 1, 3, 3]
00000000: 5ed8 8dbd b347 ddbc 284b 363d 19b2 43bd
00000010: f9b5 0fbc dea2 1c3d 8c40 3f3d e949 bb3d
00000020: 57e7 ae3d c8c7 07be e655 b6bd ac0b 49bd
00000030: cde6 f1bd 162b d9bd 236a 96bd a458 dabd
00000040: 48bf d8bd 3f81 debd 43c9 8bbd 3e1c a4bd
00000050: 4885 b3bd 302d 27bd 6ca8 e0bd f829 b5bd
00000060: c9bb f3bc 9c7d 94bd 465f 46bd d567 a23c
00000070: 584c e2b9 8263 4c3c 985f 8fbb 6de3 5ebc
00000080: a0f5 d5ba 3874 28bd 348b 83bc 8891 1e3c
00000090: 84e1 e5bc 7963 f73c 2812 213d ab38 74bc
000000a0: c0e3 a2b8 75c3 19bc 0d2e 97bc 8e86 d73c
000000b0: 5680 b43b 0c10 a13b 2e0b 03bc 4dec d6bc
000000c0: 1a93 6a3c 0bbe cd3c 02db c5bb cb10 173c
000000d0: cb1d 8e3a 1def b83c 66ab 70bd 7888 50bd
000000e0: 9068 493b 8f02 81bd 829a e6bc 109c bebb
000000f0: 6254 44bd bccb a63c e08a ea3a bf8f c73d
00000100: a606 8e3d fe9b 663c 9c18 df3d 84e2 5d3d
00000110: 7619 5abc cad6 b33d 7421 183b d10c cabc
00000120: 2829 f0bd 34db 1dbe 7e89 00bd 4d7a 13be
00000130: 1f0b 7abd fe00 0a3d 1c64 bfbd 19a2 383d
00000140: 8b66 b03d fcbe 56bd 9e2b a83d 8a9c 0c3e
00000150: e692 5abc fe41 9c3d b1a0 c03d d818 2f3d
00000160: 027a c33d d81c fc3d 6c7e 97bc 8862 ec3b
00000170: 3c96 c03b 290f 87bc 6a05 e1bc c060 0cbc
00000180: 0b22 393c 898a eabc 33d8 d2bb 6a3b 37bd
00000190: e3b1 8ebd bcb6 5dbd 0b72 f03b 34d6 5cbc
000001a0: 882a e63b 8024 f239 2006 7c3a 8b1e cabc
000001b0: 2868 803d be9b 1b3d 7934 ebbb 34d3 be3d
000001c0: 8bd0 a03d 2619 7f3d 5089 4b3d 1839 fb3d
000001d0: f8b4 c83d 17ca 56bc bc3a 38bb b410 ddba
000001e0: a5e9 553c 54e6 4ebb 3276 adbc 6481 ea3b
000001f0: 6111 263d 8625 1ebc e6fc 9cbc af9b 25bd
00000200: f6f3 00bb e6bc eabc ea21 69bd 3268 99bd
00000210: 55e2 223d 82c4 68bc 710e 86bd c010 12be
00000220: bd22 fcbc 9b82 373d 7373 0abe 7936 17bd
00000230: 007f 073b ca57 f3bd 226b b6bc 3702 b23c
-0.069260344 -0.027011728 0.04450527 -0.04777727 -0.008771413 0.03824126 0.046692416 0.091449566
0.08540218 -0.13259804 -0.089031026 -0.049083397 -0.118116 -0.10603921 -0.07344463 -0.10661438
-0.10583359 -0.108644955 -0.06825497 -0.08013199 -0.08765656 -0.04081458 -0.10969624 -0.088458955
-0.029752629 -0.072505206 -0.048430704 0.019824902 -0.0004316296 0.012474896 -0.0043754093 -0.013604027
-0.0016323812 -0.04112646 -0.016057588 0.009678252 -0.028061636 0.0301988 0.039323956 -0.014906089
-7.767184e-05 -0.0093849795 -0.018454576 0.026309278 0.005508463 0.004915243 -0.007998271 -0.026235724
0.014317298 0.025115034 -0.0060380707 0.009220312 0.0010842619 0.022574956 -0.05875721 -0.050911397
0.003073249 -0.06299316 -0.028149847 -0.005816944 -0.047932036 0.02036082 0.0017894171 0.09744214
0.06934862 0.014075277 0.10893366 0.0541711 -0.013311734 0.08781202 0.00232133 -0.024664314
-0.117266 -0.1541565 -0.031381123 -0.14402123 -0.061045762 0.033692352 -0.09345266 0.045076463
0.086133085 -0.05242823 0.08211444 0.1373159 -0.013340687 0.076297745 0.094056495 0.042748302
0.095447555 0.12310189 -0.0184929 0.0072138943 0.0058772843 -0.016486721 -0.027468402 -0.008567989
0.01129962 -0.028630512 -0.0064344644 -0.044734396 -0.06967523 -0.054129347 0.0073378137 -0.013478804
0.007024113 0.00046185032 0.000961395 -0.024672767 0.06269866 0.037990324 -0.007177886 0.093176275
0.078522764 0.062279843 0.0496915 0.12266749 0.09800142 -0.013109705 -0.002811118 -0.001686594
0.0130561935 -0.0031570392 -0.021174524 0.007156538 0.040543918 -0.009652501 -0.01916356 -0.040431675
-0.0019676662 -0.028654527 -0.05691711 -0.07490577 0.03976663 -0.014207007 -0.06545723 -0.14264202
-0.030778283 0.04480229 -0.13520603 -0.036917184 0.0020675063 -0.11881979 -0.022267882 0.021729572

momentum_buffer f4 [16]
00000000: 5bc4 bab6 9263 de36 51b9 8a37 e04c d837
00000010: 1c24 f437 56db d4b7 c0d4 0637 5ed0 66b7
00000020: 5a93 6bb6 dd18 c9b7 1ba2 f437 351b c5b7
00000030: f987 8f37 4d50 3c37 9082 2e37 16df 90b7
-5.5660907e-06 6.627707e-06 1.6537177e-05 2.5785004e-05 2.9103881e-05 -2.5374506e-05 8.036557e-06 -1.3757583e-05
-3.5103499e-06 -2.3972645e-05 2.9162553e-05 -2.34969e-05 1.7110246e-05 1.122437e-05 1.0401607e-05 -1.727002e-05

momentum_buffer f4 [16]
00000000: 8c9e 2fbe 3bde ea3d 1023 fcbd b405 a03c
00000010: 8620 c13c 70cb 973b 4bfa ebbd bcb8 493d
00000020: 8647 4a3d af42 b63d 9ada 19be ee13 87bd
00000030: c166 1b3e 2868 833d 208f 67bd 77e3 acbc
-0.17150325 0.11468168 -0.12311375 0.01953397 0.023575079 0.004632406 -0.11522349 0.049248442
0.049384616 0.08899438 -0.15024796 -0.06595598 0.15175916 0.064163506 -0.05653298 -0.021104557

momentum_buffer f4 [16]
00000000: 32ff 4bbd e8e3 b83c 0763 5dbe 2c25 e83c
00000010: 2c44 a23c f19f 4ebc ee62 78be 0c98 723d
00000020: fa44 c3bd 2d32 943d 2a30 1ebd e046 e5bd
00000030: 2b6b be3d bb82 b23d 4c2a d0bd a75c e6bd
-0.04980392 0.022569612 -0.21619807 0.028338037 0.019807898 -0.012611375 -0.24256489 0.059227034
-0.095346406 0.07236133 -0.03862015 -0.11195159 0.092977844 0.08716341 -0.101643175 -0.11248141

momentum_buffer f4 [32, 16, 3, 3]
00000000: dc2a e1bc 356e 4fbd 4955 e4bc 4bb6 8abc
00000010: ecc6 f3bc 67b0 53bc 866a ecbc ab8a 28bd
00000020: be4a 97bc 1efb 6d3b 2e06 4b3c fefb 553c
00000030: 987d 923b 5805 663b 6849 9d3a 825e 213b
00000040: ff7c 233c 7c6e 963c da75 0dbd e2fa eebb
00000050: 5a81 4fbc 8ac5 a9bc 1eb6 d53a d882 303b
00000060: 7c29 25bc d00e cb39 49f6 2aba 8288 443c
00000070: ac4a 1b3c e8f9 e13c 16d3 f43b 1151 173c
00000080: ce48 043d 307a f33a 82a4 ef3b c619 293d
00000090: 7a2a f2bc cfbb 39bd e805 febc 1d7c 19bd
000000a0: b868 14bd 4c00 fcbc d40a 07bd 7910 d2bc
000000b0: ee99 2cbd 8029 ef3b 64dd 423b e376 ce3b
000000c0: b75c 183c 8a4c b63b d4b0 a13a 1470 1a3c
000000d0: 2c60 373b b40f a33b 85ae 693a c870 1c3a
000000e0: 90f0 64bb b93c c83b 5714 883b e8b6 ba39
000000f0: 5189 113c 8aca 713b 7853 713b c72b cf3c
00000100: 293e 8cbc c6cc 933b 366f f43c b170 793c
00000110: 74f9 b33c 3aa9 873c cdd2 913b b883 813a
00000120: 776a 053d f2f5 9f3c 3276 223c 45d4 373d
00000130: b81a 143c 6e4f 593c ba3e 233d e499 c43a
00000140: e8f8 07bc 9460 043b 7851 c53b 7809 f7bb
00000150: 9314 e23b 34af ba3b d882 ccba a712 983b
00000160: 144b 193c 1b1f 393c 7beb f53c e99f 223c
00000170: 6a6b b23a f50c 0e3d 6d2e f3bb 5d99 f0bb
00000180: da0f 003d 9a76 02bc ce2e a9bc 6cd6 75b9
00000190: 087d 50bc e848 9dbc fc7b b13b 2383 173b
000001a0: c53f a2bb 4a96 2e3c e023 ceb9 e7c4 423b
000001b0: 2e0c acbc 4886 f4bb 7156 18bd b965 b8bc
000001c0: 2346 d9bb 3d5f 0dbd 9f04 e1bc 71fe 233b
000001d0: e078 7bbc b6d8 a5bb ec32 e639 3074 a43b
000001e0: 399c 62bb 75d9 60ba e365 823b e334 0cbc
000001f0: 0c3f d0b9 372d 963b 888f babb 9cfa a8ba
00000200: 758b a63b 8e6e c8bb 2295 af3a 6884 9b3b
00000210: c446 ddbb c136 1dbb bd12 443b ba93 bd3b
00000220: 6252 7dbb 31ae 6b3b cc94 2f3c 382f e6bb
00000230: 1a77 393c fa32 883b b4b7 caba c721 e8bb
00000240: b724 933c eb0e 893b 78e0 963b 394d 623c
00000250: 34f7 863a 558a ac3b 68f6 37ba cb6f b83b
00000260: 0da4 be3b 7000 6d3b 1b64 f23c fb7d 023d
00000270: 00be 56b9 5694 3e3d 32dc c53c 9a98 5a3d
00000280: 8a0b 313d 6efb bbbb a327 913b 5af6 a7bb
00000290: 8ae9 ffbb 6215 323c 3e1b 94bb 2cc7 23bc
000002a0: cab5 f83b c5df 8fbb d0d3 b1ba fcde d43b
000002b0: baae f73a 9cf4 483b e277 233b 12be 103b
000002c0: b756 e43b 9ede acbb 1d86 33bb 3a55 95ba
000002d0: 6877 8a3c a652 033d 2497 a03c 40f7 ff39
000002e0: d456 a63c c06a 5a3b 740d 8fbc c01f 9eb8
000002f0: 9ad3 783b ccd0 82bb a6ff 2ebc 90b1 8f3b
00000300: 3887 4f3c 3c7b ecba 8eba 363a d234 30bb
00000310: 9dfd 4a3c d696 383c 9041 37bc 240a 4ebb
00000320: 5b0a 9abb 457b fe3b 3234 68bb 9cf7 1d3c
00000330: 7664 173c d0ea a83c 7453 8a3c 74e2 323b
00000340: fa76 833b 2c33 d53b 268d 853b aec0 a73b
00000350: b7bc 2f3c 608c acb8 5fbc cc3b 743b 103c
00000360: e045 4cbd 581b 2abd 4ccd 3cbc 1180 8bbd
00000370: 620a 10bd 846b 89bc b1b0 5ebd 9f72 f9bc
00000380: b0fd a3bc 3b04 0cbc c62e 163c 30ad 093c
00000390: 1c56 923b bb64 9f3c 0c73 ea3b 230b 2c3c
000003a0: 30bb 3c3c 8760 e33b 347c 83bc c6c1 b2bc
000003b0: 7d46 3dbc 4c79 8ebc b0e4 c4bc 1c9c 433b
000003c0: 8219 0fbd e77b 9ebc 1b04 a5ba 80ed 4738
000003d0: 330b 3bbc 9477 36bc cc2e 36bc 8395 a2bc
000003e0: 5848 c5bc 5061 27bc 5de7 a4bc 5686 46bc
000003f0: d45b c13c e6d0 f1ba f21f 92bb de4b 8e3c
-0.027486257 -0.05064221 -0.027872698 -0.016932627 -0.02975794 -0.012920476 -0.028859388 -0.04114787
-0.018468257 0.0036313008 0.01239161 0.013060568 0.0044705383 0.00350984 0.0012000026 0.0024622981
0.009978532 0.01836323 -0.03453622 -0.007293091 -0.012665117 -0.020724077 0.0016304886 0.0026933458
-0.010080691 0.00038730213 -0.00065216847 0.011995437 0.009478252 0.027584985 0.0074714525 0.009235636
0.032295994 0.0018575843 0.007313312 0.041284345 -0.02956127 -0.045345124 -0.031008676 -0.03747188
-0.03623268 -0.03076186 -0.03296931 -0.02564262 -0.042138986 0.0072986484 0.002973401 0.0063007935
0.009299449 0.0055633234 0.0012336024 0.009426136 0.0027980907 0.004976237 0.000891425 0.00059677335
-0.0034933425 0.0061107543 0.0041528153 0.0003561296 0.008882836 0.0036894404 0.0036823433 0.02528943
-0.017119484 0.004510495 0.029838186 0.015224622 0.021969534 0.016560186 0.0044501782 0.0009881174
0.032572236 0.019526456 0.009915875 0.04488017 0.009039573 0.013263566 0.039854743 0.0014999476
-0.00829909 0.0020199167 0.0060216747 -0.0075389706 0.0068994253 0.0056971554 -0.0015602959 0.0046408954
0.009356279 0.01129892 0.030019512 0.009925821 0.0013612334 0.034680326 -0.007421306 -0.007342501
0.031265117 -0.007962847 -0.020652201 -0.00023444899 -0.012725122 -0.019199803 0.0054163914 0.0023118935
-0.0049514496 0.010655949 -0.0003931811 0.0029719414 -0.021001901 -0.0074622966 -0.037191812 -0.022509443
-0.0066306754 -0.034514654 -0.027468024 0.0025023485 -0.015348643 -0.0050612343 0.00043906958 0.0050187334
-0.003457798 -0.00085773255 0.003979431 -0.008557531 -0.00039719825 0.0045830267 -0.00569338 -0.001289207
0.0050825425 -0.006116695 0.0013395885 0.0047460087 -0.0067528207 -0.0023988935 0.0029918395 0.0057854326
-0.003865384 0.003596198 0.010716628 -0.007024672 0.0113199 0.0041564675 -0.0015466125 -0.0070841047
0.017961843 0.0041826866 0.0046043955 0.013812357 0.0010297061 0.005265514 -0.00070176134 0.005628561
0.005817896 0.003616359 0.02958875 0.031858426 -0.00020479411 0.046528183 0.024152849 0.05336819
0.043223895 -0.00573676 0.004429774 -0.005125803 -0.0078098224 0.010869356 -0.004519849 -0.009996217
0.0075900303 -0.004390689 -0.0013567153 0.0064963084 0.0018896677 0.0030663377 0.0024943282 0.0022085947
0.006968345 -0.0052755615 -0.002739317 -0.0011393197 0.01690264 0.03206124 0.01960332 0.00048821606
0.020305075 0.0033327788 -0.01746247 -7.539941e-05 0.0037967921 -0.0039921757 -0.0106810685 0.004385181
0.012666516 -0.0018042098 0.0006970548 -0.0026886952 0.012389568 0.011266431 -0.011185065 -0.003143915
-0.0047009415 0.0077661597 -0.0035431501 0.009641554 0.00924026 0.02061978 0.016885497 0.002729562
0.004011986 0.0065063443 0.004075664 0.0051194048 0.0107261455 -8.227746e-05 0.0062480415 0.008803237
-0.049871325 -0.041529983 -0.011523556 -0.06811536 -0.03516615 -0.0167749 -0.054367725 -0.030450163
-0.020018429 -0.0085459305 0.009166425 0.0084031075 0.0044658314 0.019457212 0.007154828 0.010500702
0.011519238 0.006938997 -0.016050436 -0.021820914 -0.01155245 -0.017391823 -0.024034828 0.0029847687
-0.034936436 -0.01934619 -0.0012589725 4.7666486e-05 -0.011416244 -0.011136908 -0.011119556 -0.019846683
-0.024082348 -0.010216072 -0.020129854 -0.012116989 0.023603357 -0.0018449097 -0.0044593746 0.01737016

momentum_buffer f4 [32]
00000000: 8161 0b36 2789 8736 6e15 f5b6 dedf bab6
00000010: ca1e 01b7 0e3a 7936 3a18 c936 b403 01b7
00000020: 4527 0b36 d6fd d735 dc21 8fb6 b2ff e535
00000030: a372 ce36 795c 0337 863c 6936 7412 d4b5
00000040: bfbb 98b6 e6d5 4cb6 124a 4a33 f92e 16b5
00000050: 67dc c336 7eb0 f2b6 3282 4335 c344 29b6
00000060: 3e92 3735 57ca 0037 3019 7934 f438 bbb5
00000070: 4eef 35b6 e1a8 05b7 0fc9 f2b6 6afe 6936
2.0769369e-06 4.03928e-06 -7.3040637e-06 -5.5692935e-06 -7.696168e-06 3.7137684e-06 5.993087e-06 -7.689861e-06
2.0735472e-06 1.6092624e-06 -4.265674e-06 1.7136247e-06 6.152624e-06 7.829739e-06 3.4754935e-06 -1.5800601e-06
-4.5518095e-06 -3.0522874e-06 4.7099157e-08 -5.594771e-07 5.837111e-06 -7.2327084e-06 7.283262e-07 -2.5222987e-06
6.8385623e-07 7.676505e-06 2.3199095e-07 -1.3949161e-06 -2.7110395e-06 -7.966738e-06 -7.2355683e-06 3.4867794e-06

momentum_buffer f4 [32]
00000000: 5ca3 0a3e 2360 c53d 9215 5ebc 1842 4c3d
00000010: 351d ecbd e06e ebba 7ade 933d aba7 cfbd
00000020: 8be8 75bd c8b6 86bb ebf4 b9bc 1c2c 993d
00000030: b674 01be f2b6 23bd d495 c9bd 5350 193e
00000040: 2c61 4cbd 134b 8ebd 3ba4 7e3d 46d8 11bd
00000050: 8075 6439 b033 113d c14f d63d 106e ebbb
00000060: 5dc2 1d3d 1891 813c bbfe e5bc 9925 b63d
00000070: 54b1 05be 0a09 87bc 8c57 a7bd 683c febd
0.13538879 0.09637477 -0.013554947 0.04986772 -0.11529008 -0.001796212 0.072201684 -0.10139402
-0.060036223 -0.0041111447 -0.022699794 0.07479116 -0.12642178 -0.039969392 -0.098430306 0.14972048
-0.049897358 -0.06947913 0.06216834 -0.035606645 0.00021787547 0.035449684 0.104644306 -0.0071847513
0.038515437 0.015816256 -0.028075567 0.0889389 -0.13055927 -0.016483802 -0.08170995 -0.12413865

momentum_buffer f4 [32]
00000000: 9e9e 4e3d 3bc0 c73d 1dac e9bc a9ed 003d
00000010: 08b9 47be a059 76ba 53fa 943d 4d53 34bd
00000020: 8ca7 7ebd c758 313d 0aba ddbb 7cc1 933d
00000030: 4f18 5fbd dfd0 1fbd ed7f 04be 0fcb 8a3d
00000040: 4abf 07bd 88de 7abd b655 3d3d 820a 9abc
00000050: 06b7 8cbc b6e1 153d 94b5 e13c fc52 763b
00000060: 61a6 053d 6e0c 633c d280 bcbc f260 a23d
00000070: eb1f eebd 780e 633c cd7c 83bd 6746 d6bd
0.050444238 0.09753462 -0.028524453 0.03147665 -0.19504178 -0.00093975104 0.07274308 -0.044024754
-0.062171504 0.043297555 -0.0067665624 0.072146386 -0.05446654 -0.039017554 -0.12939425 0.067770116
-0.03314141 -0.06124738 0.04622432 -0.018803839 -0.017177116 0.036592208 0.027552404 0.0037586084
0.032629374 0.013857944 -0.023010645 0.07928647 -0.116271816 0.01385843 -0.06420288 -0.10462647
