deepcluster_implementation/experiments/run_label_fraction_variation/config_1/checkpoints/checkpoint_epoch_8.pth.tar (torch, 203702 bytes, 32 tensors)

features.module.0.weight f4 [16, 1, 3, 3]
0.9878142 -0.06660143 -0.2955742 -0.11294508 0.115860894 -0.2578401 -0.037233863 -0.26589236
1.3012528 -0.5037958 -0.07617638 1.0414852 -0.3890716 0.38503072 -0.12894665 1.1801562
-0.13561645 -0.6465962 -1.160794 0.25352842 0.758067 -0.4312577 0.5238637 0.19545911
-1.1210374 -0.1370784 -0.459304 -0.7987042 -0.6736429 -0.9069685 -0.56419015 0.43063074
-0.028022736 -0.43642023 0.1800947 0.8240605 0.47690272 0.10353586 0.46376628 0.031664304
-0.15910116 0.026229223 1.0176141 0.07388119 1.1482278 -1.3176914 1.2988592 0.21376896
-0.33441746 -0.02277577 -1.3786508 1.1440389 -0.755712 0.04929761 0.532415 1.040451
0.33734703 -0.69998264 0.50714546 -0.5197769 -1.1631247 -0.26794428 -1.0729245 0.021431638
-1.2715075 -1.0323002 0.24067414 0.17573977 -0.37579635 0.83066726 1.0421964 1.031539
0.077632375 -1.2616367 -1.0998269 -0.03575564 0.008150281 -0.108598575 1.6007999 0.76501626
-1.5686808 -0.62597245 -0.65751886 0.030801672 1.3734555 0.8578436 0.8394053 -0.43263298
-0.7810737 -0.24272239 1.0516597 -0.15980564 -0.11389491 0.120864905 -0.40807885 -0.46218103
0.7700938 0.36677918 -0.4386859 -0.8796561 0.111797 0.9041524 -0.45668346 -0.16383776
0.1389 -0.42312467 -0.6421171 -0.82846135 0.643992 -0.008184438 1.0127518 0.09736899
-0.39826804 -0.029184004 -0.65943414 -0.38345128 0.77133393 -0.5076962 0.4228196 -0.9772622
-0.26425585 0.5373506 0.20568627 -0.7582329 0.17919976 -0.30439138 -0.5091938 -0.05332172
-0.79166514 -0.9597002 2.771015 -0.47298962 -0.9579485 0.3188952 -1.2415881 -1.136779
-0.7186341 -0.83076006 0.254304 0.4414795 -0.89597327 0.61484075 0.36724243 -0.27346265
00000000: 64e1 7c3f 5566 88bd 8055 97be c04f e7bd
00000010: 7a48 ed3d 9e03 84be 8982 18bd 0b23 88be
00000020: 748f a63f c3f8 00bf 5d02 9cbd 634f 853f
00000030: 6534 c7be bf22 c53e 970a 04be 5c0f 973f
00000040: 0adf 0abe 5487 25bf e694 94bf 7ace 813e
00000050: ae10 423f cfcd dcbe ee1b 063f 6f26 483e
00000060: 277e 8fbf 485e 0cbe e529 ebbe e177 4cbf
00000070: dc73 2cbf 162f 68bf c46e 10bf a27b dc3e
00000080: f08f e5bc 7972 dfbe bf6a 383e a1f5 523f
00000090: 982c f43e 9c0a d43d c672 ed3e 6eb2 013d
000000a0: 6aeb 22be abde d63c 2e41 823f 054f 973d
000000b0: 21f9 923f 1daa a8bf 0541 a63f 40e6 5a3e
000000c0: c438 abbe 4094 babc a177 b0bf de6f 923f
000000d0: 5776 41bf 4aec 493d 594c 083f 802d 853f
000000e0: c0b8 ac3e 1032 33bf 49d4 013f 1910 05bf
000000f0: 45e1 94bf fe2f 89be 9755 89bf 6791 af3c
00000100: c2c0 a2bf 6a22 84bf 4873 763e 20f5 333e
00000110: 6168 c0be 9ca6 543f b166 853f 7809 843f
00000120: b9fd 9e3d 507d a1bf 21c7 8cbf 8274 12bd
00000130: c288 053c ee68 debd 03e7 cc3f 1bd8 433f
00000140: 88ca c8bf bb3f 20bf 2853 28bf ca53 fc3c
00000150: 64cd af3f a39b 5b3f 44e3 563f 1282 ddbe
00000160: 72f4 47bf 388c 78be c99c 863f 17a4 23be
00000170: bc41 e9bd 0588 f73d b6ef d0be fea2 ecbe
00000180: de24 453f 7bca bb3e 709b e0be 2431 61bf
00000190: d3f5 e43d 8876 673f 6ad2 e9be 16c5 27be
000001a0: cd3b 0e3e cca3 d8be c961 24bf 0b16 54bf
000001b0: a9dc 243f 0518 06bc daa1 813f 6569 c73d
000001c0: cae9 cbbe 4b13 efbc add0 28bf ba53 c4be
000001d0: 2476 453f 61f8 01bf d07b d83e db2d 7abf
000001e0: 8b4c 87be cf8f 093f 6c9f 523e 8d1b 42bf
000001f0: 2480 373e 30d9 9bbe 865a 02bf e067 5abd
00000200: 91aa 4abf eaae 75bf 4f58 3140 b22b f2be
00000210: 1d3c 75bf 3b46 a33e 5cec 9ebf f981 91bf
00000220: 68f8 37bf b1ac 54bf 2234 823e 9a09 e23e
00000230: 815e 65bf 3466 1d3f 3307 bc3e 4c03 8cbe

features.module.0.bias f4 [16]
-0.055766135 0.06745427 0.16672687 0.2607212 0.29418933 -0.25608456 0.08127583 -0.13890651
-0.035390094 -0.24172989 0.2941579 -0.23702538 0.17260468 0.113500856 0.10494629 -0.17460468
00000000: 086b 64bd 7725 8a3d 73ba 2a3e 407d 853e
00000010: fc9f 963e 841d 83be f173 a63d 823d 0ebe
00000020: 34f5 10bd 0a88 77be dd9b 963e c8b6 72be
00000030: 48bf 303e 2373 e83d 15ee d63d 92cb 32be

features.module.1.weight f4 [16]
1.0956705 0.8705799 1.2116349 1.8320503 1.0454813 1.1959901 1.0029656 0.7690254
1.3345039 0.623663 0.7163473 1.878216 0.81259614 1.8284831 1.5503203 1.9190573
00000000: ee3e 8c3f 53de 5e3f da16 9b3f a080 ea3f
00000010: 55d2 853f 3416 993f 2d61 803f d9de 443f
00000020: 06d1 aa3f 61a8 1f3f 8962 373f 6269 f03f
00000030: 4d06 503f bc0b ea3f e570 c63f aba3 f53f

features.module.1.bias f4 [16]
-2.1719573 -1.7479414 -0.32591558 -0.589701 -1.6016462 -0.49778363 -0.28412867 -0.5468246
-0.4097775 -0.8016581 -1.2714449 -0.5303577 -1.1115285 -0.46623638 -0.55239725 -0.4129497
00000000: 5901 0bc0 8bbc dfbf 68de a6be a5f6 16bf
00000010: be02 cdbf 7fdd febe 5079 91be b2fc 0bbf
00000020: 5bce d1be 7739 4dbf b5be a2bf 86c5 07bf
00000030: 9146 8ebf 89b6 eebe e869 0dbf 256e d3be

features.module.1.running_mean f4 [16]
-0.018189177 0.08174561 0.119360894 0.22129343 0.3646409 -0.26398924 0.04503703 -0.12320396
-0.06284037 -0.2693683 0.32320926 -0.26600048 0.21127154 0.058166906 -0.0024330504 -0.22008868
00000000: 7801 95bc 3e6a a73d 7c73 f43d bf9a 623e
00000010: 36b2 ba3e 9929 87be c078 383d 5c52 fcbd
00000020: 74b2 80bd a4ea 89be af7b a53e 3731 88be
00000030: 9157 583e 6c40 6e3d d073 1fbb ed5e 61be

features.module.1.running_var f4 [16]
1.5235683 1.2172208 3.2604272 4.7313414 6.0751305 2.0243137 4.2753615 4.9929743
6.110351 1.1880224 1.7633901 4.101714 1.563234 1.3016851 2.9373977 4.7909746
00000000: 4904 c33f e4cd 9b3f d7aa 5040 2667 9740
00000010: 7867 c240 5b8e 0140 c3cf 8840 72c6 9f40
00000020: ff87 c340 1e11 983f c4b6 e13f 3e41 8340
00000030: 0d18 c83f 9e9d a63f 53fe 3b40 aa4f 9940

features.module.4.weight f4 [32, 16, 3, 3]
-0.12687969 -0.025759853 -0.21505171 -0.0050586713 0.02959045 -0.09579811 -0.12750591 0.13632837
0.2786523 -0.1439712 0.2261004 0.44401562 -0.17615724 -0.10138988 0.07783373 -0.07167752
0.117412925 0.5155901 0.38832423 -0.14504516 0.14740582 0.05636529 -0.20953567 -0.0031004685
0.07363483 -0.06955937 -0.0068012304 -0.52048904 -0.3777316 0.00047763094 -0.4566898 -0.1673199
-0.027450215 -0.27525806 -0.08004218 0.35649985 0.013238174 -0.048363943 -0.045037948 -0.08265678
-0.04182163 0.064480364 -0.09812521 0.011410779 0.19686191 -0.25295228 -0.016108468 0.107901484
-0.104942136 -0.04759791 0.06778719 -0.12190158 -0.042488188 -0.17215607 -0.20626886 -0.1099167
-0.022643449 -0.23281947 -0.18426812 -0.24285914 -0.10738451 -0.18386847 -0.30946502 -0.2541138
0.28883126 -0.052234054 -0.19382995 0.19337666 0.08161001 -0.08140206 0.028691513 0.24797545
0.121752344 -0.12327055 -0.2696426 0.27389634 -0.03326513 -0.061518747 0.15067533 -0.10368329
-0.1239842 -0.37761202 -0.2005527 0.2152239 -0.36300245 -0.30476126 0.14942911 -0.38838845
-0.13916571 0.17819932 0.31723925 0.20946012 0.018706786 -0.061374653 0.023961298 0.0029066652
-0.046298258 0.17248306 -0.25930902 -0.0007302391 -0.039691262 0.1238625 0.1662623 -0.06953735
-0.058895815 0.079262935 0.18990435 -0.36001834 -0.041635983 -0.26322892 0.16539559 0.079709604
-0.1095683 0.085743874 0.11429484 -0.021296801 0.05554718 -0.3415107 -0.1771545 -0.4430926
-0.20945482 -0.12884022 -0.20407191 -0.23319812 -0.24357755 -0.5011184 -0.23256516 -0.0894688
-0.30543512 -0.13412532 0.016890308 -0.16858375 -0.15718094 -0.03480203 -0.41438586 -0.38384134
-0.14575437 -0.4493866 -0.069514364 0.107372984 -0.10221929 -0.09866632 -0.11885898 -0.17899387
0.044472486 -0.120104946 -0.35594314 0.116626464 -0.057349812 -0.21219112 -0.09571554 -0.48725778
-0.4695481 -0.016225273 0.023404896 -0.07585037 -0.08762654 -0.003279843 -0.21523726 -0.034633018
0.11782314 -0.06983274 0.038155098 0.005532575 0.17873433 0.03675642 -0.19922972 -0.10029678
0.11697988 -0.083730385 -0.08709562 -0.30974117 -0.16291855 -0.091608614 -0.018459762 0.15218243
-0.04619045 -0.042897407 -0.042431384 -0.49913573 0.12788655 0.039784886 -0.1542069 -0.004113458
0.12236586 -0.16851485 0.09715473 0.14389414 -0.28414887 0.03829377 0.008690152 0.029769946
0.0023297877 -0.09841224 0.030205082 0.04581178 -0.08694455 0.114376806 -0.0082855 0.022893887
-0.16399124 -0.33811283 -0.15057343 -0.1374351 -0.27542487 -0.054941636 -0.13468593 -0.5876013
-0.5235259 -0.61800927 -0.2754672 -0.08213287 -0.22607729 -0.58977014 -0.4753979 -0.6234392
-0.05920242 -0.10131365 -0.058508746 0.14985484 0.0014301015 0.058084253 -0.025681363 -0.11257127
-0.061235476 0.096916236 -0.17785646 -0.38617763 -0.082568906 -0.011819807 -0.18295406 -0.101144485
0.07045087 -0.02239649 0.23174861 0.04255198 0.014492542 0.12958753 -0.021189293 -0.046024416
-0.001632122 0.07645413 -0.073519364 0.054232817 0.00022271625 0.080983184 -0.28940782 -0.027749335
-0.084806845 0.0567552 0.022163058 -0.048355177 0.04216001 -0.08877938 -0.2588117 0.05167373
00000000: c0ec 01be 5406 d3bc 8436 5cbe 36c3 a5bb
00000010: ac67 f23c cd31 c4bd e990 02be aa99 0b3e
00000020: 84ab 8e3e 306d 13be dd86 673e 0456 e33e
00000030: 9062 34be 7fa5 cfbd 4a67 9f3d aacb 92bd
00000040: 3076 f03d b6fd 033f 6fd2 c63e b886 14be
00000050: 8df1 163e 4adf 663d 8590 56be 3b31 4bbb
00000060: dccd 963d 2575 8ebd dbdc debb c53e 05bf
00000070: 0966 c1be 8a6a fa39 3fd3 e9be e855 2bbe
00000080: 46df e0bc a0ee 8cbe 28ed a3bd 2687 b63e
00000090: ede4 583c 4519 46bd b679 38bd f547 a9bd
000000a0: 284d 2bbd 480e 843d dff5 c8bd 47f4 3a3c
000000b0: 2b96 493e f682 81be e8f5 83bc 74fb dc3d
000000c0: e7eb d6bd 07f6 42bd 03d4 8a3d 89a7 f9bd
000000d0: 1808 2ebd ae49 30be 2538 53be 021c e1bd
000000e0: c17e b9bc 3a68 6ebe c8b0 3cbe 11b0 78be
000000f0: 69ec dbbd 0448 3cbe 3372 9ebe 341b 82be
00000100: b1e1 933e 60f3 55bd 5c7b 46be 8804 463e
00000110: 2623 a73d 20b6 a6bd 770a eb3c 47ed 7d3e
00000120: 4b59 f93d 4575 fcbd 980e 8abe 243c 8c3e
00000130: 0441 08bd 15fb 7bbd a24a 1a3e e857 d4bd
00000140: 6eeb fdbd 5d56 c1be b05d 4dbe a763 5c3e
00000150: 75db b9be ab09 9cbe f203 193e dada c6be
00000160: 7581 0ebe e279 363e 2f6d a23e b77c 563e
00000170: f93e 993c fd63 7bbd 7c4a c43c c07d 3e3b
00000180: 3ea3 3dbd 669f 303e 27c4 84be 846d 3fba
00000190: 4e93 22bd 9fab fd3d aa40 2a3e 9969 8ebd
000001a0: bd3c 71bd 9b54 a23d 4976 423e 5354 b8be
000001b0: 7e8a 2abd f1c5 86be 765d 293e ca3e a33d
000001c0: 5865 e0bd 7c9a af3d 6a13 ea3d a176 aebc
000001d0: 7185 633d 7eda aebe fd67 35be 09dd e2be
000001e0: 537b 56be b1ee 03be 3af8 50be 7dcb 6ebe
000001f0: 656c 79be 4c49 00bf 9025 6ebe 6b3b b7bd
00000200: fe61 9cbe 2658 09be 8b5d 8a3c 38a1 2cbe
00000210: 0af4 20be 938c 0ebd 622a d4be da86 c4be
00000220: a240 15be 0016 e6be 8c5d 8ebd 5ee6 db3d
00000230: 5958 d1bd 9111 cabd 566c f3bd 2b4a 37be
00000240: c828 363d 95f9 f5bd 2e3e b6be dbd9 ee3d
00000250: a3e7 6abd a148 59be 8206 c4bd da79 f9be
00000260: 9c68 f0be ddea 84bc a0bb bf3c 7057 9bbd
00000270: 8b75 b3bd a2f2 56bb 2867 5cbe 5adb 0dbd
00000280: 424d f13d 7804 8fbd 8548 1c3d 9a4a b53b
00000290: 2206 373e e68d 163d e002 4cbe 6668 cdbd
000002a0: 2693 ef3d d67a abbd 305f b2bd 6596 9ebe
000002b0: 1fd4 26be 4c9d bbbd ed38 97bc b6d5 1b3e
000002c0: 3332 3dbd 31b5 2fbd 88cc 2dbd b88e ffbe
000002d0: b1f4 023e 7af5 223d 6ae8 1dbe 30ca 86bb
000002e0: f49a fa3d 288f 2cbe 0ff9 c63d fc58 133e
000002f0: f67b 91be eed9 1c3d 2461 0e3c 1ae0 f33c
00000300: 5aaf 183b 5b8c c9bd a670 f73c 22a5 3b3d
00000310: fc0f b2bd 633e ea3d e8bf 07bc f68b bb3c
00000320: 52ed 27be 201d adbe ec2f 1abe c9bb 0cbe
00000330: 7d04 8dbe 7b0a 61bd 1ceb 09be 0a6d 16bf
00000340: cb05 06bf db35 1ebf 090a 8dbe 4735 a8bd
00000350: ce80 67be 2dfb 16bf 5b67 f3be b699 1fbf
00000360: 3d7e 72bd 887d cfbd dea6 6fbd 8c73 193e
00000370: 3e72 bb3a c1e9 6d3d b961 d2bc c48b e6bd
00000380: 0dd2 7abd 057c c63d 0120 36be 13b9 c5be
00000390: e319 a9bd dda7 41bc 4f58 3bbe d724 cfbd
000003a0: 8c48 903d d878 b7bc 824f 6d3e fc4a 2e3d
000003b0: 2072 6d3c 98b2 043e 2b95 adbc 1984 3cbd
000003c0: edec d5ba fc93 9c3d 5291 96bd 3b23 5e3d
000003d0: f088 6939 83da a53d 432d 94be 9352 e3bc
000003e0: 36af adbd 2478 683d 4d8f b53c 1410 46bd
000003f0: faaf 2c3d f7d1 b5bd f882 84be d5a7 533d

features.module.4.bias f4 [32]
0.020976286 0.040517587 -0.073812 -0.056308586 -0.07748526 0.037688423 0.06055108 -0.07757382
0.020990716 0.016373988 -0.04332711 0.017443974 0.06225519 0.07919335 0.034913205 -0.016008785
-0.045938525 -0.030750118 0.0006621395 -0.005928751 0.058913004 -0.07296559 0.007206665 -0.025678504
0.0067323176 0.07764137 0.0023620091 -0.01400329 -0.02736461 -0.080573626 -0.07314901 0.035179544
00000000: 76d6 ab3c c5f5 253d bf2a 97bd d5a3 66bd
00000010: 98b0 9ebd 2d5f 1a3d 6904 783d 06df 9ebd
00000020: b9f4 ab3c be22 863c c577 31bd aae6 8e3c
00000030: 4cff 7e3d 2030 a23d 2601 0f3d db24 83bc
00000040: 092a 3cbd ace7 fbbc 6e93 2d3a f845 c2bb
00000050: c34e 713d fc6e 95bd e325 ec3b ba5b d2bc
00000060: c69a dc3b 7002 9f3d f0cb 1a3b 0e6e 65bc
00000070: bf2b e0bc c903 a5bd 26cf 95bd 6d18 103d

features.module.5.weight f4 [32]
0.6392166 1.3184277 1.2213641 0.7919864 0.64987963 1.2692854 0.7273513 0.57838726
0.77806896 0.978917 0.9583249 1.1664126 0.658152 0.6867329 1.3115367 0.7092936
0.9237099 1.2337182 0.89320636 0.8463023 1.1070275 1.0218673 0.70661753 0.8538536
0.7953988 0.7191558 1.1829587 1.4037143 0.8449624 0.579331 0.801826 0.7803385
00000000: b3a3 233f 3dc2 a83f a955 9c3f 9fbf 4a3f
00000010: 835e 263f f277 a23f b233 3a3f 3011 143f
00000020: 872f 473f 4e9a 7a3f c854 753f 024d 953f
00000030: a67c 283f bacd 2f3f 6fe0 a73f 4494 353f
00000040: 4178 6c3f 7aea 9d3f 2ca9 643f 44a7 583f
00000050: 14b3 8d3f 8ccc 823f e3e4 343f 2696 5a3f
00000060: 419f 4b3f 981a 383f 316b 973f e9ac b33f
00000070: 754f 583f 094f 143f 7844 4d3f 44c4 473f

features.module.5.bias f4 [32]
-1.0401964 -1.052278 -0.7797878 -0.82217115 -0.31906003 -1.0114774 -0.60967004 -0.6994214
-0.41574144 -0.919351 -0.73021346 -1.1738214 -0.70635235 -0.39525473 -0.9236818 -1.1950017
-1.0091159 -1.0804644 -1.0838248 -1.0214853 -0.8189189 -0.58871675 -0.8713066 -1.1414213
-0.7235372 -0.75546867 -1.0698282 -1.1082278 -1.0471166 -0.37293667 -0.5755541 -0.6776932
00000000: 2825 85bf 0cb1 86bf 2ca0 47bf cf79 52bf
00000010: d65b a3be 1778 81bf 5613 1cbf 480d 33bf
00000020: 10dc d4be 965a 6bbf 45ef 3abf c83f 96bf
00000030: 82d3 34bf d45e cabe 6976 6cbf d1f5 98bf
00000040: b62a 81bf a84c 8abf c5ba 8abf 08c0 82bf
00000050: aba4 51bf 24b6 16bf f30d 5fbf 181a 92bf
00000060: bc39 39bf 6566 41bf 21f0 88bf 69da 8dbf
00000070: eb07 86bf 8ef1 bebe 8357 13bf 4d7d 2dbf

features.module.5.running_mean f4 [32]
-2.1203272 -2.240077 -0.9480384 -0.7110966 -0.48110017 -1.408256 -1.588184 -1.5391519
-0.905016 -1.0583209 -1.5087743 -1.9207613 -1.078299 -0.66319644 -1.9638886 -1.528676
-2.4318838 -2.0511377 -1.6645298 -1.713951 -1.1899242 -0.9340454 -0.936191 -2.352078
-1.7959969 -1.0062951 -0.9656858 -1.3037581 -1.8958626 -0.88196254 -0.8154273 -1.189577
00000000: 71b3 07c0 6c5d 0fc0 a5b2 72bf 6d0a 36bf
00000010: c352 f6be bc41 b4bf 9d49 cbbf ee02 c5bf
00000020: 21af 67bf 0f77 87bf 841f c1bf 82db f5bf
00000030: b405 8abf 3ec7 29bf b460 fbbf a8ab c3bf
00000040: fca3 1bc0 d745 03c0 500f d5bf bf62 dbbf
00000050: 704f 98bf 991d 6fbf 37aa 6fbf 7288 16c0
00000060: 3ae3 e5bf 47ce 80bf 2f37 77bf 8ce1 a6bf
00000070: a0ab f2bf 4cc8 61bf d8bf 50bf 0f44 98bf

features.module.5.running_var f4 [32]
1.4162678 4.0427227 5.750044 0.6739585 0.8289238 2.633274 1.5827999 1.2037532
0.92305017 2.3123884 2.1652327 2.8160026 1.240791 1.0236503 3.8909476 1.2575121
3.392476 3.2302835 1.5744433 2.5724802 2.2747169 1.6706727 1.5545113 2.242527
1.8018582 2.0474012 2.4307387 2.8458204 1.5632302 0.692811 1.3434299 1.5312682
00000000: 4348 b53f fc5d 8140 5c00 b840 8b88 2c3f
00000010: 5a34 543f 9087 2840 3099 ca3f 9614 9a3f
00000020: 044d 6c3f 2cfe 1340 2c93 0a40 6339 3440
00000030: 3dd2 9e3f f906 833f 4905 7940 28f6 a03f
00000040: 541e 5940 f7bc 4e40 5c87 c93f 84a3 2440
00000050: f694 1140 9ad8 d53f 3afa c63f 9085 0f40
00000060: 4aa3 e63f 9f08 0340 3991 1b40 ec21 3640
00000070: ed17 c83f 105c 313f 83f5 ab3f 9900 c43f

features.module.8.weight f4 [64, 32, 3, 3]
0.035154197 0.021892503 -0.0264186 0.036369767 0.020575091 -0.012372235 0.031487193 0.01590881
-0.018302087 0.026435945 0.021636304 0.0014598106 -0.00038384247 -0.012369085 -0.034276288 -0.015180944
-0.04550026 -0.087011606 -0.019570855 -0.008715565 -0.04186992 -0.043339994 -0.009737204 -0.044973064
-0.05362822 -0.016397234 -0.045693424 -0.020480663 -0.015450936 -0.002468595 -0.020620441 -0.012573349
0.004218437 -0.026972571 -0.01905113 -0.0029107563 -0.048719402 -0.00806985 -0.035346407 -0.036999237
-0.002208804 -0.021413643 -0.026020473 0.0061794748 -0.014195918 -0.007552602 -0.023660598 -0.025446113
-0.004081836 -0.0024153527 -0.018054739 0.0067011057 0.011533548 -0.019662201 -0.0007325702 -0.0015467994
-0.0049095256 -0.015560691 -0.021236813 -0.018080724 -0.023654306 -0.037020784 -0.03384058 0.059023388
0.026695022 0.034140155 0.024305116 0.0136623895 0.019948697 0.009876898 0.0115993945 0.031879842
-0.0058135157 -0.035382573 -0.024715386 -0.024549153 -0.033208024 -0.00604329 -0.041423433 -0.04617603
-0.016197622 -0.030619035 -0.025905367 -0.038057726 -0.027768979 -0.025787067 -0.027244657 -0.03879192
-0.031912737 -0.027928865 0.117322475 0.17146868 0.23188649 0.07548877 0.13177031 0.18371603
0.10947642 0.18445973 0.2434649 0.22227104 0.1388303 0.14239606 0.15414251 0.06035579
0.08292489 0.24333072 0.13236268 0.1440241 -0.057690427 -0.044189386 -0.04736826 -0.034850895
-0.021146156 -0.02754505 -0.05318873 -0.05162213 -0.06830268 0.10212488 0.07667372 0.09289972
0.07853469 0.046436697 0.05215828 0.10784495 0.0629863 0.06967051 0.0004318309 -0.017378105
-0.035172634 0.006763676 -0.016591715 -0.051434524 0.026397785 0.0017343235 -0.05288398 -0.00397469
-0.0021959147 0.0010979604 -0.010860951 -0.007366098 -0.008605544 -0.028727824 -0.022940433 -0.030821227
0.01818753 0.022197528 0.024085218 0.005621497 0.007780415 0.008513696 0.002994088 0.0047496
0.0061593093 0.0028244148 -0.01477759 -0.0005055682 0.0006098499 -0.026005592 -0.012748483 -0.0049282694
-0.030338058 0.005100231 -0.024990374 -0.041134153 -0.045170847 -0.015922789 -0.022502413 -0.017626883
-0.047521267 -0.036207072 -0.03995099 0.027529659 0.019821228 0.027543511 0.020287573 0.01742152
0.022395434 0.029457023 0.02405859 0.034775663 -0.04101426 -0.014474686 0.003162605 -0.045657232
-0.013501072 0.013756268 -0.070631735 -0.035356726 -0.009441042 -0.023886712 -0.032416053 -0.044504993
-0.0011263946 -0.0044035944 -0.018796349 -0.0025787596 -0.0006642634 -0.010289131 -0.038671345 -0.027603328
-0.02801481 -0.021753417 -0.008404081 -0.014729612 -0.018989202 -0.012861073 -0.012071589 -0.04890207
-0.0412468 -0.06886292 -0.029585052 -0.026575213 -0.040871516 -0.03987769 -0.034876212 -0.05321819
0.053639036 0.042503897 0.06253829 0.03790052 0.02374621 0.056013376 0.065072864 0.05661001
0.09112261 0.102879986 0.10607974 0.105950855 0.07361075 0.054279044 0.026406866 0.108423516
0.059471764 0.040780675 -0.017283516 -0.0031786743 -0.012963483 0.006192532 0.020215131 0.016502727
-0.011397819 0.0033057267 0.0031023892 -0.047761228 -0.04822841 -0.06282904 -0.029622298 -0.027805204
-0.04287281 -0.043940853 -0.024311867 -0.025081433 0.017926037 0.01479802 0.020346913 0.0077564125
00000000: d9fd 0f3d e857 b33c d26b d8bc 77f8 143d
00000010: 188d a83c eab4 4abc b7f8 003d 3153 823c
00000020: 42ee 95bc 3290 d83c 9e3e b13c 1e57 bf3a
00000030: 773e c9b9 b4a7 4abc 4b65 0cbd 7fb9 78bc
00000040: 7b5e 3abd 2433 b2bd 0f53 a0bc bbcb 0ebc
00000050: cb7f 2bbd 4785 31bd cb88 1fbc ad35 38bd
00000060: 44a9 5bbd 7e53 86bc 0729 3bbd 10c7 a7bc
00000070: ec25 7dbc 27c8 21bb 33ec a8bc 7300 4ebc
00000080: d03a 8a3b 95f5 dcbc 1e11 9cbc 63c2 3ebb
00000090: ff8d 47bd 6737 04bc 65c7 10bd 838c 17bd
000000a0: 95c1 10bb aa6b afbc e328 d5bc 317d ca3b
000000b0: ff95 68bc d17b f7bb dfd3 c1bc 5e74 d0bc
000000c0: ecc0 85bb e54a 1ebb 88e7 93bc f394 db3b
000000d0: 35f7 3c3c a012 a1bc f409 40ba fabd caba
000000e0: 16e0 a0bb 45f2 7ebc d3f8 adbc 071e 94bc
000000f0: adc6 c1bc 1ba3 17bd 6c9c 0abd 82c2 713d
00000100: 85af da3c 8cd6 0b3d 861b c73c 37d8 5f3c
00000110: 736b a33c b6d2 213c 630b 3e3c 7094 023d
00000120: 4e7f bebb 51ed 10bd ec77 cabc 4e1b c9bc
00000130: 2305 08bd ca06 c6bb 9eab 29bd 1423 3dbd
00000140: e0b0 84bc c5d4 fabc 7e37 d4bc 6be2 1bbd
00000150: c57b e3bc 663f d3bc 3030 dfbc 47e4 1ebd
00000160: eeb6 02bd 13cb e4bc c446 f03d 7c95 2f3e
00000170: a773 6d3e db99 9a3d ccee 063e 0e20 3c3e
00000180: 2c35 e03d 03e3 3c3e dd4e 793e 059b 633e
00000190: 8829 0e3e 46d0 113e 89d7 1d3e a237 773d
000001a0: 86d4 a93d b02b 793e 158a 073e 0e7b 133e
000001b0: cc4c 6cbd eeff 34bd 3805 42bd d0bf 0ebd
000001c0: b43a adbc 28a6 e1bc 6ddc 59bd ba71 53bd
000001d0: 47e2 8bbd d926 d13d 1c07 9d3d 3542 be3d
000001e0: ccd6 a03d 6834 3e3d eca3 553d d0dd dc3d
000001f0: f6fe 803d 6aaf 8e3d 5d67 e239 875c 8ebc
00000200: 2e11 10bd d4a1 dd3b 59eb 87bc 02ad 52bd
00000210: 2b40 d83c 3d52 e33a df9c 58bd 1e3e 82bb
00000220: 56e9 0fbb 70e9 8f3a 21f2 31bc 4f5f f1bb
00000230: 45fe 0cbc 9d56 ebbc 93ed bbbc cc7c fcbc
00000240: 04fe 943c 97d7 b53c 5d4e c53c 8934 b83b
00000250: daf2 fe3b 077d 0b3c 7638 443b 88a2 9b3b
00000260: 08d4 c93b d119 393b b41d 72bc 1c88 04ba
00000270: 56de 1f3a ae09 d5bc 03df 50bc 527d a1bb
00000280: 8587 f8bc d71f a73b 9db8 ccbc 497c 28bd
00000290: 1105 39bd 8270 82bc fb56 b8bc 4166 90bc
000002a0: a9a5 42bd de4d 14bd a6a3 23bd e185 e13c
000002b0: 2160 a23c eea2 e13c 2032 a63c 93b7 8e3c
000002c0: a176 b73c db4f f13c 8516 c53c ed70 0e3d
000002d0: 92fe 27bd 3c27 6dbc b543 4f3b 1403 3bbd
000002e0: 9a33 5dbc f861 613c 5fa7 90bd 37d2 10bd
000002f0: 9aae 1abc 11ae c3bc b2c6 04bd de4a 36bd
00000300: 88a3 93ba 074c 90bb cdfa 99bc 6800 29bb
00000310: f621 2eba be93 28bc d865 1ebd 6020 e2bc
00000320: 517f e5bc 3934 b2bc 45b1 09bc 7854 71bc
00000330: 3e8f 9bbc 40b7 52bc eac7 45bc 894d 48bd
00000340: 68f2 28bd 0108 8dbd 5a5c f2bc 43b4 d9bc
00000350: e468 27bd ca56 23bd 5cda 0ebd 51fb 59bd
00000360: 9bb4 5b3d 9118 2e3d 1314 803d 933d 1b3d
00000370: 6987 c23c 486e 653d ec44 853d e6df 673d
00000380: 7e9e ba3d beb2 d23d 5640 d93d c3fc d83d
00000390: 3cc1 963d b453 5e3d 3653 d83c 260d de3d
000003a0: aa98 733d a309 273d 2996 8dbc 4e51 50bb
000003b0: ca64 54bc b9ea ca3b 349a a53c ba30 873c
000003c0: ebbd 3abc e4a4 583b 7451 4b3b 47a1 43bd
000003d0: 278b 45bd 83ac 80bd 76aa f2bc bdc7 e3bc
000003e0: 669b 2fbd 53fb 33bd ae29 c7bc 9477 cdbc
000003f0: a0d9 923c 6573 723c 92ae a63c 8129 fe3b

features.module.8.bias f4 [64]
-0.026181158 0.01050946 0.011066723 0.056217283 0.052231677 -0.047145274 0.028367048 -0.04577008
-0.027917327 0.022532409 -0.0390619 0.048967663 0.0216204 0.0048840907 0.031988777 -0.048647538
0.009421467 0.02128022 -0.026266253 -0.017751876 0.023164257 0.048374776 -0.022271547 0.0344808
0.03201275 -0.033419743 -0.04539258 -0.0067290156 0.0354366 -0.047610402 -0.039681684 0.041613754
-0.032749664 -0.04077233 -0.0024346986 0.055883285 0.037667077 0.029462218 0.0073059495 -0.028611146
-0.044494085 0.030338986 0.016926141 0.014861504 -0.021106359 -0.055716693 0.0078114127 -0.009833483
-0.0043209386 0.0054208003 -0.033380322 -0.035571273 -0.016562726 0.022163711 -0.03575386 0.053225584
-0.056198865 -0.035443 0.016367873 -0.055548057 -0.031702407 0.029469276 -0.03870379 0.018290006
00000000: de79 d6bc df2f 2c3c 3351 353c 1844 663d
00000010: e2f0 553d 671b 41bd 0362 e83c 6879 3bbd
00000020: e1b2 e4bc e395 b83c 5fff 1fbd 5192 483d
00000030: 441d b13c b90a a03b aa06 033d a442 47bd
00000040: 7f5c 1a3c db53 ae3c 532c d7bc 626c 91bc
00000050: f8c2 bd3c a124 463d d272 b6bc bd3b 0d3d
00000060: cd1f 033d 24e3 08bd 92ed 39bd 137f dcbb
00000070: f825 113d 2003 43bd 4389 22bd 2f73 2a3d
00000080: 8324 06bd e300 27bd 778f 1fbb dfe5 643d
00000090: cb48 1a3d c05a f13c bf66 ef3b ec61 eabc
000000a0: 6e3f 36bd 7789 f83c b1a8 8a3c aa7d 733c
000000b0: 3ee7 acbc 3037 64bd e1f6 ff3b 9e1c 21bc
000000c0: a996 8dbb f8a0 b13b ceb9 08bd 2fb3 11bd
000000d0: 8eae 87bc ac90 b53c a472 12bd 1203 5a3d
000000e0: c830 66bd ae2c 11bd eb15 863c 5c86 63bd
000000f0: 62da 01bd 8d69 f13c de87 1ebd ecd4 953c

features.module.9.weight f4 [64]
6.003324 5.054339 4.5623364 4.011514 3.4497652 4.2544484 3.9265623 6.5537896
3.8413823 4.9304204 3.3883317 4.1765504 4.646226 5.5410595 4.966819 5.4711223
3.930763 4.5678816 6.5019417 5.0750537 4.1567187 5.8186016 3.7672286 5.1558695
5.7066507 3.9481032 4.3395877 4.0235014 3.6600463 3.9312582 3.578866 5.7406516
4.64712 6.220707 6.070175 4.8375516 5.194633 6.2265453 4.8451514 4.2499185
6.601131 5.4629116 4.3087087 4.9998813 5.2364902 6.352079 4.9125466 4.620894
4.6521006 4.579359 6.312627 3.6794026 4.1699653 4.682068 5.3558135 6.016304
4.98375 4.684051 4.534128 5.8369045 4.4548826 4.1801705 4.509508 4.02331
00000000: 3b1b c040 25bd a140 a9fe 9140 535e 8040
00000010: f4c8 5c40 7124 8840 cc4c 7b40 a5b8 d140
00000020: 35d9 7540 01c6 9d40 6dda 5840 4da6 8540
00000030: e2ad 9440 5c50 b140 2ef0 9e40 6f13 af40
00000040: 9f91 7b40 162c 9240 e80f d040 d766 a240
00000050: d703 8540 fc31 ba40 461a 7140 e2fc a440
00000060: e29c b640 b9ad 7c40 e7dd 8a40 86c0 8040
00000070: 333e 6a40 bc99 7b40 240c 6540 6bb3 b740
00000080: 35b5 9440 0810 c740 e03e c240 39cd 9a40
00000090: 6f3a a640 dc3f c740 7b0b 9b40 55ff 8740
000000a0: 773c d340 2cd0 ae40 f1e0 8940 07ff 9f40
000000b0: 5491 a740 3b44 cb40 9533 9d40 5dde 9340
000000c0: 02de 9440 1c8a 9240 0a01 ca40 557b 6b40
000000d0: 5b70 8540 80d3 9540 d362 ab40 9085 c040
000000e0: e17a 9f40 bfe3 9540 9417 9140 ecc7 ba40
000000f0: 668e 8e40 f5c3 8540 e44d 9040 f5be 8040

features.module.9.bias f4 [64]
1.3175563 1.0398946 1.1314589 0.8472874 0.62632835 1.0074457 0.915944 1.938062
0.9280172 1.0096132 0.8678134 1.098889 0.96279246 1.5570843 1.2808856 1.2882866
0.7258882 1.1529052 1.8460809 1.1055114 0.95072716 3.3989842 0.9657254 0.99045736
1.3652115 0.8022431 0.7530734 1.0001814 0.82794344 0.91679096 0.80677766 1.8240911
1.3197781 3.2878451 2.1387045 0.9136475 1.3946784 2.1739874 1.1093868 1.0249305
1.284275 2.0180795 1.0792737 1.3024449 1.7448127 1.0411352 1.0512618 1.6075555
1.1044906 0.8884245 1.6554674 0.9033789 1.0981905 1.4557891 1.6113803 1.2733768
1.2485628 1.1160718 1.2941868 1.5296869 1.1424348 1.0564629 1.1272318 0.8295406
00000000: afa5 a83f 441b 853f a5d3 903f d4e7 583f
00000010: 0e57 203f fbf3 803f 4e7b 6a3f 6a12 f83f
00000020: 8992 6d3f 013b 813f 0529 5e3f 65a8 8c3f
00000030: 9179 763f 8a4e c73f 0ff4 a33f 93e6 a43f
00000040: cfd3 393f 6692 933f 614c ec3f 6681 8d3f
00000050: db62 733f f588 5940 c839 773f 9d8e 7d3f
00000060: 40bf ae3f ce5f 4d3f 6bc9 403f f205 803f
00000070: 1af4 533f d0b2 6a3f fb88 4e3f d17b e93f
00000080: 7dee a83f 0e6c 5240 89e0 0840 cde4 693f
00000090: d284 b23f 9c22 0b40 6300 8e3f ec30 833f
000000a0: 2063 a43f 3728 0140 a425 8a3f 84b6 a63f
000000b0: 0656 df3f eb43 853f bf8f 863f 61c4 cd3f
000000c0: f35f 8d3f ca6f 633f 5be6 d33f d743 673f
000000d0: 8291 8c3f 4c57 ba3f b641 ce3f 03fe a23f
000000e0: e8d0 9f3f 71db 8e3f eaa7 a53f c8cc c33f
000000f0: 4e3b 923f 2d3a 873f 2249 903f c65c 543f

features.module.9.running_mean f4 [64]
-0.002852345 0.04016807 0.0226524 0.06808669 0.08408526 -0.018881164 0.0474625 -0.033506628
-0.020981714 0.027752811 -0.02567121 0.078502245 0.058991417 0.02909576 0.047778957 -0.004372106
0.028082918 0.03540308 0.0058161127 0.02419502 0.03766186 0.12196185 -0.015676409 0.02958522
0.0577345 -0.024318244 -0.023377473 -0.00028565276 0.04511538 -0.047661074 -0.008167496 0.081034146
-0.023100642 0.023577658 0.022810575 0.094189875 0.02987928 0.05225773 0.043352272 -0.025192806
-0.043830726 0.06451252 0.025385577 0.019418834 0.04157376 -0.02181565 0.017337892 0.022207206
0.013975678 0.023873813 -0.025147524 -0.02426695 0.00020945421 0.022559926 -0.02025198 0.07311913
-0.036087096 0.009854302 0.024830302 -0.04376472 -0.023112511 0.043139648 -0.02788293 0.050970547
00000000: 68ee 3abb 4687 243d 8791 b93c 0971 8b3d
00000010: e534 ac3d acac 9abc 0a68 423d 3f3e 09bd
00000020: d8e1 abbc dd59 e33c 6e4c d2bc c9c5 a03d
00000030: fca0 713d 3b5a ee3c deb3 433d e243 8fbb
00000040: 260e e63c d202 113d 1795 be3b a234 c63c
00000050: 5343 1a3d 22c7 f93d d06b 80bc b45c f23c
00000060: 037b 6c3d 0e37 c7bc 1d82 bfbc aac3 95b9
00000070: e8ca 383d 4238 43bd f6d0 05bc 3bf5 a53d
00000080: 8f3d bdbc ef25 c13c 3edd ba3c 9fe6 c03d
00000090: 64c5 f43c 340c 563d 2792 313d 2561 cebc
000000a0: d987 33bd 241f 843d 6af5 cf3c 3f14 9f3c
000000b0: 3f49 2a3d bcb6 b2bc 3208 8e3c e3eb b53c
000000c0: 3efa 643c 0493 c33c 2e02 cebc 7ccb c6bc
000000d0: f0a0 5b39 98cf b83c 7be7 a5bc 7cbf 953d
000000e0: 10d0 13bd f073 213c eb68 cb3c a342 33bd
000000f0: 7356 bdbc 33b3 303d be6a e4bc 7ec6 503d

features.module.9.running_var f4 [64]
0.019297536 0.012740629 0.014175522 0.007070392 0.012878691 0.00947552 0.0108915465 0.020922849
0.009179157 0.007487148 0.010790563 0.009599943 0.015630886 0.018201854 0.015440904 0.022695642
0.008630262 0.01359445 0.018240381 0.018069047 0.010304973 0.015306333 0.009134286 0.014406289
0.017308954 0.0054812254 0.009276928 0.010233664 0.009613442 0.010295595 0.013925791 0.017450403
0.013221481 0.023812287 0.015909549 0.017136225 0.015652318 0.016944736 0.011668823 0.010607667
0.021992702 0.011626534 0.01082342 0.015886799 0.01791333 0.018034048 0.008943802 0.009173907
0.012422694 0.010187987 0.011725819 0.009782091 0.008311335 0.0127773015 0.014190355 0.017352263
0.012441098 0.015696462 0.012245266 0.020523833 0.011969928 0.012193685 0.011348775 0.013904918
00000000: de15 9e3c 12be 503c 7340 683c bfae e73b
00000010: 2501 533c 363f 1b3c 7572 323c 6566 ab3c
00000020: 2d64 163c c056 f53b e7ca 303c 1449 1d3c
00000030: 580c 803c 0e1c 953c d8fb 7c3c 36ec b93c
00000040: f165 0d3c 42bb 5e3c da6c 953c 8a05 943c
00000050: 31d6 283c 6ac7 7a3c f9a7 153c 5b08 6c3c
00000060: 82cb 8d3c da9b b33b 42fe 173c 19ab 273c
00000070: b381 1d3c dbae 283c 0029 643c 26f4 8e3c
00000080: e99e 583c fc11 c33c be54 823c 4561 8c3c
00000090: 4a39 803c b0cf 8a3c 972e 3f3c c8cb 2d3c
000000a0: 0a2a b43c 387d 3e3c b754 313c 0825 823c
000000b0: fabe 923c 24bc 933c 0689 123c 284e 163c
000000c0: 8e88 4b3c 84eb 263c a61d 403c 1045 203c
000000d0: 442c 083c e357 513c aa7e 683c 5526 8e3c
000000e0: bfd5 4b3c de95 803c 5ea0 483c 9921 a83c
000000f0: 841d 443c 06c8 473c 36f0 393c 74d1 633c

top_layer.weight f4 [10, 64]
-0.10096249 -0.099668585 -0.06873412 -0.07213503 -0.05753125 -0.0931816 0.04240243 0.6278208
0.075130746 -0.059822604 -0.036004826 -0.088339604 -0.049922846 -0.055681694 -0.16676839 -0.017042885
-0.060777057 -0.15515473 -0.13721175 -0.06924888 0.0024074444 0.1393236 0.015241664 -0.065559655
-0.15740235 -0.04822629 -0.09062221 -0.020608295 -0.04797983 0.3448654 -0.0641111 -0.08362641
0.020831415 -0.10652281 -0.10925796 -0.051051356 0.4498579 -0.1426173 -0.085021794 0.12189627
-0.09615075 -0.102238774 0.050837073 -0.002504998 -0.08374705 -0.14729206 -0.08555064 0.39073294
-0.08169588 -0.07956028 -0.08653224 -0.06260249 0.2656881 0.29459974 0.5034086 -0.119753525
-0.052907255 -0.08929553 -0.002783951 -0.012834121 -0.014476678 -0.14252159 0.031867035 -0.028814496
0.35253373 0.0008505529 -0.0067117806 0.13536394 -0.029237432 -0.05126623 -0.12018671 -0.06218385
-0.095785975 0.08781414 0.29481772 -0.00636352 -0.03980272 -0.08205152 -0.15599011 0.29032534
-0.03882277 -0.15289414 0.1979983 -0.0524011 -0.06109865 -0.3760111 0.04523218 0.022356553
0.06434045 0.029704886 0.0017405802 -0.05334079 0.27652577 0.08365228 -0.028243916 -0.2330374
0.026029816 -0.42533517 0.032091822 -0.022885554 0.10575443 0.05805116 -0.034732625 0.083859235
0.009508995 -0.15233053 -0.026675517 0.4408217 -0.19159988 0.12159745 0.20185661 -0.19225965
-0.14304584 0.010539038 0.10531199 0.2417865 -0.13129595 0.12763573 -0.07229021 0.087103054
-0.098145865 -0.07363152 0.12449444 0.5178309 -0.028380416 -0.16585349 -0.055289835 -0.04687674
-0.16668455 -0.08294442 -0.07880695 0.29670355 -0.07250121 -0.02125495 -0.068254426 -0.08143072
-0.05750758 0.43064678 -0.10443066 -0.03747623 -0.11337014 -0.06448053 -0.023004316 -0.123601384
-0.06676804 -0.041710593 -0.08579773 -0.09927208 0.009847538 0.06811159 -0.05491987 -0.08757778
-0.11655814 0.36613885 -0.053793773 -0.07275404 0.09907023 -0.0638058 -0.08438209 0.05441047
-0.072412595 0.22051209 -0.009722611 -0.12186539 -0.08472246 -0.033578802 -0.05893955 -0.074065566
-0.106017135 0.38884664 -0.049827006 -0.10459258 -0.073135436 -0.12587593 0.33946538 -0.0023619113
0.029300151 -0.05628257 0.5504905 0.14817469 -0.061656132 -0.098388635 -0.06960027 -0.11914499
0.034901593 -0.09531573 -0.10637204 -0.09246393 -0.0709196 -0.015527359 -0.013916981 -0.10189146
-0.066342674 -0.08981407 -0.0410623 -0.06938128 -0.034832146 -0.033353694 -0.14355153 -0.12399491
-0.1284645 -0.119797364 -0.012607278 -0.06774618 -0.037939504 -0.05585286 0.2411772 -0.042136945
-0.0794428 0.15332249 -0.122100346 -0.044443388 0.38381207 -0.20099498 -0.073021725 -0.03871798
-0.06521498 -0.099273376 -0.050131552 -0.03577161 -0.061234444 0.034079112 -0.07664498 0.49645483
-0.10590315 0.4103844 -0.13099985 -0.014489239 0.06252957 -0.12107901 -0.092637464 0.30626747
-0.060688645 -0.10795205 -0.13953905 0.016306007 -0.03647428 -0.08037135 -0.088503584 -0.21061596
0.4123856 -0.069496065 -0.11877131 -0.080123626 -0.24137579 0.20113719 -0.09030651 -0.10323531
0.44784984 -0.008692689 -0.103657395 0.012521201 -0.052504152 0.15341148 0.39579147 -0.07380194
00000000: 6cc5 cebd 0b1f ccbd 79c4 8cbd 88bb 93bd
00000010: e3a5 6bbd ffd5 bebd 2cae 2d3d ddb8 203f
00000020: 26de 993d 8c08 75bd cc79 13bd 65eb b4bd
00000030: e67b 4cbd 7d12 64bd 55c5 2abe 859d 8bbc
00000040: 5df1 78bd e2e0 1ebe 3d81 0cbe 5bd2 8dbd
00000050: 37c6 1d3b d9aa 0e3e 2cb8 793c 2444 86bd
00000060: 152e 21be ee88 45bd 2398 b9bd bad2 a8bc
00000070: 8086 44bd 3392 b03e ae4c 83bd 5344 abbd
00000080: a5a6 aa3c a228 dabd a3c2 dfbd 3a1b 51bd
00000090: c653 e63e 450a 12be e81f aebd c0a4 f93d
000000a0: afea c4bd 9062 d1bd 893a 503d e42a 24bb
000000b0: 9383 abbd bbd3 16be 2d35 afbd 260e c83e
000000c0: 2b50 a7bd 80f0 a2bd d137 b1bd bc35 80bd
000000d0: 4508 883e c7d5 963e 63df 003f 5641 f5bd
000000e0: 47b5 58bd 93e0 b6bd f272 36bb 3446 52bc
000000f0: 972f 6dbc 2ef1 11be 0287 023d 610c ecbc
00000100: 4d7f b43e a4f7 5e3a 7fee dbbb d89c 0a3e
00000110: 5783 efbc 8afc 51bd 7324 f6bd 7eb4 7ebd
00000120: 702b c4bd e6d7 b33d 59f2 963e 1385 d0bb
00000130: 2d08 23bd a10a a8bd dfbb 1fbe 86a5 943e
00000140: a004 1fbd 4890 1cbe 11c0 4a3e 89a2 56bd
00000150: 9442 7abd 8784 c0be 6145 393d 1725 b73c
00000160: edc4 833d a957 f33c 2e24 e43a df7b 5abd
00000170: c994 8d3e e351 ab3d c95f e7bc 5ba1 6ebe
00000180: 7b3c d53c 88c5 d9be b772 033d 7c7a bbbc
00000190: c795 d83d 0ec7 6d3d cc43 0ebd 64be ab3d
000001a0: 9ecb 1b3c 89fc 1bbe 9d86 dabc 62b3 e13e
000001b0: c232 44be 1508 f93d 80b3 4e3e b7df 44be
000001c0: 9c7a 12be eeab 2c3c d0ad d73d e196 773e
000001d0: 7272 06be f1b2 023e e40c 94bd 1663 b23d
000001e0: b300 c9bd 1fcc 96bd f1f6 fe3d 9190 043f
000001f0: 0c7e e8bc 7fd5 29be 9877 62bd d301 40bd
00000200: 5baf 2abe c4de a9bd 8a65 a1bd 87e9 973e
00000210: 847b 94bd dc1e aebc fac8 8bbd 26c5 a6bd
00000220: 118d 6bbd bc7d dc3e bedf d5bd ad80 19bd
00000230: 9b2e e8bd 5e0e 84bd 8c73 bcbc b922 fdbd
00000240: afbd 88bd bad8 2abd b8b6 afbd 294f cbbd
00000250: 9157 213c 177e 8b3d a8f3 60bd fb5b b3bd
00000260: 09b6 eebd 8d76 bb3e dc56 5cbd 1200 95bd
00000270: 55e5 ca3d 9eac 82bd 84d0 acbd 83dd 5e3d
00000280: 0e4d 94bd eccd 613e 964b 1fbc 9094 f9bd
00000290: f882 adbd ed89 09bd 996a 71bd b0af 97bd
000002a0: 831f d9bd e816 c73e 6717 4cbd a234 d6bd
000002b0: 08c8 95bd 9fe5 00be 68ce ad3e 4cca 1abb
000002c0: df06 f03c 8d88 66bd f2ec 0c3f 1bbb 173e
000002d0: 248b 7cbd fb7f c9bd 968a 8ebd 4a02 f4bd
000002e0: f9f4 0e3d e534 c3bd 96d9 d9bd bb5d bdbd
000002f0: 4c3e 91bd 7766 7ebc 0d04 64bc 78ac d0bd
00000300: abde 87bd 70f0 b7bd f130 28bd c617 8ebd
00000310: 27ac 0ebd e29d 08bd 2cff 12be 0bf1 fdbd
00000320: 338c 03be 5258 f5bd c28e 4ebc 82be 8abd
00000330: 7466 1bbd f8c5 64bd 28f7 763e ca97 2cbd
00000340: e8b2 a2bd 9200 1d3e bf0f fabd 450a 36bd
00000350: 0483 c43e a1d1 4dbe 6a8c 95bd bf96 1ebd
00000360: 6e8f 85bd d74f cbbd be56 4dbd 4085 12bd
00000370: f8d0 7abd 8a96 0b3d 0bf8 9cbd 542f fe3e
00000380: c0e3 d8bd e71d d23e d324 06be 4664 6dbc
00000390: 810f 803d 46f8 f7bd b6b8 bdbd 17cf 9c3e
000003a0: a894 78bd f715 ddbd 53e3 0ebe 2d94 853c
000003b0: 0e66 15bd bc99 a4bd 5e41 b5bd b6ab 57be
000003c0: 3524 d33e f453 8ebd 5f3e f3bd db17 a4bd
000003d0: 372b 77be e8f6 4d3e 9ff2 b8bd 096d d3bd
000003e0: 934c e53e c86b 0ebc 544a d4bd b925 4d3c
000003f0: 980e 57bd e617 1d3e 2ea5 ca3e 7925 97bd

top_layer.bias f4 [10]
0.00836729 -0.016474431 0.0055282484 -0.00923443 0.014598178 0.00232606 0.0033611446 -0.017730443
0.0018584271 0.007399833
00000000: f516 093c 63f5 86bc 4f26 b53b 024c 17bc
00000010: 322d 6f3c d070 183b a646 5c3b 6f3f 91bc
00000020: 7796 f33a 4c7a f23b

momentum_buffer f4 [16, 1, 3, 3]
0.08325115 -0.013592266 -0.08154534 0.021035848 -0.03254562 -0.12003845 -0.04995365 -0.07061413
-0.12311547 -0.04046165 -0.07019716 -0.018468494 -0.055071536 -0.06350925 -0.031130329 -0.03623166
-0.040368795 -0.034026448 0.015734276 0.020336462 0.053080425 0.03806524 0.038980342 0.06808638
0.017903747 0.042455275 0.057280052 -0.005250346 -0.0037022657 -0.0451239 -0.010161968 -0.019620135
-0.07326393 -0.0053724283 -0.041307688 -0.059383493 0.0676387 0.10614779 0.047588736 0.041173726
0.07363534 -0.03367451 0.033256594 0.0352258 -0.08221513 -0.1474963 -0.2424813 -0.11860731
-0.22062474 -0.24238162 -0.09970363 -0.24584198 -0.24498865 -0.052727338 0.09988786 0.042544864
0.017295621 0.07418518 0.030049358 0.0041648503 0.04537659 0.0031491295 0.019971456 0.1563669
0.17989755 0.110396385 0.1619326 0.15319517 0.07580679 0.15949821 0.10432754 0.038881227
-0.4626047 -0.222419 -0.02297768 -0.32481167 -0.079095796 0.022166617 -0.1634199 -0.030249692
0.03243633 0.080539495 0.02772345 -0.004703494 0.06525793 0.043288756 -0.0010869354 0.071902074
0.030105308 0.03943089 -0.02049878 -0.020909656 -0.025242861 -0.016297178 -0.038570344 -0.030130971
-0.010916747 -0.03388478 -0.013122588 0.009931643 0.02413747 0.07577868 0.031247817 0.020900078
0.053771183 0.016701022 0.017003419 0.060180664 -0.032064933 -0.049200647 -0.016910877 -0.011746217
-0.032972887 0.01805757 -0.007733129 -0.0096939765 0.017798495 -0.016741967 -0.085436985 -0.032386817
0.0014342333 -0.047519848 0.029586703 -0.03543059 -0.06857765 0.012185119 -0.18546101 -0.48634756
-0.35835955 -0.27372354 -0.447444 -0.22401671 -0.35480335 -0.44200096 -0.1682662 0.063427135
0.0361474 0.01973958 0.08192876 0.06062063 0.030568307 0.10461726 0.10021237 0.05518827
00000000: 947f aa3d 18b2 5ebc 3e01 a7bd 5f53 ac3c
00000010: 8e4e 05bd b8d6 f5bd 339c 4cbd 249e 90bd
00000020: f723 fcbd 1dbb 25bd 87c3 8fbd 3d4b 97bc
00000030: b192 61bd 2311 82bd 0805 ffbc a667 14bd
00000040: c059 25bd 515f 0bbd 2be5 803c a798 a63c
00000050: dc6a 593d 4cea 1b3d daa9 1f3d df70 8b3d
00000060: e1aa 923c 95e5 2d3d 7d9e 6a3d 180b acbb
00000070: b6a1 72bb d7d3 38bd 627e 26bc 68ba a0bc
00000080: 660b 96bd 320b b0bb 4032 29bd 1b3c 73bd
00000090: 2986 8a3d 0364 d93d 68ec 423d c8a5 283d
000000a0: 20ce 963d 48ee 09bd 1138 083d ee48 103d
000000b0: 6860 a8bd 4509 17be 054d 78be 64e8 f2bd
000000c0: 74eb 61be e332 78be 6b31 ccbd 00be 7bbe
000000d0: 4ede 7abe 9ff8 57bd 0292 cc3d 8643 2e3d
000000e0: 8caf 8d3c 66ee 973d 122a f63c 4c79 883b
000000f0: cedc 393d a061 4e3b 2e9b a33c a51e 203e
00000100: 1037 383e 8017 e23d a9d1 253e 32df 1c3e
00000110: 9740 9b3d 8053 233e ada9 d53d ec41 1f3d
00000120: 86da ecbe cec1 63be b03b bcbc b74d a6be
00000130: fafc a1bd c496 b53c 8c57 27be 34ce f7bc
00000140: f5db 043d e4f1 a43d 4a1c e33c c41f 9abb
00000150: f3a5 853d 8d4f 313d 8077 8eba 6541 933d
00000160: 689f f63c 4982 213d 0fed a7bc ba4a abbc
00000170: 1eca cebc a981 85bc f0fb 1dbd 3ad5 f6bc
00000180: 28dc 32bc c4ca 0abd 2000 57bc 54b8 223c
00000190: f2bb c53c da31 9b3d 6cfb ff3c a436 ab3c
000001a0: 2c3f 5c3d 95d0 883c c14a 8b3c 0080 763d
000001b0: 8556 03bd 9e86 49bd ae88 8abc 3473 40bc
000001c0: 940e 07bd 78ed 933c 3066 fdbb 7cd3 1ebc
000001d0: 26ce 913c 7326 89bc 96f9 aebd 0aa8 04bd
000001e0: e2fc bb3a 2ca4 42bd d05f f23c ab1f 11bd
000001f0: 7072 8cbd 18a4 473c 7ee9 3dbe 8c02 f9be
00000200: e77a b7be 7e25 8cbe 6117 e5be a364 65be
00000210: c9a8 b5be f34d e2be fa4d 2cbe 16e6 813d
00000220: 4c0f 143d e6b4 a13c 44ca a73d 564d 783d
00000230: 636a fa3c 9341 d63d 253c cd3d 180d 623d

momentum_buffer f4 [16]
-5.5750143e-06 6.7285137e-06 1.668124e-05 2.6034302e-05 2.938855e-05 -2.56067e-05 8.120802e-06 -1.3921275e-05
-3.557154e-06 -2.4179251e-05 2.9382934e-05 -2.3689983e-05 1.7236116e-05 1.1319858e-05 1.04634955e-05 -1.744452e-05
00000000: 0211 bbb6 7ec5 e136 b1ee 8b37 3d64 da37
00000010: 6e87 f637 f8cd d6b7 943e 0837 6c8f 69b7
00000020: 71b7 6eb6 8cd4 cab7 5f7b f637 dab9 c6b7
00000030: 4796 9037 6bea 3d37 5f8c 2f37 d255 92b7

momentum_buffer f4 [16]
0.027651537 -0.19915086 0.0223141 -0.04474412 0.32418093 -0.07466288 -0.014569104 0.18300311
-0.12752312 0.16339915 0.034245852 0.02989629 -0.02605839 -0.015475126 -0.06454124 0.010939312
00000000: 7a85 e23c 34ee 4bbe 0fcc b63c 9c45 37bd
00000010: 0bfb a53e dae8 98bd 40b3 6ebc 2b65 3b3e
00000020: 6c95 02be 1b52 273e 6145 0c3d 10e9 f43c
00000030: 6878 d5bc 628b 7dbc 332e 84bd cd3a 333c

momentum_buffer f4 [16]
0.023678966 -0.056307673 0.051898323 -0.08894172 0.15592653 -0.09049362 -0.0267099 0.137364
-0.30850893 0.09269265 0.012051089 0.05768904 0.009768492 -0.017507808 -0.07466556 0.011576224
00000000: 64fa c13c e0a2 66bd 5693 543d 1427 b6bd
00000010: 34ab 1f3e b854 b9bd b8ce dabc 26a9 0c3e
00000020: e2f4 9dbe a5d5 bd3d ee71 453c 584b 6c3d
00000030: 060c 203c 896c 8fbc 42ea 98bd 34aa 3d3c

momentum_buffer f4 [32, 16, 3, 3]
-0.03565015 -0.038960457 -0.015019368 -0.04490032 -0.04710569 -0.015757134 -0.03312377 -0.019504689
-0.035351284 0.016983375 0.0077439183 0.00074678333 0.006304513 0.0029769822 -0.007591798 -0.0010272097
-0.0012989242 -0.0043549743 5.0440874e-05 0.0027106674 -0.0074047167 -0.0162503 0.0013195518 0.0032623557
-0.027577272 -0.0036600353 -0.0024475143 -0.008313633 -0.005803239 -0.0040575406 0.0019985845 -0.00060436886
-0.005025787 0.004179156 0.0021475542 -0.008614647 -0.031050082 -0.0355152 -0.035866983 -0.024284167
-0.0319432 -0.039595738 -0.03404353 -0.031480715 -0.030179087 -0.0030763512 0.0031634367 -0.0069464482
0.0021596972 0.002978308 0.0016882105 0.010269706 0.0023748027 -0.00015356799 0.0020604786 0.0009546529
0.0019659048 -0.0010925415 -0.00062016863 -0.00088710914 -0.0010040426 0.0013311654 -0.0015274913 -0.011830946
-0.028413353 -0.027111268 -0.014063323 -0.023133388 -0.028595505 -0.009644685 -0.004309149 -0.016267078
-0.010172962 0.00073760096 -0.016244218 -0.00765495 0.002270001 -0.019493692 -0.0034930026 0.0012379468
0.0039500576 -0.003748654 0.001249728 -0.0015430404 -0.00276584 -0.004448623 -0.009009154 -0.0019541516
-0.00050648116 0.00076930405 -0.007561646 0.0030352627 -0.0041221483 0.0054811435 0.015944576 -0.008918508
0.0055210264 0.008934943 -0.0023614694 0.0043617333 -0.00021850714 -0.007992377 -0.011477577 0.0013022309
-0.0019304901 -0.008357172 0.0046718232 0.0009814987 -0.015388236 -0.011724813 -0.011544685 -0.018496241
-0.016416185 -0.0061137397 -0.03462687 -0.024512917 -0.015893694 -0.0021959725 -0.0021592753 -0.00097170856
-0.0013873272 -0.00043641066 0.00068061415 0.0008579893 -0.00093751063 0.00043349154 -0.0005455606 -0.0050479225
-0.0005189449 -0.0064813327 -0.007946206 -0.0017457323 -0.001988581 0.003636833 -0.00029310258 -0.0060051195
-0.008045854 -0.010319153 -0.0011603527 -0.0012647689 -0.0037457012 0.0005881084 0.0019275165 -0.0050851344
-0.050521016 -0.043848604 -0.006095822 -0.052579887 -0.026972536 -0.0032336668 -0.04239508 -0.017177327
-0.0069261524 -0.021531504 0.00951379 -0.023313884 -0.009769924 0.011009854 -0.0003701928 0.018512743
0.0020370153 -0.00040358177 0.02175563 0.06520966 0.020848047 0.07500392 0.017999524 0.015186249
0.07502191 0.009089165 0.013105379 0.022643842 0.0012054992 0.0046673617 0.011727869 0.0021537675
0.009097727 0.019132007 0.0074317977 0.011203586 -0.16477382 -0.09444821 -0.015894946 -0.1323606
-0.062333725 -0.01303026 -0.123538524 -0.037871614 -0.013469084 0.03478144 -0.0033138525 0.0070735756
0.02583056 0.025389947 -0.021392725 -0.0051420555 0.00057805516 -0.008825173 0.012403812 -0.0089313425
-0.013101276 -0.0062289294 -0.014809841 -0.013203196 -0.023792895 -0.03222713 -0.012330841 -0.032877296
-0.023430744 -0.016623087 -0.036410026 -0.028224938 -0.014132718 -0.010955286 -0.012664597 -0.0064366916
0.02358402 0.0015130788 -0.012540378 0.028324306 -0.0005232692 -0.005787013 0.03168939 -0.016173631
-0.008521649 0.003320916 -0.0059117014 -0.004355378 -0.019468807 -0.0147097 -0.005140919 -0.025671862
-0.012337393 -0.006826619 -0.046596155 -0.0358381 -0.062731735 -0.008945413 -0.06226207 -0.06874235
-0.024863008 -0.08595111 -0.03586355 0.0025734955 0.021217285 0.030542944 0.020717971 0.011191623
0.023016997 0.024672043 0.019586548 0.022555966 0.051332578 -0.003897772 0.0072534876 0.021508377
00000000: e405 12bd 0095 1fbd cc13 76bc 66e9 37bd
00000010: e5f1 40bd 1b15 81bc caac 07bd 4cc8 9fbc
00000020: 82cc 10bd b820 8b3c b2c0 fd3b c8c3 433a
00000030: 1796 ce3b 7919 433b 9ec4 f8bb 70a3 86ba
00000040: aa40 aaba 2cb4 8ebb 7a90 5338 74a5 313b
00000050: 44a3 f2bb 591f 85bc d0f4 ac3a 3fcd 553b
00000060: bbe9 e1bc 34dd 6fbb 7a66 20bb e735 08bc
00000070: 1929 bebb 1ef5 84bb affa 023b 826e 1eba
00000080: 5baf a4bb 4df1 883b fbbd 0c3b 7324 0dbc
00000090: be5c febc 6378 11bd 42e9 12bd 97ef c6bc
000000a0: dfd6 02bd 242f 22bd 3a71 0bbd ecf1 00bd
000000b0: 223a f7bc 9c9c 49bb a951 4f3b 089f e3bb
000000c0: b589 0d3b b72f 433b f246 dd3a 4542 283c
000000d0: 94a2 1b3b 1807 21b9 1809 073b ac41 7a3a
000000e0: 69d6 003b 9c33 8fba d092 22ba e38c 68ba
000000f0: 149a 83ba 807a ae3a 1a36 c8ba 96d6 41bc
00000100: 1fc3 e8bc 7318 debc da69 66bc 3b82 bdbc
00000110: 1f41 eabc be04 1ebc c333 8dbb 8942 85bc
00000120: 7fac 26bc 905b 413a 9812 85bc 60d6 fabb
00000130: 4cc4 143b 3cb1 9fbc dcea 64bb 9a42 a23a
00000140: 7c6f 813b faab 75bb eacd a33a d83f caba
00000150: 1843 35bb c1c5 91bb 219b 13bc 3911 00bb
00000160: 60c5 04ba 1fab 493a afc7 f7bb 42eb 463b
00000170: 1613 87bb 2a9b b33b 339e 823c ef1e 12bc
00000180: bae9 b43b de63 123c e2c2 1abb dfec 8e3b
00000190: 101f 65b9 75f2 02bc 720c 3cbc 9eaf aa3a
000001a0: 8008 fdba 85ec 08bc 1816 993b a2a5 803a
000001b0: f11e 7cbc 6e19 40bc eb25 3dbc 6e85 97bc
000001c0: 3c7b 86bc c455 c8bb e8d4 0dbd 50cf c8bc
000001d0: 7e33 82bc 4eea 0fbb a182 0dbb 42ba 7eba
000001e0: fad6 b5ba 0cce e4b9 3e6b 323a b0ea 603a
000001f0: 46c3 75ba 4046 e339 f403 0fba 0b69 a5bb
00000200: cd09 08ba 5c61 d4bb ce30 02bc 0ed1 e4ba
00000210: da52 02bb ef57 6e3b 90ab 99b9 98c6 c4bb
00000220: c2d2 03bc aa11 29bc fa16 98ba 9ac6 a5ba
00000230: 707a 75bb 492b 1a3a b9a4 fc3a 33a1 a6bb
00000240: 20ef 4ebd 989a 33bd 76bf c7bb 025e 57bd
00000250: 82f5 dcbc edeb 53bb 77a6 2dbd 77b7 8cbc
00000260: c7f4 e2bb d662 b0bc badf 1b3c c2fc bebc
00000270: 0812 20bc ad62 343c 7016 c2b9 09a8 973c
00000280: 727f 053b d497 d3b9 dd38 b23c a48c 853d
00000290: 86c9 aa3c a89b 993d bd73 933c bfcf 783c
000002a0: 16a5 993d b9ea 143c f2b7 563c 947f b93c
000002b0: d701 9e3a abf0 983b 3f26 403c 3926 0d3b
000002c0: a20e 153c baba 9c3c 7086 f33b 3f8f 373c
000002d0: 78ba 28be 106e c1bd 1e36 82bc 8a89 07be
000002e0: a651 7fbd df7c 55bc c401 fdbd 441f 1bbd
000002f0: 6fad 5cbc fc76 0e3d 382d 59bb 74c9 e73b
00000300: 9c9a d33c 94fe cf3c cc3f afbc b07e a8bb
00000310: a088 173a 7597 10bc 5c39 4b3c c454 12bc
00000320: bca6 56bc 0c1c ccbb faa4 72bc 3852 58bc
00000330: 51e9 c2bc 9800 04bd 4c07 4abc 58aa 06bd
00000340: d5f1 bfbc 242d 88bc ae22 15bd fc37 e7bc
00000350: ea8c 67bc cd7d 33bc 2b7f 4fbc e2ea d2bb
00000360: 4633 c13c 8052 c63a 2876 4dbc 6008 e83c
00000370: 002c 09ba fca0 bdbb bccc 013d 907e 84bc
00000380: 639e 0bbc baa3 593b f2b6 c1bb 8fb7 8ebb
00000390: 0c7d 9fbc f400 71bc 2775 a8bb cc4d d2bc
000003a0: c722 4abc d5b1 dfbb 9cdb 3ebd f9ca 12bd
000003b0: 7f79 80bd c88f 12bc 8306 7fbd cac8 8cbd
000003c0: 82ad cbbc 2307 b0bd a8e5 12bd 17a8 283b
000003d0: dfcf ad3c 3235 fa3c bcb8 a93c 125d 373c
000003e0: 248e bc3c 061d ca3c f873 a03c 4ac7 b83c
000003f0: 1c42 523d c371 7fbb aaae ed3b 5632 b03c

momentum_buffer f4 [32]
2.0971374e-06 4.0680684e-06 -7.4181576e-06 -5.6268145e-06 -7.788117e-06 3.7733323e-06 6.057442e-06 -7.742982e-06
2.0904945e-06 1.6400793e-06 -4.321711e-06 1.7578786e-06 6.218321e-06 7.935006e-06 3.4777477e-06 -1.6064871e-06
-4.600949e-06 -3.0887254e-06 5.8463748e-08 -5.975109e-07 5.8993583e-06 -7.299025e-06 7.24332e-07 -2.5617426e-06
6.6824816e-07 7.766343e-06 2.3149889e-07 -1.3998335e-06 -2.697638e-06 -8.072107e-06 -7.3086994e-06 3.5144305e-06
00000000: 8cbc 0c36 7180 8836 7de9 f8b6 f8cd bcb6
00000010: b5a9 02b7 5b39 7d36 0841 cb36 dbe7 01b7
00000020: 6c4a 0c36 b220 dc35 3703 91b6 40f0 eb35
00000030: f8a6 d036 9720 0537 4063 6936 7a9e d7b5
00000040: da61 9ab6 e647 4fb6 9219 7b33 a364 20b5
00000050: 1af3 c536 26ea f4b6 b76f 4235 67ea 2bb6
00000060: aa61 3335 304c 0237 ee91 7834 eae1 bbb5
00000070: 1109 35b6 706d 07b7 403d f5b6 75d9 6b36

momentum_buffer f4 [32]
-0.092308864 -0.11144788 -0.023924362 -0.005675393 0.000597544 0.032379877 -0.026085313 0.19320771
0.0052067563 0.015812567 0.061815374 0.058188047 -0.0076245824 0.028465364 -0.022773996 -0.01969824
0.011280037 0.04692978 -0.031528328 -0.08676492 0.014956833 -0.039586272 0.02016719 -0.022223707
0.0009684935 0.104497805 0.010218955 -0.0010595247 0.0767165 -0.02734303 0.031674948 -0.096500844
00000000: 6e0c bdbd c93e e4bd 06fd c3bc a6f8 b9bb
00000010: 80a4 1c3a c3a0 043d deb0 d5bc 3ed8 453e
00000020: 709d aa3b 5b89 813c 1e32 7d3d 9756 6e3d
00000030: a2d7 f9bb 3230 e93c 8890 babc 345e a1bc
00000040: e8cf 383c 7139 403d d923 01bd ceb1 b1bd
00000050: 810d 753c 3725 22bd aa35 a53c 7e0e b6bc
00000060: 80e2 7d3a f202 d63d 676d 273c c0df 8aba
00000070: 8a1d 9d3d 7dfe dfbc 97bd 013d 3ca2 c5bd

momentum_buffer f4 [32]
-0.040474594 -0.12962039 -0.015696222 -0.0051519694 -0.019637365 0.04660175 -0.019964006 0.11927998
0.019216485 0.021638917 0.07964001 0.059688214 0.004030008 0.029604089 -0.004721977 -0.0012748335
-0.012125825 0.032877747 -0.017938053 -0.036722638 0.009538994 -0.06296551 0.014151992 -0.013734417
0.008394363 0.06681661 0.014284784 0.012596261 0.034150463 -0.02030622 0.026160989 -0.0664257
00000000: b0c8 25bd 35bb 04be 5d95 80bc dad1 a8bb
00000010: 8ade a0bc 7ae1 3e3d 8e8b a3bc 1049 f43d
00000020: e46b 9d3c 1944 b13c 4d1a a33d a17b 743d
00000030: 280e 843b 4684 f23c d0ba 9abb 5018 a7ba
00000040: 65ab 46bc d1aa 063d d3f2 92bc 7a6a 16bd
00000050: 7149 1c3c 10f4 80bd c2dd 673c 5206 61bc
00000060: 8388 093c 26d7 883d ba0a 6a3c 8c60 4e3c
00000070: 5be1 0b3d 3b59 a6bc 924f d63c 330a 88bd
