deepcluster_implementation/experiments/run_label_fraction_variation/config_5/checkpoints/checkpoint_epoch_0.pth.tar (torch, 203702 bytes, 32 tensors)

features.module.0.weight f4 [16, 1, 3, 3]
00000000: 9af2 203f aaff b73c 201e e1be 9403 9fbd
00000010: d961 6bbe c3c2 e63d ca34 f7be e7a0 843d
00000020: cca3 f83e 907e 0abe 278d a03e 9895 7c3e
00000030: d5a5 193e 8fec 2ebe 86b4 7b3d 2231 0abb
00000040: 1cea 993e c332 793d 6489 afbe b798 fabc
00000050: 0714 22be 8d81 603d c788 e63d 08fc cf3e
00000060: 5dd6 a6be 4410 45be 386f 3ebd 01c4 06bf
00000070: 6867 af3d bff2 07bf e7e7 533e 9002 eabd
00000080: 9c6d 433e a361 4d3e da99 1bbe 0dc4 a83e
00000090: 3cb9 803e 69cb 403d d28a dd3d 6183 a7bd
000000a0: 42ea 67be 91c6 d2bc 3f8c 803e 00dd a43d
000000b0: d20d a93e 49d0 28bd 045c 433e 4bf6 da3e
000000c0: 319c 9bbd d0ed 05be b293 fabe e59b 93be
000000d0: 2203 9a3d d317 8abd 2c57 043d 8869 a53c
000000e0: 2848 723e 607b 2abe dd4f 843e adae d53d
000000f0: 1a1f d8be 3f40 3fbe 2b64 acbe 0e15 bb3b
00000100: 4aac bfbd 55ab 87be dd58 2e3e f4b4 14be
00000110: c201 e8be b66d 87bd 010b 453e c33e 233f
00000120: cf94 be3e 478d 3cbe d1f5 a5be aec8 acbe
00000130: d14a 65be 8c92 14bd fe7b 033e fc6f 8f3e
00000140: f9e7 88be 2447 13bf 73c6 79bd 3c29 1dbe
00000150: c995 923e 6b2b b83d 1d06 cb3e 4ea2 d9be
00000160: 0348 98be 3826 c33d 8339 c5bd bd19 14bf
00000170: c543 283f 3383 623e 7dac 1bbf 558e 903e
00000180: f711 113f b47f e4be 2b48 d0bd aa0c a9be
00000190: 7e6a cbbd f9ed 803d ff4c 91bc 2f34 21be
000001a0: e0ce fa3b a5f7 8fbe 9c4d 82be dbc1 91be
000001b0: 05fa c1be 4c68 1bbd 026b 9d3e 1815 2bbd
000001c0: 44b8 9c3d d881 77be f658 9bbe 7308 e7bc
000001d0: c687 e43e 588a a0be 4690 bcbd f73f 66be
000001e0: dd69 f23c f83c 37bd c295 f0bc 20ed 5ebe
000001f0: 1d78 4abe e4c5 6fbe f3f3 b0be b0a8 81be
00000200: b0a4 483e 7947 ffbd ce4b 3e3e 448a 813d
00000210: 9b4b d6be c1a2 713e 5af6 e03d 3323 69be
00000220: 4bf1 17be 7d64 9ebe d559 b3bc 7ebe c03c
00000230: 8092 793d 4427 8bbe 5f56 cd3e 50e2 95be
0.6287018 0.022460777 -0.43968296 -0.07764354 -0.22986545 0.112676166 -0.48282462 0.06476002
0.48562467 -0.13524842 0.3135769 0.2466644 0.15004666 -0.17082427 0.061451457 -0.0021086414
0.30061424 0.060839426 -0.34284508 -0.030590398 -0.15827952 0.05481105 0.11256557 0.40621972
-0.3258542 -0.19244486 -0.046492785 -0.5264283 0.08564645 -0.53104776 0.20693932 -0.1142627
0.19084781 0.20056777 -0.15195408 0.32962075 0.25141323 0.047068987 0.108174935 -0.081793554
-0.22647956 -0.02572945 0.25107 0.08049965 0.33018357 -0.04121426 0.1907807 0.42766032
-0.075981505 -0.13079 -0.48940808 -0.28829876 0.07520129 -0.06742825 0.032309696 0.020191923
0.23660338 -0.16648626 0.2584218 0.104337074 -0.4221123 -0.18676852 -0.33670172 0.005709297
-0.093590334 -0.26497903 0.17026086 -0.14522153 -0.4531384 -0.066127226 0.19242479 0.6376764
0.37222907 -0.18413268 -0.32414106 -0.33746856 -0.22391821 -0.03627257 0.12840268 0.28015125
-0.2673948 -0.57530427 -0.06098027 -0.15347761 0.28629902 0.08992656 0.39653102 -0.4250664
-0.2974244 0.09528774 -0.0963011 -0.57851774 0.6572841 0.22120361 -0.6081007 0.2823359
0.5666804 -0.4462868 -0.10170015 -0.33017474 -0.09932421 0.0629539 -0.01773691 -0.15742563
0.007654056 -0.28118625 -0.25449836 -0.28468212 -0.37886062 -0.037941262 0.30745703 -0.041768163
0.076523334 -0.24170625 -0.3034131 -0.028202271 0.44634837 -0.31355548 -0.092072055 -0.22485338
0.029591495 -0.04473588 -0.029368285 -0.21770144 -0.19772382 -0.23415333 -0.34561118 -0.2532401
0.19594073 -0.12464804 0.18583605 0.063252 -0.41854557 0.23597242 0.10984488 -0.22767334
-0.1483814 -0.3093604 -0.021893421 0.023528334 0.06093073 -0.27178395 0.40104958 -0.29274225

features.module.0.bias f4 [16]
00000000: 3cf0 6abd 3117 8e3d fd99 2f3e b74d 893e
00000010: f5ed 9a3e c5db 86be e135 ab3d a34e 12be
00000020: 341a 15bd 3e99 7ebe 91e9 9a3e eea6 79be
00000030: 9fca 353e 6215 ef3d de10 dd3d c6e6 37be
-0.05735801 0.06938017 0.17148586 0.26817104 0.30259672 -0.26339546 0.08359886 -0.1428781
-0.036401942 -0.24863145 0.30256322 -0.24380085 0.17753075 0.11674 0.10794233 -0.17959127

features.module.1.weight f4 [16]
00000000: af80 683f ad82 0d3f 0f4c 893f 47eb 883f
00000010: f6b1 283f 8f96 813f b74a 933f a0c3 673f
00000020: b74c 7f3f 6079 913f d609 603f c264 773f
00000030: 28ba 603f 21cd 703f eb09 613f a390 8a3f
0.90821356 0.5527752 1.0726336 1.0696801 0.65896547 1.0124072 1.1507176 0.90532875
0.9972643 1.1365166 0.8751501 0.9663812 0.8778405 0.94063 0.8790576 1.082539

features.module.1.bias f4 [16]
00000000: c8f0 dfbe af1c debe 6ee1 58be bd5c 66bd
00000010: 23aa cfbe 45d1 afbe 8672 51be 66df dfbe
00000020: ae72 97be d9f1 b2be b711 57be d9a9 99be
00000030: 1381 41be 204e a7be 1ec3 85be e0c0 69be
-0.4373839 -0.4338126 -0.21179745 -0.056240786 -0.40559492 -0.34339347 -0.20453843 -0.43725127
-0.2957968 -0.3495014 -0.21002851 -0.30012396 -0.18896894 -0.32676792 -0.26125425 -0.22827482

features.module.1.running_mean f4 [16]
00000000: 57ec 4cbd 9116 ad3d bc73 1a3e 8e67 843e
00000010: 590b a83e dace 87be b803 8c3d 0657 0cbe
00000020: c40e 2abd ee5c 8cbe d937 a73e e874 8abe
00000030: 150f 343e 6a45 b13d 5ad4 c13d 1ffa 50be
-0.05003008 0.0845157 0.15083212 0.25860256 0.32821158 -0.26525003 0.06836647 -0.13705072
-0.041517988 -0.2741465 0.32659796 -0.27042317 0.17583878 0.08655818 0.09464331 -0.20407914

features.module.1.running_var f4 [16]
00000000: 4e7f a83e f027 fe3e 6e25 903e 9cab b73e
00000010: 5ebd 9b3e 4cac 8b3e 1516 bf3e 1af1 9e3e
00000020: c590 cf3e 24a6 fb3e acee a13e 55f3 9b3f
00000030: a0fd 983e fe61 893f 6c59 ce3e ab0d aa3e
0.32909626 0.49639845 0.28153557 0.35873115 0.30417913 0.2727989 0.37321535 0.3104332
0.40540138 0.49150193 0.31627405 1.2183634 0.29881 1.073303 0.40302598 0.33213553

features.module.4.weight f4 [32, 16, 3, 3]
00000000: cb9a 8cbd 6662 2bbd 00a5 ed3c 6b74 96bd
00000010: ef02 8e3c b1e8 8c3c 96c8 4cbd 4048 31b8
00000020: 18ff 343c 699f 463b 84ce 9bbc eede 09bd
00000030: 6a5f 7f3d d448 f6bc 6a4c 97bd 31da 503b
00000040: 90b3 71bd 16c7 fb39 9476 8d3d cde7 a8bd
00000050: b007 483c 1c2f 853d 43f6 76ba 7ea7 a8bc
00000060: ee5f 763d 6e81 913c 61c4 de3c 592e 88bc
00000070: e2f8 bebc 24ee d13b 8c30 75bc 4942 a7bc
00000080: bdf1 c83c a4b8 e03a 14ac 85bc 3720 8ebd
00000090: d00f b73d ce81 de3c 4620 09bb 7b23 b33d
000000a0: d789 97bd 6031 b8bd c3ea 053e c172 c33c
000000b0: d4a0 54bd bb0e 9bbd f446 08bd b720 cbbd
000000c0: efdf b7bb b913 0abb 4917 c3bc d756 2b3d
000000d0: 181c 5fbd 33f4 80bd 9a22 25bd 5adb 1e3d
000000e0: ac70 5abd 1e57 c33c 6688 8e3c e878 5dbd
000000f0: b80e aebc 9fc4 b53c 1ee8 68bd 94a9 a5bc
00000100: 31c8 a7bd da17 12bb ba6e 1c3d 48ae ffbb
00000110: c6b9 c7bd 86ea b5bd 4e78 b7bd 22cd 7abd
00000120: 8a84 1dbd aaa0 ce3b c404 403d c209 f2bb
00000130: e4c9 00bc 3327 0dbd 36a1 9cbd d2a3 87bd
00000140: 2b7a 5e3d 8696 43bc 4d65 aebc 9c27 26bd
00000150: dd66 853c ca66 58bd d822 30bd 10d9 3d3d
00000160: 6436 02bd cb85 883c 3a8b 89bd 4b2c acbd
00000170: 63d8 f2bc d094 93bd 7507 0dbd e499 77bd
00000180: 3fb9 94bd 5447 a6bd 6b81 6c3c 2bf5 703d
00000190: bfc6 153d d22b 8ebd 9048 763d 0160 57bd
000001a0: 8bcc d03c 3f7e dc3d dc6a babb 66f4 023d
000001b0: 5d72 78bc 336f 92bd cc4d 843c b6cf 98bd
000001c0: a901 083d 6e2c 193d 279b 943d 31b0 1fbd
000001d0: 11fc b3bd 4980 2e3d 9622 033d 3381 94bd
000001e0: e9ab c0bb 605c 5abd 725a 8d3a 4164 393c
000001f0: ef98 a2bc 37e8 b53c abad cdbd 97d2 113d
00000200: 702e 4f3d 52ec 01bd db00 a5bc b11b cfbc
00000210: be57 d1bd 8a7a c8bd a385 7b3c 299b 99bb
00000220: 88d3 1dbd ff33 4cb9 ca06 07bc 5aa3 0cbd
00000230: d4df ce3b b8f0 d33c 1f11 93bc 7d0d 0fbb
00000240: 7bbc 3ebd 43f1 e93b b55d 9cbd bd63 403c
00000250: 653e 89bd 159c 28bd 8459 113d e26d 293c
00000260: 1f6b eabd e8dd b0bc 024c c93c d6a3 08bd
00000270: da54 343c 8216 333d f424 76bd d91d b9bc
00000280: c075 c7bd 7fa7 73bd 80c1 353d b645 3b3d
00000290: 7517 14bd 7942 98bd cee2 36bd b493 96bd
000002a0: 9c14 9cbd 74aa a7bc c245 093d 77f0 d239
000002b0: c60b 8abd aca6 85bd 3e40 923c 19e8 8ebd
000002c0: 89f0 53bc e575 9c3c 0ccc 72bd a135 c4bc
000002d0: 1985 1fbd 8bdc 5fbd 1e3f b9bd 0888 c5bd
000002e0: ac1d c1bd 37de b2bd 9b27 ac3c 96d1 a2bd
000002f0: ac77 c9bd d41b e33b 3d66 313c cd24 633c
00000300: 8126 cb3c 47f9 d23c 8223 acbd 9400 a7bc
00000310: a582 123d 8e05 89bc d08f 49bd e3fa 593d
00000320: ed63 38bd 27c4 9dbd 1176 a6bd 3e37 9ebc
00000330: d820 123a 341d d5ba d5a9 f3ba 9517 a6bd
00000340: 6015 d7bd 579f a4bc 176f 573d 4bd2 353d
00000350: cfa5 66bd 1915 48bd 191a 8bbd 97a1 1ebd
00000360: bea0 d63c 70d0 0e3d dd83 443d 008d 7ebd
00000370: 091e 193d c153 6cbd bb7f 553c ed23 013d
00000380: cec1 47bc bbfc 5b3d cdfd 92bd 81ab f6bc
00000390: e2a0 eb3c 484d 9cbc 2e4f abbc 1d5f 4ebd
000003a0: 1f07 573d 8052 d93c 10e8 333d 751c 313b
000003b0: 6de1 9fbd 5e68 ad3c 14e3 fc3c a8f6 25bd
000003c0: 8255 a63a 0e33 cd3c 47bd afbc b2a0 c6ba
000003d0: 49d4 0abc 100a 77bd 63c2 8dbd 741a cebc
000003e0: c20c 10bd 009c 843c 10a9 8bbc ced9 f2bc
000003f0: d0fb 163d 93c2 9f3c 1a90 363d f1bc 56bd
-0.06865462 -0.041841887 0.029009342 -0.07346424 0.017335383 0.0172008 -0.04999598 -4.2267377e-05
0.011047147 0.0030307418 -0.019019373 -0.033659868 0.062346853 -0.030064024 -0.07387622 0.0031868333
-0.059009135 0.0004802278 0.069073826 -0.082473375 0.012208864 0.06503126 -0.0009420851 -0.020587679
0.06015008 0.017761912 0.02719325 -0.016623663 -0.023312036 0.0064065624 -0.014965188 -0.02041735
0.024529332 0.0017144871 -0.016317405 -0.06939738 0.08938563 0.027161505 -0.0020923777 0.08747002
-0.07399338 -0.089937925 0.13077836 0.02385843 -0.05191119 -0.07571169 -0.03327079 -0.09918349
-0.0056114118 -0.0021068885 -0.023814814 0.041830864 -0.05447015 -0.06296577 -0.0403162 0.03878341
-0.05333011 0.023845252 0.017399024 -0.054070383 -0.021247253 0.022188483 -0.05686199 -0.020222463
-0.0819248 -0.0022292049 0.038191535 -0.0078027584 -0.0975223 -0.088826224 -0.08958493 -0.061230786
-0.038456477 0.0063057737 0.046879545 -0.007386417 -0.0078606345 -0.03446121 -0.07647936 -0.06623043
0.054315727 -0.011937743 -0.021288538 -0.04056512 0.0162844 -0.052832402 -0.04300198 0.046349585
-0.031790152 0.01666536 -0.067160085 -0.08406886 -0.029644197 -0.07206118 -0.03443094 -0.060449496
-0.072618954 -0.081190735 0.0144351525 0.05882756 0.036566492 -0.06941952 0.060127795 -0.05258179
0.025488159 0.10766267 -0.005689008 0.031971358 -0.015163985 -0.07150116 0.016150378 -0.07461493
0.03320471 0.037395887 0.072561555 -0.03898639 -0.08788312 0.04260281 0.032015406 -0.07251205
-0.0058798683 -0.053310752 0.0010784401 0.011315406 -0.019848315 0.022205455 -0.1004289 0.035601225
0.050581396 -0.031719513 -0.02014201 -0.025281759 -0.102218136 -0.097889975 0.015351686 -0.004687686
-0.03853181 -0.00019474326 -0.008241365 -0.03433547 0.0063133035 0.02587162 -0.0179525 -0.0021828108
-0.046566468 0.0071393563 -0.07635061 0.011742529 -0.06701354 -0.041164476 0.03548576 0.0103411395
-0.11446213 -0.021590188 0.024572376 -0.03335937 0.011006558 0.043722637 -0.060093835 -0.02259724
-0.09739256 -0.05948591 0.04437399 0.04572078 -0.036155183 -0.07434554 -0.04464989 -0.07352391
-0.076211184 -0.02046702 0.03351379 0.00040233482 -0.06740527 -0.06525931 0.017852899 -0.06977863
-0.012935766 0.019099185 -0.059276626 -0.023951354 -0.03894529 -0.054653686 -0.09045242 -0.096450865
-0.094294876 -0.0873379 0.02101498 -0.079501316 -0.09837279 0.0069308076 0.010827598 0.013863754
0.024798634 0.02575363 -0.0840521 -0.020386018 0.035769124 -0.016726281 -0.049209416 0.05321778
-0.04501717 -0.07703429 -0.08127988 -0.01931345 0.0005574352 -0.0016259314 -0.0018590043 -0.08109967
-0.10502124 -0.02009551 0.052596178 0.044390004 -0.05631047 -0.048848245 -0.06792087 -0.038728323
0.026199695 0.03486675 0.047977317 -0.062146187 0.03738216 -0.05769706 0.013030942 0.031528402
-0.012192203 0.05370782 -0.07177315 -0.030111076 0.028763238 -0.01907982 -0.02091178 -0.050383676
0.052497026 0.026528597 0.043922484 0.0027025018 -0.078066684 0.02116793 0.030869998 -0.040518433
0.0012690278 0.025048759 -0.02145256 -0.0015154092 -0.008473464 -0.06031233 -0.06921842 -0.025159098
-0.035168417 0.016187668 -0.017048389 -0.029644873 0.03686124 0.01950196 0.04457102 -0.052426282

features.module.4.bias f4 [32]
00000000: 8abf b03c 5db3 2a3d 447d 9bbd f53a 6dbd
00000010: 8138 a3bd eec7 1e3d 021a 7f3d cb67 a3bd
00000020: e1d9 b03c caf7 893c 0089 36bd fbfa 923c
00000030: 1924 833d c1d1 a63d 6f17 133d d6e4 86bc
00000040: 7089 41bd c48c 01bd 768d 323a 10d5 c7bb
00000050: 5433 783d 26b3 99bd d2e1 f23b 265e d8bc
00000060: aaed e23b 4e8c a33d 2237 1f3b bbfa 6bbc
00000070: f293 e6bc a0b8 a9bd 0616 9abd f934 143d
0.021575708 0.04167496 -0.07592252 -0.057917554 -0.07969762 0.038764887 0.062280662 -0.07978781
0.021588268 0.016841788 -0.044564247 0.017941942 0.064033695 0.08145476 0.03591102 -0.01646654
-0.04725021 -0.031628385 0.00068112405 -0.006098397 0.060595825 -0.07504873 0.007412174 -0.026412081
0.0069253044 0.07985745 0.0024294336 -0.0144030405 -0.028146718 -0.082871675 -0.07523732 0.03618333

features.module.5.weight f4 [32]
00000000: 0bca 6e3f 04d7 623f a314 7c3f 8a9a 8c3f
00000010: 72f3 883f 39ab 5a3f 17f2 6b3f 2008 813f
00000020: 4f28 7e3f f05c 513f 8e8f 713f 7607 613f
00000030: ec33 6b3f 7792 823f 4bdf 7d3f 6adc 623f
00000040: 39b5 863f 7331 8f3f f681 6a3f b216 703f
00000050: 9937 7e3f fd6b 853f 7006 693f 3d87 873f
00000060: 6364 893f 978c 4a3f d35f 653f ce35 603f
00000070: c521 7c3f 7399 713f 32ff 643f 4a27 843f
0.93277043 0.8860934 0.9846899 1.0984662 1.0699294 0.85417515 0.92166275 1.0080605
0.99280256 0.81782436 0.9435967 0.8790201 0.918761 1.0200948 0.99168843 0.88617575
1.0524055 1.1186966 0.91604555 0.9378463 0.99303585 1.042358 0.9102545 1.0588146
1.073376 0.79120773 0.8959934 0.875821 0.9848903 0.9437477 0.894519 1.032449

features.module.5.bias f4 [32]
00000000: 6694 2ebe 0a2a 1dbe f3f9 1cbe 5603 6abe
00000010: 5d6c a2be af2b ccbe 5930 40be 4b3d 04bf
00000020: 9f8b d6bd 86b8 28be d96b 20be 0287 d0be
00000030: 1a73 25be 4ee0 93be 0827 1abe 8e44 bfbe
00000040: 08ef b2be d06d e4be 7ac2 13be 762f f3bd
00000050: 0bc8 1cbe b804 17be 9c39 25be 7f95 bfbe
00000060: 953c b4be f48b cabe 6651 89be 7d3a 2ebe
00000070: 8c9f 80be 1e09 f5bd e64a 20be 2adb b5bd
-0.17048797 -0.15348068 -0.15329723 -0.22852835 -0.317233 -0.39877078 -0.18768443 -0.51656026
-0.10475849 -0.1647664 -0.1566614 -0.40728003 -0.16157189 -0.28882068 -0.15053952 -0.3735699
-0.3494799 -0.4461503 -0.14429656 -0.11874287 -0.15310685 -0.14747894 -0.16135257 -0.37418744
-0.3520247 -0.395599 -0.26819915 -0.17014499 -0.25121725 -0.119646296 -0.15653571 -0.08879693

features.module.5.running_mean f4 [32]
00000000: 0677 7abe 891f b7be 6d5e 90bd 2271 38be
00000010: 69db 7dbe 43c3 ecbd ceda 653d f442 10bf
00000020: 1a2f 0fbe 5600 23bd 5057 fabd 1049 bfbd
00000030: d683 c5be bf4d 83ba 4d1d bfbe db8c 95bd
00000040: fdf2 33be d84d 5bbe fd4d 66be 5dc3 1ebe
00000050: b197 59be 3385 5bbe cae9 debe 3b87 c1be
00000060: 8915 71be 486a 74be 772b dc3c 9606 82be
00000070: 7015 96be 81a6 23bf fdc2 a8be f5f9 89be
-0.24459466 -0.35766247 -0.0704926 -0.18011907 -0.2479073 -0.11560681 0.05611687 -0.5635216
-0.13982812 -0.039795242 -0.12223685 -0.093401074 -0.38577145 -0.0010017677 -0.37327042 -0.07302257
-0.17573161 -0.21416414 -0.22490688 -0.15504213 -0.21249272 -0.2143753 -0.43537742 -0.37798485
-0.23543371 -0.23868668 0.026876194 -0.2539565 -0.2931323 -0.6392594 -0.32961264 -0.26948515

features.module.5.running_var f4 [32]
00000000: eafd 113e 8308 913e 3e94 2f3e e8a5 3b3e
00000010: 703e 5d3e ca3b 2f3e cfd2 203e c7bc 4e3e
00000020: 5d34 123e 356c 043e 0738 1b3e 3915 373e
00000030: 9b61 f73d e313 443e b0c8 333e 646b 183e
00000040: 7b03 843e cd70 b43e 979b 293e 3d8f 093e
00000050: ccf7 9a3e ce42 913e d79f 183e 96b9 753e
00000060: 6639 373e 9a10 253e 023c 603e f94a ea3d
00000070: 1ad9 2d3e b7a4 803e 8775 813e 544c 4c3e
0.14257017 0.28326806 0.17146394 0.18325007 0.2160585 0.17112651 0.15705417 0.201892
0.14277788 0.12931903 0.15158091 0.1787919 0.12079164 0.19148211 0.17557025 0.14884716
0.25783905 0.3524231 0.16563259 0.13433547 0.3026718 0.2837128 0.14904724 0.23996577
0.1789299 0.16119614 0.21897891 0.11440081 0.16977349 0.25125667 0.2528498 0.19950992

features.module.8.weight f4 [64, 32, 3, 3]
00000000: 9481 48bd 75e1 0a3c ec73 cfbc d9f3 97bc
00000010: 4e59 4538 6db4 8fbc b4c7 bbbb 1b20 823c
00000020: 2cb5 03bd 79a5 2c3d 2a16 4cbd ac0f 2d3d
00000030: bc59 a9bc 6077 bcbc c140 263b 4828 a4bb
00000040: ad94 9e3c c65d 19bd d270 ba3d 6eb0 7e3d
00000050: 56ff ef3c 909f 9a3d b7ef e33c 3b88 2f3d
00000060: 797f 663d 47c2 233d 3dff 9d3c 8430 98bc
00000070: 25c1 903b 10ec 9abc 6226 c53b 0cc0 253c
00000080: c271 96bc c1bd d0bc ee09 283c 0e29 63bc
00000090: cd9d f03d d000 c93d c7e2 d43d 9da7 7b3c
000000a0: 9682 833d 678f b63d 1ad4 e73d e289 933d
000000b0: 3f98 363e af3d 2bbd 6ddf 1dbd a966 dabc
000000c0: d6e4 d3bc 0124 28bc b2f4 8dbc 8926 f53b
000000d0: 2764 243b 14db ce3b 00f3 ad3a 5b06 da3c
000000e0: 0914 51bb d546 9ebc 0d35 f3bb 0935 263b
000000f0: 808e 90bc 8d3e b73b 2070 b5bb 3cf3 aa3c
00000100: 520c 5f3b 3686 05bd 8652 413c 2585 f0bc
00000110: 9b92 71bd f9a3 06bc 1339 ffbc cdc7 0ebd
00000120: 4dda 87bc d306 ddbc a9f2 82bd 9442 91bd
00000130: 59a1 f7bc c701 8ebc 86df 03bd 442e 3ebd
00000140: 49c1 b9bc 5c87 19bd 9840 a63b 4d31 02bd
00000150: 14ae ebbc 41b9 11bb 9a61 b1bc d38f 8dbc
00000160: 8898 103a e661 d1bc cdb9 833b 7302 2d3d
00000170: 2d3d 2c3d 259c 59bc e426 f33c 3515 ad3c
00000180: fac1 a63b afe9 113d 44a9 603d 66b9 babc
00000190: 49ed 8bbb 8c94 763c 35c3 08bc bd3c 2f3c
000001a0: c950 f93c 067c 81bc dbe7 a73b 8fb4 35bb
000001b0: 19ce a5bc b327 91bd aab4 adbc e770 c43c
000001c0: b4aa c5bc d177 e1bc 0c0f 64bc 7f1f 69bd
000001d0: 2c2d 2cbd 11fb 44bc a94e af3c e596 95bc
000001e0: 87e5 783c fd8e babc 639a 3cbc 8adf 263d
000001f0: 27ad 933b 87aa 04bd d349 813d 557d 3d3d
00000200: e86a a63d 614d ff3a 5a08 b63c c4a9 8d3c
00000210: 249f 1e3d 905a b23d 8601 3f3d b7d3 92bd
00000220: f55e 99bc 40a8 b7bc 8616 21bd 0aa5 43bc
00000230: ef40 aebc 745a bdbc 5e0b abbb 5b1d c5ba
00000240: 18b1 a03c b523 30bc afc1 293c cbf9 603c
00000250: e10e 2a3c 676d aabb 48fc b53c 7471 2b3c
00000260: 6ade 8ebc 5a32 c33d dc75 bd3c e1eb 543d
00000270: a163 763d 90ee a53c 3838 ae3c 0f01 3c3d
00000280: 0ccb 1d3d bfc2 9d3d 44bd 98bc 1256 74bb
00000290: 0030 85bc 4f43 83bc 11d0 11bd ab4a ae3c
000002a0: dfe1 b63c 56ef 6a3b 1ee8 87bc 2873 2d3c
000002b0: 1602 413c 4986 afbc 8f41 5bbd b1e3 853c
000002c0: ddb8 7b3a 8c90 31bd 7d66 81bd 3ef3 4abc
000002d0: 0ef0 1ebd f5a7 703c 9910 b3bc 8926 d5bb
000002e0: d52e 13bc 9248 0b3d f5e5 9b3c 97c6 9abc
000002f0: b146 0b3d a94e 41bd 07be 4dbd de96 99bb
00000300: ee70 89bc 516b 4cbc 85e6 f4bc bb1c d7bc
00000310: efaf a7bd 0b83 6abd 38ce 1dbd a89f 15bd
00000320: 514f afbb 3791 56bd 7d36 73bc 70b0 20bd
00000330: 0142 d93c c050 99bc b73e 69bb 004b 34bc
00000340: 6761 b9bc 4838 19bd 19e0 173b c879 09bd
00000350: c97f c7bc 10c5 ffbb 99b3 dbbc 3a83 a9bc
00000360: 9500 c2bc 63d7 2ebd 0887 d0bc f555 13bd
00000370: 3a94 a0bb 4714 75bc 5ad3 49bd 2f80 ffbc
00000380: c05f 06bd 988e 40bc dbbf 84bc 7fe4 0abd
00000390: d2e7 f6bc b5d2 a3bc 3df6 3abd 3f84 f1bc
000003a0: 1f87 e7bc b434 75bd 08b8 a4bc 9490 f33c
000003b0: eb22 e7bb f63f e53a f5fc 9ebc 5f75 9abb
000003c0: e099 8bbc 3da0 cd3c d32e d0bb 7c8b ea3c
000003d0: 8f8c 3a3c eb6a 6a3d befa 853c 415b 0a3d
000003e0: c090 7f3d 152a 783b 36ad 453c 2be6 343d
000003f0: 5b0b 71bc 6d5a 36bd ea11 dabc 2592 eebc
-0.0489517 0.008476605 -0.02532383 -0.018548893 4.705163e-05 -0.017542088 -0.0057305936 0.01588445
-0.0321552 0.042149995 -0.049825825 0.042251274 -0.020672671 -0.023006141 0.0025368186 -0.0050096847
0.019358004 -0.037442945 0.0910355 0.062179975 0.029296558 0.075499654 0.027824266 0.04285453
0.05627391 0.0399802 0.019286746 -0.018577822 0.004417556 -0.018911391 0.0060165385 0.010116588
-0.01836479 -0.025481107 0.010256274 -0.013864769 0.11748848 0.09814608 0.10394817 0.015359786
0.06421392 0.089140706 0.11319752 0.072040334 0.17831515 -0.041806873 -0.038543154 -0.02666028
-0.025865953 -0.01026249 -0.017328594 0.0074814004 0.002508411 0.0063127372 0.0013271272 0.026614359
-0.003190281 -0.019320885 -0.0074220956 0.0025361201 -0.017646074 0.0055921734 -0.005537048 0.020867936
0.0034034443 -0.032598697 0.01179946 -0.029360363 -0.058977704 -0.008217805 -0.031155145 -0.034858514
-0.016583586 -0.026980793 -0.0639394 -0.07092777 -0.030228304 -0.017334832 -0.03219559 -0.04643084
-0.022675173 -0.037482604 0.005073618 -0.0317853 -0.02876953 -0.0022235664 -0.021652985 -0.017280495
0.0005515893 -0.025559377 0.004019952 0.042238664 0.04205053 -0.013281857 0.02968163 0.021128276
0.005089042 0.03562325 0.054848924 -0.022793483 -0.00427023 0.015050065 -0.008347322 0.0106956335
0.03043403 -0.01580621 0.005124075 -0.002772603 -0.020239877 -0.0708765 -0.021204311 0.023979617
-0.02412925 -0.027522953 -0.013919603 -0.056914803 -0.042035267 -0.0120227495 0.021399813 -0.018260429
0.015191442 -0.02277326 -0.011511418 0.040740527 0.0045067254 -0.03238919 0.06312909 0.046262104
0.081258595 0.0019478017 0.02222078 0.017292865 0.038725987 0.0870868 0.046632312 -0.07169288
-0.018722037 -0.022419095 -0.03932812 -0.011941204 -0.021271197 -0.02311442 -0.005219861 -0.0015038656
0.019615695 -0.010750701 0.010361119 0.01373143 0.010379524 -0.00520103 0.022215024 0.010464061
-0.01744004 0.09531088 0.023127489 0.051982764 0.060153607 0.020255357 0.021267042 0.045899447
0.03852372 0.077031605 -0.018644936 -0.0037282747 -0.01625824 -0.016023306 -0.03559882 0.021275839
0.0223245 0.0035848222 -0.016590174 0.010586537 0.0117802825 -0.021426337 -0.05352932 0.016343923
0.0009602437 -0.04335074 -0.06318376 -0.012387095 -0.038803153 0.014688482 -0.0218585 -0.006504838
-0.008983334 0.034004755 0.01903055 -0.018893523 0.034002963 -0.047194157 -0.050230052 -0.004687174
-0.016777482 -0.012476758 -0.029895077 -0.026258817 -0.081878535 -0.05725388 -0.038526744 -0.036529213
-0.0053500314 -0.05238458 -0.014844534 -0.039230764 0.02652073 -0.018715262 -0.003559036 -0.0110042095
-0.022629453 -0.03740719 0.0023174344 -0.033563405 -0.024352925 -0.007805474 -0.026819037 -0.020692457
-0.023681918 -0.042685878 -0.025455013 -0.035970647 -0.0049004825 -0.014958448 -0.049273826 -0.031189052
-0.032806158 -0.011752747 -0.016204765 -0.033909317 -0.030139837 -0.019997934 -0.045644987 -0.029482005
-0.028262673 -0.059864715 -0.020107284 0.029732026 -0.007053723 0.0017490375 -0.019407729 -0.0047136988
-0.017041147 0.025100822 -0.006353238 0.028630964 0.011386051 0.05723087 0.016354915 0.033778433
0.062393904 0.003786688 0.0120652225 0.044164818 -0.01471218 -0.04451983 -0.02661987 -0.029122422

features.module.8.bias f4 [64]
00000000: 5b99 dcbc 1f1e 313c 2b7d 3a3c e6d8 6c3d
00000010: 3b0e 5c3d 89a0 46bd 1705 ef3c 72d3 40bd
00000020: 973c ebbc 95db bd3c 4c93 24bd c64c 4e3d
00000030: c82c b63c 4f92 a43b 23c5 063d c8f4 4cbd
00000040: d6c5 1e3c 5e4e b33c e451 ddbc cf95 95bc
00000050: f42f c33c d2cd 4b3d 52a7 bbbc b644 113d
00000060: 0ae0 063d b8cd 0cbd b63d 3fbd 2dc7 e2bb
00000070: 8a4c 153d fe95 48bd ae2d 27bd b952 2f3d
00000080: caf9 09bd 11c9 2bbd 0108 24bb a46f 6b3d
00000090: dcb1 1e3d 1141 f83c 9f3e f63b c614 f1bc
000000a0: cd73 3bbd 20a4 ff3c 839e 8e3c 8671 7a3c
000000b0: 77d6 b1bc 7dbd 6abd 6fa2 033c c3b9 25bc
000000c0: 969e 91bb 63b6 b63b a4a2 0cbd 4ddd 15bd
000000d0: 5891 8bbc 3fbf ba3c 85a1 16bd de3e 603d
000000e0: f3c4 6cbd 6a53 15bd 5eea 893c 4007 6abd
000000f0: 6290 05bd 6f4e f83c 490e 23bd e51b 9a3c
-0.026928594 0.010810404 0.011382381 0.057824038 0.05372451 -0.048492942 0.029177232 -0.04707665
-0.028715415 0.023175994 -0.040179536 0.050366186 0.02223815 0.005022324 0.032902848 -0.05003813
0.009690722 0.021887954 -0.027016588 -0.01825991 0.023826577 0.049756832 -0.022906933 0.03546592
0.032928504 -0.034375876 -0.04668971 -0.0069207163 0.036449946 -0.04897117 -0.040815048 0.0428035
-0.033685483 -0.0419398 -0.0025029185 0.057479516 0.03874384 0.030304464 0.0075147892 -0.02942885
-0.045764733 0.03120619 0.017409569 0.015285855 -0.02170871 -0.057309616 0.008034333 -0.01011509
-0.0044439537 0.0055759414 -0.034334794 -0.036588002 -0.017037079 0.022796271 -0.03677513 0.054747455
-0.057805013 -0.036456503 0.016835388 -0.05713582 -0.032608397 0.030310838 -0.039808545 0.01881213

features.module.9.weight f4 [64]
00000000: 31a8 1040 afcc e53f 4cb2 fc3f 7f66 ee3f
00000010: f2a8 bc3f 2c0d 0040 a77a ef3f 80db d83f
00000020: 0bc9 e03f daee e73f 4e57 b73f 15fe d23f
00000030: 777b d93f 8e57 d83f b0c8 f53f 71eb 0c40
00000040: 1ca5 e03f 9adb db3f 22df d73f 4c44 dc3f
00000050: cdf1 f43f 4d8d e43f fbd1 d93f 4ab6 f83f
00000060: 3526 f93f 963f e73f 317e e53f e376 e73f
00000070: 881e ea3f 18b1 d23f a4e9 ec3f d45c 0240
00000080: 492e e53f 809b d43f bf85 dd3f a650 e03f
00000090: 0df8 eb3f b8c6 2540 03d8 d23f 602c 0940
000000a0: f864 dd3f e2f3 cc3f 7e0b d63f 4c99 d83f
000000b0: 287a da3f 39a3 0a40 28ae 0140 b837 dd3f
000000c0: 2816 f13f 1374 fe3f 0c0b 0040 75cd f83f
000000d0: edb2 db3f dc95 e43f 88f2 0240 949d 0b40
000000e0: 2b62 ec3f 38a7 d43f 9120 0140 41f2 dd3f
000000f0: d528 f63f 9786 f03f d65d d53f 293a fe3f
2.2602656 1.795309 1.9741912 1.8625029 1.4739058 2.000804 1.8709306 1.6941986
1.7561353 1.8119767 1.4323518 1.648379 1.6990803 1.690172 1.920187 2.2018702
1.7550387 1.7176392 1.686497 1.7208343 1.9136292 1.7855622 1.7017206 1.943063
1.9464785 1.806628 1.7929136 1.8083156 1.8290567 1.6460295 1.8508801 2.0369158
1.790475 1.6609955 1.7306441 1.7524612 1.8435074 2.5902538 1.6472172 2.1433334
1.7296438 1.6011927 1.6722257 1.6921782 1.7068529 2.1662123 2.0262547 1.7282629
1.8834887 1.9879173 2.0006742 1.94377 1.7163979 1.7858233 2.046053 2.1814928
1.8467458 1.6613531 2.0176127 1.7339555 1.9231211 1.8791074 1.6669261 1.9861499

features.module.9.bias f4 [64]
00000000: f58b 273f 6797 8d3e d58a c13e f971 c03e
00000010: 6e69 c73e 6fad bc3e 0388 b43e 2f11 1f3f
00000020: d702 323f adc4 b73e 6cd2 b73e e0de 113f
00000030: f936 8d3e d9f5 b13e 8095 b03e 87f6 0b3f
00000040: 0f35 ce3e f368 aa3e f5d1 143f cfdc 1f3f
00000050: 987d cd3e 86ea 293f 4332 b83e 9f4d c33e
00000060: 35d4 1d3f 672b a43e ad0b bc3e 424a b13e
00000070: 51d1 b33e 3004 133f 2230 e43e e18d e63e
00000080: 7e4b b83e 90b3 123f 71ef e03e 84bc da3e
00000090: 43f5 d13e ffe8 223f e075 a03e b074 193f
000000a0: d76a b33e 87d7 863e b664 ad3e 5fba 1e3f
000000b0: 99df 1a3f 7f9b 143f 3ae6 073f 82a5 303f
000000c0: f29b a83e 9f7d a83e 93e3 c53e 1f54 093f
000000d0: ebe0 a73e c418 963e 51ac c23e 18c3 053f
000000e0: 4aae ae3e f54d 2a3f d973 d13e ef81 8e3e
000000f0: def1 b53e 15a3 a23e 29e7 843e aa3a 5a3f
0.6544793 0.27654573 0.37801233 0.37586954 0.38947624 0.3685107 0.3526002 0.62135595
0.69535583 0.3589224 0.35902727 0.56980705 0.27581003 0.3475788 0.3448906 0.54673046
0.40274855 0.33283195 0.5813287 0.624463 0.40134883 0.6637348 0.35975847 0.38145158
0.6165193 0.32064363 0.36727658 0.34626967 0.35120633 0.57428265 0.44567972 0.4503012
0.35995096 0.5730524 0.4393268 0.4272195 0.41007432 0.63636774 0.3133993 0.59943676
0.3504245 0.2633631 0.338659 0.6200313 0.6049743 0.5804977 0.5308567 0.69002545
0.32931477 0.3290834 0.38650188 0.53643984 0.32788786 0.2931577 0.38022092 0.52250814
0.34117347 0.66525203 0.40908697 0.27833506 0.35536093 0.31765047 0.2595761 0.85245764

features.module.9.running_mean f4 [64]
00000000: d64a 25be 2e08 a83e 55be ba3e 3404 943d
00000010: 64b2 33be 5099 d2bd abaf e93d 3ca7 a93e
00000020: 30c8 7a3e edd4 1abe 19ec 2fbe 3a3d cb3e
00000030: a46a 9b3e 190b b63e e6cb d03e 0679 0cbd
00000040: 0b7f 39be 0bf6 fa3d 5ecd 963e 6ad0 883e
00000050: 4b12 9d3e c900 013f 5758 583d b5e3 013e
00000060: 8d6f 40be 2afd 8c3e f5c3 7fbe 9544 753e
00000070: 972e a1bc e10e dabd c1b2 6bbe 458c 8a3e
00000080: 0449 693e 6b14 4ebe b384 63be 7977 d8bc
00000090: 0132 f9bd 165c 903d 8594 dc3d 2585 03be
000000a0: 8a87 093d 181b a73e 8fb0 e8bd 8bee 793e
000000b0: 55d6 953e 1082 6fbe b888 f13a c5d8 753e
000000c0: 9968 4d3d b875 8c3d 20e4 14be bb5b 1dbe
000000d0: 3331 e0bc 7623 933e a764 803e 64d7 c13d
000000e0: 3785 4ebe 82e4 7e3e 3d02 b13e 4900 183e
000000f0: 7786 723d f421 f83d eb20 b33e 1586 e23e
-0.16141829 0.3281874 0.36473337 0.07227364 -0.1754852 -0.10283148 0.11410459 0.33135402
0.24490428 -0.15120287 -0.17179908 0.3969515 0.30354798 0.35555342 0.40780562 -0.034295104
-0.1811487 0.1225396 0.29453558 0.26721507 0.3067802 0.50391823 0.052818622 0.1268452
-0.18792553 0.275369 -0.24977095 0.23951943 -0.019675536 -0.10647369 -0.23017408 0.27060142
0.2278176 -0.20124976 -0.2221859 -0.026424157 -0.121677406 0.07048814 0.10770515 -0.1284376
0.033576526 0.32637858 -0.11361801 0.24407403 0.29265085 -0.23389459 0.0018427586 0.24008472
0.05014858 0.068583906 -0.14540148 -0.15367024 -0.02736721 0.28737992 0.25076792 0.094649106
-0.20168005 0.24891856 0.3457202 0.14843859 0.059210267 0.12115851 0.34986052 0.4424292

features.module.9.running_var f4 [64]
00000000: c84b 4c3e f664 673e 3832 6a3e 6ee1 1e3e
00000010: a2e2 393e 7704 233e 9f92 233e 3131 393e
00000020: d0e5 553e 35cb f53d 7a47 0e3e 06fc 5c3e
00000030: 9529 5a3e 50e2 383e 3737 793e 3fe2 4b3e
00000040: 25de 383e d24f 2d3e 060c 393e 4d66 473e
00000050: 637f 5f3e 0811 4f3e 29ec 263e a62c 2f3e
00000060: 02b9 273e 1950 633e 9f85 1c3e 8cf1 5b3e
00000070: a52f 273e 23b2 0a3e 36a3 3c3e 0d50 5c3e
00000080: fc74 5b3e 7d4d 143e d9f2 363e 30f7 403e
00000090: c3e9 063e 4761 553e 99e0 5f3e d744 413e
000000a0: 5854 3e3e 04cd 673e 2431 da3d 0e19 4a3e
000000b0: 1cf9 503e 5c9e 4e3e 9f21 543e b4f3 4c3e
000000c0: e0eb 3c3e 93b6 253e ce38 4f3e c441 353e
000000d0: 5072 0e3e bed2 643e fc7e 6f3e bf5c 503e
000000e0: f25d 213e 43ce 3a3e bb79 6f3e 52d1 223e
000000f0: 10be 1f3e db9f 0f3e 3236 4d3e 2f93 503e
0.19950783 0.22597107 0.2287072 0.15515682 0.1815286 0.15919672 0.159739 0.18085171
0.20888448 0.12001649 0.13894454 0.21580514 0.21304925 0.18055081 0.24337469 0.19910525
0.18053491 0.1692498 0.18070993 0.19472618 0.21825938 0.2022134 0.16301025 0.17106876
0.16379169 0.22198524 0.15285347 0.21478862 0.16326769 0.13544516 0.18421635 0.21514912
0.21431345 0.14482684 0.17866077 0.18844295 0.1317511 0.2083789 0.21863021 0.18873917
0.18586862 0.22636801 0.10653904 0.1973612 0.20407528 0.20177597 0.2071595 0.2001484
0.18449354 0.16182928 0.20236513 0.17700869 0.13910794 0.22346017 0.23388284 0.2034788
0.15758494 0.18242745 0.2338628 0.15900162 0.15599847 0.14025824 0.20040205 0.20368646

top_layer.weight f4 [10, 64]
00000000: 92f3 2abe 6d1a 733e 5061 a73e 6752 3e3e
00000010: d8ab babd e944 09be 0ab2 b9bd 8e51 79ba
00000020: 6265 cfbd d80c 8e3d 4d6a 92bd 492e 13bd
00000030: da2c 863e 858f 6b3e 091d a43e 8758 71be
00000040: 3d53 debd 2625 593e 5aa9 17bd 5c3f bdbd
00000050: 1c31 953e 31c6 57bd cd8d 3e3e c047 14be
00000060: b8e1 15be b3e3 913e ddbe 35bd 0b42 9c3e
00000070: 1fac 87bd ee31 04be 5f1b 1bbe 910a aa3e
00000080: 26ab 853e db01 12be 524b 1cbe 04c5 14be
00000090: d94a 5e3d 7212 a7be 5db7 aa3d af57 28be
000000a0: 0a79 233d f3f3 2f3e 973e 523d 00f0 9cbd
000000b0: 823e 31bd 824a 57be 5e6a 7abe e07b 9abd
000000c0: a5b2 3e3e c6ca a2bd 4ec8 87be 63f1 2ebe
000000d0: 40e1 1bbb 5e73 803e f5cd b33e 58cb 84be
000000e0: 6433 97bd 83d6 93bd d78a b33e d425 a3bd
000000f0: cb3d d4bd db9c 1cbd 6a91 943e 5856 b0bd
00000100: 1b9c a13e 4b30 93bd deb3 cabb 4c0c d2bd
00000110: 7a45 453e 9d50 0abe a9ea b7bd 0c92 a23a
00000120: f291 273c a855 24be 7bab 283e 9078 02bc
00000130: 2e9b a03c 0a05 883c 0da9 173d 544b 2e3c
00000140: beca 583e 4647 0abd 7988 f3bc dac7 36bb
00000150: 5834 91bc eca4 bfbc 5cc3 73bd 7ecd 7abd
00000160: 5f1d 6d3e fca6 3ebb db72 17be e821 913c
00000170: 1bcd 1dbe 9659 f93d 2756 783e 0e55 bcbc
00000180: 3c61 f6bb b266 0f3e b221 5a3e f7ee 843e
00000190: 5e1b 10be def9 3ebd b0ff 21be a49d 9b3e
000001a0: 540d 05be 942e b3bd c782 f7bd 8b4b df3b
000001b0: 9d15 01bd ef48 863e 9c46 a93d 7a56 b63c
000001c0: cd98 c9bd 73ca f4bd bca4 93bd c593 573e
000001d0: b831 0cbe d32c 61bd 80ed 19ba 243e d23b
000001e0: 9569 23be 1051 7d3c 976d 043c 4aa9 9fbd
000001f0: e8d4 a6bd f42f b1bd 0a2e 8d3d c49f 38bc
00000200: e9bf aa3e d89a 19bd 2629 54bd 267e 5f3c
00000210: dc05 733d f81d 9b3d fbdb c13d d34d b4be
00000220: 129e 82be 3a96 ec3c 856b 453c 80c6 96be
00000230: 4ba2 42bd 9468 1dbb 97b8 c9bd 1578 8a3e
00000240: d0d7 5f3e 7e79 f7bc 66b5 afbe f40a 9bbe
00000250: 0814 dbbc f4ae b7be a310 ae3c 7e1b 183e
00000260: 01fe 0e3e b966 3cbd 5cc1 ce3d e21b 6cbd
00000270: f733 933d c4ca f8bc d1e6 993e 8db3 3fbd
00000280: e0a7 22bd 6a4a 243a f196 2c3e 18dd 873e
00000290: 6d5f 193d 9d3d 833e 1522 093d bb6f 9e3e
000002a0: 32cb 883d 1bbc b03c 7d20 423d cd9b 92be
000002b0: 5933 acbe 9a4c ab3e 730c af3e 6d2e 98be
000002c0: eb9c 3e3c e0db 703d 4790 233e 2a1c 493e
000002d0: 8799 af3d 53b2 14bd 62dd 9fbd 9d51 8c3e
000002e0: b45f 5a3d e640 9bbe a8ef adbd 31c5 9b3d
000002f0: eaa8 c63d 91f3 4c3d 6f42 eabd de95 cfbe
00000300: 0186 2cbe 91ca 5dbd 89ad e3bd 5eef f1bd
00000310: b78b 05be 3cba 8a3e 959b 8c3e 0056 99bb
00000320: 1d9b 6cbd c60f bebd 89ce f1bd 0ab5 92bc
00000330: 6dce a6bd 1a4b 503d 1641 85bd 4791 a13e
00000340: 4a91 27be 8316 ccbd 47d9 10bd a8b1 a9bb
00000350: cf6f b7bd 1499 3dbd 2417 5dbd 2831 9c3e
00000360: 0ac4 53be 76cf 76bd 3423 033e 9820 e8bd
00000370: 26fd 343e 4055 f1bd de94 1cbe 178c 08be
00000380: d053 7abd bea0 12be 4b1a 24be a9ed 04be
00000390: c980 1cbd 4f45 dd3e 7ff7 8c3d 545f 30be
000003a0: cbef f63d ac46 5bbc 6cf3 c5bc a557 bebc
000003b0: 6fe2 08bd b40b 11be abcf 483e bd67 80bd
000003c0: 2dff ccbd ba6d aa3e 7b5e 9c3e 69ac 1bbe
000003d0: 3365 003e 031e 80bd b134 ddbd b2e1 973e
000003e0: 77b6 363e caf1 3ebd 6104 e3bd 8165 883e
000003f0: 6ae1 973e 17d2 9a3e fb89 8fbc aba7 e2bc
-0.16694477 0.2374055 0.3269143 0.18586121 -0.09114808 -0.13405193 -0.090671614 -0.0009510749
-0.10126759 0.069360435 -0.071491815 -0.035932813 0.26206094 0.23003967 0.32053402 -0.23568927
-0.1085572 0.21205577 -0.03702674 -0.092406005 0.2913903 -0.052679244 0.1860878 -0.14480495
-0.14636886 0.28494033 -0.044371475 0.30519137 -0.06624626 -0.12909672 -0.1514716 0.33211187
0.26107138 -0.1425852 -0.15263107 -0.1452828 0.0542706 -0.3263126 0.08335755 -0.16439699
0.039910354 0.17182903 0.05132922 -0.07662964 -0.043272503 -0.21024516 -0.24454638 -0.075431585
0.18622835 -0.07948832 -0.26520008 -0.17084269 -0.0023785383 0.25088018 0.3511807 -0.2593639
-0.07382849 -0.07218649 0.35066864 -0.079661995 -0.103633486 -0.038235527 0.29017192 -0.08610219
0.31564412 -0.071869455 -0.0061859926 -0.10256252 0.19264784 -0.13507314 -0.08980305 0.0012403145
0.010227667 -0.160483 0.16471665 -0.007963315 0.019605245 0.016603965 0.037026454 0.010638077
0.2117109 -0.033759378 -0.029728161 -0.0027890117 -0.017725155 -0.02339407 -0.05951248 -0.06123113
0.23155735 -0.002909123 -0.14789908 0.017716363 -0.15410273 0.1217529 0.24251615 -0.022989776
-0.0075189155 0.14004019 0.21301916 0.25963566 -0.1407294 -0.04662501 -0.15820193 0.30393708
-0.12993366 -0.087491184 -0.12085491 0.0068144253 -0.031514753 0.2622752 0.08265421 0.022258032
-0.098435976 -0.119526766 -0.07209155 0.21052463 -0.13690841 -0.05497439 -0.0005871877 0.006416099
-0.15958245 0.015461221 0.008082769 -0.07795961 -0.081460774 -0.086517245 0.06893547 -0.01126856
0.3334954 -0.037501186 -0.051797055 0.013640916 0.05933176 0.075740755 0.09465786 -0.35215625
-0.25511223 0.028880227 0.01204956 -0.29448318 -0.047518056 -0.0024018632 -0.09849661 0.2704474
0.2185967 -0.0302093 -0.34318084 -0.30281794 -0.02674295 -0.35875666 0.021248167 0.14854237
0.13964082 -0.0459964 0.10095474 -0.05764378 0.07187646 -0.030370124 0.3005891 -0.046802092
-0.03971088 0.0006267192 0.16854455 0.2653587 0.03744452 0.25632945 0.03347977 0.3094462
0.066793814 0.02157407 0.047394264 -0.28634492 -0.33632925 0.3345688 0.34189186 -0.2972292
0.011634092 0.05880344 0.15973006 0.1963965 0.08574205 -0.036302876 -0.07805897 0.27406016
0.053313926 -0.3032295 -0.084929764 0.07605971 0.097001866 0.05003697 -0.114384525 -0.40544027
-0.16847993 -0.05414826 -0.111170836 -0.11813234 -0.13041578 0.2709521 0.2746245 -0.0046794415
-0.057765115 -0.09280352 -0.118069716 -0.017908592 -0.08144841 0.050852872 -0.06506555 0.3155615
-0.16364017 -0.09965231 -0.03536346 -0.005178649 -0.08956873 -0.046288565 -0.053977147 0.30506253
-0.20680252 -0.060256444 0.12806398 -0.11334342 0.17674693 -0.11783838 -0.15291163 -0.1333469
-0.061115086 -0.14319131 -0.16025655 -0.12981285 -0.038208757 0.4321694 0.06883144 -0.17223865
0.12057456 -0.013383549 -0.024163924 -0.023235152 -0.03341907 -0.1416462 0.19610469 -0.062697865
-0.100096084 0.3328684 0.30540833 -0.15202488 0.12538604 -0.06255724 -0.10801066 0.2966438
0.17843042 -0.046617307 -0.110848196 0.2663994 0.29664165 0.3023841 -0.017521849 -0.027667841

top_layer.bias f4 [10]
00000000: 82bc b9bd f3ba 483e 5ee4 a0bd 00ae 84bd
00000010: 664b 3fbd 2f1b 873d e475 3e3d 9119 2b3d
00000020: 3646 343d cb88 e8bd
-0.09069158 0.19602565 -0.078560576 -0.064785 -0.046702765 0.06596982 0.046499148 0.04177243
0.04401227 -0.11354216

momentum_buffer f4 [16, 1, 3, 3]
00000000: 5eb9 c23d efba 023e d30f 073e a886 b63d
00000010: 12d3 093e ed81 a13d d570 573d b411 833d
00000020: c4c7 873d 898b f3bc 2423 48bc ccbe 02bd
00000030: 10c5 0bbd 48aa b23a 99c4 1a3c 88d7 44bc
00000040: e0b0 f83c 750a db3c 5de4 1bbd 0e75 82bd
00000050: 2cb9 b2bd ec80 6abc 3e05 0bbd a0f9 acbd
00000060: 0e1e 9abb 4420 7aba 72db 73bd 590b 923d
00000070: 8ecc 8c3c 9526 943c dcf0 a73d d35e 253d
00000080: 4bb5 053d aa3f c83d c1dd 9e3d 326a 293d
00000090: b83d 5abc 826e a0bc 58e1 81bd e25a 713d
000000a0: 74a1 383d 3fd5 1abc d048 9d3d aacb 7a3d
000000b0: 3d9c 86bc b50a 6e3d 5357 043d 10aa da3c
000000c0: 8357 8f3d 529e cc3c fd1d 743b a84d 103d
000000d0: 82f0 883c c853 ec3b ec1f 0c3e 1690 023e
000000e0: 7927 f13d 8a35 203e ff85 853d b023 8b3c
000000f0: b8ed 933d 4042 2fba 5772 c93c 387c 12be
00000100: 6e52 06be e949 93bd 205e ddbd 8e4a 0abe
00000110: 154e bebd 5fa2 19be 4e1d 24be d48f 02be
00000120: 02bb be3c 8e16 bd3c 72f7 0bbc ec9f 353c
00000130: b09a 243c 9364 ce3b 6a16 10bc 87aa 9d3c
00000140: b446 ed3c 63c4 d1bc 226a aabd ec8e edbd
00000150: e230 cbbc 2457 7fbd 6a6b bbbd 7bdf 9fbc
00000160: 00cf 6e39 fb0e 15bd 0643 f83c a4de 92bd
00000170: a942 2fbe 8a47 a5bd 22cf 48be be0d 60be
00000180: d833 ecbd 128f f0bd 86ea bcbd c70f ce3a
00000190: 9ab3 05ba 285e a3ba d50e 51ba 1c35 4fbb
000001a0: 4a11 e8bb 882e 0d3b 8a96 1bbb 70d9 76b9
000001b0: d830 d63c a94b d83c ddd0 753d de7d 603d
000001c0: e425 bf3d 43cf cf3d 37c1 963d 6e81 d13d
000001d0: 207c 6c3d 0806 1db9 b03e 10ba 60a8 5cb9
000001e0: 2adb 03bb 6864 beb9 f07d 74ba 4041 aaba
000001f0: 20e2 9bb8 66c1 e83a 3cb6 243d 36c8 6d3d
00000200: bf20 8f3d e90c 893d 58e1 c03d 72aa a43d
00000210: bbb8 b33d 5daa c83d 90c6 a93d 54d4 88bc
00000220: f025 f1bc 7621 dc3c 68f1 b0bb 0007 66bb
00000230: 5811 953d 20b4 f6bc ec99 c7bc 0bae 273d
0.09508012 0.12766622 0.1318963 0.089124024 0.13459423 0.078861095 0.05259784 0.06399861
0.06629899 -0.029729621 -0.012215409 -0.03192024 -0.03412348 0.001363107 0.009446287 -0.012014277
0.030357778 0.026738385 -0.03805958 -0.06369983 -0.08726725 -0.014312964 -0.033940546 -0.0844605
-0.00470329 -0.0009541551 -0.05953545 0.07131071 0.017187383 0.018084804 0.08200237 0.040373635
0.032643598 0.09777768 0.0775714 0.04136104 -0.013320379 -0.019583944 -0.06341809 0.058924563
0.04507585 -0.009450256 0.076799035 0.061229385 -0.016431922 0.05811568 0.03230984 0.02669242
0.069991134 0.024977837 0.003724932 0.03523031 0.016716246 0.007212136 0.13684052 0.12750277
0.11775107 0.15645424 0.06519698 0.01698479 0.07223076 -0.0006685592 0.024590654 -0.14305198
-0.13117382 -0.071918316 -0.108089685 -0.13505003 -0.09292237 -0.15003346 -0.16026804 -0.12750179
0.023282532 0.023082044 -0.008542882 0.011085492 0.010046646 0.0062986105 -0.008794406 0.019246353
0.028964378 -0.02560634 -0.083210245 -0.11599526 -0.024803583 -0.062338963 -0.09151347 -0.019515743
0.00022774562 -0.03639124 0.030305397 -0.071713716 -0.17115273 -0.080702856 -0.19610265 -0.21880242
-0.11533326 -0.117460385 -0.09224419 0.0015721255 -0.000510031 -0.0012463974 -0.00079749274 -0.003161735
-0.007082139 0.0021542627 -0.0023740851 -0.0002354139 0.026146337 0.026403265 0.06001364 0.054807536
0.09333399 0.10146954 0.073610716 0.10229765 0.057735562 -0.00014974934 -0.0005502505 -0.0002104356
-0.0020119646 -0.00036314433 -0.00093266275 -0.0012989417 -7.433095e-05 0.0017757833 0.040212855 0.058052264
0.06988668 0.066919155 0.09417981 0.08040322 0.08775469 0.09798119 0.08289826 -0.016702808
-0.029437035 0.026871424 -0.0053998716 -0.0035099387 0.07278699 -0.030115187 -0.024365388 0.040937465

momentum_buffer f4 [16]
00000000: 5452 bfb6 9ed3 e836 4ad6 8f37 9ce1 e037
00000010: 7dc9 fd37 441b ddb7 efb4 0837 fac5 6fb7
00000020: 759d 72b6 3a60 d0b7 40fb fc37 397e ccb7
00000030: 7e42 9537 ecf6 4237 8610 3537 0357 97b7
-5.701828e-06 6.9387743e-06 1.7146715e-05 2.6807938e-05 3.0253776e-05 -2.635795e-05 8.148359e-06 -1.4291605e-05
-3.6152462e-06 -2.4840341e-05 3.0157738e-05 -2.4377472e-05 1.7793147e-05 1.1620792e-05 1.0792288e-05 -1.804112e-05

momentum_buffer f4 [16]
00000000: f915 e1bc a4b7 123d 3472 b0bc d48d 033d
00000010: f830 32bd e488 773c f1da dfbb 87c5 a3bd
00000020: d4ba b13b 38a3 8cbb 3810 823d 4694 b23b
00000030: 5638 de3c 9136 163c a231 183d e8b9 83bb
-0.027476298 0.035819665 -0.021538831 0.03211768 -0.04350373 0.015108321 -0.00683152 -0.0799666
0.005423883 -0.004291918 0.0635075 0.0054498045 0.027126472 0.009168283 0.03715671 -0.0040199645

momentum_buffer f4 [16]
00000000: c4bc f93c 4084 123d d6c3 bbbc 9e61 76bc
00000010: 1888 56bc c24b 6c3c a55c 2fbd 6ed3 c5bc
00000020: 1913 0a3d 3614 ac3c 3acf ec3b 19e0 9e3c
00000030: 845a ebba 3af8 b63c 3b17 b23c 4487 763c
0.030485518 0.035770655 -0.02292053 -0.015037922 -0.013093971 0.014422359 -0.042812962 -0.02414867
0.03370962 0.021005731 0.007226852 0.019393967 -0.0017956053 0.02233516 0.021739593 0.015046898

momentum_buffer f4 [32, 16, 3, 3]
00000000: 907e 553b a78a 953b 444e 743c 72be aa3b
00000010: 614e 873c 9cdf 6a3c 4852 4f3c 269e bf3c
00000020: 3d24 073c c61a 6bbb 97d9 e0bb 2ce3 d6bb
00000030: 1c10 9dba b379 11bc 40a2 0ebc ae6a d5bb
00000040: d0b3 0fbc 203b afbb f056 4e3b fbc6 99ba
00000050: da28 b23a 882a b0bb 3228 f1ba 00d6 0837
00000060: 7209 1dbb 7427 103b 4398 29bb 4069 95ba
00000070: 672a b1bb f0fd 3339 f9ec 0ebb e061 9ebb
00000080: 3ce3 07bb f06f 69bb 8bd8 7cbb d05b c3bb
00000090: 4b40 b6bc 554f 95bc 8870 58bc 2d25 29bc
000000a0: 9302 16bc 2f7e 0ebc 64f2 49bc 3ad4 95bb
000000b0: 90c4 c7bb a330 4a3a 264d 9d3a 8b32 303b
000000c0: bce6 873b d68b 463b a1fa be3b 0081 bcb8
000000d0: 93af d33a 3d37 643a 38f2 9fba ccac 433b
000000e0: 76d9 b93a 7f0b 11bc 30d0 8039 f0da ffb8
000000f0: ec2c 73bb 2c2a b4ba a338 cf39 e4c5 65bb
00000100: fbe9 883a e656 8c3b f484 293b a5e3 883b
00000110: 3c77 db3a 6238 133a c2af c93b 26a9 ce3b
00000120: 3f2f 313b b8b5 603a 9504 973b 7006 873a
00000130: 83bb 4d3a e5c7 f63b 313e 363b 29b9 6a3a
00000140: 65dd 0b3c faf6 09bb 709d 1ebb 5f45 b7bb
00000150: 24b3 a7bb 57aa c0bb d629 f2bb 0777 8bbb
00000160: 7c65 5abb 4c65 e5bb f059 b73b c678 5abb
00000170: 70c1 1eba 1475 aaba d544 daba 904d 2339
00000180: f0b6 9cba 0c89 9d3a 405b e03a 89bf 94bb
00000190: acde 29bb 64fd c3ba 6909 8abb c83b 75bb
000001a0: d855 aeba 228b 38bb baf7 27bb 48da 59bb
000001b0: 05f4 923b 5dfc 113b 018a d0ba dc90 e93a
000001c0: 0d12 aa3a de04 58bb 5285 603b 228a c33a
000001d0: 4031 cbba e5de daba 2647 a2ba 3c4d 9e3a
000001e0: 6a97 01bb 2f8a 58bb e07c e93a c339 3dbb
000001f0: 35b4 2ebb 7246 0eba 9c10 953b 58fa 8b3b
00000200: c1c3 6c3a 2472 343b beb8 683a 52c8 b6b9
00000210: be95 233b 6738 3f3a 424b cbba 32f6 e5ba
00000220: fab0 d7ba 6947 a63b f173 433b 5d0c 53ba
00000230: 94bd 643b 97a5 283a be39 9aba e6c1 103b
00000240: 98a1 513a bc22 833b 00df 3738 c3a1 ec3a
00000250: 108a b93a 5895 9538 d550 93ba c2d1 dcba
00000260: 1e34 243a 14bd b9b9 97ee 3c3a c8bb e3b9
00000270: 00c4 e5b7 82bb 443a db02 2739 a8fb 343a
00000280: d01e 263a 7f86 023a 1a5e 1b3a be9a 6b3a
00000290: fa3a 273a a237 483a 06ce 753a 121b 373a
000002a0: e9c4 d739 c81a 6b3a 1e49 cf3a 6835 6e39
000002b0: fe31 7e3a 60e4 893a c9a7 34bb f8d3 04bb
000002c0: 10f5 12b9 0a13 9fba 5683 f3ba 4a27 a3ba
000002d0: 023d beb9 a988 93b9 07a1 533a b82d a7ba
000002e0: 8949 80ba 7812 ee39 601a baba 10cc 0938
000002f0: 726f 633a b84b 24ba fcfb e2ba 9a7c c2bb
00000300: a415 9dba 46a6 01bb 105f f9ba a09e 0d37
00000310: be01 08ba 22d1 17ba 55e8 19bb 0256 1fbb
00000320: 07cf a5bb debe 5639 221d ddb9 381b a4ba
00000330: a064 26b7 ee92 d239 a665 ebb9 ec28 bc39
00000340: 42af 973a e67a 813a 0112 2dbb 7969 71ba
00000350: 9472 61b8 b7d7 0fbb ac4e c1ba c05c a538
00000360: af8d 61ba 683d 603a 48f2 023b d791 5dba
00000370: ea98 27ba 353e 5bba f632 3539 2855 02b9
00000380: 1cb3 9939 c8cc 7eb8 fa0a f4b8 6480 2a39
00000390: e704 113a e863 8fb7 44eb 643a 6601 8e39
000003a0: 0533 7a38 863e 4e3a 7372 f8bb d0d3 febb
000003b0: 0a44 52bb b683 e2bb 6741 cdbb db25 37bb
000003c0: bbdb ebbb 7159 e6bb ff54 a0ba 4a51 08ba
000003d0: dcc1 d3b9 dc2a afb9 eb93 e5b9 8e0f 6939
000003e0: b9e2 1f3a 42f6 013a a4e7 853a 88f4 eb39
000003f0: c14e 143b 002b 83b9 573b 9bba 92d0 6b3a
0.0032576658 0.004563648 0.014911238 0.005210691 0.016516866 0.014335539 0.012653895 0.02339084
0.008248386 -0.0035874113 -0.006861876 -0.0065578427 -0.001198295 -0.008879113 -0.008705676 -0.0065129614
-0.008770898 -0.0053476244 0.0031484924 -0.0011732274 0.0013592497 -0.005376164 -0.001839882 8.156057e-06
-0.0023961929 0.0021996172 -0.0025878109 -0.0011399165 -0.005406666 0.0001716537 -0.0021808727 -0.004833445
-0.0020734807 -0.0035619698 -0.0038581218 -0.0059618726 -0.022247454 -0.018226305 -0.013210423 -0.010323805
-0.009155887 -0.008697077 -0.012325857 -0.0045724185 -0.00609643 0.0007712936 0.0012001141 0.0026885595
0.0041473787 0.003029575 0.005828217 -8.988567e-05 0.0016150348 0.0008705741 -0.0012202924 0.0029857634
0.0014179188 -0.008852839 0.00024569174 -0.00012200128 -0.0037105633 -0.0013745478 0.00039524314 -0.003506058
0.0010445708 0.00428282 0.00258666 0.004177528 0.0016743909 0.00056160067 0.006154985 0.006306785
0.0027036218 0.0008572 0.0046087005 0.0010301601 0.0007848071 0.0075311535 0.0027808065 0.00089539826
0.008536671 -0.002105175 -0.0024202727 -0.0055929865 -0.005117791 -0.005879681 -0.007390241 -0.0042561325
-0.003332465 -0.007000601 0.005595438 -0.0033336147 -0.0006056046 -0.0013004863 -0.0016652594 0.00015573786
-0.0011956375 0.0012018993 0.0017117038 -0.0045394343 -0.0025920076 -0.0014952836 -0.0042125476 -0.0037419666
-0.001330073 -0.0028159101 -0.0025629834 -0.0033241678 0.004484656 0.0022275664 -0.0015910269 0.0017819661
0.001297535 -0.0032961885 0.0034259153 0.0014918486 -0.0015502349 -0.0016698508 -0.0012380823 0.0012077461
-0.0019774088 -0.0033041348 0.0017813705 -0.002887354 -0.0026657705 -0.0005427367 0.004549099 0.0042717867
0.0009031855 0.0027533853 0.00088776264 -0.00034862995 0.002496108 0.00072944764 -0.00155101 -0.0017544685
-0.0016455941 0.0050744307 0.0029823745 -0.00080508535 0.0034903036 0.0006433366 -0.0011766476 0.0022088229
0.00079967966 0.0040019434 4.3838285e-05 0.001805358 0.0014155526 7.132691e-05 -0.00112393 -0.0016847181
0.00062638696 -0.00035426824 0.00072071835 -0.00043436722 -2.7390197e-05 0.00075047475 0.00015927425 0.0006903955
0.0006336989 0.0004979148 0.0005926803 0.0008987597 0.00063793326 0.00076376845 0.0009376708 0.000698493
0.00041154705 0.00089685293 0.0015814637 0.00022717344 0.00096967805 0.0010520332 -0.0027565828 -0.0020267945
-0.00014014938 -0.0012136411 -0.001857857 -0.0012447622 -0.00036285078 -0.00028139845 0.0008073006 -0.0012754714
-0.000978754 0.00045408658 -0.0014198534 3.2853393e-05 0.00086759694 -0.00062673865 -0.0017317529 -0.005935264
-0.0011984599 -0.0019782945 -0.0019025523 8.441188e-06 -0.0005188248 -0.0005791356 -0.0023484428 -0.002431274
-0.00506008 0.00020479734 -0.0004217411 -0.0012520319 -9.9178e-06 0.00040163792 -0.00044898427 0.00035888643
0.0011572617 0.0009878546 -0.0026408436 -0.0009209137 -5.375089e-05 -0.0021948644 -0.0014748177 7.885089e-05
-0.00086041813 0.0008554072 0.0019980837 -0.0008452213 -0.00063933304 -0.00083634566 0.0001728049 -0.0001242949
0.0002931588 -6.0749036e-05 -0.00011636871 0.00016260293 0.00055320415 -1.709345e-05 0.0008732567 0.00027085393
5.965216e-05 0.0007867593 -0.007582003 -0.007776715 -0.0032084011 -0.006912674 -0.0062639 -0.0027946148
-0.007197825 -0.007029705 -0.0012232362 -0.00052001013 -0.00040389493 -0.00033410534 -0.0004378849 0.00022226406
0.0006099153 0.0004957655 0.0010216129 0.00045004883 0.0022629949 -0.00025018305 -0.0011843246 0.0008995618

momentum_buffer f4 [32]
00000000: 7ab2 0f36 5905 8c36 29e3 ffb6 2451 bdb6
00000010: 6254 06b7 d4be 8036 3fd5 d036 c80d 06b7
00000020: e8c8 1036 e519 e335 f2f0 95b6 c60d eb35
00000030: 691a d736 f91e 0a37 3c44 6e36 fe70 dfb5
00000040: bdcb 9db6 e9bc 52b6 b689 0a34 e233 21b5
00000050: bc3d cb36 548a fab6 1661 4c35 02d9 31b6
00000060: 6242 2c35 763e 0637 76a9 9034 bece bfb5
00000070: 4d2e 39b6 fb0e 0bb7 4678 fcb6 3471 7336
2.1412548e-06 4.1729477e-06 -7.626037e-06 -5.642085e-06 -8.006669e-06 3.8369126e-06 6.223708e-06 -7.990231e-06
2.1574615e-06 1.6920354e-06 -4.4685958e-06 1.7512873e-06 6.410574e-06 8.232652e-06 3.5504481e-06 -1.664768e-06
-4.702683e-06 -3.1402399e-06 1.290235e-07 -6.0052673e-07 6.0570583e-06 -7.466684e-06 7.61372e-07 -2.650137e-06
6.417159e-07 8.001565e-06 2.694539e-07 -1.4290779e-06 -2.7594099e-06 -8.2885335e-06 -7.524187e-06 3.6275715e-06

momentum_buffer f4 [32]
00000000: 87ae 8f3b 764a c43b 05f3 dc3c 4a2f b73c
00000010: b4b2 c73c 603f cabb b048 b93b 4ebd 303c
00000020: ffed 1bbc 807b a53b 0c7e 963c 2fed 7b3c
00000030: fc4d ad3b 78f1 f3bc 2f6a b9bc 88a7 673c
00000040: 623b c0bc cd96 133d 43af a03b 8719 b1bb
00000050: 62bc ad3c 5c94 e13a e56f b03b 24c7 0d3c
00000060: 7d57 4a3c 0849 c13a 58a9 263b 5ad4 5c3a
00000070: faf6 903c 88f6 fd3a bcf6 813b 5f5d cdbc
0.004384819 0.0059903217 0.02697135 0.022361416 0.024377204 -0.0061721057 0.005654417 0.010787321
-0.009517192 0.0050501227 0.01837065 0.015376373 0.0052888375 -0.029778227 -0.02263364 0.014139064
-0.023465816 0.036032487 0.0049037053 -0.0054046544 0.021207992 0.0017210352 0.0053844326 0.008653436
0.01234996 0.0014746496 0.0025430527 0.0008423977 0.017695893 0.001937584 0.0039661806 -0.025068937

momentum_buffer f4 [32]
00000000: 22c1 303c 9497 143c 985b a63c 22fd 213d
00000010: e2dc 033d 8dec 1d3d eeaa 413c 7ced 1a3d
00000020: 922e 2fbc 2cf2 e53c 01d3 f43c 614d fa3c
00000030: c179 053c a695 a13c c16c 35bc e866 c83c
00000040: 0ccd 99bb 385c 6d3d ec17 423a f1e8 a6bc
00000050: 4238 923c b817 0cbc 3aaa b23b b8d8 b13c
00000060: 96aa e43c 38d9 b23c 1c52 033d 18f6 313c
00000070: e79c c4bb fa6d cd3b d4d9 163c b8ed 84bb
0.010788234 0.009069342 0.020307347 0.039548047 0.032193072 0.03855567 0.011820538 0.03782414
-0.010692256 0.028069578 0.02988577 0.030554475 0.008146704 0.019724678 -0.011073292 0.024463132
-0.004693633 0.057949275 0.00074040773 -0.020374747 0.017849091 -0.008550577 0.0054524215 0.021709785
0.027913373 0.021832094 0.032060727 0.010861896 -0.0060001495 0.0062692137 0.009207208 -0.0040566586
