deepcluster_implementation/experiments/run_label_fraction_variation/config_5/checkpoints/checkpoint_epoch_9.pth.tar (torch, 203702 bytes, 32 tensors)

features.module.0.weight f4 [16, 1, 3, 3]
00000000: ff2b 623f e1ac c8be 3962 4abf 1b78 f6bc
00000010: 8d1e 003f 6a66 7dbe c3e2 7fbf f472 f83d
00000020: f68c 093f 3d35 b8be 3bf7 6f3c 1a58 483f
00000030: 1b5f e9be 300a 21be 11f4 933e 6a79 4b3f
00000040: 08c6 d63e 561e 2f3e 0903 3ebf 7dd0 f5bd
00000050: 6e60 40be 1bd6 63bf 50c1 2d3f c2ee 283f
00000060: e5c6 35bf 4a6d f6be 8969 97be 2c68 90bf
00000070: c1de 39be a671 58bf 5024 a83d c28f fa3d
00000080: c099 74be b642 3e3f 98b4 273d 30f2 f53e
00000090: d282 363f ce57 f23c 9830 2d3f 1d09 e2bd
000000a0: 5b4c 5fbf c01b a2be 5234 4d3f 4251 c2bd
000000b0: 00a1 5c3f fb21 e83e 3d28 873e 90c5 0c3f
000000c0: fb37 09bf a576 c23d 1442 60bf 6662 0fbf
000000d0: f021 e9bd f916 a4be 6a0c b63d c27b cd3d
000000e0: f7a5 5a3e 353f f8be 7c83 343f 57b3 b33e
000000f0: a4bb 80bf ee07 01bf a49d 8abf f03f ba3e
00000100: 6850 f53c d1c7 6ebf 2193 303f fadd ecbd
00000110: da1f 8fbe 9913 e1bc 4b46 8b3e b0fa 9a3f
00000120: 71ff d33d 8060 bbbe e945 34bf 6ec3 113e
00000130: 52c8 0f3e 6c70 c4bd d026 263f 6306 883d
00000140: 1dde 8bbf cd46 90bf 4617 c6be f1fd 11bf
00000150: 8f51 493f 384f 8a3e 9569 c63e 62b4 1fbf
00000160: e452 08bf aa78 a63e 62f8 05be 1635 68bf
00000170: a063 983f 4a81 9f3d bd09 4abf 5c82 833e
00000180: c4f8 763f 881b 3dbf 47be 12be 2ae2 67bf
00000190: b241 243e f184 823e 7679 44be 312c 0b3d
000001a0: 91c4 c33e ebec 40bf 3c6d 00bf 0360 35bf
000001b0: d878 bd3e 7279 193d 214a c03e ec01 33be
000001c0: 66b7 54be cadf 5e3e 8e2c 76bf 05df cabe
000001d0: 326e 953f db5e 66be 2a4b b5bd da59 4dbf
000001e0: 3820 d03e 2671 793e 7f18 84bd f860 bbbe
000001f0: 5352 2dbe ed25 2abf b4ee 14bf e7b4 2cbf
00000200: 0aec 0cbf 5e7e 18bf e110 a43e 307b b53d
00000210: 5c7d 22bf e8d9 13bd 86b6 4f3f e680 5abf
00000220: 9bd2 3ebf f16f 27bf eb9e 0abe 3f5a 113f
00000230: 9d17 06bf f673 19be 9562 3b3f 71cc 16bf
0.8834838 -0.39194396 -0.79056126 -0.030086568 0.50046617 -0.24746099 -0.99955386 0.121313006
0.53730714 -0.35978118 0.014646347 0.7825943 -0.45580372 -0.15726542 0.28897145 0.7948214
0.4194796 0.17101416 -0.7422338 -0.120026566 -0.18786785 -0.88998574 0.67873096 0.65989316
-0.71006614 -0.48130256 -0.29572704 -1.1281791 -0.1815138 -0.84548414 0.08210051 0.12234451
-0.23886776 0.7432054 0.040943712 0.48036337 0.71293366 0.029582884 0.67652273 -0.110368945
-0.87225884 -0.31661797 0.8015796 -0.09488155 0.86183167 0.45338425 0.26397887 0.54988956
-0.53601044 0.09495286 -0.8760083 -0.5600952 -0.11383426 -0.32048777 0.088890865 0.100333706
0.21352373 -0.48485723 0.7051313 0.35097763 -1.0057263 -0.50402725 -1.0829358 0.36376905
0.029945567 -0.93273646 0.689745 -0.11565776 -0.27953988 -0.027475165 0.27202067 1.2107754
0.10351456 -0.3659706 -0.70419174 0.14234707 0.1404126 -0.09591755 0.64902973 0.06641843
-1.0927159 -1.1271607 -0.3868963 -0.5702811 0.78640074 0.27013564 0.38752428 -0.6238462
-0.5325148 0.32513934 -0.13083032 -0.90706 1.1905403 0.07788332 -0.7892111 0.25685394
0.96473336 -0.73870134 -0.14330398 -0.90579474 0.16040686 0.2549205 -0.19186959 0.03397769
0.38235906 -0.7536151 -0.5016668 -0.7084963 0.3700626 0.037469335 0.37556556 -0.17481202
-0.20773086 0.21765056 -0.96161735 -0.39623275 1.1674254 -0.22497122 -0.08852227 -0.8021523
0.4064958 0.24359569 -0.06449985 -0.3659742 -0.16925935 -0.6646412 -0.5817673 -0.67463535
-0.5504767 -0.5956782 0.32044128 0.08861387 -0.63472533 -0.036096483 0.81137884 -0.85352933
-0.7454011 -0.65405184 -0.13537185 0.5677833 -0.5237978 -0.14985642 0.731973 -0.589057

features.module.0.bias f4 [16]
00000000: 1f9d 63bd e9a9 893d 9c20 2a3e 1a04 853e
00000010: 6319 963e 36a7 82be a1de a53d 24bd 0dbe
00000020: c872 10bd ffa8 76be 2915 963e 47de 71be
00000030: c71f 303e c1a0 e73d 9a2c d63d 352a 32be
-0.055569764 0.06721861 0.16614002 0.25979692 0.29316244 -0.25518197 0.08099104 -0.13841683
-0.035265714 -0.24087904 0.2931302 -0.23619948 0.17199622 0.11309958 0.10457726 -0.17398913

features.module.1.weight f4 [16]
00000000: d19d 0a3f a9f1 693f 03fd d33f 822d 393f
00000010: c489 1b3f 19f9 4c3f 98a3 903f 9c7f 6d3f
00000020: 72ca 6c3f b807 963f 2853 083f 1932 0740
00000030: 4021 393f cc81 f63f e9aa c23f 34bd 0740
0.5414706 0.9138437 1.6561588 0.72335064 0.6075709 0.8006759 1.1299925 0.9277284
0.9249641 1.1721106 0.53251886 2.1124327 0.7231636 1.9258361 1.5208408 2.120923

features.module.1.bias f4 [16]
00000000: 7f04 ccbd 2b5f d0bf 093e d7be b097 c0bd
00000010: b197 29bf 562b 97be 6183 8cbe cb99 eabf
00000020: 1b90 9ebe 0351 91be 9551 97bd 56e3 63bf
00000030: 925b 47bf ebb6 f1be 504a d9be a9af 3dbf
-0.09961795 -1.6279043 -0.42039517 -0.09403932 -0.6624709 -0.2952525 -0.27443984 -1.8328184
-0.3096932 -0.2838212 -0.073886074 -0.8901876 -0.778741 -0.47209868 -0.42439508 -0.7409616

features.module.1.running_mean f4 [16]
00000000: dbc2 98bd b8bf e23d 8c11 c63d 62ba 6e3e
00000010: 4e58 c03e 8a2f 8abe 0d93 a23c e580 debd
00000020: 9f55 8fbd 5a4e 97be 2abb a83e e30b 9abe
00000030: da82 473e 7e71 5b3d a560 6e3d 4dd7 7fbe
-0.07459041 0.11071724 0.096713156 0.23313287 0.3756737 -0.26989394 0.01984551 -0.108644284
-0.06998753 -0.29551965 0.32955295 -0.30087194 0.1948351 0.05357503 0.058197636 -0.24984474

features.module.1.running_var f4 [16]
00000000: a7cc 593f 2e85 0540 826d 6e40 b523 1640
00000010: a3e5 cd3f 3142 d93f dd6d 3c40 8738 0340
00000020: 779c 0740 2282 f53f 7d73 583f b61f 6f40
00000030: 7ca3 c93f 44c7 0240 8910 8540 f406 8040
0.850779 2.0862536 3.7254338 2.3459294 1.6085705 1.6973325 2.9442055 2.0503252
2.1189249 1.9180338 0.8455122 3.7363105 1.5753016 2.0434122 4.1582685 4.000849

features.module.4.weight f4 [32, 16, 3, 3]
00000000: 7c08 8ebe f924 153e e0ae 193e 076f cd3d
00000010: 6708 6bbd 0ec3 a63d 4a94 2c3d daa1 b8bd
00000020: 4bbe 3d3c 6028 b93d f28d 463d 499a 25be
00000030: 02a6 88bd 91b7 bbbd 6f29 dabe 8e7d a43c
00000040: d187 87bd 535b 98be a2e6 193c d001 debd
00000050: 1501 80bd 7303 e03d 4075 85bb 198b 62bc
00000060: cb9d fe3d 1170 5e3c 7b29 673c b4aa 5dbe
00000070: 28d8 71be b7ba 4abe e9ea 52be f2d0 3dbb
00000080: 8e3e 4abd fc71 bdbe 8870 50be 69f7 ecbe
00000090: 04a4 4cbd f230 813d c9a3 f3bd 5820 dc3c
000000a0: 1232 7d3d 3eb0 16be 174b 70bd 820f 2d3e
000000b0: ca06 a3be 1c17 f5bd ddd6 803d 3dfc b93d
000000c0: 0d5d 01be d05e 153d b0c0 a7bd d9f0 9ebc
000000d0: 1aba e23c 01b9 0ebd 27d3 73be 9b32 463d
000000e0: b51c 5abd 2dd9 89be cb7a d43c d7ac 25be
000000f0: 046c 71be 77ac 59bc 42e2 c8bd 1fa6 90be
00000100: bfb6 1ebd 4636 40be 72cb 4fbd 1899 e83d
00000110: d9db 83bd 6d16 3ebe eab4 4ebd 89cb a0bd
00000120: f78d 3c3d fafb 1ebe facc 16be 9f9b 0d3e
00000130: a050 7a3b af7c a73d 8398 143e b035 26bd
00000140: 57d8 e03d c23a bebd 8f71 48be fa44 17be
00000150: b266 fcbd b13d adbd a0c7 383c f043 82be
00000160: 9586 70ba d009 84bb 4bdc ca3c 23c2 423d
00000170: 8a98 043e b06a 5d3c a3c4 933d c729 453d
00000180: a99c f13d ba44 053d 1c44 5bbe feed b1bc
00000190: dd5e 6d3d d882 063d 421b 0fbe 2be3 90bd
000001a0: 33ef 06bd edf2 14be 4310 23bd cb90 613d
000001b0: 6fd1 c9bd 0a98 5abe a135 6bbe 09be d7bc
000001c0: 026c e7bd 1b13 1dbe 7708 e73d 067a 01be
000001d0: bad5 bebe 4ecc 52bd 9a20 87bd 3fb6 0ebe
000001e0: 3ea1 94bd 0276 3dbd 151f 99bd cb61 afbd
000001f0: 5b5c 483d 9d3b b13c cc5f 32bc d60c 043c
00000200: 296a af3c b174 043d 88e1 aa3c 4938 d43c
00000210: 1eca 60be 2f93 1cbe 4d42 89be 26b9 62be
00000220: 7df4 ad3c 5bc0 65be 9e07 bbbd 78bd 313e
00000230: 1e68 b23c 02c4 9bbe 5e44 ce3d ecba aabd
00000240: 0c68 3a3e a4a2 4abc 4671 2c3d 5f09 083e
00000250: f4c8 6dbc c8d0 453d da14 913d 7d36 94bc
00000260: d11b 3ebe 7b2b 83bd 0f7d 43be 42dd a1be
00000270: 6286 c1bd 39f8 53be 4137 92be ea8f c2bc
00000280: 0a11 80be 52cf 82be 097d 803d 05eb afbc
00000290: f9ec 063c 94a7 7f3c 3881 1b3d 5b45 0cbc
000002a0: 1397 e9bd cab3 963c 45eb 3c3c 33b3 dabc
000002b0: 0dc5 0b3c d30a 62bd d1a5 cdbb 50ff c6bb
000002c0: 147b 76bd a57a c33d 45c5 a13c b7af abbd
000002d0: 48a3 343e 8d19 94bc 9fe1 37be cc1c 623d
000002e0: 3fcf c9bb ed5b 2cbe 4c2d de3d b16d 613d
000002f0: f9db 3fbe 11ec 27be 6bc9 c0bd da34 20be
00000300: d7fd 47bd d992 78bc 2f46 e7bb bde6 ffbd
00000310: bbb2 91bd 7139 ffbd 7810 33be 763e 6ebd
00000320: a744 cdbd 92f6 44bd 4135 9f3b 7383 db3b
00000330: be98 7bbd d8da 84bd bfcc 21bd dc06 2b3e
00000340: ad81 183d f21a 09be 5ce9 743d 81f6 263c
00000350: 9e22 04be 9a4b 103e 77cd 753b b84d 80be
00000360: 820b 33bc 362a 42bc 171e 653e 434a 45bc
00000370: d68e 8fbd b75e 173d a2c5 db3d 87d9 ab3c
00000380: df40 8c3b 09f0 cc3b ba4e 24bd e1ab 8b3b
00000390: f400 ccbc 2bc9 fc3c 7ef1 ff3c eee4 56be
000003a0: e8f9 56bc e398 f23c 48c9 913d e67b 043d
000003b0: 6ae0 f9bd 8050 913d 48d1 e0bc 4b68 ddbd
000003c0: c716 5d3e 64f4 8a3d a06a 28bd 24e3 143c
000003d0: 756d 603e a0f9 6f3c 6525 763d 2940 c03d
000003e0: 2fc1 acbc c51b febc 2a44 fb3c 6321 2fbc
000003f0: 07f6 a6bd bc7b cebd c533 13be a8d7 83bd
-0.27740848 0.14564885 0.15008116 0.100309424 -0.05738106 0.081426725 0.042133607 -0.09015246
0.011581014 0.09040904 0.048475213 -0.16172136 -0.066722885 -0.09165872 -0.42609736 0.0200794
-0.06617702 -0.29757175 0.009393366 -0.108401895 -0.062502064 0.10938158 -0.004072815 -0.013827109
0.1243244 0.013576523 0.014109011 -0.2164715 -0.23617613 -0.19797789 -0.20597424 -0.0028963652
-0.049376063 -0.37001026 -0.20355427 -0.4628251 -0.049961105 0.06308164 -0.11896474 0.026870891
0.06181533 -0.14715669 -0.05866536 0.16900447 -0.31841117 -0.119672984 0.06290982 0.09081314
-0.12633152 0.036467373 -0.08191049 -0.019401954 0.02767663 -0.034844402 -0.23811017 0.048388105
-0.053250033 -0.26923504 0.025937459 -0.16179214 -0.23576361 -0.013285748 -0.0980878 -0.2825174
-0.0387485 -0.18770704 -0.05073113 0.11357325 -0.06438417 -0.18563242 -0.0504655 -0.07851321
0.046033826 -0.15525809 -0.1472663 0.13828896 0.003819503 0.081780784 0.14511304 -0.040578544
0.109787636 -0.09288551 -0.19574569 -0.14772406 -0.12324275 -0.08459032 0.011278063 -0.25442457
-0.0009175328 -0.00402949 0.024763247 0.047548424 0.12948814 0.013514206 0.0721524 0.048135545
0.11797459 0.032536246 -0.214127 -0.021719929 0.057951797 0.032839626 -0.13975242 -0.07074579
-0.032942962 -0.14545794 -0.03981043 0.055069726 -0.098543994 -0.21347061 -0.22969677 -0.026335733
-0.11299898 -0.1533932 0.112809114 -0.12644204 -0.37272435 -0.05146437 -0.06598015 -0.13936709
-0.07257317 -0.04625512 -0.074766316 -0.085635744 0.048916202 0.021634871 -0.010887098 0.008059701
0.021412926 0.032337848 0.020859495 0.025905745 -0.21952102 -0.15290521 -0.26808396 -0.22140941
0.021234745 -0.22436659 -0.09132312 0.17357433 0.021778163 -0.3042298 0.10071634 -0.08336434
0.18203753 -0.012367878 0.042100213 0.13284825 -0.014513243 0.048294812 0.07084055 -0.018092388
-0.18565299 -0.064047776 -0.19090675 -0.3161412 -0.094494596 -0.20700158 -0.2855778 -0.023750264
-0.25013 -0.25548798 0.062738486 -0.02147437 0.00823521 0.015603919 0.03796503 -0.0085614575
-0.11405768 0.018396277 0.011530702 -0.026696777 0.008530867 -0.055186104 -0.0062758704 -0.006072916
-0.06017597 0.09544877 0.019747386 -0.08383124 0.17640412 -0.01807859 -0.17957161 0.055203244
-0.006158739 -0.16831942 0.108484834 0.05503625 -0.18736257 -0.16398646 -0.094134174 -0.15645161
-0.048826065 -0.01517173 -0.007057927 -0.12495182 -0.07114168 -0.12462128 -0.17486751 -0.058165036
-0.1002286 -0.04808671 0.0048586433 0.0066990196 -0.061424963 -0.06487054 -0.0395019 0.16701835
0.037233043 -0.13389185 0.05979286 0.010190607 -0.1290383 0.1409134 0.00375065 -0.25059295
-0.010928037 -0.011850884 0.2237476 -0.012041631 -0.07009666 0.03695556 0.10731055 0.020977749
0.004280194 0.0062542004 -0.040114142 0.004262433 -0.024902798 0.030857643 0.031243082 -0.20985767
-0.013121106 0.029613918 0.071184695 0.03234472 -0.12201007 0.07095432 -0.027443543 -0.10810908
0.2159072 0.06784895 -0.04111731 0.009087358 0.21916755 0.014646918 0.060094256 0.093872376
-0.02108821 -0.0310191 0.030672152 -0.010689112 -0.08152395 -0.10082194 -0.14375217 -0.064376175

features.module.4.bias f4 [32]
00000000: dc3b ab3c 7260 253d 0ba3 96bd 7ed5 65bd
00000010: e121 9ebd 7cd4 193d e324 773d 5950 9ebd
00000020: 6b56 ab3c 29aa 853c 59d8 30bd 5d65 8e3c
00000030: 241b 7e3d 0d9f a13d e380 0e3d 45b1 82bc
00000040: 5580 3bbd 1a06 fbbc a1c9 2c3a b89c c1bb
00000050: b875 703d 50e8 94bd 284a eb3b e59f d1bc
00000060: 9fd9 db3b 4c73 9e3d 1740 1a3b 3a9e 64bc
00000070: 6463 dfbc 8e6d a4bd 1248 95bd 4a96 0f3d
0.020902567 0.04037518 -0.07355317 -0.056111805 -0.07721306 0.037556157 0.060337912 -0.07730169
0.02091523 0.01631649 -0.043175075 0.017382318 0.062037602 0.07891665 0.034790885 -0.01595367
-0.045776684 -0.030642558 0.00065913243 -0.005908575 0.058706015 -0.072708726 0.007180471 -0.025588939
0.006709292 0.07736835 0.0023536736 -0.01395374 -0.027269073 -0.080287084 -0.07289137 0.035055436

features.module.5.weight f4 [32]
00000000: a35f 0f3f 8852 f63e 7245 c03e 8f29 3d3f
00000010: 52f5 6f3f 1b8c 913f 8c2c 1a3f b1ba 3a3f
00000020: 6fc1 d33e 4eb6 2f3f 10c5 113f 9e28 8c3f
00000030: 4fe8 273f d11e 443f ae5e 413f 1757 4d3f
00000040: 6f82 783f 85a5 8b3f 6c21 ac3f 4917 653f
00000050: 0214 603f fac0 103f 4079 1d3f 868e 173f
00000060: ec17 5d3f 2e96 0b3f 2ff6 ee3e f259 0c3f
00000070: a85a 113f 58d7 f13e 6222 8b3f da4b 293f
0.56005305 0.4810984 0.37552983 0.7389154 0.93733704 1.1370882 0.60224223 0.7294112
0.41358516 0.6863755 0.5694132 1.0949895 0.6558885 0.7660952 0.75535095 0.80211014
0.97074026 1.0909888 1.34477 0.89488655 0.8753053 0.5654446 0.6151314 0.5920185
0.86364627 0.5452603 0.46672198 0.54824746 0.56778955 0.47234607 1.0869868 0.66131365

features.module.5.bias f4 [32]
00000000: 0dd2 03bf bdee b8be 7482 9cbe a80f 5cbf
00000010: 93c8 65bf 131d 1ac0 49f4 8ebf a1f7 94bf
00000020: 6d62 23be e2fc 93bf 79b2 01bf a27d 1dc0
00000030: 0b33 5cbf dd7e 21bf b551 9ebf 7784 2abf
00000040: beca 6bbf b17e 81bf db1c 2dc0 e922 3cbf
00000050: 1f71 b5bf 6497 d5be a33e 0bbf 8bbc 97bf
00000060: c493 72bf 086a 62bf 6a1d 0cbf 8bbe 22bf
00000070: 8bb4 e0be 0320 01be c72b 71bf 6785 85bf
-0.5149239 -0.36119643 -0.30568278 -0.8596139 -0.89759177 -2.4080245 -1.11683 -1.163807
-0.15955515 -1.1561549 -0.5066295 -2.460793 -0.86015385 -0.63084203 -1.2368685 -0.66608375
-0.92106235 -1.0116788 -2.7048862 -0.7349077 -1.4175147 -0.41717064 -0.5439245 -1.1854414
-0.9475672 -0.8844304 -0.5473238 -0.63571995 -0.43887743 -0.12609868 -0.94207424 -1.0431336

features.module.5.running_mean f4 [32]
00000000: 9701 a6bf d975 0ebf bce7 82bf 5358 90bf
00000010: 0eef 58bf 61c9 29c0 22a5 50bf 10f9 0ac0
00000020: c13c a2be ba8f c1bf f187 e1bd 4ad4 1bc0
00000030: 6ff6 a9bf 7719 4cbf 7e36 02c0 71ff 7abf
00000040: baae 85bf c26a 73bf 9e1d 2ac0 5864 4bbf
00000050: 1300 20c0 2ec5 20bf cb0e 77bf c8dd f8bf
00000060: 0077 b2bf 4fce a2bf 2c9e ddbe a321 84bf
00000070: 5420 80be 6ada 62bf 1bc1 24bf 630a c3bf
-1.2969235 -0.5564857 -1.022697 -1.1276954 -0.8473977 -2.6529162 -0.8150197 -2.1714516
-0.31686977 -1.5121987 -0.11012257 -2.434832 -1.327833 -0.79726356 -2.034576 -0.9804602
-1.0443947 -0.95084774 -2.6580577 -0.7944999 -2.5000045 -0.6280087 -0.9650695 -1.9442682
-1.3942566 -1.271921 -0.43284738 -1.0322765 -0.25024664 -0.88614523 -0.64357156 -1.5237545

features.module.5.running_var f4 [32]
00000000: 55ec 383f 0542 243f 509c 363f c9a8 203f
00000010: 1fa4 a73f a89e a83f dcdf ef3e 1f1b 8f3f
00000020: 3460 393f c2eb 523f 4293 193f 6367 833f
00000030: 71d8 403f de3f 1e3f 59dd 783f e5e9 a73f
00000040: cf07 9b3f 9ed3 983f 49e6 a63f e176 b63f
00000050: 6ce1 df3f 44e6 1e3f e53d 273f 985a 463f
00000060: 2233 ab3f b9a2 253f c72d 233f e3c3 e63e
00000070: e03f 113f 2031 ca3e 5bc6 a63f 6905 423f
0.72235614 0.6416324 0.71332264 0.62757546 1.3096961 1.3173418 0.4685048 1.1180152
0.7241242 0.8239099 0.5999032 1.0265926 0.75330263 0.61816204 0.9721275 1.3118254
1.2111758 1.193958 1.3039027 1.4255029 1.7490668 0.6207011 0.6532882 0.77481985
1.337498 0.6470142 0.63741726 0.45071325 0.5673809 0.39490604 1.3029283 0.75789505

features.module.8.weight f4 [64, 32, 3, 3]
00000000: 1ecf 69bc e910 bbbb 65d6 80ba 132d bebc
00000010: d80f 53bc dc55 7dbb 10b9 afbc f26c d1bc
00000020: a2e0 b7bc 3c92 08bc 9d8f 62bc 2ed7 80bc
00000030: 21e9 38bc 8412 21bc 1e6d 72bc 03d1 aabb
00000040: 19aa 70bb 0ac5 52bc 17b0 b53c 0da4 433c
00000050: eccd 263c 34ad 42b9 1501 01bc c201 03bc
00000060: 7147 cbbc 72dd e2bc 8e71 a6bc dc9d 6b3e
00000070: 04a8 103e 4ae5 0c3e 632d 153e 6f91 933d
00000080: 5eda 943d 8735 563e 49c2 033e ca0c 123e
00000090: 2480 593e 3f80 293e f59a 863e 1196 a43d
000000a0: 77aa 473d 9652 163e 84de 533d cb96 173d
000000b0: 7046 103e 8e51 e5bc 7c64 66bc 302c 4dbc
000000c0: d51b 93bd 87d7 56bd af8d 6ebd f9af bbbd
000000d0: ebd2 8cbd ffd5 77bd df1a aebc b814 88bc
000000e0: 55d7 74bd 0e7e 58bd 5390 35bd d857 c2bd
000000f0: 827d bdbd 7740 a9bd 66ab 03be 7470 613c
00000100: 87b5 8d3c ed4b e03c ff01 713c e851 873c
00000110: 5b66 de3c 5fb8 043d 268e f73c dafe 0d3d
00000120: c51b 0dbc cdf6 9c3a f284 e6bb b016 19bc
00000130: 3998 0ebb f2a4 4cbc 07d0 78bc 336d 25bc
00000140: dfc6 9abc 9724 313b 4599 083c b243 843c
00000150: 1056 c5bb a5e9 fabb 1807 0f3c f893 833b
00000160: 0fc2 753c 8340 2f3d f7c8 363d a346 403d
00000170: 12ea cc3d e75b 2a3d 5931 1b3d ed6a 8c3d
00000180: c33c 663d 2f99 3e3d fd39 8c3d df83 eebd
00000190: 0cd2 00be b6c8 cfbd 523c 88bd b99a c4bd
000001a0: 8969 98bd b88b 02bd 89ed 63bd 68f3 5bbd
000001b0: 9ce5 9cbc c9f9 4e3b 6fda 493b c135 31bc
000001c0: c0fc 86ba e27d 8fbb bea3 bdbb bf54 12bb
000001d0: cc37 31bb 5bae 03bc cb14 53bc adfc d2bb
000001e0: cac4 6dbc 14e4 97bc 6133 c5bb 50c2 76bc
000001f0: ffb8 87bc 65c2 7e3b 7f12 0d3d 68a7 913c
00000200: fc20 b1ba 2e20 be3c 7398 a93c 78ad 313b
00000210: ebaa 6e3c 618d af3c 03ba a93c 6e1d 863d
00000220: 8b9b 223d 0eb1 ab3d 1a30 9a3c 7d53 b43a
00000230: 6a69 6d3d abcb b63c 4c84 a53b 6202 8b3d
00000240: 0ce8 623d 8724 583d 3627 ed3d 4192 9f3c
00000250: 2e8f 9f3c 6000 b33d 86d3 543d 1d47 893d
00000260: 1c24 243e f6c1 5a3e b24c ac3d eb01 523d
00000270: fb7d 763e 8ef9 cf3d f7f0 e63d b727 b43e
00000280: dce1 733e e011 8d3e 3389 a9bc 4ef2 e1bb
00000290: c399 b3bb 94ab 2ebd 7d20 dabc 7045 a9bc
000002a0: fd85 b1bd f672 8ebd 6ecc 99bd f15c 91bc
000002b0: 78d9 bfbc bebb b5bc 56d7 a5bc 7820 bfbc
000002c0: f3bb e4bc 86b1 59bc f84e e3bb 225b 89bc
000002d0: c8e8 d2bc 93a9 d5bc 9dd7 3ebd e46d 63bc
000002e0: 1480 13bc f39b 8dbc 2f78 1dbc 22da d4bb
000002f0: ee8f 36bc df7b a4bc 0345 50bc a1d2 32bc
00000300: ac8a 81bc d003 3dbc 2386 2dbc d9ec 48bc
00000310: 6dd9 bfbc 2ecb 15bd 6fff 04bd 507b c1bc
00000320: cbbf f3bc ca6b b3bc 56c5 0cbc b19b 15bc
00000330: 2e5b c8bc b875 71bc cda6 93bc fb95 8d3b
00000340: ae02 47bc b638 8dbc e24f cf3b 008c 2c35
00000350: 34aa 34bc 8aec c43c 5772 873c 210e 223c
00000360: 737f c5bb f35c dcbc 093e f8bb 551c 273c
00000370: c0fb 3b3c 1eb9 a03c c6e2 083d b813 103d
00000380: bff7 363d de3b 99bc c597 b9bc 50a2 0cbd
00000390: 9494 a7bc 92f7 5fbc c5fd e2bc c4ad cfbc
000003a0: e956 d3bc db55 04bd b849 19bd d438 08bd
000003b0: 1085 4abd 2e8c 4ebc 884d 6ebc 2184 dabc
000003c0: 9228 e8bb e981 aabb 1724 d5bc 3159 2d3c
000003d0: 51b0 883c 20d1 1a3c 571b 413c 3d03 2e3c
000003e0: 47d7 243c 0a64 a23c 6976 6f3c 2cea 523a
000003f0: 514c debc ae4c 96bc d994 48bc 92be 8cbc
-0.014270572 -0.005708803 -0.000982952 -0.023214852 -0.012882195 -0.0038655913 -0.02145055 -0.025564644
-0.02244598 -0.008335646 -0.013828185 -0.015727606 -0.011286051 -0.009831075 -0.014796523 -0.0052129044
-0.003672248 -0.012864361 0.022178693 0.011940968 0.010180932 -0.00018565805 -0.007873793 -0.007996025
-0.02481434 -0.027693484 -0.020317819 0.23009437 0.14126593 0.13759342 0.14568095 0.07205474
0.07268213 0.20918857 0.12867083 0.14262691 0.21240288 0.16552828 0.26290098 0.080364354
0.048746552 0.14679942 0.05172588 0.03700904 0.1408937 -0.02799299 -0.014062043 -0.012522742
-0.07183043 -0.052451637 -0.05824059 -0.091644235 -0.06876167 -0.060506817 -0.021253048 -0.016611442
-0.05977567 -0.05285459 -0.04432709 -0.09489411 -0.09252454 -0.08264249 -0.12858352 0.013759721
0.017298473 0.027379954 0.014709949 0.016518548 0.027148416 0.032402392 0.030219149 0.034666874
-0.008612578 0.0011975408 -0.0070348913 -0.009343788 -0.0021758212 -0.012490498 -0.015186316 -0.010096836
-0.018893657 0.0027029866 0.008337324 0.01614556 -0.0060222223 -0.007657247 0.008729719 0.004015442
0.01499988 0.042786133 0.04462525 0.046942364 0.10005583 0.04159155 0.03788886 0.06856332
0.05621029 0.046532806 0.06846998 -0.11646246 -0.12580127 -0.101457044 -0.0665213 -0.095998235
-0.07442004 -0.031871527 -0.055646453 -0.053698927 -0.019152455 0.003158199 0.0030800363 -0.010816039
-0.0010298714 -0.00437902 -0.005787342 -0.0022328345 -0.0027041314 -0.008037175 -0.012883375 -0.0064388127
-0.01451225 -0.018541373 -0.0060180877 -0.015060976 -0.016567705 0.0038873192 0.034441467 0.01778002
-0.0013513858 0.023208704 0.020702576 0.0027111452 0.014567117 0.02142972 0.02071858 0.06548582
0.03969912 0.0838338 0.018821765 0.0013757792 0.05796186 0.022313913 0.0050511714 0.06787564
0.05539708 0.05276921 0.115797445 0.019478919 0.019477453 0.08740306 0.051959537 0.06703017
0.160294 0.21363053 0.08413066 0.05127136 0.24071495 0.10155021 0.11276429 0.3518655
0.23816627 0.275527 -0.020695304 -0.00689534 -0.0054809763 -0.0426441 -0.02662682 -0.020662993
-0.08668134 -0.06955521 -0.07509695 -0.017744513 -0.023419127 -0.022184249 -0.020244282 -0.023330912
-0.027921652 -0.013286954 -0.006936904 -0.016767088 -0.025745764 -0.026081836 -0.046592344 -0.01388118
-0.009002704 -0.017286276 -0.0096111735 -0.00649573 -0.011142714 -0.020078598 -0.012711766 -0.010914476
-0.015813194 -0.0115365535 -0.010591063 -0.0122635 -0.023419106 -0.03657072 -0.032470163 -0.02361837
-0.02975454 -0.021901984 -0.00859197 -0.009131358 -0.02445754 -0.014737539 -0.018023873 0.0043208576
-0.012146635 -0.017238956 0.0063266614 6.427872e-07 -0.011026908 0.024038572 0.016534014 0.009891064
-0.006027156 -0.02689979 -0.0075757545 0.010199626 0.011473596 0.01961952 0.033419393 0.035175055
0.044669863 -0.018705305 -0.022655377 -0.03433448 -0.02045659 -0.013669865 -0.027708897 -0.025351413
-0.025798278 -0.03230844 -0.03742382 -0.03325732 -0.049443305 -0.012606664 -0.014544852 -0.026674332
-0.0070849145 -0.005203475 -0.026018186 0.010580347 0.016685637 0.009449273 0.0117863035 0.010620889
0.010061092 0.019823093 0.0146156335 0.00080457586 -0.027136 -0.01834711 -0.012242519 -0.017180715

features.module.8.bias f4 [64]
00000000: 4cb5 d5bc f598 2b3c 9aa2 343c da73 653d
00000010: 8331 553d b86c 40bd 9189 e73c dace 3abd
00000020: c0e5 e3bc 47ef b73c c86f 1fbd b0dc 473d
00000030: d57d b03c f06e 9f3b b08d 023d 718c 46bd
00000040: 83d4 193c 91b8 ad3c ce6a d6bc 24ec 90bc
00000050: 7c17 bd3c 4671 453d 17cb b5bc 13bb 0c3d
00000060: 66ac 023d 9467 08bd 7143 39bd 86b0 dbbb
00000070: 24a2 103d 1d50 42bd cff4 21bd 9ada 293d
00000080: a9ab 05bd 786b 26bd 9fd2 1ebb fb17 643d
00000090: f7be 193d 4681 f03c 8496 ee3b 8e8e e9bc
000000a0: 439a 35bd 5ca7 f73c e52a 8a3c 819f 723c
000000b0: b44a acbc b766 63bd a61a ff3b ae86 20bc
000000c0: 150f 8dbb d2ff b03b e63d 08bd 8e2e 11bd
000000d0: 3933 87bc b5ef b43c 90eb 11bd 4740 593d
000000e0: 355f 65bd 5faa 10bd 73a1 853c 74b9 62bd
000000f0: 7d64 01bd 8e8e f03c d6f6 1dbd de4a 953c
-0.026087426 0.0104734795 0.011025095 0.056018688 0.05204917 -0.046978682 0.028263839 -0.045607425
-0.027819514 0.022452964 -0.038924962 0.04879445 0.021544376 0.0048655197 0.031873405 -0.04847378
0.009389046 0.021206172 -0.026173975 -0.017690726 0.023082487 0.04820373 -0.022191567 0.034358095
0.031902693 -0.033301905 -0.045230333 -0.006704393 0.03531088 -0.047439683 -0.03954011 0.04146824
-0.03263441 -0.040629834 -0.0024234427 0.055686932 0.037535634 0.029358517 0.0072811265 -0.028510358
-0.04433657 0.03023117 0.016866157 0.0148085365 -0.021031715 -0.05551788 0.007785159 -0.009797735
-0.0043047764 0.00540159 -0.033262156 -0.03544479 -0.016503917 0.022086957 -0.03562504 0.053039815
-0.055999 -0.03531873 0.016312337 -0.055352643 -0.031589974 0.02936485 -0.03856548 0.018224176

features.module.9.weight f4 [64]
00000000: 772a e840 88b5 a840 48b3 b640 29b5 b440
00000010: c0c1 8340 bf77 a840 f835 b440 5b8d 8840
00000020: 6f08 9640 c68c a740 3cae 8740 8f0b 9040
00000030: 36dd 9640 743c 9840 7948 b440 3ea4 d540
00000040: 19ce 9840 4e69 a840 02fe 8a40 edf0 9b40
00000050: c0b7 b640 1225 9840 d171 9140 4c2b b740
00000060: 0ebd b640 868c 9d40 b690 a540 d99f 9c40
00000070: 2076 a840 4fa0 9e40 a85f b240 64c6 b840
00000080: eb0e a340 3bef 9140 9bf0 9d40 6ccb 9b40
00000090: 2e4a b740 98fc e640 72fb 8640 d151 d840
000000a0: e5a6 9b40 2e1e 9640 4e53 a340 fe69 9440
000000b0: 2df4 9440 99fa cc40 184f bb40 db94 9940
000000c0: 0b34 bc40 0619 b440 fa2d aa40 9204 bf40
000000d0: 304a 8c40 8f06 9d40 fd3e c140 7dbf c140
000000e0: 7f10 9e40 e370 9d40 325c b940 0b8d 9a40
000000f0: 7b31 a940 6afd b840 f703 a940 e732 a640
7.2551837 5.2721596 5.709385 5.6471143 4.117401 5.2646174 5.631588 4.2672553
4.6885295 5.2359343 4.240019 4.501411 4.7145033 4.7573795 5.6338468 6.676299
4.7751584 5.2628546 4.343507 4.87316 5.7099304 4.754525 4.5451436 5.7240353
5.710578 4.9234037 5.173915 4.8945127 5.2644196 4.957069 5.574177 5.7742176
5.095571 4.560453 4.935621 4.868582 5.727805 7.218334 4.218194 6.7599874
4.864123 4.691184 5.103919 4.6379385 4.6548066 6.4055905 5.853405 4.799421
5.881353 5.6280546 5.3181124 5.969308 4.384056 4.9070506 6.038939 6.054625
4.9395137 4.92003 5.7925043 4.829717 5.28729 5.7809343 5.281734 5.1937137

features.module.9.bias f4 [64]
00000000: 51a8 d13f c439 a03f 5399 7d3f 26ca ad3f
00000010: a8b2 a03f 38a3 ab3f cf69 813f 8807 1b40
00000020: bf58 1640 4767 dc3f d28a 5d3f 6cfb a93f
00000030: d697 8a3f 5e64 833f d5a5 6f3f c7b0 ae3f
00000040: 9d02 cd3f e932 923f 90a6 1d40 7c69 9f3f
00000050: 4910 913f ebe1 2f40 aa44 a93f dc25 a73f
00000060: b54c 0740 65f2 983f 1094 ce3f 299e 793f
00000070: b484 8c3f 5ca8 ab3f 8e1b aa3f d1e2 a63f
00000080: 381c 8e3f fd9d de3f 60b4 d33f c87f cd3f
00000090: a3c1 db3f 0f51 d13f f78c a13f 7751 c33f
000000a0: 08f3 ac3f a2f5 753f c742 ce3f 2283 b03f
000000b0: ab41 2b40 42b2 cd3f af05 ea3f ea41 b43f
000000c0: c6c9 9b3f 7e81 973f e2c3 973f 7698 1040
000000d0: 496e b63f 9f73 963f 73f5 be3f dc7e d63f
000000e0: f085 cd3f c245 a33f 0e75 af3f 3df8 813f
000000f0: 6048 8d3f bd78 833f 3fc9 943f 1241 2140
1.6379491 1.2517629 0.9906208 1.3577316 1.2554522 1.3409185 1.0110415 2.4223347
2.3491666 1.7219018 0.8653995 1.3279853 1.0827587 1.0265005 0.93612415 1.3647698
1.6016423 1.1421787 2.4632912 1.2454066 1.1333095 2.748164 1.322408 1.3058429
2.1140568 1.1948973 1.6138935 0.9750696 1.0977998 1.3410754 1.3289659 1.3037969
1.1102362 1.7391964 1.6539421 1.6054621 1.7168468 1.6352862 1.2621144 1.5259236
1.3511667 0.9607793 1.6114129 1.3790019 2.675883 1.6070025 1.8282984 1.4082615
1.2170951 1.1836393 1.1856654 2.2593055 1.4252406 1.1754035 1.4918655 1.6757464
1.60565 1.2755663 1.3707597 1.0153881 1.1037712 1.0271221 1.1623915 2.5195966

features.module.9.running_mean f4 [64]
00000000: f7bd cfbc 57e1 ef3c 6d8f 973c 71af ad3d
00000010: 6da6 623d 58b4 06bd c320 ff3c 5e69 7c3d
00000020: 227b 0cbc e61c 18bc 2251 10bd 7cb4 823d
00000030: 10ff cd3c a78a 95bb 2d30 1a3d 18de a5bd
00000040: 0c54 08bd fd9d 063d 403b a53d 0fcd bfbb
00000050: 6d72 d73c 3520 1d3e 7021 62bc 8c59 413d
00000060: 2fe6 42bc 8d7e 14bd 7920 98bd 35ab e1bb
00000070: 03a6 ab3c 3c70 0fbd c854 17bd 56ec 563d
00000080: 09ee e2bc 0bf0 8abd 5f18 dbbc 4a63 043d
00000090: 137b 893c f299 343d c6e8 0e3c d62d bfbc
000000a0: 3182 5cbd a9e3 203d de49 b1bb ca41 e73c
000000b0: 07d5 b03d 0bc8 a5bd 4ce0 30bd 8483 9dbb
000000c0: 51b0 213c 0928 803c 57d9 39bd 278c b4bd
000000d0: 5ad9 37bd 70c2 c7ba b6e9 91bd 80e3 9f38
000000e0: 0f11 9cbd ae5c 08bd a237 abbc 3637 38bd
000000f0: 7724 ccbc 141c ec3c bd13 9bbd e75f 9c3d
-0.025359137 0.029282255 0.018501008 0.084807284 0.055334497 -0.032886833 0.031143552 0.061623923
-0.008574279 -0.009284234 -0.035233624 0.06382081 0.025146037 -0.004563648 0.0376436 -0.08099002
-0.03328328 0.032865513 0.08067942 -0.0058533023 0.02629968 0.15344317 -0.013801917 0.04720454
-0.0118957 -0.0362535 -0.07428069 -0.0068868645 0.020953184 -0.035019144 -0.036946088 0.05247148
-0.027701395 -0.06784066 -0.02674502 0.032321252 0.01678232 0.044092126 0.00872249 -0.023337286
-0.053835098 0.039279614 -0.005410417 0.028229613 0.08634382 -0.08094796 -0.043182656 -0.0048069376
0.009868697 0.01564409 -0.045373287 -0.088157944 -0.044885017 -0.0015240442 -0.07124655 7.624086e-05
-0.07620441 -0.03329151 -0.020900551 -0.04497453 -0.024919732 0.028821982 -0.07572124 0.076354794

features.module.9.running_var f4 [64]
00000000: 5ab7 493c 0265 203c 5826 8e3b 7a1b 2f3c
00000010: c0ee f53b b4ab 293c 4de7 a63b 08ea 1c3c
00000020: 1a0d 573b ded9 403c d4b3 b83b 5fcb ca3b
00000030: e25a f63b d8b9 da3b 1998 873b cfbd dc3b
00000040: 1e5b 2f3c 58b1 ba3b e6e8 243c 0074 9f3b
00000050: 6ab6 9d3b 2773 273c 2ad9 033c 5eea 503c
00000060: 4c4b 603c b270 003c ac71 2d3c e3b7 e53b
00000070: b021 823b 027f 643b 5692 083c b9a8 b83b
00000080: ae45 ef3b 21a8 c53b 4c17 4a3c 3dd1 453c
00000090: 4830 4b3c 6f76 903c d7ed f43b 0c81 2d3c
000000a0: 3889 023c eb7d 593b a411 333c fd05 b73b
000000b0: e5db 293c 4065 f53b e734 563c c861 793b
000000c0: d912 1b3c 4a97 473c 401c 9e3b 3bbc 663c
000000d0: 37ec 0b3c 226a e23b 860c 243c 5f0c da3b
000000e0: b3fd 1a3c ed80 803b 07f0 193c 70f4 303c
000000f0: 7486 423c 4300 a93b 0f5d 093c a5ff d43b
0.012311781 0.009789707 0.004338067 0.010687703 0.007505268 0.010355879 0.005093491 0.009577282
0.0032814206 0.011770694 0.0056366716 0.0061887945 0.0075181583 0.0066749863 0.0041380045 0.006736494
0.010702876 0.0056974106 0.010065293 0.004866123 0.004813005 0.010220326 0.008047381 0.01275119
0.013689827 0.007839369 0.0105861835 0.0070104464 0.003971301 0.0034865742 0.00833567 0.0056353477
0.0073020076 0.0060320054 0.012334656 0.012073812 0.012401648 0.017634599 0.007474642 0.010589849
0.007967286 0.0033186625 0.010929499 0.0055854307 0.010367368 0.0074888766 0.013074136 0.0038052667
0.009464943 0.012182066 0.004825145 0.014082964 0.008540205 0.0069096247 0.010012751 0.006654307
0.009459901 0.003921619 0.009395606 0.010800466 0.011872876 0.005157502 0.008384003 0.0065002018

top_layer.weight f4 [10, 64]
00000000: fdae 403d dea0 dfbd 04c8 e8bd 22d0 7abe
00000010: 4cc8 00be b14a b3bd 4331 ea3b 633b ce3c
00000020: e806 8dbd 1a96 46bb 69ee 29bd 059a 13be
00000030: aff4 363d ce4f be3e 1641 90bc 1cd9 e4bd
00000040: b8c0 ecbd 3c54 0ebe 6c78 b6bc 6da4 c7bd
00000050: 5392 243e 6e55 303c 5aa1 a0bc 17e7 72bd
00000060: 09c8 35be 4a2a 8d3d 93f4 1b3d 05ef 503e
00000070: f141 c0bd 1655 a83d c3b9 8cbd a544 14be
00000080: 1cd9 fa3d 6cc8 e2bd f8bb 13be 9bc0 0dbe
00000090: cdd2 903c 41c4 a0bd 2c0b ac3c 2466 5ebb
000000a0: 87f6 d73d 6b1b 8ebd 719c a2bc ce6a f2bd
000000b0: caff 16bd a1d2 ecbd 047f 913e 265e 10bd
000000c0: 342f 25be 978e 21bd 56f1 debd 5f37 32be
000000d0: ea51 0c3c fea2 d33e f6b0 f93e ee89 ce3d
000000e0: 545b e6bd 3fa6 11bd c019 f73e 140e 12bd
000000f0: 60d4 b5bd 6d9a 9b3d cc1d d43e b044 133e
00000100: 9473 123f 1d1f 2cbc 8a56 28bd a7f8 8f3d
00000110: 8130 5b3e a567 4fbd 1689 8e3c 60a1 d2bd
00000120: 3eb0 dabd c627 87bd 492f aa3e f8d1 ad3d
00000130: 7294 103c 7182 043d 47bc 6abc 382d 86bc
00000140: d858 a0bc 3207 793d e429 f4bd f9ae 283d
00000150: a76d a0bd 3a8d efbd 6c48 d7bc 5c82 59bd
00000160: 275c 54bd b39c 57bd 545d 99bc dc04 663e
00000170: dd61 60bd f045 98bd 97f5 e93e 30cd d6bb
00000180: 6030 7c3e b677 34bd 68ea 843d fa3a 5a3d
00000190: 354e f93c a13a 92bd c85d 90bd 92cc 043f
000001a0: e25c a8bd 602b 62bd 6096 b5b9 ef96 2d3d
000001b0: 87d9 08be e586 fc3d 37d0 83bd f3a0 b73c
000001c0: 70fa d13c dbf2 29bd aaf9 5bbd fc1c 7cbc
000001d0: fe03 48bd c073 d6bd 7b3b eabd 612e c5bd
000001e0: 7bbe 34bd 676b 603d 0e41 dcbd e89f 21bd
000001f0: b78f b1bc 61e7 193d ad33 e7bd b271 6abd
00000200: 070b 4fbe 3211 efbd 5554 99bd 1c10 06be
00000210: 8f94 2d3e f13e 893c d18a e1bd 0875 35be
00000220: f71d 27bd ab29 8e3d e7c8 01be 0287 80bd
00000230: 2989 8abd af00 b2bc e7d8 87bd 581b ff3c
00000240: 65c8 c33e 3a28 18be e76c 02be 802c 6cbd
00000250: 76e2 2d3b 4f4a 35be 8a12 85bd c17a acbc
00000260: 30b7 eb3e 3dfd fcbc 3570 d6bb cb57 c7bc
00000270: c0cf e5bc 5872 d4bd 07e7 cebd b427 0fbe
00000280: 83c7 a6bd 214f b43e 352a b63e be0a b23e
00000290: 0640 43bd cae9 a4bc c586 c6bc aea9 46be
000002a0: 2bf9 89b9 1c29 b2bd c90e cabc 99f6 c7bd
000002b0: 1d8b 1abe a624 a13c e49c 4fba 3387 a1bc
000002c0: 0b8f 14be 3190 3fbc 0cda 5fbc a137 013f
000002d0: 9faa 913d ccd9 f13b 3bf3 2f3d a49e 543d
000002e0: c20c 8a3d 4c8f c7bd b4a5 153d 0014 883b
000002f0: fefa 2f3b 660d 82bd 973f 6c3d 0b14 78be
00000300: 36f8 d5bc 1a3d 51bc ed41 e1bc 80f9 54bd
00000310: b376 5ebd cbc0 dc3e c2f0 90bd 5561 01bd
00000320: bbac a0bd 457d a6bd ead7 5cbc 1af0 e7bb
00000330: e4a1 473b 4c7a 1fbc 4fbd 86bc 1a6b f7bd
00000340: 5713 73bd 83d0 90bd 210f 11bd 8645 50bd
00000350: 9a10 b6bc f0b6 70bd 94b8 fbbb 2370 ee3e
00000360: 1439 70bc 9509 e9bc 0a52 3abd e3fa 52bd
00000370: 608f 10be f49f 00bb df18 99bd 3b54 b9bd
00000380: 1abc d7bc fe1e 9dbd 763e 96bd 63ea 5dbd
00000390: edcd 8abd 60ce 1a3f 6498 673c 8bda 24bd
000003a0: ace6 96bc cc23 9fbd 1c5c bcbd 06d6 f4bb
000003b0: cc26 83bd 63dc b3bd e024 8d3d 8c74 dcbc
000003c0: 238a 8fbd cb88 ed3e 9b2c 833d 2aec 8fbd
000003d0: e286 98bd 4f55 09bd 3a6b ca3c 2af2 cdbd
000003e0: 75e6 6cbd e872 4dbd 90c1 2cbc 4abf cf3e
000003f0: aba4 dc3e ec65 32bd 4cf4 2c3d 2b4f e1bc
0.04704188 -0.10919355 -0.11366275 -0.24493459 -0.12576407 -0.08754481 0.0071469857 0.025174802
-0.06886083 -0.003030187 -0.04148713 -0.14414223 0.044666942 0.3717026 -0.01760916 -0.11174223
-0.11560196 -0.1389932 -0.022274218 -0.097481586 0.16071443 0.0107625555 -0.019608188 -0.059302416
-0.17752089 0.068928316 0.03807504 0.20403679 -0.09387577 0.08219354 -0.06871369 -0.14479311
0.122484416 -0.11073384 -0.14427173 -0.13843004 0.017678643 -0.078499325 0.02100142 -0.0033935392
0.10545068 -0.06938823 -0.019849988 -0.118367776 -0.036865033 -0.11563612 0.28417218 -0.035246037
-0.16131288 -0.039442625 -0.10885875 -0.17403935 0.008564452 0.4133529 0.48767823 0.10084902
-0.11247888 -0.035558935 0.48261833 -0.035657957 -0.08878398 0.07597814 0.41428983 0.14381671
0.5720761 -0.010505465 -0.041098155 0.070298485 0.21405222 -0.050635953 0.017399352 -0.10284686
-0.10678147 -0.06599383 0.332392 0.08487314 0.008824455 0.03235096 -0.014327115 -0.016378984
-0.019573614 0.060797878 -0.119220525 0.041182492 -0.078334145 -0.11696859 -0.02627965 -0.053102836
-0.051845696 -0.052639674 -0.01872126 0.22462791 -0.05478083 -0.074352145 0.45695183 -0.006555222
0.24627829 -0.044059478 0.06490022 0.0532789 0.0304328 -0.07140089 -0.07049137 0.5187465
-0.08220841 -0.055217147 -0.00034635048 0.04238027 -0.1336423 0.123304166 -0.06436198 0.022415614
0.025632113 -0.04149137 -0.053704895 -0.01538777 -0.048831932 -0.10471296 -0.11437126 -0.09627987
-0.04412697 0.054789927 -0.10754596 -0.03945914 -0.021674974 0.037574176 -0.11289153 -0.057237335
-0.2021905 -0.116732016 -0.07486788 -0.13092083 0.16951202 0.016753646 -0.11012805 -0.17720425
-0.04080006 0.06941541 -0.12674294 -0.06275751 -0.067644425 -0.021728842 -0.06633168 0.031140968
0.38238826 -0.14859095 -0.12736855 -0.057659626 0.0026532686 -0.17704128 -0.06497677 -0.021054627
0.46038198 -0.030882472 -0.006544138 -0.024333855 -0.028053164 -0.10373372 -0.10102659 -0.1397999
-0.081435226 0.3521662 0.35579076 0.3477382 -0.04766848 -0.02013101 -0.024234185 -0.19400665
-0.0002631632 -0.08699247 -0.024665253 -0.09763832 -0.1509213 0.019670796 -0.0007919802 -0.019717788
-0.14507692 -0.011692093 -0.013662826 0.5047551 0.071126215 0.0073806997 0.042956572 0.051909104
0.067407146 -0.097441286 0.03653498 0.004152775 0.0026852484 -0.06350212 0.05767783 -0.24226396
-0.026119333 -0.012770915 -0.027497256 -0.051995754 -0.05431242 0.4311584 -0.07077171 -0.031586964
-0.07845446 -0.08129362 -0.013479212 -0.007078183 0.0030461485 -0.009733748 -0.016447691 -0.12080975
-0.059344616 -0.070710205 -0.03541482 -0.050847553 -0.022224713 -0.058768213 -0.0076819155 0.4656993
-0.014662046 -0.028446952 -0.045488395 -0.051508795 -0.14117193 -0.001962659 -0.07475447 -0.09049269
-0.026334811 -0.07671927 -0.07336132 -0.054178607 -0.067775585 0.60471153 0.014135454 -0.04024748
-0.01842054 -0.077704996 -0.09197256 -0.0074718026 -0.06403884 -0.0878227 0.06891799 -0.026911043
-0.07008769 0.46393427 0.06404992 -0.070274666 -0.07447602 -0.033528622 0.024709333 -0.10055955
-0.05783697 -0.05015841 -0.010544196 0.4057563 0.43094382 -0.04355423 0.042225167 -0.02750357

top_layer.bias f4 [10]
00000000: be5e 3ebb 5f4c 8dbc f186 923b 9308 abba
00000010: 9d4e fb3b 1b38 f03c 2c1a babb 56ae fbbb
00000020: 81fb 67bb 1c99 4bbb
-0.002904817 -0.01724833 0.0044716527 -0.001304882 0.0076692835 0.029323628 -0.0056793895 -0.0076806946
-0.003539771 -0.0031066602

momentum_buffer f4 [16, 1, 3, 3]
00000000: 2e62 b73c 6d5b 543c 0af6 19bc 7d1f ee3c
00000010: 29c1 a73c 2c78 953c c618 803c e837 243b
00000020: a4af bebc 9a47 a9bd 8a58 cebd e664 cfbd
00000030: 2854 cbbd 3ee8 a3bd b1cf 35bd b041 89bb
00000040: 3ad8 823b fc1e 2c3c 322d 4bbc 50b5 9e3b
00000050: 6a0e 07bc f37e 993b c0cd 1439 6820 6e3c
00000060: 2039 f33a fc89 a43c e6a8 a93c bf22 213b
00000070: 2254 1bbc a24f d0bc 6e5b 8abc d11a f5bc
00000080: c075 23bd 4a16 bbbc 5e43 05bd 6444 89bc
00000090: bc5e 853c 1015 b03c f562 54bc 97e5 9f3c
000000a0: 32c0 503c 8eaf 0cbd 5b2c 303d 2838 3f3c
000000b0: bff0 2abd a3e8 8ebd 5a28 0dbd 684c 9abc
000000c0: 4a79 18bd a47d e8bc 7c1e 3fbc 2406 4fbc
000000d0: 12e9 bdbc 3493 14bd e5b4 45bd f74c f3bc
000000e0: 683b c4bc 1fcc 0fbd d33d b9bc 90cc 9cba
000000f0: e9d9 5abc 64c2 97bc 79b7 553c dd5b 5d3d
00000100: f8bc 753d 2f81 783d 7cb7 f83c 4d3b 5a3d
00000110: 29a4 983c 8f1d 243d 28f3 5a3d 4659 ff3b
00000120: 8226 693d 3c5b b43c 109c eb3b 4f21 003d
00000130: 64c3 aeba f5ee 663a 3400 e3bc 5884 4fbd
00000140: 12b2 a7bc 0b60 71bc 202b 0bbc a195 07bd
00000150: 6eac f7ba 2779 723a 1386 4dbd a3f8 f6bb
00000160: 336d 6abb b48d adbd 5a56 0abd 8064 0ebd
00000170: 8528 c4bc 17ab 57bc 5c3a 93bc d6cf b9bc
00000180: b4d4 75bc 4828 b43a 3435 a53c aaff cdbb
00000190: 20f7 1aba 50fc 95bb 3274 9abb eaff 4cbc
000001a0: 9e07 35bc a4ea 78bb 40c6 a539 fcca db3b
000001b0: 626a 953c 3ad3 a7bc 35d3 12bc ff05 02bc
000001c0: 98a9 1fbd 40b8 bdbc 431c 5fbd d09a 8ebd
000001d0: 5c63 a0bd 5cf4 0ebe 6db3 18bd 6b96 333c
000001e0: ba03 08be 00a8 15bd ce56 b1bb 414b a6bd
000001f0: 7689 96bb 739e 11bb f7e9 033c 1c2d 083c
00000200: 1ae8 1ebb 2837 853b 763f d4bb 981f cb3c
00000210: dcd8 86bc cae4 2abd 0056 33bb 62b3 6c3b
00000220: 8616 1d3c 5fd8 a23b 4894 953c 97ad b13c
00000230: ce90 ba3c f294 7e3c 42fc 213d 406e a53c
0.022385683 0.012961251 -0.009397039 0.02906775 0.020477848 0.018245779 0.015636813 0.0025057737
-0.023277111 -0.0826561 -0.10075481 -0.10126667 -0.09928161 -0.08003281 -0.044387523 -0.0041887388
0.0039930614 0.010505434 -0.012400912 0.0048433915 -0.008243183 0.004684323 0.00014191028 0.014534093
0.0018556453 0.020085327 0.02071042 0.002458736 -0.009480508 -0.025428597 -0.0168893 -0.029920014
-0.039907217 -0.022837777 -0.03253495 -0.016756244 0.016280524 0.021494418 -0.012963046 0.019518657
0.012741135 -0.03434711 0.04301105 0.011671104 -0.0417335 -0.06977966 -0.03446231 -0.018835261
-0.037225045 -0.028380223 -0.011664983 -0.012635741 -0.023182426 -0.036273196 -0.048268218 -0.029699786
-0.023954108 -0.035106774 -0.022612488 -0.001196282 -0.013357618 -0.01852531 0.013044232 0.054042686
0.059994668 0.060670074 0.03036093 0.05327921 0.018632965 0.04006725 0.053454548 0.0077926246
0.05692149 0.02201616 0.007190235 0.031281766 -0.0013333377 0.0008809411 -0.027710058 -0.050663322
-0.020470653 -0.014732371 -0.0084941685 -0.03310168 -0.0018895993 0.00092496205 -0.05017669 -0.007536964
-0.0035770654 -0.08474293 -0.033773758 -0.034763813 -0.023945102 -0.01316335 -0.017972164 -0.022682112
-0.015004326 0.0013744915 0.02016697 -0.006286581 -0.0005911458 -0.004577197 -0.0047135586 -0.012512187
-0.011049179 -0.0037981654 0.0003161896 0.006707547 0.018239204 -0.020486463 -0.0089614885 -0.007936
-0.038980097 -0.023159146 -0.05447031 -0.06963122 -0.07831451 -0.13960403 -0.03728049 0.010961155
-0.13282672 -0.03653717 -0.0054119593 -0.08119822 -0.0045940233 -0.0022219687 0.008051387 0.008311536
-0.002424723 0.004065413 -0.0064772917 0.024795339 -0.016460828 -0.041722097 -0.0027364492 0.0036117663
0.00958789 0.004969641 0.018259183 0.02168922 0.022774126 0.015538441 0.039547212 0.020194173

momentum_buffer f4 [16]
00000000: a7fc bab6 2989 e136 a877 8b37 69f8 d937
00000010: 8406 f637 bc19 d6b7 0ce6 0737 394f 68b7
00000020: a6cd 67b6 5615 cab7 b5fe f537 39f5 c5b7
00000030: 5f7a 9037 e5dd 3d37 576c 2f37 d105 92b7
-5.5726446e-06 6.72149e-06 1.662581e-05 2.598409e-05 2.932852e-05 -2.5522771e-05 8.100189e-06 -1.3846723e-05
-3.4541386e-06 -2.4090212e-05 2.9324883e-05 -2.359842e-05 1.7223121e-05 1.1316942e-05 1.0456038e-05 -1.7407265e-05

momentum_buffer f4 [16]
00000000: 3636 0d3d ce17 0bbe d071 18bb 2c38 a03c
00000010: 0b71 14be 08ef 20bd 4ac1 9d3d 50ee 8fbc
00000020: 7001 c23d 326d f13b 88a5 abbd 06fc 013c
00000030: 7487 30be 0c29 153d c950 843d 3b2e db3c
0.034475528 -0.135833 -0.0023261197 0.019558035 -0.14496247 -0.039290458 0.077028826 -0.017569691
0.094729304 0.0073677534 -0.08381182 0.007933622 -0.17239171 0.0364161 0.06460721 0.026755443

momentum_buffer f4 [16]
00000000: 68ee 21bc c483 29bd 3c80 2c3b 261f 873d
00000010: 1e27 bbbd c0bf 02bd e759 483e 1df3 91bb
00000020: 24e9 403e 8ca6 413d 361a 20bc 7436 bc3c
00000030: 9e5f 94bd 66f8 9c3d e2f7 b83d 86a9 623d
-0.009883501 -0.041385427 0.002632155 0.06597738 -0.091383204 -0.03192115 0.19565545 -0.00445403
0.18838936 0.047277972 -0.009771874 0.022975184 -0.072448 0.07664566 0.09031655 0.05533745

momentum_buffer f4 [32, 16, 3, 3]
00000000: 4664 953b da6e a93c 62be f63c b7a8 2d3c
00000010: 8c6e fc3c 0974 983c 4de4 953c 486b 973c
00000020: e8ce 503c d077 593c 8aa5 933c 1ad5 dd3b
00000030: bf3b 943c 6810 273c c959 dc3b d2b0 453c
00000040: c7a2 0f3c 0301 1c3c 1ea1 123b 881b acba
00000050: 76a7 20bb f08a 25bb 46bd b0bb de4b 83bb
00000060: 0a30 7ebb acf3 57bb 3f95 dfbb 6abb f2ba
00000070: 8e4d ee3a f085 473b 68ac c738 3049 20bb
00000080: e806 483b 1ab1 833b 8cd9 8f3b 1741 823b
00000090: 68e5 6dbc 8ba6 a3bc 5c74 4a3a fc32 12bc
000000a0: 0255 56bc 9072 80b9 02e7 bfbb e83e 42bc
000000b0: 3198 b73b 00c4 6139 6418 53bb f064 cfbb
000000c0: e8af a7b9 c275 d0bb 2670 0cbc 2cca 66ba
000000d0: e478 a1bb 3852 59bb bea5 d8bb 8175 a0bb
000000e0: 5ee5 34bc 10eb b1bb f205 40bb e75b 55bb
000000f0: ce30 bebb 21b7 60bb 418a 68bb fe89 1cbc
00000100: eb68 32bc 4663 cb3a 5595 c6ba 2bb6 06bc
00000110: a22f 37ba 48f3 7b3b bcce 23bc 9e89 5dbc
00000120: abba 973c 8ada bc3c 97f0 503c 3dd1 c73c
00000130: aa7b b03c 23dc 643c 68f7 603c 30e0 913c
00000140: 8fee 323c 0476 683a 0159 ceba 9a31 393a
00000150: aa78 4bbb f123 dfbb f2c5 6abb 0ca2 bbba
00000160: 6d28 2bbb 0c8b 60bb b2fa 4f3c a0e6 1e39
00000170: a107 e63a 98c1 383c d89c 803b bd45 24ba
00000180: 938c 183c be06 143b f823 8e3b 9874 73bb
00000190: 6406 d8bb 6d8e 2cbc 6a74 e1ba 4eeb c7bb
000001a0: f610 a5bb 26e5 3ebb da09 2bbb f1aa 02bb
000001b0: 10ed e33c b6cb 3a3c 77bd 1c3c 6cee ab3c
000001c0: b6c1 2e3c a384 123c 899f 6b3c 34eb 103c
000001d0: 6233 b33b c399 4dbc da50 2fbb 54ad a8bb
000001e0: f72c 17bc 5491 8ebb fcdb 803a 8ff7 72bc
000001f0: 0b34 9abb b1d3 8e3b b4b9 813c e0f1 2a3b
00000200: cd21 813b d020 173c b923 2f3b c857 573a
00000210: 40c8 fc3b b0b7 463b 80ec 4c39 7af4 e6bb
00000220: 7cfd bcbb 2890 8dbb 547f 25bc f4f8 25bc
00000230: b5dc c0bb 509e 2fbc 50b9 0dbc fec3 a3bb
00000240: 9c0b 983b c60b a13b 641b 353a f810 3b3c
00000250: 14b6 a93b c1f1 76bb 0dfb 673c c532 593b
00000260: 26ce 9dbb 84ab 83bb 94cb a03a 08ee 8d3b
00000270: 0572 c5bb 6e48 d63a 44de 973b cc99 5dbb
00000280: 69d1 493b 5af8 883b 3e66 0ebb 9998 e9bb
00000290: 82a3 c43a bc64 82ba e87c f5b9 b735 153b
000002a0: 1049 0e3a 10de d5b9 4836 023b b951 02bc
000002b0: c0ba bfbb d4ac 28bc c411 79bb 002d c5b8
000002c0: 132d 8abb 2cae a6ba 087d 073b 44b3 0a3b
000002d0: 855e d4bb 36fc 56bb 38f1 5bbb 6cc4 07bb
000002e0: 3c56 20bb a4e1 41b9 3008 d03a d067 693a
000002f0: fedd 5c3b ef54 ce39 1a88 79ba 0c0c 40ba
00000300: 4514 bb3a 706b 293b 067c e8ba 3eb7 7fbb
00000310: fdc0 04bb 2ced 123a 9a49 09bb dbf0 1cbb
00000320: 4e58 31bb 3efd 68bb c84e 7fba 9080 7eb9
00000330: 1c37 27bb 880b 1eba 280f 883a 5076 2e3a
00000340: f9be 19bb 387f 32ba a486 453b abbc 02bc
00000350: e081 ac38 3dbc 123c d099 1f3b 3454 8b3a
00000360: 65dd 383c c08c 4fb9 96eb 35bc 68ea 7b3c
00000370: c003 fc39 98c0 debb 2cbb 213c c0c4 313b
00000380: 50ca d73b b283 bbbb 8034 10b9 5efd 253b
00000390: 82a4 8dbb f0f7 fb39 f099 043a 10f1 05ba
000003a0: 34cc 94ba bc7b 25bb 1bef 3b3c 4871 ac3b
000003b0: 9419 283b fa14 493c 971d 1c3c 66c2 ad3b
000003c0: 5f45 3c3c b876 593b 4dc8 2c3c a563 4cbb
000003d0: ce77 a9bb 0c7c 4ebb f010 1439 086f 5cbb
000003e0: a0ee 6839 00ac 3037 f052 1b3a 001e 693a
000003f0: 2dba 403b 9901 533b cda4 433b 6636 8f3b
0.0045590727 0.020682741 0.030120078 0.010599307 0.030814432 0.018610017 0.018297339 0.018483773
0.012744643 0.013273194 0.018023271 0.0067697885 0.018094895 0.010196783 0.0067245704 0.012066083
0.0087668365 0.009521726 0.0022373865 -0.0013130764 -0.0024513877 -0.0025259815 -0.005393657 -0.004006847
-0.0038785958 -0.0032951636 -0.0068232114 -0.0018518989 0.0018181072 0.0030444823 9.5211726e-05 -0.0024457686
0.0030521695 0.004018915 0.0043899473 0.0039750445 -0.014520027 -0.019976875 0.00077230274 -0.008923288
-0.013081791 -0.00024499418 -0.0058563957 -0.011855818 0.0056028594 0.00021530688 -0.0032210583 -0.0063291714
-0.00031983783 -0.006361694 -0.00857166 -0.00088039297 -0.0049277414 -0.0033160578 -0.006611555 -0.00489682
-0.0110410135 -0.005429633 -0.0029300419 -0.0032555999 -0.005804158 -0.003428884 -0.0035482796 -0.009554384
-0.010889272 0.0015517257 -0.0015150706 -0.008222143 -0.0006987994 0.0038444567 -0.00999802 -0.01352158
0.018521627 0.023053426 0.012752674 0.024391765 0.021543343 0.0139685 0.013730861 0.017807096
0.010921135 0.00088676834 -0.0015743078 0.0007064581 -0.0031047263 -0.0068097045 -0.003582355 -0.0014315262
-0.0026116625 -0.0034262566 0.012694048 0.00015153969 0.0017549881 0.011276625 0.003924947 -0.00062664953
0.009310859 0.0022587026 0.004337784 -0.0037148353 -0.0065925587 -0.010532004 -0.0017200832 -0.0061010486
-0.0050374223 -0.0029128282 -0.0026098401 -0.0019938315 0.027823001 0.011401108 0.009566656 0.020987712
0.0106663015 0.008942756 0.014381298 0.008845139 0.005468772 -0.012548867 -0.0026751072 -0.0051476154
-0.009227029 -0.0043508206 0.0009831185 -0.01482953 -0.004705911 0.0043587317 0.01583562 0.002608411
0.003940797 0.009224132 0.0026724173 0.00082146795 0.0077143013 0.0030321889 0.00019543059 -0.007048187
-0.0057675224 -0.0043201633 -0.010101158 -0.010130156 -0.0058856853 -0.010718897 -0.008650139 -0.0049977293
0.004640056 0.0049147336 0.00069086836 0.01141762 0.005179176 -0.0037680718 0.014158976 0.0033141833
-0.0048158346 -0.004018249 0.0012267702 0.004331354 -0.006025555 0.001634849 0.0046346504 -0.0033813594
0.0030794984 0.0041799964 -0.0021728422 -0.0071287868 0.0015002342 -0.0009948234 -0.00046823104 0.0022767612
0.0005427757 -0.00040791975 0.001986878 -0.0079540545 -0.0058511198 -0.010295112 -0.0038004974 -9.402074e-05
-0.004216799 -0.0012716702 0.002067389 0.002116398 -0.006480994 -0.0032804138 -0.0033560526 -0.0020716442
-0.0024465462 -0.00018489972 0.0015871581 0.0008903714 0.0033701654 0.00039354662 -0.0009518877 -0.0007326014
0.0014273009 0.0025851391 -0.0017737157 -0.0039019133 -0.0020256632 0.00056047994 -0.002094841 -0.0023947272
-0.002706069 -0.0035551335 -0.00097392173 -0.00024271221 -0.0025515025 -0.000602894 0.0010380493 0.0006655203
-0.0023459776 -0.0006809118 0.0030140067 -0.007979552 8.22579e-05 0.008956012 0.0024353154 0.0010629953
0.011283253 -0.00019793492 -0.011103531 0.015375711 0.0004806798 -0.0067978613 0.009871285 0.0027125329
0.006585397 -0.0057224864 -0.00013752468 0.002532802 -0.0043225894 0.00048059179 0.0005058339 -0.00051094685
-0.0011352361 -0.0025250753 0.011470581 0.0052625276 0.0025650011 0.012273068 0.009528539 0.005302715
0.011491149 0.0033182334 0.010545802 -0.0031187322 -0.0051717525 -0.0031507043 0.0001412069 -0.0033635516
0.00022214139 1.0530464e-05 0.00059251394 0.0008892715 0.0029407844 0.0032196997 0.0029852868 0.0043704985

momentum_buffer f4 [32]
00000000: 1798 0c36 c437 8736 b343 f6b6 8a76 bbb6
00000010: 4c7b 01b7 9ff4 7a36 2c3c ca36 019f 01b7
00000020: d2fe 0d36 82a0 db35 80b2 90b6 0e53 dd35
00000030: 7c5f d036 137e 0437 9fa7 6a36 f71d d7b5
00000040: 2c72 99b6 1481 4eb6 9e9b 1f33 8b65 20b5
00000050: 6af7 c436 8108 f4b6 6edc 4735 ec33 2bb6
00000060: 774b 3435 66c2 0137 b8fe 8434 e89a bcb5
00000070: d887 37b6 0aad 06b7 8a68 f4b6 0d9c 6b36
2.0950154e-06 4.0298055e-06 -7.3392525e-06 -5.586834e-06 -7.7177065e-06 3.7395291e-06 6.027074e-06 -7.72602e-06
2.1158962e-06 1.6363485e-06 -4.3123146e-06 1.6489955e-06 6.209999e-06 7.897167e-06 3.4966286e-06 -1.6027469e-06
-4.5730467e-06 -3.0771525e-06 3.7161605e-08 -5.975241e-07 5.870058e-06 -7.2727566e-06 7.4454044e-07 -2.5511208e-06
6.716504e-07 7.734261e-06 2.4772248e-07 -1.4052175e-06 -2.7348196e-06 -8.027311e-06 -7.2839366e-06 3.5108562e-06

momentum_buffer f4 [32]
00000000: def0 e93d 0fe4 1a3d 3021 03bc 115b 8cbd
00000010: 04d7 7e3d 522f 2a3d 0559 0c3e a803 d53d
00000020: e793 1cbd 78e8 ce3c f7d8 91bc 794e 5bbe
00000030: b353 a13d 1285 b33c 7a93 21bd f2bb f93c
00000040: d09e 5b3d 5544 b33d 7ad4 a13d d485 b63c
00000050: a62b 81bd ce46 803c 8de4 713c 27f0 b93d
00000060: a6f4 f6bc a08f bfbc 7ab4 6f3d fc27 08bc
00000070: 8835 4cbc 81cc 703d 1046 523c 9bdc bb3c
0.11422895 0.03781515 -0.008003518 -0.06853307 0.062216774 0.041549034 0.13705833 0.10401088
-0.03822699 0.025257334 -0.017803652 -0.21416654 0.078772925 0.021914039 -0.039447285 0.030485127
0.053618252 0.08753268 0.07901855 0.022280611 -0.063071534 0.015658762 0.014763963 0.090790085
-0.030145954 -0.023383915 0.058521725 -0.008310314 -0.012463935 0.05878878 0.012834087 0.022932341

momentum_buffer f4 [32]
00000000: a649 8e3d 7679 b43c e840 c4bc 7c4a ffbc
00000010: d0da 2c3d cd6d b53c cf25 853d 981e 613d
00000020: 7409 52bd f00c 923c 503f 37bc 0e2a 38bd
00000030: 320a 383d b022 413c e590 78bc 0526 2a3d
00000040: f68c 263d 64f8 623d 279c 2e3d 11de 153d
00000050: 94bb d7bc a741 423c 14d5 093d 4ba5 fe3c
00000060: fb26 38bc e0bb 3cbb 8200 193d 1a40 66bc
00000070: 3abc a9bb de41 f63d b4de a93c 3951 203c
0.06947641 0.022030573 -0.023956731 -0.031163447 0.042200863 0.022147084 0.06501352 0.054960817
-0.051278546 0.017828435 -0.0111845285 -0.04496198 0.044931598 0.011788055 -0.015171264 0.041540165
0.040661775 0.055412665 0.042629387 0.036588732 -0.026334561 0.011856473 0.033650473 0.031084677
-0.011239762 -0.0028798506 0.037354 -0.014053369 -0.005179909 0.12024282 0.020736076 0.00978499
