deepcluster_implementation/experiments/run_label_fraction_variation/config_5/checkpoints/checkpoint_epoch_12.pth.tar (torch, 203741 bytes, 32 tensors)

features.module.0.weight f4 [16, 1, 3, 3]
0	0x3f688805	0.9083255
1	0xbf046d31	-0.5172911
2	0xbf4683cf	-0.77544874
3	0xbd73b040	-0.059494257
4	0x3f17b3fb	0.59259003
5	0xbeab444b	-0.3345054
6	0xbf831f4e	-1.0243928
7	0x3e48cbfb	0.19609062
8	0x3f01f607	0.5076603
9	0xbecf9eab	-0.40550742
10	0x3c959d66	0.01826353
11	0x3f611d3c	0.87935233
12	0xbee2f90c	-0.44330633
13	0xbe6575b2	-0.22408178
14	0x3e8cf3e0	0.27529812
15	0x3f5f82fc	0.8730924
16	0x3ed8a56f	0.42313716
17	0x3cb4e62c	0.02208241
18	0xbf3ff29a	-0.74979556
19	0xbe1b6ed5	-0.15178998
20	0xbe6133dc	-0.21992439
21	0xbf6fb2f3	-0.9363243
22	0x3f38fa08	0.7225652
23	0x3f33efb8	0.70287657
24	0xbf523fb8	-0.8212848
25	0xbefe1715	-0.49626985
26	0xbe90d15b	-0.28284726
27	0xbf978767	-1.1838197
28	0xbe656560	-0.22401953
29	0xbf738bba	-0.9513508
30	0x3dfc0348	0.12305313
31	0x3df6d8fa	0.12053104
32	0xbe568b41	-0.20951559
33	0x3f4b59f1	0.79434115
34	0xbaaf07d5	-0.0013353775
35	0x3ec31a0a	0.38105804
36	0x3f4abb1d	0.7919176
37	0x3c7917de	0.015203444
38	0x3f3e5680	0.7435074
39	0xbdb8fc0b	-0.090324484
40	0xbf84cbed	-1.0374733
41	0xbe97333d	-0.2953128
42	0x3f4eeca5	0.8082984
43	0xbcd54da1	-0.026037993
44	0x3f4c7e72	0.7988044
45	0x3f08e045	0.5346721
46	0x3e413a1a	0.1886982
47	0x3f13ce34	0.57736516
48	0xbf054f9a	-0.5207459
49	0x3e49bb58	0.19700372
50	0xbf670520	-0.90242195
51	0xbf2f6e7f	-0.6852798
52	0xbdad01f2	-0.08447637
53	0xbea3a2d0	-0.31960154
54	0x3df906cf	0.12159502
55	0x3d7c5c8d	0.0616117
56	0x3e2d196e	0.16904232
57	0xbf0e6324	-0.55620027
58	0x3f417fca	0.75585616
59	0x3ebef908	0.3729937
60	0xbf8ef18e	-1.1167467
61	0xbee807fe	-0.45318598
62	0xbf942aa1	-1.1575509
63	0x3f079fe1	0.5297833
64	0xbda01edf	-0.07818388
65	0xbf648a79	-0.8927379
66	0x3f4ff8fa	0.81239283
67	0xbdd3f8c3	-0.10350182
68	0xbe746ab3	-0.23868828
69	0x3cbb6d23	0.022879189
70	0x3ea50901	0.32233432
71	0x3f9cac68	1.2240114
72	0x3e02395e	0.12717196
73	0xbeb6fd1b	-0.3573998
74	0xbf3fcd74	-0.7492287
75	0x3e96a809	0.29425076
76	0x3dd9f11b	0.1064169
77	0xbe35ff0f	-0.17773078
78	0x3f2e3083	0.68042773
79	0x3d95cf8a	0.073149756
80	0xbf9146d0	-1.1349735
81	0xbf8ea203	-1.1143192
82	0xbed34c62	-0.41269213
83	0xbf298f5d	-0.6623438
84	0x3f4c6d2d	0.7985409
85	0x3ec2b34d	0.3802742
86	0x3e93878e	0.28814358
87	0xbf333055	-0.69995624
88	0xbf1e3fd3	-0.6181614
89	0x3ec8e75e	0.3923902
90	0xbe5ee135	-0.21765597
91	0xbf74620b	-0.954621
92	0x3fa4feae	1.2890222
93	0x3d9d4a77	0.07680219
94	0xbf3afd06	-0.73042333
95	0x3e537957	0.20651756
96	0x3f817713	1.0114464
97	0xbf3b30cd	-0.7312134
98	0xbe0261f9	-0.12732686
99	0xbf5e4e86	-0.8683857
100	0x3db1d543	0.086832546
101	0x3e7a28ec	0.24429673
102	0xbe6d45f9	-0.23171224
103	0x3ce5f8bd	0.02807271
104	0x3edcd436	0.43130654
105	0xbf647521	-0.89241225
106	0xbf0df779	-0.5545574
107	0xbf3ffde2	-0.7499677
108	0x3f004dfd	0.50119
109	0xbc98204c	-0.018570088
110	0x3ee9f9ef	0.45698497
111	0xbe004383	-0.12525754
112	0xbeae2c3f	-0.34018132
113	0x3e449ebb	0.19201176
114	0xbf8c12fe	-1.0943296
115	0xbeca99e4	-0.39570534
116	0x3f992a48	1.1966028
117	0xbe6cadcd	-0.23113175
118	0xbe2dcaeb	-0.16971938
119	0xbf61cd8d	-0.8820427
120	0x3f058592	0.5215694
121	0x3eb6bfc3	0.35693178
122	0xbe53be9d	-0.20678182
123	0xbee7a6a8	-0.45244336
124	0xbe8ca31a	-0.27468187
125	0xbf332603	-0.69979876
126	0xbf1ee66f	-0.62070364
127	0xbf4d17aa	-0.80114233
128	0xbf10db37	-0.56584495
129	0xbf30989c	-0.68982863
130	0x3e8f5a96	0.279988
131	0x3dcc6c81	0.09981633
132	0xbf13659f	-0.57576936
133	0x3cc3b26d	0.023888791
134	0x3f54ef3b	0.83177537
135	0xbf6a7f9c	-0.91600966
136	0xbf447519	-0.76741177
137	0xbf4bf1c6	-0.7966579
138	0xbe1826b9	-0.14858522
139	0x3f2a6981	0.66567236
140	0xbf12ec8f	-0.5739221
141	0xbdbc1d08	-0.09185225
142	0x3f2b05f8	0.6680598
143	0xbf0ef749	-0.5584608

features.module.0.bias f4 [16]
0	0xbd613994	-0.05498655
1	0x3d8836a9	0.066510506
2	0x3e285754	0.16439563
3	0x3e839fe6	0.2570793
4	0x3e948523	0.29007825
5	0xbe814705	-0.25249496
6	0x3da42115	0.080141224
7	0xbe0c419f	-0.13696907
8	0xbd0eeefa	-0.034895875
9	0xbe7411ba	-0.23834887
10	0x3e9480e9	0.290046
11	0xbe6f5362	-0.23371652
12	0x3e2e46a6	0.17019138
13	0x3de531fd	0.11191175
14	0x3dd3ebd6	0.103477165
15	0xbe304bb5	-0.1721638

features.module.1.weight f4 [16]
0	0x3f11a312	0.5688945
1	0x3f81daca	1.0144894
2	0x3fdf2a49	1.743478
3	0x3f3f7cbb	0.747997
4	0x3f203aa2	0.62589467
5	0x3f4785a6	0.77938306
6	0x3f94360b	1.1578993
7	0x3f7601aa	0.9609629
8	0x3f677bff	0.9042358
9	0x3f9c8def	1.2230815
10	0x3f082f31	0.5319701
11	0x4015419b	2.3321292
12	0x3f4cd788	0.80016375
13	0x3ffc61da	1.9717362
14	0x3fc7bae2	1.5603907
15	0x400f1e1b	2.2362125

features.module.1.bias f4 [16]
0	0xbe08c775	-0.13357337
1	0xbfe90875	-1.8205706
2	0xbee9a4f1	-0.45633653
3	0xbe4ae2e1	-0.1981311
4	0xbf365450	-0.712224
5	0xbe8d4522	-0.27591807
6	0xbe886630	-0.26640463
7	0xbffd5f42	-1.9794695
8	0xbea51932	-0.32245785
9	0xbe91bff0	-0.2846675
10	0xbd4a4206	-0.04937937
11	0xbf7f4406	-0.9971317
12	0xbf5290fa	-0.82252467
13	0xbf047c39	-0.5175205
14	0xbeeddd61	-0.4645796
15	0xbf5062b7	-0.81400627

features.module.1.running_mean f4 [16]
0	0xbd9ed5f6	-0.077556536
1	0x3de45861	0.111496694
2	0x3db39a69	0.08769686
3	0x3e647aee	0.22312519
4	0x3ec1a7bd	0.37823287
5	0xbe8aba98	-0.27095485
6	0x3c3e6167	0.011619902
7	0xbdca6a1e	-0.098835215
8	0xbd9256b0	-0.071454406
9	0xbe98cb32	-0.29842526
10	0x3ea7ad16	0.32749242
11	0xbe9d8bd7	-0.30770752
12	0x3e4b85d4	0.1987527
13	0x3d2650cd	0.0406044
14	0x3d5a93b8	0.05336353
15	0xbe834694	-0.25639784

features.module.1.running_var f4 [16]
0	0x3f707924	0.93934846
1	0x3fffeca7	1.9994096
2	0x40864f4d	4.1971803
3	0x4030cc47	2.762468
4	0x3fcefccb	1.6170896
5	0x3fea8f54	1.832499
6	0x40533f23	3.3007286
7	0x4023c8ac	2.559123
8	0x40213b15	2.519231
9	0x4006b4b4	2.1047792
10	0x3f653c4c	0.8954513
11	0x40943cb8	4.632412
12	0x3fe245a8	1.7677507
13	0x403ed472	2.9817166
14	0x40a03756	5.006755
15	0x409520b6	4.660243

features.module.4.weight f4 [32, 16, 3, 3]
0	0xbe80f363	-0.2518569
1	0x3e2a084e	0.1660473
2	0x3e69e943	0.22842889
3	0x3da69c5c	0.08135292
4	0xbd547dbd	-0.051877726
5	0x3dc88e17	0.097927265
6	0x3d879b6a	0.0662144
7	0xbda8e255	-0.082462944
8	0x3d046453	0.03232224
9	0x3dc66cbb	0.096887074
10	0xbcc0bd6b	-0.023527822
11	0xbe2210af	-0.15826677
12	0xbd1f0591	-0.038823668
13	0xbd93e107	-0.07220655
14	0xbee6b209	-0.45057705
15	0x3d1f8650	0.03894645
16	0xbd203c4f	-0.039120015
17	0xbea426c5	-0.3206083
18	0x3c9fc256	0.019501846
19	0xbe0a8bb0	-0.13529849
20	0xbd78ad43	-0.06071211
21	0x3d3081c8	0.04309252
22	0xbc2a0c88	-0.010378964
23	0xbbf5df7e	-0.007503449
24	0x3da94db5	0.082667746
25	0x3c7f62b2	0.015587496
26	0x3d287445	0.04112651
27	0xbe6a4548	-0.22877991
28	0xbe6f8cde	-0.2339358
29	0xbe734cc3	-0.23759751
30	0xbe477318	-0.19477499
31	0x3cb24f18	0.02176623
32	0xbd4d7a58	-0.050165504
33	0xbec3ddb7	-0.38255093
34	0xbe5ab46c	-0.21357888
35	0xbf0428b6	-0.5162462
36	0xbd33326b	-0.043749254
37	0x3cb6a485	0.022295246
38	0xbd3c1c54	-0.045925453
39	0x3d44be2f	0.048032936
40	0x3c978294	0.018494882
41	0xbde41270	-0.11136329
42	0xbd667a5b	-0.05626903
43	0x3e19b3b3	0.15009956
44	0xbe9d7f49	-0.30761173
45	0xbe005ccd	-0.125354
46	0x3dd7ab85	0.10530762
47	0x3d9a66ec	0.07539162
48	0xbde8628d	-0.11346922
49	0x3d4e67f1	0.050392095
50	0xbd80c159	-0.06286878
51	0xbd0959e6	-0.033533
52	0x3d496fde	0.04917895
53	0x3c438c1b	0.011935259
54	0xbe8b36e3	-0.27190313
55	0x3d9aa3b4	0.07550755
56	0xbbfd98be	-0.0077391556
57	0xbe9bb36f	-0.30410334
58	0x3cb782cb	0.022401234
59	0xbe110163	-0.14160685
60	0xbe7a26dc	-0.24428886
61	0x3c44726b	0.01199017
62	0xbcd48133	-0.025940513
63	0xbea2d2b1	-0.3180137
64	0xbd4a39db	-0.04937158
65	0xbe212c0b	-0.15739457
66	0xbdbba73d	-0.091627575
67	0x3e0849d9	0.1330942
68	0xbcacb61b	-0.021082928
69	0xbe5f4110	-0.21802163
70	0xbd241d80	-0.040067196
71	0xbd903ddd	-0.070430495
72	0x3bcd1540	0.0062586367
73	0xbe5706a4	-0.20998627
74	0xbe22874d	-0.15871926
75	0x3d639c6e	0.055569105
76	0xbd827a07	-0.06370931
77	0x3d0a93b2	0.03383226
78	0x3e50cb2f	0.20390008
79	0xbd6518a7	-0.055931713
80	0x3e4d0fcc	0.20025557
81	0xbde2a28f	-0.11066162
82	0xbe53ad43	-0.20671563
83	0xbe0d7ac3	-0.13816361
84	0xbe24b90a	-0.16086212
85	0xbdccea65	-0.10005645
86	0x3c8e208f	0.01734951
87	0xbea0852b	-0.313516
88	0xba012ad3	-0.0004927341
89	0x3c22ccfd	0.009936568
90	0x3c9f99e8	0.019482568
91	0x3d92e6f2	0.071729556
92	0x3dfc1d7c	0.12310311
93	0xbcabe70d	-0.020984197
94	0x3deff4e4	0.11716631
95	0x3e023806	0.12716684
96	0x3de71887	0.11283975
97	0x3dcd4f9f	0.10024952
98	0xbe344d3e	-0.1760759
99	0x3bcf3936	0.0063239587
100	0x3d92b985	0.07164291
101	0x3d63dc4d	0.055630017
102	0xbe4af691	-0.1982062
103	0xbd97c356	-0.07410304
104	0xbd9f4fc0	-0.07778883
105	0xbe68cf72	-0.22735384
106	0xbcae3a3a	-0.021267999
107	0x3d634be1	0.055492286
108	0xbdfdd109	-0.12393386
109	0xbe71ceaf	-0.23614
110	0xbe979db6	-0.2961251
111	0xbd76d91e	-0.060265653
112	0xbe13a85e	-0.14419696
113	0xbe548672	-0.20754412
114	0x3dbfdcb2	0.09368266
115	0xbe22e40c	-0.15907305
116	0xbed075b9	-0.40714815
117	0xbd9bcbdb	-0.07607242
118	0xbdcb448c	-0.09925184
119	0xbe13136a	-0.14362875
120	0xbd0b23b2	-0.03396959
121	0xbd354e05	-0.04426386
122	0xbd540fa6	-0.051772736
123	0xbc4ab2c4	-0.012371723
124	0x3d9a8898	0.075455844
125	0x3d5bb2e7	0.05363741
126	0xbcf2ba68	-0.029629901
127	0xbbbbdfb5	-0.005733455
128	0x3c49ef1b	0.012325074
129	0x3c260126	0.01013211
130	0x3d17da70	0.037073553
131	0x3d43e291	0.047823492
132	0xbe85d1ec	-0.2613672
133	0xbe295bfc	-0.16538996
134	0xbe86e96a	-0.26349956
135	0xbe813220	-0.25233555
136	0x3b6e2fd3	0.0036344423
137	0xbe81b004	-0.25329602
138	0xbdeddb58	-0.11614102
139	0x3e12fc81	0.14354135
140	0xbc9a66dd	-0.018847877
141	0xbec82865	-0.3909332
142	0x3da8e8dd	0.0824754
143	0xbe1b8073	-0.15185718
144	0x3e7ec3a1	0.24879314
145	0x3b3dbf8d	0.0028953284
146	0x3d612cef	0.054974493
147	0x3e027439	0.12739648
148	0x3c958925	0.018253872
149	0x3da15591	0.078776486
150	0x3d97f533	0.07419815
151	0x3ceae0c3	0.028671628
152	0xbe4da5ee	-0.20082828
153	0xbd91abae	-0.071128234
154	0xbe54310d	-0.20721836
155	0xbeb2a70c	-0.34893072
156	0xbe0130ab	-0.12616222
157	0xbe734a69	-0.23758854
158	0xbe9e93de	-0.3097219
159	0xbd22c533	-0.039738845
160	0xbe7f945a	-0.24958935
161	0xbe938da7	-0.2881901
162	0x3d88cae2	0.06679322
163	0xbd89dcb8	-0.06731552
164	0x3c885d76	0.016646128
165	0x3d12ec62	0.035869963
166	0x3cf5fd40	0.030027986
167	0x3c5cd090	0.01347746
168	0xbdeee59b	-0.116648875
169	0x3d187f98	0.037231058
170	0x3cfa3521	0.030542912
171	0xbc8adc48	-0.016950741
172	0x3be58208	0.0070040263
173	0xbd6201e6	-0.05517759
174	0xbc187299	-0.009304666
175	0x3bf839ca	0.0075752484
176	0xbd296bde	-0.041362636
177	0x3e003239	0.12519158
178	0x3d057c89	0.03258947
179	0xbd47a210	-0.04873854
180	0x3e1e6435	0.15467913
181	0xbd3bbf1b	-0.04583655
182	0xbe5e8c36	-0.21733174
183	0x3d3d54aa	0.04622332
184	0xbb2f1b00	-0.0026718974
185	0xbe34d9fb	-0.17661278
186	0x3da00351	0.078131326
187	0x3d2b477f	0.04181623
188	0xbe55375a	-0.20821896
189	0xbe2d5b72	-0.16929415
190	0xbdab88c9	-0.08375699
191	0xbe3534fc	-0.17695993
192	0xbc214ac2	-0.009844484
193	0x3b30d133	0.0026980161
194	0xbcf0cec4	-0.029395469
195	0xbe03716d	-0.12836237
196	0xbdb4a3f7	-0.08820336
197	0xbe21538c	-0.15754527
198	0xbe318c34	-0.1733864
199	0xbd63f8bc	-0.055657133
200	0xbdd47ebd	-0.10375736
201	0xbd19ce1d	-0.03755008
202	0x3cc97073	0.024589753
203	0x3ccbfc1f	0.024900494
204	0xbdc3c39c	-0.09558794
205	0xbda0103f	-0.07815599
206	0xbd315354	-0.04329236
207	0x3e312ee2	0.1730304
208	0x3d7dc79b	0.061957937
209	0xbe09ea3b	-0.13468258
210	0x3d443b82	0.047908314
211	0xbb685538	-0.0035451185
212	0xbe112e59	-0.14177836
213	0x3e090378	0.1338023
214	0x3d8aae63	0.06771543
215	0xbe503d53	-0.20335893
216	0x3c8498e0	0.016186178
217	0x3be27887	0.0069113406
218	0x3e6399b9	0.2222661
219	0xbc80a132	-0.015701864
220	0xbd3f5dca	-0.046720304
221	0x3c72f567	0.014829016
222	0x3d97df97	0.07415693
223	0x3ce70314	0.02819971
224	0x3c8bab65	0.0170495
225	0xbc832359	-0.016008066
226	0xbd69287d	-0.05692338
227	0x3c23cbad	0.009997291
228	0xbd37bb21	-0.044856194
229	0x3b446727	0.002996871
230	0x3cd7d28b	0.026345512
231	0xbe7126fc	-0.23550028
232	0xbcbdf6b7	-0.023188932
233	0x3cae126f	0.021249024
234	0x3d989067	0.074494176
235	0x3d03240e	0.032016806
236	0xbdb1cde3	-0.08681848
237	0x3d612d44	0.05497481
238	0xbd01c20f	-0.03167921
239	0xbdb5e870	-0.088822246
240	0x3e6fd136	0.23419651
241	0x3d96a7dc	0.073562354
242	0xbce543bc	-0.0279864
243	0x3b8863f5	0.0041623064
244	0x3e630d32	0.22173002
245	0x3d291d09	0.041287456
246	0x3d9ce51b	0.07660886
247	0x3db26081	0.08709813
248	0xbcaacfb2	-0.02085099
249	0xbccea508	-0.025225177
250	0x3caf7c85	0.02142168
251	0xbb719832	-0.0036864397
252	0xbdb74bea	-0.08950026
253	0xbdf83373	-0.12119188
254	0xbe39dd44	-0.18150812
255	0xbd44d017	-0.048050012

features.module.4.bias f4 [32]
0	0x3ca96f23	0.020682877
1	0x3d23a316	0.039950453
2	0xbd950ec9	-0.07278211
3	0xbd636af8	-0.055521935
4	0xbd9c7858	-0.07640141
5	0x3d183780	0.037162304
6	0x3d748bfd	0.059703816
7	0xbd9ca604	-0.076488525
8	0x3ca989a5	0.020695517
9	0x3c8442c5	0.01614512
10	0xbd2efc30	-0.042720973
11	0x3c8ce65d	0.01719969
12	0x3d7b6fbf	0.061385866
13	0x3d9feb16	0.07808511
14	0x3d0d0211	0.0344258
15	0xbc8151be	-0.015786048
16	0xbd3988bb	-0.045296412
17	0xbcf86372	-0.030320857
18	0x3a2afbae	0.00065224885
19	0xbbbf938a	-0.0058464454
20	0x3d6def73	0.058089685
21	0xbd935783	-0.07194426
22	0x3be8d117	0.0071050036
23	0xbccf6c93	-0.025320327
24	0x3bd98ac5	0.006638857
25	0x3d9cc803	0.07655337
26	0x3b18a19a	0.0023289681
27	0xbc623844	-0.01380736
28	0xbcdd0a34	-0.026982404
29	0xbda2b36f	-0.079443805
30	0xbd93b547	-0.0721231
31	0x3d0e12c7	0.034685876

features.module.5.weight f4 [32]
0	0x3f133bb6	0.57512987
1	0x3ef0979f	0.46990678
2	0x3eb724b2	0.35770184
3	0x3f3f5e70	0.74753475
4	0x3f759652	0.95932496
5	0x3fa2d8a1	1.272236
6	0x3f2b14ab	0.6682841
7	0x3f343f3b	0.7040898
8	0x3ec5436a	0.38527995
9	0x3f2d13eb	0.6760852
10	0x3f22455a	0.6338707
11	0x3f95b0ba	1.1694558
12	0x3f2aad92	0.666711
13	0x3f4ce5fc	0.8003843
14	0x3f4c0c02	0.7970582
15	0x3f68b783	0.90905017
16	0x3f80c2ce	1.005945
17	0x3f945a4b	1.1590055
18	0x3fb1ac6c	1.3880744
19	0x3f73e86c	0.9527652
20	0x3f7def14	0.9919293
21	0x3f1943e3	0.5986921
22	0x3f0034af	0.5008039
23	0x3f2764c1	0.65388113
24	0x3f61888d	0.88098985
25	0x3f1db92a	0.6161066
26	0x3f01ee99	0.50754696
27	0x3f04a450	0.5181322
28	0x3f14c78b	0.5811698
29	0x3ee9b411	0.45645192
30	0x3f94b3d1	1.1617376
31	0x3f3a53f1	0.72784334

features.module.5.bias f4 [32]
0	0xbf13f6d0	-0.5779848
1	0xbea970c0	-0.33093834
2	0xbeb6c4e1	-0.35697082
3	0xbf62c83a	-0.8858677
4	0xbf6de390	-0.9292536
5	0xc02c5c8b	-2.6931484
6	0xbfa7b3cd	-1.3101746
7	0xbf9b0be8	-1.2113008
8	0xbe1c05b3	-0.15236549
9	0xbf9d46f2	-1.2287276
10	0xbf1af610	-0.6053171
11	0xc0276b68	-2.6159306
12	0xbf61dc49	-0.88226753
13	0xbf2a2a0c	-0.6647041
14	0xbfba1331	-1.4537107
15	0xbf3abf67	-0.72948307
16	0xbf8425e7	-1.0324067
17	0xbf8672ab	-1.0503744
18	0xc03ad41b	-2.919196
19	0xbf4360d5	-0.7631963
20	0xbfbc8c85	-1.4730383
21	0xbee6d207	-0.45082113
22	0xbf1876c0	-0.595562
23	0xbfa78e20	-1.3090248
24	0xbf5f83dc	-0.87310576
25	0xbf78d471	-0.9719916
26	0xbf24e7f6	-0.64416444
27	0xbf2d1a36	-0.6761812
28	0xbeeff640	-0.4686756
29	0xbdcfb7c1	-0.1014247
30	0xbf7c873b	-0.98643845
31	0xbf8d98b1	-1.1062223

features.module.5.running_mean f4 [32]
0	0xbfb585db	-1.4181474
1	0xbf15e81c	-0.58557296
2	0xbf8dd20a	-1.1079724
3	0xbf86d3bd	-1.0533367
4	0xbf4432d2	-0.76640046
5	0xc0431d9a	-3.0486817
6	0xbfa1321c	-1.2593417
7	0xc0134155	-2.3008626
8	0xbe8ae5b9	-0.2712839
9	0xbfcfaa3c	-1.6223826
10	0xbda388ad	-0.07985053
11	0xc02748e1	-2.6138232
12	0xbfacc307	-1.3497018
13	0xbf5c2337	-0.85991234
14	0xc00ee0ea	-2.2324777
15	0xbf8003bd	-1.0001141
16	0xbf99d5bb	-1.201835
17	0xbf804bd1	-1.0023137
18	0xc047b47f	-3.1203916
19	0xbf86af54	-1.0522256
20	0xc022eee6	-2.5458312
21	0xbf3772cf	-0.7165956
22	0xbf9bb801	-1.2165529
23	0xc008f7ec	-2.140132
24	0xbfb67426	-1.4254196
25	0xbfc0d1aa	-1.5063984
26	0xbf13a929	-0.5767999
27	0xbf94a7c5	-1.1613699
28	0xbeb97c54	-0.36227667
29	0xbf640cac	-0.89081836
30	0xbf443be0	-0.7665386
31	0xbfe95ed1	-1.8232061

features.module.5.running_var f4 [32]
0	0x3f637696	0.8885282
1	0x3f67b66b	0.9051272
2	0x3f4aba80	0.79190826
3	0x3f3bb019	0.7331558
4	0x3fccadf8	1.5990591
5	0x3fcfad75	1.622481
6	0x3f218020	0.6308613
7	0x3f993082	1.1967928
8	0x3f7f4b00	0.99723816
9	0x3f6d661f	0.9273395
10	0x3f23921e	0.6389483
11	0x3f90448a	1.1270916
12	0x3f698853	0.9122364
13	0x3f4c3203	0.7976381
14	0x3f906a43	1.1282429
15	0x3febd245	1.8423544
16	0x3fccf0fa	1.601104
17	0x3fbfc946	1.4983299
18	0x3fd8d828	1.6940966
19	0x3fd65453	1.6744484
20	0x3ffa859d	1.9572026
21	0x3f2f4769	0.6846834
22	0x3f6b03ef	0.9180288
23	0x3f59c8fe	0.85072315
24	0x3fb9b414	1.450808
25	0x3f35b85c	0.70984435
26	0x3f433b9c	0.7626283
27	0x3f0a82b2	0.54105675
28	0x3f1d5b14	0.614671
29	0x3edecd1c	0.4351586
30	0x3fd5af00	1.6694031
31	0x3f6c82b6	0.9238695

features.module.8.weight f4 [64, 32, 3, 3]
0	0x3c101d7b	0.008796091
1	0x3c573c66	0.013136959
2	0x3cf7fdb4	0.030272342
3	0x3bc9acbf	0.006154626
4	0x3c186538	0.009301476
5	0x3cc0cb71	0.023534508
6	0x3c4951e2	0.012287589
7	0x3c7264ca	0.014794538
8	0x3c633682	0.013867976
9	0xbcbaeee1	-0.022818984
10	0xbc0df8c3	-0.008665266
11	0xbc007268	-0.007839777
12	0xbc634b13	-0.01387288
13	0xbb24dce4	-0.0025156075
14	0xbbc6421e	-0.0060503623
15	0xbc09942b	-0.008397142
16	0x3b3a5373	0.0028431087
17	0xbb492f43	-0.0030698336
18	0x3b94b62c	0.004538318
19	0xbad5271d	-0.0016262267
20	0x3bc4b22c	0.006002685
21	0xbb463679	-0.003024487
22	0x39cdd880	0.00039261952
23	0x3b328169	0.002723778
24	0xbcb874a2	-0.022516552
25	0xbc2cfee8	-0.010558821
26	0xbb766958	-0.003759941
27	0x3e62952e	0.2212722
28	0x3e0649d5	0.13114102
29	0x3e0bf544	0.1366778
30	0x3e170a29	0.1474997
31	0x3d9836d8	0.074323356
32	0x3dab1223	0.08353069
33	0x3e66f8d3	0.22555856
34	0x3e13c0ef	0.14429067
35	0x3e1d97f3	0.15389995
36	0x3e640124	0.2226606
37	0x3e2297bb	0.15878193
38	0x3e930954	0.28718054
39	0x3dc5f1e7	0.0966528
40	0x3d3628ba	0.044472434
41	0x3e1dd46f	0.15413068
42	0x3d586a24	0.0528356
43	0x3cdfa52c	0.02730044
44	0x3e1eb237	0.15497671
45	0xbd2afa5c	-0.041742668
46	0xbce25df6	-0.027632695
47	0xbcf2e63e	-0.029650804
48	0xbdb8dcf8	-0.090265214
49	0xbd926019	-0.071472354
50	0xbda81e6b	-0.08208927
51	0xbddc547e	-0.10758303
52	0xbda2d63b	-0.079510175
53	0xbda484f5	-0.08033172
54	0xbcf163c8	-0.029466525
55	0xbc83bb7d	-0.016080612
56	0xbd574759	-0.052558277
57	0xbd900085	-0.07031349
58	0xbd5352cf	-0.051592644
59	0xbdbbf5a0	-0.091777086
60	0xbded30f3	-0.11581602
61	0xbdc53f49	-0.09631211
62	0xbe0aad42	-0.13542655
63	0xbc56aa3e	-0.013102112
64	0xbbd24557	-0.0064169574
65	0xb9339f4e	-0.00017130116
66	0xbc2c610d	-0.010521186
67	0xba9d3479	-0.0011993787
68	0x3b94a733	0.0045365333
69	0x3c194a3b	0.009356077
70	0x3c877f79	0.016540276
71	0x3c779242	0.015110554
72	0x3bc94385	0.006142082
73	0x3c5d9230	0.013523623
74	0x3a594b9c	0.000828916
75	0xbbc9c749	-0.00615779
76	0xba3732f9	-0.00069884915
77	0xbc612a25	-0.013742958
78	0xbcafc016	-0.021453898
79	0xbc64d33c	-0.013966378
80	0xbccd221c	-0.025040679
81	0x3d17ae91	0.037031714
82	0x3d0ee1bf	0.034883257
83	0x3d334d0d	0.043774653
84	0x3b9b73ec	0.0047440436
85	0x39b2b13d	0.00034082858
86	0x3cbe4c7a	0.023229826
87	0x3c8c4c8a	0.01712634
88	0x3c95e75f	0.018298803
89	0x3d4d53ce	0.05012875
90	0x3d78df71	0.060759965
91	0x3d5a562e	0.053304844
92	0x3dfa411e	0.12219451
93	0x3d48161f	0.04884922
94	0x3d075b36	0.03304597
95	0x3d90e452	0.07074799
96	0x3d8b9186	0.06814866
97	0x3d564fa1	0.052322034
98	0x3dc19549	0.09452302
99	0xbdfbdd5e	-0.12298082
100	0xbdf52134	-0.119692236
101	0xbdce2b8b	-0.10066899
102	0xbd8c8181	-0.068606384
103	0xbdb171fa	-0.086643174
104	0xbd9f261c	-0.07770941
105	0xbd0f52c3	-0.034991037
106	0xbd5e4ed0	-0.05427438
107	0xbd70785f	-0.058708545
108	0xbc73f47c	-0.014889833
109	0xb9cee338	-0.00039460673
110	0xbb849bbe	-0.004046886
111	0xbc67ae75	-0.014140715
112	0xbb5b8148	-0.0033493806
113	0xbc198dcc	-0.009372186
114	0xbc78593f	-0.015157997
115	0xbc11da27	-0.008902109
116	0xbc3e7280	-0.011623979
117	0x39c99abf	0.00038453002
118	0x3b392b04	0.00282544
119	0x3bbdcd09	0.0057922644
120	0xbbc909a0	-0.0061351806
121	0xbbf77ae7	-0.007552493
122	0x3aa10422	0.0012284557
123	0xbc084572	-0.008317338
124	0xbc13015b	-0.008972491
125	0x3bd30d37	0.0064407843
126	0x3ba62cef	0.0050712745
127	0xbb4f5571	-0.003163662
128	0xbcd487bb	-0.025943628
129	0x3a90e920	0.0011055805
130	0x3b5fdf88	0.0034160335
131	0xbb95a7e8	-0.004567135
132	0xb7c21fac	-2.314135e-05
133	0x3c91b5b3	0.017786836
134	0x3c663425	0.014050518
135	0x3ddef667	0.10886841
136	0x3d825df1	0.06365574
137	0x3dfca9aa	0.12337048
138	0x3d2ae1fa	0.041719414
139	0x3c83f6d9	0.016108917
140	0x3da47418	0.080299556
141	0x3d2df2f6	0.042468034
142	0x3cba0bbc	0.022710674
143	0x3d9fe82f	0.078079574
144	0x3da84308	0.0821591
145	0x3d896069	0.06707842
146	0x3e1598ca	0.14609066
147	0x3d0709c5	0.0329683
148	0x3d2558a3	0.040367734
149	0x3de4d1f5	0.111728586
150	0x3db04c49	0.086083
151	0x3db6b84f	0.08921873
152	0x3e46e98b	0.19425027
153	0x3e6d4cd6	0.23173842
154	0x3d95f5fb	0.07322308
155	0x3d47b7af	0.04875916
156	0x3e860c6c	0.26181352
157	0x3dc8ab14	0.097982556
158	0x3de05de4	0.10955408
159	0x3ec2d614	0.38053954
160	0x3e852043	0.26001176
161	0x3e94702f	0.2899184
162	0xbcb5d9c7	-0.02219857
163	0xbbc0566c	-0.0058696773
164	0xbbbba91f	-0.005726948
165	0xbca26783	-0.019824749
166	0xbb2b3414	-0.002612357
167	0x3ad532be	0.0016265733
168	0xbdc08d17	-0.09401911
169	0xbd9aac1e	-0.0755236
170	0xbda3256a	-0.079661205
171	0xbcaeb002	-0.021324161
172	0xbca73db4	-0.020415165
173	0xbcba80db	-0.022766521
174	0xbcc3ad82	-0.023886446
175	0xbcdf913c	-0.027290933
176	0xbce62ef6	-0.028098565
177	0xbcfd93bb	-0.030954232
178	0xbc60ac89	-0.013713011
179	0xbcdb4ed7	-0.026770992
180	0xbcdf0a60	-0.027226627
181	0xbc9e234b	-0.019303938
182	0xbd26c1d0	-0.040712178
183	0xbc74e778	-0.014947765
184	0xbc07fc30	-0.008299872
185	0xbc5f8cac	-0.013644379
186	0xbc3099bc	-0.010778841
187	0x3ab72a12	0.001397433
188	0x3b0aba31	0.0021168108
189	0xbd026960	-0.031838775
190	0xbcecc2a2	-0.028901402
191	0xbcf0036a	-0.029298503
192	0xbcd8c264	-0.02645988
193	0xbcdc2966	-0.026875209
194	0xbcd7ef06	-0.026359092
195	0xbcea9106	-0.028633606
196	0xbd0dc2bc	-0.03460954
197	0xbd3c09d1	-0.0459078
198	0xbcea0d4b	-0.028570792
199	0xbcbe648e	-0.023241308
200	0xbcc30463	-0.023805803
201	0xbc9f66bf	-0.019458173
202	0xbc4586c7	-0.012056059
203	0xbc1093c3	-0.008824292
204	0xbc53e8ed	-0.012933952
205	0xbbcd5d0f	-0.006267197
206	0xbc29a84f	-0.010355069
207	0xbc95fdb7	-0.018309457
208	0xbcbd4ffa	-0.023109425
209	0xbcb91658	-0.022593662
210	0xbc691832	-0.01422696
211	0xbc72dee8	-0.014823653
212	0xbc880cbb	-0.016607633
213	0xbb35e918	-0.0027757343
214	0xbbc351be	-0.005960672
215	0xbb43a535	-0.002985311
216	0x3c15c7f9	0.0091419155
217	0xbc79e3c4	-0.015252057
218	0x3bc14eb4	0.0058992747
219	0x3caebf2f	0.021331398
220	0x3bed51b2	0.007242405
221	0x3cb9c1ea	0.022675473
222	0x3d44503e	0.047928087
223	0x3d135b67	0.03597584
224	0x3d529dc8	0.051420003
225	0xbd2aa85c	-0.041664466
226	0xbd2491df	-0.040178176
227	0xbd1591b4	-0.036515906
228	0xbcead2f0	-0.028665036
229	0xbcb3273d	-0.021869296
230	0xbcdb41f9	-0.026764857
231	0xbc991c88	-0.018690363
232	0xbc95bbea	-0.018278081
233	0xbcfc32fc	-0.03078603
234	0xbcf3dd2e	-0.029768553
235	0xbcc8704f	-0.024467615
236	0xbd123c01	-0.035701755
237	0xbc5330c7	-0.012890047
238	0xbc397a8c	-0.011320721
239	0xbc9e37f7	-0.019313795
240	0xbbb6b4af	-0.0055757384
241	0xba87f9a8	-0.0010374086
242	0xbc808a18	-0.015690848
243	0x3c942d60	0.018088043
244	0x3c2a2861	0.010385604
245	0x3956c452	0.00020481765
246	0x3c2a7258	0.010403238
247	0x3be12b71	0.0068716337
248	0x3b6b67e3	0.0035920076
249	0x3c366973	0.0111335395
250	0x3b836cec	0.0040107872
251	0x3aaa85e8	0.0013009878
252	0xbc87e462	-0.016588394
253	0xbb94eed2	-0.004545071
254	0xbc5fb781	-0.013654591
255	0xbc8d2d5a	-0.01723354

features.module.8.bias f4 [64]
0	0xbcd375f4	-0.02581308
1	0x3c29ca77	0.010363213
2	0x3c32b7b9	0.010908061
3	0x3d630a39	0.05542967
4	0x3d52f43d	0.051502455
5	0xbd3e66a6	-0.046484612
6	0x3ce51931	0.027966114
7	0xbd38d7f2	-0.045127816
8	0xbce1838a	-0.027528543
9	0x3cb60001	0.022216799
10	0xbd1dc2b4	-0.03851576
11	0x3d45c241	0.048280958
12	0x3caea2ea	0.021317918
13	0x3b9dc1d2	0.004814365
14	0x3d012d63	0.031537425
15	0xbd447729	-0.047965202
16	0x3c183656	0.009290298
17	0x3cabe468	0.020982936
18	0xbcd42a41	-0.025899054
19	0xbc8f670b	-0.01750519
20	0x3cbb19e8	0.022839502
21	0x3d435dab	0.04769675
22	0xbcb3e269	-0.021958547
23	0x3d0b4017	0.033996668
24	0x3d014d01	0.031567577
25	0xbd06f87c	-0.032951817
26	0xbd37509d	-0.044754613
27	0xbbd96015	-0.0066337683
28	0x3d0f1ce1	0.03493965
29	0xbd404445	-0.046940107
30	0xbd204064	-0.039123908
31	0x3d281134	0.04103203
32	0xbd044354	-0.03229077
33	0xbd24ab99	-0.04020271
34	0xbb1d2ad5	-0.0023981829
35	0x3d61b2da	0.055102207
36	0x3d1820ec	0.03714077
37	0x3cedf8ed	0.029049361
38	0x3bec1477	0.007204588
39	0xbce7191d	-0.028210217
40	0xbd33b164	-0.043870345
41	0x3cf50c74	0.029913165
42	0x3c88b849	0.016689437
43	0x3c700f3b	0.014652069
44	0xbcaa7b52	-0.020810757
45	0xbd6101c4	-0.054933324
46	0x3bfc7505	0.0077043795
47	0xbc1ed83a	-0.009695107
48	0xbb8b9298	-0.0042594187
49	0x3baf22e5	0.005344736
50	0xbd06cfb5	-0.03291293
51	0xbd0fa74b	-0.035071652
52	0xbc85c77a	-0.01633047
53	0x3cb307b3	0.021854257
54	0xbd1061aa	-0.03524939
55	0x3d56f79a	0.052482225
56	0xbd62f5eb	-0.055410307
57	0xbd0f2465	-0.034946818
58	0x3c843ae0	0.016141355
59	0xbd60574f	-0.054770764
60	0xbd0008b1	-0.03125829
61	0x3cee04a4	0.029054947
62	0xbd1c4d22	-0.038159497
63	0x3c93b85d	0.018032247

features.module.9.weight f4 [64]
0	0x40fe311c	7.943495
1	0x40b8743d	5.7641892
2	0x40c8690f	6.2628245
3	0x40c61bb2	6.190881
4	0x408fdd6d	4.4957795
5	0x40b6a18f	5.7072215
6	0x40c619e3	6.19066
7	0x40950efd	4.6580796
8	0x40a516c2	5.159028
9	0x40b6bcad	5.7105317
10	0x40955d8b	4.667669
11	0x409dac04	4.927248
12	0x40a55274	5.166315
13	0x40a6ebfa	5.2163057
14	0x40c6bca8	6.2105293
15	0x40e9c399	7.3051267
16	0x40a5ff3d	5.187407
17	0x40b7a511	5.7388997
18	0x40970c62	4.7202616
19	0x40abbb41	5.366608
20	0x40c8f000	6.279297
21	0x40a60378	5.1879234
22	0x409f54c9	4.9790998
23	0x40c6f8fb	6.217893
24	0x40c6c27f	6.211242
25	0x40acc694	5.3992405
26	0x40b3b00a	5.615239
27	0x40ab9bd8	5.362774
28	0x40b71d53	5.7223296
29	0x40aea6a9	5.4578443
30	0x40c3c0c0	6.117279
31	0x40c944c5	6.2896447
32	0x40b176ab	5.545736
33	0x409e9b8f	4.956489
34	0x40abbe89	5.3670087
35	0x40a9ea54	5.3098545
36	0x40c6ce17	6.2126575
37	0x40facc5e	7.837447
38	0x40932900	4.598755
39	0x40ed71a1	7.4201207
40	0x40aa2b4a	5.3177843
41	0x40a47710	5.139534
42	0x40b0a97e	5.52069
43	0x40a24deb	5.0720115
44	0x40a1f2c4	5.0608845
45	0x40e0f6cd	7.030127
46	0x40ccf579	6.404965
47	0x40a8713f	5.263824
48	0x40cca233	6.3947997
49	0x40c391a1	6.111527
50	0x40b8f828	5.7802925
51	0x40cfc4dd	6.492781
52	0x40974a5f	4.7278285
53	0x40ac20b4	5.378992
54	0x40d364e1	6.6060643
55	0x40d34948	6.6026955
56	0x40abb535	5.36587
57	0x40abfc3f	5.3745418
58	0x40cbcf95	6.3690896
59	0x40a8a8bf	5.270599
60	0x40b81c82	5.75348
61	0x40cabc80	6.3355103
62	0x40b8af0f	5.7713695
63	0x40b43389	5.631291

features.module.9.bias f4 [64]
0	0x3fdd0052	1.7265723
1	0x3fb2eff5	1.3979479
2	0x3f7fff41	0.9999886
3	0x3fc02d78	1.5013876
4	0x3faf16da	1.3678849
5	0x3fb2a4ca	1.395654
6	0x3f7853dc	0.9700296
7	0x402af132	2.6709714
8	0x4019ffb3	2.4062316
9	0x3ff46b08	1.9095163
10	0x3f6f3ff2	0.9345695
11	0x3fab3219	1.3374664
12	0x3f99ddd0	1.2020817
13	0x3f875398	1.0572386
14	0x3f6e6924	0.9312918
15	0x3fbd0867	1.4768189
16	0x3fe1ba2a	1.7634938
17	0x3f9d87c5	1.2307059
18	0x402c654e	2.6936831
19	0x3f9c16e8	1.219449
20	0x3f91fe1f	1.1405677
21	0x4040fe11	3.015507
22	0x3fb6738f	1.4254016
23	0x3fb1f765	1.3903624
24	0x4013955f	2.305992
25	0x3fa8e196	1.3193843
26	0x3fe0f1d2	1.7573798
27	0x3f813226	1.0093429
28	0x3f9724bd	1.1808087
29	0x3faaa110	1.3330402
30	0x3fb1e49d	1.3897892
31	0x3fb2f6bc	1.3981547
32	0x3f93d145	1.1548239
33	0x3feec6b3	1.8654388
34	0x3fe87277	1.8159932
35	0x3fe2222e	1.7666681
36	0x3fef46b0	1.8693447
37	0x3fdd9e50	1.7313938
38	0x3fad4816	1.3537624
39	0x3fcf0027	1.6171921
40	0x3fb921d7	1.4463452
41	0x3f805c36	1.002814
42	0x3fe2bbd5	1.7713572
43	0x3fab8ac3	1.3401722
44	0x403ad6d9	2.9193633
45	0x3fd3727e	1.6519315
46	0x3ff855ee	1.9401224
47	0x3fb0faa1	1.3826486
48	0x3fa6189b	1.2976259
49	0x3fa1fc78	1.2655172
50	0x3f9dd00f	1.232912
51	0x401d6a8c	2.459628
52	0x3fc6d5be	1.5533979
53	0x3f9bdfe7	1.2177705
54	0x3fc651f0	1.5493755
55	0x3fe49b6d	1.7859932
56	0x3fe1fcc2	1.765526
57	0x3fa1030a	1.2579052
58	0x3fb936a7	1.4469804
59	0x3f8c8c11	1.0980245
60	0x3f984bc6	1.1898124
61	0x3f81e68e	1.0148485
62	0x3f9cc9f1	1.2249128
63	0x402dd5aa	2.716166

features.module.9.running_mean f4 [64]
0	0xbc95b90a	-0.01827671
1	0x3ce2dbe1	0.027692737
2	0x3c449bfe	0.012000082
3	0x3d9ec50a	0.07752426
4	0x3d67f81f	0.05663311
5	0xbcafc697	-0.021457
6	0x3d13d6da	0.03609357
7	0x3d07b070	0.03312725
8	0xbbfbb920	-0.0076819807
9	0xbc784f3d	-0.015155611
10	0xbd050244	-0.032472864
11	0x3d85199f	0.064990275
12	0x3cbab136	0.022789579
13	0xbb9b0b10	-0.0047315434
14	0x3d2a53f0	0.041583955
15	0xbd710ed2	-0.058852024
16	0xbc88e5fa	-0.016711224
17	0x3d152b27	0.036418106
18	0x3d56b7a5	0.05242123
19	0xbbaed4fc	-0.0053354483
20	0x3ce395c0	0.027781367
21	0x3e0b1d79	0.13585462
22	0xbc92c19e	-0.01791459
23	0x3d739fb2	0.05947847
24	0xbbc81247	-0.0061056945
25	0xbcf54eae	-0.029944744
26	0xbda1a195	-0.078921475
27	0x3ac561e9	0.0015059087
28	0x3cd7b333	0.026330566
29	0xbd1d5230	-0.03840846
30	0xbd057b72	-0.03258843
31	0x3d4b41bc	0.049623236
32	0xbcc4dd63	-0.024031347
33	0xbd78df78	-0.06075999
34	0xbc9dac18	-0.0192471
35	0x3d5d0116	0.053956114
36	0x3c2b39a6	0.010450756
37	0x3d76cf81	0.060256485
38	0x3c097010	0.008388534
39	0xbca8c8bd	-0.020603532
40	0xbd28482e	-0.04108446
41	0x3d220e60	0.03956449
42	0xbc35737c	-0.011074897
43	0x3cf0176a	0.02930804
44	0x3d78c4f2	0.060734697
45	0xbd8c5296	-0.068516895
46	0xbd201de0	-0.03909099
47	0xbabeac48	-0.0014547193
48	0x3c4f90f0	0.012668833
49	0x3cf5f3f7	0.030023558
50	0xbcf3151c	-0.029673152
51	0xbd94378d	-0.07237158
52	0xbd37b8dd	-0.044854034
53	0xbc02e1fc	-0.007988449
54	0xbd8fca32	-0.070209876
55	0x3c81611c	0.015793376
56	0xbd90efb3	-0.07076969
57	0xbcf6b934	-0.030117609
58	0xbcd969d5	-0.026539722
59	0xbd0c8e73	-0.034315538
60	0xbbb00433	-0.0053715943
61	0x3cff7095	0.031181613
62	0xbd992fe1	-0.07479835
63	0x3d88a618	0.06672305

features.module.9.running_var f4 [64]
0	0x3c3f36bd	0.0116707655
1	0x3c1b6520	0.009484559
2	0x3bb09e24	0.0053899456
3	0x3c367ea0	0.011138588
4	0x3c046333	0.008080292
5	0x3c2f5106	0.01070047
6	0x3bc836c8	0.006110046
7	0x3bdc2178	0.006717857
8	0x3b787e47	0.0037917064
9	0x3c3f7df5	0.011687745
10	0x3b9d7b28	0.004805941
11	0x3bd1315f	0.0063840593
12	0x3be21438	0.006899383
13	0x3bc97028	0.0061474033
14	0x3ba81955	0.005129973
15	0x3c25b57f	0.010114073
16	0x3c55e8fc	0.013056036
17	0x3bdf6f58	0.006818693
18	0x3bd80b71	0.006593161
19	0x3bae203c	0.005313901
20	0x3bb9e9c7	0.0056736204
21	0x3bf14132	0.007362508
22	0x3be29d92	0.0069157565
23	0x3c59b5fc	0.013288017
24	0x3c82a07b	0.015945664
25	0x3bfbdb34	0.007686043
26	0x3c2c0e08	0.010501392
27	0x3bc9a2a0	0.0061534196
28	0x3bee9b6a	0.0072817104
29	0x3b8a3baf	0.0042185406
30	0x3bf1d3b0	0.0073799714
31	0x3bd72a12	0.0065662945
32	0x3bd9ef64	0.006650852
33	0x3c0bc917	0.00853183
34	0x3c679474	0.014134515
35	0x3c64d2ba	0.013966257
36	0x3c46545d	0.012105075
37	0x3c9983ae	0.018739548
38	0x3bd7e9f6	0.0065891696
39	0x3c276283	0.010216358
40	0x3c018867	0.007906056
41	0x3b71fc5f	0.0036924107
42	0x3c31e00e	0.010856641
43	0x3bc5e979	0.006039795
44	0x3bdcb7fe	0.0067358008
45	0x3c3ef113	0.011654156
46	0x3c481e62	0.012214275
47	0x3b8ef83f	0.0043630893
48	0x3c19984a	0.009374687
49	0x3c5428c7	0.012949175
50	0x3bc2ad11	0.0059410413
51	0x3c847c61	0.01617259
52	0x3c0fa2e3	0.008766863
53	0x3bea1af6	0.0071443273
54	0x3c1ef2b0	0.009701416
55	0x3c12c3f8	0.008957855
56	0x3c30e39c	0.010796454
57	0x3b8fff31	0.004394435
58	0x3c1d5d77	0.009604803
59	0x3c31835c	0.010834541
60	0x3c4113f9	0.011784547
61	0x3bd1e495	0.006405423
62	0x3c0547e4	0.008134816
63	0x3bea88ec	0.0071574356

top_layer.weight f4 [10, 64]
0	0xbc821bda	-0.015882421
1	0xbdef5c4c	-0.11687526
2	0xbd09f363	-0.033679377
3	0xbe5fe451	-0.2186444
4	0xbde04064	-0.109497815
5	0xbd852a19	-0.0650217
6	0x3d200bee	0.039073877
7	0x3d24b4d4	0.040211514
8	0xbcc8fc8c	-0.024534486
9	0x3c3522cf	0.011055662
10	0xbcc32135	-0.023819545
11	0xbdf85e46	-0.12127356
12	0x3dac4557	0.08411663
13	0x3ea6d3b2	0.32583386
14	0xbab7c7ed	-0.0014021375
15	0xbda9f06d	-0.08297811
16	0xbdfbeb29	-0.123007126
17	0xbe17e31f	-0.14832734
18	0xbc81515f	-0.015785871
19	0xbc91e458	-0.017809078
20	0x3e439933	0.1910141
21	0x3d6b34d8	0.057423443
22	0x3cdce205	0.026963243
23	0xbcf0d212	-0.029397044
24	0xbe040007	-0.12890635
25	0x3d46c9d7	0.048532333
26	0x3dc0de2f	0.09417378
27	0x3e4e8367	0.20167314
28	0xbd1ebb9f	-0.03875315
29	0x3dc17a1d	0.094471194
30	0xbd25fbdc	-0.040523395
31	0xbded05ad	-0.11573348
32	0x3dab6279	0.083683915
33	0xbdc398dc	-0.0955064
34	0xbe1212a9	-0.14264931
35	0xbe03ef2d	-0.12884207
36	0x3d79874f	0.060920056
37	0xbdc04dae	-0.09389816
38	0x3c84983b	0.01618587
39	0xbd1c9860	-0.038231254
40	0x3d9941c5	0.07483248
41	0xbd4c61c0	-0.04989791
42	0xbd36877e	-0.04456281
43	0xbd8f26fa	-0.06989856
44	0x3c3ae804	0.011407856
45	0xbdd38e52	-0.1032988
46	0x3e840ea1	0.2579241
47	0xbd7d0ce5	-0.061779875
48	0xbe033bde	-0.12815806
49	0xbd3a8080	-0.045532703
50	0xbde1a8ae	-0.11018501
51	0xbe0125e3	-0.12612109
52	0x3c280d7c	0.010257121
53	0x3ec00a05	0.37507644
54	0x3eed274f	0.46319053
55	0x3d60e888	0.05490926
56	0xbe0b2cd1	-0.13591315
57	0xbd0d11c5	-0.034440774
58	0x3ef3e93b	0.47638878
59	0xbd1f10df	-0.03883445
60	0xbdb20f6f	-0.0869435
61	0x3dae6dd8	0.08517045
62	0x3ec78524	0.38968766
63	0x3dd60fba	0.10452218
64	0x3f114f9c	0.567621
65	0xbc5f03e2	-0.013611766
66	0xbcc7752c	-0.024347864
67	0x3d6446b1	0.05573148
68	0x3e3cbdfb	0.18431847
69	0xbd51ac12	-0.05118949
70	0x3b1d849c	0.002403534
71	0xbddb09dd	-0.10695241
72	0xbdd63c91	-0.10460771
73	0xbdb6c745	-0.089247264
74	0x3ea97cde	0.3310308
75	0x3cf8ae23	0.030356472
76	0xbd195d92	-0.03744275
77	0xbd1a4d49	-0.03767136
78	0xbd766301	-0.06015301
79	0xbd564faf	-0.052322086
80	0xbc469172	-0.012119638
81	0x3d398a3b	0.045297842
82	0xbdc297f8	-0.09501642
83	0x3cf59983	0.029980427
84	0xbdde10d6	-0.10843055
85	0xbe0e8968	-0.13919604
86	0xbcf99f1b	-0.030471375
87	0xbd6fc2bf	-0.058535334
88	0xbcfac7f3	-0.030612921
89	0xbd0d6375	-0.034518678
90	0xbc31f689	-0.010862001
91	0x3e6b7bc9	0.22996439
92	0xbd3d8a42	-0.04627443
93	0xbd9ba156	-0.07599132
94	0x3ee1ee5d	0.4412717
95	0xbd386160	-0.04501474
96	0x3e7227eb	0.2364804
97	0xbd5aa626	-0.053381108
98	0x3d1d7950	0.03844577
99	0x3d9b269c	0.075757235
100	0x3d1b364a	0.03789357
101	0xbd86b0c0	-0.06576681
102	0xbd4e0a18	-0.050302595
103	0x3f090aeb	0.53532284
104	0xbd7cdab3	-0.061732005
105	0xbd2f5c67	-0.04281273
106	0xbd54b619	-0.051931474
107	0x3a8d4a35	0.0010779562
108	0xbdcf5e43	-0.10125401
109	0x3df2810e	0.118410215
110	0xbd501103	-0.050797474
111	0xbb27fe7d	-0.0025633865
112	0x3bb496ba	0.005511132
113	0xbd55850b	-0.052128833
114	0xbd65b1cb	-0.05607776
115	0xbd649d64	-0.055814162
116	0xbd31feb1	-0.043455783
117	0xbdbaeebf	-0.091275685
118	0xbdb59d54	-0.088678986
119	0xbdc46e78	-0.09591383
120	0xbcc20af3	-0.023686862
121	0x3d742f6b	0.059615534
122	0xbde204a0	-0.110360384
123	0xbd135d73	-0.035977792
124	0xbd465094	-0.04841669
125	0x3cc2367b	0.023707619
126	0xbdd91a8b	-0.10600766
127	0xbdb5300d	-0.088470556
128	0xbe40f34c	-0.1884281
129	0xbdba2cc3	-0.09090569
130	0xbcf5b210	-0.029992133
131	0xbe0c97cf	-0.13729785
132	0x3e456f8b	0.19280832
133	0xbc244056	-0.0100251045
134	0xbd7a1ee1	-0.061064605
135	0xbe281f61	-0.1641822
136	0xbdddb9d4	-0.108264595
137	0x3dd1fec4	0.10253671
138	0xbde635c2	-0.11240722
139	0xbda01f4b	-0.07818469
140	0xbd0bdeff	-0.034148213
141	0xbc22be69	-0.009933093
142	0xbd42ea16	-0.047586523
143	0xbda4eea3	-0.08053329
144	0x3ec7cf9d	0.39025584
145	0xbdfc4327	-0.12317496
146	0xbdf47031	-0.11935461
147	0xbd52e856	-0.051491104
148	0xbd6fba3f	-0.058527227
149	0xbe6bedfd	-0.23040004
150	0xbcf4c765	-0.029880235
151	0x3b881555	0.0041529336
152	0x3efcee06	0.49400347
153	0xbd236d9c	-0.039899454
154	0xbbb63516	-0.0055605276
155	0xbd86dba4	-0.06584862
156	0xbd2415ef	-0.04005998
157	0xbd601e42	-0.054716356
158	0xbdc90bf0	-0.0981673
159	0xbdd28abc	-0.10280368
160	0xbdbdd535	-0.09269182
161	0x3eac7317	0.33681557
162	0x3ebc7936	0.36811227
163	0x3eb4b98d	0.35297814
164	0xbd8b7540	-0.06809473
165	0xbbe63b98	-0.007026147
166	0x3c3d4c7c	0.01155388
167	0xbe506abf	-0.2035322
168	0xbb850ffb	-0.004060743
169	0xbdbc137d	-0.091834046
170	0x3d4dd268	0.050249487
171	0xbcead717	-0.028667016
172	0xbdfab6e6	-0.12241916
173	0xbd659de5	-0.056058783
174	0xbccf8e0d	-0.02533629
175	0x3c37dc1e	0.011221914
176	0xbe01adaa	-0.12663904
177	0xbc12e358	-0.008965336
178	0xbdaf29ba	-0.085528806
179	0x3f02c110	0.5107584
180	0x3d6662d5	0.056246597
181	0x3d777aa7	0.060419705
182	0x3d5f2441	0.054477934
183	0xbcfaeb62	-0.030629817
184	0x3d699baa	0.05703322
185	0xbd299feb	-0.041412275
186	0x3d9e353b	0.07724997
187	0xbaf19864	-0.0018432257
188	0xbb393cc0	-0.002826497
189	0xbd93babf	-0.07213353
190	0x3cfaed9a	0.030630875
191	0xbe55d8fe	-0.20883557
192	0xbdb20d88	-0.08693987
193	0xbd119707	-0.03554442
194	0xbce85b7f	-0.028363941
195	0xbd7b48b2	-0.061348625
196	0xbd77dd30	-0.060513675
197	0x3ec7380e	0.38909954
198	0xbd2da568	-0.04239407
199	0xbd82f292	-0.06393923
200	0xbd8b7922	-0.068102136
201	0xbd9f9f5a	-0.07794066
202	0xbd1c45a7	-0.038152363
203	0xbc9c9e66	-0.019118499
204	0xbc5ddd92	-0.013541596
205	0xbce561e5	-0.028000781
206	0x3d5e15cf	0.054220017
207	0xbe1b81bd	-0.1518621
208	0xbd808309	-0.06274993
209	0xbce80d73	-0.028326726
210	0xbd89fa20	-0.06737161
211	0xbd23b6c5	-0.039969224
212	0xbd0b3a24	-0.033990994
213	0xbd66506f	-0.05622905
214	0xbcc43ced	-0.023954833
215	0x3edc731b	0.43056569
216	0xbd5eba3f	-0.054376837
217	0xbc8f08cc	-0.01746025
218	0xbd8c5720	-0.06852555
219	0xbccde9ba	-0.025135864
220	0xbd863f5d	-0.06555054
221	0xbc211f97	-0.009834192
222	0xbd44029c	-0.04785405
223	0xbdb237d5	-0.08702055
224	0xbd0ec035	-0.03485127
225	0xbd83d863	-0.06437757
226	0xbda485af	-0.080333106
227	0xbd562db4	-0.05228968
228	0xbd918c9d	-0.07106898
229	0x3f0a74fd	0.5408476
230	0xbca142ad	-0.019685114
231	0xbd990790	-0.074721456
232	0x3c3c0aa5	0.011477147
233	0xbd2e8fbf	-0.042617556
234	0xbda65ec4	-0.08123544
235	0xbc393db0	-0.011306211
236	0xbd14b52c	-0.03630559
237	0xbdcdca97	-0.100484066
238	0x3d9d9f0a	0.0769635
239	0xbbfb926e	-0.007677368
240	0xbcaa3495	-0.020777026
241	0x3edd9413	0.43277034
242	0x3c488365	0.012238358
243	0xbd6685a2	-0.056279786
244	0xbda1874c	-0.07887134
245	0xbcec1ddd	-0.028822834
246	0xbc55df31	-0.013053701
247	0xbde66998	-0.11250609
248	0xbd5e7089	-0.05430654
249	0xbd3dba30	-0.04632014
250	0xbc15e884	-0.009149674
251	0x3ec6dbf0	0.38839674
252	0x3ed902aa	0.42384845
253	0xbc23a72d	-0.009988588
254	0x3adf21f6	0.0017023671
255	0xbd6fa577	-0.05850741

top_layer.bias f4 [10]
0	0x3b269dda	0.0025423677
1	0xbc91212f	-0.017716018
2	0x3b9627b7	0.004582371
3	0xbbd49210	-0.0064871386
4	0x3c7e1194	0.015507121
5	0x3ccb3a91	0.0248082
6	0xbbfb75c9	-0.007673953
7	0xbc2ea178	-0.010658614
8	0xbabb930a	-0.0014310789
9	0xbb639e1c	-0.0034731692

momentum_buffer f4 [16, 1, 3, 3]
0	0xbdb3343f	-0.087501995
1	0xbdb9efdc	-0.09078953
2	0xbdab4326	-0.08362417
3	0xbd51c6d8	-0.051215023
4	0xbd46fa4c	-0.048578545
5	0xbdb1c5cb	-0.08680304
6	0x3afd5854	0.0019328692
7	0xbc92bf5c	-0.017913513
8	0xbd872090	-0.06598008
9	0xbd193577	-0.037404504
10	0xbb9266bc	-0.0044678133
11	0x3cfd359a	0.030909348
12	0xbd1a75eb	-0.03771011
13	0xbd0e264b	-0.034704488
14	0x3bd76171	0.006572895
15	0xbd847cfc	-0.064691514
16	0xbd230094	-0.039795473
17	0x3d243768	0.040091902
18	0xbcb0ddf6	-0.021590214
19	0xbc98be91	-0.018645557
20	0x3c9cae50	0.019126087
21	0x3c6a91af	0.01431696
22	0x3cf9ef76	0.030509692
23	0x3d55af22	0.052168973
24	0x3c38fdb1	0.0112909535
25	0x3d744e95	0.059645254
26	0x3da608dd	0.08107159
27	0xbd316f42	-0.043318994
28	0xbcee2bf7	-0.029073698
29	0x3b637974	0.0034709843
30	0xbd7597c4	-0.059959188
31	0xbbd5aafc	-0.006520627
32	0x3c104257	0.008804879
33	0xbd5a2fb9	-0.053268168
34	0xbb0961d0	-0.0020962842
35	0xbc4a7f8b	-0.01235951
36	0x3ac7e6b4	0.001525125
37	0xbcee6c7f	-0.02910447
38	0xbc8156c8	-0.01578845
39	0x3a6a29c0	0.0008932613
40	0xbd12ffc8	-0.035888463
41	0xbb00b8d8	-0.0019641425
42	0xbd139b25	-0.03603663
43	0xbd13ec77	-0.036114182
44	0x39aa8380	0.00032522902
45	0x3cfef096	0.03112058
46	0x3d4c132c	0.04982297
47	0x3ceb20ff	0.028702257
48	0x3d03ed28	0.03220859
49	0x3d16d690	0.036825716
50	0x3cd12cc5	0.025534043
51	0x3c72d998	0.014822386
52	0x3c2b6cff	0.010462998
53	0x3b340912	0.0027471227
54	0x3e3b5cf2	0.18297175
55	0x3dd65bc2	0.1046672
56	0x3d0ccde1	0.03437603
57	0x3d8b4c66	0.06801681
58	0x3c5cb417	0.013470671
59	0xbd07e136	-0.033173762
60	0x3c6150e4	0.013752196
61	0xba8eb108	-0.00108865
62	0xbc65afaa	-0.014018932
63	0xbcef883b	-0.029239764
64	0x38d74780	0.00010265317
65	0xbb0225a8	-0.001985887
66	0xbd0caa23	-0.034341943
67	0x3c04c55e	0.008103697
68	0x3cd49b59	0.025952982
69	0xbcf7197b	-0.030163517
70	0x3ca29b75	0.019849518
71	0x3d011780	0.031516552
72	0xbb3122de	-0.002702884
73	0xbc8999cf	-0.016796974
74	0xbbd3a592	-0.0064589465
75	0xbd399ffe	-0.045318596
76	0xbd2ab62e	-0.041677646
77	0xbc94bb09	-0.018155592
78	0xbbe391d3	-0.006944874
79	0xbba16c2a	-0.0049262242
80	0xbbe06fda	-0.0068492712
81	0xbbe40aac	-0.00695928
82	0xbc5ef6ea	-0.013608674
83	0xbc5f0798	-0.01361265
84	0xbcd6f947	-0.026241912
85	0xbd0092cf	-0.031390008
86	0x39366380	0.00017393939
87	0xbb3de618	-0.0028976258
88	0x3c932e02	0.017966274
89	0x3cd029fc	0.025410645
90	0xbc698b71	-0.014254437
91	0xbc509fab	-0.01273338
92	0x3a3b0ee0	0.00071357004
93	0x3c0369ce	0.008020831
94	0x3bb9dbc8	0.005671952
95	0x3c7e696c	0.015528064
96	0xbc918357	-0.017762823
97	0xbbbeffe8	-0.0058288462
98	0x3cd48b6c	0.025945388
99	0xbc2db6b6	-0.010602644
100	0xbbdf4bac	-0.0068144407
101	0xbd6dc3ec	-0.058048174
102	0xbc52d5e3	-0.012868377
103	0xbcc171ff	-0.023613928
104	0xbd38b11b	-0.045090776
105	0xbc0bb541	-0.008527101
106	0xbc435cf5	-0.011924018
107	0xbc141750	-0.009038761
108	0x3d2a3b4b	0.041560452
109	0x3cbd0a66	0.023076247
110	0xbcc7c932	-0.02438793
111	0x3d5e8316	0.054324232
112	0x3d199116	0.03749188
113	0xbce8b70b	-0.028407594
114	0x3c903dcc	0.017607592
115	0x3cb889a9	0.022526579
116	0x3cf7910e	0.030220535
117	0xbb951878	-0.004550036
118	0xbc519236	-0.012791207
119	0x3bdce6b0	0.0067413673
120	0xbdc71266	-0.09720306
121	0xbd5613a8	-0.05226484
122	0xbbc311a2	-0.0059530297
123	0xbdd0f8e1	-0.1020372
124	0xbce09f46	-0.027419697
125	0xbca733b2	-0.020410392
126	0xbcb788df	-0.022404132
127	0xbd263ac2	-0.04058338
128	0xbd50d951	-0.0509885
129	0xbd23f7f1	-0.040031377
130	0xbd892144	-0.06695798
131	0xbdc2d926	-0.09514074
132	0x3b8b95cc	0.0042598005
133	0xbd0df3be	-0.03465628
134	0xbdb7ba3f	-0.089710705
135	0x3c0e1ffe	0.00867462
136	0x3c6e013d	0.014526662
137	0x3bfe27fa	0.0077562304
138	0x3cd32f46	0.025779378
139	0x3d1a2650	0.037634194
140	0x3c0b3826	0.008497274
141	0xbcaef6ff	-0.021358011
142	0x3b4c5fb0	0.0031184964
143	0xbbd59908	-0.006518487

momentum_buffer f4 [16]
0	0xb6b93bd4	-5.5203946e-06
1	0x36dee8b8	6.6432076e-06
2	0x378a34a4	1.6475395e-05
3	0x37d7c6b5	2.5722527e-05
4	0x37f33dfe	2.8996725e-05
5	0xb7d38638	-2.521566e-05
6	0x370587a2	7.958997e-06
7	0xb765c802	-1.3696032e-05
8	0xb669a38c	-3.4814902e-06
9	0xb7c7eaae	-2.383193e-05
10	0x37f33b2b	2.899541e-05
11	0xb7c46092	-2.340999e-05
12	0x378efc2f	1.7045151e-05
13	0x373c4806	1.12224425e-05
14	0x372d7a8a	1.0340134e-05
15	0xb79087f5	-1.7229448e-05

momentum_buffer f4 [16]
0	0xbd5213d3	-0.051288437
1	0xbd2d8af0	-0.04236883
2	0x3c76d80b	0.015066157
3	0xbc3549ce	-0.01106496
4	0xbe3227d2	-0.17398003
5	0x3bbf2590	0.005833335
6	0x3dc4f6ee	0.096174106
7	0xbe09caf1	-0.13456322
8	0xbc89f498	-0.016840264
9	0x3cea2c9e	0.028585728
10	0xbd1459ce	-0.036218457
11	0x3c2c61ec	0.010521393
12	0xbc4c4e08	-0.012469776
13	0x3c6c1106	0.014408356
14	0x3d96027d	0.07324693
15	0x3d4c15c5	0.04982545

momentum_buffer f4 [16]
0	0x3cb16943	0.021656638
1	0xbce3ab14	-0.027791537
2	0x3c14898a	0.009065995
3	0x3dea5b6d	0.11443219
4	0xbdf72d55	-0.12069193
5	0x39f4c700	0.00046687573
6	0x3e70e934	0.2352646
7	0xbd48de52	-0.049040146
8	0xbc894e21	-0.016760888
9	0x3d9ac3ea	0.07556899
10	0xbd316200	-0.04330635
11	0x3d547da0	0.051877618
12	0xbafca768	-0.0019275965
13	0x3d53cffa	0.051712014
14	0x3e6eb6de	0.23311946
15	0x3dab3692	0.08360018
