deepcluster_implementation/experiments/run_label_fraction_variation/config_2/checkpoints/checkpoint_epoch_5.pth.tar (torch, 203702 bytes, 32 tensors)

features.module.0.weight f4 [16, 1, 3, 3]
000000 4d 79 8f 3f e5 63 6b be 1d 81 fe be 5c e5 02 3e
       1.1208893 -0.22987325 -0.4970788 0.12782806
000010 6e 23 6b bd 83 74 d1 bd 9f a2 23 bf 34 58 18 3e
       -0.057406835 -0.10227301 -0.63920015 0.14877397
000020 92 32 a2 3f c1 fe 39 3f f9 e6 40 3e eb 66 41 3f
       1.2671683 0.7265435 0.18838109 0.75547665
000030 b3 d1 4b 3e 94 d0 20 bf ae b7 29 3e b8 3a ad be
       0.19904213 -0.62818265 0.16573974 -0.3383386
000040 a0 d7 e8 bd b1 02 1e 3f 93 73 54 bf 4d ea 23 bf
       -0.11369252 0.61722857 -0.8298885 -0.6402939
000050 80 be a7 be a6 04 b0 be 61 0a 3d 3f a5 95 a9 3e
       -0.32762527 -0.34378546 0.7384396 0.33121982
000060 6b 0e 40 bf 81 75 ba 3c 4c 49 a2 3c 59 88 b7 bf
       -0.75022 0.022761108 0.019810341 -1.4338485
000070 4c e1 10 bd 75 e1 58 bf 56 29 59 3e 38 f9 b1 bb
       -0.03537111 -0.8471902 0.21207175 -0.0054313205
000080 56 d1 1d be dd b8 2d 3f 1d 8d a6 be 43 a9 6c 3f
       -0.15411887 0.67860204 -0.32529536 0.9244577
000090 e0 68 f2 3d b0 85 3e 3e 1c 88 46 3f 7b 26 85 be
       0.118364096 0.18605685 0.77551436 -0.2600592
0000a0 94 b3 07 bf de d1 fe be 1e 3e 67 3f 5d 1f 79 3e
       -0.5300839 -0.4976949 0.9032916 0.2432837
0000b0 37 ac e7 3e 58 f7 4c 3f f4 f6 cc 3e 37 fa 12 bf
       0.45248577 0.80064917 0.4003216 -0.5741305
0000c0 c1 2b d4 bc fd 33 8d 3e 9e 10 13 bf 30 1e 33 bf
       -0.02589977 0.27578726 -0.5744723 -0.6996794
0000d0 35 1c 4c bf 1e 8e 19 3e 8c 4c 66 bd af 8e 97 3e
       -0.7973054 0.1499562 -0.056225345 0.29601046
0000e0 d7 ed 74 3f 69 71 b5 be f4 e0 6b 3e d9 ff c6 3e
       0.95675415 -0.35438088 0.23035032 0.3886707
0000f0 2d 18 48 bf 28 e1 58 bf 06 21 88 bf e9 7d a6 3e
       -0.7816189 -0.8471856 -1.0635078 0.32517937
000100 de c0 ff be fb 79 88 bf 8a 03 7d 3e d6 62 8d bd
       -0.49951833 -1.0662225 0.24708381 -0.06903617
000110 11 5c be be 0a ac ef bb 22 81 6b 3f d2 8e 8a 3f
       -0.37179616 -0.00731421 0.91993916 1.0824835
000120 5d 9b 27 3f 67 30 9a be fe d9 ec be a6 52 7b bf
       0.6547144 -0.30115053 -0.46260065 -0.98172987
000130 2a a2 b0 be bf d7 c1 be 5a d5 1c 3f 53 db 1e 3f
       -0.3449872 -0.37859914 0.6126305 0.6205341
000140 c5 a4 17 bf 82 7d 5c bd ee e2 99 3d 61 c9 c2 bd
       -0.59235793 -0.05383063 0.075139865 -0.09511066
000150 57 2b 2f be af db 63 3e e7 25 af 3e f1 23 7e bf
       -0.17106377 0.22251771 0.34208605 -0.9927359
000160 d1 b1 b4 be 54 a1 83 3f f1 da 96 3e 2d 4f ef be
       -0.35291913 1.0283608 0.29463914 -0.46740094
000170 d9 95 bd 3e 61 f7 b1 3e df de 28 bf 64 75 ca bb
       0.37028387 0.34759048 -0.65965074 -0.006178545
000180 d7 db 83 3f c0 60 53 bf 45 d5 2f 3b 3f f1 45 bf
       1.0301465 -0.82569504 0.002683 -0.7732124
000190 3a ce 9b 3e dc b7 92 3e c5 57 eb be 92 a5 c0 3e
       0.30430776 0.286559 -0.459654 0.3762632
0001a0 20 d4 b6 3e c0 cb 33 bf e4 5b 3f bf 78 c9 19 bf
       0.35708714 -0.7023277 -0.7474959 -0.6007304
0001b0 9f 51 3c bf 76 f1 47 bc 40 bb 71 3f 63 74 01 bf
       -0.73562044 -0.012203565 0.94426346 -0.5056822
0001c0 f6 dc da bd 18 bd 15 be 53 96 c8 be 1e 6a dd be
       -0.10686676 -0.14622915 -0.39177188 -0.43245023
0001d0 85 8d d7 3d 8f 3e 87 be 30 85 88 be f0 0d 9e be
       0.105250396 -0.26414916 -0.26664114 -0.30870008
0001e0 85 c9 c6 3e 30 fd 66 3e e7 04 47 bd 4a e4 aa be
       0.38825622 0.22557521 -0.04858866 -0.33377296
0001f0 b6 cb da bd ab cc df be 65 f5 c6 bf fd 05 10 bf
       -0.10683386 -0.43710837 -1.5543638 -0.5625914
000200 92 97 17 3f c3 cc bf 3d 85 ee 5f 3f fb 0a 04 be
       0.5921565 0.09365227 0.87473327 -0.12894814
000210 bc 58 09 3f 2a c9 a4 3e bd 83 b6 bf 09 cf 3f bf
       0.5365102 0.32184726 -1.4258953 -0.74925286
000220 04 c7 36 bf 49 40 3c bf 52 dc 10 3f 3f 3c a2 3e
       -0.71397424 -0.7353559 0.5658618 0.3168659
000230 31 35 b9 be 90 d0 95 3e 16 40 8f 3e 53 ad 16 bf
       -0.36173394 0.29260683 0.2797858 -0.5885822

features.module.0.bias f4 [16]
000000 66 d7 66 bd fe 9c 8b 3d 5f 89 2c 3e 29 e8 86 3e
       -0.056357764 0.06817053 0.16849278 0.26349
000010 70 3a 98 3e 27 80 84 be c9 38 a8 3d 25 c1 0f be
       0.29732084 -0.25879022 0.08213956 -0.14038523
000020 06 80 12 bd b8 28 7a be 41 36 98 3e 90 4b 75 be
       -0.035766624 -0.24429595 0.29728892 -0.23954606
000030 f7 9d 32 3e e3 e9 ea 3d 9c 35 d9 3d b5 b1 34 be
       0.17443071 0.114703916 0.10605928 -0.17645915

features.module.1.weight f4 [16]
000000 22 9e 64 3f 14 0d 5a 3f a7 6d be 3f 5b 48 90 3f
       0.8930379 0.85176206 1.4877213 1.1272081
000010 98 af 31 3f 3c 6f 7b 3f e9 d7 78 3f 0b 33 46 3f
       0.6940856 0.98216605 0.9720445 0.77421635
000020 c0 bf a0 3f c6 8a 03 3f 4a 82 04 3f 0a 61 df 3f
       1.2558517 0.51383626 0.51761305 1.7451489
000030 49 c7 aa 3f 70 75 ba 3f a0 65 68 3f e0 cc c9 3f
       1.3342067 1.4567089 0.9078007 1.5765648

features.module.1.bias f4 [16]
000000 04 5a b4 bf e8 b7 aa bf 97 cf 93 be b0 1d 5b be
       -1.408997 -1.3337374 -0.28869316 -0.21398044
000010 cc ed 8d bf a5 13 f0 be a9 f0 75 be bc bb 0f bf
       -1.1088195 -0.46889988 -0.24017586 -0.56145835
000020 bc 0f e6 be e5 11 61 bd b7 28 6e be 10 41 08 bf
       -0.4493388 -0.054948706 -0.23257719 -0.5322428
000030 fe b2 15 bf 51 7a 96 be 26 56 f7 be 54 6f ad be
       -0.58476245 -0.29390195 -0.48307914 -0.33874

features.module.1.running_mean f4 [16]
000000 1e b1 9e bc 45 30 03 3e b4 c0 d0 3d e2 51 74 3e
       -0.019371565 0.12811382 0.10193005 0.23859361
000010 1e d3 b8 3e 79 49 92 be 88 74 3d 3d 48 0e fe bd
       0.3609857 -0.2857168 0.04625371 -0.12405068
000020 6e a1 3c bd b1 7d 7f be 2a 2b aa 3e a3 5f 9b be
       -0.04605239 -0.24950291 0.33236057 -0.30346403
000030 d8 c3 1d 3e 65 5f 97 3d 93 45 3a 3d 79 52 6f be
       0.1540674 0.07391242 0.045476507 -0.23371305

features.module.1.running_var f4 [16]
000000 2d f7 bd 3f d3 45 ea 3f 0a 6b 36 40 50 7e 2f 40
       1.4841057 1.8302559 2.8502831 2.7420845
000010 ec d5 ab 3f 6a 66 16 40 db fa 5f 40 26 ae 1c 40
       1.3424659 2.3500009 3.499686 2.4481292
000020 de 6e e4 3f d6 13 ac 3f 9a bb 30 3f 0c 5e 58 40
       1.7846334 1.3443553 0.6903626 3.3807402
000030 74 85 13 40 82 a6 48 3f 6f 6f 12 40 19 10 31 40
       2.3050203 0.7837907 2.2880514 2.7666075

features.module.4.weight f4 [32, 16, 3, 3]
000000 91 8a 58 be 17 ec 44 be 53 a0 9c 3c fc 0a 27 be
       -0.21146609 -0.19230686 0.019119417 -0.16312784
000010 76 23 45 bd f5 07 67 3d ca 1c 94 3b ef 62 69 3d
       -0.04812952 0.056404073 0.0045200335 0.056979116
000020 a4 d2 5d b8 b1 09 2d 3d 50 00 ba bd 33 f8 82 be
       -5.288668e-05 0.04224557 -0.09082091 -0.25579986
000030 0d fe a8 bd 8e 58 d9 bd da 60 a1 be 60 23 e8 bd
       -0.08251581 -0.106125936 -0.31519204 -0.11334872
000040 98 ad 02 be d2 1e 39 be a0 a8 95 3d cd 4d 08 bd
       -0.12761533 -0.18078163 0.07307553 -0.03327732
000050 3e 5a 93 3c 82 e7 db 3c bb 5b 5b bb a0 3b 88 3c
       0.017987367 0.02684379 -0.0033471424 0.016629994
000060 75 22 04 3d 33 40 b5 bc 1a 42 b9 3c bd 3f 2e bd
       0.032259423 -0.02212534 0.022614527 -0.042541254
000070 0b 26 7c bd 85 74 70 bd 33 fd 48 bd f1 20 85 3b
       -0.061559718 -0.05870487 -0.049069595 0.004062765
000080 2f 5f bf 3b c4 a8 1e ba 20 c2 93 3d 2a f2 ad bb
       0.005840204 -0.000605237 0.07214761 -0.005308409
000090 18 93 70 bd 0e 04 ba 3d 5d 54 fa bd 76 5a 07 be
       -0.05873403 0.090828046 -0.12223122 -0.13218102
0000a0 e5 7e 1c 3e 53 ad 0e be b1 3d 19 bd e5 95 45 3e
       0.15282781 -0.13933305 -0.03741235 0.19295461
0000b0 c7 7a 26 be f8 1b 6d be 5f d0 ec bd 12 31 86 bd
       -0.16257773 -0.231552 -0.11563181 -0.06552328
0000c0 87 50 9b bc fb a0 a0 3c a7 5f 7f 3c 70 11 84 3d
       -0.018959297 0.019608011 0.01558677 0.064486384
0000d0 b6 3e d1 3d 3b b7 f5 3d 06 c5 18 be 92 66 e4 bd
       0.10217039 0.11997839 -0.14918908 -0.11152376
0000e0 16 f1 9d be 50 e1 36 3d 08 5b 1d bc 18 ef 60 be
       -0.30847996 0.04464847 -0.009604223 -0.21966207
0000f0 a5 d7 73 3e 5a 7c 07 3e c3 88 b9 bd d4 f9 6b be
       0.2381273 0.1323103 -0.09059288 -0.2304452
000100 50 52 13 be 69 a7 07 bd 53 5b 3b bd 95 0b 12 bd
       -0.14386868 -0.03311864 -0.04574139 -0.035655577
000110 40 2a 30 bc 60 4a 6e 3d ac d9 dd 3c d5 a1 ae bd
       -0.010752261 0.0581764 0.027081333 -0.08526961
000120 8b da 48 be 7c 26 df 3c f6 67 71 bd 2c f6 86 bd
       -0.19614618 0.02724003 -0.058937036 -0.06589922
000130 25 a3 6d bd 97 22 f9 bd c2 7e 28 be 64 88 e3 3d
       -0.058016915 -0.121648006 -0.16454604 0.11109999
000140 14 5a 4d 3d 74 86 4b bd b1 6a 05 3d 09 91 d6 bd
       0.050134733 -0.04968877 0.032572452 -0.10476882
000150 7c 98 2d bd 3a 9d d1 bd f0 8f 19 be 79 ab 21 3e
       -0.04238175 -0.10235067 -0.14996314 0.15788068
000160 dc 78 ed bd ea 0b 7f be ea 67 3a be 03 69 46 bd
       -0.11595318 -0.24906889 -0.18203703 -0.04843999
000170 0e 2d 92 bd 20 29 62 be 9f d9 98 3b 96 b0 9f bd
       -0.071375 -0.22086 0.0046646143 -0.07797353
000180 b0 3b 49 be d2 58 35 be 4f bf 06 3c 1d 16 27 3c
       -0.19651675 -0.17709664 0.008224322 0.010198143
000190 b9 da 06 3c fe 0f 7b 3d f4 c5 0b 3d 16 80 cb ba
       0.0082308585 0.06129455 0.03412433 -0.0015525843
0001a0 d7 94 cd bb 66 30 0b 3e e1 b3 37 3d 77 34 52 3d
       -0.0062738466 0.13592681 0.04484928 0.051319566
0001b0 b8 73 b1 3d 82 55 1e be 79 24 2b be a1 2f f2 3c
       0.0866465 -0.15462306 -0.16713132 0.029563727
0001c0 1d 07 6d bd 94 c5 c3 bc 2f 77 81 3d f0 00 6f 3c
       -0.057868112 -0.023897924 0.063215606 0.014587626
0001d0 c1 e5 d3 bd 94 b1 63 3d e0 bb 33 39 a5 4c 38 3d
       -0.103465565 0.055589274 0.00017140759 0.04499497
0001e0 3c 34 ba bb 81 67 7d 3c c8 c5 a9 3c eb 1f bc bb
       -0.0056824964 0.015466572 0.020724192 -0.0057411096
0001f0 94 3a ae 3c a8 42 9c 3d f4 1e 1b be 70 7e 1a be
       0.021268167 0.07629901 -0.15148526 -0.15087295
000200 41 f7 4b be 5f 22 3a bd 04 c1 2a bd ac 79 b7 bd
       -0.19918539 -0.045442935 -0.04168798 -0.08958754
000210 01 ee 71 bd 9d 7b 24 bd 9f 28 9d 3c 0e 50 70 3d
       -0.05906487 -0.04015695 0.019184409 0.058670096
000220 7f e4 09 bc 26 59 ac bc 32 de d0 3c eb 82 dd 3b
       -0.008416294 -0.021038603 0.025496576 0.0067599914
000230 c1 7b 04 bd 68 1c 27 bc 4d 4c 03 bd cc 5b 35 3d
       -0.032344583 -0.010199644 -0.032055188 0.044276997
000240 0d aa 32 be 37 fc 81 be d6 f4 39 be 8b ef 8f be
       -0.17447682 -0.25387737 -0.18159804 -0.28112444
000250 d6 16 02 be 28 20 c2 bd 50 04 9f be ce d8 6a be
       -0.12704024 -0.094787896 -0.31057978 -0.22934267
000260 ed 84 6b be a6 a9 2b 3b 86 29 36 be 00 17 93 be
       -0.22999926 0.0026193648 -0.17789277 -0.28728485
000270 0f 46 82 3c 74 83 a4 bd 99 a7 a8 be 8b d4 bc bd
       0.015902547 -0.08032885 -0.32940367 -0.09220227
000280 10 e1 43 be 09 8a d6 be e3 6e e1 3d fa a8 db bd
       -0.19128823 -0.41902187 0.11007478 -0.10725589
000290 db b4 80 bc 08 ba 94 3d eb 63 f3 bd e3 4e 9b bd
       -0.015711239 0.07262045 -0.11884292 -0.07583406
0002a0 c5 63 d5 3d 09 d2 2f be 20 aa d5 bd b9 ea 76 be
       0.1041942 -0.17169966 -0.104328394 -0.24112977
0002b0 1d 95 3c be 67 9b 4c be 25 e9 9e be 52 7a 59 bb
       -0.18416257 -0.19981156 -0.3103725 -0.003318448
0002c0 e5 2f 03 3d 0b 32 d1 be 90 97 50 be 8d 8d 9b be
       0.032028098 -0.40858492 -0.20370317 -0.30381432
0002d0 0f 89 01 bd 85 97 0a 3e 22 88 1b be d7 e1 80 bd
       -0.03162485 0.13534363 -0.1518865 -0.062930755
0002e0 ff 61 16 3e 95 92 7e be 93 f6 f4 3c 11 d5 57 3e
       0.1468582 -0.24860604 0.029902732 0.21077372
0002f0 1e 21 e3 be 7b f8 a4 3d 2d 11 46 3d 82 4e e2 bd
       -0.44361204 0.080552064 0.048356224 -0.110501304
000300 d4 e1 c1 bd a8 35 20 3c 77 ff 1b bd ab 40 c2 bd
       -0.094669014 0.009778418 -0.038085427 -0.09484991
000310 27 2f 5f bc 7e aa d0 3c af ea 46 be f3 c7 a5 bd
       -0.013622082 0.025471922 -0.19425462 -0.08094778
000320 bb 34 db bc 3d ad 81 be 42 2c 40 bd 05 62 68 bd
       -0.026758542 -0.25327483 -0.046917208 -0.056734104
000330 b4 39 46 be ca 33 ae 3d e5 a3 30 3d 8e d3 cc be
       -0.1935795 0.08505972 0.043125052 -0.40005153
000340 52 8c 20 be ad 75 c6 bd 62 f7 69 bd 44 4d f3 3d
       -0.15678528 -0.096904136 -0.05712069 0.118799716
000350 b9 89 34 3c 5f 9e 93 be 30 aa 85 be e1 5d 7f be
       0.011019164 -0.28831765 -0.26106405 -0.24938156
000360 dc da a8 3d be 30 de 3c 0d 2d 06 bd d2 8e e5 3d
       0.08244869 0.027122851 -0.032757808 0.112088814
000370 5a a8 bc 3d 1d 89 e8 3c d2 41 19 be 0e 02 0f be
       0.09211798 0.028385693 -0.14966515 -0.13965628
000380 d9 89 31 bd c7 59 34 3d 75 79 cf 3d e7 0a a5 bd
       -0.043344352 0.04403093 0.10130588 -0.0805872
000390 0c 88 53 3d 0f 1d 1b 3e 64 dc 22 be 1a 01 c5 3d
       0.051643416 0.15147804 -0.15904385 0.09619351
0003a0 2f 25 5b be cb e6 a6 be d5 31 3c 3d 5d ba c8 3d
       -0.21400903 -0.32597956 0.04594596 0.09801171
0003b0 77 c9 68 bc 3a 4e 45 3b 1a e1 5a 3d c7 a8 b4 bc
       -0.014208189 0.003010644 0.05343733 -0.022053136
0003c0 e8 9e 07 3e 12 95 53 3d 68 2b c3 3d 44 ef 5d be
       0.13244212 0.051655836 0.095297635 -0.21673304
0003d0 b3 ee aa bd d5 3f e1 3c fc 86 9b bd cf ae 71 3d
       -0.083463095 0.027496258 -0.075941056 0.0590046
0003e0 78 7a 60 bd 7a 96 1d be a6 31 28 bd 46 79 89 bd
       -0.054804295 -0.15389434 -0.041062973 -0.06712584
0003f0 d4 1a 09 3e fc b2 c4 bd b7 e0 70 3e 1c 82 0f bc
       0.1338914 -0.09604451 0.23523222 -0.008759048

features.module.4.bias f4 [32]
000000 7e a6 ad 3c 83 b8 27 3d d1 c6 98 bd d6 16 69 bd
       0.021197554 0.04094745 -0.07459796 -0.056906544
000010 54 5f a0 bd ff 02 1c 3d e6 a6 7a 3d 28 8d a0 bd
       -0.078306824 0.038088795 0.061194323 -0.078394234
000020 7a c3 ad 3c 46 8f 87 3c b6 59 33 bd 2e 6b 90 3c
       0.021211375 0.01654781 -0.043786727 0.017629232
000030 03 da 80 3d ac e8 a3 3d 28 86 10 3d 3c 8a 84 bc
       0.062915824 0.08003363 0.03528419 -0.016179197
000040 4c 29 3e bd 5d 95 fe bc 52 5c 2f 3a e3 58 c4 bb
       -0.046426103 -0.031077081 0.0006689477 -0.0059920414
000050 e7 de 73 3d 72 03 97 bd cc a5 ee 3b 66 97 d4 bc
       0.059538748 -0.07373704 0.007282948 -0.025951099
000060 ab f3 de 3b a9 b2 a0 3d 15 67 1c 3b 69 dd 67 bc
       0.00680395 0.07846577 0.0023865153 -0.014151909
000070 bd 8c e2 bc 67 c2 a6 bd 23 65 97 bd 34 9f 11 3d
       -0.027655 -0.08142548 -0.07392337 0.03555222

features.module.5.weight f4 [32]
000000 fd 77 50 3f 62 02 87 3f 50 42 2b 3f 44 bb 69 3f
       0.8143309 1.0547602 0.6689806 0.9130137
000010 2d 55 78 3f 06 39 6b 3f 77 37 3c 3f ff f0 25 3f
       0.9700497 0.91883886 0.7352213 0.64820856
000020 36 c6 69 3f 63 5f 85 3f 43 67 0e 3f e7 28 9b 3f
       0.9131807 1.0419735 0.55626315 1.2121857
000030 8a 62 2c 3f ea 0e 14 3f 03 16 84 3f ad 1a 1f 3f
       0.6733786 0.5783526 1.0319217 0.6215008
000040 4d 31 2c 3f d7 ce 52 3f c3 f0 03 3f ed 16 2d 3f
       0.6726273 0.8234686 0.5153925 0.67613107
000050 97 2f 9e 3f 53 10 44 3f d2 ea 72 3f dd 40 3c 3f
       1.2358273 0.7658741 0.9488956 0.73536474
000060 c9 7f 88 3f 0c c6 4f 3f 2a e4 30 3f aa be 73 3f
       1.0663997 0.8116157 0.6909815 0.95212805
000070 56 c9 4b 3f ec 60 3b 3f 56 9e a0 3f 00 5e 38 3f
       0.7960409 0.73194766 1.254832 0.7201843

features.module.5.bias f4 [32]
000000 eb 8f c0 be bd 83 80 bf 0e c9 a6 be d3 e1 71 bf
       -0.376098 -1.0040203 -0.32575268 -0.94485205
000010 b5 85 47 bf e1 cc 3b bf 79 e4 56 bf 80 2d 4d bf
       -0.77938396 -0.73359495 -0.8394237 -0.8014755
000020 be 73 2f bf 97 ff 4f bf bd 1b 62 be 12 f6 41 bf
       -0.68535984 -0.81249374 -0.22080894 -0.757661
000030 e8 08 9c bf 6d 4b 14 bf d3 a0 58 bf 7c 0d 4d be
       -1.2190218 -0.5792759 -0.846204 -0.20024675
000040 4a da 42 bf 5e ef 55 bf 66 df 47 bf 79 1f 8f bf
       -0.7611433 -0.8356837 -0.78075254 -1.118148
000050 d0 9a 5f bf 0e 5b 22 bf 17 95 38 bf 52 7a 1d bf
       -0.873456 -0.6342019 -0.72102493 -0.6151477
000060 68 53 04 c0 86 b4 45 bf a3 4e cd be 52 2b 4f bf
       -2.0675907 -0.7722858 -0.40099058 -0.80925477
000070 95 03 1d bf ee 59 12 bf 34 47 8c bf 85 e1 4e bf
       -0.6133359 -0.5716847 -1.095923 -0.80812865

features.module.5.running_mean f4 [32]
000000 5f 9f b9 be c7 a3 e6 bf e9 f2 14 bf fe ba 73 bf
       -0.36254403 -1.8018731 -0.5818315 -0.952072
000010 3c 40 49 bf 7d 30 ad bf 60 8a a5 bf e7 74 87 bf
       -0.7861364 -1.3530422 -1.2932854 -1.0582551
000020 1f c9 33 bf 82 31 59 bf c6 25 98 be e3 86 89 bf
       -0.7022876 -0.8484117 -0.2971632 -1.0744289
000030 b3 73 f4 bf 9f 24 63 bf e0 8b 8a bf 46 ae 6b bf
       -1.9097809 -0.88727754 -1.0823936 -0.92062795
000040 60 03 c3 bf 5e 15 c4 bf eb 43 9d bf 7a be cf bf
       -1.5235405 -1.5319021 -1.2286352 -1.6230004
000050 29 f3 79 bf 37 b7 0d bf 48 8f 98 bf 1f e2 5d bf
       -0.9763666 -0.5535769 -1.1918726 -0.8667316
000060 08 98 1c c0 55 91 61 bf 75 e5 0a bf b6 f7 c8 bf
       -2.4467793 -0.88112384 -0.54256374 -1.5700595
000070 e1 18 c2 be a4 cb 4f bf 0e ef 7e bf 92 77 aa bf
       -0.37909606 -0.81170106 -0.9958352 -1.331774

features.module.5.running_var f4 [32]
000000 46 81 33 3f d9 8c 0e 40 08 d7 18 3f 55 6d 99 3f
       0.7011913 2.2273467 0.5970311 1.198649
000010 cf a1 93 3f 4c 9e ce 3f 95 77 4d 3f 65 8b 28 3f
       1.1533755 1.6142058 0.8026059 0.658377
000020 78 88 c1 3f b7 3c ea 3f 16 0d 37 3f b0 e9 22 40
       1.5119772 1.8299779 0.7150434 2.5455132
000030 ca ad 8c 3f 32 1b 05 3f 49 e7 a4 3f fb 46 6a 3f
       1.0990536 0.5199462 1.2883083 0.9151456
000040 2d b7 bf 3f d9 2a d8 3f 09 13 30 3f 69 34 57 3f
       1.4977776 1.6888076 0.68779045 0.84064347
000050 86 c8 e5 3f 33 fc 56 3f 70 ec a1 3f 69 c5 4b 3f
       1.795182 0.83978575 1.265028 0.795981
000060 08 ff b9 3f d1 f8 96 3f 2a 27 b8 3f 18 59 fe 3f
       1.4530954 1.1794683 1.4386952 1.9870939
000070 af d7 9a 3f 16 28 a8 3f af b9 fd 3f 66 ef 95 3f
       1.2097071 1.3137233 1.9822291 1.1713684

features.module.8.weight f4 [64, 32, 3, 3]
000000 58 c4 0b bc c4 8a 93 b7 35 22 d1 bb 5a 29 a2 bc
       -0.008530699 -1.7588383e-05 -0.0063822516 -0.019795109
000010 33 e5 9b bc 61 98 cf bc c5 32 e1 ba 3a e2 9f bc
       -0.01903019 -0.025341215 -0.0017181268 -0.019517053
000020 19 fd eb bc e5 21 9a bd 2f ad 29 bd 50 66 b6 bb
       -0.02880721 -0.07525996 -0.041424926 -0.005566396
000030 30 6b 3d bd ad 29 ab bc 89 e5 35 3c f9 94 de bc
       -0.0462448 -0.020893896 0.011102089 -0.027170645
000040 13 4b 7b bc a0 ef db 3b bf 69 7b bc 00 b6 86 bc
       -0.015337723 0.006711915 -0.015345036 -0.016444206
000050 84 f3 62 bc 1d 8b 2d bc d6 f6 23 bc 2f c1 83 bc
       -0.013852004 -0.010592249 -0.010007581 -0.016083328
000060 9d a7 a5 bc 01 2c 24 bc d2 d4 2a bb b5 c1 d7 3d
       -0.020221526 -0.010020257 -0.0026066792 0.105349936
000070 46 88 be 3d 2f e8 22 3e 8b 53 ac 3d c2 3f 89 3d
       0.09303336 0.15908884 0.08414372 0.06701614
000080 50 01 2b 3e 3d c1 14 3e 8c 51 0e 3e 90 4c 8c 3e
       0.1669972 0.1452684 0.13898295 0.27402163
000090 5e e0 d7 bc ff d4 a0 bc 42 77 07 bd f4 e2 33 bc
       -0.026352104 -0.019632814 -0.033072717 -0.010979403
0000a0 89 28 11 bc 63 6a 46 bc b9 7e 0c bc bd ef e4 bb
       -0.008859762 -0.0121103255 -0.008575135 -0.006986587
0000b0 58 ce 0a bc 56 93 c2 bd d7 97 67 bd ff 14 5d bd
       -0.008472048 -0.09500758 -0.05654129 -0.0539751
0000c0 08 8c a2 bd 12 a0 71 bd 2f 93 85 bd a6 8d 7f bd
       -0.07936865 -0.058990546 -0.06522214 -0.062390946
0000d0 65 45 6a bd 8c d9 9b bd 9b 18 87 3e 8e 04 9e 3d
       -0.057195086 -0.07609853 0.2638596 0.077157125
0000e0 f5 f5 e4 3d cd f1 28 3e 01 e7 77 3d 74 4d de 3d
       0.11179725 0.1649849 0.060523037 0.10854617
0000f0 c8 d8 0c 3e 85 b9 ba 3d 7c 7b d9 3d 6d a3 a8 3b
       0.1375457 0.09117416 0.10619256 0.005146435
000100 1f 4f 46 bc 57 96 13 bd 2f 20 39 3c a4 d8 63 bb
       -0.012103825 -0.036032047 0.011299177 -0.003476658
000110 76 43 9a bc b3 f4 6b 3c 26 b3 94 bb e7 7b a6 bc
       -0.018830996 0.014401603 -0.0045379577 -0.020322753
000120 c4 0a 10 3d 8c cb ff 3c 06 e9 09 3c 72 0e 12 3d
       0.035166517 0.031224988 0.0084173735 0.035658307
000130 d7 f9 ae 3c 7b 8c d3 bb f6 17 5a 3c e0 65 ea b6
       0.021359367 -0.0064559556 0.013311377 -6.9856032e-06
000140 60 97 c0 bc 30 47 0a bd a0 00 bd bc 74 91 d8 bc
       -0.023509681 -0.033759296 -0.023071587 -0.026436545
000150 0a 02 02 bd f3 09 b3 bc 5e f8 07 bd 71 17 06 bd
       -0.031740226 -0.02185533 -0.033195846 -0.0327372
000160 47 58 cb bc 60 a5 f3 bc 86 3c 7a bb a5 41 70 bc
       -0.024822367 -0.029741943 -0.0038183047 -0.014664088
000170 37 84 24 bc 30 b4 8a bc aa 00 93 bc a4 cd a7 bc
       -0.010041288 -0.016931623 -0.017944653 -0.0204838
000180 d9 78 4c bc ee 9e 9b bc c8 bf f5 bc e3 e2 0c bc
       -0.012479984 -0.018996682 -0.029998675 -0.008599016
000190 43 fb 1b bc e2 6a b4 bc 91 1a 5a bc 9e ca 18 bc
       -0.009520355 -0.022023622 -0.013311998 -0.009325651
0001a0 9d 93 ad bc 68 94 da bc c1 d3 8e bc b6 5e f0 bc
       -0.021188552 -0.026682094 -0.017434957 -0.029342037
0001b0 e9 96 a8 bc cd 0f b7 bb 40 a4 45 bc 2a 4c 54 bc
       -0.020579772 -0.0055866004 -0.012063086 -0.012957612
0001c0 87 30 16 bc 68 ea fa bb ae 48 2a bd 83 9b ef bc
       -0.009166843 -0.007657338 -0.04157322 -0.029248958
0001d0 7c d0 02 bd ac c7 64 bd 09 3e 23 bd 6e f7 2f bd
       -0.031937107 -0.055854484 -0.039854083 -0.042960577
0001e0 70 8b db bc 56 1e 3c bc db 01 d8 bc a8 6e 6b bc
       -0.026799887 -0.011481842 -0.026368072 -0.014369644
0001f0 1b d9 11 bc 18 ad 79 bc 94 d9 2d be f0 da 39 bd
       -0.00890186 -0.015239023 -0.1697753 -0.04537481
000200 4c d8 ed 39 9b de c5 bd 95 2f 96 bc 9f 83 79 3b
       0.00045365316 -0.09661599 -0.018333236 0.0038072837
000210 e1 07 30 bd 59 98 99 3b a2 00 4d 3c 74 f1 de bc
       -0.042976264 0.0046873507 0.012512358 -0.027214743
000220 d7 6e 06 bd 46 11 a1 bc 14 ff ab bc 24 c7 e7 bc
       -0.03282055 -0.019661557 -0.020995654 -0.0282932
000230 0b e0 af bc 8a 64 21 bd f5 0b 27 bd a1 6c 15 bd
       -0.021469137 -0.039402522 -0.040782887 -0.03648055
000240 68 4f 8f bc fc aa 93 bb 0f 5c 45 bc db ed 59 bb
       -0.017493919 -0.004506467 -0.012045874 -0.0033253345
000250 52 12 09 3c d5 3e 49 3c 51 f6 34 3b 67 ab 37 3c
       0.008366184 0.012283047 0.0027612636 0.011210299
000260 4a 73 20 3c 98 21 47 3e 75 59 f5 3d 20 dd 29 3e
       0.009793112 0.19446409 0.11979953 0.16588259
000270 3a f6 14 3e 0e 42 cf 3d a1 2b 2a 3e d5 45 28 3e
       0.14547053 0.10120021 0.16618206 0.16432889
000280 97 56 00 3e 1d f6 61 3e 1d 63 41 bc 25 95 f5 3b
       0.12533031 0.22066541 -0.011803416 0.007494586
000290 5b 76 ea 3a 45 d3 32 bc 09 92 31 bb 48 9b f2 bb
       0.0017888056 -0.010914628 -0.00270951 -0.007403765
0002a0 85 8a d7 bc 52 fa 99 bc ec 95 d5 bc db 83 df 3c
       -0.026311168 -0.01879612 -0.026072465 0.027284553
0002b0 0e 7d 7f 3c 51 25 c8 3c 2e e8 d2 3c 42 81 f6 3c
       0.01559378 0.024431856 0.025745478 0.030090932
0002c0 47 cd 5f 3d 9b c8 17 3d 62 2a 3c 3d 54 cb 99 3d
       0.054639127 0.037056547 0.045938857 0.07509485
0002d0 f4 02 39 bc b6 7d d7 bb 82 28 35 bc 77 2e a8 3b
       -0.011292208 -0.006576265 -0.011057021 0.005132492
0002e0 97 3b d2 3b c2 b8 29 3c d2 85 7a 3a 7a f6 14 bb
       0.006415795 0.010358991 0.0009556684 -0.002272992
0002f0 15 23 d9 bb 64 a3 ab bc 29 a6 54 bb 73 01 66 3b
       -0.0066264966 -0.020951934 -0.0032447672 0.0035096079
000300 a2 a2 f0 bb 82 92 51 3b 58 e6 38 3b ad 8d e8 bc
       -0.007343606 0.0031978195 0.0028213467 -0.028387869
000310 73 31 89 bc cc 43 bc bc af 9c 83 bc aa 7b 0a bc
       -0.016747212 -0.022981547 -0.016065923 -0.008452335
000320 38 e7 5c bb 4e 38 3d bc 43 d6 7c bc 40 44 12 ba
       -0.0033707153 -0.011549069 -0.015431943 -0.0005579628
000330 ec 5b c7 bc f9 dd bf bc ba 46 bb 3b 43 38 f5 bc
       -0.024335824 -0.023421274 0.0057152184 -0.029934054
000340 62 60 5e bc 6b ce 6d bc 4b 24 35 bd 9b b2 9b bc
       -0.013572784 -0.014514546 -0.044224065 -0.019006064
000350 59 17 3c bc 22 f8 33 bd 84 67 d8 bc ea 5c d2 bb
       -0.011480176 -0.04393781 -0.026416548 -0.0064197676
000360 ed 90 fa 3d 1d 2d c5 3d 5f e0 ef 3d 47 a3 e3 3d
       0.12234674 0.09627745 0.11712717 0.11115127
000370 88 db c6 3d 86 e8 e5 3d 2f b4 4b 3d 56 a5 4f 3d
       0.09709841 0.11225991 0.049732383 0.050694786
000380 cf 8f b2 3c 26 4a 35 bc 33 85 a4 bc e4 de db 3b
       0.021797089 -0.011065042 -0.020083046 0.0067099202
000390 ba d0 84 bc ca 88 92 bc 0c f7 e6 bb 84 1a 7f bc
       -0.01621281 -0.017887492 -0.0070484933 -0.015570287
0003a0 94 4e dc bb ce e0 40 3b 54 44 b7 3c 83 1b ea 3c
       -0.0067232344 0.002943087 0.022371449 0.028577572
0003b0 f1 4a 98 3c 30 44 00 3c f8 45 b2 3b e1 20 d6 bb
       0.018590422 0.007828757 0.00544047 -0.006534681
0003c0 b9 35 51 3c 3e 38 48 39 16 24 15 bb e0 af cc bc
       0.012769156 0.00019094438 -0.0022757105 -0.024986207
0003d0 44 b1 a5 bc 5f b3 1a 3c ed d0 0a bd bc 94 b3 bc
       -0.020226128 0.009442179 -0.033890653 -0.021921508
0003e0 1e 81 37 bb d4 75 32 bd 92 56 b9 bc fb bd d6 3c
       -0.0028000544 -0.0435694 -0.022624288 0.026213637
0003f0 a2 ec 71 bc e1 24 a1 3b e4 9e fb 39 70 dd 3f bc
       -0.01476589 0.0049177264 0.00047992833 -0.01171051

features.module.8.bias f4 [64]
000000 47 bc d8 bc e4 06 2e 3c 2b 3b 37 3c 43 b6 68 3d
       -0.026456965 0.01062176 0.01118354 0.056814443
000010 3a 37 58 3d 33 28 43 bd 69 da ea 3c 9f 74 3d bd
       0.052787043 -0.04764576 0.0286686 -0.046253797
000020 11 21 e7 bc d3 8b ba 3c 1f b3 21 bd 6c b3 4a 3d
       -0.02821401 0.022771752 -0.039477464 0.049487516
000030 67 fc b2 3c d2 b9 a1 3b 89 6a 04 3d c6 60 49 bd
       0.02184887 0.0049354816 0.032328162 -0.049164556
000040 60 ff 1b 3c 8f 2e b0 3c f1 74 d9 bc 15 f8 92 bc
       0.009521335 0.021506576 -0.02654502 -0.01794056
000050 9a c5 bf 3c 11 3f 48 3d e5 60 b8 bc c8 bb 0e 3d
       0.023409653 0.04888827 -0.02250714 0.03484705
000060 8e 85 04 3d 00 59 0a bd f7 e6 3b bd a1 d6 de bb
       0.03235393 -0.033776283 -0.045874562 -0.006800488
000070 b9 af 12 3d 78 14 45 bd f5 41 24 bd b7 43 2c 3d
       0.035812113 -0.048115224 -0.040101964 0.042056765
000080 16 91 07 bd 44 c9 28 bd a3 23 21 bb d6 54 67 3d
       -0.03309735 -0.041207567 -0.0024587892 0.05647739
000090 de eb 1b 3d 56 ec f3 3c b9 eb f1 3b e1 de ec bc
       0.038066737 0.02977578 0.0073828367 -0.02891487
0000a0 f8 2e 38 bd fe 2f fb 3c c6 20 8c 3c 31 12 76 3c
       -0.044966668 0.030662533 0.017105471 0.015018986
0000b0 ce bb ae bc 8f a4 66 bd 69 57 01 3c 21 d0 22 bc
       -0.021329787 -0.05630928 0.007894375 -0.009937317
0000c0 6b 0d 8f bb 62 87 b3 3b 20 2d 0a bd 61 3d 13 bd
       -0.004365613 0.0054787854 -0.03373444 -0.035947207
0000d0 34 20 89 bc c5 7c b7 3c 80 01 14 bd f0 55 5c 3d
       -0.016738988 0.022398362 -0.036134243 0.053792894
0000e0 a3 a2 68 bd 2b b7 12 bd 09 82 87 3c bd f1 65 bd
       -0.056795727 -0.035819214 0.016541498 -0.056138743
0000f0 da 3a 03 bd 4c fa f3 3c c5 36 20 bd 1a 6c 97 3c
       -0.032038547 0.029782437 -0.039114732 0.018484164

features.module.9.weight f4 [64]
000000 21 a6 b0 40 54 d0 be 40 bd ee 57 40 ad 90 71 40
       5.5202794 5.9629307 3.3739464 3.7744553
000010 ff 95 da 40 c3 06 84 40 fa 7f 60 40 b0 2b db 40
       6.83081 4.1258254 3.507811 6.849083
000020 7f 52 59 40 a8 7a 83 40 68 15 a6 40 d9 66 3b 40
       3.3956602 4.1087227 5.190113 2.9281523
000030 81 09 87 40 37 72 64 40 04 15 99 40 cf 6b 4d 40
       4.21991 3.5694711 4.7838154 3.209705
000040 9e dd 66 40 2c 0b 3f 40 8d 0b 6d 40 55 8b 37 40
       3.6072764 2.9850569 3.70383 2.8678792
000050 b1 23 86 40 df 55 9f 40 89 dd 3a 40 e4 5d 9a 40
       4.191857 4.9792323 2.9197714 4.8239613
000060 fe 2c 8a 40 b7 84 5e 40 ee de 6e 40 8c 98 80 40
       4.317992 3.4768503 3.7323565 4.0186214
000070 48 6a dd 40 bc 4e 8a 40 34 7e db 40 59 f4 98 40
       6.919224 4.322111 6.8591557 4.7798276
000080 42 c3 47 40 b4 c7 92 40 64 59 a3 40 fe 58 d4 40
       3.1212926 4.586878 5.104662 6.6358633
000090 7c 74 89 40 ca 8d 57 40 e9 9c 8e 40 b6 cf 3b 40
       4.2954693 3.368029 4.456654 2.9345527
0000a0 4d bd 59 40 66 db b9 40 46 d3 74 40 79 c6 8c 40
       3.402179 5.808032 3.825395 4.3992276
0000b0 a6 30 83 40 e6 7a a0 40 bb e1 6e 40 da 70 8e 40
       4.0996885 5.0150023 3.7325275 4.451276
0000c0 ac 2f c4 40 ec 68 88 40 5d 69 5a 40 5c b6 a1 40
       6.1308193 4.262808 3.4126809 5.0535107
0000d0 00 29 46 40 4f e2 57 40 e9 6d 90 40 b1 f1 3a 40
       3.0962524 3.3731878 4.513417 2.9210017
0000e0 70 b2 66 40 dd 53 61 40 af d2 91 40 64 b0 23 40
       3.604641 3.5207436 4.556968 2.557641
0000f0 1c 1d 71 40 ae 8c 5e 40 ee 5b 59 40 27 25 4b 40
       3.7674017 3.4773364 3.396236 3.1741426

features.module.9.bias f4 [64]
000000 b2 cb d0 3f 68 1f c9 3f a9 e5 44 3f c4 41 6f 3f
       1.6312163 1.571271 0.76912934 0.93459725
000010 e3 ca 07 40 c2 93 93 3f 4e de 6c 3f de e9 a3 3f
       2.1217582 1.1529467 0.9252671 1.2805746
000020 fc e6 3f 3f 84 a9 81 3f 46 e0 42 40 9b eb 5b 3f
       0.7496183 1.0129857 3.0449386 0.8590638
000030 d1 ae 20 40 bf ff 7e 3f 3f 6a 63 3f 19 11 5b 3f
       2.51067 0.9960899 0.88833994 0.85572964
000040 c8 f3 6b 3f 1b ad 4e 3f 97 06 4e 3f 16 95 4f 3f
       0.92168856 0.8073289 0.80478805 0.8108686
000050 88 e7 f8 3f b5 6e 9d 3f bf 31 34 3f 9a 59 a0 3f
       1.9445658 1.229941 0.70388407 1.2527344
000060 ce df 16 40 47 ec cf 3f d2 35 55 3f e5 cc 0f 40
       2.35741 1.6243981 0.8328525 2.2468808
000070 c6 a3 ad 3f 9b 2e a5 3f bb 43 d9 3f 3e d8 60 3f
       1.3565605 1.2904848 1.6973795 0.8782996
000080 ed 2a 64 3f 62 fc 89 3f 35 0f b8 3f b5 99 e4 3f
       0.89128 1.0780146 1.4379641 1.7859408
000090 63 1c 74 3f 2e f2 5b 3f d8 86 82 3f eb a8 40 3f
       0.95355815 0.8591641 1.0197401 0.7525775
0000a0 eb 60 4c 3f f4 ae b6 3f fd 73 48 3f a6 d3 6e 3f
       0.79835385 1.4272141 0.78301984 0.932917
0000b0 95 87 8d 3f b2 69 a6 3f 52 57 6e 3f ab ac aa 3f
       1.1057001 1.3001006 0.9310199 1.3333944
0000c0 bd 39 a4 3f c6 d3 89 3f a9 39 5f 3f 7b 78 b6 3f
       1.283012 1.0767753 0.8719736 1.4255518
0000d0 d7 48 54 3f 60 57 4b 3f 25 57 64 3f 44 2d 31 3f
       0.82923645 0.794302 0.8919547 0.69209695
0000e0 4f 52 89 3f fc 1b 82 3f 55 65 95 3f 2e ce 32 3f
       1.0728244 1.016479 1.1671549 0.69845855
0000f0 9e c5 34 3f 8b 75 76 3f 61 58 68 3f b6 55 73 3f
       0.7061404 0.96273106 0.90759856 0.9505266

features.module.9.running_mean f4 [64]
000000 91 f8 7a bd 42 4a 55 3d bf 3d d2 3c 6d 9b af 3d
       -0.061272208 0.05207277 0.025664208 0.08574567
000010 78 72 58 bd b5 4d a7 bd 4a c4 f3 39 46 38 40 bd
       -0.05284354 -0.08169118 0.00046494819 -0.046928667
000020 e0 98 0b bd bb 40 0a 3d c7 14 77 3d 61 cc 7a 3c
       -0.03408134 0.033753138 0.06032255 0.015307517
000030 b5 88 13 3e a0 4d 9b bc 6a 49 53 3d 53 6a 2f bd
       0.14407618 -0.018957913 0.051583685 -0.042826008
000040 ff c2 07 3d e8 1c 8b bc c3 37 db bc 7c f8 26 bd
       0.033144947 -0.016981557 -0.026759988 -0.040764317
000050 0a 2d 8d 3d 28 e0 97 3c 43 6d 15 bd d5 37 10 3d
       0.06893356 0.018539503 -0.036481153 0.035209496
000060 e2 d4 11 3e 23 80 21 3d af e7 83 bc 52 22 a4 3d
       0.14241365 0.03942884 -0.016101686 0.080143586
000070 9e ea 32 3d 2e 17 8a bd 00 a9 00 bd d4 cb 89 3d
       0.04368078 -0.067427024 -0.03141117 0.0672833
000080 3b 6c 87 bd ef 8a b1 bc c0 68 e6 3c 5a 18 9d bc
       -0.0661244 -0.021672694 0.02812612 -0.01917665
000090 b6 6e 87 3d 3c 71 ef 3c 0a eb 3d 3c a4 ed 4b bd
       0.06612913 0.029228799 0.011591682 -0.04978718
0000a0 44 1a c1 bc 80 4e de bc 1d cf 1e 3d cb 73 13 3d
       -0.023572095 -0.027137041 0.038771737 0.0359991
0000b0 b8 d8 6b b9 87 19 52 bd 91 f4 37 3d 5f c9 ce bc
       -0.0002249208 -0.051293876 0.04491097 -0.025242506
0000c0 2c 12 98 bc a8 73 78 ba 70 b2 8c bd 97 c5 cb bd
       -0.018563353 -0.00094776833 -0.06869972 -0.09949797
0000d0 c6 40 9a bc 5f 43 a7 3b f0 66 38 bd 75 8c 72 3d
       -0.018829715 0.005104467 -0.045020044 0.05921598
0000e0 45 5f 9c bd 83 f8 e6 bc 1f 85 49 3d 43 6c 86 bc
       -0.07635359 -0.028194671 0.04919922 -0.016409045
0000f0 a2 bf 00 bd e1 99 92 bb ac 57 73 bd 95 89 29 bb
       -0.031432755 -0.00447391 -0.059409782 -0.0025869359

features.module.9.running_var f4 [64]
000000 67 c7 26 3c 6e 45 70 3c 14 9b cc 3b 03 5c f7 3b
       0.010179377 0.014664991 0.0062440727 0.0075488104
000010 d2 b5 ae 3c 27 e3 f8 3b eb d8 4e 3b b5 f9 52 3c
       0.021326933 0.007595438 0.0031562399 0.012876918
000020 50 8c ce 3b f4 27 fb 3b 70 5b 42 3c 28 ec ef 3b
       0.0063033476 0.007664675 0.011862621 0.007321853
000030 f1 b1 28 3c 61 8d eb 3b 84 94 40 3c 80 88 e8 3b
       0.010296331 0.0071884845 0.011754159 0.00709635
000040 57 ba f1 3b f9 15 d8 3b aa 0b de 3b f3 85 cf 3b
       0.00737695 0.006594416 0.006776293 0.0063331067
000050 fe 29 f3 3b 2a c4 16 3c a7 fe c8 3b 17 27 fa 3b
       0.0074207773 0.009202043 0.0061338725 0.0076340544
000060 a0 63 29 3c fd b7 f5 3b 61 1d 06 3c 56 50 01 3c
       0.010338694 0.0074987398 0.008185715 0.007892689
000070 ad 70 f2 3b 0c 47 f7 3b 86 83 90 3c f9 5e 2b 3c
       0.007398686 0.0075463112 0.01764084 0.010459655
000080 ad 4d e5 3b 7d c1 24 3c 92 90 1b 3c 55 37 99 3c
       0.006997785 0.010055897 0.0094949175 0.018703142
000090 a4 d9 1f 3c 0f 34 d4 3b af d1 59 3b 63 e2 d1 3b
       0.009756479 0.0064759324 0.0033236553 0.006405161
0000a0 ab 2d f1 3b 55 4d 35 3c e8 95 07 3c 69 c1 2b 3c
       0.0073601804 0.011065801 0.0082754865 0.010483124
0000b0 67 42 f9 3b 26 2b 12 3c 9c 21 02 3c f8 23 08 3c
       0.0076067927 0.00892142 0.007942583 0.008309357
0000c0 bc e0 2d 3c a4 b1 52 3b 81 66 84 3b 70 8b 27 3c
       0.010612663 0.003214934 0.0040405397 0.010226116
0000d0 97 a0 ce 3b 4e 18 d4 3b 71 ad 14 3c cd 51 dd 3b
       0.006305765 0.006472624 0.009074555 0.006754136
0000e0 d6 a0 f8 3b 02 f8 f7 3b 01 83 14 3c 15 b7 e8 3b
       0.0075875325 0.0075674066 0.009064437 0.007101903
0000f0 a2 2a db 3b 31 b4 ed 3b fc 7a e0 3b 77 85 f6 3b
       0.006688432 0.0072541465 0.0068505984 0.0075232345

top_layer.weight f4 [10, 64]
000000 fa f4 a3 bc c7 df 10 3e ae 4c df bc b3 e2 ab bc
       -0.020014275 0.14147864 -0.027258243 -0.020982122
000010 6a 79 27 be d0 c6 e8 bd 40 e3 3c bd fd 31 54 3f
       -0.1635491 -0.113660455 -0.04611516 0.82888776
000020 f7 b2 18 bd be eb 84 bc 82 ea 03 3c 12 5c 75 bd
       -0.03728005 -0.016225692 0.0080515165 -0.05990226
000030 f4 3c 1b 3d e7 50 7d bd 40 ce f9 bd 70 96 18 bd
       0.037899926 -0.061844733 -0.12197542 -0.037252843
000040 1e 00 01 3b 6e a0 73 bd 43 a8 13 bd 7c 39 17 bd
       0.0019683908 -0.05947917 -0.03604914 -0.036920056
000050 06 88 97 3b 92 8f f7 bc 5a eb da bc 12 84 06 bb
       0.0046243696 -0.030219827 -0.026723552 -0.0020525497
000060 d3 6c 89 3d 6c a3 b3 3b 1b f0 98 bd 20 db 22 ba
       0.0671021 0.005482128 -0.074676715 -0.0006212462
000070 cf e6 23 be 64 cc 17 bd 84 27 00 be 17 ad a0 bd
       -0.16006015 -0.037060156 -0.12515074 -0.07845514
000080 b7 ca 73 bd 67 17 2f bd 36 77 07 bb a8 b4 2a be
       -0.059519496 -0.042746928 -0.002067042 -0.16670477
000090 9d 31 b0 bd 48 67 71 bd 4d 4b 4a bd 16 00 39 bd
       -0.08603213 -0.058936387 -0.04938822 -0.045166098
0000a0 52 49 06 3c 70 3c ab bc 48 52 97 bd 38 c6 cc bd
       0.008196192 -0.020902842 -0.07388741 -0.09998745
0000b0 6d 03 07 3c 9c 48 a6 3e 6e e0 8d 3c 5e b3 70 bd
       0.008240563 0.32477272 0.01731893 -0.058764808
0000c0 43 8a 3a 3f 6a 85 81 bd f5 46 91 bd f1 22 b6 bc
       0.7286722 -0.06324275 -0.07093612 -0.022233458
0000d0 04 4a 85 bd ab c1 5b bd b1 58 3c bd 77 15 5e bc
       -0.06508258 -0.053651493 -0.04598302 -0.013554922
0000e0 65 5e 2a bd d1 46 80 bd 65 6f e8 bb 6a 6c 98 bc
       -0.041593928 -0.06263507 -0.0070933574 -0.018606383
0000f0 37 16 e2 bb 1b f1 56 bd 58 0c 69 bd e3 b0 36 bd
       -0.006899621 -0.05247603 -0.056896538 -0.044602286
000100 5e d0 2e be 45 75 d4 bd 2b 79 f5 3c 93 44 c9 ba
       -0.17071673 -0.1037393 0.029965004 -0.001535552
000110 92 00 33 be 12 52 08 be de 2b c0 bd 82 50 94 bd
       -0.17480686 -0.13312557 -0.09383367 -0.07241918
000120 bd ae bf bc f5 d7 7c 3c c0 b5 3f 3e 3b 75 8e bd
       -0.023398751 0.015432348 0.18721676 -0.06955954
000130 46 c9 03 3e 4b f1 c2 bd 97 de ac bd b3 ee 22 bd
       0.12869748 -0.09518679 -0.08440893 -0.039778423
000140 23 b6 ba bc 9a 1c 32 bd e2 08 ba 3b e5 35 71 bd
       -0.022791928 -0.043484308 0.0056773284 -0.05888929
000150 34 84 1e 3d 96 fa 00 be ea 62 81 bd b0 45 1e be
       0.038700297 -0.12595591 -0.063176945 -0.15456271
000160 79 bf 03 3e 54 13 b5 3e 38 88 54 bd a9 20 28 3d
       0.1286601 0.3536631 -0.05188772 0.041046772
000170 5a 63 ca bd f6 50 b1 bd f1 36 2b 3f e0 d1 91 bd
       -0.09882231 -0.0865802 0.6688071 -0.071201086
000180 e0 5b ab bd cc dd fc 3e b0 c3 fb bd 22 24 d6 3e
       -0.08367133 0.49387968 -0.12293184 0.41824442
000190 6b d0 a6 bd 28 e9 7f bd f1 b5 19 3b 19 88 50 bd
       -0.08145221 -0.062478215 0.0023454393 -0.050911043
0001a0 64 f0 3c 3b ad 97 ae bd 3d 86 54 bd dc c7 9e bd
       0.0028829807 -0.085250236 -0.051885832 -0.07752964
0001b0 da 58 34 3c 75 dd 10 be ad a1 fc 3c 3b 70 41 be
       0.011007512 -0.14146979 0.030838812 -0.18890469
0001c0 75 a8 93 bd 53 52 02 bd c3 18 e2 bd 2e fa 44 be
       -0.07209865 -0.03181679 -0.11039879 -0.19236061
0001d0 34 21 5e bd 85 29 43 bc 70 8a 34 bc 1e a2 0f bd
       -0.054230884 -0.0119117545 -0.011019334 -0.035066716
0001e0 48 96 c0 bd fb 7d ac bd f5 0c 01 bb ea 21 12 bb
       -0.09403664 -0.08422466 -0.001969156 -0.0022298046
0001f0 8f c1 8d 3c 72 4a e7 bd f5 0b a4 bd 2e 6d cb bd
       0.01730421 -0.11293496 -0.08010093 -0.09932934
000200 7c 8b 39 bd 12 b6 2d be fe 32 7c bb 7f 5f a1 bc
       -0.04529904 -0.16963986 -0.0038482542 -0.019698856
000210 4e a6 05 3b a2 68 05 be e9 e0 c3 bd e1 27 2c be
       0.0020393315 -0.13028196 -0.095643826 -0.16812088
000220 35 02 ef bc ac d0 c6 bc 3a a1 9c 3e fa d7 c4 bd
       -0.029175857 -0.024269424 0.30591756 -0.09611507
000230 9c 48 bf 3e d9 b7 c2 bd fe e1 0c be e8 09 77 bd
       0.37360084 -0.095077224 -0.13758084 -0.06031218
000240 ad 33 96 bc 55 1f d3 bd 6d 1e 41 bd b7 17 89 bd
       -0.018335188 -0.103087105 -0.047148157 -0.06693976
000250 2a 20 10 bc 89 72 cc bd fa 53 b6 bd 30 68 db 3e
       -0.008796731 -0.09982783 -0.08902736 0.42852926
000260 f3 d4 a5 3d fa e1 3e 3d 83 78 ae bd 76 ae e4 3e
       0.080972575 0.046602227 -0.085190795 0.44664353
000270 af d5 08 be 14 b4 a5 bd cb 79 05 be 3d 8f ca bd
       -0.13362764 -0.08090988 -0.13034742 -0.09890602
000280 d4 09 b7 bd 6a b5 c7 bd 8f 67 10 3f 2b f4 55 be
       -0.089374214 -0.09751399 0.5640802 -0.20893924
000290 76 01 04 be 48 4f a2 bd ca dd 05 bd 1a 47 ae bd
       -0.12891182 -0.07925278 -0.032682218 -0.08509655
0002a0 33 04 94 bc 66 ed 36 be bc e9 b3 bd fb 15 f4 bd
       -0.018068409 -0.17863998 -0.08784816 -0.11918255
0002b0 30 b7 c4 bc 2b bc a3 3e 7d 01 f6 bc 1e 25 aa 3e
       -0.024013132 0.31979498 -0.030030007 0.33231443
0002c0 1b b1 38 be a8 43 93 bd c5 18 01 be 6d 66 bc bd
       -0.1803631 -0.07190639 -0.12607105 -0.09199224
0002d0 08 03 99 bd 99 ac d0 bd c6 e2 9e bd 95 8a d3 bc
       -0.07471281 -0.101891704 -0.07758097 -0.025822917
0002e0 ed ea d5 bd b1 cc 81 bd d9 75 b7 3a 49 ea c1 bb
       -0.10445199 -0.0633787 0.0013996913 -0.0059178215
0002f0 a6 e5 0a bd 18 26 fb bd b9 97 fa bd c3 17 b2 bd
       -0.033910416 -0.12263125 -0.1223597 -0.086959384
000300 ef 3d f8 3d 2e a5 2d be c3 85 14 be d0 ae 0e be
       0.12121188 -0.16957542 -0.14504151 -0.13933873
000310 53 e3 d9 bd 63 db 5d 3e 77 15 c9 3e 59 89 ae bd
       -0.10639062 0.2166572 0.3927419 -0.08522291
000320 6e 25 c2 bd 93 67 1c be 27 4a c1 bd 24 99 0f ba
       -0.094797954 -0.15273885 -0.094379716 -0.0005477837
000330 fe 3e 13 bd 84 ff 11 3c c7 88 1b 3e a3 73 b2 bd
       -0.035948746 0.008911017 0.15188895 -0.08713462
000340 1f 89 1a be d1 ec 23 bd ea b7 cb bd a5 0e cd bd
       -0.1509137 -0.040020768 -0.09947188 -0.10012559
000350 3a 92 17 bd 20 9e a2 bb 33 7a fb bc 6a 41 b7 3b
       -0.037004687 -0.0049626976 -0.030697918 0.0055925148
000360 13 1b 03 be ae 87 3f bd 6a 7d 83 3c 33 8b 7c 3d
       -0.12803297 -0.046760254 0.016051013 0.06165619
000370 6d 76 48 3f e2 bb 09 3c 24 1c c1 bd b6 70 d4 bc
       0.78305703 0.008406611 -0.094291955 -0.025932651
000380 f8 98 2c bd 90 0e a6 bd b9 ca 42 3d 5c ca 95 bd
       -0.04213807 -0.08108246 0.047556613 -0.073139876
000390 fa 11 b3 3c 9a 77 5d 3c 78 d0 08 3f 9f 5d 1c bc
       0.021859158 0.013517285 0.534431 -0.009543805
0003a0 d9 40 06 be 81 5c d1 3e eb c4 4b bc 8e d9 eb 3d
       -0.13110675 0.40890887 -0.012437086 0.11516105
0003b0 ac 41 0a be a6 a7 ab bc e8 73 1b be 8a 9e e1 bc
       -0.13501614 -0.020953964 -0.15180933 -0.027541418
0003c0 14 98 9e bd ce 76 fe 3e ea 4f aa 3e a6 26 af 3b
       -0.0774385 0.49700016 0.33264095 0.0053451834
0003d0 f4 cf df bc 32 95 a2 3d b3 f9 2f bd eb 3d a5 bd
       -0.02732084 0.07938613 -0.04296274 -0.080684505
0003e0 59 d8 ad bd 4b 41 ab bd 91 39 33 be aa 9e b5 bd
       -0.08488531 -0.08362063 -0.17502429 -0.088681534
0003f0 d2 7d 96 bd c0 d5 10 bd 31 61 dc bc 25 e3 a1 bd
       -0.07348217 -0.035360098 -0.026901813 -0.079046525

top_layer.bias f4 [10]
000000 3f a0 46 3c 0a eb 2a 3c eb ba a1 ba 36 7c 81 3b
       0.012123167 0.010432014 -0.0012339031 0.0039515747
000010 2f b9 3b bc 96 96 3e 3c 94 2f 8f bc 06 e6 a6 bc
       -0.011457725 0.011632582 -0.017478742 -0.020373356
000020 66 ab 31 3c 27 79 cc 3a
       0.010844087 0.0015600071

momentum_buffer f4 [16, 1, 3, 3]
000000 b1 6f d8 3c 96 c6 92 bc 80 b3 9c bb 2a 9d 52 3d
       0.026420446 -0.017916959 -0.0047821403 0.051419415
000010 50 41 0b bb 98 5b ee 3b aa 2f 3b 3d 66 87 19 bc
       -0.0021248646 0.0072741024 0.045699753 -0.00937066
000020 6e 7e 54 bc f2 af 55 3d 51 b3 2f 3d 28 a7 ad bc
       -0.012969596 0.052169748 0.04289562 -0.02119787
000030 77 22 30 3d db 81 a9 bc 7c 96 7f bd b6 6b c4 bb
       0.04300162 -0.020691803 -0.062399372 -0.0059942855
000040 6e 2c 57 bd f0 d3 bc bd df af a1 3b a2 8e 4f 3d
       -0.052532606 -0.09220111 0.0049342955 0.050673135
000050 50 f9 ce 3d 1a d4 62 bb 17 b0 90 3d 3c 14 dd 3d
       0.10106146 -0.0034611286 0.070648365 0.10794875
000060 81 80 12 3d ec d4 b0 3d 06 de d7 3d 50 c8 5a 3d
       0.035767082 0.086343616 0.105403945 0.05341369
000070 2e ec 56 3d f1 c5 95 3d 79 20 76 3d c6 99 89 3d
       0.052471332 0.07313145 0.060089562 0.06718783
000080 94 db b6 3d f5 bd a3 3d c1 f6 cc 3d 70 68 f1 3d
       0.089286 0.07995216 0.10008002 0.11787498
000090 a7 45 41 3d 8f b7 26 3d 7e 69 f3 3c f5 6d 60 3d
       0.047185566 0.0407024 0.029713389 0.054792363
0000a0 58 c8 fb 3c 34 8e 27 3d 58 23 c8 bb a8 20 56 3a
       0.03073518 0.0409071 -0.006107729 0.00081683183
0000b0 24 24 13 3d 26 32 04 3b ea 90 07 bc f6 5d a5 3c
       0.03592314 0.0020171492 -0.008274296 0.020186406
0000c0 f4 d5 e6 3b 44 9e 5d bc c8 68 a1 ba 78 16 43 3b
       0.007044548 -0.013526503 -0.0012314552 0.002976803
0000d0 83 49 a4 bc 96 3c 37 bc 3c 25 66 3e e9 3a 4c 3e
       -0.020054584 -0.011183878 0.22475141 0.19944347
0000e0 ae 9e d1 3d 7a bd 59 3e 30 a3 31 3e 48 91 6b 3c
       0.10235344 0.21263686 0.17347407 0.0143778995
0000f0 97 44 13 3e 49 27 8b 3d 2e a5 03 bd e3 0b 9f 3d
       0.14381634 0.067946024 -0.03213995 0.07765939
000100 92 c7 93 3d 2e 22 98 3d 2e f7 9c 3d ce 0a 94 3d
       0.072157994 0.07428394 0.07664333 0.07228623
000110 b4 ca 99 3d 06 e7 91 3d 86 20 51 3d 74 67 32 3d
       0.07509366 0.07124142 0.051056407 0.04355569
000120 5c f6 fa 3c 28 54 d5 3b 94 16 50 3b a4 f3 50 bb
       0.030635051 0.0065102763 0.003175174 -0.0031883502
000130 ea 3f 2f bc f0 d1 09 3c 2c c7 54 bc dc 87 f4 bb
       -0.010696391 0.008411869 -0.012986939 -0.0074624848
000140 24 45 87 3c 6a d1 69 bc fa 92 3d bd 83 6a 8a bd
       0.016512461 -0.01427112 -0.046282746 -0.06758597
000150 34 77 07 bd 4f 45 f2 bc 6e 0e 54 bc 1c e4 31 bc
       -0.033072665 -0.029574065 -0.012942893 -0.010857608
000160 40 7c b1 bc 7d 7c 93 bc 80 c1 b6 bd cd 63 a5 bd
       -0.021665692 -0.018003697 -0.08923626 -0.08075676
000170 5f 51 f4 bc 2d ae 84 bd d6 64 45 bd 24 e8 18 3b
       -0.029823957 -0.06478534 -0.048191868 0.0023331726
000180 60 ba 16 bc 69 97 22 3c 63 dc 8f 3c b0 e5 e9 3a
       -0.009199709 0.009923794 0.017561143 0.0017844941
000190 c0 dd ee bc ac e9 97 bd de 5b 07 bd 9a bb 5e bd
       -0.029158473 -0.07417616 -0.033046596 -0.05437813
0001a0 14 57 a8 bd 20 e3 cd ba d2 e0 bf bc 27 e8 83 bd
       -0.08219734 -0.0015707947 -0.023422632 -0.06440764
0001b0 ca d9 b5 3c 2e 09 69 3d 96 95 6b 3d 41 5c b1 3c
       0.022198576 0.05689352 0.057515703 0.021650435
0001c0 d4 ae 18 3d c6 d9 30 bc 09 b2 00 3d 2e 0a d7 3c
       0.037276104 -0.010794109 0.031419788 0.026249971
0001d0 12 a6 1e bd c8 4f 32 3d be f3 4c 3d 55 96 fe 3c
       -0.038732596 0.043533117 0.05003714 0.031077543
0001e0 3f 6a 44 3d 9d 5c 14 3d 10 20 67 3c 90 54 25 3c
       0.047952887 0.036221135 0.014106765 0.010090962
0001f0 a0 8e 8f bc 22 91 6b bc f0 5c 63 3b 3e 6c a5 3c
       -0.017524064 -0.014377864 0.0034692846 0.020193215
000200 1c be 74 bc ee a6 85 3c 54 ea 9f 3c f0 7f 93 ba
       -0.014937904 0.01631495 0.019520916 -0.0011253338
000210 d0 fb 1c bc 80 cc 73 3b 5c bd 20 bb 3a 16 06 bc
       -0.009581521 0.003720075 -0.002452693 -0.00818401
000220 b6 c7 16 3c 1f 64 8a 3c 28 e2 5e 3c 30 a6 84 3c
       0.009202888 0.016893445 0.013603725 0.016192526
000230 fe 20 fa 3c 3c 92 62 3d fc 11 78 3d f3 a3 7f 3d
       0.03053331 0.05531524 0.060564026 0.062412214

momentum_buffer f4 [16]
000000 6c 8d bc b6 d5 2b e6 36 98 3a 8d 37 b0 24 dd 37
       -5.6193003e-06 6.859637e-06 1.6835795e-05 2.6362337e-05
000010 37 3e f9 37 bd 48 d9 b7 e0 85 0a 37 52 51 6b b7
       2.9712084e-05 -2.5902287e-05 8.256611e-06 -1.4026025e-05
000020 e3 86 70 b6 bd 06 cd b7 82 97 f9 37 59 e5 c8 b7
       -3.5841301e-06 -2.4441042e-05 2.9753664e-05 -2.3948656e-05
000030 55 21 92 37 5b 71 41 37 47 76 32 37 d5 e8 93 b7
       1.7420078e-05 1.1530089e-05 1.0637165e-05 -1.7632186e-05

momentum_buffer f4 [16]
000000 15 7c a1 3e 0c ee 42 3d 0a 9b 05 3c 6d c2 8b bd
       0.3153998 0.0475903 0.00815464 -0.06824193
000010 94 a4 46 3e 42 d6 14 3d 51 17 89 bc 26 5f 73 3d
       0.19398719 0.036337145 -0.016734751 0.059416912
000020 00 18 3d 3a 20 45 d0 3c d0 02 bf bd 3c 6f 68 bd
       0.0007213354 0.025423586 -0.09326708 -0.056746706
000030 30 04 c2 3c 8c 25 0f bd 42 23 97 bc 94 f9 b4 bc
       0.023683637 -0.034947917 -0.01844943 -0.022091664

momentum_buffer f4 [16]
000000 2c 86 19 3e d4 a7 8c 3d 54 7e 40 3c 52 be 98 be
       0.14992589 0.06867948 0.011748869 -0.29832703
000010 bf 23 b9 3d 11 a6 b3 3d 68 4d b0 bd fc 99 a7 3d
       0.09040021 0.08771909 -0.08608514 0.08183667
000020 b0 46 61 bc 4a e1 f3 bc 4a d8 8e bc f3 0d ad bd
       -0.013749763 -0.029770512 -0.017437119 -0.08449926
000030 d2 a9 c4 3c 66 57 3f bd fe 27 e5 bc 27 47 ac bd
       0.024006758 -0.04671421 -0.027973171 -0.08412009
