deepcluster_implementation/experiments/run_label_fraction_variation/config_2/checkpoints/checkpoint_epoch_14.pth.tar (torch, 203741 bytes, 32 tensors)

features.module.0.weight f4 [16, 1, 3, 3]
00000000: 21e1 ba3f d3b4 e6be 3bea 29bf 94df a43e
00000010: 9e3a 473e 071e 71be 80fd 8cbf c0d9 123f
00000020: d7a5 a73f 3a82 953f 5c8e f53d 42fd 803f
00000030: b5e8 643d e97a 52bf 121d f63e 7fb8 a6be
00000040: 2e13 78be e50b 2f3f 7584 8fbf 2585 1ebf
00000050: fa0e adbe 06ac 49bf ed59 553f 4a74 d23e
00000060: da6e 5cbf e46b 743d 0067 19bd 07e7 e4bf
00000070: 3c03 fabe d20c 81bf 62dd 573d c83e 173e
00000080: b7b6 a9be 165c 343f 03ce 463e c9c1 8a3f
00000090: e532 06be 1dac 0c3e ab26 a13f f62d b1be
000000a0: eb6c dcbe b943 f2be a44c a93f 1ef2 9cbc
000000b0: 3b4e 813e a2ac 5f3f ca0e 7f3e c798 0dbf
000000c0: ce00 91bd 93bf 113f 0140 5cbf 37ee 69bf
000000d0: 53d7 8fbf 8f0c 73be 27f2 91be a330 013e
000000e0: 0dd1 a73f 58cb 9cbe d59b ad3e 340a e33e
000000f0: a97c 2cbf 52e4 8dbf 0b6e dfbf 95b8 283f
00000100: d9a1 64be dfcb babf e2ad a73e e80c 3ebe
00000110: debf c4be 8b59 9f3e 6b96 2e3f 18ea e13f
00000120: e0f7 4a3f 5d5a e1be 8e0d 03bf 5234 9dbf
00000130: e75b 89be 3e3f 1cbf 9632 843f 06e4 343f
00000140: 0135 4bbf ba22 213b baa8 9b3d 8e0a 15be
00000150: a26f 2bbe 9347 6f3e b327 503e 4a11 acbf
00000160: 7dc0 d9be a717 d23f e4bd 3d3f 1aaf 13bf
00000170: aa35 c03e 1193 863e f358 58bf 4622 0bbd
00000180: d6d1 cd3f 66c9 63bf 6934 97bd cc3d 6abf
00000190: 938f d53e 4e92 bd3e c8a7 69bf 07ae 1e3f
000001a0: 3060 0d3f 96c1 72bf 2aca 83bf cb1d 74bf
000001b0: a447 96bf 598f f33d 7aa4 923f 5931 22bf
000001c0: 4ac6 483d 7417 66be 03c7 26bf b6ee 37bf
000001d0: 6324 5e3d 9415 8ebe 6c99 65be e846 5ebf
000001e0: c8dd 123f 5d04 1f3f bacb ebbe 2621 09bf
000001f0: 3e26 b6be 73d1 24bf a2c4 0cc0 b6ae 16bf
00000200: 24eb 453f 2708 6bbe d510 a63f 0d0d 92be
00000210: 339b 903f b824 ad3d b779 ebbf d671 48bf
00000220: 1420 99bf 3d96 aabf 4fbf 1e3f 7300 f83e
00000230: 97a7 28bf 13f8 0b3f aa6f e33e c61a 5fbf
1.4599954 -0.45059833 -0.6637303 0.32201827 0.19455954 -0.23546611 -1.1014862 0.5736351
1.3097485 1.1680367 0.119900435 1.0077288 0.05588599 -0.82218796 0.48069054 -0.32562634
-0.24226066 0.68377525 -1.1212298 -0.6192191 -0.3380049 -0.7877811 0.8334034 0.41104347
-0.86106646 0.059673205 -0.037451744 -1.7883004 -0.48830593 -1.0082037 0.05270136 0.14770043
-0.33147213 0.7045301 0.19414525 1.0840389 -0.13105352 0.13737531 1.2589926 -0.34605378
-0.43051848 -0.47317293 1.3226514 -0.01915842 0.25254998 0.8737279 0.24907985 -0.55311245
-0.070802316 0.56932944 -0.8603516 -0.9137911 -1.1237587 -0.2373526 -0.2850506 0.1261621
1.3110672 -0.3062389 0.33907953 0.44343722 -0.67377716 -1.1085303 -1.7455457 0.6590665
-0.22327365 -1.4593467 0.3274985 -0.18559611 -0.38427633 0.31123003 0.6819827 1.7649565
0.7928448 -0.44014254 -0.5119256 -1.2281592 -0.26827928 -0.61034 1.0327938 0.70660436
-0.7937775 0.002458735 0.076005414 -0.14554808 -0.16741803 0.23367147 0.20327644 -1.3442776
-0.4252967 1.6413468 0.74117875 -0.5768906 0.37540942 0.26284078 -0.84510726 -0.033968233
1.6079662 -0.88979185 -0.07383043 -0.91500545 0.417111 0.37025684 -0.9127164 0.61984295
0.55224895 -0.9482664 -1.029607 -0.9535796 -1.1740613 0.11892576 1.1456444 -0.6335655
0.04901723 -0.22469884 -0.6514742 -0.7184862 0.05423392 -0.27750838 -0.22421807 -0.86826944
0.5736966 0.6211603 -0.4605387 -0.53566206 -0.3557605 -0.64382094 -2.1995015 -0.5886034
0.7731192 -0.22952329 1.2973887 -0.28525582 1.1297363 0.08454269 -1.839652 -0.782987
-1.1962914 -1.3327099 0.62010664 0.48437843 -0.6588072 0.54675406 0.4442113 -0.8715023

features.module.0.bias f4 [16]
00000000: efa4 5fbd 0a42 873d f028 273e 62b3 823e
00000010: 837a 933e fe5f 80be 64f9 a23d 7344 0bbe
00000020: 49ee 0dbd 175b 72be 7d76 933e f2a5 6dbe
00000030: c90c 2d3e 8796 e33d ba6f d23d 030f 2fbe
-0.054600652 0.06604393 0.1632421 0.25527483 0.28804407 -0.25073236 0.07957724 -0.1360033
-0.034651075 -0.2366756 0.28801337 -0.23207834 0.16899408 0.11112695 0.102752164 -0.1709557

features.module.1.weight f4 [16]
00000000: 0e6a 8c3f 8e8e 833f 43a2 ec3f 6deb a63f
00000010: 4ef8 663f 8eb2 b43f d5f8 8a3f 6bf1 863f
00000020: 7bd8 a53f 14db 273f baee 2d3f 668a 0b40
00000030: 3343 eb3f 41fc 0040 486c 8b3f fb01 0240
1.0969865 1.0277879 1.8487018 1.3040596 0.9022263 1.411699 1.0857188 1.0542425
1.295669 0.6556866 0.6794239 2.1803222 1.8379883 2.0153964 1.089242 2.0313709

features.module.1.bias f4 [16]
00000000: e673 e3bf 778f e0bf a7fb c3be 8d43 bdbe
00000010: 8200 e2bf f48a 31bf a9c8 56be 5457 94bf
00000020: a879 e9be 353c b2bd 9840 51bf 63ae 2cbf
00000030: cf7b 52bf 569b 02bf dbad 08bf 5216 13bf
-1.7769744 -1.7543782 -0.38277933 -0.369656 -1.7656405 -0.6935265 -0.20974983 -1.158915
-0.4560063 -0.0870289 -0.8173919 -0.67453593 -0.82220167 -0.51018274 -0.5339028 -0.57455933

features.module.1.running_mean f4 [16]
00000000: 668f 51bc f236 273e 60e8 7b3d 4b95 533e
00000010: b327 bd3e 4a86 a2be 4b8f 3a3c 3075 a7bd
00000020: 740d 58bd c812 73be cb17 b43e 5b4c adbe
00000030: cb87 e93d 76d0 953c 0c85 333c c890 8dbe
-0.0127905365 0.16329554 0.061500907 0.2066242 0.3694435 -0.3174308 0.011386703 -0.081766486
-0.052747205 -0.23737633 0.35174403 -0.33847317 0.114028536 0.018287878 0.010957014 -0.27649522

features.module.1.running_var f4 [16]
00000000: 744d 1940 0d3b 6640 30d6 b040 2c31 c240
00000010: b87f 0240 d61f b040 ea53 c740 c6af 8e40
00000020: d015 3740 b6e1 1b40 31cd cc3f a866 dd40
00000030: 0ba1 9c40 c731 6240 f1a1 9740 bb8b 0041
2.3953524 3.5973542 5.526146 6.0685024 2.0390453 5.503886 6.2289934 4.4589567
2.8607063 2.4356513 1.600012 6.9187813 4.8946586 3.5342882 4.738518 8.034114

features.module.4.weight f4 [32, 16, 3, 3]
00000000: 563e aebe a41d 49be ac0e 76bd 682e 7cbc
00000010: b2ba 973d a346 b2bc 226d 793d 3be6 ef3d
00000020: 50ab 6abd 0b8d 0cbe ea55 3f3d f85a bfbe
00000030: 0b89 5dbe eee1 a0bd ea7c f5be 9111 72be
00000040: 5600 0fbe f1ab bebe f0b6 933d f148 853a
00000050: f2cd 6a3d c60a c3bc 7380 49bc 942f 113c
00000060: 7742 343d 9ee5 b0bc 45ce 5cbc ceed 3cbe
00000070: f3f3 8abe 2c04 8dbe b171 09bd 0edb 2ebc
00000080: 76b2 32bc 69f1 15bd 6b3e 273d c19c 1abd
00000090: 4bc2 3cbe 6fe8 06bd eddd 29be b9c4 83be
000000a0: a785 0a3e bc4e 05bd 8fb7 36bd 3a62 7abc
000000b0: 1519 7bbe 641e a3be 3a46 e9bd 236a a3bd
000000c0: 1e22 e43d cf0f 993d 41fb aa3d 5950 363d
000000d0: bf82 1d3e 827e b33e 1353 08bc 36a5 93bc
000000e0: d34f 78be 2bfe 313d c237 05bd d819 5bbe
000000f0: 4828 b23e 41a7 753e 5116 a53d 2437 a0be
00000100: 82f5 35be 80e9 dfbd f0a5 cbbc 55e3 9dbc
00000110: cbeb 2dbe d407 1d3d ded1 2ebc 1c53 6fbe
00000120: 8f7d 96be 24b5 27bd 61b8 d8bd 6a63 3fbe
00000130: 1d2f 92bc 4e32 ee3d 5a25 0abe 6474 3b3d
00000140: dd81 00bd 8054 eebc c313 b9bd 4d5e 07be
00000150: 93f4 d93b 0368 7bbd c8f0 34be fa61 aa3d
00000160: 4f4a 80bd a62d dbbe d22d 65be 6df5 9a3b
00000170: d9a2 22bd 96af b8be 4833 563c a72e bbbd
00000180: 9c38 97be efcd d2bd 95a3 b7bb dba7 ad3d
00000190: fecf a43a c39c 383d 6a96 453d 0e7c 82bc
000001a0: 9951 b3bd 92e6 2e3e 1569 803d 7b01 793d
000001b0: 825b 893d 858b 7fbd 2214 6ebe 988c cb3c
000001c0: 045a 1a3d d0d3 3abd 9231 9c3d 753b 9c3d
000001d0: ddfd 80bd c280 1e3d 6f77 533c 6527 bc3d
000001e0: 2cdd ffbb b299 1c3d 302f c2bb be66 38bb
000001f0: 369b 1bbc bcb8 a53d 3006 30be f463 5cbe
00000200: a6d1 a1be 4c99 9bbd 8001 86bd 16ac 27bd
00000210: 5292 ddbc d87c e23d 45f4 263e c105 b73d
00000220: 068b e73b 856a 183d fc07 78bd d188 513a
00000230: 31c9 e93b 4b60 56bd ef4b ff3c ada7 1d3d
00000240: e48d 9ebd 0f2b ccbd a26c 15bf 9cd8 70be
00000250: 178a 99bd eb15 dfbe fa40 ddbe 7fc6 51be
00000260: 52f0 0cbf 2cc2 2f3d b990 11be ec42 09bf
00000270: dfb8 02be a759 cabd eeb1 12bf f085 95be
00000280: fc08 40be b74c fcbe 2bbc 033e 1bde 16be
00000290: 8473 303d ac2c 813d 001a a8be e681 ecbc
000002a0: 8612 063e b6a6 93be b658 c5bd afee eebe
000002b0: 3a7b 9cbe e259 29be a3cc 10bf 6573 3ebd
000002c0: 6913 b5bd 6d7e 17bf fbfd 67be 3d6a d9be
000002d0: b600 9bbe fec2 993e 2290 dcbd 9f90 70be
000002e0: 5a59 4f3e 3354 49be 0fbe 18be ebfa 813e
000002f0: be17 02bf daab 3b3e cdc3 8e3d faa4 63be
00000300: 8afa 79bd fb87 d2bc 550e 07be f19f 3bbe
00000310: e8f7 443d 76f5 b5bd 9c68 85be 4c37 10be
00000320: 739d e7bb 57d8 9abe f301 17be cbdf b2bd
00000330: e760 a9be 105b f73d d3ce cdbb 7fea 93be
00000340: 4116 34bd 9336 eebd 8e09 ea3d fec9 ad3d
00000350: 1175 343d 1eba 7dbe ff15 68be 0c31 5dbe
00000360: 6bd1 e13c f373 acbc 3fc6 123d 7497 383e
00000370: e8e9 c0bc 2ff1 ae3d b8fb 80bd d51b 3cbe
00000380: de4e a33d ec57 ad3d 9c3d 083c 3aed 8abd
00000390: 8f02 803d 89ee 913e ed77 0cbe 5735 523d
000003a0: 7645 b0be 6762 cbbe 6851 3d3e 6dcb aa3d
000003b0: e221 91be 5bf2 33bd 524b df3d dd83 42bd
000003c0: ef43 ad3e dd50 843b b2fe 2f3e 4134 38be
000003d0: f4ec 42bd 2064 d13d 59af e3bd 86cb 1dbd
000003e0: a38a 82bd fcb3 5dbe 71a9 9dbd 3a01 9ebd
000003f0: f71a 143e a89f fbbc 7658 513e a79b b5bd
-0.34031934 -0.19640213 -0.060072586 -0.0153919235 0.07408656 -0.021762198 0.060895093 0.11713835
-0.057292283 -0.13725679 0.046712793 -0.3737409 -0.21634309 -0.07855593 -0.47946864 -0.23639514
-0.13964972 -0.37240556 0.07212627 0.0010168833 0.05732531 -0.023808848 -0.012298691 0.008861441
0.0440087 -0.021593865 -0.013476913 -0.1845009 -0.27139243 -0.27542245 -0.03355569 -0.010672344
-0.010906806 -0.03660718 0.04083101 -0.03774715 -0.18433492 -0.03293651 -0.16588564 -0.25736025
0.13527547 -0.03254579 -0.04460865 -0.015282208 -0.24521287 -0.31859124 -0.11390348 -0.07979228
0.1113932 0.074737184 0.08348704 0.04451022 0.15381907 0.35057455 -0.008320588 -0.018023115
-0.242492 0.043455284 -0.032523878 -0.21396577 0.34796357 0.23989584 0.08060897 -0.3129207
-0.17769435 -0.109332085 -0.024859399 -0.01927344 -0.16984479 0.038337544 -0.010670153 -0.23371547
-0.2939267 -0.040944234 -0.105820425 -0.18690267 -0.017844731 0.116306886 -0.13490811 0.045765296
-0.031373847 -0.029093027 -0.090369724 -0.13219567 0.00665147 -0.06137849 -0.17669976 0.08319469
-0.06264173 -0.42808264 -0.2238076 0.004728964 -0.039706085 -0.3607146 0.01307375 -0.091397576
-0.29535377 -0.10293185 -0.0056042173 0.084792815 0.0012574194 0.045071375 0.04823915 -0.015928295
-0.08755798 0.17080143 0.06270043 0.060792428 0.06706907 -0.062388916 -0.23249868 0.024847314
0.0376835 -0.045612156 0.07626642 0.07628528 -0.062984206 0.03869701 0.012906893 0.091872014
-0.007808348 0.038232513 -0.0059260353 -0.002813741 -0.009497454 0.08091876 -0.1718986 -0.21522504
-0.31605262 -0.075975984 -0.06543255 -0.0409356 -0.02704731 0.11058968 0.16304119 0.08936644
0.0070661334 0.03721096 -0.06055449 0.00079931045 0.0071345796 -0.052337926 0.031164138 0.038489986
-0.07741907 -0.0996915 -0.58368886 -0.2352013 -0.07497042 -0.4357141 -0.43213636 -0.20485877
-0.550542 0.042909786 -0.14215364 -0.5361774 -0.12765835 -0.09880381 -0.5730275 -0.2920375
-0.18753427 -0.4927728 0.12864749 -0.14733164 0.043078914 0.063073486 -0.32832336 -0.028870534
0.13093004 -0.28838128 -0.09636061 -0.46666476 -0.30562764 -0.16538194 -0.5656225 -0.046496768
-0.08841593 -0.59177285 -0.2265548 -0.42463866 -0.3027398 0.3003158 -0.10769679 -0.23492669
0.20248929 -0.19661026 -0.14916252 0.25386748 -0.5081748 0.18327275 0.0697094 -0.22230902
-0.06102995 -0.025699606 -0.13189061 -0.18322732 0.048087984 -0.088847086 -0.26056373 -0.14083594
-0.00706833 -0.3024318 -0.14746837 -0.08734091 -0.33081743 0.12077916 -0.006280759 -0.28889844
-0.043966535 -0.11631503 0.11427604 0.084857926 0.044056956 -0.2477803 -0.22664641 -0.21600741
0.027565679 -0.021051383 0.035833593 0.18026525 -0.023549035 0.08542096 -0.062980115 -0.18369992
0.07974027 0.084640354 0.00831547 -0.067835286 0.06250488 0.285023 -0.13717623 0.0513204
-0.34427994 -0.39723513 0.18488085 0.08339582 -0.28346163 -0.0439323 0.10903038 -0.047489036
0.33840892 0.00403796 0.17187002 -0.17988683 -0.047589257 0.102241755 -0.11117429 -0.038524173
-0.06374099 -0.2165069 -0.07698334 -0.07715078 0.14463411 -0.030715778 0.20443901 -0.08867579

features.module.4.bias f4 [32]
00000000: f13e a83c fc7c 223d 9301 94bd d0d2 61bd
00000010: 6560 9bbd 5324 173d 66d5 723d ab8c 9bbd
00000020: 5258 a83c 5255 833c acc1 2dbd 9dea 8b3c
00000030: 5fab 793d a1cc 9e3d 2405 0c3d 9268 80bc
00000040: 2b3b 38bd faa4 f6bc 75e1 293a 4939 bebb
00000050: 4f43 6c3d 3c4f 92bd 1835 e73b d9f5 cdbc
00000060: 4cfe d73b 89b0 9b3d 8187 173b 30a3 60bc
00000070: 767c dbbc 0e90 a1bd c9ad 92bd 4215 0d3d
0.020537825 0.039669976 -0.07226863 -0.055132687 -0.07586745 0.036899876 0.059285544 -0.0759519
0.020549927 0.016031895 -0.042421028 0.017079646 0.060954448 0.077538736 0.03418459 -0.015674863
-0.044978302 -0.030107964 0.0006480434 -0.0058051688 0.057681378 -0.07144019 0.00705589 -0.025141643
0.006591594 0.07602031 0.0023121538 -0.013710782 -0.026792746 -0.078888044 -0.07162053 0.0344441

features.module.5.weight f4 [32]
00000000: e66c 703f da69 a73f f39b 483f b74b 7a3f
00000010: 3a6a 813f dbb8 893f 5e7a 643f c908 4f3f
00000020: 25d8 bc3f 8fbc b73f 453a 0d3f 5568 5a3f
00000030: 6c3e 393f 7cb8 3f3f bb28 ae3f e81c 503f
00000040: 6311 8c3f f6bd 883f 385c 333f 7b75 8c3f
00000050: bc8a a23f 5807 4f3f a749 7e3f f9b2 7d3f
00000060: 8a4a a83f 98e3 663f 8c4b 193f c0e3 a73f
00000070: 3fb3 843f 8c3d 4a3f 7a8c d13f 5e5a 843f
0.93916166 1.3079178 0.7836296 0.9777178 1.0110543 1.0759538 0.8924922 0.8087278
1.4753462 1.4354419 0.5516704 0.8531545 0.72360873 0.74890876 1.360618 0.8129411
1.0942806 1.0682971 0.7006259 1.0973352 1.2698588 0.8087058 0.99331135 0.99101216
1.3147748 0.9019103 0.598809 1.3116379 1.0367202 0.79000163 1.6370995 1.0340078

features.module.5.bias f4 [32]
00000000: 4ee0 f2be e9db b3bf 4f11 1abf f455 95bf
00000010: b391 6dbf 2cf0 6dbf 64a9 88bf 8f92 81bf
00000020: ef47 a7bf 0ee4 9bbf df35 dabd 53a3 21bf
00000030: 3841 b4bf be6e 87bf e410 96bf f394 1dbf
00000040: 5217 b8bf 8cb1 84bf a73e 98bf c64f dfbf
00000050: 26cd 65bf ebf4 42bf f0b5 4bbf aa3b 51bf
00000060: 289b 2dc0 4a17 88bf 1386 e0be e780 88bf
00000070: f5f1 67bf 2d67 32bf 8b69 bfbf 7ac8 9bbf
-0.47436756 -1.4051486 -0.6018266 -1.1666856 -0.92800444 -0.929446 -1.0676694 -1.0122851
-1.3068827 -1.2178972 -0.10654806 -0.6313984 -1.4082403 -1.0580671 -1.1723905 -0.61555403
-1.4382117 -1.0366683 -1.189412 -1.744622 -0.89766157 -0.76154965 -0.7957449 -0.81731665
-2.712595 -1.0632107 -0.4385229 -1.0664338 -0.9060357 -0.69688684 -1.4954084 -1.2170556

features.module.5.running_mean f4 [32]
00000000: 6fa5 06bf d8e8 38c0 c47a 6bbf 68e2 0ac0
00000010: 9083 b0bf 87e0 06c0 454e fdbf 5167 06c0
00000020: da32 05c0 2977 0ac0 9d23 66bf b2be debf
00000030: 3553 25c0 00d2 bfbf fa3f ffbf f7df acbf
00000040: c44d 46c0 97fe 1bc0 e405 1ec0 cbc6 45c0
00000050: 4853 b2bf 7d8c 82bf 35f2 e4bf ef52 d5bf
00000060: bf0c 68c0 e88d f5bf b9b6 8cbf b144 21c0
00000070: e2bc 86bf bbbe bbbf 9808 14c0 4536 04c0
-0.5259618 -2.8892117 -0.919842 -2.1700687 -1.379015 -2.107454 -1.9789511 -2.100056
-2.0812287 -2.163523 -0.8989809 -1.7401946 -2.5832036 -1.4985962 -1.9941399 -1.3505849
-3.0984964 -2.437414 -2.4691095 -3.0902584 -1.3931665 -1.0199124 -1.7886416 -1.6665934
-3.625778 -1.9183931 -1.0993263 -2.5198176 -1.0526392 -1.4667581 -2.3130245 -2.0658123

features.module.5.running_var f4 [32]
00000000: a022 0140 a4de 9740 9c68 ce3f b384 3d40
00000010: 5a21 2240 4a2b 5d40 1a50 f03f 16ee d83f
00000020: 58a5 b940 1cee c640 c4a4 b23f a8a3 a840
00000030: 8d23 0e40 c9bf ab3f 7e12 6040 8054 af3f
00000040: e383 ac40 efab 9540 9061 bf3f 4011 0940
00000050: c873 6640 583a fe3f c86d 2940 1a58 5140
00000060: a37f 2140 e6d6 1a40 6806 0b40 5a42 c840
00000070: 4bbe 0e40 1035 1340 6673 cf40 2c19 6240
2.0177383 4.745928 1.6125674 2.9612243 2.5332856 3.4557672 1.8774445 1.6947658
5.8014336 6.216566 1.3956532 5.2699776 2.2209198 1.3417903 3.5011287 1.3697662
5.3910995 4.677238 1.4951649 2.1416779 3.6008167 1.9861555 2.6473255 3.2710023
2.5234153 2.4193664 2.172266 6.2580996 2.2303646 2.3001137 6.4828367 3.5327864

features.module.8.weight f4 [64, 32, 3, 3]
00000000: ee26 09bc b09a 283c 6fed 71bb 8672 d1bb
00000010: d128 9a39 3bbc 33bc 1ab2 c8b9 3863 61bb
00000020: 1dc0 05bc 9f1a ecbd 9bbd 95bd 51af 03bd
00000030: 18d9 47bd 6da0 c8bc b5f5 ac3c 7998 81bd
00000040: b585 0cbd 6d54 d43b 7ae2 3bbd ee99 26bd
00000050: 4c0e 83bd 2851 59bc 9945 bdbc f926 01bd
00000060: dc1e b8bc c0c6 bbbc f61f bdbc 18fd 043e
00000070: 2e9d ef3d 33f0 393e 3dc7 ba3d 277c 903d
00000080: d1a7 2c3e 5fb3 343e 21ee 283e f2c9 b03e
00000090: f9d5 0abb 816c a1bb 0703 e5bc 5f3d d93b
000000a0: 4fcc ad3b 7e4a 68bc d781 db3b 4edb 57bb
000000b0: 10c3 acbc b628 15be 0fba a0bd 9275 93bd
000000c0: 1f8f c5bd 4861 9ebd d4f2 a4bd 6d30 aebd
000000d0: a1fe bebd 98b6 c1bd 8052 8a3e 219b e83d
000000e0: 8c3a 173e 973f 293e 524c b73d 6cdc 123e
000000f0: 9861 283e fb81 de3d f87b 0e3e 02c5 773c
00000100: b579 103c 0e44 8bbb 7d5b aa3c e750 943c
00000110: 080d cd3b e6d9 a23c b0a8 4d3c 41ba 603c
00000120: 1fa6 8d3c c51a 953c 17ae 603c 26dd 863c
00000130: 038d 313c 4117 b53b 4430 c2ba 5bb4 0cbb
00000140: cf7d e8bb 8455 a7bc dbb8 8dbb 4472 a3ba
00000150: 296e edbb 60e7 6d3a 627c 04bc 78e6 e6ba
00000160: 31f1 933b 15e9 1ebc e680 82bc ac38 d0bc
00000170: a440 8fbc e90e 19bd d77c 38bd a621 ddbc
00000180: 1dcd d8bc 989e 02bd 345f f1bc db92 963b
00000190: bf0b a9bb 45b0 5abc 7da0 283b af4d 10bc
000001a0: 0e42 39bc a0cf bc3b 2b24 d4bb d697 babc
000001b0: 7e07 013c 9116 033b 7383 0a3c 9c32 803b
000001c0: 084a 15b8 bc33 a53b 0045 4a3c 7af3 75ba
000001d0: 0fff 723c ea34 a1bc 7bca 63bc faf1 a4bc
000001e0: 36a6 b1bb 5549 f939 f57f 673b 02df 93bb
000001f0: 9ded 9e3b d368 de3b 5820 97be 90d2 b6bd
00000200: 66aa 30bd 0309 3dbe 82da 7bbd bb8b 10bd
00000210: 5479 edbd 0084 eebc 23ef 16bd 22c6 60bd
00000220: f051 72bd 19a4 c4bc 588a 4ebd 6ba9 66bd
00000230: 3072 fdbc fc54 b1bd 2b94 b1bd 36ad 98bd
00000240: e97d f83c 4f90 e03c 1778 9b3c 9dc5 bf3c
00000250: 96cb 943c 6df2 833c afe1 1d3d 05b9 eb3c
00000260: 805c 223d a06c 9c3e 3438 5b3e 7c1e 803e
00000270: 8628 3d3e 25c1 213e e10f 713e 6ec3 4c3e
00000280: 67a2 613e 747b b73e 5f65 23bb 10c7 883b
00000290: 6a48 1d3c 3a8c 5f38 de3b 3b3c 6da3 4d3c
000002a0: f892 90bc 5ff8 1cbc ce24 2ebc f294 e2bc
000002b0: c275 90bc ef2a ab3b 978c 92bb dc73 debb
000002c0: f462 d03c c6ae 9eba f0d5 bcba e85d d83c
000002d0: 9cdc 1d3c b74b 42bc 13ac 34bc 6916 cc3c
000002e0: 87aa 303c a4ef e63a f641 8a3c 9afd 0f3c
000002f0: 0011 aebb 4646 47bb c658 163b 84cf 64bc
00000300: 4cff 213b 8472 e73b 58af 8ebb 9d98 aebc
00000310: b16d 8ebc 7134 e1bc 215c 3f3d adc8 1e3c
00000320: f659 fe3a 7593 193d 40d0 d83a f78e 7c3c
00000330: 16ad 93bc 2d78 d7bb 5703 9d3c 29b7 3cbd
00000340: 638a 31bc 0510 8bbc 3662 91bd df2c 89bc
00000350: 2571 52bc e459 adbd 2416 5abd 38ff c6bc
00000360: 5774 90bb 0a1d 09bd 7dc2 8abc 71fb f4bb
00000370: 7e48 e1bc 402b 4dbc e455 42bb 0982 f3bb
00000380: 7450 28bc 4139 bcbc f135 c7bc 1b4c 09bd
00000390: 5b01 1dbd ddb6 96bc 4ffb 0dbd e614 92bd
000003a0: 6ca2 64bd ab14 8fbd 7f44 953c ca47 393b
000003b0: 8bd6 45bc 030e 023c cfe2 413b 0ae6 20bc
000003c0: 43f8 6fbb 9945 023c c8e5 ad3b 0fa2 63bc
000003d0: 48b1 c6bc 31e4 f6bc 421c 4cbc 3d60 e6bc
000003e0: a1ef abbc 3ccc 66bd 6ea8 47bd f151 81bc
000003f0: 19f9 09bd d826 54bc 3189 c3bc 14e0 a1bc
-0.008371098 0.010290787 -0.0036915203 -0.006391826 0.0002940358 -0.010970171 -0.0003827967 -0.0034391414
-0.008163479 -0.11528515 -0.07311555 -0.032149617 -0.04879102 -0.02449056 0.021113256 -0.0632791
-0.0343072 0.006479791 -0.04587028 -0.040674143 -0.06399211 -0.013263978 -0.023104476 -0.031531308
-0.022475652 -0.02292192 -0.02308653 0.12987173 0.116999015 0.18158035 0.09120033 0.0705493
0.16860892 0.1764655 0.16497089 0.34529072 -0.0021184667 -0.0049262648 -0.027955545 0.0066296305
0.0053038965 -0.014177917 0.0066988277 -0.0032937112 -0.021089107 -0.14566311 -0.07847988 -0.07200159
-0.09646439 -0.07733399 -0.08054128 -0.0850533 -0.0932591 -0.09458655 0.27016068 0.113577135
0.14768428 0.16528164 0.08950104 0.14341897 0.16443479 0.108646356 0.13914478 0.015122654
0.00881808 -0.004250056 0.020795578 0.018104983 0.006257657 0.019879293 0.012552425 0.013716281
0.017291127 0.018201241 0.013713381 0.016462874 0.0108368425 0.0055264537 -0.001481541 -0.0021469805
-0.0070950757 -0.02042652 -0.004325015 -0.0012469967 -0.007245798 0.000907531 -0.008086296 -0.0017616292
0.0045148362 -0.009699126 -0.015930604 -0.025417648 -0.017486878 -0.037367735 -0.04504093 -0.026993584
-0.026464993 -0.031889528 -0.029464342 0.0045951433 -0.005158871 -0.01334769 0.0025730424 -0.008807584
-0.011307253 0.0057620555 -0.006474038 -0.02277748 0.007875321 0.0020002464 0.0084541915 0.003912283
-3.5593315e-05 0.0050415676 0.012345552 -0.0009382289 0.0148313185 -0.019678552 -0.013903256 -0.020134915
-0.005421425 0.00047547618 0.003532407 -0.0045126686 0.004850103 0.0067873984 -0.29516864 -0.0892688
-0.043131255 -0.18460469 -0.061487682 -0.035289507 -0.11595407 -0.029115677 -0.036849152 -0.054876454
-0.059160173 -0.02400403 -0.050424904 -0.056313913 -0.030938238 -0.086587876 -0.08670839 -0.07454912
0.030333476 0.027412562 0.018978162 0.023409659 0.018163484 0.016106809 0.038545307 0.028774748
0.039638996 0.30551624 0.21408159 0.25023258 0.1847249 0.15796335 0.23541214 0.19996426
0.22034608 0.35836375 -0.0024932248 0.0041741207 0.009599784 5.329794e-05 0.011427848 0.012551171
-0.017648205 -0.009580701 -0.010628892 -0.027658913 -0.017634276 0.005223624 -0.004472326 -0.006788714
0.02543781 -0.001210653 -0.001440702 0.026411965 0.009635117 -0.011858872 -0.011027354 0.02491303
0.010782844 0.0017619026 0.016877156 0.008788491 -0.005312085 -0.0030406876 0.0022941097 -0.013965491
0.002471882 0.007063212 -0.0043543987 -0.021313006 -0.01738629 -0.027490826 0.04671872 0.0096913995
0.0019405473 0.03749414 0.0016541556 0.015414945 -0.01802687 -0.0065756054 0.019166632 -0.046073113
-0.010836217 -0.016975412 -0.070988104 -0.016745029 -0.012844359 -0.08464411 -0.05324377 -0.02429162
-0.0044084 -0.03347496 -0.016938442 -0.007476263 -0.027500387 -0.012522519 -0.0029653246 -0.007431273
-0.010273088 -0.02297652 -0.024317713 -0.033519845 -0.03833137 -0.018397743 -0.034663495 -0.07132892
-0.05581896 -0.06986364 0.018221138 0.002827155 -0.012075077 0.007937911 0.0029584651 -0.009820471
-0.0036616481 0.007951164 0.005306933 -0.013893618 -0.024254456 -0.030138107 -0.012457909 -0.028122062
-0.020988287 -0.056347117 -0.04874461 -0.015786143 -0.033684824 -0.012948714 -0.023869129 -0.01976017

features.module.8.bias f4 [64]
00000000: f9f9 d1bc b294 283c bd83 313c bb72 613d
00000010: 1a7b 513d af0f 3dbd 1588 e33c 9989 37bd
00000020: 2fe9 dfbc 6dba b43c dea7 1cbd 0c60 443d
00000030: ed64 ad3c a1af 9c3b d948 003d 4219 43bd
00000040: a820 173c eeaf aa3c 8fab d2bc da62 8ebc
00000050: 0ecd b93c 49ff 413d 8b9d b2bc 4646 0a3d
00000060: 3e62 003d 3508 06bd 950a 36bd cfe4 d7bb
00000070: bc1c 0e3d 5cef 3ebd 4b23 1fbd fbe2 263d
00000080: d155 03bd af84 23bd 7e30 1cbb d51c 603d
00000090: 120e 173d be4e ec3c 0057 ea3b de7a e5bc
000000a0: f76f 32bd 4d5d f33c ddc1 873c 0663 6e3c
000000b0: 8b46 a9bc 0d73 5fbd b899 fa3b 97be 1dbc
000000c0: 7a9a 8abb 7ae1 ad3b f5db 05bd 12a6 0ebd
000000d0: e2d9 84bc 91c2 b13c 3863 0fbd fe76 553d
000000e0: 7860 61bd e222 0ebd 6a46 833c 86c5 5ebd
000000f0: 2e45 febc 685c ec3c f336 1bbd 47b4 923c
-0.025631892 0.010289358 0.0108346315 0.055041056 0.05114279 -0.046157535 0.02777485 -0.044808958
-0.02733287 0.022061551 -0.038246028 0.04794316 0.02116629 0.004781679 0.031319473 -0.04763151
0.009224094 0.020835843 -0.025716571 -0.01738112 0.022680786 0.0473626 -0.021803638 0.033758424
0.03134369 -0.03272267 -0.044443686 -0.0065885554 0.034695372 -0.04661499 -0.038852017 0.04074381
-0.032064263 -0.03992146 -0.0023832615 0.054714996 0.036878653 0.028846141 0.0071514845 -0.02801269
-0.04356381 0.029707575 0.016571933 0.014549976 -0.02066352 -0.05455308 0.0076477192 -0.00962796
-0.004229841 0.00530642 -0.03268047 -0.034826346 -0.016217176 0.021699222 -0.03500673 0.052115433
-0.05502364 -0.034701236 0.016024787 -0.05438759 -0.031038847 0.028852656 -0.0378942 0.017908229

features.module.9.weight f4 [64]
00000000: 0758 f040 91e8 ff40 3465 9840 49cf a540
00000010: a65d 1641 9a25 b540 2d12 9c40 d8d0 1441
00000020: 8fe2 9c40 c01c b440 7252 e340 bf70 8140
00000030: 99c2 b140 336f a240 0840 d440 ad86 8c40
00000040: 9640 a140 63d9 8540 7a0a a940 d70d 7f40
00000050: 6d53 b840 5661 d840 e7e7 8340 4199 d940
00000060: f07d b640 b2b6 9f40 f43b aa40 5cc6 ae40
00000070: ab43 1a41 2603 be40 6033 1b41 550d d540
00000080: 6e63 8940 a50c d040 41aa e140 46c2 1041
00000090: e63e c340 6df9 9940 b80f c740 fc3b 8540
000000a0: f7fa 9640 f386 0041 f353 ad40 fb28 c540
000000b0: c6dd b640 006e d340 5891 a240 9287 c940
000000c0: d2dd 0541 f8ff c040 3ccc 9840 a5a3 dc40
000000d0: 83ff 8a40 9e55 9540 1795 ca40 c757 7f40
000000e0: 688d 9b40 677b 9940 6c3f c740 68ac 5f40
000000f0: 5302 ad40 4d8f 9940 c3bc 9740 4f38 8840
7.5107455 7.9971395 4.762354 5.1815534 9.397863 5.66084 4.8772187 9.300987
4.902656 5.6285095 7.103814 4.045013 5.5550046 5.076074 6.6328163 4.39144
5.039134 4.1827865 5.282529 3.9852197 5.760184 6.761882 4.1220584 6.7999578
5.702873 4.9910517 5.3198185 5.461714 9.6415205 5.9378843 9.700043 6.6578774
4.2933874 6.5015435 7.052033 9.04743 6.101428 4.8116975 6.220669 4.1635723
4.7181354 8.032947 5.4164977 6.1612525 5.714572 6.6071777 5.080242 6.297799
8.366655 6.031246 4.774931 6.894976 4.3436904 4.6667013 6.3306994 3.9897325
4.8610115 4.796314 6.226492 3.4948978 5.4065337 4.798743 4.741792 4.2568736

features.module.9.bias f4 [64]
00000000: d77b e73f cc42 fd3f b769 663f feeb a23f
00000010: 1e6d 3540 0831 b33f 7f59 a33f 35bb cf3f
00000020: 9ccc 5d3f 5aa3 923f 7e3c 7040 3794 853f
00000030: 44e5 4f40 c97d 953f f773 933f e029 903f
00000040: c41b a03f 65bc 5d3f b528 623f 2e6a 6d3f
00000050: 5d56 0240 e0ee ac3f 87fa 593f c875 c23f
00000060: 1123 3d40 6d13 e83f 88a0 803f 75f3 3040
00000070: 03e5 0840 83c6 b33f 7e73 0040 7b0b 903f
00000080: b88f 833f e0cd aa3f 0ca6 e93f 8634 2040
00000090: f1f2 933f c649 8a3f 9eee d13f f0b5 693f
000000a0: e92f 8d3f 1b19 d13f 66aa 773f 81fa 913f
000000b0: 20df b93f 8a00 cf3f 57c0 a43f 9422 cb3f
000000c0: 4901 c03f 5c93 d13f fee8 a43f 45bf d93f
000000d0: 067c 7b3f fff4 5d3f 01bd 793f 605f 773f
000000e0: 8e24 af3f 373b a43f 6fd3 cb3f 85df 7c3f
000000f0: 023f 4a3f 810c 933f 69e8 883f f4b0 9f3f
1.8084668 1.978601 0.9000506 1.2728269 2.834785 1.3999338 1.2761687 1.6229006
0.86640334 1.1456101 3.7536922 1.0435857 3.2483683 1.1679012 1.1519765 1.1262779
1.2508473 0.8661559 0.88343364 0.9274014 2.0365212 1.3510399 0.851479 1.5192194
2.9552653 1.8130928 1.004899 2.7648594 2.1389778 1.4044956 2.007049 1.1253504
1.0278234 1.3344078 1.8253798 2.5032058 1.1558515 1.0803764 1.6400945 0.9129324
1.1030246 1.6335787 0.9674438 1.1404573 1.4521217 1.617204 1.2871197 1.5869927
1.5000392 1.6373096 1.2883604 1.7011496 0.9823612 0.8670196 0.9755402 0.96629906
1.3683031 1.2830571 1.59239 0.98778564 0.7900239 1.1488191 1.0695926 1.2475877

features.module.9.running_mean f4 [64]
00000000: a1a8 3fbd 5d15 813d 9bf6 39bc 3411 a73d
00000010: 7435 bbbd fdcf 68bd d42a 2e3c bd73 393c
00000020: cbf2 5fbd b447 6b3c d490 fa3d e91c 0f3d
00000030: ce9d 563e ba4c 44ba ca7d 7d3d 820f 0abd
00000040: 1899 da3c 6e41 d93b d88c 3cbd 9a0b 47bd
00000050: b8e2 793c f4d6 ee3c 869a c8bc 5f08 753d
00000060: a752 cc3d b167 2fbd 6f47 8dbc 2734 073e
00000070: 3af3 503d a668 84bd 9b19 19bc a3bc 8d3d
00000080: 2ce6 16bd 058a 00bd bfdc 253d 7e41 743c
00000090: 5ced 813d 6c2f 233d 578e 103d 0c7e f4bc
000000a0: 1fd2 89bc 8f7d 2cbc 0c4c 333d 3365 223d
000000b0: 88da b43a 4e82 c4bd 2dad 2c3d 6269 ad3b
000000c0: 9452 9b3c c679 cd3c ba12 bcbd bdbf 66bd
000000d0: 6671 cfbc a51b ea3b b9c8 80bd bccb 7d3d
000000e0: f8ee 90bd 5e64 96bc 6863 333d 3022 00bd
000000f0: 4da0 65bd ab86 823c 2030 44bd 49b8 0cbd
-0.046791676 0.06302903 -0.011350299 0.08157578 -0.09141055 -0.056838978 0.010630328 0.011319098
-0.054674905 0.014360357 0.12234655 0.03493968 0.20958635 -0.000748824 0.06188754 -0.033706196
0.026684329 0.0066301143 -0.046032757 -0.04859505 0.015251808 0.029155232 -0.024487745 0.059822436
0.09976702 -0.042823497 -0.017245976 0.13203488 0.05101321 -0.064652726 -0.009344484 0.06920745
-0.036840603 -0.031381626 0.040493723 0.014908193 0.06344101 0.039840147 0.035291996 -0.02984526
-0.016823826 -0.010527982 0.043773696 0.039647292 0.0013798038 -0.09595166 0.04215734 0.0052921036
0.018960275 0.02508248 -0.09183259 -0.0563352 -0.025322627 0.0071444088 -0.06288285 0.061961874
-0.0707683 -0.018358406 0.043795973 -0.031282604 -0.056061078 0.015933355 -0.047897458 -0.034355436

features.module.9.running_var f4 [64]
00000000: 7931 633c 41a7 bb3c 684e d73b 4d8a 183c
00000010: 73cd da3c 2944 eb3b a2e6 a93b 31c8 c23c
00000020: f372 cc3b 1f61 0e3c 6c17 9e3c 97f9 9d3b
00000030: acc2 a83c bae7 c23b da0c 7d3c efed f73b
00000040: e208 123c b92f b73b 17d4 ec3b 3554 933b
00000050: b3e9 4c3c 5cdc 483c ac76 8b3b fa3e 9f3c
00000060: c157 253c 269a 153c b410 263c 20c0 763c
00000070: 737c 913c 239d 303c 5628 c63c 6c6d 603c
00000080: 3682 9b3b 00ed 4f3c 50be 923c 911f ad3c
00000090: 22eb 4b3c 157b b03b 04f7 e73b a8a5 943b
000000a0: f136 0d3c 806c 833c d52b 2f3c c27a 543c
000000b0: a894 343c 4bc0 693c b647 153c bf55 843c
000000c0: 4260 a93c a54d e03b 1d24 d83b 636b 393c
000000d0: 8c60 993b 0aae b33b d075 1c3c c8e4 d83b
000000e0: 3a4f 033c de82 083c 06a6 343c 5f86 c53b
000000f0: 0417 eb3b f477 b23b b0f3 b13b 0baa ef3b
0.013866776 0.022906901 0.006570626 0.009310317 0.026709294 0.007179756 0.0051849643 0.0237771
0.006239289 0.008690148 0.019298278 0.004821013 0.02060064 0.005948034 0.015444959 0.0075662057
0.008913251 0.005590406 0.0072274315 0.0044961222 0.01250689 0.012259569 0.00425609 0.01943921
0.010091723 0.00913099 0.010135818 0.015060455 0.017759537 0.010779652 0.024189156 0.013697963
0.004745747 0.012690783 0.017913014 0.021133216 0.012446197 0.0053857663 0.007079007 0.0045363493
0.008619056 0.016042948 0.010691603 0.012968721 0.011021771 0.014267038 0.0091113355 0.016154168
0.020675782 0.0068451934 0.006596102 0.011317107 0.0046806987 0.0054833936 0.009549573 0.0066190697
0.008014495 0.008331982 0.011025911 0.006027981 0.0071743745 0.0054464284 0.005430661 0.007313972

top_layer.weight f4 [10, 64]
00000000: 94b8 c3bd d3df 13bd f4f6 a2bc ca48 7ebc
00000010: df89 68be c282 a1bd 756d b2bd e95d 343f
00000020: b46c 4dbd 427d 5fbc 00ff 563d 8efd 5ebd
00000030: 5d93 b33d ee3a a1bd 5948 c4bd b513 093c
00000040: 7e01 023c afc7 8bbd e0e6 26bd f3c1 f4bc
00000050: 6d8c 0fbd a5b8 c2bd a292 66bd 3008 b8bd
00000060: e2d2 eb3d fd7e aebc 828e 67bd 18c4 34bc
00000070: df60 a3bd cb67 bdbd ab82 053e 1e77 b1bd
00000080: 943f 68bd 00db dcb7 b10c aebd 0059 db3d
00000090: 99d7 b6bd da4f 5ebd bcf4 20bd fecd b6bc
000000a0: 50a3 44ba 5156 90bd 0d69 3ebd 866c b1bd
000000b0: 66b2 ee3c 57e9 7d3e 6e21 a73c 5ecd b6bd
000000c0: bfae 0e3f 1369 6b3d 9761 96bd 8084 8abd
000000d0: e2ab e5bc f8d5 62bd 330f 55bd 3a74 5abc
000000e0: 27dc 40bd 1c2e 803a 9d82 113d da42 a53c
000000f0: 9632 a7bc eea9 35bd dbe3 4cbd 68c5 a1bd
00000100: 34b1 00be 91b4 efbd b868 02bc 29ff c83c
00000110: 3aec 0cbe 79b2 0bbd ac36 e7bd cc98 48be
00000120: 197d 66bd 8308 afbc 7897 b8bd b400 9ebd
00000130: 90ea b9bd b813 c1bc a094 c83c 54f0 a3bd
00000140: 6aaa d73d 5aa0 0d3d 868d 52bd 9aa2 39bd
00000150: f52c d63e f942 693e 825c e1bc baa9 533e
00000160: 8d27 8a3e 1a4f c23e 1916 75bc 744b f2bd
00000170: 1f98 31bd a15c 843e dfd5 163f 18e6 0bbd
00000180: 066a 38bc ba20 d73e d822 503d 3c16 c6bc
00000190: 5026 66bb e332 14bc 1492 61bd e219 41bd
000001a0: d5be eabd 4920 8bbd a892 40bd 2304 0f3d
000001b0: eaeb ec3d d3a0 27be a9d0 4c3c 0ad2 023e
000001c0: 3c9d 38be 73d3 2dbd 1182 e1bd 82cc 0fbe
000001d0: 88fc 1fbc 3453 ffbb 7243 91bd 40fc 76bd
000001e0: 8ad8 c9bd 74c1 ccbd 61c0 113e bbf6 d53d
000001f0: 3608 65bd 9285 8bbc 9a79 043d 373d bdbd
00000200: 993b 25be d864 17be 75ac febc ff75 1ebd
00000210: 6dc0 153d 6fbd bcbd 46e8 c5bd 1d8d afbd
00000220: 07df 593a 27fb d4bc 8e21 ab3e 96da 61bd
00000230: 3f0f dd3e 0fef acbd f32a 16be 03fb 22bd
00000240: 9192 80bd a924 87bd 7047 bebc dfd4 de3b
00000250: 3432 2abe 070f 39be 4aeb 6cbd 4d6d 5c3e
00000260: 0992 4a3d b6a8 8bbd a0c0 c5bd d06e c93e
00000270: add1 2ebe 2115 3abe a11e edbc fdbe 08be
00000280: 33e4 91bd 258a 2dbd 0fd5 ae3e 2ce2 c73d
00000290: e05f 0abe 28f1 8c3c ad52 a93c fed1 84bd
000002a0: 51b5 edbc 6224 febd 3967 e4bd 94de 0abe
000002b0: 7a97 b9bd fc2b 9abd 2ec0 1abd 576e 843e
000002c0: 1383 3ebe 9fa2 f7bc 00e3 e9bd 0100 19be
000002d0: ffaa 47bd 7f5e 1abb ec2b 76bd b266 27bd
000002e0: 8d7b 8dbd ed71 46bd c503 a9bd 8ef3 75bd
000002f0: a379 cfbc f42a 5bbd 69e7 b2bd 3465 c4bd
00000300: 86dc e23b b992 dbbd 6cd2 c8bd f55c 03be
00000310: c822 3bbd 3af6 033e 23a9 973e 9e15 6dbd
00000320: 3098 bdbd 11fd 03be 63e9 8abd bc73 88bc
00000330: 3f8e 9ebb b612 31ba 4d53 073d e400 82bd
00000340: 0028 04be 402b b53b 8fdf b8bd 58d6 92bd
00000350: 4176 2fbd cd53 1ebd 192b 08bd f5c4 26bd
00000360: 29f1 e9bd 7aa0 95bd 533d 15bd 822b 933d
00000370: 629d 2e3f 33e5 bcbc 085f debd a6f2 92bc
00000380: 181b cdbb ab7e 4abd c557 90bc dbdd 6ebd
00000390: a742 c6bc 4d8f 6dbc 595c e83e 8a69 1fbd
000003a0: 9263 a6bd 84fc aa3e 821d ecbb 223f d13b
000003b0: 93f3 1abe 88c6 19bc 52e2 d7bd 4167 19bd
000003c0: d061 29bd 2db5 d83e 57d9 563e bf33 0a3b
000003d0: 642e 0fbd 1c17 60bd 9178 06bd 2f38 54bd
000003e0: 9972 8ebd a1f6 b6bd f0bc febd 5570 6bbd
000003f0: a764 d0bd 6ae7 e9bb 39eb a43b 24d3 3abd
-0.0955669 -0.036102127 -0.019893147 -0.015520284 -0.22708844 -0.07886268 -0.087122835 0.70455796
-0.050152496 -0.013640704 0.05248928 -0.054441027 0.08768342 -0.07872568 -0.09584112 0.008366515
0.007934926 -0.06825196 -0.040747523 -0.029877638 -0.03504603 -0.095078744 -0.056292184 -0.08985937
0.11514832 -0.021300787 -0.05653239 -0.0110330805 -0.07977461 -0.092483126 0.13038127 -0.08665298
-0.056701258 -2.6328024e-05 -0.084985144 0.10710335 -0.08927841 -0.05427537 -0.039295897 -0.022315022
-0.0007501142 -0.070477135 -0.046486903 -0.08663277 0.029137801 0.24796043 0.020401683 -0.089258894
0.5573539 0.057473253 -0.073428325 -0.067635536 -0.028036062 -0.055379838 -0.05201645 -0.013333375
-0.047084954 0.0009779367 0.035524953 0.020173479 -0.020409863 -0.04435151 -0.050021987 -0.078989804
-0.12567598 -0.11704362 -0.007959537 0.024535732 -0.13761988 -0.03410575 -0.11289725 -0.19589537
-0.056271646 -0.021366363 -0.09013265 -0.07714978 -0.09077942 -0.023568973 0.024484932 -0.08004823
0.10530551 0.03457675 -0.0514045 -0.045321085 0.41831174 0.22779454 -0.027509931 0.20670214
0.269833 0.37950975 -0.014958882 -0.11830798 -0.043357965 0.2585192 0.5892009 -0.03415498
-0.011255747 0.42017156 0.05081448 -0.024180524 -0.003511805 -0.009045335 -0.05507095 -0.047143824
-0.114621796 -0.06793267 -0.047014862 0.034916054 0.115684345 -0.16369943 0.01250092 0.12775436
-0.1802873 -0.04243798 -0.11011136 -0.14042857 -0.009764798 -0.007791901 -0.07092942 -0.060299158
-0.09855755 -0.09997836 0.14233543 0.10447451 -0.055916034 -0.017031465 0.03234253 -0.092401914
-0.16136016 -0.14784563 -0.031088093 -0.03868675 0.036560465 -0.09215819 -0.09663443 -0.08571837
0.0008311127 -0.025998665 0.33424038 -0.0551401 0.43175694 -0.08444034 -0.14664821 -0.039790165
-0.06277955 -0.06598789 -0.023227423 0.0068002786 -0.16620713 -0.18072139 -0.057841577 0.2152607
0.049455676 -0.068192884 -0.09655881 0.39342356 -0.17072172 -0.18172123 -0.028945269 -0.13354106
-0.07123604 -0.042368073 0.34146926 0.09759936 -0.13513136 0.017204836 0.020669306 -0.06485365
-0.029017122 -0.12409283 -0.11152501 -0.1356147 -0.09062095 -0.075279206 -0.037780933 0.25865433
-0.18604688 -0.030228911 -0.1142025 -0.14941408 -0.04874706 -0.002355486 -0.06010048 -0.040869422
-0.06908331 -0.04844849 -0.08252672 -0.060046725 -0.025326556 -0.05350776 -0.08735544 -0.095896155
0.006923261 -0.107213445 -0.0980576 -0.12828429 -0.045687467 0.12886897 0.2962123 -0.057881944
-0.09257543 -0.12889506 -0.06782796 -0.016656749 -0.0048387344 -0.00067548023 0.033038426 -0.06347826
-0.12905884 0.0055288374 -0.090270154 -0.07169789 -0.042837385 -0.038654137 -0.033244226 -0.040715177
-0.11422951 -0.07305999 -0.036435436 0.07186033 0.682089 -0.02305851 -0.108579695 -0.01793797
-0.0062593333 -0.049437206 -0.017619977 -0.058317047 -0.024201704 -0.014499498 0.45382956 -0.03891901
-0.0812446 0.3339578 -0.007205666 0.0063857 -0.15131979 -0.009385712 -0.10541214 -0.037451986
-0.041353047 0.42325726 0.20981346 0.0021087972 -0.03495635 -0.05470954 -0.032829825 -0.051811393
-0.069554515 -0.089337595 -0.12438381 -0.057480175 -0.10175448 -0.0071381824 0.0050329235 -0.045611516

top_layer.bias f4 [10]
00000000: ef3e 38bb bc5c 57bc 8060 af3c d993 c13a
00000010: ab31 44bc 302b ad3a 1a90 9d3a 6e94 2abc
00000020: 7970 373c b7b7 e33a
-0.0028113683 -0.013144668 0.02140832 0.0014768793 -0.011974732 0.0013211723 0.0012021095 -0.010411365
0.011196249 0.0017373477

momentum_buffer f4 [16, 1, 3, 3]
00000000: cf14 a73d 449d bf3d 3ebc 683d 4472 193d
00000010: 437a babc 78dc e2bb c04b 893a 36c0 26bd
00000020: 5d6b b3bc bce2 ae3c 98ac fe3b 2cd4 55bb
00000030: 890f d03c 645d 9cbb 4c56 0bbd 02c7 383d
00000040: 0888 1e3c d8c8 d33a fe5a 053b 2af4 1b3c
00000050: eafa 6d3c f064 443b 42b8 c8ba b038 b33b
00000060: 8900 88bc 45d6 31bc 7e70 cc3b aa39 bbbc
00000070: 7cea aabc c5cf e7bb 66f2 ecbc 6b9b a0bc
00000080: 1f3c 27bc 77c1 5fbc e937 8dbc 093d 2bbd
00000090: f097 883b 9f9c 84bc efd1 273d 12e6 1fbd
000000a0: 6268 20bc 6a11 643d 3331 2bbd 7e72 b93c
000000b0: d328 453d baef 91bd 758e 79bd f39a 32bd
000000c0: 345c 22bd a677 2abd 5641 ffbc 8206 04bc
000000d0: 764d f4bc 0cc3 b1bc 383c 35bb cf8e e13b
000000e0: 14a9 a33c b08e fd3c a4bb 9b3b 9076 c5bb
000000f0: 147a 363c e876 5d3a f5f6 dd3b fae9 63bd
00000100: e0a6 2fbd 96d8 483c 60aa 98bd 6c11 13bd
00000110: a28b db3c a242 8cbd aaeb 373c b9b1 3f3d
00000120: 47d7 4b3c 0d09 dabc 39d2 9dbc dc30 4bbd
00000130: 1741 1bbd 92cc 6d3c 3c12 76bd d2c1 c1bc
00000140: 2292 c73c 2eca 2e3d 048d 8f3d 54cf 823d
00000150: 38f8 663d 919c b33d 52cd 1e3d f374 b2bc
00000160: b957 f7bc 61f2 18bd a1f5 b03d ab7b cb3d
00000170: 60a3 a73d 6aef 313d fce3 9d3d 8595 4b3d
00000180: 1b23 403d 263c 883d d74d 2e3d 31a7 493d
00000190: 148d 473c 9cbf 023d d75a 513c 5132 56bc
000001a0: 8857 22bc 6287 cbbc 3c55 dcbc e034 8bb9
000001b0: 7498 303d 1278 9e3d d15b 7d3d 2105 0a3c
000001c0: 9bd4 3f3d e027 b63b 4e26 213c 275d e73c
000001d0: 2451 abbc 2db8 1dbe 9541 92bd d862 a8bc
000001e0: 6611 3cbe c530 78bd 1fd3 84bc 8a3f 7cbd
000001f0: ba67 e4bc f30f 84bc 3849 cbbc 82ff 2abd
00000200: 1472 99bc 924d 08bd 7cba 6bbd b81e 02bd
00000210: ba28 35bd b4fa e6bc 0817 a4bc 061e 9dbd
00000220: b31a 4dbd 8070 c9bc 8162 0cbe cc70 a8bd
00000230: fcb0 2cbd bf5b 16be 8385 e8bd 7e4f a2bd
0.08158266 0.09356168 0.056820147 0.037462488 -0.022763377 -0.0069232546 0.0010474846 -0.04071065
-0.02190178 0.02134835 0.0077720396 -0.0032627685 0.025398033 -0.004771875 -0.034017846 0.045111664
0.009675987 0.0016157879 0.0020348425 0.0095186625 0.014525155 0.002996739 -0.0015313702 0.005469404
-0.016601818 -0.0108543085 0.006238996 -0.022854645 -0.020863764 -0.0070743286 -0.028924178 -0.019605359
-0.010207205 -0.013656965 -0.017238574 -0.041806255 0.004168503 -0.016187964 0.040971693 -0.03903777
-0.009790512 0.05568067 -0.041794967 0.022637602 0.048134636 -0.07125802 -0.060926873 -0.043604802
-0.039638713 -0.041618012 -0.031159084 -0.008058192 -0.029822093 -0.02169945 -0.0027654301 0.006883479
0.019978084 0.030951828 0.004752593 -0.0060260966 0.011137504 0.00084481994 0.0067738243 -0.05564306
-0.042883754 0.012258669 -0.074543715 -0.035905287 0.02679998 -0.06848647 0.01122562 0.04680035
0.012441463 -0.026615644 -0.019265281 -0.049607143 -0.03790387 0.014514105 -0.060075983 -0.023651991
0.024361674 0.042673282 0.070093185 0.06387201 0.056389064 0.08770097 0.038770027 -0.021784281
-0.030193197 -0.037340526 0.086406 0.09935697 0.08185458 0.043441214 0.077095 0.04970314
0.04690848 0.066520974 0.042554703 0.04923171 0.012179632 0.031921014 0.012778006 -0.01307352
-0.009908564 -0.024844829 -0.026896112 -0.0002655154 0.04311414 0.07737745 0.06185514 0.008424074
0.046833616 0.0055589527 0.009835793 0.02824266 -0.020912714 -0.15402289 -0.07141415 -0.020554945
-0.18366012 -0.060593385 -0.016213952 -0.061584033 -0.027881492 -0.016120886 -0.024815187 -0.041747577
-0.018731155 -0.0332771 -0.057550892 -0.031767577 -0.044228293 -0.028195716 -0.020030513 -0.07671742
-0.05007429 -0.024589777 -0.13709451 -0.08224639 -0.042160973 -0.14683436 -0.1135359 -0.07925318

momentum_buffer f4 [16]
00000000: 34e0 b8b6 400d de36 2b11 8937 cd0c d637
00000010: 0dfe f137 ef42 d2b7 a2c5 0537 565c 64b7
00000020: 6303 65b6 367a c6b7 6274 f137 809f c2b7
00000030: 7acf 8d37 c8a7 3a37 b75d 2c37 e135 8fb7
-5.509728e-06 6.617658e-06 1.6339667e-05 2.5516749e-05 2.884774e-05 -2.506512e-05 7.973433e-06 -1.3611358e-05
-3.412563e-06 -2.3660348e-05 2.8783634e-05 -2.3200875e-05 1.6905124e-05 1.11255285e-05 1.0273819e-05 -1.7072018e-05

momentum_buffer f4 [16]
00000000: 68d5 a23d ea1b 883e c396 9c3c 5094 5e3b
00000010: 5345 5d3e 94c6 61bd cb73 56bd bc4a 8bbd
00000020: ee28 093c 5fb1 b73d f933 623e f3b2 e0bc
00000030: 7c3d 273c 0422 733b a4f1 f2bc b339 b9bc
0.0795086 0.26583797 0.019114858 0.0033962913 0.21608476 -0.05512102 -0.052356523 -0.06801364
0.008371575 0.08969378 0.22090138 -0.02742908 0.01020753 0.0037099132 -0.029656239 -0.022610521

momentum_buffer f4 [16]
00000000: f246 243d 2353 033e 39d3 443d 51ba aa3c
00000010: af8c b73d 1e2c f1bc 0b44 96bd 446e 23bd
00000020: 6527 37bc 9650 d83d 1934 c23d 28c0 023c
00000030: 0e25 cd3b 6af2 973c 989e 173c f415 3c3d
0.04010672 0.12824683 0.048053 0.020840796 0.0896238 -0.029439982 -0.07337197 -0.03990008
-0.011178826 0.105622455 0.09482593 0.007980384 0.006260521 0.01854821 0.00925412 0.045919374

momentum_buffer f4 [32, 16, 3, 3]
00000000: f4ec 573b 13e8 e0bb 68c2 76bc b2a0 c1ba
00000010: 1c13 cebb 494b 1abc 5c6b 51bc 0080 2eba
00000020: 597d 893a b4eb 91bc 1a8b f6bc abf3 9abc
00000030: 9e79 1fbc 2b77 a2bc 93df 84bc 0ce8 07bb
00000040: 09c8 98bb dcfe c2bb bf91 4d3c d98a ee3c
00000050: e629 253d 7941 763c 4e93 983c 80a1 223d
00000060: 6d8f 833c b29b 113d 21e1 0b3d 9c4f 86ba
00000070: ca6a b23a 9e19 803b b6ac 91bb 6e68 14bc
00000080: 07f8 23bc e8c6 c1bc d130 29bd b6f4 14bd
00000090: 9c3d faba d6a2 15bc 36ee 45bc 1022 103a
000000a0: a0fa a3bb 6a83 93bb 66a4 3eba a00d 51bb
000000b0: 3255 c5ba 7690 0bbc 653d 02bb 9aa9 7ebc
000000c0: 2357 58bc 85dc a5bc a20f fbbc a5bc a9bc
000000d0: ccb8 4fbc 4b63 09bd 41a4 64bc c4c2 3ebc
000000e0: 8aba d1bb 2d6a 26bd 68f9 39bd 9ab0 e0ba
000000f0: eb9d 58bd d77c 4cbd 1895 1cbd 4253 ab3b
00000100: 530d 903b 46b1 cfba 91a3 b93a ee4b d8bb
00000110: 3b20 973b 11d2 84bc a413 92bc 6980 09bc
00000120: ede5 31bb 32be 9eba 70a6 b43a 402e 7dbb
00000130: 4950 09bc 8caf 91bc 5057 8ebc 03f0 e6bc
00000140: fc06 fdbc b287 26bd e158 34bd 3e7f 8fbc
00000150: 3401 95bc c050 15bd 1ed8 d5bc d2f1 efbb
00000160: fae8 31bc 253a 1bbc fa79 d0bb 8379 11bc
00000170: f982 89b9 ae4b 93bb 382b 43bb cd65 e3ba
00000180: c93a 75bb dc17 72bb ce17 ea3b bd2c 8f3c
00000190: 243d bc3c 4068 e83c cc2c cfbc 614f 48ba
000001a0: c671 0a3d 21ef 1fbd b45c ccbc 8195 1bbc
000001b0: b6f6 26bd 2ee2 c1bc 4a56 d3bb 3632 39bd
000001c0: d0a1 3dbd b34b 40bb e8c9 74bd 90a5 67bd
000001d0: bb1f b7bc e776 263d 9adb 363d d0c3 163d
000001e0: 2a06 323d 3577 0a3d a8b7 fa3c fe87 803d
000001f0: 7acc 4b3d 223e 2c3d fc80 2cbc 3285 c0bb
00000200: eaed e5ba 0c73 1fbc 6f25 1ebc d148 d5bb
00000210: aa4c fcbc 9ef6 aabc cc9d b2bc 6028 b73c
00000220: cbdc bd3c 3f9f c33c 79ed 833c 8619 993c
00000230: 3a70 123c 16b1 743c 87fa fb3b cdb3 503c
00000240: 0417 393b 0687 653b 16cc 6eba 32b9 6b3b
00000250: 6f42 ca3b b1c8 aaba d612 d73a fbe5 483a
00000260: d992 153a ac59 bbba f8d4 8939 eb89 12bb
00000270: 6c73 3c3b c2d4 9a3a c0a9 19b9 8044 0ab8
00000280: 6abe 233b 0ce6 e4b9 18e7 ccbb 3870 f9ba
00000290: 40f4 de3b 119e 12bc ac0e b43a 07d6 053c
000002a0: 1eea 36bc fde7 ee3a 3aca 8b3b f71b 03bb
000002b0: 78ab 29b9 c4a1 a0b9 3207 deba 96cb 62ba
000002c0: 5a99 313b ce66 0b39 55cf 233a c058 58b9
000002d0: 4f43 113b 824a a438 168f 9dbb 5515 9dbb
000002e0: 18b3 3f3a 24d8 603a 91c3 79bb bc40 99ba
000002f0: 185e 1abb 90f4 faba c43d c53b 72a5 143a
00000300: b309 223b 6143 193c 42b8 253b e6a0 b2ba
00000310: 9d79 833b e0e4 b2bb a841 1abb 7132 53bb
00000320: 74d2 a2ba a6dd cab9 5861 77b9 9fe3 d1b9
00000330: d6f3 82ba 07f2 b5ba fb2b ec3a 2057 7639
00000340: 4e5d 403a dd4c 9cbb 53b0 f93b 68b6 ad3b
00000350: 0aed 91bb 3850 933b 47fb 843a 4ead 97ba
00000360: ab25 483c 12e7 f53b 3ac5 51bb 012a 733c
00000370: 61d9 233c 9430 10bb 4056 743c 81b2 4b3c
00000380: a325 c73a 33de 9fbc 501f b6b9 86ea 9339
00000390: 5a73 50bc f06e 03bb b933 9839 a0d0 1fbc
000003a0: f72a 3f3a d4a8 4fb9 8271 8d3c a150 783c
000003b0: a203 56bc bfff c63c 735c e83b 78aa 23bc
000003c0: eef2 053d 9cda f83a 96ee 94bc acb7 91bb
000003d0: 9885 9ebb 5d70 41bb 7614 16ba f0ff b33a
000003e0: be30 c33b 46a5 aeba 78c3 6cb9 4496 8b3b
000003f0: 4012 5ebc 34fc bebb 1004 59bc 5370 c0bb
0.0032947632 -0.006863603 -0.0150609985 -0.0014772622 -0.006288899 -0.009417363 -0.012781944 -0.0006656647
0.0010489627 -0.017812587 -0.030095626 -0.018915018 -0.009733586 -0.019832214 -0.01621989 -0.0020737676
-0.004662518 -0.0059507918 0.012546956 0.029118942 0.04032316 0.015030258 0.018624928 0.0397048
0.016059602 0.035548873 0.034150247 -0.0010247114 0.0013612148 0.003909304 -0.0044456376 -0.009058101
-0.010007865 -0.023654416 -0.04130632 -0.036366187 -0.0019091847 -0.009133061 -0.01208072 0.000549824
-0.005004242 -0.0045017498 -0.0007272422 -0.003189899 -0.0015055297 -0.008518329 -0.001987302 -0.015543366
-0.013204369 -0.020246753 -0.030647103 -0.020719836 -0.012678336 -0.03354196 -0.013955177 -0.011643115
-0.006400411 -0.0406286 -0.045403868 -0.0017142475 -0.052884977 -0.049923744 -0.038228124 0.005228431
0.0043961196 -0.0015845678 0.0014163126 -0.0066008484 0.0046119965 -0.016213449 -0.017831631 -0.008392432
-0.0027145103 -0.0012111126 0.0013782512 -0.0038632303 -0.008380958 -0.017783903 -0.017375618 -0.028190618
-0.03088712 -0.040656753 -0.044030074 -0.017516728 -0.01818905 -0.036453962 -0.02610403 -0.0073225284
-0.010858769 -0.009474312 -0.006362197 -0.008879068 -0.00026228259 -0.0044951057 -0.00297804 -0.0017349065
-0.0037419072 -0.003694049 0.007143951 0.017477388 0.022978373 0.028370023 -0.025289916 -0.0007641223
0.03379991 -0.03904641 -0.024946548 -0.009496094 -0.040762626 -0.023667421 -0.0064494954 -0.0452139
-0.046296895 -0.0029341995 -0.059762865 -0.056554377 -0.022353997 0.040640738 0.044643022 0.036807835
0.04346291 0.03380509 0.030605152 0.062759385 0.04975555 0.042051442 -0.010528799 -0.005875253
-0.0017542217 -0.009732019 -0.00965248 -0.0065089245 -0.030798275 -0.02086955 -0.021803759 0.02235812
0.023176571 0.023879645 0.016104447 0.018688928 0.00893789 0.014934799 0.0076897773 0.01273818
0.0028242478 0.0035023107 -0.00091093907 0.003596854 0.0061724703 -0.0013029781 0.0016408812 0.00076636643
0.0005705781 -0.0014293692 0.0002628935 -0.0022360038 0.002875532 0.0011812674 -0.00014654454 -3.296556e-05
0.0024985322 -0.00043658947 -0.0062531345 -0.0019030636 0.006804019 -0.008948819 0.0013737283 0.008168704
-0.011164216 0.0018227097 0.0042660506 -0.0020005682 -0.00016180973 -0.00030638103 -0.00169394 -0.00086515525
0.0027099461 0.00013294371 0.00062488514 -0.00020632427 0.0022165363 7.8340076e-05 -0.004808317 -0.0047938027
0.0007312759 0.00085771293 -0.0038110951 -0.0011692266 -0.002355462 -0.0019146372 0.006019326 0.0005670405
0.002472502 0.009354443 0.0025286828 -0.0013628274 0.0040123 -0.005459413 -0.002353767 -0.003222611
-0.0012422339 -0.00038693583 -0.00023592019 -0.00040033177 -0.0009990882 -0.0013881334 0.0018018478 0.00023492845
0.0007338122 -0.004769905 0.0076198964 0.0053012855 -0.004453306 0.004495647 0.0010145687 -0.0011572035
0.012216012 0.0075043524 -0.0032008425 0.0148415575 0.010000558 -0.002200161 0.014913142 0.012432695
0.0015193712 -0.019515133 -0.00034737075 0.00028212758 -0.012722814 -0.0020055138 0.00029030236 -0.00975433
0.0007292474 -0.00019803952 0.017266039 0.015155942 -0.01306239 0.024291871 0.007091099 -0.009989373
0.03270238 0.0018986049 -0.018180173 -0.004446944 -0.004837703 -0.0029516437 -0.0005725095 0.0013732892
0.0059567383 -0.0013324402 -0.00022579532 0.0042598564 -0.013554156 -0.005828405 -0.0132455975 -0.005872765

momentum_buffer f4 [32]
00000000: ee42 0a36 501b 8536 61ac f2b6 68db b8b6
00000010: ab52 feb6 8edb 7736 b5eb c636 bf7b ffb6
00000020: 2012 0b36 661b db35 4931 8cb6 891c e435
00000030: 56f3 cc36 4efa 0137 7b46 6636 19c0 d1b5
00000040: 942c 97b6 a2ea 48b6 1172 8033 a181 1ab5
00000050: ce64 c136 e7de efb6 c37e 3c35 d174 27b6
00000060: cd70 2d35 9c09 ff36 a8d3 7f34 7863 b8b5
00000070: cf70 32b6 b707 04b7 6235 f0b6 53ee 6736
2.060256e-06 3.9668885e-06 -7.2322296e-06 -5.5091696e-06 -7.5794137e-06 3.6933666e-06 5.9282997e-06 -7.613998e-06
2.0723164e-06 1.6324746e-06 -4.1780627e-06 1.6995629e-06 6.108002e-06 7.747278e-06 3.4313696e-06 -1.5627621e-06
-4.5053403e-06 -2.9938897e-06 5.981213e-08 -5.7558105e-07 5.7635834e-06 -7.1487043e-06 7.021992e-07 -2.4952935e-06
6.461167e-07 7.600711e-06 2.3825726e-07 -1.3738018e-06 -2.658973e-06 -7.869609e-06 -7.158772e-06 3.4560405e-06

momentum_buffer f4 [32]
00000000: 6586 e63d c8a2 dabb 2291 f4bd 0018 0a3e
00000010: 25ac 12bc d5eb d1bd 0dc1 08bd 3edc f43d
00000020: e187 8f3d 643c 12be ddd6 09be d9c4 9a3d
00000030: 4719 a73e 00a4 11bd 6d7e 253d cf01 8d3c
00000040: d1f7 433e c89a ba3d edd6 5fbd 6859 9bbd
00000050: d36a 23bb 0fbf f73b 46e1 06be 482d 7cbd
00000060: 980a 503d 6547 14bc 472a 81bd c46f 58bd
00000070: 1621 e43d 1e30 8a3d 3ce4 c4bd 9a01 643d
0.112561025 -0.006672237 -0.119417444 0.13485718 -0.008952175 -0.102500595 -0.033387233 0.1195607
0.07008339 -0.1428085 -0.1346087 0.07557077 0.32636473 -0.035556793 0.040403772 0.017212776
0.19137503 0.091115534 -0.05464833 -0.07585412 -0.0024935498 0.0075606178 -0.13171872 -0.06156662
0.050791353 -0.009050225 -0.06306892 -0.052840963 0.11139123 0.06747459 -0.09613845 0.05566559

momentum_buffer f4 [32]
00000000: 0a61 643e 61fa 05bc 3fdd d5bd 4ecd 6c3d
00000010: 5282 36bc e3cb a7bd 62de 32bd 188c 833d
00000020: 0bc1 843d aa85 0ebe fadc 62be ac7d 6d3d
00000030: 359c 233e 8f4c 40bc 4cca ab3c aa4e 233d
00000040: c6cd f43d cf67 9e3d 9245 4ebc ec0d 90bd
00000050: a8a5 8abb 2238 bdbb ec79 0ebe fd4a 18bd
00000060: 165b 083d 0ed8 f5ba c5f0 77bd 8c11 52bd
00000070: dad0 ef3d 25d2 103d a816 a0bc 07f3 073d
0.22302642 -0.008177371 -0.1044259 0.05781298 -0.011139469 -0.08193185 -0.043669112 0.06423205
0.064821325 -0.13918176 -0.22154608 0.05798118 0.15977557 -0.011737003 0.020970486 0.03986994
0.11953311 0.07734644 -0.012589829 -0.070339054 -0.0042311735 -0.005774514 -0.13913697 -0.03718089
0.03328999 -0.0018756406 -0.06053235 -0.051286265 0.11709757 0.03535666 -0.019542053 0.033190753
