deepcluster_implementation/experiments/run_label_fraction_variation/config_2/checkpoints/checkpoint_epoch_8.pth.tar (torch, 203702 bytes, 32 tensors)

features.module.0.weight f4 [16, 1, 3, 3]
00000000: a7b9 993f 36cc a5be 111c 17bf 777c 9e3d
00000010: db50 a43d dc71 1cbe 2c93 65bf 7f1a 443e
00000020: 4f90 a83f 4135 4f3f fdb9 133e 4d29 723f
00000030: 99af 4d3e addc 3dbf a7e3 8e3e 233d bbbe
00000040: 700b 14be 1e53 233f d312 76bf f8d1 1bbf
00000050: ba35 8fbe cc47 02bf 4bbf 4a3f 6b53 ab3e
00000060: 6762 54bf 01f2 8f3d d63d dcbd 0363 c9bf
00000070: 9caa 81be 62ee 5bbf 2952 733e 7b85 273d
00000080: 32ac 19be c147 413f 85e6 53be f995 863f
00000090: e1a7 bebc 32f4 603e f5f9 683f ee66 99be
000000a0: 3716 06bf e7ff 02bf 1716 8d3f da65 773d
000000b0: 4487 d83e 287d 5c3f 3870 e53e f00c 07bf
000000c0: 9f85 bbbc 0e8d d53e d0ab 1bbf 12d3 43bf
000000d0: 27b4 80bf 9ba8 9c3c dc15 8cbe e566 863e
000000e0: ed3a 9b3f 3d76 bebe 8d22 6f3e 1dd8 da3e
000000f0: e6e7 4bbf 2406 76bf 884c a6bf 64a7 003f
00000100: 37c6 bfbe e287 93bf 3a85 c63e 8105 17be
00000110: 5906 8ebe 700d c13d acea 713f d294 b83f
00000120: 0d8b 2f3f 5bfc d5be 6bf1 f1be 064e 88bf
00000130: 4592 c1be e1d0 d0be 5325 443f aced 2b3f
00000140: e0ba 29bf bdce b9bd 8218 7c3d 75d6 48be
00000150: b87d 04be dd0e 413e f930 623e 3ea8 93bf
00000160: f3f5 ccbe 177d a53f 86d2 053f 7100 10bf
00000170: bbb7 b83e a4be 9b3e 27ca 49bf bd62 d33d
00000180: 74df 953f 0332 69bf bc8b 983d d152 5dbf
00000190: 8ee3 9c3e 5f04 b03e 46be 29bf 2ef5 eb3e
000001a0: 8c41 cb3e 0a1f 63bf 6fcb 61bf faef 3fbf
000001b0: 801a 6bbf 1277 013d 0014 803f a6a6 14bf
000001c0: 1c65 a6bd 6e8e 41be ff98 f8be 268d 11bf
000001d0: d873 6c3d cdd0 88be dd65 52be d239 1bbf
000001e0: 081b e83e 4b85 de3e f201 41be 6998 dabe
000001f0: b464 16be 499e 06bf 6730 e9bf e155 17bf
00000200: 0669 353f f698 17bd 060a 843f 8d0e c1be
00000210: 1991 513f aca8 693e 9e49 d9bf 4da8 67bf
00000220: e443 65bf e93e 77bf 7e59 073f e3ac a63e
00000230: 0895 e3be a200 d73e 10f0 c13e 65e7 3dbf
1.2009782 -0.32382363 -0.590272 0.077385835 0.080232345 -0.15277809 -0.8967769 0.19150732
1.316904 0.80940634 0.14426418 0.9459427 0.20086516 -0.7416485 0.2790806 -0.3657008
-0.14457488 0.637987 -0.96122473 -0.6086726 -0.27970678 -0.50890803 0.7919814 0.3346208
-0.8296265 0.070285805 -0.10753982 -1.5733341 -0.25325477 -0.8591062 0.2376181 0.04089878
-0.15007094 0.7550011 -0.20693405 1.0514518 -0.02327341 0.21968153 0.91006404 -0.29961342
-0.5237765 -0.51171726 1.1022366 0.060399868 0.422907 0.86128473 0.4481218 -0.52754116
-0.022890864 0.4170918 -0.6080904 -0.7649394 -1.0054978 0.019123366 -0.27360427 0.26250377
1.2127358 -0.37199584 0.23353024 0.42743006 -0.79650724 -0.9610312 -1.2992105 0.5025542
-0.37455913 -1.1525843 0.3877352 -0.14748193 -0.27739218 0.09426391 0.94498706 1.4420416
0.6857155 -0.41794094 -0.472545 -1.0648811 -0.37806907 -0.40784362 0.7661945 0.67159534
-0.66300774 -0.09072635 0.06154681 -0.19613059 -0.12938583 0.18853326 0.22088994 -1.1535718
-0.40031394 1.2928799 0.5227436 -0.56250674 0.36077675 0.30418885 -0.78824085 0.10321567
1.1708817 -0.91091937 0.07448527 -0.8645449 0.3064236 0.34378335 -0.6630596 0.46085495
0.39698446 -0.88719237 -0.8820104 -0.7497555 -0.9183731 0.031607695 1.0006104 -0.58066785
-0.08124754 -0.18901989 -0.48554227 -0.56856 0.057727665 -0.26721802 -0.2054667 -0.606351
0.45333123 0.4346107 -0.18848398 -0.42694405 -0.14686853 -0.52585274 -1.8217896 -0.59115416
0.7086338 -0.03701111 1.0315559 -0.37706414 0.81862026 0.2281825 -1.6975591 -0.9049118
-0.8955672 -0.9658037 0.5287093 0.32553777 -0.4444964 0.4199267 0.37878466 -0.74181205

features.module.0.bias f4 [16]
00000000: 056b 64bd 4125 8a3d e6ba 2a3e 297d 853e
00000010: 3ba0 963e 671d 83be 9573 a63d 653d 0ebe
00000020: 2ef6 10bd 1c88 77be 1b9c 963e bbb7 72be
00000030: fabe 303e 6172 e83d acec d63d faca 32be
-0.055766124 0.06745387 0.16672859 0.26072052 0.2941912 -0.2560837 0.08127514 -0.13890608
-0.035391025 -0.24173015 0.29415974 -0.237029 0.17260352 0.11349941 0.1049436 -0.17460242

features.module.1.weight f4 [16]
00000000: 7999 843f fcd4 653f c7fe d43f 90fc 943f
00000010: 2c16 593f cf1f 843f 7f05 803f 6f27 553f
00000020: f968 a83f e3ba 173f bded 093f 004b ef3f
00000030: 4d2a bf3f 1779 d93f 8ca6 8b3f c2c0 e23f
1.0359336 0.89778113 1.6640252 1.1639576 0.84799457 1.0322207 1.0001677 0.83263296
1.3157035 0.5926954 0.53878385 1.8694763 1.4934784 1.6990079 1.0910201 1.7715075

features.module.1.bias f4 [16]
00000000: a5f4 c9bf a07b b6bf b999 9abe f4fb 90be
00000010: 5f0a b2bf 748e 07bf 0360 41be 7aca 5fbf
00000020: 9368 fabe 600f 7fbd 25d1 edbe c8cb 0bbf
00000030: 8d7a 1abf 2ef2 ccbe 2927 f5be f0c0 cfbe
-1.5777785 -1.4256477 -0.30195406 -0.28317225 -1.3909415 -0.5295174 -0.18884282 -0.8741833
-0.4890791 -0.062270522 -0.46448627 -0.5460782 -0.6034325 -0.40028518 -0.4788144 -0.40576887

features.module.1.running_mean f4 [16]
00000000: d79c d0bc 144a 0d3e 98f6 b43d f1c1 6f3e
00000010: dc3c b83e 4af5 93be 88a8 173d dcb8 ccbd
00000020: 65f4 3bbd 4524 80be 76bb af3e 816b a2be
00000030: c9f3 0e3e 3511 5e3d 5fb3 fc3c 59df 7dbe
-0.025465412 0.1379779 0.088360965 0.23413827 0.35983932 -0.28898078 0.03702596 -0.09996197
-0.04588737 -0.2502767 0.3432271 -0.31722644 0.13960184 0.05421563 0.03084725 -0.24792232

features.module.1.running_var f4 [16]
00000000: a4c3 c93f 8657 1a40 d9e5 6c40 3c4e 6f40
00000010: 9dce a73f 1bc8 4340 fa4f 9540 e1d4 7040
00000020: 3391 0a40 9c83 dc3f 5fdd 563f 73dc a740
00000030: 23ef 5d40 3a5a c83f 3549 6840 2bbc 9640
1.576283 2.411592 3.7015288 3.73915 1.3109928 3.0590885 4.666013 3.762993
2.1651123 1.7227664 0.83931535 5.2456603 3.4677207 1.5652535 3.6294682 4.7104697

features.module.4.weight f4 [32, 16, 3, 3]
00000000: b7c9 91be 08d1 66be 1a68 5d3c 5bf7 c1bd
00000010: caad 1dbd 04dc bc3b 5955 efbb 7e98 fb3d
00000020: 3db5 efbc 0147 89bc f6de bfbd 1dc0 a6be
00000030: e266 10be 1392 0bbe 7b1e c7be 7a4b 41be
00000040: 6ed9 1cbe 34cf 77be 8f96 6b3d 2b0d 8cbc
00000050: ed75 5b3c e370 8ebc c41c 90bb 5221 0fbc
00000060: 5c24 a93c ea54 2a3d 6e2d 4abb 0130 02be
00000070: f023 0ebe 2ff8 21be 61c2 143a c4dd 03bd
00000080: 0811 b5bc 4478 86bd d819 813d a654 13bd
00000090: c8fa 01be 79cf 373d 0dde 03be f003 39be
000000a0: 5184 333e 2b8a b8bd ab90 1ebd 7736 983d
000000b0: 66bd 6abe c5e9 85be beaf 0cbe 42cb dabd
000000c0: 7055 fe3c 0679 5c3d 1397 fb3b 5bdc 633d
000000d0: deca f63d 1523 423e 3c38 edbd 36f6 c3bd
000000e0: 2c3a a0be c4ee 5f3d e078 06bc ad57 52be
000000f0: 7c45 a83e a26f 213e 73ad d9bc b769 8bbe
00000100: 7ac5 2dbe 28b2 a3bd 713c 0abc 81bc 20bd
00000110: 34a9 95bd 6c34 853c 1d4c fc3c 9793 9cbd
00000120: fcb2 72be 6fa1 673c 98d8 9bbd 6b85 d1bd
00000130: cee5 eb3b 5e1f 8bbb 8ea7 cebd a8d8 e03d
00000140: 4028 243c b2f1 14bd e53f bfbc 34cf 0fbe
00000150: c740 ef3c f24d a7bd 37f6 22be b8c5 1e3e
00000160: 0059 12bd 2bad a6be a6cf 53be a3e1 81bc
00000170: 1e1d 62bd 92a4 92be 801d 41bb 8fee 92bd
00000180: 77bc 70be adce 43be 72e1 b53b e493 62bc
00000190: 5f07 823c a586 c23c ca3e 023d ca02 af3c
000001a0: 63c4 29bd 0819 703e 9453 4e3d 9139 a9bb
000001b0: 98ca c43d 41e0 c9bd 95f2 3cbe f039 373c
000001c0: 8666 29bc ba76 abbc 2b3f e23d 0618 9a3d
000001d0: c168 ccbd 69ee bbbc 0b74 d1bc a1d0 a73d
000001e0: 7326 b5bb d84b 5c3c 5e33 acbc f4a5 cfbc
000001f0: b151 983c 9061 b73d 2a7a 3dbe c1bc 3dbe
00000200: c7c9 83be de36 85bd 96e8 77bd 1dab 97bc
00000210: 523d 83bd 80b8 853d ce28 1a3e 204f 783c
00000220: db38 84bc df49 9dbc 77a0 31bd 44f4 993c
00000230: dbcc 9e3c b1d6 82bd 74de 8a3b 74a0 3e3d
00000240: 370f 15be 3a74 8ebe 77ad acbe 2ad1 93be
00000250: cac5 15be fbcf 6dbe be30 b8be b7ab 80be
00000260: 5f10 aebe 9b64 bf3d c54c 6abe 7280 d5be
00000270: ab52 e5bc 9971 10be 512a debe 6585 27be
00000280: 2c68 84be d757 e0be e0b9 0d3e 547e 01be
00000290: bb04 643d 4fc6 573d 0928 3abe 93fe 8fbc
000002a0: cd35 503d caaf 54be 2e2f cabd efd2 bbbe
000002b0: 662c 41be 400a 1cbe 2b14 e4be b819 d6ba
000002c0: 2b91 3a3c 05ec e4be b02c 36be ae53 a4be
000002d0: 3c03 49be bd8a 393e 5d69 31be fb6e 22be
000002e0: a9de fb3d 87dd 53be 54ca 5cbd f0ae 943e
000002f0: fc31 e2be 6ef1 f93d be8b 8bbc e45b 46be
00000300: 8823 0bbd 00ca 7fb9 ce4a b0bd 86e9 97bd
00000310: b838 d53d 111c 50bd 8dad 6cbe 7cd1 10be
00000320: f92a aa3b 8041 86be 998c cabd bc5d 4fbd
00000330: cb7c 87be 2bc2 183e c2a0 713d 5f46 b0be
00000340: 1e42 1abe 63b9 aabd 7b9b 2e3d 7499 d23d
00000350: b28d 223c e032 8fbe 3c16 86be 887f 88be
00000360: a264 693c e653 bd3d 8779 dcbc 80fe 163e
00000370: e257 963d 6daf 08bd 12d4 2bbe c538 f5bd
00000380: 6cde 09bd 026c 253b 48ec 503d 64a5 51bd
00000390: 3877 5d3d 2ce2 863e 21c0 00be cd2f af3d
000003a0: f726 8dbe 0f1f a4be 86b4 3e3b 0f1a 4e3e
000003b0: c99d 6abe 68ec b0bd 0783 933d 919e 4dbd
000003c0: bee8 353e e6cd adbd e981 eb3d 0bd6 32be
000003d0: cb13 97bd 06ea 453d a2e7 a0bd 1785 073d
000003e0: 7998 86bd fd1f 32be 3d06 34bd 1ff9 94bd
000003f0: 6e82 553e 6efb 5cbd c744 843e f173 c5bc
-0.2847421 -0.22540677 0.013513589 -0.094710074 -0.038495816 0.0057635326 -0.0073038754 0.12284945
-0.029261226 -0.01675749 -0.09368698 -0.32568446 -0.14101747 -0.13629942 -0.38890442 -0.18876448
-0.15317318 -0.24200135 0.05751663 -0.017096123 0.013394815 -0.017387813 -0.0043979604 -0.0087359715
0.02064722 0.041584887 -0.0030849832 -0.12713625 -0.13880897 -0.15817331 0.00056747167 -0.032193914
-0.022102848 -0.065659076 0.063037574 -0.0359694 -0.12693322 0.044875596 -0.12877674 -0.18067908
0.17530943 -0.090107284 -0.038712185 0.07432263 -0.22923812 -0.26154914 -0.13738915 -0.106832996
0.0310466 0.053826354 0.0076779216 0.05563007 0.120504126 0.18958695 -0.115829915 -0.095684454
-0.31294382 0.054671064 -0.00820753 -0.20541258 0.32865512 0.15765241 -0.026571965 -0.27229092
-0.16969863 -0.07992965 -0.008437262 -0.03924227 -0.073076636 0.016260348 0.030798012 -0.07645338
-0.2370109 0.01413761 -0.07609671 -0.102305256 0.0071990257 -0.0042456826 -0.10090552 0.10978824
0.010019362 -0.03636331 -0.023345897 -0.14043885 0.029205693 -0.08169164 -0.15914236 0.15505111
-0.03572941 -0.32553992 -0.2068468 -0.015854662 -0.05520355 -0.28641182 -0.0029467046 -0.07174408
-0.23509394 -0.1912181 0.005550557 -0.013829205 0.015872655 0.023745844 0.03179816 0.021363635
-0.041447055 0.23447049 0.050372675 -0.005164333 0.09608954 -0.09857226 -0.18451913 0.011183247
-0.010339385 -0.020930637 0.110472046 0.07524113 -0.09980918 -0.022940831 -0.025568029 0.0819409
-0.005528265 0.013445817 -0.021020588 -0.025347687 0.018593641 0.089541554 -0.18503633 -0.18529035
-0.2573988 -0.06504606 -0.060524546 -0.01851421 -0.0640818 0.06529331 0.15054628 0.015155584
-0.016140392 -0.019200264 -0.04336592 0.018793233 0.019384792 -0.063886054 0.0042379443 0.04653974
-0.14556585 -0.2782305 -0.33726093 -0.28870517 -0.14626232 -0.2322387 -0.35974687 -0.25131008
-0.33996865 0.09345361 -0.22880848 -0.41699558 -0.02799352 -0.14105834 -0.4339166 -0.1635948
-0.25860727 -0.43817016 0.13840437 -0.12645847 0.055668574 0.052679356 -0.18179335 -0.017577445
0.05083256 -0.20770183 -0.0987228 -0.36684367 -0.18864593 -0.15238285 -0.44546637 -0.0016334569
0.01138715 -0.4471132 -0.17790484 -0.32095093 -0.1963014 0.1811933 -0.17325349 -0.15862648
0.122983284 -0.20689975 -0.053903893 0.29039717 -0.4417876 0.12204252 -0.017034408 -0.19370991
-0.033969432 -0.00024393946 -0.08608018 -0.07417588 0.10411209 -0.050808016 -0.2311308 -0.14142412
0.005193111 -0.26221848 -0.09890098 -0.0506265 -0.26462397 0.14917819 0.0589912 -0.3442869
-0.15064284 -0.08336141 0.042628746 0.10283175 0.009921478 -0.27968502 -0.26188838 -0.266598
0.014245184 0.09244518 -0.026913418 0.14745522 0.07340981 -0.033370424 -0.16780117 -0.119737186
-0.033659384 0.002524138 0.051006585 -0.05118312 0.054068774 0.2634443 -0.12573291 0.08554039
-0.2756879 -0.32054946 0.00290993 0.20127128 -0.22911753 -0.08638841 0.07202726 -0.05020005
0.17764565 -0.08486538 0.11499388 -0.17464463 -0.07376822 0.048318885 -0.078566805 0.03308591
-0.065720506 -0.17395015 -0.04395126 -0.072740786 0.20850536 -0.05395072 0.25833723 -0.024103137

features.module.4.bias f4 [32]
00000000: edd5 ab3c 9bf4 253d a02a 97bd e3a3 66bd
00000010: 42b1 9ebd 8c5e 1a3d 9f04 783d 78de 9ebd
00000020: daef ab3c c022 863c 8d77 31bd 1ee7 8e3c
00000030: 45ff 7e3d 2d30 a23d eb01 0f3d 1226 83bc
00000040: de29 3cbd bbe8 fbbc 9485 2d3a a048 c2bb
00000050: 014f 713d eb6e 95bd 2b24 ec3b 2c5c d2bc
00000060: 939c dc3b 5c03 9f3d 8bc3 1a3b e76e 65bc
00000070: 422b e0bc f202 a5bd 56cf 95bd d717 103d
0.020976031 0.040516477 -0.07381177 -0.05630864 -0.07748653 0.037687823 0.060551282 -0.07757276
0.020988394 0.016373992 -0.043326903 0.01744419 0.062255163 0.07919345 0.03491394 -0.016009364
-0.045938365 -0.030750623 0.0006619331 -0.0059290677 0.058913235 -0.072965465 0.00720646 -0.025678717
0.0067325323 0.077643126 0.0023615088 -0.014003492 -0.027364377 -0.080572024 -0.07314937 0.035178985

features.module.5.weight f4 [32]
00000000: 441a 483f df54 a03f 19e0 203f 5e8e 853f
00000010: c95f 773f 1240 693f 4afe 4c3f 09b2 333f
00000020: 6075 883f cd1f 943f 6853 e73e 25c5 983f
00000030: c42b 2f3f 7c9f 173f a465 8e3f ce87 103f
00000040: 162e 523f ec83 5b3f fd30 243f 440d 443f
00000050: dc3d a03f 764e 513f ddaf 703f 86f7 503f
00000060: dd3e 923f dcf5 573f 5151 1b3f 7851 903f
00000070: f965 5c3f cc6b 3d3f 12a3 ab3f f9cc 533f
0.7816508 1.2525901 0.62841946 1.0434072 0.9663053 0.9111339 0.80075514 0.70193535
1.066082 1.1572205 0.4518082 1.1935164 0.68426156 0.5922773 1.1124768 0.5645722
0.8210157 0.8574817 0.6413725 0.7658274 1.2518878 0.81760347 0.94018346 0.8162769
1.1425434 0.84359527 0.60670954 1.1274862 0.860931 0.7399261 1.340914 0.8273464

features.module.5.bias f4 [32]
00000000: 3c67 f1be 18e9 9ebf 78ec 08bf c129 8bbf
00000010: 93d0 59bf 3ac1 4cbf a038 69bf 0ea2 68bf
00000020: cf0b 80bf 2569 78bf 3f82 25be aede 45bf
00000030: 1c39 a4bf aa44 51bf 8e66 7bbf 077a 5fbe
00000040: 9975 82bf 09d0 54bf f946 83bf dede 93bf
00000050: 30cb 6cbf fad4 3dbf 4a25 45bf aadc 31bf
00000060: 0763 14c0 e13c 57bf 5691 b4be 168d 79bf
00000070: 2fa9 40bf 3b61 15bf 1a89 a0bf 5462 86bf
-0.47149074 -1.2414885 -0.5348582 -1.0872117 -0.85083884 -0.7998234 -0.9110203 -0.90872276
-1.0003604 -0.9703544 -0.16162966 -0.7729291 -1.2829928 -0.817454 -0.9820336 -0.21823893
-1.0192138 -0.83129936 -1.0256034 -1.1552389 -0.9249754 -0.741531 -0.77010024 -0.6947733
-2.3185441 -0.8407727 -0.35267133 -0.97480905 -0.75258154 -0.58351487 -1.254184 -1.0498757

features.module.5.running_mean f4 [32]
00000000: c561 eebe 6e65 18c0 aaf2 79bf 4610 c8bf
00000010: ed36 86bf 1dfd e7bf ac66 d6bf 7ce9 c9bf
00000020: 8ff5 9abf b9cf acbf 7967 ccbe d12c b1bf
00000030: d1e7 22c0 3dc3 92bf 0022 d0bf b3ac 95bf
00000040: c8ee 0fc0 bc74 d5bf 6385 eabf adbd 03c0
00000050: fa7a 8fbf 47bb 3abf fb8d c3bf b801 a1bf
00000060: 3426 41c0 4eeb 8dbf ffac 20bf 6ac4 0cc0
00000070: 43e6 03bf bb36 84bf 6d3f cfbf 38c8 ccbf
-0.46558967 -2.3811908 -0.976359 -1.5629966 -1.0485512 -1.8124119 -1.6750083 -1.5774379
-1.2106189 -1.3500892 -0.39922693 -1.3841802 -2.545399 -1.1465832 -1.6260376 -1.1693329
-2.248949 -1.667625 -1.8321956 -2.058452 -1.1209404 -0.7294201 -1.5277704 -1.257865
-3.0179567 -1.1087434 -0.6276397 -2.1994882 -0.51523226 -1.0329202 -1.6191231 -1.5998602

features.module.5.running_var f4 [32]
00000000: 4acb 833f 6921 4540 9780 533f b40c fe3f
00000010: 9c2e cd3f b3af f83f f025 913f c4a8 7a3f
00000020: e45d 2140 16c2 3540 afdc 5b3f 9312 7b40
00000030: 85c4 e13f 1985 513f da65 e43f 435f 913f
00000040: 0207 1840 b9d2 0640 c6bb 8d3f c08c a23f
00000050: 48b4 0f40 4610 8f3f 8458 d43f 837c b23f
00000060: 9fda eb3f 9174 c03f c232 dd3f c5f8 5d40
00000070: e438 bd3f f05a eb3f ad28 5540 7ffc ef3f
1.0296414 3.0801642 0.8261809 1.9847627 1.6029849 1.9428619 1.1339703 0.97913766
2.5213556 2.839971 0.8588361 3.9230087 1.7638098 0.81843716 1.7843583 1.1357197
2.3754277 2.1066115 1.1072929 1.2699203 2.2453785 1.1176841 1.6589513 1.3944248
1.8426093 1.5035573 1.7281115 3.4683087 1.4782987 1.8387127 3.3306077 1.8748931

features.module.8.weight f4 [64, 32, 3, 3]
00000000: bfcc b3bc 9f3f eebb 2e70 a0bb f4b9 e4bb
00000010: 02aa 3fbc 03ba 9fbc 0908 503b 2d8f 4fbc
00000020: 0031 93bc 1082 14be 9dac 94bd 9ed4 9cbc
00000030: 2084 b4bd 5cb6 38bd c605 963b dd32 b4bd
00000040: 1a97 64bd 452b 01bc 3025 4abd 9799 e5bc
00000050: 802c aebc 48c5 86bc 4711 8cbc 34b4 92bc
00000060: c67f b8bc c0fb 94bc 2fc5 64bc 02d2 113e
00000070: bdc1 043e ab77 5d3e 4b1a d93d 165b ca3d
00000080: 8f15 563e 6e02 353e 39ea 303e 4694 b83e
00000090: abfe 70bc 1d5a 92bc 3711 febc 8934 173a
000000a0: 4e57 8abb 3667 ffbb 8beb ea3b cafc 88bb
000000b0: c4f4 febb f857 f6bd 8df3 50bd f543 05bd
000000c0: 341f bcbd c991 52bd f7b7 25bd 9345 96bd
000000d0: 2b10 6fbd 2f63 57bd a426 863e 06b4 a63d
000000e0: 44c1 f63d f507 213e 0754 803d 3762 f13d
000000f0: 04c8 043e 4401 a93d 382d fa3d f45f 383a
00000100: 66f9 54bb 8b69 a3bc 994c 6c3b 7dd1 1bbb
00000110: 5d56 90bc 8e00 4f3c 9054 faba a17c 8ebc
00000120: 1443 093c 04b6 ce3b 3917 b9bb 3ab3 093c
00000130: 1f70 003c 2eb6 4bbc 6c9c 21bc 3c7e 50bc
00000140: cc86 f0bc e311 e4bc 319e 8fbc 22ff b3bc
00000150: af6e a8bc 8e3d 8cbc c2aa ccbc 06a4 9cbc
00000160: b79c 4cbc 3d66 96bc 905a f6bc ace2 1abd
00000170: caa7 05bd 1bfa b3bc 5534 02bd 7437 11bd
00000180: e7a6 75bc 6094 c5bc c6e2 e9bc 84a1 f4bb
00000190: 68fc 95bc c2cd c7bc 409a 0bbc 2659 65bc
000001a0: 3dac d1bc 2905 b5bb ad59 43bc 855e f6bc
000001b0: a0d3 e7bc 6c31 83bc d700 0fbc 3e2d 9dbc
000001c0: d4e6 13bc 607d 53bb 4795 22bd f8d4 0abd
000001d0: 107b 92bc 67f9 44bd 26d4 e1bc 7146 0fbd
000001e0: 9c10 d4bc 684c 59bc 3ad2 eabc dea6 7bbc
000001f0: e8ec 5f39 efe7 37bc c2b2 33be f4f6 14bd
00000200: 6b35 213c 78c1 e4bd b6ed c0bc 8cda de3b
00000210: 03b0 8fbd e5eb 463b 76f6 983c 467f ebbc
00000220: 7dc8 1dbd fc06 babc 1a9e 05bd 0724 24bd
00000230: b42e edbc 05e7 50bd 76bd 6bbd 2509 2fbd
00000240: 03ad 9ebb aa0e 24ba 1a6d 753a f07a 02bc
00000250: 27fc c33b b29d d13b e894 cbbb 21e6 ad3b
00000260: 631e 493c ffe0 723e f756 2b3e 79de 463e
00000270: 441a 163e ac4f 023e c792 183e f315 253e
00000280: 5bb5 163e 7e78 573e 40b4 fabb 2c96 e139
00000290: a96c 283a 0782 5ebb abb7 763a 60af c3bb
000002a0: 0e72 9dbc dd1a 8dbc 8a86 a6bc 33c5 033c
000002b0: 8394 373c ecb6 b93c e2d8 1ebc f441 2bba
000002c0: de1d 863c 663f 89ba 7ee3 813c 97bf 0a3d
000002d0: 9f23 ff3a f224 e9bb cdb0 c9bb 18c4 6b3c
000002e0: 69bf 3f3c b3d0 f53b b657 e43b 0b43 9fbb
000002f0: a3a1 98bc 9918 dcbc a805 24bc 6dd6 06bc
00000300: 24bc 91bc 7b07 9b3b 038b 99bb 7c4a 2ebd
00000310: b518 c4bc 1560 21bd 6b24 193a 8ad4 deba
00000320: 0288 37bc d9c7 c43b 67a1 c0b9 b6eb 913b
00000330: 71e9 22bc 2b96 21bc 4f9a 9a3c 40b2 2fbd
00000340: 4eea 83bc 7c9c 7bbc 60b2 6cbd 54f9 a1bc
00000350: fa76 69bc 1189 98bd 3a90 fabc d233 17bc
00000360: 95e7 963d cc07 283d a7ec 803d 1c2a 633d
00000370: a093 073d 52f7 5c3d 6c49 123d 47c3 003d
00000380: 31a3 8b3c 70aa 52bc 2c09 9dbc 6b42 54bc
00000390: bd7e 06bc b7dd dcbb 4bcb febb f198 03bd
000003a0: 8059 6dbc 69c3 58bc 6c72 193d 0151 103d
000003b0: 4d8f 2c3d 3095 bc3c f4a7 b73c 383e a33c
000003c0: a95c ec3c 8920 dc3c 0c4a fc3c fe88 35bd
000003d0: 10f9 28bd 72d0 11bd 29c2 3dbd 46f2 1ebd
000003e0: 4834 36bd 5ffc adbd d74b 6fbd e94d 09bd
000003f0: e3b5 09bd 4488 4ebc 0678 8bbc c1f0 d1bc
-0.021948216 -0.007270768 -0.0048961854 -0.006980175 -0.011698248 -0.019497877 0.003174307 -0.012668413
-0.017967701 -0.1450274 -0.07259486 -0.019144353 -0.08814263 -0.045095786 0.004578325 -0.08798764
-0.055808164 -0.007883851 -0.04935187 -0.028027339 -0.021261454 -0.016451493 -0.017098082 -0.017908193
-0.022521865 -0.01818645 -0.013963028 0.14240268 0.1296453 0.21627681 0.10600718 0.098806545
0.20906661 0.17676708 0.17276849 0.36050624 -0.014709155 -0.017865235 -0.031014068 0.0005768021
-0.0042218333 -0.007794286 0.007169192 -0.0041805254 -0.007780643 -0.120284975 -0.051013518 -0.032535512
-0.09185639 -0.051408563 -0.040458646 -0.07337489 -0.05836503 -0.052584823 0.26201355 0.081398055
0.12048581 0.15725692 0.06266027 0.11786311 0.12966925 0.082521945 0.12215656 0.0007033341
-0.0032497286 -0.019947788 0.0036056398 -0.0023775988 -0.017619306 0.01263441 -0.0019098688 -0.017393412
0.008377809 0.006308319 -0.0056485203 0.008404547 0.007839232 -0.012433572 -0.009863954 -0.012725409
-0.029361151 -0.02784056 -0.017531486 -0.021972243 -0.02056059 -0.017119195 -0.024983767 -0.019121181
-0.012488536 -0.018359298 -0.03007248 -0.037813827 -0.03263072 -0.021969846 -0.03178819 -0.035453275
-0.014993406 -0.024118602 -0.028550517 -0.007465543 -0.018308833 -0.024390105 -0.008520663 -0.013998305
-0.025594825 -0.005524297 -0.011923236 -0.030074367 -0.028299153 -0.016014777 -0.008728228 -0.019186612
-0.009027202 -0.0032270774 -0.039693143 -0.03389451 -0.017880946 -0.04808941 -0.02756698 -0.034979288
-0.025886826 -0.013262846 -0.028664697 -0.015359608 0.00021355192 -0.011224731 -0.1754866 -0.036368325
0.009839396 -0.11169714 -0.02355085 0.006800955 -0.070159934 0.0030353006 0.01867221 -0.028747212
-0.03852128 -0.022708409 -0.03262148 -0.04007342 -0.028952934 -0.051001567 -0.05755373 -0.04273333
-0.004842402 -0.00062582886 0.00093622657 -0.007963881 0.0059809866 0.0063969726 -0.0062128194 0.0053069745
0.012275311 0.23718642 0.16732393 0.19420804 0.14658457 0.12725705 0.14899741 0.16121654
0.14717619 0.21042058 -0.007650882 0.0004302723 0.0006424883 -0.0033952014 0.0009411524 -0.005971834
-0.019219425 -0.017224723 -0.020327825 0.008042621 0.011204842 0.022670232 -0.009695264 -0.000653296
0.016371664 -0.0010471165 0.015855547 0.03387412 0.0019465572 -0.007115 -0.0061551095 0.014390014
0.011703351 0.0075016855 0.006968464 -0.004860287 -0.018631762 -0.026867198 -0.010011114 -0.008229834
-0.017789908 0.0047311164 -0.004685761 -0.042551503 -0.023937562 -0.03939827 0.00058419135 -0.0017000597
-0.01120186 0.006005269 -0.00036741348 0.0044531478 -0.009943352 -0.009862463 0.018872408 -0.0428946
-0.016102936 -0.015357133 -0.0577873 -0.01977221 -0.014249558 -0.07448018 -0.03058635 -0.0092286635
0.073683895 0.04102306 0.06295138 0.05546008 0.03309977 0.0539468 0.03571455 0.03143623
0.01704559 -0.012858018 -0.019169413 -0.012955288 -0.008208928 -0.0067402977 -0.0077756993 -0.03212828
-0.0144866705 -0.013230183 0.037462637 0.0352335 0.04212885 0.023020357 0.022418953 0.01992713
0.028852778 0.026870983 0.030797027 -0.0443201 -0.04125315 -0.03559918 -0.046327744 -0.03880527
-0.044483453 -0.084954016 -0.058421936 -0.033521567 -0.033620726 -0.01260573 -0.017025005 -0.025627496

features.module.8.bias f4 [64]
00000000: 3f76 d6bc cf31 2c3c 9c4c 353c b443 663d
00000010: b4f1 553d fe19 41bd 7e63 e83c e775 3bbd
00000020: 9fb3 e4bc 3396 b83c 4c00 20bd 6492 483d
00000030: 1919 b13c 6301 a03b 8e06 033d 9542 47bd
00000040: 815b 1a3c f454 ae3c 782c d7bc 066d 91bc
00000050: b7c2 bd3c 5724 463d ef6f b6bc 263b 0d3d
00000060: 1720 033d 7ae5 08bd b2ed 39bd ba81 dcbb
00000070: 4b25 113d 5002 43bd 0a88 22bd 1d74 2a3d
00000080: 2824 06bd b802 27bd 168c 1fbb d6e5 643d
00000090: c647 1a3d f25a f13c d961 ef3b b160 eabc
000000a0: 743f 36bd 378e f83c bea7 8a3c f07b 733c
000000b0: 56e4 acbc dc38 64bd 01f5 ff3b 9e19 21bc
000000c0: f388 8dbb 339f b13b 94b8 08bd 51b1 11bd
000000d0: 66b0 87bc 668e b53c a972 12bd 2605 5a3d
000000e0: 5030 66bd 072c 11bd 4014 863c 1787 63bd
000000f0: 7cd9 01bd c169 f13c 5487 1ebd 37d5 953c
-0.026179431 0.010509922 0.011065628 0.05621691 0.05223246 -0.04714393 0.028367754 -0.045766737
-0.027917681 0.022532558 -0.039062783 0.048967734 0.021618413 0.004882978 0.031988673 -0.048647482
0.00942123 0.021280743 -0.026266322 -0.017752182 0.023164136 0.0483745 -0.022270171 0.034480236
0.032013025 -0.03342197 -0.0453927 -0.006729332 0.035435956 -0.047609627 -0.03968052 0.04161464
-0.032749325 -0.040774077 -0.0024344972 0.05588325 0.037666105 0.029462311 0.0073053655 -0.02861056
-0.044494107 0.03034125 0.016925689 0.014861092 -0.021104973 -0.055718288 0.007811189 -0.009832768
-0.004319304 0.0054205894 -0.033379152 -0.035569493 -0.016563606 0.022162627 -0.03575388 0.053227566
-0.05619842 -0.03544238 0.016367078 -0.055548754 -0.03170155 0.029469373 -0.038703278 0.018290145

features.module.9.weight f4 [64]
00000000: f01c ca40 a726 da40 7457 7d40 76a2 8b40
00000010: f61d fd40 18c1 9840 a2f3 8240 3b1d 0041
00000020: d35f 8040 3918 9840 c8d2 be40 83c2 5a40
00000030: 8744 9940 47a9 8740 e5ef b240 3a3a 6d40
00000040: 7d52 8740 8c05 6040 07da 8a40 7673 5340
00000050: 667c 9740 1226 b740 9964 5c40 0e7d b540
00000060: 9c3e 9c40 b58f 7f40 03d0 8d40 429e 9440
00000070: 0d56 0141 460d 9f40 d951 ff40 e25a b240
00000080: bab8 6740 e22c aa40 e99c c040 7091 f440
00000090: f345 a240 be51 7f40 f1e7 a540 ef55 5e40
000000a0: 3d78 7d40 2f0a d840 5481 9040 3fa5 a440
000000b0: ce16 9940 938e b740 9fce 8940 22cf a840
000000c0: 771b e640 af02 a140 ab2d 8040 229b b940
000000d0: 23b8 6940 7c1b 7a40 d3e4 a840 0181 5640
000000e0: d94d 8440 ac9c 8040 fb1a a840 6223 3c40
000000f0: 992e 8e40 6199 8140 3b98 7e40 ab22 6940
6.3160324 6.8172183 3.9584627 4.3635817 7.9099073 4.773571 4.0922403 8.007136
4.0116973 4.752957 5.96323 3.418122 4.789615 4.2394137 5.591784 3.7066789
4.2288194 3.5003386 4.3391147 3.3039222 4.7339354 5.7233973 3.44364 5.6715155
4.8826427 3.9931462 4.431642 4.6443186 8.0835085 4.9703703 7.978741 5.573594
3.6206498 5.317979 6.019154 7.6427536 5.0710387 3.9893641 5.184563 3.473995
3.9604638 6.751243 4.515787 5.1451716 4.784034 5.736154 4.3064723 5.275285
7.1908526 5.0315776 4.0055747 5.800187 3.6518638 3.9079275 5.2779326 3.3516238
4.134503 4.019125 5.2532935 2.9396596 4.443188 4.049973 3.9780414 3.642741

features.module.9.bias f4 [64]
00000000: 72c8 df3f c8fc e13f 7041 563f 0747 883f
00000010: 01b5 1740 2af0 a53f 758a 883f 19f1 b23f
00000020: 2c86 4a3f 4240 8b3f d4c2 5840 d4e7 733f
00000030: a25f 3340 c61d 8d3f fd47 813f d540 783f
00000040: d70a 883f 2419 593f 6a93 533f 9e71 5d3f
00000050: 1e7a 0540 2b03 a73f 9339 4b3f bccc aa3f
00000060: 1b3b 2f40 7d87 eb3f 99e2 673f 2258 1b40
00000070: 400d d93f dd9f b03f 0a0b f03f d41f 7c3f
00000080: c32d 7c3f 7034 9d3f 9b07 c63f f66d 0640
00000090: 6707 863f cc69 813f 55d7 a53f 5e74 5b3f
000000a0: 550e 6e3f fef5 c23f 1c52 5d3f 9e0e 843f
000000b0: bb6f 9d3f c9ff b33f e0cd 8b3f bf55 b83f
000000c0: f6fd b73f b2eb a93f 2ccb 853f 00bd cb3f
000000d0: 2e1d 6d3f 009e 563f e44b 6c3f c14e 4d3f
000000e0: 7664 983f 909c 8f3f 99d5 aa3f 844a 533f
000000f0: c40c 3d3f f3ea 8b3f 2c67 823f 0230 8a3f
1.7483046 1.7655268 0.836936 1.0646676 2.3704226 1.2963917 1.0667254 1.3979827
0.7911098 1.0878985 3.3868914 0.95275617 2.802712 1.1024711 1.0100094 0.96973926
1.0628308 0.84803987 0.8264681 0.8650149 2.0855784 1.3047842 0.79384726 1.334373
2.7379825 1.8400723 0.90580136 2.4272542 1.6957169 1.3798786 1.8753369 0.98486066
0.98507327 1.2281628 1.5471071 2.1004615 1.0471009 1.0110412 1.2956339 0.8572444
0.9299062 1.5231321 0.86453414 1.0316961 1.2299722 1.4062434 1.0922203 1.4401168
1.4374378 1.3275054 1.0452628 1.5917053 0.9262265 0.8383484 0.923033 0.80198294
1.1905658 1.1219654 1.3346435 0.82535577 0.73847604 1.0931076 1.0187736 1.0795901

features.module.9.running_mean f4 [64]
00000000: 163f 58bd 3b20 943d 2f35 873c 2061 bc3d
00000010: ff31 ddbc a305 68bd 56a2 803b 0a0d 44bc
00000020: 71ff 25bd 911f 053d 34c9 c53c 7bf6 2c3d
00000030: 445d d83d 38fa 093b 51ce 513d 3406 b7bc
00000040: 7366 163d 72a3 703c 1f9e fcbc c5c9 edbc
00000050: f0e6 4c3d 4f69 223d 9761 a7bc 9523 5c3d
00000060: 46d6 073e 46d9 f93b 5751 cbbc e509 213d
00000070: 8bb7 ff3c 5fe9 43bd 3c1f 1fbd 9479 813d
00000080: 8c8e 0dbd 6118 fdbc 02ad c13c 6b25 8839
00000090: 64ba 783d d802 243d 7926 173c 92d1 eebc
000000a0: 1840 64bc 1e82 9cbc 30ae 1e3d 1a28 113d
000000b0: e573 833b 3176 09bd fa8a 4d3d ae8c 7c3b
000000c0: d67e 8b3c c611 493a c47c 8dbd f0d6 8bbd
000000d0: 7229 2fbc a7a5 623c d4e0 16bd 0631 8e3d
000000e0: 6d74 2dbd aa3f 2ebc c785 733d cf1e c6bb
000000f0: 550e 0dbd 1692 af3c d7e8 28bd 4dc2 6a3c
-0.05279454 0.0723271 0.016504852 0.091982126 -0.027001379 -0.056646 0.003925602 -0.011965999
-0.04052681 0.032500807 0.024143793 0.04222725 0.10564664 0.0021053683 0.05122215 -0.022341825
0.036718797 0.014687406 -0.030837117 -0.029026875 0.050024927 0.03965121 -0.020432277 0.05374487
0.13265333 0.007624778 -0.02481906 0.039316077 0.03121545 -0.047829982 -0.038848147 0.06322017
-0.03455977 -0.030895414 0.023642067 0.0002596782 0.06072463 0.040041775 0.009225481 -0.029152665
-0.013931297 -0.019105013 0.038740337 0.035438634 0.0040116184 -0.03355998 0.050181367 0.0038536
0.017028254 0.000767019 -0.06908563 -0.068281054 -0.010691034 0.01383344 -0.036835507 0.06942944
-0.04234736 -0.010635296 0.059453752 -0.006046153 -0.034437496 0.021431964 -0.04123768 0.0143285515

features.module.9.running_var f4 [64]
00000000: cb57 693c 8614 8e3c d49e c73b 7366 123c
00000010: e416 9e3c 7781 ff3b 8fd4 9c3b c645 bb3c
00000020: da2d ca3b b3e4 013c b097 203c 8798 c13b
00000030: 116c 0a3c 2d8a c83b dee9 4c3c 69d5 003c
00000040: 6d97 0c3c 2ce9 a93b be7e d63b e6eb a53b
00000050: 185f 2a3c b801 433c 9d06 a03b 39a7 193c
00000060: 9e23 183c 8501 043c b09d 0f3c 383b f73b
00000070: 5859 403c b9c8 243c 7f99 a13c b9a7 2e3c
00000080: 0306 cd3b e0dc 383c 30fd 503c 4892 8d3c
00000090: edbb 223c 8cc9 ab3b f6bc c13b 3e28 ac3b
000000a0: b20d 0b3c fdc4 463c 2e91 033c ae02 333c
000000b0: 3768 183c 00d0 453c ee41 163c 023b 103c
000000c0: d404 983c 5642 a13b a03c bf3b 53c2 3e3c
000000d0: 0263 ab3b 6a93 bc3b e520 123c 54b3 ea3b
000000e0: 7ab1 0e3c a024 073c b7a3 383c b28d 023c
000000f0: 7987 d43b 27c8 d23b 85ea c23b 56ad 053c
0.014242123 0.01734377 0.006091932 0.008935559 0.019298024 0.007797416 0.004786081 0.022860419
0.0061700167 0.007928061 0.00980179 0.0059080753 0.008448617 0.0061199875 0.01250693 0.007863381
0.008581025 0.005185267 0.0065458706 0.0050635217 0.010398649 0.011902265 0.004883601 0.009378248
0.009285836 0.008057003 0.008765623 0.007544901 0.011740051 0.010057622 0.019726513 0.010660105
0.00625682 0.011283129 0.012755677 0.017281666 0.0099325 0.005242532 0.0059124185 0.0052538207
0.008487152 0.012131927 0.008030219 0.010925932 0.0093021905 0.012073517 0.009170992 0.008803131
0.01855699 0.004921238 0.0058360845 0.01164301 0.0052303085 0.005754878 0.0089189755 0.007162491
0.008709306 0.008248478 0.011269501 0.007968353 0.006485876 0.0064325514 0.005948367 0.008159002

top_layer.weight f4 [10, 64]
00000000: 4bb7 26bd fb9a 54bc 7830 50bc 148d b13c
00000010: bcf6 1dbe 4144 b0bd 278d 7dbd 213e 363f
00000020: b453 a4bc e10c 913c 4571 813d 1c02 86bd
00000030: 5567 453d e194 56bd 3b2d 83bd 8a3a 88bc
00000040: 69b0 623c 888b 03bd a300 e0bc 45f6 21bd
00000050: 2bf0 43bc 1541 13bd 266f fabc c7d9 87bd
00000060: 669f a13d ce25 b13c c6b2 83bd 51c9 94bc
00000070: 169b f9bd f1ff efbc f01c ddbd fb8b a1bd
00000080: 99de 2dbd 6923 24bd 34bf 7abd cf3e 14be
00000090: 5f62 65bd 5951 13bd fee3 86bd bade ebbc
000000a0: 7b6f 7abb 0e99 aabd 87af 52bd 3340 96bd
000000b0: bd2b a3bc 946a da3e 4245 b33c a9a4 acbd
000000c0: 00fd 243f 1020 37bd 5eb3 8bbc 974c 4ebd
000000d0: a669 33bd e2b5 c5bc c700 80bd f57a 1ebc
000000e0: aa24 6cbd d965 58bd cee8 c33c 4844 e53c
000000f0: e172 0ebd ed35 f1bc 5ef2 1ebd d91c d7bc
00000100: b198 1fbe e20b 8dbd 7d69 b03b e27c 15bc
00000110: ee76 4dbe 944c 04be ff04 f7bd a83d dfbd
00000120: 2b82 c5bc a791 ac3b ad64 363e 1c36 79bd
00000130: 41ae c03d 96c3 8dbd a013 a5bd dc04 afbc
00000140: 49cf 4ebd efb2 20bd e5e0 f7bb cc65 2fbb
00000150: 24f2 0fbc d5cb cbbd f656 15bd f267 32be
00000160: 8fcb eb3d 6379 ba3e d10c 8abd 0b7e e33c
00000170: a977 d6bd 66ab 62bd a89c 2a3f ba9c b6bd
00000180: e305 c1bd 1307 e73e 481e ebbd 1122 a13e
00000190: 6ed5 93bd a556 35bc 2615 1dbd 9fb1 8fbd
000001a0: aba8 b9bc aadb 9dbd 852d 34bd 5ff9 7ebd
000001b0: 746f f3bb 6ac1 1abe 2c9c 1abd 0087 1ebe
000001c0: da71 bebd 6229 5cbc 4070 06be 18bf 1fbe
000001d0: 47de 6bbd c2c9 a8bc c49f 1dbc 72f7 81bd
000001e0: 9c3c 85bd e320 61bd 629c 47bc 0ddd d3bb
000001f0: d408 beb9 19d6 f3bd 6469 c4bd d14d cfbd
00000200: ed6f d8bd 6418 a9bd 752d 87bc 0e47 23bc
00000210: fd8e 08be 8d29 cabd 7c0b 8bbd 80b5 23be
00000220: ef8e b2bc 462e f6bb 68b3 a13d 4902 a4bd
00000230: d9ba c03e 241d 9fbd d474 f1bd 5c12 39bd
00000240: 883f 61bc de98 9bbd ac46 d5bc c851 9fbc
00000250: 6362 483d 4ad0 6fbd bbd0 2ebd b6f6 eb3e
00000260: 50f3 bb3d 4d91 1a3d 9f05 b3bd ee55 df3e
00000270: 5e6b 01be e919 ccbc 54e3 a6bd 9441 bcbd
00000280: e623 7abd 144a 91bc dc2b 153f a638 77be
00000290: b7fd a7bd 4f84 94bc 9f6d 28bd 9a13 7fbd
000002a0: 3768 e7bc 2b19 a7bd ec6b 6fbd 57a2 b1bd
000002b0: e044 603a 2fa0 ab3d a530 9abc d60e d13e
000002c0: 51f0 f7bd d0b8 19bd cbf3 0abe b03a e5bd
000002d0: d6ca 30bd 720a 78bd 7d65 47bd 18d1 4abd
000002e0: c2e8 94bd 2583 80bd 8c30 4ebc bb43 fd3c
000002f0: 34c2 05bd 3aec e7bd caef 7bbd 3aeb d1bd
00000300: 18aa 8b3d 8bcb 2abe cf13 d8bd b420 04be
00000310: 4a17 d7bd 60d0 563e efa3 a93e c29e a8bc
00000320: 6a51 cdbd 5eee 25be c101 60bd ef6e 063b
00000330: 3715 bebd 509c 073d 06c4 023e 1c18 bdbd
00000340: f79a 13be 575e 3fbd f925 d3bd 6756 d5bd
00000350: a946 32bd 8c84 4b3a 8804 65bc c75c 17bd
00000360: 37e0 debd 030e b0bd 7e4d c83b 1b3a f83c
00000370: 53dc 3f3f f0cf 803b 0f85 e4bd a66a c4bc
00000380: 91cf 20bd b113 a6bd 5acc 3bbc afeb 92bd
00000390: 971a 3fbc f4a3 21bb 2537 f83e 5541 43bc
000003a0: 0ca5 f0bd 2ee2 963e 7eb1 18bd bda7 a63d
000003b0: ec8f 28be 6034 e3bc e9f7 08be 7117 0ebd
000003c0: e306 bebc 1a01 f73e 57e4 8b3e b019 88bb
000003d0: 5e1b 2ebd 2ac1 2b3c 1146 babd 056b a7bd
000003e0: b50b 9fbd 16fa abbd d661 46be 6c96 8fbd
000003f0: 76cc aebd 890f 18bd 9e40 f3bc 6494 4cbd
-0.040702146 -0.012976403 -0.012706868 0.021673717 -0.15426153 -0.086067684 -0.06190219 0.7118855
-0.020059444 0.017706336 0.063204326 -0.06543371 0.04819425 -0.052388076 -0.064051114 -0.016629476
0.013836005 -0.03211549 -0.027344054 -0.0395415 -0.011959116 -0.03595074 -0.030570578 -0.066333346
0.07891731 0.021624472 -0.06430583 -0.018162401 -0.121877834 -0.029296847 -0.10796535 -0.07888027
-0.042448614 -0.040072832 -0.0612175 -0.14477085 -0.056002017 -0.03596625 -0.06586455 -0.028792728
-0.003821342 -0.08329974 -0.051436927 -0.07336464 -0.019918317 0.42659438 0.02188361 -0.08429844
0.6444855 -0.04470831 -0.017053302 -0.05036601 -0.043801926 -0.02413458 -0.06250148 -0.00967287
-0.057652153 -0.052831504 0.02391472 0.02798666 -0.034777526 -0.02944466 -0.038805358 -0.026258873
-0.15585591 -0.06887032 0.005383669 -0.009124013 -0.200649 -0.12919837 -0.120615 -0.10900432
-0.02410992 0.0052663865 0.17811842 -0.06084262 0.09408236 -0.06922071 -0.08060384 -0.021364622
-0.05049065 -0.039233144 -0.0075646513 -0.0026763557 -0.008785758 -0.09950987 -0.036459886 -0.17422464
0.11513435 0.36420736 -0.06740726 0.027770063 -0.10472042 -0.05533924 0.6664529 -0.08916612
-0.09424951 0.45122585 -0.11480385 0.31471303 -0.07218443 -0.011068021 -0.038350247 -0.070163004
-0.022663435 -0.07707913 -0.043988723 -0.062249538 -0.0074290577 -0.15112844 -0.037746593 -0.15481186
-0.09299059 -0.013437601 -0.13128757 -0.1560024 -0.057585027 -0.020604018 -0.009620611 -0.063460246
-0.06505701 -0.054963004 -0.012183281 -0.0064655603 -0.00036246201 -0.1190607 -0.09590414 -0.10122264
-0.10568223 -0.08256605 -0.016501168 -0.009965671 -0.13335796 -0.098712064 -0.067893 -0.15987206
-0.021796672 -0.0075128404 0.07895547 -0.08008248 0.37642553 -0.0776923 -0.11789861 -0.045183524
-0.013748057 -0.075975165 -0.026034676 -0.019448176 0.048921954 -0.05854825 -0.04267953 0.46086663
0.091772676 0.037736226 -0.087413065 0.43620247 -0.12638614 -0.024914699 -0.08148828 -0.091921955
-0.06106939 -0.017735519 0.5827005 -0.24142703 -0.08202689 -0.018129496 -0.041120168 -0.062274553
-0.028247936 -0.08159097 -0.05845253 -0.08673542 0.0008555185 0.08380162 -0.018822024 0.4083163
-0.121063836 -0.037529767 -0.13569562 -0.111928344 -0.04316219 -0.060556836 -0.04868077 -0.049515814
-0.072709575 -0.06275014 -0.012584817 0.030916085 -0.03265591 -0.113243535 -0.061507978 -0.10249944
0.06819552 -0.16679208 -0.10550653 -0.129031 -0.10502489 0.20977926 0.33132884 -0.020583514
-0.10025294 -0.16204211 -0.054689173 0.00205129 -0.0928139 0.033108056 0.1277009 -0.09233114
-0.14414583 -0.04672083 -0.10309977 -0.104168706 -0.043524418 0.00077635865 -0.013978131 -0.036953714
-0.10882609 -0.085964225 0.0061127534 0.030301144 0.74945563 0.003931038 -0.111581914 -0.023976635
-0.03926045 -0.081092246 -0.011462295 -0.07173859 -0.011664054 -0.0024664374 0.48479572 -0.011917432
-0.1175023 0.29469436 -0.037278645 0.08137462 -0.16461152 -0.027734935 -0.1337582 -0.034690324
-0.023196643 0.48243028 0.27322647 -0.004153453 -0.042506568 0.010483066 -0.09095395 -0.08174709
-0.07765905 -0.083973095 -0.19373259 -0.070111126 -0.085350916 -0.03712419 -0.029693898 -0.049946204

top_layer.bias f4 [10]
00000000: 500a 1f3c 7192 183c 8a23 843b c636 773a
00000010: e27f e6bb f083 1ab9 8f6a 46bc c940 3dbc
00000020: 70a5 af3b f200 c33a
0.009707049 0.009312258 0.004032557 0.0009430464 -0.007034288 -0.00014735735 -0.0121103665 -0.0115510905
0.005360298 0.0014877601

momentum_buffer f4 [16, 1, 3, 3]
00000000: 5a1c 9e3d a046 fb3d 3850 863a 244a 0f3e
00000010: 5bae 2d3e 785d 6e3c 894c 193e 1289 ec3d
00000020: be64 ab3c 6390 eabd 39de a2bb 96a9 453c
00000030: 079e 10be dabe 5abc f23d 343d aa83 a4bd
00000040: b5af 1f3d 3483 c13d 50d3 093c 30ec 8c3a
00000050: 568b 39bd fa42 253c ac9f 923c bcca 3dbd
00000060: 3128 1d3c c84a c23c e4b7 25bd 9dc6 3e3b
00000070: 2c3c 1d3b c1ce a0bd 45e3 0e3d acbd 473b
00000080: 897d fbbd a896 333d 1c60 233c 621d f3bd
00000090: 1870 b4bd b349 ddbd ae4a c8bc 3205 60bd
000000a0: e5cf b1bd d29a c6bc e0b6 47bd 1a26 b1bc
000000b0: 053d 323d bf87 dbbd d0d6 81bd d549 82bc
000000c0: 31b1 f3bd 0208 74bd 5479 34bc 8c89 e8bd
000000d0: 4554 0ebd 64e7 453c dce8 333d 1e3b e53d
000000e0: 74d0 863e 73ed 2b3d e266 083e 8a94 8c3e
000000f0: 52de 283d 9b38 153e 8ecf 793e f962 0b3e
00000100: aea0 b93d 397f 3dbd c026 e83d 6d0e 983d
00000110: e49a b0bd 0705 a13d 9a4b b43c dd9b 01be
00000120: a070 5a3c 84cf df3b 309a 35b9 7e8a 843d
00000130: 67c8 263d aa1e d53c 3d44 bd3d 8372 a03d
00000140: d801 6a3d 385d c7bc fb9b 03bd 2365 02bc
00000150: d6c7 45bd 6fb4 37bd 93a3 29bd 5072 adbc
00000160: e4a5 01bd 4181 d7bc b9fa f6bd ea3f 97bd
00000170: 2abd 803d fdca 7ebd 22de d7bc 6e38 c03d
00000180: 0e1f efbc 004b c4b9 3c17 0d3e 69e3 b6bc
00000190: b845 a83c c466 423e ba6a 70bc aace 463d
000001a0: 206a 5a3e 93c2 a03a b01c 7b3d 911d 613e
000001b0: 3655 ce3c c02e 803d daad e93d 0a16 ee3c
000001c0: cac0 993d d063 f53d a809 ea3c bc5e 9a3d
000001d0: 4c43 963d 14c2 8ebc 3021 983a 872c c63c
000001e0: 9676 103d 2ca3 193c 46b5 9c3c 876e db3c
000001f0: 2030 153b ac8b 2fbb 78b9 25bd 3e16 dabc
00000200: 98b5 e2bc 9b1d 25bd e2b1 12bd 30e7 93bb
00000210: 67c1 37bd 10e8 d0bc 6033 c63a 2eea 213e
00000220: 5d2b 333d ddf7 283d d958 5b3e c963 d03d
00000230: b330 963d 32fc 853e 24c2 1a3e b7a8 ca3d
0.077202514 0.1226933 0.0010247296 0.13993126 0.16961043 0.014548652 0.14970602 0.115495816
0.020922061 -0.11453321 -0.0049703387 0.012064358 -0.14122783 -0.013351167 0.04400439 -0.080329254
0.038985927 0.09448853 0.008412197 0.0010751542 -0.045298897 0.010086769 0.017898403 -0.04633592
0.009592102 0.0237173 -0.040458575 0.0029110082 0.0023992164 -0.07851935 0.03488471 0.0030478043
-0.12279803 0.04384485 0.009971645 -0.11870839 -0.08810443 -0.10805073 -0.024449673 -0.054692455
-0.08682231 -0.024243746 -0.048758388 -0.021624614 0.043515224 -0.10719251 -0.063398 -0.015904346
-0.11899031 -0.05957795 -0.011015255 -0.1135436 -0.034748334 0.012079094 0.043923244 0.11192916
0.26330912 0.041974496 0.13320497 0.27457076 0.041227646 0.14572375 0.24395582 0.13611974
0.0906385 -0.046263907 0.11335516 0.074246265 -0.08623293 0.07862287 0.022008706 -0.12657113
0.013332516 0.0068301577 -0.00017318944 0.06471728 0.040718462 0.026015598 0.09241531 0.078343414
0.057130665 -0.024336442 -0.032131176 -0.007958683 -0.04828628 -0.04484981 -0.041415762 -0.021172673
-0.031652346 -0.02630675 -0.1205954 -0.073852375 0.0628608 -0.062205303 -0.026351038 0.09385763
-0.029189613 -0.00037439913 0.13778394 -0.022325234 0.020541057 0.18984514 -0.014673883 0.048536934
0.21329546 0.0012265019 0.061306655 0.21983935 0.025187116 0.06258917 0.11410113 0.029063243
0.07507475 0.11981928 0.028569058 0.075376004 0.073370546 -0.017426528 0.001160657 0.024191154
0.035269342 0.009377282 0.019129407 0.026786102 0.002276428 -0.0026786132 -0.04046008 -0.026621934
-0.027674481 -0.040311437 -0.035814174 -0.0045136437 -0.044862177 -0.025501281 0.0015121512 0.15811989
0.043742526 0.041252006 0.21420611 0.101752825 0.073335074 0.26168972 0.15113121 0.09895461

momentum_buffer f4 [16]
00000000: 4623 bbb6 7dd4 e236 68a3 8b37 73be da37
00000010: 7cf1 f637 0ef3 d6b7 fc30 0837 2e91 68b7
00000020: 1105 6db6 45e9 cab7 9bd1 f637 6303 c7b7
00000030: a5b7 9037 d506 3f37 6813 3037 a686 92b7
-5.5771407e-06 6.7600618e-06 1.6646183e-05 2.607631e-05 2.9437935e-05 -2.562397e-05 8.117637e-06 -1.386208e-05
-3.53187e-06 -2.4188901e-05 2.942309e-05 -2.3724226e-05 1.7251654e-05 1.1386078e-05 1.0494936e-05 -1.7467257e-05

momentum_buffer f4 [16]
00000000: c29c 0ebd 7f29 a6bd a6b8 6bbc d46d 65bd
00000010: 02d0 88be beff debd b12b ba3d e987 bb3e
00000020: a8bf 223c c7f1 9ebd 75d7 8cbd c069 06bd
00000030: eca6 443c c866 e1bc 515c 20bd 8de5 303c
-0.034817465 -0.081133835 -0.014387285 -0.056012943 -0.26721197 -0.10888623 0.09090365 0.3662713
0.00993339 -0.07760959 -0.06877033 -0.032815695 0.012002688 -0.02751483 -0.03915054 0.010796917

momentum_buffer f4 [16]
00000000: 7ec4 debc 7ee2 24bc c035 efbc ad38 47bd
00000010: 6477 1bbe 1e41 a3bd 06ea f23d 405a 203e
00000020: 38b6 92bc 8864 90bd 8441 0d3d 8764 98bd
00000030: 98a9 1abd 4e99 c8bc 1737 c6bc be84 52bd
-0.027193304 -0.010063766 -0.029200435 -0.048638035 -0.15182263 -0.079714045 0.11861043 0.15659428
-0.017909154 -0.07050425 0.03448631 -0.07441049 -0.037759393 -0.024487164 -0.02419619 -0.051396124

momentum_buffer f4 [32, 16, 3, 3]
00000000: 2ef8 033c 3c5e b33a 1ea4 9ebb c509 813b
00000010: c099 30b9 5dd9 57bb 6c5b 4f3a 44fd 0fbb
00000020: 3aac 283b d0e5 f83b 893a 0d3b 5a96 fc3a
00000030: d257 b53b 3a48 8c3b 4ac0 413b 0256 b93b
00000040: 8ce4 933b a436 883b d72e 8d3c a243 bcbb
00000050: f50f d7bb 8ca7 713c 28dc 72ba 608d 523b
00000060: d5c4 303c 4068 c1bb 2496 373c c625 d83b
00000070: 42f2 243c dbbe 0f3c 16a9 e9bb f973 bfba
00000080: a007 a638 b8bc d1bb 3211 a0bc 261f 86bc
00000090: 0dd5 85bb 9802 af3a 0b06 4e3b fe55 8bbb
000000a0: 2afe 3f3b a81f be3a 91b6 aeb8 1ef0 413b
000000b0: 86d3 c3b9 3c5a 15bb a4a0 b9ba 953c 74bb
000000c0: 9439 95bb e7cd bbba 98f6 193b e85e c6bb
000000d0: 7086 61b9 57b7 543c 6770 9b3a 6864 9bbb
000000e0: 0691 6cbb 647f 0d3a 7cdc d83b b810 533b
000000f0: 3e7d 653c 44c0 1b3a c71a bcbb c6eb 323c
00000100: e1b5 423c e214 b43b 0099 92b6 59f9 1a3c
00000110: 007d 993a 2ca7 32bc 568b 26bc 75df 38bc
00000120: 8061 78bb 3d76 dc39 07e3 a43b e180 85bb
00000130: 4292 bfbb 1cbf 863b 75b8 2fbb d12a 14bc
00000140: 269e 3c3b fbf7 ac3c 49e2 d23a 600e d2ba
00000150: bad5 753c ce37 f7bb c9d8 0abb fb59 523c
00000160: e127 edbb 5a00 22bb 0fd9 31bb b205 d3ba
00000170: 94ac 403b 8257 f9ba c20d 5bbb 9763 053c
00000180: 36ba 84ba ad72 0cba 7bd7 df3b bd31 cbbb
00000190: afc3 19bc ce86 48bc cef8 723b 902f 053c
000001a0: 93c4 56bb 9eb9 313c 2f5a 14bc 500b a1bb
000001b0: d3fb cc3b 5de8 adba 7a79 90ba 9038 07ba
000001c0: f8d7 003a 599e 1bba 6866 153c ca4d a93b
000001d0: aec3 a339 adf4 133c 6af6 0e3c a6d0 bbbb
000001e0: 7064 8e3a 2f0e 823b a42b 193c 507f 4a3c
000001f0: a0c4 443c acf1 413b ee80 efba 79db 213b
00000200: cd50 c33b bbe5 7d3b 7e38 8a3b e407 3b3b
00000210: 4177 913b 916f 7cb8 e8a4 14bb 18dc 9cba
00000220: 0013 643a 451d 1c3c c604 14bc bdd9 ffbb
00000230: b5ff ac3a 000e e6bb 8c59 a1bc 38e5 3abc
00000240: a011 0e3b d0b2 23ba fac8 e4ba fedb 71bb
00000250: c3cd a7bb e380 5cbc f9ac bcbb d8c3 9dbb
00000260: 45c3 4bbc a994 6abd 50a3 803c 4c91 293c
00000270: bd26 48bd 2a5d c43b fc71 13ba 28be 0fbd
00000280: 7e63 52bc 6108 ecbb a2c9 4a3d 10e5 f93c
00000290: 5d60 033c 5298 a53c ca7b 263d 839f e83c
000002a0: 19ec 2e3d b25a 553d 551a 433d ab6f 68bc
000002b0: 6b80 85bc 8447 64bc 5e46 31bc 97a8 a8bc
000002c0: 5c01 99bc 68eb ebbb d2d6 20bc b031 6bbc
000002d0: 7679 a33c bcae f33c de97 c63b e5a6 753c
000002e0: ff2d 1b3d 75be 103c f0be fb3c e794 013d
000002f0: 4992 073b 195d 183d 06f8 953c 2e19 1e3c
00000300: 2026 d83c 28e7 323c 6c42 593c a668 2e3d
00000310: 52f9 8f3c 06de 053d 4c5f 323c 78af b63c
00000320: acdc 803c 88a3 723b 1812 8b3c 1826 483c
00000330: 964b 1bbc b018 653b 1e95 e63b 7417 42bd
00000340: 9645 e5bc 8720 f4bc 25bb 4dbd 3b57 31bd
00000350: a699 88bd 0c25 14bd d681 73bd 5be1 9ebd
00000360: b206 8ebc 2bc3 0fbd 937d 3fbd b9a6 eebc
00000370: 1e45 93bd f1d7 4cbd 8a70 2bbd 9742 86bc
00000380: 91af 99bd 0854 47bd e9be d3bc 1857 543a
00000390: 89ec edbd a5c4 febc 84d0 ab3a 1716 fdbd
000003a0: def2 c1ba 4692 083a 4a59 e3bc 8ba1 96bd
000003b0: dd48 2dbd 235d 59bd 80b5 99bd d6f2 e2bd
000003c0: d68e 85bd e092 d5bc 9959 a7bd 113d 513c
000003d0: 3b5c f23c 1404 bc3c 847b 913c 81aa 0b3d
000003e0: cad8 e53c a834 5e3c bbca fe3c f652 b13c
000003f0: e657 8dbd a9d7 413b 7031 553c 7475 c6bd
0.008054776 0.00136847 -0.0048413416 0.003937932 -0.00016841944 -0.0032935955 0.0007910046 -0.0021971026
0.002573742 0.007595755 0.0021549782 0.0019270882 0.0055341506 0.004281071 0.0029564076 0.005656005
0.004513329 0.0041569043 0.017234249 -0.005745367 -0.0065631815 0.014749419 -0.0009264373 0.0032127723
0.010789116 -0.00590232 0.01120523 0.0065963 0.010067524 0.008773531 -0.0071307523 -0.0014606706
7.916917e-05 -0.006400671 -0.01953945 -0.016372275 -0.0040842355 0.0013352213 0.0031436707 -0.0042521944
0.002929578 0.0014505284 -8.330972e-05 0.0029592584 -0.00037350896 -0.002278938 -0.0014162255 -0.0037267555
-0.004553983 -0.0014328331 0.0023492929 -0.006053794 -0.00021507754 0.012983165 0.001185906 -0.004742194
-0.0036097183 0.0005397706 0.0066180807 0.003220601 0.014006911 0.00059414306 -0.005740497 0.010920471
0.011884184 0.0054956535 -4.3689506e-06 0.009458863 0.0011710227 -0.010904115 -0.010165056 -0.011283745
-0.0037899911 0.00042049764 0.0050319466 -0.0040742015 -0.0058462927 0.0041121375 -0.0026812826 -0.009043411
0.0028780787 0.02111434 0.0016089167 -0.0016026013 0.01500457 -0.0075444942 -0.0021186343 0.012838836
-0.00723742 -0.0024719448 -0.0027137434 -0.001609972 0.002939974 -0.0019023272 -0.0033424948 0.00814142
-0.0010126296 -0.0005357664 0.006831107 -0.0062009976 -0.0093850335 -0.012239171 0.0037074569 0.008129016
-0.0032770976 0.010847477 -0.009054705 -0.0049146786 0.0062556057 -0.0013268102 -0.0011022531 -0.000515827
0.00049149944 -0.00059363764 0.009118654 0.005166744 0.00031235575 0.009030503 0.008725742 -0.00573166
0.0010863673 0.003968976 0.009348784 0.012359455 0.01200977 0.002959351 -0.0018272677 0.0024697466
0.00596056 0.0038741666 0.00421816 0.0028538639 0.004439265 -6.0185386e-05 -0.00226813 -0.0011967449
0.0008700341 0.009528463 -0.009034341 -0.007807939 0.0013198765 -0.007020712 -0.01969602 -0.011407189
0.0021677986 -0.00062446017 -0.0017454915 -0.0036904807 -0.0051209643 -0.013458463 -0.0057579246 -0.004814606
-0.012436693 -0.05727068 0.015702873 0.010349583 -0.04886507 0.0059925513 -0.000562459 -0.035093457
-0.012841104 -0.0072031473 0.0495087 0.030504733 0.00801858 0.020214234 0.0406454 0.028396374
0.04270563 0.052088447 0.047632534 -0.01418678 -0.016296586 -0.013933066 -0.0108199995 -0.020588202
-0.018677406 -0.0071996935 -0.009816842 -0.014355108 0.019955378 0.029746406 0.0060605844 0.014993404
0.037885662 0.008834471 0.030730695 0.031636145 0.0020686558 0.03719816 0.018306743 0.009649558
0.026385367 0.01091937 0.013260465 0.04258027 0.01757494 0.03268244 0.010886978 0.022300467
0.015730225 0.0037023742 0.016976401 0.0122161135 -0.00947847 0.0034957342 0.007036819 -0.047385648
-0.027987283 -0.029800666 -0.050227303 -0.04329608 -0.06669931 -0.036168143 -0.059449993 -0.07757827
-0.017337177 -0.035098236 -0.046750616 -0.029132234 -0.071909174 -0.050010625 -0.041855372 -0.016389174
-0.0750419 -0.048664123 -0.025847869 0.0008100136 -0.11617381 -0.031099627 0.0013108407 -0.12357729
-0.0014797112 0.0005209785 -0.027752537 -0.073550306 -0.042305816 -0.053067338 -0.075053215 -0.110814735
-0.065213844 -0.026071012 -0.08171386 0.012770907 0.029584995 0.022951163 0.017759092 0.034098152
0.028057475 0.013562359 0.031102529 0.021646004 -0.06901531 0.0029578006 0.013012275 -0.09690371

momentum_buffer f4 [32]
00000000: 46dc 1036 5f2f 8836 6fb7 f7b6 384b bdb6
00000010: 2a0b 02b7 a9dc 7c36 96ca cb36 7b35 02b7
00000020: 2048 0d36 9499 da35 c840 91b6 ab48 ee35
00000030: fb2a d136 8b18 0537 acdf 6a36 941e d7b5
00000040: 2607 9ab6 4fc1 4db6 48a8 7133 487d 25b5
00000050: c1e2 c536 5edf f4b6 dbc4 3e35 f2b3 2cb6
00000060: 634a 3235 b467 0237 c684 8034 c1b6 bdb5
00000070: 37e4 36b6 0f5e 07b7 6968 f6b6 9c79 6b36
2.1585888e-06 4.0586306e-06 -7.382528e-06 -5.6413955e-06 -7.751203e-06 3.7679367e-06 6.0734556e-06 -7.761056e-06
2.105262e-06 1.6286963e-06 -4.3288783e-06 1.7753531e-06 6.233689e-06 7.933132e-06 3.4998911e-06 -1.6027648e-06
-4.59039e-06 -3.06599e-06 5.6265236e-08 -6.16496e-07 5.897455e-06 -7.29777e-06 7.106698e-07 -2.573474e-06
6.6418414e-07 7.772749e-06 2.3938463e-07 -1.4134786e-06 -2.7252952e-06 -8.068527e-06 -7.3435262e-06 3.5088515e-06

momentum_buffer f4 [32]
00000000: e8ff a23d 816c 2ebe 703e d0bb fe4d bfbb
00000010: ac1b 0bbd df76 a1bc 06d3 b53d fc42 0ebe
00000020: fd8b dc3d e07a 75bc 1047 633c f92b 713e
00000030: 023c 103d b762 d9bd d95b 903d 6641 853c
00000040: 7718 ac3e f6cb bbbd f665 5b3d de7c 96be
00000050: 56b2 073d 08ee 913d 8a3b 19bd a008 7ebc
00000060: 60bd 48be c512 083e 8361 f53c 423b 2cbe
00000070: 69b2 59bd 8848 16bc 58dc 0cbe 3367 eebd
0.079589665 -0.17033578 -0.0063550994 -0.005838155 -0.033961937 -0.019710002 0.0887814 -0.1389274
0.10768888 -0.014982909 0.013871923 0.2355193 0.035213478 -0.106145315 0.070487686 0.016266536
0.33612415 -0.09169762 0.053564034 -0.2939214 0.03312906 0.07125479 -0.037410296 -0.015504986
-0.19603491 0.1328841 0.029953724 -0.1681948 -0.05314866 -0.009172566 -0.1375593 -0.116407774

momentum_buffer f4 [32]
00000000: 1ead ee3d 8f2f 22be 4084 97ba 489f fe3a
00000010: 6649 cbbc 2095 63ba 41cc 7b3d 97e7 a4bd
00000020: d32e 883d e0a2 8c3c e46d c63c 2c63 893e
00000030: 88c8 c43b a7ad 38bd 7bdf 853d 0e24 8abb
00000040: 4250 2f3e b986 7bbd 70e0 f13c 7f11 07be
00000050: 7692 9d3c ae4b 1f3d 44d4 b9bc 10a9 b9bb
00000060: 5840 87bd cb73 983d de11 b83c f990 1cbe
00000070: 8672 c9bc 802e 3f3a 5afe dcbd ce14 77bd
0.11654113 -0.15838455 -0.0011559799 0.0019426132 -0.024815273 -0.0008681584 0.06147409 -0.08051985
0.06649556 0.017167509 0.024222322 0.26833475 0.0060053505 -0.045087483 0.06536766 -0.004215724
0.1712046 -0.06140778 0.029525965 -0.13190268 0.019234877 0.038890533 -0.022684224 -0.005665906
-0.066040695 0.07443961 0.022469457 -0.15289678 -0.024590742 0.0007293001 -0.10790701 -0.060322575
